dataset/models/PDAC_PDXph1_basal/model.pth (torch, 696702 bytes, 14 tensors)

tiles_emb.hidden_layers.0.weight f4 [128, 768]
00000000: c41a 3fbc 0f6f 46bc c352 14bc e484 81bc
00000010: ee94 a53c e750 1cbc ed6b 2fbd d6c2 9dbc
00000020: 4528 3cbc 3747 163d ef8c c3bc b33d e6bb
00000030: fb4f 1cbd 4e19 7ebb 7a0f be3b 78f4 553d
00000040: ffbe 64bc 5366 363c e8ea 6bbb 9405 04bb
00000050: 9728 c03b 71d7 e7bc 1d67 ef3c 0a47 d93c
00000060: 0102 18bd c7f0 253d 0fd3 793c 2bf9 933c
00000070: 6120 09bc 48b4 153a 6431 e7bc e3ad 633d
00000080: f7a3 d73c 0fe2 1b3c f951 9e3c 8bb6 713c
00000090: 0db7 d33b b16e 57bd 5147 86bc a8e5 ea3c
000000a0: 8662 e0bc 2688 a7bc 0234 133c 0975 243d
000000b0: a9d4 17bc a14a b43b a113 ecbc 73bf ac3c
000000c0: d1f4 e4bc 34b1 5cbb a880 4bbd 7812 9cbc
000000d0: e625 6cbb 3a97 7d3b 0a4c 37bc ea56 ce3c
000000e0: 10a5 28bd 5065 933c 5ef0 61bc 35d2 b4bb
000000f0: ab40 b93c 1737 f1bb 594a d03d cf41 573c
00000100: ba34 db3c ec54 da3c b318 39bd b7f5 a9bc
00000110: 4a5d 03bb bdfd 303d fdbb 14bc e090 fa3c
00000120: f9f4 d5bb a7fe b33c 60bf 21b8 e9cf fa3b
00000130: 12ad 253c bdcb 08bc 002c af3c a724 62bb
00000140: 87a7 de3c 0d2b 343d 3c2c f9bc 6040 b13d
00000150: 2907 753c 53f2 2fbd bf1b 2abb c640 c5bc
00000160: 468e 41bb d587 62ba c2a6 dc3b dc23 c93c
00000170: 24d7 143c a5de 5b3c 9cc3 033b d72b 0fbc
00000180: db03 e23c da9e 943c 234d 043b 2ff2 bd3c
00000190: 245e 83bc 9ffc c9bc 093d 3e3d 9d14 2bbd
000001a0: 4c7c 45bd 13f0 d3bc 7dba b9bc 4133 8ebc
000001b0: 7c93 ec3c 1223 ddbb a03d 443d 5226 663c
000001c0: 945b 3fbc 8641 1fbc 9cd7 113c f945 0dbd
000001d0: 1b94 143d 42a3 323c aef6 83bd c79a 8dbb
000001e0: 2229 1cbb 2289 96bc ec01 df3c cad6 29bd
000001f0: 20a5 21bd 84d4 7b3c faeb 55bb a0a4 053d
00000200: 75e3 f5bc 217e 573d 2077 563b c137 1b3d
00000210: f451 b5bc 2354 483d 70db 43bb b17b bb3c
00000220: 59fb 2d3c fe16 86bc 4dbd 8c3b 6326 5bbc
00000230: 734c 7dbc a2e8 e2bb cf22 7dbc 1679 bc3d
00000240: fcfc 373b e3fa 093a d0bf 5c3c 72ba 3e3c
00000250: f425 a33c 927c c9bb b86d 1fbd afb2 d0bb
00000260: 65a2 14bb 5a51 883d 9741 1e3d 5825 d5bc
00000270: 4a29 6e3c 4320 b6bc ea86 1abb 1ace 36bd
00000280: 909d cd3b fa8f 523d de52 813c c79a 93bd
00000290: da3d cf3c 080a 43bb fe19 47bd 5786 c7bc
000002a0: 0dc0 b23d c121 c8bc 270d e3bc 8ae5 ae3a
000002b0: cfa0 71bc de78 a73d 7c38 18bd ef04 e03b
000002c0: 88d5 7e3b d49b dbbc 5d8b e03c 2085 913c
000002d0: b94c dc3c 03de b03c a809 7a3c fe36 8dbc
000002e0: 1778 92bc 523e f13c 3a06 1d3d a523 98bc
000002f0: c074 54bd 3e57 81bc 5235 9c3c 74a4 713c
00000300: 0496 213d 1c21 543c ad34 30bd 8153 78bd
00000310: 8692 a2bc 78d7 fc3c f49d 083c 8cf2 48bd
00000320: 4b1c 993c a893 c6bc f16a f83c 8148 d63c
00000330: b58d 3ebd 7b50 f1bc 8865 923c e36a 8e3c
00000340: 1dfe 24bd e4d1 14bc af23 77bd 98ac 283d
00000350: 6b1d b9bd 5ab4 483c ad38 013c 04dc 353d
00000360: 4282 d3bc 1f2d 993c 4a5d d3bb 1e38 f73c
00000370: eee5 fd3c a7eb dabc 6ff5 8ebd 5cce f3bc
00000380: 8587 1c3b 54ea a13d c028 643d d6f0 77bc
00000390: 35a0 39bd b578 243d eb4d 0f3d 083a 57b9
000003a0: afd1 5bbd f0e3 a53b a7b3 ab3b a0c3 23bd
000003b0: 0040 0a3c 383a 0fbd e76a f8bc d467 bf3c
000003c0: ff9b cfbc 5f8d 2cbc 7584 883c 8395 fa3c
000003d0: d9a6 84bd b99e d73c 8ae8 3c3a abcb 103d
000003e0: 5afb e2bb 1fbc 8dbc 3f9e 993b c92a 223c
000003f0: 46eb 1d3d b7a5 5e3c 3932 caba 8364 13bc
-0.011664096 -0.012111439 -0.009052935 -0.015810438 0.020212617 -0.009540773 -0.042827535 -0.019257944
-0.01148421 0.03668901 -0.023870913 -0.007026398 -0.038162213 -0.0038772407 0.005800185 0.052235097
-0.013961553 0.011132794 -0.003599817 -0.0020144926 0.0058642137 -0.028300973 0.029223973 0.026523132
-0.037111286 0.040512826 0.015248074 0.018063148 -0.008369536 0.0005710763 -0.028221793 0.055585753
0.026323302 0.009514346 0.019326197 0.014752994 0.0064610303 -0.052595798 -0.016391428 0.028673962
-0.02739073 -0.020450663 0.008984568 0.040150676 -0.009267011 0.0055020605 -0.028817954 0.021087384
-0.027948769 -0.0033674957 -0.049683243 -0.019051775 -0.0036033331 0.0038694874 -0.011187563 0.025187928
-0.04117304 0.017992646 -0.013790218 -0.0055182227 0.022613844 -0.0073613035 0.10170431 0.013138249
0.02675854 0.026651822 -0.04518957 -0.020747049 -0.0020044618 0.043210734 -0.009078023 0.03058666
-0.006529447 0.021972014 -3.8563623e-05 0.0076541794 0.010112064 -0.008349356 0.021383286 -0.003450671
0.027179493 0.04398637 -0.0304166 0.08654857 0.01495532 -0.042955708 -0.002595648 -0.024078738
-0.0029534264 -0.00086414564 0.0067337463 0.024553232 0.009084497 0.013419782 0.0020105606 -0.00873848
0.027589729 0.018142153 0.0020187579 0.023186771 -0.0160361 -0.024656592 0.046444926 -0.041767705
-0.04821424 -0.025871312 -0.022671932 -0.017358424 0.02887892 -0.0067485655 0.047910333 0.014047222
-0.011679549 -0.009720212 0.008901503 -0.03449056 0.036274057 0.0109031815 -0.06443535 -0.0043214294
-0.0023828228 -0.018375937 0.027222596 -0.041464604 -0.039464116 0.015370492 -0.0032641874 0.0326277
-0.030015687 0.05261052 0.0032724813 0.037894968 -0.022133805 0.048908364 -0.0029885434 0.02288613
0.010619008 -0.016368385 0.0042950273 -0.013375851 -0.015460121 -0.0069247046 -0.015450194 0.09202783
0.0028074374 0.000526352 0.013473466 0.011641132 0.019915558 -0.006148883 -0.038922995 -0.006368957
-0.0022679802 0.066561416 0.03863677 -0.026018783 0.014536211 -0.02223218 -0.002357895 -0.044630148
0.0062748864 0.051406838 0.015786584 -0.07207256 0.025298048 -0.0029760618 -0.048608772 -0.02435605
0.08728037 -0.024430158 -0.027716232 0.0013343554 -0.014747812 0.081773505 -0.037163243 0.0068365256
0.0038884599 -0.026807703 0.027410204 0.017763674 0.026892053 0.021590238 0.015261091 -0.017238136
-0.017879529 0.029448662 0.038336016 -0.018571684 -0.051869154 -0.01578867 0.019068394 0.014748681
0.039449707 0.012947347 -0.043018986 -0.06062651 -0.019845258 0.030864462 0.00833844 -0.049059436
0.018690249 -0.02424033 0.030324431 0.02615762 -0.04652186 -0.029457321 0.01787068 0.017384952
-0.040281404 -0.009083245 -0.060336765 0.041180223 -0.09038814 0.01225003 0.007887048 0.044399276
-0.025818948 0.018698273 -0.00645033 0.030178126 0.030993428 -0.026723696 -0.069804065 -0.029761486
0.0023884487 0.07906023 0.055702925 -0.015133103 -0.0453188 0.040154178 0.034986418 -0.00020525616
-0.053666767 0.0050625727 0.005239922 -0.039981484 0.00843811 -0.03496763 -0.030324413 0.023364939
-0.02534294 -0.010531752 0.016664723 0.03058887 -0.06477136 0.026320802 0.0007206282 0.035350483
-0.006926936 -0.017301617 0.004688054 0.009897896 0.038554452 0.013589314 -0.0015426344 -0.008996132

tiles_emb.hidden_layers.0.bias f4 [128]
00000000: a4dd 9a3c 4465 e53c c854 c6bc 565e 323b
00000010: fbdc f1bc ecbd 053b f709 3a3b e9d4 dcbc
00000020: 4d09 55bc b3dc 1e3c dd2b 503d 8320 3bbc
00000030: 3e98 ecbc 1706 16bb 29ee 45bc 7383 9abc
00000040: edf2 f2bb bc95 f1bb 54a1 363d 9d0a ebbc
00000050: d344 02bc 5751 b6bc 2116 b8bb 08f0 adbb
00000060: 4f04 03bd 75f8 453c 7f87 27bd 81b8 523c
00000070: c8da 063d 2973 1f3a c887 71bc 1731 b5bc
00000080: 38b3 b6bc 0525 dabc ac4f bc3c 3fce cfbc
00000090: e344 f9bb 4540 15bc e25f d33c 4e1d 083d
000000a0: 299c 1c3c df46 c13a 7634 1d3d 3388 e8bc
000000b0: ed7f 983c ad33 d73c 4777 17bd 2919 223c
000000c0: 5b31 ecbc dcb0 83bc eeb9 ea3c 391b b63b
000000d0: 7ec1 46bb 2c41 603d 416e f93b 466e 863b
000000e0: 7305 bcbc aeb9 2abb 27c9 633c 11ba ec3c
000000f0: b347 c13c 2e87 cc3c da34 adbc 7df2 dc3c
00000100: ce98 a43c 352c c03c 4762 13bd ac53 20bd
00000110: 99a0 ea3c 80de ec3c c354 0fbc 57a6 3dbc
00000120: 2c42 b23c aaae 103c 5049 443c 588d d4bc
00000130: 84db ab3c 9173 60bc 4f1c 43bc c86d f0bc
00000140: a0d3 eebc 6ce0 ec3c 8e3a d23c 58bf a23c
00000150: 7d5a 4b3b 4836 5a3c a8c5 1d3d 8ff8 973b
00000160: de0e 353c cfdb aabc 7f44 ce3c 0720 a03c
00000170: fb0e 19bd e19e 3fbc 7a70 bc3c 56b1 0fbd
00000180: 8c2e 883a bc67 c73c 385c 283d 9040 22bc
00000190: 2b77 2a3c 8f33 873c f8ab 9e3c badf eb3c
000001a0: b6b2 17bd 1749 df3c 8fb8 bbbc 3080 58bc
000001b0: 950f d23c a6fb 563d f1b5 873c 1c32 18bd
000001c0: 4da1 db3a 6fd5 4b3c 3d37 823c 45ef c4bc
000001d0: 30ee c5bc 3c28 f83c deea 2f3b 4075 8ebc
000001e0: 979b 1cbd a11f f23c 72c6 e8bc 08c9 71bc
000001f0: 6658 813c 4bc1 35bc df8b 7fbc 3688 073c
0.018904515 0.028002389 -0.024210349 0.0027216873 -0.029524317 0.0020407392 0.0028387287 -0.026956992
-0.013002706 0.0096961735 0.05082308 -0.011421326 -0.028881188 -0.0022891813 -0.012080708 -0.018861508
-0.007414213 -0.007372586 0.04458745 -0.028691584 -0.007950979 -0.022255583 -0.0056178723 -0.005308155
-0.03198653 0.012083163 -0.040900704 0.012861372 0.03292349 0.0006082529 -0.014741845 -0.022118134
-0.022302255 -0.02662898 0.02298721 -0.0253669 -0.007607089 -0.009109561 0.025802556 0.033231072
0.009558716 0.0014745853 0.03838011 -0.028385257 0.018615687 0.026269758 -0.036978986 0.009893694
-0.028832128 -0.016075544 0.028653111 0.0055574444 -0.0030327733 0.054749653 0.0076120202 0.004102501
-0.022951817 -0.0026050615 0.013902939 0.028897317 0.02359376 0.024966802 -0.021143366 0.026971096
0.020092394 0.02345858 -0.035982396 -0.039142296 0.028641032 0.02891469 -0.008748236 -0.011575303
0.021760069 0.008830706 0.01198037 -0.025946304 0.020978697 -0.013699428 -0.011908605 -0.029349223
-0.029153645 0.028915606 0.025662687 0.01986663 0.0031029277 0.013318606 0.038518578 0.004637785
0.011050908 -0.020856766 0.025179146 0.019546522 -0.037367802 -0.0116955945 0.023002852 -0.03508123
0.0010389849 0.024341457 0.04110357 -0.009903088 0.010404388 0.016504077 0.01936911 0.028793205
-0.037035666 0.027256532 -0.022915153 -0.013214156 0.025642196 0.052486084 0.016566249 -0.037157163
0.0016756445 0.012441023 0.01589548 -0.024039874 -0.024161428 0.030292623 0.0026842873 -0.017389894
-0.03823432 0.029556097 -0.028414939 -0.014757402 0.015789222 -0.011093448 -0.015597313 0.008272221

tiles_emb.hidden_layers.2.weight f4 [128, 128]
00000000: 7974 483d 8bd0 8bbd 8c59 6a3d b714 42bd
00000010: d423 cdbd dcb9 123d b1bd eb3b 3bea 013d
00000020: 3678 a1bd 7269 93bd eb85 6b3d 219c 2b3d
00000030: 198a c43c 6937 acbd 7d22 733d c0f8 503d
00000040: 51a7 4ebd 6b3a 3cbd bcbd 1e3d 8f3f 463d
00000050: 39f9 6ebd d3e3 b6bd a939 6fbd 6201 10bd
00000060: c9bb 41bd 587f 1abd ffc1 123d 7445 343c
00000070: 39a0 c93b decd 863c 7681 0a3d 0875 adbc
00000080: e4a4 0c3d 4830 acbd d8c1 31bd d0bb 283d
00000090: c1b3 753d ef09 51bb b74c af3d 91ad d1bc
000000a0: 111c f93c 4631 85bc 2f4b 843d 1781 69bd
000000b0: a69f 713d 4742 5cbd 6474 973d 0d4b f13c
000000c0: accb 81bd be18 e7bc b6bf 953d f0ec 6a3c
000000d0: 80f1 9bbd 3352 693d 1d30 503d 2055 8ebc
000000e0: 3a53 803d 3b9b 44bd bb89 ce3d a678 a0bd
000000f0: 3ddd babd 23ac da3d 98b4 333d b58a f6bc
00000100: 2a7d c3bd 0b65 04bc 5e1d 8e3d 870e 8d3d
00000110: 9bd6 5c3d 4086 2ebd d9ce b3bd 3e1c 7c3d
00000120: ae9a 83bd 3f1d ca3d 7e28 b4bc 335f e6bd
00000130: 3ac2 f9bb b124 07bd 35ca 91bd dd1f e3bc
00000140: 9994 5b3d 0722 91bd b7b9 953d 7c30 3ebd
00000150: 0a42 0fbd 344b b73d 56c1 2b3d 00de 3cbd
00000160: 8a87 d9bc a0a7 2f3c 9e92 6bbc 967b 4e3c
00000170: d0da 863d 0395 c6bd 191c 8abc 7ee6 cfbc
00000180: 7ef1 2f3d c5a0 6c3d efcd c83d b0af 643d
00000190: 7e30 213d 0c42 95bd b3f5 03bd e3fe 5bbc
000001a0: 12ee e2bc 1a93 b43c 9a7e 683d ad92 433d
000001b0: 7217 dcbd 1ad2 5f3d f5d8 c3bd e71f 913d
000001c0: 3e09 b63c f8b0 dd3d 1888 babd 338e 97bb
000001d0: 4a43 a03d 513a c2bb f16a 0b3d fc2f 82bd
000001e0: 1581 1fbd 9e0b fa3b 8f48 2a3d 60de d5bd
000001f0: f9eb f13c c186 96bd 52d8 733c 686b b9bc
00000200: 4e1c 80bd 02c0 b4bc 23b4 05bd a1af 5cbd
00000210: adee 30bd 070a 993d 097f 2a3d 4e53 78bc
00000220: 9f89 453d ba53 6b3d ff56 873d 61f1 e5bc
00000230: 6c68 003d 3dc0 98bd 6a70 943c a6e6 2c3d
00000240: cf43 09bd 573b d7b9 921f 033c a159 943b
00000250: 4b4f d8bc 65fc 32bd e0f8 94bd 6d40 28ba
00000260: 01cb 3c3c 5c63 2c3b eb22 03bd 3651 0d3c
00000270: 71d2 febd fb27 48bd 17cb 873b 413b 48bc
00000280: cd66 50bd ac29 403d a402 9c3d d54e bd3d
00000290: 1fa0 9e3b 0cef 3fbd 964b 75bd f016 76bd
000002a0: cd79 e6bc 7c93 a63c 35c8 57bd be15 f33c
000002b0: 00e4 7a3b f601 4dbd f0a6 77bd 4232 9d3d
000002c0: 1988 ecbd abe1 bc3d a305 ab3c db4b 8dbd
000002d0: 0382 c1bd 3b89 6bbb f809 e2bd 7a39 933c
000002e0: 096f 67bd 10e0 46bd 311c 45bc 8ae8 7dbd
000002f0: ebe3 8bbd 6ae1 1a3c 9120 673d 568e 4c3d
00000300: 01bc 74bd 56fc 54bc b6d0 ccbc 2f24 ffbc
00000310: 628b 89bd 6e49 b93d 215c 233b face 80bd
00000320: ed41 e5bc 22af c83d d7f4 3dbd 065e f43c
00000330: ff13 6bbd 88d6 613d 8ed4 493d 7a5f 873d
00000340: 92fa 86bd 6945 83bd eea3 a13d 5a97 2a3a
00000350: e9b7 a6bc fcd5 cd3d 87a5 843d b3bc 33ba
00000360: 2e76 02bc 38a8 233d a846 27bd a94f c1bd
00000370: a4cf 5fbc 1117 3cbd 51c6 1f3d 36d1 66bc
00000380: b95b 70bc 5f9b 41bd 8f9f 7a3d 83e3 90bd
00000390: 9057 cabd d267 3f3c 8dab a53d 8989 0ebc
000003a0: 3428 6c3d ca6a e3bd c0c4 b33d 8a3d 86bd
000003b0: 240f 83bd 2c6b d63d 17f4 5ebd 0b0e a83c
000003c0: 6e55 f4bc 116f d9bc 9f9a 96bd 3293 85bd
000003d0: 57eb a73d 0777 b23d 7be1 a4bd be08 8bbc
000003e0: ca65 7c3a 26d1 cdbd 1e32 723c ecfb 36bd
000003f0: 6cc1 213a 59a9 a4bd 2652 8e3b db38 8fbd
0.048939202 -0.06826886 0.057214305 -0.047383036 -0.10016599 0.03582178 0.007194244 0.03171752
-0.078842565 -0.071978465 0.05750076 0.041896943 0.023991631 -0.08409006 0.059359062 0.051018476
-0.050452534 -0.04595415 0.038755164 0.048400458 -0.058343146 -0.08930173 -0.0584046 -0.03515757
-0.047298227 -0.0377191 0.03582954 0.011002887 0.006153133 0.016455587 0.03381487 -0.021173969
0.03433694 -0.084076464 -0.043397754 0.041194737 0.05998588 -0.003189679 0.08559554 -0.025595458
0.03040889 -0.016258847 0.06459653 -0.057007875 0.058990143 -0.053774145 0.073952466 0.029454732
-0.063376755 -0.02821004 0.073119566 0.014338717 -0.07614422 0.056963157 0.050827134 -0.017374575
0.06265874 -0.0479996 0.10084864 -0.07835512 -0.09124229 0.10677364 0.0438734 -0.030095438
-0.095453575 -0.008080731 0.06939195 0.068875365 0.0539156 -0.0426085 -0.087796874 0.06155037
-0.06425987 0.098688595 -0.021991964 -0.112486266 -0.0076220306 -0.032993976 -0.07118646 -0.027725155
0.05360851 -0.07086568 0.07310813 -0.046432957 -0.03497509 0.08949891 0.041932426 -0.046110153
-0.026553888 0.010721117 -0.014378218 0.012602707 0.06584704 -0.096963905 -0.016859101 -0.025378462
0.042954914 0.05777051 0.09804904 0.05583161 0.039352886 -0.07287988 -0.03221674 -0.013427469
-0.027701411 0.0220428 0.05676136 0.047747303 -0.10746659 0.054643728 -0.09562866 0.07086163
0.022221204 0.1082477 -0.09107989 -0.0046251058 0.07825334 -0.005927362 0.034037534 -0.063568085
-0.03894146 0.0076307794 0.041573104 -0.10442805 0.029531466 -0.07349921 0.014883118 -0.022634223
-0.06255399 -0.022064213 -0.032642495 -0.05387843 -0.04319637 0.07472616 0.041625056 -0.01515658
0.04822695 0.057452895 0.0660839 -0.0280692 0.031349584 -0.074585415 0.01812001 0.04221215
-0.033511933 -0.00041052207 0.008003132 0.004527286 -0.026404997 -0.043697733 -0.07274032 -0.00064182916
0.011523009 0.002630434 -0.032015722 0.008625319 -0.12442482 -0.048866253 0.0041440832 -0.0122211585
-0.05087929 0.04691474 0.07617691 0.09243552 0.0048408653 -0.046858832 -0.059886537 -0.06008047
-0.028134251 0.020333998 -0.052681167 0.029673453 0.0038282871 -0.0500507 -0.06046194 0.076756015
-0.11549396 0.0922273 0.020876711 -0.06899234 -0.09448626 -0.003593995 -0.11037058 0.017971743
-0.056502376 -0.048553526 -0.012030647 -0.061989345 -0.06830581 0.009453157 0.056427542 0.04994043
-0.059749607 -0.012999615 -0.025001865 -0.031145183 -0.06716038 0.09047209 0.002492674 -0.06289478
-0.027985537 0.09799029 -0.046376076 0.02982999 -0.057392117 0.055136234 0.049274974 0.066100076
-0.06590761 -0.06409723 0.07892595 0.00065075385 -0.020351367 0.1005058 0.06476884 -0.00068564265
-0.007962747 0.039955348 -0.040838867 -0.09439022 -0.013660345 -0.045920435 0.03900749 -0.014087966
-0.014670306 -0.047267314 0.061187323 -0.070746444 -0.098799825 0.011682468 0.08089361 -0.008699783
0.05765553 -0.11104353 0.087777615 -0.065547064 -0.06399372 0.1046966 -0.054432 0.020514509
-0.029825892 -0.026542218 -0.073537104 -0.06522216 0.081991844 0.08714109 -0.080508195 -0.016971942
0.0009628205 -0.100496575 0.014782457 -0.044673845 0.00061704847 -0.08040113 0.004343289 -0.06993266

tiles_emb.hidden_layers.2.bias f4 [128]
00000000: 403a 69bd 94fc ae3c 2059 7ebd 0dd0 4f3d
00000010: b6d2 9d3d 115f 4c3d b8a3 6fbd 54c9 85bc
00000020: 5146 4b3d 14c7 c33c 65aa c13b 7058 eabc
00000030: b14d 6d3d 30af 1cbc 701c 98bd c398 d83c
00000040: c1f6 ba3d 583e edbb 7e7f 523d c4b3 82bd
00000050: bd33 523d 09c5 5bbc 2311 f5bc a771 583d
00000060: 4a18 ba3c b3fb 6fbc 0c75 533d a499 33bc
00000070: ba68 e33b 3ae6 4cbd f999 233d 7f90 dc3b
00000080: 0feb 483d f563 f2bc 377e acbc ce59 edbb
00000090: 2da7 cbbb 5a41 8a3d 2e2f 4d3c ba37 e23c
000000a0: 92bf a0bc 89d1 64bb 9439 123d 5d5d 93bd
000000b0: ce6d aabd 5ab6 03bd aadd 6fbc 2dc0 2cbb
000000c0: 708c 523d 6633 023d 546a 2c3d 762c 36bd
000000d0: 32d2 923d 8b98 b23c fe0d b43c 641f 73bc
000000e0: 8815 29ba b91e d13c a162 9dbd d462 c43d
000000f0: 9a37 2fbc 37a9 6cbd 6e34 b63d b0ab 5fbd
00000100: b8e0 d83b fb77 77bd b35e 52bd 6fba f73c
00000110: e832 5a3d eb60 a3bd 88e6 f13c 3684 5cbc
00000120: c38f d43c a52d 3a3c 0059 a63c 6f91 863d
00000130: a0c8 b1bd 07ab 03bd 8640 983d 702f a8bd
00000140: 9443 9b37 438f 8ebd 3934 dfbb 7a7d 95bd
00000150: e614 66bb 198a c8bd 536a cebc 7f97 4c3d
00000160: d2c9 acbd f2e3 7fbd 6a1a 98bd 6c53 f6bc
00000170: 0649 05bc 585f 85bd 7651 fabc 0424 82bb
00000180: 8dd9 7b3d 9cc5 b03d ca2b 433d e8e6 29bc
00000190: a060 93bd 7923 52bc 3445 03bd a8dc 90bc
000001a0: 4dce 3e3c af8b b1bd 6e39 b53c bd54 1e3d
000001b0: 6f72 9f3d 9cdc 733d 4484 023d 3266 dbbc
000001c0: 8c78 c9bb 7bac 623d e8ed 853d 06ab 6c3c
000001d0: 43d3 1dbd 99c0 0f3c 7c37 68bc 8397 ec3c
000001e0: 3b04 76bd a6e8 a23b 1d5b 9f3d cc37 8b3d
000001f0: 4f4d 7ebd 3a26 853c df8b 84bd 6ffb 30bc
-0.056940317 0.021360673 -0.062096715 0.050735522 0.077062055 0.04989535 -0.058505744 -0.016331352
0.049627606 0.023898639 0.005910205 -0.028606623 0.05793542 -0.009563252 -0.07427299 0.02644003
0.09129096 -0.007240098 0.051391117 -0.06381944 0.051318873 -0.013413676 -0.029915398 0.052842762
0.02271666 -0.014647412 0.051625296 -0.010961924 0.0069399746 -0.05002425 0.03994176 0.0067310925
0.049052294 -0.029588679 -0.021056278 -0.0072433716 -0.0062149973 0.06750746 0.012523456 0.027614463
-0.019622598 -0.0034914932 0.035699442 -0.07195542 -0.08321725 -0.032156326 -0.014640251 -0.0026359663
0.051403463 0.0317873 0.04209359 -0.044475995 0.07168998 0.021801254 0.021979328 -0.014839027
-0.0006450047 0.025527345 -0.076848276 0.095891625 -0.010694409 -0.057778563 0.08896719 -0.054607093
0.0066185854 -0.060417157 -0.051359843 0.030240266 0.053271204 -0.0797747 0.029528871 -0.013459256
0.025947457 0.011363422 0.02030611 0.06570708 -0.08680844 -0.032145526 0.07434182 -0.08212173
1.8508908e-05 -0.06960919 -0.0068116453 -0.072993234 -0.0035107671 -0.09791965 -0.025197184 0.049949165
-0.08436932 -0.062473245 -0.07426913 -0.030069076 -0.008135086 -0.06512326 -0.030556422 -0.0039715786
0.06148677 0.08631441 0.047649182 -0.010369994 -0.07196164 -0.01282584 -0.03204842 -0.017683342
0.011645866 -0.08669221 0.022122111 0.03865503 0.07785498 0.05953656 0.03186442 -0.026782129
-0.0061484035 0.05534027 0.06539518 0.014445072 -0.038531553 0.008773946 -0.014173385 0.02888084
-0.06006263 0.0049715815 0.0778105 0.06797752 -0.062085446 0.01625358 -0.06471991 -0.010802134

attention_layer.att.weight f4 [128, 128]
00000000: 19eb 8f3d a18b 7d3d df8d 8dbd 3476 54bd
00000010: 38a9 06bc ee86 c3bc d48c 2dbd f796 943d
00000020: 103e dc3c 6386 32bc 85af 88bd e5cc 35bd
00000030: 0dad 21bd 3bd8 c93c 6117 1cba 77ba 9dbd
00000040: 4c16 06bd 580a 01bd fcd7 a5bd d152 d7bd
00000050: 16ba 4c3d 9801 6a3c ff2e 44bd 4aae 033d
00000060: 79b1 243d 1ed0 11bd f2ef a53c 5796 ddbd
00000070: b15d 783d d1ab f5bc 467b 283c 8e25 b23c
00000080: 945c ee3c f740 b2bd 042f b43d 2b9b 20bd
00000090: 78d6 7c3c 1c6e fc3b c5d7 e3bc f815 7cbd
000000a0: 99ab 62bd 127f 8dbd 82ef 0fbd d3a4 7abd
000000b0: 5b2c ab3d d518 aabc 8833 85bd e7b2 993d
000000c0: ee69 413d a063 19bc 0b2a 013d 54b2 07bd
000000d0: 26c3 abbd 27ee 12bc b752 81bd e59c 223d
000000e0: 0f1f 9f3c 7606 b23d 2688 123d 074a cbbc
000000f0: e357 533c c19a d8bd ec8e 32bd daa2 8ebd
00000100: cde1 703c 9640 8b3a d578 82bd e719 2fbd
00000110: 7cba 82bd 5ba4 933c 3f41 52bd 0c7f 6f3d
00000120: 7bc8 ad3d 2b60 babd 8577 023d 1eec 8f3d
00000130: 18f8 0dbd 64ec e43b ebfc a83c d58c 19bc
00000140: ab31 863d da91 6d3d de81 8dbd 3e89 c63d
00000150: 7892 383c 9b51 5d3d 5988 383d 58bb 333d
00000160: eabe 9f3d e90e 783d ff52 463d dfdd 4c3d
00000170: e801 e13b c359 a23c dea0 1dbd a538 013d
00000180: 533d 25bd 7952 8c3d e990 92bd acf2 893d
00000190: 496f 173d 8596 81bd 27c8 24bc cf7b 0ebd
000001a0: 6429 303d 9551 a93c db6a 363d 3177 50bd
000001b0: 8356 e83c 9974 df3c 70c0 b0bb b541 7c3c
000001c0: 39c3 c93b cba0 a3bc 075f 10bd 6bdd 1ebc
000001d0: 9c99 b4bd 9c89 73bd 2bd8 f83c f43c 7cbd
000001e0: aaec 69bc d18d d43c ff16 69bd 474c bcbc
000001f0: 1a78 9d3d e2a9 7ebd 1c9e 66bd 8476 223c
00000200: de9b 7b3c bc45 403d f443 2fbd f95d e53c
00000210: dbe3 9d3d 7091 5cbd 7c58 2fbd 64ff 3ebd
00000220: 12ff 20bd 508d fabc 62b4 793d d244 51bd
00000230: f00f 283e 6644 b03c a98d 8cbd fedd 61bd
00000240: 7b8f 6fbc 64cf 2abd 76cc 9d3d 0ae0 3dbd
00000250: 75f5 8e3d ae2b 953d a065 433d ced3 9c3d
00000260: 390c 203d eff7 1e3d c571 ad3d 190f f63c
00000270: 7b78 823d 4084 8dbd 1553 ae3d d2c0 e53c
00000280: c4d6 2d3d 78a6 b13c 8f28 ddbd 7649 9c3d
00000290: d623 2f3d b981 a83c d2a7 a73c f253 043c
000002a0: 9cac 013d deeb 69bd 9cc4 d23d 9767 973d
000002b0: af92 4bbd bff3 073d 4265 23bd 8e01 753d
000002c0: bb81 42bd 6954 6c3d 1327 0d3c f703 80bd
000002d0: 6921 863d 0067 76bc 9d5d 6a3c b125 46bc
000002e0: 5551 ffbc f36b 9dbd 89c1 8cbd 276a 523d
000002f0: 4bf6 a73d 6083 d03d ac38 c63d 6564 cfbc
00000300: 0ece 11bd 89d6 09bd 5512 3d3c f2cc 70bd
00000310: 0b7c 27bd aa8d a5bb cb7e 23bd 17fc 8abc
00000320: 0a4b 293d 4584 513c a460 14bd e2cb 283d
00000330: 39c4 d73c ecac 903c 1395 8bbd 62ec 4b3d
00000340: adc8 5b3d 49a2 c7bb 99d5 20bd 66d4 b43b
00000350: 93fb 55bc 9c35 223d c22a c43c a1b3 b63d
00000360: e8f0 c93d 576a 913d 242d 8bbd 0d55 193d
00000370: 782a aabd 293b de3d 66e6 b13d f041 c23d
00000380: b6cc 6e3d 2c0b dc3c fd73 5f3d e56c bd3d
00000390: ed45 7c3d 6cd6 8f3d 20da 6a3d 1406 c93d
000003a0: fc80 bbbd 2ea2 1dbc 9223 82bc aec9 ae3d
000003b0: bdd1 ad3d 6064 6dbd ce9d 803d b27e 02bc
000003c0: 340c c33d ec8f 923d 298d 613c 449f 19bd
000003d0: 1011 213d c0ae 823d cf4a b03c a615 a2bc
000003e0: ed01 27bd 6c49 da3d 727a 3cbd afdc 783d
000003f0: e978 913c 25de efbd 3f23 62bd 1de5 2dbc
0.07027263 0.06190074 -0.069118254 -0.05187054 -0.008219056 -0.02386805 -0.042370632 0.07255357
0.026885062 -0.010896298 -0.06674103 -0.044384856 -0.039471675 0.02463924 -0.00059544115 -0.07701581
-0.032736108 -0.031504005 -0.080978364 -0.10513843 0.049982153 0.014282607 -0.04789638 0.032148637
0.040208314 -0.035598867 0.020256016 -0.10819691 0.060636226 -0.029989155 0.010283297 0.021746423
0.029096879 -0.08703797 0.0879803 -0.03921048 0.015431993 0.0077035557 -0.027812848 -0.06154439
-0.05533943 -0.06909002 -0.03514052 -0.061192345 0.083580695 -0.020763794 -0.065039694 0.07504826
0.047220163 -0.009362131 0.031534236 -0.03312905 -0.08386831 -0.008967913 -0.06314605 0.039700408
0.01942399 0.086926386 0.035774373 -0.024815572 0.012899372 -0.10576392 -0.043593332 -0.06964655
0.014702273 0.0010624107 -0.06370703 -0.04274931 -0.06383225 0.018022707 -0.051331755 0.05847077
0.08485504 -0.09100374 0.031852264 0.07027458 -0.03466043 0.006986188 0.020628413 -0.009371956
0.06552442 0.058000423 -0.06909536 0.096941456 0.01126539 0.054032903 0.045051906 0.043879837
0.07800086 0.060561094 0.048418995 0.05001628 0.0068666823 0.019818192 -0.038483493 0.03154816
-0.040341686 0.06851668 -0.07156546 0.06735739 0.036971364 -0.063275374 -0.010057486 -0.03478604
0.043008223 0.020668784 0.0445355 -0.05089492 0.028361565 0.027277278 -0.005394034 0.015396525
0.0061573056 -0.019974133 -0.035246875 -0.009696345 -0.08818361 -0.059457406 0.030376514 -0.061581567
-0.0142776165 0.02594653 -0.056906696 -0.02298559 0.07688923 -0.06217373 -0.05630313 0.009915952
0.015356986 0.046941504 -0.042789415 0.027998911 0.077094756 -0.053849638 -0.042808995 -0.04663028
-0.039305754 -0.030584961 0.060963042 -0.051091023 0.1641233 0.02151699 -0.06862957 -0.05514335
-0.014621611 -0.04170169 0.077050135 -0.04635624 0.06980411 0.07283722 0.04770434 0.07657586
0.039074156 0.038810667 0.084689654 0.030036496 0.06370636 -0.0690999 0.085119404 0.028046045
0.042441145 0.021685824 -0.107987516 0.07631199 0.042758785 0.02056967 0.020465765 0.008076655
0.031658754 -0.057109706 0.102914065 0.07392805 -0.049700435 0.03319144 -0.03989149 0.059815936
-0.047487002 0.057697687 0.008615273 -0.06250756 0.06549341 -0.015039206 0.014304546 -0.012093947
-0.031166712 -0.07686605 -0.068728514 0.051370766 0.082012735 0.10181308 0.09678778 -0.025316427
-0.0355969 -0.033651862 0.011540015 -0.0587892 -0.04088978 -0.005052288 -0.03991584 -0.016965909
0.04133133 0.012787883 -0.036224976 0.041210063 0.026338683 0.01766058 -0.06815543 0.04978598
0.053658176 -0.006092344 -0.039266203 0.005518484 -0.013060468 0.039601907 0.02394617 0.0892098
0.09860402 0.07100361 -0.06795719 0.037434626 -0.083088815 0.10851128 0.08686523 0.09485233
0.058300696 0.026860796 0.054553974 0.092492856 0.061590124 0.070233196 0.057336926 0.098156124
-0.09155461 -0.009621186 -0.015886102 0.08534561 0.0848727 -0.057957053 0.06280099 -0.007964777
0.09523812 0.07156357 0.013766565 -0.037505403 0.039322913 0.06380987 0.021520047 -0.019785713
-0.04077332 0.10658535 -0.04601521 0.060757335 0.01775785 -0.117122926 -0.055209395 -0.010613707

attention_layer.att.bias f4 [128]
00000000: ca1f a33d f60f 1c3d 445e 8a3d 7d20 fabc
00000010: ff91 03bd d1db ae3d 7df5 a93c f979 fcbc
00000020: 902e 6dbd 0eac 41bd 744c 043b e919 123d
00000030: c3c0 b13d 8a30 e8bc 7a2f 8db9 9700 cc3b
00000040: c637 d33c f4ac 303c 6164 75bd 6d8c 14bb
00000050: beed 993d 07c5 e33c 0f4f 943d 3b62 14bd
00000060: e729 f53c 31dc 8f3d ad7d 73bd f88f d1bc
00000070: b36b dabd e7b3 efbc a0c2 86bd 8e69 93bd
00000080: 78db 153d 80f3 2dbd 1d6b 853d e0bb b43d
00000090: d527 b63c ee30 963d 3075 a2bd d26a 5f3d
000000a0: f880 d5bd 8c0d 673d b7dd 4d3b dd28 963c
000000b0: 83a4 2bbc 6a29 70bc 83a9 8d3b ec2a ac3d
000000c0: 02ea 5abd 5d89 9c3d 82e0 a8bd b8ca 9e3d
000000d0: b03c 903d e368 233d 2e24 59bd ffa9 76bd
000000e0: 98d0 843d fe4c 00bd 4cd9 823d b222 7bbd
000000f0: 2e3a 47bd b62e a73b d072 8d3d 0f3a 6e3d
00000100: 8aaa bd3c 281c e73c 6799 9d3d ab4b 473d
00000110: 08cb ca3c 06f8 8a3d bb8c 0dba 5ba1 733d
00000120: fe88 bd3d e0a3 9f3d 8b0c 8d3d 8bd4 963c
00000130: 562e c23d 6e05 86ba eb03 2a3d 10ed b1bc
00000140: 1ffe be3c aa4a 79bd 1c11 f4bb 5cb1 b0bd
00000150: d233 143d 60f0 873c e563 963d 7c44 babd
00000160: 584f adbc f121 483d 6d27 63ba af00 6cbd
00000170: 2c64 75bd 22ee 763c e9db 9fbc 0016 6bbd
00000180: 9a08 3fbc f8ef c4bb 0253 223d afe9 91bd
00000190: 8f55 c3bc 9ef9 1fbd a63d babc 7f55 dc3c
000001a0: 556c 143c 04af 41bd 07ce d5bc 4ef3 49bd
000001b0: 44c6 7f3d 036d 11bd 200f a2bd d895 af3d
000001c0: 1340 17bd 3c28 96bd 79d4 65bd 762d 683c
000001d0: 642f 36bd bf50 21bd 896e 1f3c 35ec 6d3d
000001e0: 5cdc 963d dd44 893d 0abe 04bd 1b93 1cbd
000001f0: 7aac f03c 870b e03b b98e 44bc 090e e33d
0.07965048 0.03810116 0.06756261 -0.03053307 -0.032121655 0.085380204 0.02074694 -0.03081988
-0.057905734 -0.047283225 0.0020187171 0.03566924 0.086793445 -0.028343458 -0.00026928989 0.0062256563
0.02578343 0.010783423 -0.059910182 -0.0022666708 0.07516049 0.02780391 0.07241642 -0.036226492
0.029927207 0.0702442 -0.059446026 -0.025581345 -0.10665073 -0.029260589 -0.065800905 -0.07197867
0.036586255 -0.042468548 0.06514571 0.08824897 0.02223579 0.07333551 -0.07932508 0.05454523
-0.104249895 0.056409404 0.003141267 0.018330032 -0.010476234 -0.014658311 0.004323186 0.08406624
-0.053445823 0.076433875 -0.082459465 0.07753509 0.07042825 0.03989495 -0.05301302 -0.060220715
0.064850986 -0.031323425 0.06389102 -0.061312385 -0.04863947 0.005102004 0.06906664 0.058160838
0.023152608 0.028211668 0.07695275 0.048656147 0.024755016 0.06785588 -0.00053996936 0.059480052
0.09254645 0.077949286 0.06887158 0.018411895 0.09481494 -0.0010225007 0.041507643 -0.021719486
0.023314534 -0.06086222 -0.0074483287 -0.086275786 0.036182232 0.016594112 0.07343272 -0.090950936
-0.021155998 0.048860494 -0.00086652377 -0.05761784 -0.059909984 0.015071424 -0.019514041 -0.057394028
-0.011659766 -0.006010052 0.039629944 -0.0712465 -0.023844508 -0.039056413 -0.022734474 0.026896236
0.0090590315 -0.04728605 -0.026099218 -0.0493043 0.06244494 -0.035504352 -0.07913041 0.08573502
-0.03692634 -0.07331893 -0.056110833 0.014170995 -0.04447879 -0.039383646 0.0097309435 0.058086593
0.07366249 0.06702588 -0.032407798 -0.03822623 0.029379118 0.0068373117 -0.011996918 0.11086661

attention_layer.gate.weight f4 [128, 128]
00000000: fe19 303d 4392 233d ad52 bcbd adc0 0ebd
00000010: 2c85 5b3d 4c06 ebbd 8f81 7ebc f6cd 753d
00000020: aa6e 3eba 8609 89bc eda9 c13d 868c a23b
00000030: ecc6 d83c ebda 273c 2552 25bd 4e69 8f3b
00000040: d706 0fbd 1637 4f3d ef6e 0d3d 0571 993d
00000050: 3554 233c d210 46bd c216 97bd 7993 a63c
00000060: 75c6 7cba fca1 b7bd c5db 5c3c 2ec5 043d
00000070: b029 893b 29fa 283c 7a45 c83d 7490 0b3d
00000080: 9ed5 a2bc bead 5abd d0dc e8bb ad90 b9bd
00000090: 530c 183d b33e 13bd 3649 ebbc de81 823d
000000a0: c60d 483b ea62 46bd a92b 61bd 35cd 81bd
000000b0: 5c56 7cbd d29b cdbc c523 3fbc 5d0a a83d
000000c0: 7cc6 ce3d 4651 c1bd 2e35 5bbd 7883 03bc
000000d0: 9b5b c53d 1a93 c3bd 62c5 68bd 2597 763d
000000e0: 39c8 69bb f910 e4bc dce7 273d d8f0 83bd
000000f0: f977 12bc db89 223d 7de2 4ebd 75ed 56bd
00000100: fd17 3abd f619 80bd e91b f93c 92fa 1d3d
00000110: e20b b6bd 1393 5fbd b488 6c3d 4997 d6bd
00000120: 30ac cdbd e338 853d 8368 c3bc 5d8d 973b
00000130: 2d33 debc f6b1 5e3d 9cee 3f3d 93a5 41bd
00000140: b522 b0bd aa51 c83c a873 273d a356 bcbc
00000150: bd6e 9ebd c524 953d ceaa d1bc 9633 183d
00000160: 291c 5c3d 21ee 3b3b 21dd ae3d 2ad0 483c
00000170: 7e5c 20bd 4784 38bc 0b0c 003c d8a1 0cbd
00000180: ab26 913d fde0 55bd 58a0 68bd b629 56bd
00000190: 3b22 e23d 06cc 8f3d 9c81 b43d d651 7abd
000001a0: 4e6f 7fbd 2ce6 ab3d 4a58 633b 8ab7 883b
000001b0: bb9c bb3d b49a 15bc 4599 d33d cbee 04bc
000001c0: 5034 d93d 0f4a 60bd 7e2a 873c 633b 9dbd
000001d0: 3e14 cfbc 51ad efbc 0938 1e3d 0033 42bd
000001e0: c58d cdbc a662 41bd e01f 8a3d f921 3bbd
000001f0: 11e9 00bc 4809 3abc 3230 293c 2aad d0bd
00000200: 9dfc d63d 8988 6a3d d155 cdbb ac99 663c
00000210: 8227 003d 1a76 04be 0517 a3bd da07 c9bc
00000220: d36e 1a3d bfb1 39bd 322d 063e 492b 11be
00000230: 3627 bd3d 4b2a 1abd b01c b33c 0cb7 a93c
00000240: f1ae b63d fae5 1cbd 2b9c 933d 6416 9d3d
00000250: 090c bebc f3ae e03c 6bb8 f0bc f4c0 043b
00000260: 3b51 96bc 54f8 4a3c 81e6 b93b 9197 9c3b
00000270: 35b7 22bd b599 c03d 0e69 863d 65f4 dabd
00000280: 7bdb aaba 77ad 523d 8c8b cc3c 78eb 55bd
00000290: c04f 783c 38c5 d33d 088f fcbc 8b1f 6ebd
000002a0: 8303 703d 1431 1abc 3fde cf3d 83a5 8bbd
000002b0: 9be6 e53c e49c c63c e398 9ebc 45c3 3bbd
000002c0: 5916 d83d 608e 75bd 5a3d 06bc df01 93bd
000002d0: c0ee 303c f57c b6bd 832c 2abd cd47 2d3d
000002e0: 4df2 a03d b972 8bbd abf8 cbbc 4337 883c
000002f0: 848b 903d 890a 00bc 6162 203d 2c1c c53b
00000300: be3f 313d 6a30 1b3c 3719 80bd 19a4 2d3d
00000310: 9143 5f3d 4384 0fbd 80da fb3b d8e8 9abd
00000320: 52bb 78bd a5f1 82bc 67c4 aa3d 086d 463d
00000330: ebc4 81bd 276d 1c3e bf14 c3bb 3b88 01bd
00000340: 0f8c 553d 3c9b 63bd 395a 123c a83e 983b
00000350: aca6 f2bc fa6b 303d 4cad 3d3c bf9d ab3d
00000360: bf6b 89bd cecf 7abd c6bf 213d 50d3 a2bc
00000370: f87f b9bd fcfa 3e3d 9d50 fc3d 3cf5 2abd
00000380: 5ace b9bd 1aeb 92bd ffd0 82bd 5537 193d
00000390: 355f f53c a070 1a3d 1bba c63c 915c 24bc
000003a0: 4fff 58bd 1780 46bd 4089 f7bd 13ba 9b3d
000003b0: e82f 013d e2fe f5bd 73f6 4cbd d299 87bc
000003c0: bc15 c93d a1ac f73d 8714 ea3c f411 afbd
000003d0: c4ca 8f3d a197 58bd 08f9 a53c b07e a4bd
000003e0: 0706 35bd 692f 823d 3ad0 6a3c 35dc 253c
000003f0: 01e8 60bd 33f3 78bd bc91 eabc c31b 2c3d
0.042993538 0.039934408 -0.09195457 -0.03485172 0.0535938 -0.114758104 -0.015533819 0.060010873
-0.0007264415 -0.016728174 0.09456239 0.0049605994 0.02646204 0.010245065 -0.040361542 0.004376567
-0.034918632 0.050589643 0.034529623 0.0749226 0.009968807 -0.048355885 -0.073773876 0.020333992
-0.00096426095 -0.08966443 0.0134801315 0.032414608 0.0041858777 0.010313549 0.097788766 0.034073308
-0.019877251 -0.05338835 -0.007106401 -0.09060798 0.03712113 -0.035948467 -0.028721433 0.063724265
0.0030525788 -0.048434176 -0.05497328 -0.06337968 -0.061605796 -0.025098715 -0.011666243 0.08205102
0.10096452 -0.0943933 -0.053517513 -0.00802695 0.09636613 -0.09549542 -0.056828864 0.060202736
-0.003567232 -0.027840124 0.040992603 -0.06442422 -0.0089397365 0.03968225 -0.050508965 -0.05247255
-0.045433033 -0.06254952 0.030408816 0.03856904 -0.08888985 -0.05458362 0.057747558 -0.10478074
-0.10042608 0.06504991 -0.023853546 0.004625006 -0.027124012 0.054368936 0.046858415 -0.047277045
-0.0860037 0.024453003 0.040881783 -0.02299053 -0.077359654 0.07282404 -0.025594141 0.03715857
0.053737793 0.0028675871 0.08538271 0.012256661 -0.039150707 -0.011262006 0.007815371 -0.034334034
0.070874535 -0.05221652 -0.05679354 -0.052285872 0.11041685 0.07021336 0.088137835 -0.0611132
-0.062362008 0.08393511 0.0034690076 0.00417227 0.09160753 -0.009131122 0.10331968 -0.008113573
0.10605681 -0.054758128 0.016499754 -0.07677343 -0.025278207 -0.029257448 0.038627658 -0.04741192
-0.025092015 -0.04721322 0.06744361 -0.045686696 -0.007868067 -0.011354752 0.010326432 -0.101892784
0.10497401 0.057259116 -0.0062663336 0.014074724 0.031287678 -0.12935677 -0.07963375 -0.024539877
0.037703346 -0.045335528 0.13103178 -0.14176668 0.092359945 -0.03763799 0.021864265 0.020717166
0.08920086 -0.03830526 0.07207521 0.07670286 -0.023199098 0.027427172 -0.029384812 0.002025661
-0.01834928 0.012388308 0.00567323 0.0047788103 -0.0397255 0.09404317 0.06563006 -0.10691146
-0.0013035381 0.05143496 0.024968885 -0.052226514 0.015155733 0.10340351 -0.030829921 -0.05813555
0.0585971 -0.009411115 0.10149812 -0.06818678 0.028064063 0.024244733 -0.019360011 -0.04584052
0.105511375 -0.059950233 -0.008193338 -0.07178091 0.01079911 -0.089105524 -0.041546356 0.042304803
0.07858715 -0.06808991 -0.024898848 0.016627913 0.070578605 -0.007815012 0.03915632 0.0060153212
0.04327368 0.009471992 -0.06254809 0.042392824 0.054507796 -0.035038244 0.0076859593 -0.07563943
-0.060725518 -0.015984366 0.08338242 0.048443824 -0.06336387 0.15276013 -0.005953401 -0.03162406
0.052135523 -0.055567965 0.008932644 0.004646141 -0.029620491 0.043071724 0.011576962 0.08379697
-0.06710004 -0.061233334 0.03948953 -0.019876152 -0.09057611 0.046626076 0.12320063 -0.04173778
-0.090725616 -0.07173748 -0.06387519 0.037406284 0.029952625 0.037705064 0.024258664 -0.010031835
-0.052977856 -0.048462 -0.12086725 0.0760385 0.031539828 -0.12011506 -0.05003972 -0.01655284
0.09818599 0.12093473 0.028574241 -0.08548346 0.07021096 -0.05287898 0.020260349 -0.08031976
-0.0441952 0.06356699 0.014331872 0.010123302 -0.054908756 -0.060778808 -0.028633945 0.042018663

attention_layer.gate.bias f4 [128]
00000000: d4ff 4ebd 9f90 c53b 899d 6bbc 889a 80bd
00000010: e6e4 943d 5735 533d bcdb 303d d747 af3d
00000020: 5b2b 93bd eed3 86bd 67d5 863d 424e 843d
00000030: d654 fbbc 35a9 2f3d cbda 2d3d 7b6f 96bd
00000040: 45e1 b2bd 2cac c93c 73ec 0abd 71d9 a83d
00000050: 90ca a2bd d4c8 24bc 3920 b03d cd55 42bd
00000060: a82e 283d 94d4 a03d 0c8c 633b a991 d3bc
00000070: d848 9e3d 604c b03d 9f39 1e3d 4468 2d3d
00000080: 70b4 af3d e94c 803d 08c0 2f3b 33ee 19bd
00000090: 6ac3 453d 6874 3dbd f490 cdbc 26c9 433d
000000a0: e6bb cebc 61ec b93d 3da4 7c3d edcc 133d
000000b0: cc93 273d f564 013c 549d 16bc 49b0 493d
000000c0: 1c2b b2bb cd81 b5bd 3e55 613d a3ff 403a
000000d0: c520 e03c 38ca d63c 85c2 e93b 0237 733d
000000e0: 950f 173d 0c62 483c 2023 b9bc 139d 053d
000000f0: 5766 57bd f285 90bd 1776 14bc a815 0e3d
00000100: 86ac 2f3c 43ce 74bd 93c2 8cbd d37e 933d
00000110: 5513 90bc 33ce 23bd 80e4 233c cd77 cbbd
00000120: e8ec 39bd 7a9c 23bd 9b36 23bd 00e7 9f3c
00000130: 2c92 b0bd f6bb 413b bc17 a9bd 3365 95bc
00000140: f6e5 183d 6dac bfbd e391 123d 9521 c8bc
00000150: 0412 043d 6617 763d 302c 84bb 0603 8c3d
00000160: 1888 f0bc 5e65 233d 604e 813d b814 32bd
00000170: a2ae 0ebd ca24 8abd 4e5b 703d e65b 3e3d
00000180: e559 90bc 7680 233c a529 f03c ccd3 bbbc
00000190: 4487 813d 73fb afbd 6fa7 82bd 26e7 b0bd
000001a0: f918 573d 9229 8dbd 8f92 6dbc 01f4 813d
000001b0: 2582 ce3c f543 a83d ad29 93bd 5f5f c1bd
000001c0: bd1c 32bd de50 783d d6b4 df3c 7478 453d
000001d0: 3854 143d 22e8 b33d f86f 83bd f244 ddbd
000001e0: c185 ad3d 369d acbd b5f1 afbd daa4 993d
000001f0: ec9e 84bb c22a 2bbd 95ba a2bd 5881 eebb
-0.050536945 0.006029203 -0.014380821 -0.062794745 0.072702214 0.05156454 0.043178305 0.08558624
-0.07186004 -0.06583391 0.06583672 0.06460239 -0.030680101 0.042885978 0.042444985 -0.07345482
-0.08734373 0.02461823 -0.0339169 0.08244599 -0.07948792 -0.010057647 0.08599896 -0.047445107
0.04106012 0.07853046 0.0034720926 -0.025826292 0.077287376 0.086083174 0.03862917 0.042335764
0.085793376 0.062646694 0.002681734 -0.03758068 0.048282064 -0.04625359 -0.025093533 0.047799252
-0.025236081 0.09078289 0.061680067 0.036084104 0.040912434 0.007897605 -0.009192783 0.049240384
-0.005437268 -0.08862648 0.055012934 0.00073623116 0.027359376 0.026219472 0.0071337842 0.05937863
0.036880095 0.012230407 -0.022599757 0.0326205 -0.052587833 -0.07056798 -0.009061358 0.03468862
0.010722285 -0.05976702 -0.068730496 0.07201924 -0.017587343 -0.03999157 0.010003209 -0.099349596
-0.045391947 -0.03994415 -0.039846998 0.01951933 -0.0862163 0.0029561496 -0.0825648 -0.018236732
0.037328683 -0.093590595 0.03578366 -0.024430076 0.032243744 0.06008091 -0.004033588 0.06836514
-0.02936177 0.039891593 0.06313777 -0.04347679 -0.03483451 -0.06745298 0.058680825 0.04647436
-0.01762099 0.009979358 0.029316733 -0.022928141 0.06324628 -0.08592882 -0.06379592 -0.08637838
0.05251405 -0.068926945 -0.014500274 0.06345368 0.025208542 0.08216087 -0.071856834 -0.09442019
-0.04348444 0.060623996 0.027307909 0.048210576 0.03621313 0.0878451 -0.06417841 -0.10804166
0.08472777 -0.08428423 -0.08591024 0.07502146 -0.0040472653 -0.041788824 -0.07945744 -0.0072786026

attention_layer.w.weight f4 [1, 128]
00000000: 79da d9bc 067b e03c f168 a73d 90de d63b
00000010: 0483 583c 1d90 8fbc 63f9 093d 85f4 c8bd
00000020: 81e4 0b3d 1a52 70bd 7ac7 8cbc ddae d2bd
00000030: e113 a0bd 32b7 83bd a043 1bba 998d 25bd
00000040: 29af 903d 452b bf3c 57d3 8e3d bf5e aebd
00000050: c10e 923d 01e9 923d 13bf bcbc 8afd f83c
00000060: f053 543d 9ffa 5a3d 4c66 7cba 1671 553d
00000070: 7be1 073d 9d4c 613d e98b c4bb 0cf0 c83d
00000080: c133 9dbd fae9 673d 337c cebc 09fb cabc
00000090: bf51 72bd 4c5a 20bd c852 c5bd 59ff 9c3c
000000a0: 369b 2a3d 3003 91bd 514e 643d 46f3 703c
000000b0: 53d5 073d 1c84 323c 4ba2 24bd 05ec 953d
000000c0: 07c0 00bd 1201 9d3d 5606 4f3d 71db 4c3d
000000d0: 7759 01bd e14c b1bd 6a5d 70bc 4b2a c93d
000000e0: 1491 a83d 477b be3c 9fde 883d 5896 8f3c
000000f0: db97 55b9 2f73 b03d d79a 803d ca57 4dbd
00000100: 50dd 833c 46d9 3f3d c3e5 a2bd de11 bfbd
00000110: b5c8 5dbd fcf6 68bd bb35 5cbd 9f79 053c
00000120: b907 d8bc b828 67bd a703 ac3c 7b94 4d3c
00000130: 64fe 85bb db24 0f3d 9ef0 e6bc b422 af3c
00000140: ab32 fb3c 878f 603d 1d73 05bd 5433 80bd
00000150: e8d4 823d 84e6 2f3d f218 66bd fd0a 48bd
00000160: e12d b83c 2b44 a1bb 1c63 abbd ba48 d03c
00000170: 1336 14ba 63ec d0bc a760 89bd 3b35 5abd
00000180: 49ef 2cbc 7e9e 8d3d 6e6e c8bd 6ccf 143c
00000190: 75aa 123c c688 763d 1d22 4f3d 6e6a d839
000001a0: 13bb 24bd 2caa 663d bca1 d23d 7344 7c3d
000001b0: 5f0d 373d cefe ca3d fcb4 ff3c 9628 3fbc
000001c0: 2592 5cbd e199 153d 962f 40ba 8f4f 993c
000001d0: c926 6abd b54e d2bd 0e00 c0bd 362f 5bbd
000001e0: d7c6 da3d 88f7 dfbc f664 0ebd 3936 763d
000001f0: 31e2 67bd 87b8 d23d f241 753d 7113 1bbd
-0.026593434 0.027402412 0.08174313 0.0065572932 0.01321483 -0.017524773 0.0336851 -0.098122634
0.034153465 -0.05867205 -0.017184962 -0.10287259 -0.078162916 -0.06431426 -0.00059228577 -0.04041824
0.07064659 0.023336062 0.069739036 -0.08514165 0.0713172 0.07173348 -0.02304033 0.030394334
0.05183786 0.053461667 -0.00096282805 0.0521098 0.03317402 0.055004705 -0.005998124 0.0981141
-0.07675887 0.05661962 -0.025205707 -0.024777906 -0.05915999 -0.039148614 -0.0963493 0.019164728
0.041651927 -0.07080686 0.05573875 0.014706438 0.033162426 0.010895755 -0.040193837 0.07320408
-0.03143313 0.0766622 0.05054315 0.050013963 -0.03157946 -0.086572416 -0.014670709 0.0982252
0.082307965 0.023252143 0.066830866 0.017527744 -0.00020369834 0.086157195 0.06279533 -0.05013255
0.016096741 0.046838067 -0.0795398 -0.0932958 -0.054146487 -0.056876168 -0.05376218 0.0081466725
-0.02637087 -0.056435317 0.020997835 0.0125476075 -0.0040891636 0.034947257 -0.028190907 0.021378852
0.030663809 0.05482438 -0.032580484 -0.0625979 0.06388265 0.042944446 -0.056176133 -0.048838604
0.022482814 -0.0049214563 -0.08368513 0.025425304 -0.00056538096 -0.025503343 -0.06707888 -0.05327342
-0.010555097 0.069149956 -0.09786688 0.009082656 0.008951773 0.06018903 0.050569642 0.00041278027
-0.04021747 0.056314632 0.10284755 0.061588716 0.044690486 0.099118814 0.03121423 -0.011667391
-0.05385031 0.036523703 -0.00073313096 0.018714694 -0.057165895 -0.102689184 -0.093750104 -0.05351182
0.10682457 -0.027339712 -0.034764253 0.060110305 -0.056612197 0.10289102 0.059877343 -0.037860338

mlp.0.0.weight f4 [128, 128]
00000000: 0da2 64bc 907e a4bd 4025 a33d ab7b 153d
00000010: f2ed a1bd 15df 9b3d 7fd8 ab3d b8e6 b93c
00000020: cb38 7bbd 0806 8e3d ca0d d03c 10e3 48bd
00000030: b217 a0bd abc9 203b bbf0 bd3c e188 583c
00000040: 4e9c 403c bbad 84bc e9dc ff3c c85a 0fbc
00000050: 52db 063d d148 debc 46d1 9cbd c029 ac3d
00000060: bca8 21bd 6a8d c43b 7fd7 eabc ebec 17bd
00000070: 72f3 bb3d a135 da3d 5469 debc e9ac 6ebc
00000080: 051d fb3b 7806 79bd 5364 c63c 7376 2fbd
00000090: 3dd3 22bc d4b9 6a3d 6737 49bb fbfe 553d
000000a0: 9283 7bbb 8040 f9bb 904d 1d3d bf18 593d
000000b0: 9bf4 a03d b5c8 e2bc 1418 5ebd d156 45bd
000000c0: 73c9 0b3b fa60 593d 1b9b bb3d fad1 b83d
000000d0: 06f6 123d 755c 7b3d 2d2f 33bc 62a9 5a3d
000000e0: 6bb1 563d a71a d53c bdac b8bd 59d5 35bc
000000f0: b953 50bd 9635 943c 851a fdbb 1753 cd3c
00000100: e11b 37bd b168 833d 4b76 623d faa2 dd3c
00000110: 6d48 af3d 1929 6bbd 0639 903c ad2c 033d
00000120: bf18 abbc af66 f8bc 788b d0bb ccbc b6bd
00000130: 9f53 973d 7a61 8c3c 3551 2e3d 1be6 d63b
00000140: 663d 70bd 70a9 02bd 6609 42bd 6924 bf3d
00000150: 5b93 363b 38e9 72bd 7e07 8cbd b83d 7bbd
00000160: f9cb 2c3c d5ea 5bbc 8341 ce3c ff6f 0ebd
00000170: b0c0 573d 6520 abbc 2aed 86bd 95cb 7b3d
00000180: 2427 05bc 888d 6d3d 5524 33bd f995 873d
00000190: 95f0 a63d e677 a23d 4b81 ebbc 516d aa3c
000001a0: 6c9f db3c 4ef7 b2bc cb8d 003d 26e9 8cbc
000001b0: b645 6abc e3f6 41bc 7425 87bd d9eb d6bc
000001c0: a664 7c3d 410e b8bd 368d 003d a6b7 50bb
000001d0: cee4 a5bc 6573 aa3b 95ed 6cbd c313 763d
000001e0: 2878 793d 37db b73c 180a 973d 7792 9fbc
000001f0: 81c8 b53d c8e9 cf3d e71d 7c3d 698d 87bd
00000200: 40ac 00bd f88a 6abd f907 03bd 6e90 6b3d
00000210: 69f9 57bd 6a7b 523d db1c 983d dc2c ccbc
00000220: 9137 493d a05c eebc 82fa 9dbb ec60 00bd
00000230: 8231 6dbc 46df 7fbd 5a9b 803d 436f ba3c
00000240: b1be 64bc f45e 943d fd6a 40bd 1187 943c
00000250: 7526 b7bd 16f9 76bc 4a61 40bd b82a 2abd
00000260: dae6 7dbd eb0b c03b e4b5 f5bc 3f02 953c
00000270: 868e 41bc fca6 093d fc49 16bd 4966 0d3d
00000280: 95e5 983d ec60 403a 3251 9abd 27b4 903d
00000290: 6d90 9d3d f0ae 96bd e022 6b3a 65d4 bebd
000002a0: 23df 823d 5b8e 8dbd c35c 53bd 7873 84bd
000002b0: 15a3 a13d d0f2 cabc 0b5a 933c 8687 713d
000002c0: b863 b13c 8282 ea3c 5cec 82bb 1258 c8bd
000002d0: 7c97 5abd 1691 013d 3ffe 443d c059 ac3d
000002e0: 4ca4 90bd af92 173c 3526 ad3d 1ca6 19bd
000002f0: 9f0d 81bd 9fe4 82bd 52c2 c1bd 127d a33d
00000300: 4dae 693d 83fb ea3c 2cb1 58bd 001a 4f3c
00000310: a4e8 443b 1aba 863c c8e5 b43d dda8 fcba
00000320: 4001 73bc 9b65 683d b355 07ba c350 8ebd
00000330: ea4f 99bd cfad 853d 529d c7bc 08e9 58bd
00000340: 4d7f 063d 94d3 89bc 5b4e 2abd c470 293d
00000350: d84f a9bd cc87 01bc 8e46 7bbd 9c2f 873b
00000360: b5f1 c93b ffcb 1ebc a6f8 a03d bef0 86ba
00000370: 3b74 723d e319 ce3d f229 a83d 6d5e bb3c
00000380: 1bb3 353d 0450 b73c 1169 7d3b 4176 47bc
00000390: 8eed 54bd e4a8 73bc 85b8 4f3c a091 193b
000003a0: d12b b6bd 823b c33d 5ece 4dbd f63d 8abd
000003b0: 840d a5bd d2fc da3c 963b 97bd 970f 43bd
000003c0: 02ea 19bd 5909 46bd 221d 963d 3748 41bd
000003d0: 61b4 78bd d5e3 e0bc ad91 8abd 5749 c8bd
000003e0: f009 3d3d 1035 ef3c 9dbf d3bc 642c 833d
000003f0: 764a a53d 0e45 49bd 37f8 863d 762d 1a3c
-0.013954652 -0.080319524 0.07966089 0.036494892 -0.079067126 0.07610909 0.08390903 0.022693023
-0.06133346 0.06934744 0.0253972 -0.04904467 -0.078170195 0.0024534266 0.023186078 0.013216228
0.011756016 -0.016196122 0.031233268 -0.008749671 0.032924004 -0.027134331 -0.07657103 0.08406401
-0.03946756 0.005998303 -0.02866721 -0.037091177 0.09177293 0.1065476 -0.027149834 -0.014567592
0.0076633715 -0.060797185 0.02421776 -0.04283757 -0.009938058 0.057306126 -0.0030703188 0.05224512
-0.0038377983 -0.007606566 0.038404047 0.053002115 0.07859155 -0.027683595 -0.05422218 -0.048178498
0.002132979 0.053071 0.091604434 0.09024425 0.035879157 0.06136747 -0.010936541 0.053384192
0.052415293 0.026013685 -0.09017322 -0.011098229 -0.050861094 0.018091958 -0.0077241086 0.025064034
-0.04470432 0.06416453 0.055288594 0.027055252 0.08558736 -0.05741224 0.017605316 0.032025028
-0.020885823 -0.0303224 -0.006364282 -0.08922729 0.07388996 0.017136324 0.042557914 0.0065581924
-0.058652304 -0.03189987 -0.047372244 0.093331166 0.0027858827 -0.059304446 -0.068373665 -0.061338156
0.010546678 -0.013422688 0.025177723 -0.034774777 0.052673995 -0.02088947 -0.06588204 0.061473448
-0.008127008 0.057996303 -0.04373582 0.06620402 0.08151356 0.07933025 -0.028748175 0.02080408
0.026809417 -0.02184644 0.031385224 -0.017201018 -0.014298847 -0.011838648 -0.065989405 -0.026235508
0.061619423 -0.08987094 0.03138467 -0.0031847744 -0.020250704 0.0052017444 -0.057843763 0.06007744
0.060905606 0.022443397 0.07374972 -0.01947902 0.08876134 0.10152012 0.061551955 -0.06618769
-0.03141427 -0.057261437 -0.031990025 0.057510786 -0.05272809 0.051387228 0.07427379 -0.024923734
0.049125258 -0.029096901 -0.0048211226 -0.031342432 -0.014477136 -0.06246879 0.06279631 0.022758132
-0.01396148 0.07244673 -0.046977032 0.018130811 -0.08942882 -0.015074035 -0.046967782 -0.041544646
-0.061987735 0.0058607957 -0.029993959 0.018189548 -0.011813765 0.033606514 -0.03669165 0.034521375
0.07465664 0.0007338661 -0.07535018 0.07065611 0.07693563 -0.073575854 0.00089697354 -0.09317855
0.06390216 -0.06911918 -0.051602136 -0.064673364 0.078924336 -0.024773985 0.017987272 0.058967136
0.021653995 0.028626684 -0.0039954614 -0.09782423 -0.053367123 0.031632505 0.04809403 0.08415556
-0.07062587 0.009251281 0.08454553 -0.03751193 -0.06301426 -0.06391262 -0.09460892 0.0798284
0.05705099 0.028684383 -0.05290334 0.012640476 0.0030045891 0.016446162 0.0883289 -0.0019276399
-0.014831841 0.056737524 -0.00051626115 -0.06948998 -0.074859455 0.06527292 -0.024367008 -0.05295661
0.032836247 -0.016824521 -0.04157863 0.041367307 -0.08267182 -0.007905912 -0.061346583 0.0041255485
0.006162847 -0.009692191 0.07859926 -0.0010295135 0.059192877 0.10063531 0.082111254 0.022872174
0.04436026 0.022377022 0.003866736 -0.01217419 -0.051984362 -0.01487181 0.01267827 0.0023432747
-0.08895076 0.095328346 -0.050245635 -0.06750099 -0.080592185 0.026731882 -0.07384412 -0.04762229
-0.037576683 -0.04834876 0.073297754 -0.04718801 -0.060718898 -0.027452389 -0.06766067 -0.097796135
0.046152055 0.029200107 -0.025848204 0.06404951 0.08070843 -0.04913812 0.06590312 0.009410253
