dataset/models/CCCA_MetaProg_MP29.NPC.OPC/model.pth (torch, 696702 bytes, 14 tensors)

tiles_emb.hidden_layers.0.weight f4 [128, 768]
0	0x3cb7ce12	0.02243713
1	0xbc06edd4	-0.008235414
2	0xbb83efaf	-0.0040263752
3	0xbd196e88	-0.037458926
4	0x3cff12f1	0.031136962
5	0x3cfaa255	0.030594984
6	0xba6a2453	-0.00089318043
7	0x3cbea9a4	0.02327425
8	0x3c41cfcc	0.011829328
9	0x3c5d04a2	0.013489874
10	0x3cc079d6	0.023495596
11	0xbd650348	-0.055911332
12	0xbc8d06fb	-0.017215243
13	0xbc272850	-0.010202482
14	0xbc6d61ae	-0.014488621
15	0x3c8d1ad9	0.017224716
16	0xbd23aa26	-0.039957188
17	0x3cc9e14c	0.024643563
18	0x3d33814f	0.04382449
19	0xbc771805	-0.01508141
20	0x3c4d82c4	0.012543384
21	0x3ca9210b	0.020645639
22	0x3d0c4310	0.034243643
23	0x3c1ac983	0.009447458
24	0xbd3a6ddc	-0.045514926
25	0xbca3fdc1	-0.02001846
26	0xbc6cc778	-0.014451854
27	0x3d0c669a	0.034277536
28	0x3cc789e1	0.024357738
29	0xbce4c3a2	-0.027925316
30	0xbc99fd5f	-0.018797575
31	0xbc10e21e	-0.008842973
32	0x3c9a4596	0.01883201
33	0xbc48a24d	-0.012245727
34	0xbd17d7f2	-0.037071176
35	0x3c667f3f	0.014068424
36	0xbc906629	-0.017626839
37	0xbc5fa3aa	-0.01364986
38	0xbc9df8b6	-0.019283634
39	0x3cefd03b	0.029274097
40	0xbd3a32e0	-0.045458674
41	0x3b58893c	0.0033040782
42	0xbc004b78	-0.007830493
43	0xbc4a13d4	-0.012333829
44	0xbbeb46a3	-0.0071800514
45	0x3a11d002	0.00055623066
46	0xbc8b5431	-0.017007919
47	0x3c953a8e	0.018216398
48	0xbcda2000	-0.026626587
49	0x3c4746ff	0.012162923
50	0xbd52c593	-0.051457953
51	0x3c02d390	0.007985011
52	0x3d02bf54	0.031920746
53	0xbd1a7811	-0.03771216
54	0xbd392892	-0.045204706
55	0x3d2a39f2	0.041559167
56	0x3b5aca0c	0.003338459
57	0xbcefb29f	-0.029259978
58	0x3c8f08b6	0.017460208
59	0xbc7a85b5	-0.015290667
60	0xbc9aefdf	-0.018913208
61	0x3c588338	0.013214879
62	0x3cc6d987	0.024273647
63	0xbc2c1062	-0.010501953
64	0x3d80a2b5	0.06281034
65	0x3da3cd9d	0.07998202
66	0xbc3158dd	-0.010824409
67	0x3d03b715	0.032157023
68	0x3d2a83c6	0.041629575
69	0x3bbbc788	0.005730573
70	0x3c86993b	0.016430488
71	0x3ccde104	0.02513171
72	0xbd45699a	-0.048196413
73	0x3c5563a7	0.013024247
74	0x3d8e73df	0.069556944
75	0x3bb31132	0.0054646963
76	0x3bf7550e	0.007547981
77	0x3d14b200	0.036302567
78	0x3ccfbed8	0.025359556
79	0xbc2a69ce	-0.010401202
80	0x3d323e74	0.04351659
81	0x3c85a15a	0.01631229
82	0x3d041d1a	0.032254316
83	0x3b0d4741	0.0021557363
84	0xbc5c3eba	-0.01344269
85	0x3cb82965	0.022480676
86	0xbc71c441	-0.014756263
87	0x3c81d509	0.015848653
88	0x3c99ce5e	0.018775161
89	0xbbadc8fa	-0.0053034993
90	0xbd48444e	-0.048893265
91	0x3c3e00d7	0.01159688
92	0x3d2262e1	0.03964508
93	0xbd143ce9	-0.0361909
94	0xbd26873d	-0.040656317
95	0xbc86760b	-0.01641371
96	0x3c478403	0.01217747
97	0x3cf218ff	0.029552935
98	0xbcaf3f6a	-0.021392543
99	0xbb6e7537	-0.0036385783
100	0x3ce0d7f6	0.027446728
101	0xbcd936ce	-0.02651539
102	0x3c936be3	0.01799578
103	0xbc8d3aa7	-0.017239882
104	0xbcbebd07	-0.023283495
105	0xbd3a30a8	-0.04545656
106	0x3c4337d1	0.011915163
107	0x3b46f991	0.0030361156
108	0x3d8e7a36	0.06956904
109	0x3b88dccd	0.004176712
110	0x3ce626f0	0.028094739
111	0xba948941	-0.0011332409
112	0xbd490b2f	-0.04908293
113	0xbb2a5982	-0.0025993292
114	0xbd2da915	-0.042397577
115	0xbced034c	-0.028932236
116	0x3b46c2e9	0.0030328578
117	0xbc5617b4	-0.013067175
118	0x3c1b4040	0.009475768
119	0x3c84ac19	0.016195344
120	0x3bb4d46b	0.0055184863
121	0x3cfc7fe5	0.030822704
122	0x3d1139ac	0.03545539
123	0xbd165fbf	-0.036712404
124	0x3ccdb9a5	0.025112936
125	0x3d57ca41	0.05268312
126	0x3d6c81e8	0.057741076
127	0x3b823f1e	0.0039748093
128	0xbca6b08a	-0.020347852
129	0x3d20cb9d	0.03925668
130	0xbd11208d	-0.035431433
131	0x3c8f9411	0.017526658
132	0x3d82c11d	0.0638449
133	0x3ca1e28d	0.019761348
134	0x3ba1d4b2	0.0049386853
135	0xbcac39e7	-0.021023704
136	0xbc8f85fb	-0.017519942
137	0xbd0145a7	-0.031560566
138	0x39f80d00	0.00047311932
139	0x3c44a970	0.012003288
140	0xbd1f8487	-0.038944747
141	0xbbf9b5a7	-0.0076205316
142	0x3d10c509	0.035344157
143	0x3dd0744c	0.10178432
144	0x3cc425ca	0.0239438
145	0x3c118733	0.008882332
146	0x3c7c8fae	0.015415115
147	0x3cbcbd3c	0.023039453
148	0xbd3d0780	-0.04614973
149	0xbc053109	-0.008129367
150	0xbd527068	-0.05137673
151	0xbc8cedc0	-0.017203212
152	0x3b9c0a60	0.004761979
153	0x3d2158de	0.03939139
154	0x3b8a5e21	0.004222647
155	0xbd4185e5	-0.047246832
156	0x3c29e8f0	0.010370478
157	0xbcc52938	-0.024067506
158	0x3c39c820	0.011339217
159	0xbd11a1b6	-0.03555461
160	0x3c6e6d25	0.014552389
161	0xbc533a21	-0.012892277
162	0xbca63239	-0.02028762
163	0xbcecdd9c	-0.028914265
164	0x3d018050	0.03161651
165	0x3bcb944d	0.006212747
166	0xbbcf4305	-0.006325128
167	0xbd2889d4	-0.04114707
168	0x3d876ecf	0.06612932
169	0xbd0dd4ce	-0.034626774
170	0x3d299588	0.04140237
171	0x3cc3d349	0.02390446
172	0xbc4ddcdc	-0.012564864
173	0x3dfe7b17	0.12425821
174	0x3b8f32d1	0.0043700715
175	0x3c6c0b88	0.014407046
176	0xbc194404	-0.009354595
177	0xbd4825df	-0.04886424
178	0xbcc4fff9	-0.024047839
179	0x3c8d60be	0.017258044
180	0xbce28679	-0.027652012
181	0x3cf94e57	0.030432863
182	0xbcb4d8f0	-0.0220761
183	0x3ccee0a1	0.025253596
184	0xbb89df74	-0.004207546
185	0x3d64f314	0.05589588
186	0x3d1c19e3	0.038110625
187	0x3c315b99	0.010825061
188	0x3c40e2b1	0.011772797
189	0xbd5955bb	-0.053060275
190	0xbc806dfe	-0.015677448
191	0xbcfa6c23	-0.030569142
192	0x3d1bcb77	0.038035836
193	0x3b32715e	0.0027228217
194	0xbd320946	-0.043465875
195	0xbd845657	-0.064617805
196	0xbc992fc9	-0.018699544
197	0x3db1a016	0.08673112
198	0xbc360e5a	-0.01111182
199	0xbd614bad	-0.05500381
200	0x3cbf9fc1	0.023391606
201	0xbd801dfd	-0.0625572
202	0x3b93b8f5	0.0045081326
203	0x3c7040f9	0.014663928
204	0xbcb1346d	-0.021631444
205	0xbd268624	-0.04065527
206	0x3cff6858	0.031177685
207	0xbda2060f	-0.07911312
208	0x3d188a18	0.03724107
209	0xbd331f30	-0.043730915
210	0xbdb8a6d0	-0.09016192
211	0x3c1ef579	0.00970208
212	0xbc62becd	-0.013839436
213	0x3c26ad80	0.010173202
214	0xbb881594	-0.004152963
215	0x3d5116e1	0.05104721
216	0x3bae5799	0.005320501
217	0xbc685b52	-0.014181929
218	0xba8be024	-0.0010671658
219	0xbc83dbe5	-0.016096065
220	0x3c11c41f	0.008896857
221	0x3ba6d78f	0.0050916146
222	0x3c753e23	0.014968428
223	0xbd22a32e	-0.0397064
224	0xbd46bfdb	-0.04852281
225	0x3d07dc6e	0.033169203
226	0x3ce3cf43	0.027808791
227	0xbc5fa202	-0.0136494655
228	0xbd4e1eb8	-0.050322264
229	0x3d735d01	0.059414867
230	0xbcc8316a	-0.024437625
231	0xbcd253c9	-0.025674718
232	0xbd0570e8	-0.03257838
233	0x3cacdc75	0.021101216
234	0xbb7e6f84	-0.0038823793
235	0xbccaf126	-0.024773192
236	0xbc855d73	-0.016279912
237	0xbcb4c36b	-0.022065839
238	0xbb946281	-0.004528344
239	0x3c1d68c6	0.009607499
240	0x3c887822	0.016658846
241	0x3c0b74ca	0.008511731
242	0xbc3db01c	-0.011577632
243	0xbd4bda3f	-0.049768683
244	0xbdcffe7d	-0.10155962
245	0x3c8f53f6	0.01749609
246	0xbc7bb81f	-0.015363722
247	0x3b8c805d	0.004287763
248	0x3d0a227f	0.033724304
249	0xbce7dfcb	-0.028304955
250	0x3d3d7c90	0.04626137
251	0xbd439414	-0.04774864
252	0xbcb3c37d	-0.021943802
253	0x3d044db8	0.03230068
254	0x3ca3fa1d	0.020016724
255	0xbc705a84	-0.014670018

tiles_emb.hidden_layers.0.bias f4 [128]
0	0x3d23e833	0.040016364
1	0xbc890497	-0.016725821
2	0x3c2aeb49	0.010432073
3	0x3d6578ca	0.056023397
4	0xbc6cc54f	-0.014451339
5	0x3acdd053	0.0015702344
6	0x3ca07d33	0.01959095
7	0x3cb49434	0.022043325
8	0x3cd706d6	0.026248377
9	0xbbd5e6cb	-0.006527757
10	0xbc8252d6	-0.01590864
11	0x3d02a752	0.03189785
12	0xb9383220	-0.0001756628
13	0xbb5af2db	-0.0033408913
14	0x3bbfc898	0.00585277
15	0x3c1642b3	0.009171176
16	0xbc017f3b	-0.007903869
17	0xbca4a4af	-0.020098059
18	0x3c847e84	0.016173609
19	0xbcdd5c1e	-0.027021464
20	0x3c348cfc	0.011019941
21	0x3c89f8e5	0.016842315
22	0xbc1231ce	-0.008923007
23	0x3bf20f32	0.0073870653
24	0x3cbba217	0.022904439
25	0xbd1b8b26	-0.0379745
26	0x3d037e4c	0.032102868
27	0x3ce91b23	0.028455323
28	0x3c884bc6	0.016637694
29	0xbbaa5a7a	-0.005198774
30	0xbbf35bb8	-0.007426705
31	0x3c9ceac6	0.019154917
32	0xbc2891c3	-0.010288659
33	0x3d1ef3eb	0.038806837
34	0xbb0916ac	-0.0020918055
35	0x3c94c762	0.01816148
36	0x3c309e97	0.010779998
37	0xbb27ec4a	-0.0025623017
38	0x3af645c6	0.0018789105
39	0xbc8e98fd	-0.017406935
40	0xbc37f43c	-0.011227664
41	0x3d0174a7	0.03160539
42	0x3c54a040	0.01297766
43	0x3d161d16	0.036648832
44	0xbc56a0a9	-0.013099828
45	0xbbe9722b	-0.0071242056
46	0xbc6f61c3	-0.014610711
47	0x3c511bdd	0.012762991
48	0x3cc9e24f	0.024644045
49	0x3baf6503	0.0053526177
50	0x3a9e6fa4	0.0012087715
51	0xbd28e7c8	-0.04123667
52	0x3cbd826a	0.023133475
53	0xbcbeaaf2	-0.023274872
54	0xbd1cef94	-0.038314417
55	0xbb49e1c0	-0.0030804724
56	0x3c071654	0.0082450695
57	0xbba36589	-0.004986469
58	0x3cdd069d	0.026980693
59	0x3c49ddb4	0.012320925
60	0xbc2057e3	-0.009786579
61	0x3c0591b6	0.008152416
62	0x3d1bd9f9	0.03804967
63	0x3c3aa4dc	0.011391845
64	0x3cc8fded	0.024535144
65	0xbb8d7da3	-0.0043179556
66	0xbc0a9f9b	-0.0084609045
67	0xbc435911	-0.011923091
68	0x3ca42328	0.020036295
69	0x3bbafe81	0.0057066088
70	0xbb6c8557	-0.003609022
71	0xbab35c06	-0.0013684041
72	0x3d65efb9	0.05613682
73	0x3c66e597	0.014092824
74	0x3a54a052	0.0008111048
75	0x3ce899cc	0.028393649
76	0x3cc0b6cc	0.023524664
77	0xbbbb52e0	-0.0057166666
78	0x3d19ed70	0.037579954
79	0x3c650472	0.013978111
80	0x3ca9e4a4	0.020738907
81	0x3c15f443	0.009152475
82	0x3cd04618	0.025424048
83	0xbd085ed6	-0.033293568
84	0x3c720db5	0.014773776
85	0x3ce93635	0.02846823
86	0xbc0fad6c	-0.008769374
87	0xbbb6baf9	-0.005576488
88	0xbd1101a6	-0.035401963
89	0x3cceefec	0.025260888
90	0x3baf58cf	0.005351163
91	0xbc19fc78	-0.009398572
92	0x3b03ecc1	0.002013013
93	0x3ca328f6	0.019916993
94	0x3cdca1c6	0.026932608
95	0x3ca68de5	0.020331332
96	0xbc6742fd	-0.014115092
97	0x3c81372b	0.015773376
98	0xbc7cccd1	-0.015429691
99	0x3b7e9c68	0.003885055
100	0xbcf827fe	-0.030292507
101	0x3ce8ca14	0.02841667
102	0x3cca6ca0	0.02471
103	0x3d2841b3	0.04107828
104	0x3cd50ad8	0.026006147
105	0xba99f758	-0.0011746688
106	0x3c825c17	0.015913052
107	0x3d233992	0.039849825
108	0x3c6af647	0.014340944
109	0x3d2635cd	0.040578652
110	0x3cbe5a50	0.023236424
111	0x3c576a2f	0.013147875
112	0x3d22a225	0.039705414
113	0xbccaad5a	-0.024740864
114	0x3cd25923	0.02567727
115	0xbd25136e	-0.040301733
116	0x3cc72647	0.024310244
117	0xbc3713dd	-0.011174169
118	0x3c7ff638	0.015622668
119	0x3c6acdea	0.01433132
120	0x3c3666f0	0.011132941
121	0x3b8228a3	0.0039721294
122	0x3bb05e11	0.0053823073
123	0x3b34279b	0.0027489427
124	0xbcb9f24b	-0.022698542
125	0xbbbd75c8	-0.005781863
126	0xbcd3dc73	-0.025861954
127	0xbbf47b8c	-0.007461017

tiles_emb.hidden_layers.2.weight f4 [128, 128]
0	0xbc38da24	-0.0112824775
1	0x3d1b7cc6	0.03796079
2	0xbd9fdbd7	-0.07805603
3	0x3d31f4f9	0.043446515
4	0xbc74f173	-0.014950144
5	0x3d9f1f13	0.07769599
6	0xbd41a9fb	-0.047281247
7	0xbda28200	-0.07934952
8	0x3d7dadb6	0.06193324
9	0x3d4401d3	0.047853302
10	0x3d9b056e	0.07569395
11	0xbd2f25dc	-0.042760715
12	0x3d260e16	0.040540777
13	0xbd0846fa	-0.033270814
14	0xbda30620	-0.079601526
15	0x3cda43bd	0.026643628
16	0x3c047bb8	0.0080861375
17	0x3d840959	0.064470954
18	0x3db50e7b	0.088406526
19	0x3d6deba4	0.058086053
20	0xbd4865e3	-0.04892529
21	0x3cc9bfc3	0.024627572
22	0x3c6c382f	0.014417692
23	0xbd359aca	-0.04433707
24	0x3d11d865	0.03560676
25	0x3d9be692	0.07612337
26	0x3ce94f08	0.028480068
27	0xbd4d9822	-0.050193913
28	0x3d91fed8	0.07128686
29	0x3da201ee	0.07910524
30	0x3c860865	0.016361425
31	0xbd8b5cf3	-0.06804838
32	0xbd117f2a	-0.035521664
33	0x3c752809	0.014963158
34	0x3cf34421	0.029695572
35	0x3db2cb86	0.08730225
36	0xbdacfa2f	-0.08446156
37	0x3d8483f9	0.06470484
38	0xb81f89d5	-3.803692e-05
39	0x3c8dbec9	0.017302888
40	0xbdb8fbd9	-0.09032411
41	0xbd0adc50	-0.033901513
42	0x3d31d115	0.043412287
43	0x3d95cea0	0.07314801
44	0xbd0fc84a	-0.03510312
45	0x3c92239c	0.017839245
46	0x3c97dc30	0.01853761
47	0x3bc0de49	0.0058858735
48	0x3d9a0d03	0.07522013
49	0x3d2983ec	0.041385576
50	0xbd852655	-0.06501452
51	0xbcf08657	-0.029360933
52	0x3d2cfb61	0.04223192
53	0x3c857dcb	0.016295334
54	0x3cdaba7b	0.026700249
55	0x3d55835e	0.052127235
56	0x3d9cb38e	0.07651435
57	0x3d7aab78	0.06119868
58	0x3b7c6f60	0.0038518533
59	0x3cc98bc4	0.024602778
60	0x3cae5ab5	0.021283487
61	0xbb19dc10	-0.0023477115
62	0x3d261edd	0.040556777
63	0xbd0f0066	-0.03491249
64	0xbbbf9e54	-0.0058477316
65	0xbd24cbde	-0.040233485
66	0xbd958c42	-0.07302143
67	0xbd9b051e	-0.075693354
68	0xbd01039e	-0.03149759
69	0xbc8a66cc	-0.01689472
70	0xbd2c2e22	-0.042036183
71	0xbd000747	-0.03125694
72	0x3923519e	0.00015575296
73	0x3cf6b400	0.030115128
74	0xbd9c19d2	-0.07622112
75	0xbce4d1c3	-0.027932053
76	0xbc09f633	-0.008420515
77	0x3db9e1e2	0.09076287
78	0x3b6838b2	0.0035434184
79	0xbc941717	-0.018077416
80	0x3d06a4bf	0.032871958
81	0x3c6d7511	0.014493243
82	0x3ce1f138	0.027580842
83	0xbdb6ff55	-0.089354195
84	0x3be3a3ed	0.0069470317
85	0x3d986326	0.07440786
86	0x3d02a135	0.03189202
87	0x3cdae1bd	0.026718969
88	0xbda0626d	-0.07831273
89	0x3c78f828	0.015195884
90	0xbce173bf	-0.027521012
91	0xbd8e9235	-0.069614805
92	0xbd8a5281	-0.067540176
93	0xbdbc4437	-0.091926984
94	0xbd8b462a	-0.06800492
95	0xbd154d4e	-0.036450677
96	0xbd8afc85	-0.067864455
97	0xbc97b8f0	-0.018520802
98	0xbd78ad4f	-0.060712155
99	0x3d09bc67	0.03362694
100	0x3cf920e5	0.030411193
101	0x3c9856f7	0.018596156
102	0x3c97b5df	0.01851934
103	0x3c94d54e	0.018168118
104	0x3d3d63f0	0.046237886
105	0x3b4e3fdc	0.0031471169
106	0x3d41422e	0.047182254
107	0x3d24bfd4	0.040222004
108	0xbcc64661	-0.024203481
109	0xbd147f45	-0.036254186
110	0xb9cc540c	-0.00038972532
111	0x3d8bf64e	0.06834088
112	0x3d1a5303	0.037676822
113	0xbd405ff4	-0.046966508
114	0x3d0290d7	0.03187641
115	0xbd20ca96	-0.0392557
116	0xbc207855	-0.009794314
117	0xbd3fdef8	-0.0468435
118	0x3c70f348	0.01470644
119	0x3b713f68	0.0036811475
120	0x3d5fa558	0.054601043
121	0xbd264ab3	-0.040598582
122	0xbce75610	-0.02823928
123	0x3d5e73ca	0.054309644
124	0x3d42ed60	0.04758966
125	0xbd790fc7	-0.060806062
126	0xbdb04c18	-0.08608264
127	0xbd14be11	-0.036314074
128	0x3d51ba6d	0.05120318
129	0xbd6f95e0	-0.05849254
130	0x3d9b060f	0.07569515
131	0xbcc07f91	-0.023498328
132	0x3cbca495	0.023027698
133	0xbce234ca	-0.027613062
134	0xbd66c79e	-0.056342714
135	0x38bacb6f	8.9070636e-05
136	0x3d14d50f	0.036336
137	0xbd558535	-0.05212899
138	0xbdb1d3bf	-0.086829655
139	0x3cbc9154	0.023018517
140	0xbcbc89d5	-0.023014942
141	0x3ca007c2	0.01953495
142	0xbd415be6	-0.04720678
143	0xbd9a6047	-0.07537895
144	0x3d03086e	0.03199046
145	0x3d197775	0.03746744
146	0xbc4513cb	-0.012028645
147	0xbc7193a3	-0.014744672
148	0x3d2080d9	0.03918538
149	0xbd64710b	-0.05577187
150	0xbd1c3295	-0.038134176
151	0xbb33dcef	-0.002744492
152	0x3d1c9835	0.038231093
153	0x3d0c82ca	0.034304418
154	0xbb182183	-0.0023213334
155	0xbccdb6b9	-0.025111543
156	0x3cbda446	0.02314962
157	0x3d863274	0.06552592
158	0xbca01e23	-0.01954562
159	0x3d957b53	0.07298913
160	0x3d74dec7	0.05978277
161	0x3c3d8008	0.01156617
162	0xbc25088d	-0.010072839
163	0x3c214a1c	0.009844329
164	0x3c8ea032	0.017410371
165	0xbd54cf96	-0.051955782
166	0xbdc63364	-0.09677771
167	0x3c35d98e	0.011099232
168	0xbd3d3748	-0.0461953
169	0xbdab3a2f	-0.08360707
170	0x3c98e11b	0.018662026
171	0xbb4ff7d1	-0.0031733403
172	0xbd89bf3a	-0.06725927
173	0xbd9c293c	-0.07625052
174	0x3d611369	0.05495015
175	0x3bf16505	0.007366779
176	0xbd8ca5f4	-0.068675905
177	0xbd926fa5	-0.07150201
178	0xbd8f1e8f	-0.069882505
179	0xbd7c6658	-0.06162104
180	0x3d578a5f	0.052622195
181	0x3d021670	0.03175968
182	0xbd9c89b5	-0.07643453
183	0x3c8c445f	0.017122446
184	0x3d7443af	0.05963486
185	0xbd9cee16	-0.07662599
186	0x3d819969	0.06328089
187	0xbc2e4eda	-0.010638917
188	0xbd695389	-0.05696443
189	0x3d3ee096	0.0466009
190	0xbce61409	-0.028085725
191	0xbda6e9ee	-0.08150087
192	0xbd8df5dd	-0.0693166
193	0xbda6dd57	-0.08147686
194	0xbcf5c2aa	-0.03000005
195	0xbd5719b3	-0.052514743
196	0xbc77470d	-0.015092623
197	0xbdaee12d	-0.085390426
198	0x3cd2c522	0.025728766
199	0xbd2e5859	-0.042564724
200	0xbd64fbef	-0.055904325
201	0xbdc5ffe0	-0.09667945
202	0x3da5714f	0.080782525
203	0xbd31ea79	-0.0434365
204	0xbd4387c0	-0.047736883
205	0x3d778941	0.06043363
206	0x3d236441	0.03989053
207	0xbda52472	-0.08063592
208	0x3d28d265	0.041216273
209	0xbc9436d3	-0.018092548
210	0x3d880b94	0.06642833
211	0x3d8f3592	0.069926396
212	0x3c87b660	0.016566455
213	0x3c8f5307	0.017495645
214	0xbd88068d	-0.066418745
215	0x3d532cf3	0.05155654
216	0x3d27e9ac	0.04099433
217	0xbd943239	-0.07236142
218	0xbd97e671	-0.07417
219	0xbca7b1d4	-0.020470537
220	0xbd682f6b	-0.056685846
221	0x3da5cdb5	0.08095876
222	0xbd219fa3	-0.039458882
223	0xbdc0875c	-0.09400818
224	0xbd5809ee	-0.052743845
225	0x3d94a356	0.07257716
226	0xbd8495ba	-0.064738706
227	0xbda317aa	-0.07963498
228	0xbd206156	-0.039155327
229	0xbb8bf177	-0.004270728
230	0xbcde81dc	-0.027161531
231	0xbda7bd91	-0.08190454
232	0x3d59b850	0.05315429
233	0xbc67593f	-0.014120399
234	0xbd38f323	-0.04515375
235	0xbdd723d9	-0.10504884
236	0xbd62a130	-0.0553295
237	0xbdd51670	-0.1040467
238	0xbcd29baa	-0.025708992
239	0xbc0a7761	-0.008451314
240	0x3d976f6b	0.07394298
241	0xb91e7b74	-0.00015114044
242	0x3d9de7eb	0.077102505
243	0x3d036478	0.032078236
244	0x3d880ea1	0.06643415
245	0xbdb85eef	-0.09002482
246	0x3d38d646	0.045126222
247	0xbdbedbbd	-0.093192555
248	0x3ccfd166	0.025368404
249	0xbd576e71	-0.05259556
250	0xbd171a1a	-0.036890127
251	0x3c0d7209	0.008633145
252	0xbd0ba5f0	-0.034093797
253	0x3cd05f7a	0.025436152
254	0x3d86f5fc	0.065898865
255	0xbcea027f	-0.028565643

tiles_emb.hidden_layers.2.bias f4 [128]
0	0xbd4f5531	-0.050618354
1	0x3bae6ee3	0.0053232773
2	0x3d3bc035	0.0458376
3	0xbca3b303	-0.01998282
4	0x3d8ac479	0.067757554
5	0x3d16f3cc	0.036853597
6	0x3cbd18f9	0.023083197
7	0x3da09ed1	0.07842792
8	0xbcc40b8b	-0.023931285
9	0xbcc24457	-0.023714228
10	0x3cf12c80	0.029440165
11	0x3daf7e11	0.08568967
12	0xbd572d53	-0.05253346
13	0xbd4fee72	-0.05076451
14	0xbd2682cd	-0.040652085
15	0xbb36b2e5	-0.0027877626
16	0xbd6a2ca1	-0.057171468
17	0xbcc37a0d	-0.02386191
18	0xbccc75ca	-0.02495851
19	0xbd5b76f6	-0.053580247
20	0xbd09806d	-0.033569742
21	0x3cc09d9a	0.02351265
22	0xbbccfeb0	-0.006255947
23	0x3cffe2df	0.03123611
24	0x3d5f6104	0.05453588
25	0xbcaac1d9	-0.020844387
26	0x3bf121a4	0.0073587466
27	0xbdb54a1f	-0.08852028
28	0x3c1869c8	0.009302564
29	0x3c617f72	0.0137632955
30	0xbc13efdb	-0.009029354
31	0x3d490ed3	0.049086403
32	0xbdae5425	-0.08512143
33	0x3dc4238d	0.09577093
34	0xbd88f387	-0.06687074
35	0x3d2eb8eb	0.04265682
36	0xbd9751d9	-0.07388658
37	0xbd51f794	-0.0512615
38	0x3baeca8f	0.0053342055
39	0xbd2b2be7	-0.041789915
40	0xbd8e2b1d	-0.06941817
41	0xbc521686	-0.012822753
42	0x3d56427d	0.052309502
43	0xbd8b8f59	-0.06814451
44	0x3caa92a7	0.020821882
45	0xbda3d63e	-0.07999848
46	0x3d924a61	0.07143093
47	0x3b0821af	0.002077203
48	0xbcfa9d6c	-0.030592643
49	0xbb9f4816	-0.0048608882
50	0x3d7a9801	0.06118012
51	0x3dae9a53	0.08525529
52	0xbd9f85a6	-0.07789163
53	0x3b1689f9	0.0022970422
54	0xbd92acae	-0.07161842
55	0xbd69d3ca	-0.057086743
56	0x3d19fe5b	0.037596088
57	0xbd9d370a	-0.076765135
58	0xbc08069b	-0.008302356
59	0x3d80e640	0.06293917
60	0xbd872506	-0.065988585
61	0x3ced25b4	0.028948642
62	0x3c8587af	0.01630005
63	0x3d9138a6	0.07090883
64	0xbcc222f4	-0.023698308
65	0xbdbdc19b	-0.09265443
66	0xbc2289e6	-0.009920573
67	0xbbac7429	-0.005262871
68	0xbc8dee3b	-0.017325511
69	0x3dabc694	0.08387485
70	0xbd65cc4e	-0.056103043
71	0x3ca24092	0.01980618
72	0x3d89b7d4	0.067245156
73	0xbd99217f	-0.07477092
74	0x3bab33f7	0.0052247006
75	0x3cb490ec	0.02204176
76	0x3d9857fd	0.074386574
77	0x3cd6fdb6	0.026244026
78	0xbc10a6e4	-0.008828852
79	0xbc950e5c	-0.018195324
80	0xbcc9d5ff	-0.024638174
81	0x3dab0b5f	0.08351778
82	0xbd30feb6	-0.04321166
83	0xbd66d51f	-0.056355592
84	0xbc8fd365	-0.017556855
85	0xbca7f616	-0.020503085
86	0xbbc8f086	-0.0061321883
87	0xb9faf934	-0.00047869387
88	0xbcf0ac35	-0.02937899
89	0xbd57d9fe	-0.052698128
90	0xbcc55d54	-0.024092354
91	0xbd284c0b	-0.041088145
92	0xbdafb927	-0.08580237
93	0xbda455c6	-0.080241725
94	0xbd184588	-0.037175685
95	0xbd07472d	-0.033026863
96	0xbdc2cf50	-0.09512198
97	0x3d032365	0.032016177
98	0x3ce55c88	0.027998224
99	0x3d26a7d3	0.040687393
100	0x3afe7367	0.0019413055
101	0x3c2196b8	0.009862594
102	0x3d244884	0.04010822
103	0xbcfbdacc	-0.030743979
104	0xbcba3360	-0.022729576
105	0x3b9854fe	0.0046488037
106	0xbacb2dcd	-0.0015501321
107	0xbc85234c	-0.016252182
108	0x3d06d52d	0.032918144
109	0x3b569197	0.0032740587
110	0x3d40a8c6	0.047035955
111	0xbd9e308f	-0.077241056
112	0x3d43afdf	0.047775146
113	0x3c2490ac	0.010044258
114	0xbdd4e5b4	-0.10395375
115	0x3c2d6fc7	0.010585732
116	0xbce9059e	-0.028445061
117	0xbd3b24bb	-0.045689326
118	0xbc8c8ae1	-0.017156066
119	0xbd93fbe0	-0.07225776
120	0xbcf9d031	-0.030494781
121	0x3d3707ba	0.044685103
122	0xbdb65f35	-0.08904878
123	0x3c1bc2c4	0.009506885
124	0x3c3eb8ee	0.01164077
125	0x3c1ad07a	0.009449119
126	0xbd9eaab5	-0.077474035
127	0xbcb4ac8e	-0.022054937

attention_layer.att.weight f4 [128, 128]
0	0x3d0ca0cd	0.03433304
1	0x3aef2605	0.0018245584
2	0xbdcc35e1	-0.09971214
3	0xbd8e0829	-0.0693515
4	0xbdb24710	-0.0870496
5	0xbb49fb49	-0.0030819944
6	0x3d5c3795	0.053763945
7	0xbdc4d7ed	-0.09611497
8	0xbcfb52f3	-0.030679202
9	0xbd6dcf91	-0.05805928
10	0xbb3017ea	-0.0026869723
11	0xbd8695c6	-0.06571536
12	0xbd80ac7c	-0.06282899
13	0xbbb3a60f	-0.005482442
14	0xbd7724c5	-0.0603378
15	0xbdb1c339	-0.08679814
16	0xbc7e42a7	-0.015518821
17	0xbcdd966c	-0.027049266
18	0xbd9d09af	-0.076678626
19	0xbcc3eadb	-0.023915699
20	0xbdc1a799	-0.09455795
21	0x3daaa389	0.08331973
22	0x3daaa420	0.083320856
23	0x3d6a999f	0.05727541
24	0xbdad617a	-0.08465858
25	0x3cfbe58b	0.030749103
26	0xbd81b8a8	-0.063340485
27	0xbbc98729	-0.0061501455
28	0x3d6ef5b8	0.058339804
29	0x3d7e0a38	0.062021464
30	0x3d419ce8	0.047268778
31	0xbd1fe69c	-0.039038286
32	0xbce3f9bf	-0.02782905
33	0xbd7f785e	-0.06237065
34	0xbd8b95eb	-0.06815704
35	0xbd56b34f	-0.052417096
36	0x3da88e08	0.08230215
37	0x3d65f8fc	0.056145653
38	0x3d2bbdc4	0.04192902
39	0x3c027f2c	0.00796489
40	0x3d55d2d2	0.052203007
41	0x3d90a1d2	0.07062115
42	0x3cc9bc50	0.024625927
43	0x3d2bd7f4	0.041953996
44	0x3d3a802c	0.04553239
45	0xbd51af9c	-0.051192865
46	0x3b3c57c4	0.0028738836
47	0xbc0e680c	-0.008691799
48	0x3db09863	0.086228155
49	0xbcfc24d3	-0.030779278
50	0x3d90c85d	0.07069466
51	0x3d554982	0.052072056
52	0x3c55269d	0.013009694
53	0x3dadcbc7	0.08486133
54	0xbc9f6638	-0.019457921
55	0xbde16886	-0.110062644
56	0x3d38e06b	0.045135897
57	0x3d930219	0.071781345
58	0xbc8bb4f0	-0.017054051
59	0xbd571c33	-0.052517127
60	0x3d775a24	0.0603887
61	0xbcbd01f0	-0.023072213
62	0xbd97e622	-0.07416941
63	0x3d925761	0.071455725
64	0x3c60ae96	0.0137134995
65	0xbd472cfa	-0.048626877
66	0x3d669ff3	0.056304883
67	0x3d5ad65f	0.053427096
68	0xbd6501bc	-0.055909857
69	0xbd930fe2	-0.07180764
70	0xbc7fdfc7	-0.0156173175
71	0xbcae73b9	-0.021295415
72	0xbd361fe7	-0.04446402
73	0xbaf19fae	-0.0018434429
74	0xbca4e817	-0.0201302
75	0xbd5e2266	-0.054232024
76	0x3c754c85	0.014971857
77	0xbd7b7efd	-0.061400402
78	0xbdbac2a6	-0.091191575
79	0xbcec24bc	-0.02882611
80	0x3d916316	0.07098977
81	0xbd676869	-0.056496058
82	0xbcda58a6	-0.026653599
83	0xbcd66705	-0.02617217
84	0x3d815578	0.0631513
85	0x3d91fa3b	0.07127806
86	0xbc9a66c9	-0.01884784
87	0xbda6f57e	-0.08152293
88	0x3a91ba9b	0.0011118235
89	0xbbbce237	-0.0057642716
90	0x3d3595d2	0.044332333
91	0x3dab81c9	0.08374364
92	0x3b9b77e1	0.0047445153
93	0x3d69f22a	0.05711571
94	0xbb88ccc9	-0.004174803
95	0x3dbb5a40	0.09148073
96	0x3d9fb800	0.07798767
97	0xbbedfc16	-0.007262717
98	0x3da1cada	0.07900019
99	0xbdaca063	-0.08429029
100	0xbd10f585	-0.035390396
101	0x3d5df2a9	0.054186497
102	0x3d808bf3	0.06276693
103	0x3d2ce032	0.042205997
104	0x3d8d8fd1	0.069121964
105	0xbd85e9f1	-0.065387614
106	0x3dae5c00	0.08513641
107	0xbdb8451c	-0.089975566
108	0x3d1f4aa6	0.03888955
109	0x3d0fd379	0.035113785
110	0x3c54d1d5	0.012989481
111	0x3d1bf2fe	0.038073532
112	0x3d50c31a	0.050967313
113	0x3c492843	0.012277666
114	0x3cb09f03	0.021560198
115	0xbd351853	-0.04421265
116	0x3d06f2c5	0.032946367
117	0xbdcc19a6	-0.099658296
118	0x3d2117cb	0.03932933
119	0xbdabdf66	-0.08392219
120	0x3c9fbc7d	0.019499058
121	0xbd927de2	-0.071529165
122	0xbd49f71b	-0.049307924
123	0xbcef3ec7	-0.02920474
124	0xbd813a1d	-0.06309912
125	0xbd5a0a08	-0.053232223
126	0xbc5b25b1	-0.013375686
127	0xbd60ba18	-0.054864973
128	0xbd9d2c57	-0.07674473
129	0xbd5fb403	-0.054615032
130	0xba746538	-0.0009322944
131	0xbd969daa	-0.07354291
132	0x3d6aeb81	0.0573535
133	0xbce6e63f	-0.028185962
134	0xbd7e68eb	-0.062111776
135	0xbd738dca	-0.059461392
136	0x3d8031f0	0.06259525
137	0x3d61362a	0.054983296
138	0xbb8fe805	-0.0043916726
139	0xbd130965	-0.03589763
140	0x3d52677e	0.05136823
141	0xbc8ac274	-0.016938426
142	0x3aea022f	0.0017853434
143	0x3c3bb99d	0.011457828
144	0x3d7ea38a	0.06216768
145	0x3ca7032b	0.020387253
146	0x3d07bcbc	0.033138976
147	0x3c97a9a6	0.018513512
148	0xbdc3131d	-0.0952513
149	0xbcfb9197	-0.030709071
150	0xbd0252ff	-0.031817432
151	0x3d84f910	0.064928174
152	0xbd4e28a0	-0.05033171
153	0x3d8dcf0b	0.06924256
154	0xbd42fb71	-0.047603074
155	0xbd501830	-0.050804317
156	0x3d9b1f57	0.07574337
157	0xbcfe9336	-0.031076055
158	0xbd33f5c1	-0.04393554
159	0xbce11550	-0.027475983
160	0x3d703171	0.0586409
161	0xbcc947d2	-0.02457038
162	0x3c9d0817	0.019168897
163	0x3c6a5f71	0.014304982
164	0xbd7cd93c	-0.06173061
165	0xbd08b931	-0.033379737
166	0x3cb89849	0.022533553
167	0xbc331046	-0.010929173
168	0x3b683276	0.0035430468
169	0xbc97e79d	-0.018543059
170	0x3af60efe	0.0018772779
171	0x3caa7404	0.020807274
172	0x3c3cef38	0.011531644
173	0x3cbabe79	0.022795903
174	0x3cd6a657	0.026202364
175	0xbccf57b0	-0.025310367
176	0x3cfa8ed6	0.030585688
177	0xb9afded7	-0.0003354463
178	0x3da8dbb2	0.082450286
179	0x3d838cf8	0.06423372
180	0xbd98b4ea	-0.074563816
181	0xbd38decd	-0.045134354
182	0xbd03f741	-0.03221822
183	0xbcee9de5	-0.029128024
184	0xbcd4a385	-0.025956878
185	0xbc38e6ca	-0.011285493
186	0x3c4b9c34	0.012427378
187	0xbc1f31bc	-0.009716447
188	0x3ce4ac7a	0.027914274
189	0x3db26d8c	0.08712301
190	0x3d80af05	0.06283382
191	0xbdc27a8f	-0.094960324
192	0xbd02f92e	-0.031975918
193	0x3cf5a9dc	0.029988222
194	0xbdbd297e	-0.0923643
195	0xbd3bebf5	-0.045879323
196	0x3d1b7224	0.03795065
197	0x3d860542	0.065439716
198	0xbd07f26b	-0.033190172
199	0x3d7cc49d	0.061710943
200	0x3c829177	0.015938504
201	0x3da3e9cd	0.08003578
202	0xbcb7a3fa	-0.022417057
203	0x3d24b3d3	0.040210556
204	0x3d618862	0.055061705
205	0xbc94496d	-0.018101418
206	0xbca1fc16	-0.019773524
207	0xbd7b0aa0	-0.06128943
208	0xbd8cd7fd	-0.06877134
209	0xbd8b3e90	-0.06799042
210	0xbc9306a2	-0.017947499
211	0xbc980aa6	-0.018559765
212	0xbd6d17e6	-0.05788412
213	0x3d07b753	0.033133816
214	0xbda922d4	-0.08258596
215	0x3ca50423	0.020143574
216	0xbd3d4538	-0.04620859
217	0xbdb26f52	-0.08712639
218	0x3d1ba73d	0.038001288
219	0x3cd665a5	0.026171515
220	0x3c24233f	0.010018169
221	0xbcd1883a	-0.025577653
222	0x3d33ec5c	0.04392658
223	0x3d9aa416	0.07550828
224	0xbab6b4e5	-0.0013939409
225	0xbd4fa98a	-0.050698794
226	0x3d8b49c8	0.06801182
227	0x3d3bdd6e	0.04586547
228	0x3d92fd07	0.071771674
229	0x3da97678	0.08274549
230	0xbc5b59b6	-0.013388088
231	0xbdd9a243	-0.10626652
232	0x3cf0c4c2	0.029390696
233	0xbd9c16f9	-0.07621569
234	0xbce4fc3b	-0.027952304
235	0xbd15de7d	-0.036589134
236	0xbd87457b	-0.06605049
237	0x39c37673	0.0003728155
238	0xbd0d2b8f	-0.03446537
239	0xbba6ea3e	-0.005093842
240	0xbc1e1134	-0.009647656
241	0xbc445646	-0.01198346
242	0xbda48d2a	-0.080347374
243	0x38e87c7c	0.00011085809
244	0x3d10d6c7	0.035361078
245	0x3c6347b1	0.013872073
246	0xbd1ba953	-0.038003277
247	0x3d5f2a81	0.054483894
248	0xbd7bc4f5	-0.06146713
249	0x3c08e6ae	0.00835578
250	0xbd954e4c	-0.072903246
251	0x3ce3f5d4	0.02782718
252	0xbdbaa275	-0.091130175
253	0xbd035fc9	-0.03207377
254	0xbdb3c165	-0.087771215
255	0x3d31dc8e	0.043423228

attention_layer.att.bias f4 [128]
0	0xbd6027f9	-0.05472562
1	0x3dbc0d1b	0.09182187
2	0x3d824164	0.063601285
3	0xbddb8f05	-0.10720638
4	0x3dc659f1	0.09685124
5	0x3d99c76d	0.075087406
6	0x3bfdf7c2	0.0077504823
7	0x3da9af58	0.08285397
8	0xbd316153	-0.043305706
9	0x3d3e7faf	0.046508487
10	0x3cc1b188	0.023644224
11	0xbb21f834	-0.002471459
12	0xbaa7804f	-0.0012779328
13	0x3dc5e40e	0.096626386
14	0x3d15262b	0.036413353
15	0x3d57533b	0.05256961
16	0x3c1386d6	0.009004315
17	0xbd32760b	-0.043569606
18	0x3ccf5dad	0.025313223
19	0xbd986cbe	-0.07442616
20	0x3d11b851	0.03557617
21	0xbd90fb8c	-0.07079229
22	0xbd5738ff	-0.05254459
23	0xbda3a0e3	-0.07989671
24	0xbd5c543a	-0.053791262
25	0xbcdee254	-0.027207531
26	0x3d0c2fd9	0.03422532
27	0x3aaab11b	0.0013022752
28	0xbcfc3c7a	-0.030790556
29	0x3d69d3c5	0.057086725
30	0x3bee8f11	0.0072802384
31	0x3c6773c7	0.014126725
32	0x3d718c90	0.05897194
33	0xbc3dfd47	-0.011596031
34	0xbd0d6c6a	-0.03452722
35	0x3decf83a	0.11570783
36	0x3e01c2f9	0.12672032
37	0xbbcf44fe	-0.006325363
38	0xbbf7ff85	-0.007568302
39	0x3dc7d537	0.097574644
40	0xbda54271	-0.08069313
41	0xbd0309f1	-0.031991903
42	0xbd55074f	-0.052008923
43	0xbdbf6e78	-0.09347242
44	0x3d040d5e	0.03223931
45	0xbd0044ac	-0.03131549
46	0x3d98e637	0.07465785
47	0xbde6d928	-0.11271888
48	0xbd249970	-0.040185392
49	0x3d8e46ef	0.06947123
50	0x39969937	0.00028724383
51	0x3d61c994	0.05512388
52	0x3ce88455	0.028383413
53	0xbc49e2f5	-0.012322177
54	0xbcb88b3d	-0.022527331
55	0x3d60c8da	0.054879047
56	0xbd72ed6e	-0.05930846
57	0x3d9fec92	0.07808794
58	0x3c1d873c	0.009614762
59	0xbdfe0e63	-0.12405088
60	0x3d1ecb07	0.03876784
61	0x3d5342a5	0.05157723
62	0x3d488ac3	0.04896046
63	0x3c938fb8	0.018012866
64	0x3d6a5917	0.05721387
65	0x3c2cc410	0.010544792
66	0x3d16abf1	0.03678507
67	0x3d028f29	0.03187481
68	0x3dc5e4a9	0.09662754
69	0x3d8a974e	0.0676714
70	0x3cbbfacc	0.022946738
71	0xbba407d3	-0.0050058155
72	0x3de52a5a	0.111897185
73	0xbc3ba6c4	-0.011453334
74	0x3d72bd14	0.05926235
75	0xbda8534a	-0.08219011
76	0x3c9a80ff	0.018860338
77	0xbdada66b	-0.08479007
78	0x3c807b47	0.015683783
79	0xbd12a48d	-0.03580146
80	0xbd5fdb22	-0.05465234
81	0x3dd560ca	0.10418852
82	0x3dc678f4	0.09691039
83	0x3cca7ae7	0.024716808
84	0x3d68e928	0.05686298
85	0x3cee4fd5	0.029090801
86	0xbca0c33c	-0.019624345
87	0xbd44726e	-0.04796069
88	0xbd954b15	-0.072897114
89	0xbdc534a1	-0.09629179
90	0xbc0f7f16	-0.008758327
91	0x3d0e9406	0.034809135
92	0xbdce23f9	-0.10065455
93	0xbc5382bb	-0.012909587
94	0x3d01d11c	0.031693563
95	0x3af0cbb3	0.0018371254
96	0xbd678111	-0.05651957
97	0x3b275347	0.0025531815
98	0x3d5480f3	0.051880788
99	0xbd00edea	-0.031476893
100	0xbd119715	-0.035544474
101	0xbd5f7373	-0.05455346
102	0xbbc6a500	-0.00606215
103	0xbdcbcf4d	-0.09951649
104	0x3d84e6ba	0.0648932
105	0xbc05d7c2	-0.008169116
106	0x3d971633	0.07377281
107	0xbcbe6eab	-0.02324613
108	0xbba8100e	-0.005128867
109	0x3cf9bb67	0.030484868
110	0x3dd4e4f9	0.103952356
111	0xbd42b160	-0.04753244
112	0x3c4a874d	0.01236136
113	0xbd913ff9	-0.0709228
114	0x3c17e3e2	0.00927064
115	0xbce2516c	-0.027626716
116	0xbbbde281	-0.0057948236
117	0xbd23bd48	-0.039975435
118	0x3dd5bd7d	0.10436533
119	0xbc80162d	-0.015635574
120	0x3dd1001a	0.102050975
121	0xbbef41f5	-0.007301564
122	0x3d0e8360	0.034793258
123	0x3df596b4	0.11991635
124	0xba3a0f92	-0.0007097657
125	0xbc7581c9	-0.0149845565
126	0x3cbe44c2	0.023226146
127	0x3d91a757	0.07111996

attention_layer.gate.weight f4 [128, 128]
0	0x3acd2365	0.0015650807
1	0x3da26932	0.07930221
2	0xbc8da26c	-0.017289363
3	0xbd169d3d	-0.036771048
4	0xbd87a2f1	-0.066228755
5	0x3cbb492a	0.022862036
6	0x3a38dd91	0.0007052059
7	0x3ac7ee1b	0.0015253456
8	0x3c1e06f9	0.009645217
9	0xbdcda3ff	-0.100410454
10	0xbde10c3d	-0.109886624
11	0xbd904009	-0.07043464
12	0xbd33a634	-0.043859676
13	0x3c884653	0.016635096
14	0x3d04c8a7	0.03241792
15	0xbcd2c8b4	-0.025730468
16	0xbd4eef8a	-0.05052141
17	0x3c86a07a	0.016433943
18	0x3be46077	0.0069695073
19	0x3d34ed45	0.04417159
20	0xbd61e633	-0.055151176
21	0x3d3c5858	0.04598269
22	0xbd21a07c	-0.03945969
23	0xbd8e909e	-0.06961177
24	0xbceb9174	-0.02875588
25	0xbd0b8063	-0.034057986
26	0xbd41b85d	-0.047294963
27	0xbdb6b731	-0.0892166
28	0xbd30e5a6	-0.04318776
29	0xbd65ab99	-0.05607185
30	0x3ce017c4	0.027355082
31	0xbd600ed4	-0.05470164
32	0xbded7e19	-0.11596317
33	0x3dad4599	0.0846054
34	0x3c1205e3	0.008912536
35	0x3c80ee66	0.015738677
36	0x3d8c8ab0	0.0686239
37	0x3d559096	0.05213984
38	0xbc78acd5	-0.015177925
39	0x3d864c21	0.06557489
40	0x3c8be9bf	0.017079232
41	0xbd9298b6	-0.071580335
42	0xbc03bb4f	-0.008040263
43	0x3cc1c84d	0.023655081
44	0x3dd96f30	0.106169105
45	0xbd6ed1df	-0.058305617
46	0xbd6f3805	-0.058403034
47	0xbd9e4a67	-0.07729035
48	0x3d39aa92	0.045328684
49	0xbd3e313a	-0.046433665
50	0xbc9dff07	-0.019286646
51	0xbd2e2821	-0.04251874
52	0xbcac95ea	-0.021067578
53	0xbc817c46	-0.015806329
54	0xbd69973c	-0.057028994
55	0x3d39fa98	0.045405
56	0xbe015c94	-0.12632972
57	0xbda03d60	-0.07824206
58	0xbd557927	-0.052117493
59	0xbcb09c47	-0.021558894
60	0xbd7222b4	-0.059115127
61	0xbd9d0f50	-0.07668936
62	0x3d5eff39	0.054442618
63	0xbd0282c4	-0.03186299
64	0x3d28f1e6	0.041246317
65	0xbd2fe108	-0.042939216
66	0xbd53aab1	-0.051676456
67	0x3d5887a7	0.052863743
68	0xbd613d2d	-0.054989982
69	0x3d588294	0.052858904
70	0xbd45ef7b	-0.04832409
71	0x3d4072a5	0.046984334
72	0xbd6a67e4	-0.057227984
73	0x3dd6d643	0.10490086
74	0x3d7db08d	0.06193595
75	0x3b289b85	0.0025727462
76	0x3d310fad	0.04322784
77	0x3dacc5a0	0.084361315
78	0xbcef30ed	-0.029198134
79	0x3d96a120	0.07354951
80	0xbcb723f0	-0.022356004
81	0xbd91c961	-0.07118488
82	0xbd1fa978	-0.038979977
83	0x3c9785d1	0.018496426
84	0x3cc2775f	0.023738561
85	0x3d90f2ca	0.07077558
86	0xbd92144a	-0.07132776
87	0xbd8d2c41	-0.068932064
88	0x3d1232a2	0.03569282
89	0x3d580e6b	0.052748125
90	0x3ca96ba2	0.020681206
91	0x3d21c818	0.039497465
92	0x3c1d52fb	0.009602304
93	0xbcce9e32	-0.025221918
94	0xbd9ad39f	-0.07559895
95	0x3d04a1a4	0.032380715
96	0x3d09de65	0.033659358
97	0x3c4be134	0.012443829
98	0x3ca0f41b	0.019647649
99	0xbd94f850	-0.07273924
100	0xbd576921	-0.052590493
101	0x3cb7f221	0.022454323
102	0x3d7340b7	0.05938789
103	0xbc88f830	-0.016719908
104	0xbd8a3004	-0.067474395
105	0xbd8c4dea	-0.068507984
106	0x3de564ca	0.112008646
107	0x3d9d217e	0.07672404
108	0x3cdafdd1	0.026732357
109	0xbde404af	-0.11133706
110	0xbcd5e2ff	-0.026109217
111	0xbceefeb6	-0.02917419
112	0x3d024676	0.031805478
113	0x3dbefb56	0.09325282
114	0x3d4b127d	0.04957818
115	0xbd0afc5f	-0.033932086
116	0x3d22797c	0.039666638
117	0xbd0b6c0c	-0.03403859
118	0xbd9fbcb5	-0.07799665
119	0x3c8c731d	0.017144734
120	0xbc196f8b	-0.009364973
121	0x3cc51ad6	0.024060648
122	0x3d1a998e	0.037744097
123	0x3d56d600	0.05245018
124	0x3ced9db3	0.02900586
125	0x3d98cb2f	0.07460629
126	0x3d5cbb72	0.0538897
127	0xba20e52f	-0.00061376666
128	0xbbe12592	-0.006870934
129	0x3c9969b8	0.018727168
130	0xbd4909b5	-0.049081523
131	0xbd9c2b00	-0.07625389
132	0xbd8580ae	-0.06518684
133	0xbd6ab199	-0.057298277
134	0xbce3cd9a	-0.027808
135	0x3ca5e346	0.020249974
136	0xbc2275ac	-0.0099157505
137	0x3c7b566c	0.015340429
138	0x3cf6e33e	0.030137654
139	0xbcb4ebe8	-0.022085145
140	0x3d7ad5ec	0.061239168
141	0x3a8183b2	0.0009881167
142	0x3bbad480	0.0057016015
143	0xbdc2b41f	-0.095070116
144	0xbcd313f1	-0.025766345
145	0xbd3f601b	-0.046722513
146	0x3c7f26e4	0.015573237
147	0x3d84e7ed	0.06489549
148	0xbda0a84e	-0.078446016
149	0x3a9072dc	0.0011020559
150	0x3c9d293a	0.019184697
151	0x3d88d75b	0.06681701
152	0x3daa1f26	0.08306722
153	0x3cf5aab6	0.029988628
154	0x3d9409b9	0.07228417
155	0x3c45d634	0.012074996
156	0xbd12b841	-0.03582025
157	0xbd908343	-0.07056286
158	0xbe05dde3	-0.13072924
159	0xb81d22f9	-3.7464288e-05
160	0xbd7373ea	-0.059436716
161	0x3d08aea1	0.033369664
162	0x3cd7d0a1	0.0263446
163	0xbd63235f	-0.055453654
164	0x3d4b9bad	0.04970901
165	0x3d36cea8	0.044630677
166	0xbc3a93c3	-0.011387768
167	0x3d90cc21	0.070701845
168	0x3df63d63	0.12023427
169	0x3d668d53	0.05628712
170	0xbc166f7b	-0.009181852
171	0xbba25a3c	-0.0049546044
172	0xbd8568b4	-0.06514111
173	0xbd506824	-0.050880566
174	0xbdaf7185	-0.08566574
175	0xbc0083d1	-0.0078439275
176	0x3d365bba	0.04452107
177	0xbc32153e	-0.010869322
178	0x3d90030d	0.07031832
179	0xbd3c136e	-0.045916967
180	0x3d0d7587	0.03453591
181	0x3d3ff4d3	0.046864342
182	0xbd2fd453	-0.042927098
183	0x3c44a7bf	0.012002884
184	0xbd855f90	-0.06512368
185	0x3dc8bdac	0.09801802
186	0xbdd54cbf	-0.10415029
187	0x3c81a9e5	0.015828082
188	0xba686057	-0.00088644534
189	0x3db1a584	0.08674148
190	0x3d095a21	0.03353322
191	0x3dc1b5f6	0.094585344
192	0x3d8d3ac1	0.06895972
193	0xbc713582	-0.01472223
194	0xbd2703c9	-0.040775094
195	0x39c35a30	0.00037260493
196	0x3c057cb0	0.008147404
197	0x3cabf4ca	0.020990748
198	0x3d8506fd	0.064954735
199	0x3d9d949a	0.07694359
200	0x3c05ba64	0.008162115
201	0x3d2c4bb6	0.04206439
202	0xbd85a168	-0.065249264
203	0x3cda44dc	0.026644163
204	0xbd4ebd24	-0.050473347
205	0xbb96840b	-0.0045933775
206	0x3a245712	0.0006269078
207	0xbda9da2a	-0.082935646
208	0xbccc0c91	-0.024908336
209	0xbce4e7ac	-0.027942501
210	0x3c37d67d	0.011220572
211	0x3bedfe10	0.0072629526
212	0xbd41d94f	-0.047326382
213	0xbccefc17	-0.02526669
214	0xbdb2a5a2	-0.08722998
215	0xbdbdfc79	-0.09276671
216	0xbce29f42	-0.02766383
217	0x3d86dd7c	0.065852135
218	0xbdcd1253	-0.10013261
219	0xbcbc68a7	-0.02299912
220	0x3d311d0d	0.043240596
221	0xbd3ea2b0	-0.04654187
222	0x3dfbf8b5	0.123032965
223	0x3d25fff5	0.040527303
224	0x3d60d18b	0.054887336
225	0xbcf03129	-0.029320316
226	0xbbaaa2d4	-0.005207399
227	0xbd6ecf00	-0.05830288
228	0x3d5ad855	0.053428967
229	0x3c13c5e8	0.0090193525
230	0x3b49536d	0.0030719892
231	0xbdc7d1a8	-0.09756786
232	0x3cdf7cf4	0.027281262
233	0xbc751bd2	-0.014960246
234	0xbd95a5b4	-0.07306996
235	0x3d2030cd	0.03910904
236	0xbc8c0ef6	-0.017096978
237	0xbc857f1c	-0.016295962
238	0xbc934f91	-0.017982276
239	0xbd4bef5c	-0.049788818
240	0xbd016505	-0.03159048
241	0xbd3b280c	-0.04569249
242	0x3d44464d	0.047918607
243	0x3d96c80b	0.07362374
244	0xbc4c8fcf	-0.0124854585
245	0xbd86a790	-0.06574929
246	0x3cb71d7a	0.022352923
247	0xbc9c6f77	-0.01909612
248	0xbd845336	-0.06461184
249	0x3c34a87c	0.011026498
250	0x3d749b01	0.059718136
251	0x3d53363d	0.051565398
252	0x3d3ec509	0.046574626
253	0x3d2a2099	0.041534994
254	0x3c819b49	0.015821116
255	0x3d3f2521	0.04666627

attention_layer.gate.bias f4 [128]
0	0xbd142d3c	-0.03617595
1	0x3d14a2f6	0.036288224
2	0xbd27c8d8	-0.040963024
3	0xbdad4686	-0.08460717
4	0x3c5e7c01	0.0135793695
5	0xbabdaa1b	-0.0014470251
6	0xbdc81cbb	-0.09771105
7	0xbcbb1940	-0.022839189
8	0x3c38c1b3	0.01127665
9	0xbbbe2f31	-0.0058039655
10	0xbd9e16be	-0.077191815
11	0xbd1120e2	-0.03543175
12	0x3d89d62b	0.067303024
13	0x3b683227	0.0035430284
14	0xbd216c71	-0.03941006
15	0xbc6f0e3e	-0.014590798
16	0xbde96582	-0.11396314
17	0x3cc8a251	0.024491461
18	0xbd4007b3	-0.046882343
19	0xbc8db6d4	-0.017299093
20	0xbdac09f2	-0.084003344
21	0x39f2d7f0	0.00046318723
22	0xbd92364e	-0.07139264
23	0xbcbee4f1	-0.023302527
24	0xbc49b843	-0.012311998
25	0xbc0e7fe8	-0.008697487
26	0x3c86b582	0.016443972
27	0x3c16dc14	0.009207744
28	0xbce79e43	-0.028273707
29	0x3d684052	0.056701966
30	0x3d7e67cb	0.062110703
31	0x3da13f5f	0.07873415
32	0x3ccfede3	0.025381988
33	0xb87c0adc	-6.0091596e-05
34	0xbda7d3e7	-0.08194714
35	0x3d457208	0.04820445
36	0xbd468ea6	-0.048475884
37	0xbcb1cdb3	-0.02170453
38	0xbd87b2ff	-0.06625938
39	0x3d1a0a48	0.03760746
40	0x3d7c97d9	0.06166825
41	0xbdb0c88c	-0.08632001
42	0xbca4f919	-0.02013831
43	0xbdba2d88	-0.09090716
44	0xbd2154dc	-0.03938757
45	0xbc98137d	-0.01856398
46	0x3c50210c	0.0127031915
47	0xbc746556	-0.0149167385
48	0x3bacd50e	0.0052744215
49	0xbdb299bb	-0.08720728
50	0x3c8ef7e3	0.017452186
51	0xbdba8673	-0.091076754
52	0xbc09f6c8	-0.008420654
53	0xbd9beb96	-0.07613294
54	0xbd3f5aa1	-0.04671729
55	0x3ce2d58e	0.027689721
56	0xbc4e5044	-0.012592379
57	0x3c521888	0.0128232315
58	0xbcb3bedf	-0.0219416
59	0xbd35ccf2	-0.044384904
60	0xbd15bb06	-0.036555313
61	0xbd8a1231	-0.06741751
62	0xbdbb396d	-0.091418125
63	0xbd529941	-0.051415686
64	0x3d86f21b	0.06589147
65	0xbd2f8902	-0.04285527
66	0x3cd00b7e	0.025396105
67	0x3ca5ab74	0.020223357
68	0xbda80000	-0.08203125
69	0x3a537262	0.00080660556
70	0x3dc5015c	0.096194
71	0xbd431dc9	-0.047635827
72	0x3d56cf72	0.05244393
73	0xbd8aacf1	-0.06771267
74	0x3d24ce67	0.040235903
75	0xbd957439	-0.07297558
76	0x3d083181	0.033250336
77	0xbdb056fb	-0.0861034
78	0xbd4e6cad	-0.05039661
79	0xbd812964	-0.06306723
80	0xbbb66898	-0.0055666678
81	0xbb09bfad	-0.0021018789
82	0xbcb852be	-0.022500392
83	0x3bdbce49	0.0067079407
84	0xbd840f8c	-0.06448278
85	0x3d317007	0.04331973
86	0xbd93ac66	-0.07210617
87	0x3d3f9f91	0.046783034
88	0xbda15e89	-0.07879359
89	0x3d8a4454	0.06751314
90	0x3cc87246	0.024468552
91	0xbbcad74f	-0.0061902176
92	0xbd4c0a7f	-0.049814697
93	0xbb9ac2a2	-0.004722909
94	0xbc34e61d	-0.011041191
95	0x3db48c4f	0.08815824
96	0xbd990779	-0.074721284
97	0xbd8c05a1	-0.06837011
98	0xbc29f5e4	-0.010373566
99	0x3cd0c067	0.02548237
100	0xbd9ed92b	-0.07756265
101	0xbd99caac	-0.0750936
102	0xbd4d512d	-0.050126243
103	0xbc681abd	-0.014166531
104	0xbc3bab30	-0.0114543885
105	0x3c309c6f	0.010779484
106	0x3dac5f67	0.08416634
107	0x3d5b67b5	0.0535657
108	0xbd70fdbf	-0.05883574
109	0x3d868cf1	0.06569851
110	0x3db8682e	0.09004246
111	0xbd6fad0b	-0.058514636
112	0xbdb6ef53	-0.08932366
113	0xbd0cb9b0	-0.034356773
114	0xbbb7c0b7	-0.00560769
115	0xbd812222	-0.063053384
116	0xbbbd3c43	-0.005775006
117	0xbda18f67	-0.0788868
118	0xbd9c5ef8	-0.07635301
119	0xbcbe3559	-0.023218798
120	0xbd4bf57f	-0.04979467
121	0x3cc1a6da	0.023639131
122	0xbdb6ec01	-0.08931733
123	0xbd064985	-0.032784957
124	0xbc31c05a	-0.010849083
125	0x3ca3154a	0.019907612
126	0xbce6f2f9	-0.02819203
127	0x3daad5cc	0.0834156

attention_layer.w.weight f4 [1, 128]
0	0x3da29a9e	0.07939647
1	0x3bc08446	0.005875143
2	0x3d8d8d17	0.069116764
3	0x3c21acfe	0.009867905
4	0xbd1519c7	-0.036401536
5	0x3b950ec3	0.004548879
6	0xbced0de6	-0.028937291
7	0xbd32b812	-0.043632574
8	0xbbb42330	-0.0054973587
9	0x3d9ed5e8	0.07755643
10	0x3dd1f35a	0.10251494
11	0x3db93255	0.09042803
12	0xbce70597	-0.028200908
13	0xbcbdbff7	-0.023162825
14	0xbda20650	-0.0791136
15	0xbd173cfc	-0.036923394
16	0x3b863411	0.0040955623
17	0x3d41fe1b	0.047361474
18	0x3d96acfd	0.07357214
19	0x3dbf5cd9	0.09343881
20	0x3d5de2e6	0.054171465
21	0x3da5aad9	0.08089227
22	0x3d83c9bf	0.064349644
23	0x3d200fd5	0.0390776
24	0x3c9ca6b1	0.019122453
25	0xbd60b29a	-0.054857828
26	0xbadfa7ad	-0.0017063521
27	0x3dba0e37	0.090847425
28	0x3d9c1ec3	0.07623055
29	0x3d78d764	0.060752288
30	0xba8bc2cf	-0.0010662916
31	0x3d8bb0e4	0.068208486
32	0xbc9fd09b	-0.01950865
33	0xbd86dacd	-0.06584702
34	0xbd475dac	-0.048673317
35	0xbcc7370b	-0.024318239
36	0xbd05718d	-0.032578994
37	0x3d849c5e	0.06475137
38	0x3d6846b3	0.05670805
39	0xbcc7334b	-0.02431645
40	0x3d942c93	0.07235064
41	0xbd422961	-0.047402743
42	0xb8fa73c6	-0.000119424934
43	0x3d6d8221	0.05798543
44	0x3c472274	0.01215421
45	0x3d8b6ddb	0.06808063
46	0xbbfe63b4	-0.0077633504
47	0x3c6f3310	0.014599577
48	0x3d4b1c93	0.049587797
49	0xbda34217	-0.0797159
50	0xbd938bae	-0.07204376
51	0xbd042028	-0.03225723
52	0xbd123704	-0.035697
53	0xbd1532bc	-0.036425337
54	0x3dab0610	0.08350766
55	0xbcc18e52	-0.023627434
56	0x3d90954d	0.07059727
57	0xbd9c8918	-0.07643336
58	0x3d581301	0.0527525
59	0x3d6e1244	0.05812289
60	0xbda81a6d	-0.08208165
61	0xbca5ea92	-0.020253453
62	0xbd89b572	-0.06724061
63	0x3db50219	0.08838291
64	0xbd30a8f9	-0.043129895
65	0x3c9fdf64	0.0195157
66	0xbd2b8ee6	-0.041884325
67	0x3c6a3f2c	0.014297288
68	0xbd3dc4ed	-0.04633038
69	0xbd818b0e	-0.06325351
70	0xbd472e71	-0.048628274
71	0x3da02863	0.07820203
72	0xbcb23a25	-0.021756241
73	0xbd642464	-0.055698767
74	0xbca2a5d7	-0.01985447
75	0x3d8fb3bd	0.07016704
76	0xbd1d3945	-0.038384695
77	0x3c3243cf	0.010880425
78	0xbd27b0ae	-0.04093998
79	0x3d384ecb	0.044997018
80	0x3d0d2cfb	0.034466725
81	0xbd00bd34	-0.03143044
82	0xbd780310	-0.060549796
83	0x3d3337ea	0.043754496
84	0xbcac8ab5	-0.021062234
85	0x3c5cb801	0.013471604
86	0xbd5f4139	-0.05450556
87	0x3c89af49	0.016807215
88	0x3ba02437	0.0048871296
89	0x3d41d336	0.047320567
90	0x3cfcb397	0.030847354
91	0xbc82e54d	-0.01597848
92	0xbd7b22de	-0.06131255
93	0xbd1d787f	-0.038444992
94	0x3dac06d9	0.083997436
95	0x3dbe876e	0.09303175
96	0xbd29b667	-0.041433718
97	0x3dac19ed	0.084033825
98	0x3d82389f	0.06358456
99	0x3d402d47	0.04691818
100	0x3d8f698e	0.07002555
101	0x3da8e618	0.08247012
102	0x3b7fc863	0.0039029352
103	0x3ca1e051	0.019760283
104	0xbdbb97e3	-0.091598295
105	0xbd75fb19	-0.06005392
106	0xbccb2558	-0.02479808
107	0x3cb693cf	0.022287278
108	0x3d2840a7	0.041077282
109	0x3d977fda	0.073974326
110	0xbdb63791	-0.08897317
111	0xbda54d58	-0.08071393
112	0x3db4f219	0.08835239
113	0x3d926ddd	0.07149861
114	0xbd73a369	-0.059482012
115	0x39ddc718	0.0004230074
116	0x3db86797	0.09004133
117	0xbda16c66	-0.078820035
118	0xbda1d03d	-0.079010464
119	0x3d1aca64	0.03779067
120	0xbd12864b	-0.035772603
121	0xbd900a39	-0.070332
122	0x3cf48e58	0.029853031
123	0xbd46934b	-0.048480313
124	0x3bc980d1	0.0061493893
125	0x3c1e5920	0.009664804
126	0xbdc3541d	-0.09537528
127	0xbd960be6	-0.07326488
