dataset/models/PDAC_Moffitt15_BasalLike/model.pth (torch, 696702 bytes, 14 tensors)

tiles_emb.hidden_layers.0.weight f4 [128, 768]
-0.3742927 0.316593 0.329892 0.43098283 0.44810995 -0.29841837 -0.2514877 -0.37482408
-0.36854306 -0.34725147 0.47563896 0.3235109 0.16591102 0.45787936 0.27604806 0.19949125
0.37641382 0.40128684 0.20944871 -0.20278916 -0.5007571 0.21951005 -0.33928752 -0.34409976
0.48837024 -0.30035985 0.282397 -0.2870856 0.29815623 -0.3286794 -0.2088652 -0.3157272
-0.30129334 -0.37650496 -0.40246683 -0.29519194 0.29375136 0.178256 0.23079145 -0.36237302
0.41013804 0.3587207 0.39848274 -0.28919435 -0.47598332 0.28159645 -0.26462364 -0.5725965
0.35852587 0.3061513 0.42285156 0.36396515 0.19093725 -0.28093424 0.28788447 -0.46359256
0.4501401 -0.331368 0.10836102 -0.4475687 2.1224904e-09 0.3121159 -0.21052058 -0.33950466
-0.22216415 -0.23671308 -0.090750515 0.22611044 0.34721437 -0.3634431 -0.32530037 0.25516412
0.16041787 -2.165632e-05 0.010730187 0.36151442 -0.4008576 -0.35811174 -0.4628036 0.34951666
0.37098056 0.1795268 0.38182348 0.0038210608 -0.28649217 -0.22527127 -0.3231647 0.37661102
0.40777174 0.31563666 0.33747014 0.47422192 -0.35500082 0.35761344 0.30096033 -0.4977814
-0.26153514 0.35473832 0.3832402 0.2257173 -0.38506666 -0.31760812 -0.20484193 0.3070583
0.29099524 -0.0056517366 0.20109048 -0.30703524 -0.16383485 0.40297875 0.2643148 -0.37735933
0.3653993 0.41395324 0.42410046 0.3759615 -0.45659322 0.2809931 0.08076325 -0.2785709
0.47831008 -0.31406757 -0.32840052 0.28031683 -0.3546583 0.2881459 -0.29240397 -0.3486525
0.31171355 0.22788396 0.18690635 0.41306353 -0.36887506 0.31294036 0.3043689 0.2573669
-0.3350536 0.44139445 0.20821807 -0.30493277 0.30536458 -0.22873455 0.2080638 -0.26239142
0.41218466 -0.37568426 0.34033003 0.5005363 0.010481587 0.3345768 -0.17867324 0.10247859
-0.37865704 -0.13937296 -0.4653998 0.33753884 -0.2364737 -0.45637402 -0.38351554 -0.31077516
0.32035697 -0.4471721 0.31423163 0.34277517 0.0013820308 -0.20360132 0.457573 -0.4597123
-0.10571224 -0.30727178 0.17879376 0.13719712 0.43956408 -0.27928045 0.3653162 0.3256967
-0.42479503 -0.38244042 0.3188098 -0.32813832 -0.35231793 -0.31560597 -0.28627428 -0.112216465
0.32810956 -0.33492076 -0.37720922 0.41968337 -0.36952263 0.21279278 0.2791132 -0.37186453
-0.29893473 -0.43355188 0.27238557 0.18738233 0.09960701 -0.29100883 0.36517057 0.29740718
-0.00080672273 0.2883648 -0.25180838 0.3425134 0.31253836 0.3980009 -0.31632513 -0.05762904
-0.1734267 0.42205128 0.3623413 -0.2851945 0.0002982545 0.3369526 0.32737842 0.2050731
0.45859197 0.30521396 -0.36348704 0.33729693 0.36512583 0.044251405 0.30029216 -0.43017954
0.31195155 -0.02909435 0.33318856 0.4788482 -0.31703937 -0.23983836 -0.28188944 -0.34283188
0.3615309 -0.3153028 0.39508706 0.0010642523 0.4776276 0.40902832 0.33748585 -0.28169683
-0.38338026 -0.3492098 0.35160473 0.08930185 0.23341677 -0.38358283 0.16659938 -0.12909383
-0.3390936 0.27293807 -0.2976305 0.32342952 -0.3279448 -0.3985539 -0.47256774 0.3063734
00000000: 4ba3 bfbe 7a18 a23e 9be7 a83e c8a9 dc3e
00000010: ab6e e53e 4bca 98be ffc2 80be f1e8 bfbe
00000020: adb1 bcbe f2ca b1be f386 f33e 38a3 a53e
00000030: 94e4 293e 2a6f ea3e 2c56 8d3e 6f47 4c3e
00000040: 50b9 c03e 7875 cd3e b979 563e f6a7 4fbe
00000050: 9e31 00bf 3ec7 603e 18b7 adbe d82d b0be
00000060: aa0b fa3e c4c8 99be 5796 903e e2fc 92be
00000070: efa7 983e ab48 a8be c2e0 55be ffa6 a1be
00000080: 1f43 9abe 42c5 c0be 2210 cebe 6623 97be
00000090: 9466 963e be88 363e 9854 6c3e f588 b9be
000000a0: 9dfd d13e 3daa b73e ee05 cc3e 4811 94be
000000b0: 16b4 f3be 692d 903e c07c 87be af95 12bf
000000c0: b490 b73e ddbf 9c3e 0080 d83e a459 ba3e
000000d0: 0e85 433e 9dd6 8fbe 9865 933e 015c edbe
000000e0: c378 e63e 11a9 a9be 62ec dd3d ba27 e5be
000000f0: 3fdb 1131 a8cd 9f3e b592 57be 8ed3 adbe
00000100: 007f 63be ea64 72be 68db b9bd 7f89 673e
00000110: 15c6 b13e 3715 babe c58d a6be dfa4 823e
00000120: 9544 243e 98aa b5b7 abcd 2f3c 6b18 b93e
00000130: 353d cdbe 6c5a b7be 98f4 ecbe d9f3 b23e
00000140: 2af1 bd3e e0d5 373e 5e7e c33e c36a 7a3b
00000150: 1aaf 92be 83ad 66be d875 a5be 29d3 c03e
00000160: 75c7 d03e 219b a13e e3c8 ac3e 37cd f23e
00000170: abc2 b5be 1c19 b73e 7917 9a3e 34dd febe
00000180: efe7 85be 43a0 b53e 0f38 c43e 7022 673e
00000190: 7527 c5be 889d a2be 15c2 51be bf36 9d3e
000001a0: 54fd 943e 3432 b9bb aaea 4d3e b933 9dbe
000001b0: 53c4 27be 3b53 ce3e 4554 873e 3e35 c1be
000001c0: 9e15 bb3e aef1 d33e b223 d93e 077e c03e
000001d0: 96c6 e9be 54de 8f3e 3467 a53d d8a0 8ebe
000001e0: 0fe5 f43e 77cd a0be 1d24 a8be b085 8f3e
000001f0: c695 b5be dc87 933e f9b5 95be 9582 b2be
00000200: eb98 9f3e 6a5a 693e 6164 3f3e 107d d33e
00000210: 31dd bcbe b839 a03e 3ed6 9b3e 98c5 833e
00000220: 258c abbe 74fe e13e 1e37 553e 2620 9cbe
00000230: bf58 9c3e 6439 6abe ad0e 553e 2b58 86be
00000240: de09 d33e b059 c0be bd3f ae3e 2623 003f
00000250: f6ba 2b3c a64d ab3e 1ef6 36be 4ce0 d13d
00000260: 56df c1be c9b7 0ebe e248 eebe e4d1 ac3e
00000270: 2926 72be dba9 e9be 265c c4be ec1d 9fbe
00000280: d405 a43e bef3 e4be f8e2 a03e 3a80 af3e
00000290: 4225 b53a dd7c 50be 0247 ea3e 695f ebbe
000002a0: a97f d8bd ba52 9dbe b615 373e 677d 0c3e
000002b0: 8b0e e13e d9fd 8ebe ba0a bb3e b8c1 a63e
000002c0: bc7e d9be 3bcf c3be 0a3b a33e bf01 a8be
000002d0: 0463 b4be 1b97 a1be 8b92 92be bfd1 e5bd
000002e0: fafd a73e bc7a abbe 9121 c1be bde0 d63e
000002f0: 1232 bdbe 5ae6 593e ede7 8e3e 0765 bebe
00000300: f90d 99be 83fa ddbe 1f76 8b3e 27e1 3f3e
00000310: c3fe cb3d 1cff 94be a3f7 ba3e c145 983e
00000320: 3f7a 53ba 8da4 933e 07ed 80be eb5d af3e
00000330: 0705 a03e c6c6 cb3e 5ef5 a1be 6e0c 6cbd
00000340: c596 31be 1b17 d83e cd84 b93e 0305 92be
00000350: 0b5f 9c39 0d85 ac3e 259e a73e affe 513e
00000360: 91cc ea3e 0145 9c3e f91a babe 2fb2 ac3e
00000370: c6f1 ba3e f640 353d e5bf 993e 7e40 dcbe
00000380: 1db8 9f3e 4657 eebc b197 aa3e 972b f53e
00000390: fc52 a2be 3098 75be d053 90be a987 afbe
000003a0: 941a b93e 5e6f a1be da48 ca3e 627e 8b3a
000003b0: 9b8b f43e 296c d13e f2ca ac3e 913a 90be
000003c0: 6b4a c4be a0cb b2be 8905 b43e e3e3 b63d
000003d0: ce04 6f3e f864 c4be 0799 2a3e 2c31 04be
000003e0: ad9d adbe 8abe 8b3e 0663 98be 8e98 a53e
000003f0: 61e8 a7be 420f ccbe 66f4 f1be f9dc 9c3e

tiles_emb.hidden_layers.0.bias f4 [128]
-0.59446144 -0.002392477 -0.223838 -0.49575746 0.90766996 -1.3532025e-07 -0.39837688 -0.6931236
-2.3145323e-09 -4.4730598e-08 -0.68025935 -0.30312592 1.2680497e-09 8.363361e-10 -0.5423039 -2.5900917e-09
2.4959899e-09 2.4196964e-08 -0.19154052 -0.20921832 3.674638e-08 -0.535125 -0.25275588 3.1342033e-09
-0.5562468 -0.5995186 1.3908732e-06 -0.056272935 2.518134e-09 0.3865728 1.9774506e-09 -0.6526856
-0.7456247 0.20028369 3.896788e-09 0.16701242 -0.75831443 -0.49160248 0.8216509 -0.010072638
-0.6068226 -0.54981667 -0.4375575 -0.06744803 -0.68139625 -0.45838475 -0.30167115 -0.5935371
-2.143137e-09 -1.5015671e-07 0.392778 0.24622396 0.3284051 -0.80315405 -0.41834915 1.2898835e-06
-5.9713687e-09 -5.2664983e-09 -0.36065197 0.4231742 -7.2996426e-10 -4.116824e-09 -0.605007 -0.17280796
-0.5703344 -0.38456044 -3.1676347e-08 -6.2669734e-08 0.12550238 -1.722196e-10 -1.7072501e-09 -0.19632551
-0.53292656 -0.18763463 -0.5152128 -0.1726401 -4.1361443e-09 -0.5255857 -0.18198764 -0.78408283
-0.22886127 -0.5974593 -2.3157833e-09 1.691354e-08 -1.0260245e-08 -0.37466344 0.1330196 2.3905262e-08
-0.45662966 0.3721938 -0.036454827 -1.015329e-08 -0.26991394 -0.25136676 -0.52422065 -0.055574246
-0.19378315 -0.560162 -0.6768479 -0.18058231 -2.034156e-09 -0.22288528 -0.24503273 -3.4218135e-09
-0.08076125 -0.020627942 -0.38228363 -0.19375682 -0.17155711 -0.68325543 -0.4360368 -0.3496734
-0.497796 -0.533122 -0.51168984 -0.5113439 5.456647e-09 -0.2316489 -0.56364256 -0.00024636643
-0.042399876 0.50454456 -0.4880781 9.839644e-09 -0.63436294 3.2335896e-09 -0.18499231 -0.15932839
00000000: a02e 18bf 1acb 1cbb ca35 65be ecd3 fdbe
00000010: 0f5d 683f 8c4c 11b4 0ef8 cbbe 8c70 31bf
00000020: af0d 1fb1 d01d 40b3 7a25 2ebf 5233 9bbe
00000030: 8847 ae30 ece3 6530 6ed4 0abf 60fd 31b1
00000040: eb85 2b31 b0d9 cf32 3323 44be 543d 56be
00000050: 12d3 1d33 f4fd 08bf 3869 81be 7d61 5731
00000060: 3166 0ebf 0d7a 19bf 0aae ba35 737e 66bd
00000070: 7b0b 2d31 dfec c53e aee3 0731 6716 27bf
00000080: 43e1 3ebf 2b17 4d3e 82e4 8531 4e05 2b3e
00000090: e520 42bf 52b3 fbbe b757 523f b507 25bc
000000a0: ba58 1bbf c9c0 0cbf 8907 e0be 3122 8abd
000000b0: fc6f 2ebf 68b1 eabe a474 9abe 0cf2 17bf
000000c0: 7746 13b1 c33a 21b4 331a c93e 2222 7c3e
000000d0: b724 a83e 819b 4dbf dc31 d6be 0f20 ad35
000000e0: b72c cdb1 9cf4 b4b1 60a7 b8be 4aaa d83e
000000f0: aba6 48b0 f873 8db1 bde1 1abf 92f4 30be
00000100: 6f01 12bf 1be5 c4be 830c 08b3 0d95 86b3
00000110: b283 003e 825b 3daf 86a4 eab0 8e09 49be
00000120: e06d 08bf 4b23 40be fce4 03bf 91c8 30be
00000130: e91d 8eb1 c98c 06bf f85a 3abe a7b9 48bf
00000140: 9c5a 6abe 18f3 18bf b123 1fb1 4549 9132
00000150: 0945 30b2 e3d3 bfbe 4a36 083e 3a58 cd32
00000160: 5dcb e9be 3090 be3e a851 15bd a46e 2eb2
00000170: 2932 8abe 25b3 80be 5333 06bf d2a1 63bd
00000180: 176f 46be c766 0fbf e745 2dbf 92ea 38be
00000190: 40c9 0bb1 0a3c 64be dce9 7abe 2e25 6bb1
000001a0: 2766 a5bd eefb a8bc aeba c3be 3068 46be
000001b0: abac 2fbe d4e9 2ebf 3740 dfbe 6408 b3be
000001c0: 1edf febe af7a 08bf 1bfe 02bf 6fe7 02bf
000001d0: 2d7d bb31 5f35 6dbe e14a 10bf be2a 81b9
000001e0: 7eab 2dbd d529 013f 5fe5 f9be 360b 2932
000001f0: 9c65 22bf e935 5e31 a06e 3dbe fb26 23be

tiles_emb.hidden_layers.2.weight f4 [128, 128]
-0.5911086 -0.5039745 0.11175868 -0.5373914 -0.98496085 -1.771304e-09 -0.5060654 0.35978147
5.419603e-10 1.7936459e-09 0.4542137 2.2740208e-10 -1.531194e-11 -7.595443e-11 0.001995036 -3.0166197e-10
-3.169268e-10 6.974096e-10 0.27053815 0.25651407 -6.033764e-10 -0.43452334 -2.3263141e-11 2.887451e-09
0.00872792 0.12779914 -1.5729323e-09 -0.65322524 7.2848316e-10 -0.75305736 3.5608136e-10 0.29233032
-2.534131e-09 -0.6591727 -6.395713e-11 -0.7258795 0.39061967 -0.4799157 -0.8116557 -0.3994013
-0.51887715 -0.51018536 -0.59504306 5.9502174e-08 -0.42037526 -0.42163125 -0.37659764 0.014073657
-5.74413e-10 -1.8567534e-10 -0.70795155 0.49679822 0.6064459 -0.5282449 -1.5070347e-05 1.63791e-09
4.6492982e-10 -2.3348837e-10 0.006921786 -0.77500045 2.8936858e-10 8.5577045e-10 0.14399694 0.24301772
-0.36864957 -2.4304123e-08 1.0241108e-07 -2.9194327e-09 2.7480783e-07 2.9032315e-10 -4.022982e-10 -1.263374e-06
-0.5099918 0.22306406 -0.38880187 0.25410596 6.859547e-10 0.054039586 0.05093049 -5.0871037e-08
0.012037956 -0.53922874 -3.764187e-10 1.721026e-10 3.6265163e-10 -0.41988158 -0.63688123 3.4926635e-09
-0.25243074 -0.76644033 0.019319858 -6.9067135e-10 -7.777818e-09 0.2304383 -0.51059794 -1.2594654e-09
-0.37242362 -0.44019046 0.002643264 0.2058974 1.3953803e-10 -2.5983507e-10 0.25500736 9.905132e-10
-0.18704484 -0.60537213 -4.778396e-09 0.19068399 0.28501964 1.02347375e-08 -0.44328082 0.15916681
-0.24414337 -0.36720937 -0.48674366 -0.42861512 7.217923e-10 0.25834054 -0.38207173 1.0129548e-09
-0.4317866 -0.7755053 0.35481238 -1.43853375e-11 -0.14718771 -2.5766547e-09 0.15573312 -1.3620407e-09
-0.56051433 -0.2798283 0.004999191 -0.5734565 -0.81118363 4.4792556e-09 -0.5131994 0.35335633
4.5455112e-10 -4.045276e-09 0.33402544 -7.716225e-10 4.977872e-10 -2.1338079e-10 0.060047917 -8.3780544e-10
6.521454e-10 -2.25355e-08 0.08229232 0.18558583 4.8104315e-10 -0.57444024 1.2962152e-09 -1.5372036e-08
0.102143854 0.27484772 -8.368277e-10 -0.4055129 1.1512976e-09 -0.31747934 -3.2329002e-09 0.29261282
-1.02781144e-07 -0.40273026 -2.6348684e-10 -0.60058206 0.45486927 -0.48356673 -0.52661836 -0.21471518
-0.5231077 -0.52139574 -0.58046186 1.12488765e-08 -0.36900494 -0.44790906 -0.37715325 0.0018722888
-7.3415296e-10 -2.714569e-08 -0.65774006 0.33147424 0.29205352 -0.4165611 -0.50379145 -3.7785157e-11
1.7089323e-09 4.4004592e-10 -1.5219084e-07 -0.49150506 6.414334e-10 -2.0681514e-09 0.35402077 0.07290438
-0.4386131 -1.553596e-09 5.1551215e-05 8.305656e-08 5.313816e-06 -5.2165383e-10 -9.36443e-10 0.022120224
-0.3680551 0.08420916 -0.34378672 0.087153874 -8.919234e-10 0.0061326646 0.00059812877 -2.2701907e-09
-4.3239734e-07 -0.46765432 -1.2709109e-09 -1.2803445e-09 -1.2297761e-09 -0.5378268 -0.5831815 5.597677e-08
-0.21246779 -0.337484 3.7392324e-06 1.1298614e-09 8.5223595e-10 0.06016537 -0.4614873 1.8289216e-09
-0.46995455 -0.36619315 0.06394676 0.032743044 -4.410057e-10 -8.767165e-10 0.08800959 -1.28554e-09
-0.07676339 -0.5031836 -3.2129297e-09 0.05751545 0.09516494 1.195058e-08 -0.5094165 0.03068399
-0.15402241 -0.31380045 -0.5685052 -0.4509023 1.3083676e-09 0.088864446 -0.37767255 -8.63859e-10
-0.25747368 -0.5414514 0.2474517 -8.764358e-11 -0.24799281 7.4518724e-08 0.029731939 -0.0014437025
00000000: e552 17bf 7904 01bf bce1 e43d 7c92 09bf
00000010: 6526 7cbf 3872 f3b0 818d 01bf 4735 b83e
00000020: 11f9 1430 4e84 f630 b38e e83e ff07 7a2f
00000030: 6caf 86ad 8b06 a7ae 26bf 023b 26d7 a5af
00000040: 7b3b aeaf d6b3 3f30 fa83 8a3e d055 833e
00000050: d7da 25b0 d879 debe f09f ccad 936c 4631
00000060: 8dff 0e3c c7dd 023e a32e d8b0 c539 27bf
00000070: 723e 4830 5ec8 40bf ffc1 c32f 52ac 953e
00000080: e724 2eb1 8bbf 28bf aaa4 8cae 3dd3 39bf
00000090: 4dff c73e 83b7 f5be abc8 4fbf 547e ccbe
000000a0: 22d5 04bf 829b 02bf be54 18bf 558f 7f33
000000b0: 6d3b d7be 0de0 d7be 68d1 c0be 3295 663c
000000c0: b9e4 1db0 f626 4caf 503c 35bf 565c fe3e
000000d0: 0a40 1b3f 0f3b 07bf a6d6 7cb7 d61c e130
000000e0: 0e99 ff2f 915c 80af 26d0 e23b 6e66 46bf
000000f0: 0215 9f2f 7e3b 6b30 ef73 133e a3d9 783e
00000100: a3bf bcbe 55c5 d0b2 16ed db33 349f 48b1
00000110: 4d89 9334 5a9b 9f2f 702a ddaf 3391 a9b5
00000120: d38e 02bf e86a 643e 0a11 c7be 2d1a 823e
00000130: c58d 3c30 9d58 5d3d 7d9c 503d 4c7d 5ab3
00000140: d93a 453c e50a 0abf 39f0 ceaf 933a 3d2f
00000150: ae5e c72f b8fa d6be a60a 23bf 9603 7031
00000160: 9a3e 81be 6f35 44bf ae44 9e3c add9 3db0
00000170: 359f 05b2 05f8 6b3e 8cb6 02bf 8019 adb0
00000180: 4fae bebe a560 e1be 9c3a 2d3b c5d6 523e
00000190: 776c 192f 89d8 8eaf 5390 823e 9622 8830
000001a0: af88 3fbe abf9 1abf 372f a4b1 aa42 433e
000001b0: 18ee 913e dad4 2f32 b4f5 e2be a0fc 223e
000001c0: b800 7abe de02 bcbe 7736 f9be 7173 dbbe
000001d0: 9e67 4630 3645 843e e89e c3be 2e38 8b30
000001e0: 2213 ddbe 8487 46bf f8a9 b53e cd11 7dad
000001f0: 60b8 16be fd10 31b1 8178 1f3e 8c32 bbb0
00000200: de7d 0fbf a845 8fbe 41d0 a33b 0cce 12bf
00000210: bba9 4fbf f3e7 9931 0961 03bf 1feb b43e
00000220: 62e4 f92f a0fe 8ab1 6205 ab3e 1b1a 54b0
00000230: a9d4 0830 5a9d 6aaf cef4 753d 514b 66b0
00000240: a742 3330 1794 c1b2 e088 a83d 360a 3e3e
00000250: 673a 0430 840e 13bf 8526 b230 770b 84b2
00000260: cc30 d13d d7b8 8c3e 8406 66b0 639f cfbe
00000270: af3b 9e30 a78c a2be c829 5eb1 59d1 953e
00000280: 88b8 dcb3 a932 cebe 7ada 90af bfbf 19bf
00000290: a0e4 e83e 0f96 f7be 76d0 06bf 4cde 5bbe
000002a0: 63ea 05bf 317a 05bf 2699 14bf 1541 4132
000002b0: 37ee bcbe 5654 e5be 3b1a c1be 9667 f53a
000002c0: 6ccd 49b0 012e e9b2 a761 28bf feb6 a93e
000002d0: 0a88 953e 7f47 d5be 7af8 00bf 4e2e 26ae
000002e0: b6df ea30 f5ea f12f e669 23b4 8da6 fbbe
000002f0: dd50 3030 4e1f 0eb1 3642 b53e e44e 953d
00000300: e591 e0be 4d86 d5b0 b238 5838 d45c b233
00000310: 554d b236 2064 0fb0 29b4 80b0 7935 b53c
00000320: b871 bcbe da75 ac3d d004 b0be bb7d b23d
00000330: 882b 75b0 85f4 c83b becb 1c3a 9e01 1cb1
00000340: 3d24 e8b4 6370 efbe 34ac aeb0 1ef8 afb0
00000350: e604 a9b0 04af 09bf 624b 15bf 1c6b 7033
00000360: 2891 59be b4ca acbe 86ef 7a36 7749 9b30
00000370: c642 6a30 f76f 763d 1048 ecbe 755d fb30
00000380: e29d f0be ab7d bbbe 85f6 823d 921d 063d
00000390: 0972 f2af 70fd 70b0 5f3e b43d ebae b0b0
000003a0: 2036 9dbd a4d0 00bf 75ca 5cb1 5295 6b3d
000003b0: d6e5 c23d 354f 4d32 1f69 02bf fe5c fb3c
000003c0: 0db8 1dbe 74aa a0be 8f89 11bf abdc e6be
000003d0: 18d2 b330 90fe b53d 4c5e c1be ac74 6db0
000003e0: 97d3 83be 8f9c 0abf fa63 7d3e f3ba c0ae
000003f0: d4f1 7dbe 1a07 a033 6590 f33c 9e3a bdba

tiles_emb.hidden_layers.2.bias f4 [128]
-0.8944068 -0.6002626 0.71953267 0.7986367 -0.51461196 0.3922777 -0.78892994 -0.7183907
-0.7635828 -0.78837377 0.4386655 -0.9833856 -1.075073 0.22078697 -0.76802105 -0.829683
-0.66788316 -0.3422045 -0.016016101 -0.7198583 -0.3139076 0.7530408 -0.5667495 -0.4582974
0.75866467 0.7544501 -0.8049912 -0.13424921 0.63260525 -0.6976389 0.79416966 -0.097403035
0.46839502 -0.71676314 0.65304273 -0.32203612 0.67417026 -0.9127792 0.6402153 0.56086737
0.2887473 0.5868685 -0.6743615 -0.42648545 -0.3090403 -0.64372504 0.69486403 -0.1933737
-0.70592946 0.52931464 -0.41504905 0.5874457 0.86108595 -0.85766965 0.6697839 -0.6398924
0.78225255 -0.47191736 0.6666989 -0.5171209 -0.64799833 0.54944646 0.8857292 0.017755106
-0.8449469 0.6298508 0.11168646 -0.3813124 -0.3793802 -0.78345615 -0.6119707 -0.57184875
0.53198403 0.58815503 0.6485069 0.80384177 0.76085657 0.49550962 -0.85327464 -0.39278394
-0.4128791 -0.40849012 0.030221518 0.5635748 -0.12856947 -0.06948287 0.10809222 -0.22559795
0.7645483 0.5103428 -0.7332273 0.56570286 -0.42341977 0.6019031 -0.9353558 0.55382526
-0.31196204 -0.50425845 0.6202571 0.8210105 0.7933997 -0.33110833 -0.5906554 0.91118604
0.5615271 -0.8257716 -0.8812961 -0.43069926 0.56645334 -0.43373626 0.4118381 0.30472183
-0.70476234 0.62806016 0.37368134 0.4527037 -0.4320384 -0.7070109 -0.0003399753 0.65180683
0.71397454 0.8584085 -0.8405052 0.5287711 -0.06568191 0.7863623 -0.06686182 0.91929036
00000000: d8f7 64bf cfaa 19bf 4b33 383f 7473 4c3f
00000010: 9cbd 03bf 9fd8 c83e 50f7 49bf 74e8 37bf
00000020: 2a7a 43bf ddd2 49bf c498 e03e 29bf 7bbf
00000030: fe9b 89bf fb15 623e 079d 44bf 1b66 54bf
00000040: 64fa 2abf 6e35 afbe 3334 83bc a248 38bf
00000050: 7fb8 a0be 48c7 403f 7f16 11bf f5a5 eabe
00000060: d937 423f a423 413f e713 4ebf a078 09be
00000070: 6bf2 213f 7798 32bf b44e 4b3f 3e7b c7bd
00000080: 79d1 ef3e ca7d 37bf cf2d 273f ebe1 a4be
00000090: 6c96 2c3f e6ab 69bf 26e5 233f 0195 0f3f
000000a0: b0d6 933e 043d 163f f5a2 2cbf 4d5c dabe
000000b0: 883a 9ebe 2acb 24bf 9ce2 313f c103 46be
000000c0: cbb7 34bf 2a81 073f 4f81 d4be d762 163f
000000d0: 2170 5c3f 3d90 5bbf f576 2b3f fdcf 23bf
000000e0: b441 483f 279f f1be c7ac 2a3f 0962 04bf
000000f0: 38e3 25bf 86a8 0c3f 26bf 623f 2873 913c
00000100: 714e 58bf e73d 213f dfbb e43d 613b c3be
00000110: 1f3e c2be 9590 48bf 1daa 1cbf ae64 12bf
00000120: 1b30 083f 5491 163f 8c04 263f 93c8 4d3f
00000130: 7fc7 423f 70b3 fd3e 3570 5abf fa1a c9be
00000140: e464 d3be 9e25 d1be 1e93 f73c 7046 103f
00000150: b7a7 03be 094d 8ebd 745f dd3d 2603 67be
00000160: 70b9 433f d3a5 023f c9b4 3bbf e7d1 103f
00000170: 7aca d8be 5216 1a3f 7a73 6fbf 7ec7 0d3f
00000180: 7db9 9fbe 1517 01bf 2bc9 1e3f be2d 523f
00000190: 3e1c 4b3f 0887 a9be 3135 17bf 7d43 693f
000001a0: 3dc0 0f3f c465 53bf 9f9c 61bf 9d84 dcbe
000001b0: 1603 113f ae12 debe 72dc d23e 8004 9c3e
000001c0: 4e6b 34bf 8dc8 203f 2953 bf3e c8c8 e73e
000001d0: 2334 ddbe abfe 34bf b63e b2b9 d0dc 263f
000001e0: 09c7 363f a9c0 5b3f 592b 57bf 8b5d 073f
000001f0: 3d84 86bd 0a4f 493f daee 88bd 9d56 6b3f

attention_layer.att.weight f4 [128, 128]
-2.7776878e-08 -6.2983524e-08 -3.151219e-08 -8.711172e-08 -2.4258482e-09 -1.2535425e-09 -8.75672e-09 -3.682713e-08
6.3218266e-08 5.765986e-08 4.7938133e-08 -6.996421e-08 1.2662316e-07 -4.1246178e-08 4.8858e-08 5.996489e-08
-5.877388e-08 1.5361291e-08 -1.8487189e-08 -3.4143667e-08 -2.5203606e-08 -7.153929e-08 -1.7975756e-08 9.0821617e-10
-3.1098907e-08 4.627006e-08 -5.3897335e-08 1.20124986e-08 -6.150755e-08 2.0244316e-08 6.9667244e-08 5.8147137e-08
-8.499362e-09 4.848483e-08 -3.312123e-08 6.380395e-08 2.3386859e-08 8.974917e-08 5.695106e-08 9.573007e-09
5.2056417e-09 -4.761871e-08 -5.6691146e-08 -4.3455133e-09 -1.8433498e-08 2.8983976e-08 7.8757324e-08 6.789692e-08
-4.080518e-08 3.805758e-08 -1.4704711e-08 -4.7633407e-08 -3.819236e-08 7.201305e-08 5.715676e-09 -4.320412e-08
1.7355248e-08 1.6858356e-08 4.0094665e-08 3.2884444e-08 -8.282957e-08 -1.4059633e-09 5.996943e-09 2.5331067e-08
-9.31142e-08 1.6627812e-08 -4.224308e-09 4.2226516e-09 2.228322e-09 -9.456272e-08 -4.885293e-08 1.9762856e-08
4.5613657e-08 8.6098515e-09 2.2793873e-08 3.0075644e-09 6.63364e-08 3.2838038e-08 3.984927e-08 2.5760851e-08
-4.2786854e-09 1.850757e-08 -4.010987e-08 -1.5674805e-08 2.2370905e-08 -4.793047e-09 -2.0832893e-09 -4.9207983e-08
8.2547984e-08 7.0132073e-09 -2.0382256e-08 2.6894421e-08 1.2808619e-09 1.7921815e-08 2.22445e-08 3.3573652e-08
1.7026034e-08 -2.0973845e-08 1.5019149e-08 -1.7809858e-08 -1.0449826e-07 2.4522638e-08 5.414154e-08 -6.0996975e-08
-6.318527e-09 5.9455136e-08 -1.0927217e-07 -1.3485621e-08 5.2765063e-08 1.1520281e-09 6.7620842e-09 3.319597e-08
-4.120188e-08 3.0298434e-08 -6.3707803e-09 3.2320415e-08 -3.069209e-08 -5.6028604e-08 2.165372e-08 7.2162156e-09
4.9431463e-08 5.4897857e-08 -2.987218e-08 1.6753653e-08 3.0933204e-08 5.729677e-08 -1.3269308e-08 -1.1099116e-07
0.03904471 0.13996026 -0.16663988 0.04871292 -0.09127435 0.13881211 0.09244453 0.0952076
0.009872814 0.23198302 0.12540263 0.19096343 0.09731718 -0.05239799 0.12358481 0.11697766
-0.12236265 0.090699226 0.010832887 -0.006123924 0.024952034 0.056642257 -0.065248266 -0.052034277
-0.291844 0.16521533 -0.10525381 -0.030037321 -1.4680614e-08 -0.082825534 0.077242196 0.0064120395
0.09997573 -0.0001673689 -0.16580933 0.030167561 2.594073e-08 0.00022245632 0.108411975 0.009282546
0.084637456 -0.1641061 0.15084998 -0.053931978 0.0039300984 0.13441151 -0.038378425 0.0826585
0.26657218 0.04933346 0.117745645 2.7465294e-09 0.08211622 -0.029420998 -0.038470138 0.19631214
-0.13221693 -0.1636569 -0.25488222 -1.2518375e-06 -0.23034823 0.119770885 -0.0010679212 6.15727e-05
0.103075884 0.0510311 -7.8218626e-10 -0.085208185 -0.048522174 -0.13676308 -0.18397245 0.057381038
0.04075452 -0.27617046 -0.17390083 -0.21416695 -0.056429215 0.0015673884 0.09576482 -0.13116619
-0.12600182 -0.12913875 -0.020052856 -0.0048617423 -0.003790361 -0.05003317 0.014996258 -5.971728e-07
-0.047957588 -0.066991374 0.055944186 -0.0805603 -0.0328019 -0.20494817 0.24196805 -1.51357e-09
-0.07370971 0.0929768 -0.11829876 -0.11898713 0.17096649 -0.28043306 -0.24990116 2.8899667e-09
0.1278276 -0.049889546 8.446281e-10 0.0026955293 0.051510267 -0.09366746 0.08323682 -0.0007081851
-0.08513001 -0.11875664 0.051127337 0.15287568 -0.13244657 -0.010779837 7.463124e-05 0.10476079
-0.00066530163 -0.16455993 -0.12884061 0.06835318 -0.026670292 -0.026462438 0.10538751 -1.3121858e-09
00000000: 009a eeb2 8f41 87b3 0558 07b3 2d12 bbb3
00000010: f9b3 26b1 1b49 acb0 7670 16b2 dc2b 1eb3
00000020: 9cc2 8733 b0a5 7733 89e4 4d33 3b3f 96b3
00000030: e9f5 0734 a726 31b3 f0d7 5133 0cc6 8033
00000040: 916e 7cb3 d6f3 8332 c2cd 9eb2 5ca5 12b3
00000050: 517f d8b2 24a1 99b3 1b69 9ab2 08a6 7930
00000060: 9c91 05b3 78ba 4633 bf7c 67b3 875f 4e32
00000070: 2216 84b3 b9e5 ad32 f99b 9533 74bd 7933
00000080: 9704 12b2 a23d 5033 2d41 0eb3 9804 8933
00000090: 3fe4 c832 21bc c033 5a9a 7433 8876 2432
000000a0: 4fdd b231 5385 4cb3 937c 73b3 8a4f 95b1
000000b0: b157 9eb2 70f8 f832 4c21 a933 bace 9133
000000c0: c541 2fb3 c074 2333 01a0 7cb2 7c95 4cb3
000000d0: f208 24b3 98a5 9a33 9e63 c431 6f8f 39b3
000000e0: 9814 9532 ebcf 9032 8d34 2c33 d43c 0d33
000000f0: 0ae0 b1b3 f03b c1b0 ab0d ce31 9b97 d932
00000100: 13f6 c7b3 f2d4 8e32 6825 91b1 d616 9131
00000110: 0e21 1931 6812 cbb3 5dd2 51b3 fbc2 a932
00000120: bfe8 4333 87ea 1332 42cc c332 a2ad 4e31
00000130: d274 8e33 ce09 0d33 bc26 2b33 b648 dd32
00000140: b703 93b1 94fa 9e32 4545 2cb3 43a5 86b2
00000150: 242a c032 16b0 a4b1 9d29 0fb1 c058 53b3
00000160: 3c45 b133 d3f8 f031 0e15 afb2 7505 e732
00000170: 520a b030 7df2 9932 2c14 bf32 9f32 1033
00000180: a540 9232 f929 b4b2 7503 8132 4bfc 98b2
00000190: 8768 e0b3 daa5 d232 4189 6833 71fd 82b3
000001a0: 5a1a d9b1 9d5b 7f33 03a9 eab3 63ae 67b2
000001b0: cd9f 6233 6355 9e30 ec57 e831 5b93 0e33
000001c0: f2f5 30b3 7b21 0233 fae5 dab1 acd0 0a33
000001d0: 4fd2 03b3 1aa4 70b3 0901 ba32 81f2 f731
000001e0: 784e 5433 d5c8 6b33 cf4c 00b3 ace9 8f32
000001f0: 6bdb 0433 7716 7633 09f7 63b2 095a eeb3
00000200: 59ed 1f3d be51 0f3e a5a3 2abe 3387 473d
00000210: 0cee babd c324 0e3e 8f53 bd3d 34fc c23d
00000220: 95c1 213c f58c 6d3e 8c69 003e eb8b 433e
00000230: 3b4e c73d 469f 56bd 081a fd3d fc91 ef3d
00000240: 4599 fabd 84c0 b93d 6c7c 313c 33ab c8bb
00000250: 3568 cc3c b601 683d e2a0 85bd e521 55bd
00000260: 946c 95be 352e 293e 4f8f d7bd d410 f6bc
00000270: 0636 7cb2 6fa0 a9bd 2831 9e3d 161c d23b
00000280: 13c0 cc3d bf7f 2fb9 ecc9 29be f621 f73c
00000290: 45d4 de32 2a43 6939 1907 de3d d215 183c
000002a0: 6756 ad3d 6e0b 28be 6b78 1a3e c7e7 5cbd
000002b0: 0ec8 803b 2ca3 093e b232 1dbd dc48 a93d
000002c0: 267c 883e e211 4a3d a124 f13d 75bd 3c31
000002d0: 8c2c a83d 4e04 f1bc dd92 1dbd 0d06 493e
000002e0: e063 07be ad95 27be ec7f 82be cf04 a8b5
000002f0: 68e0 6bbe 704a f53d 7df9 8bba 9720 8138
00000300: 7319 d33d fd05 513d 7701 57b0 a181 aebd
00000310: 30bf 46bd 9f0b 0cbe 4663 3cbe 6108 6b3d
00000320: 36ee 263d 3766 8dbe 0f13 32be 954e 5bbe
00000330: 5222 67bd d470 cd3a 5920 c43d 6e50 06be
00000340: 9f06 01be f33c 04be e345 a4bc 404f 9fbb
00000350: b567 78bb 95ef 4cbd ddb2 753c 674d 20b5
00000360: 2d6f 44bd c632 89bd bb25 653d ccfc a4bd
00000370: 495b 06bd efdd 51be 79c6 773e 0306 d0b0
00000380: 1ef5 96bd 9f6a be3d 9f46 f2bd 86af f3bd
00000390: d711 2f3e ec94 8fbe 17e6 7fbe d598 4631
000003a0: 3de5 023e fb58 4cbd 6b2b 6830 7aa7 303b
000003b0: 6efc 523d bad4 bfbd 1178 aa3d 7fa5 39ba
000003c0: a558 aebd ae36 f3bd e66a 513d 718b 1c3e
000003d0: 13a0 07be ea9d 30bc 5883 9c38 d38c d63d
000003e0: a367 2eba 6682 28be cbee 03be c1fc 8b3d
000003f0: a87b dabc c1c7 d8bc 68d5 d73d 6f58 b4b0

attention_layer.att.bias f4 [128]
7.204998e-10 -0.12777665 1.1362634e-08 2.599792e-08 -8.0261314e-10 -6.0946975e-10 -0.23759307 5.2267557e-10
0.2022195 -7.2964434e-09 1.6040834e-08 3.3249027e-08 -4.529466e-10 -3.1925945e-10 1.5847197e-08 -7.8962353e-10
-3.1419192e-09 1.5217098e-09 -5.217509e-07 1.0178992e-09 1.0487027e-07 -1.9528696e-09 4.044049e-11 0.003953084
4.0287398e-10 1.108556e-09 -6.4827915e-10 -8.829413e-09 3.8026987e-10 -0.0014094666 7.101341e-10 1.1514852e-08
3.329992e-08 6.2510762e-06 0.0051203095 1.6999509e-07 -8.232176e-10 0.07391347 0.12758197 -0.13489674
5.0256643e-10 -0.07827375 -2.7456049e-09 3.835114e-09 1.9738042e-10 0.00808219 0.017391162 0.32126758
-0.28384948 3.441037e-10 -2.2338245e-09 1.2595366e-08 1.91878e-09 4.0571313e-10 1.6498033e-08 -5.0997595e-10
-0.05777898 -0.024743082 7.191871e-10 -0.025659187 -7.233081e-10 5.1342056e-07 3.781606e-10 -3.2959102e-10
0.04490465 -2.7854305e-10 -5.0767146e-09 9.622295e-10 5.657331e-09 6.589536e-05 3.804118e-09 2.2215989e-08
1.1387228e-09 -2.9446867e-10 -1.067242e-09 -7.8846896e-10 -3.0947295e-10 -5.1095866e-10 1.19165485e-07 -5.2242765e-08
-4.884668e-05 1.5074746e-09 -0.2661239 0.08734816 -9.5319734e-08 7.985578e-08 -1.7572536e-09 -2.5270923e-09
4.5928145e-10 -2.3084819e-10 0.04053243 0.0003073212 0.02139256 1.1414767e-09 5.992963e-10 -9.341541e-07
-0.19812462 6.496719e-10 1.4301802e-09 -1.6635217e-10 -2.9563472e-08 -0.30442747 1.9054655e-06 0.24557859
-2.5242837e-08 5.4237015e-09 -2.617935e-08 -1.277108e-09 -7.726441e-10 2.6515299e-09 6.674222e-10 -6.8318917e-10
-0.44402504 -2.8229627e-10 6.3132e-11 1.4738162e-09 -8.029489e-09 -0.00077289186 0.09372719 -1.0936609e-09
-0.05716645 1.7697113e-07 0.41634867 0.16217157 -4.304497e-10 -2.4664242e-08 -0.24980876 3.2914613e-09
00000000: ab0c 4630 e2d7 02be 6535 4332 0852 df32
00000010: e19e 5cb0 9f87 27b0 994b 73be 06ac 0f30
00000020: a112 4f3e 32b4 fab1 2bca 8932 b1cd 0e33
00000030: 9102 f9af c683 afaf 5b20 8832 d10c 59b0
00000040: 3ae9 57b1 6724 d130 730e 0cb5 25e6 8b30
00000050: 0a35 e133 3f33 06b1 f2db 312e df88 813b
00000060: 797b dd2f d95b 9830 9732 32b0 2bb0 17b2
00000070: 3a0e d12f dabd b8ba 3f33 4330 dbd2 4532
00000080: a605 0f33 56c0 d136 45c8 a73b e587 3634
00000090: ca48 62b0 f25f 973d d9a4 023e 5f22 0abe
000000a0: f824 0a30 fd4d a0bd 31ad 3cb1 05c6 8331
000000b0: a605 592f 296b 043c e977 8e3c 2f7d a43e
000000c0: b854 91be 4a2c bd2f db81 19b1 0163 5832
000000d0: 89db 0331 0c0b df2f 8fb7 8d32 5e2e 0cb0
000000e0: a7a9 6cbd 01b2 cabc 4bb0 4530 3733 d2bc
000000f0: 48d2 46b0 fed1 0935 5fe5 cf2f d031 b5af
00000100: f0ed 373d 7321 99af 416f aeb1 713f 8430
00000110: 6962 c231 4d31 8a38 60b5 8231 7ad5 be32
00000120: 3f81 9c30 c8e2 a1af 3dae 92b0 92bb 58b0
00000130: 7222 aaaf 8573 0cb0 ebe7 ff33 8761 60b3
00000140: b9e0 4cb8 8c2f cf30 6441 88be 98e3 b23d
00000150: 94b2 ccb3 2e7d ab33 dd83 f1b0 14a9 2db1
00000160: 1e7e fc2f fdd1 7daf 5505 263d f41f a139
00000170: 733f af3c 24e2 9c30 babb 2430 95c2 7ab5
00000180: 2ee1 4abe 9994 3230 fe8f c430 f9e7 36af
00000190: c3f2 fdb2 ebdd 9bbe 4cbf ff35 f478 7b3e
000001a0: 96d5 d8b2 625b ba31 00e1 e0b2 3e86 afb0
000001b0: ff61 54b0 3536 3631 a975 3730 2acb 3bb0
000001c0: 4057 e3be ab31 9baf 28d4 8a2e 4c8f ca30
000001d0: 11f2 09b2 e59b 4aba 0af4 bf3d c64f 96b0
000001e0: 5e27 6abd 7405 3e34 a72b d53e 4e10 263e
000001f0: 69a4 ecaf 3edd d3b2 decd 7fbe 0030 6231

attention_layer.gate.weight f4 [128, 128]
5.503404e-08 1.0834367e-07 6.496285e-07 6.1464796e-08 -8.36697e-08 3.6315545e-05 -9.9263096e-09 -1.3514823e-08
-1.8877024e-09 4.5830247e-06 -5.2234714e-07 -5.149519e-07 -3.6709608e-08 6.5721526e-09 1.12282585e-07 8.615851e-08
9.105757e-08 1.6957017e-08 2.4648761e-08 -5.6458795e-08 -1.30105064e-08 -5.5164467e-08 3.282389e-08 9.222219e-09
-0.0001130201 0.00012161204 5.650125e-08 -1.4343702e-08 1.0262867e-07 -1.1600271e-07 3.4787657e-08 4.0910678e-08
-7.3669975e-07 -5.397554e-08 5.555048e-07 -4.841592e-08 -3.0997874e-08 6.0276406e-08 -6.138427e-07 -1.2731907e-09
-3.337508e-08 1.7397315e-07 -6.945405e-09 -2.4995662e-08 -3.9256765e-08 7.548218e-08 -4.157285e-08 -3.753133e-08
6.0316037e-05 5.5363977e-08 -1.7248124e-07 -9.182866e-08 -9.157396e-08 -8.696219e-08 -1.942647e-08 -7.939722e-07
-1.3146297e-07 3.380155e-07 -7.18075e-05 -7.681025e-09 -4.1520175e-06 2.000886e-05 -1.01601735e-07 -4.8126843e-08
-5.7924026e-08 -4.5475176e-08 3.8498364e-09 1.0334142e-07 -5.929989e-09 3.1395126e-09 7.0700935e-07 -1.2233282e-08
4.429789e-08 -8.695849e-05 6.1711756e-07 -1.9749166e-07 5.993194e-08 1.5466723e-08 -1.6690495e-10 -1.5051411e-05
-1.6145904e-07 6.578704e-07 3.3349366e-08 1.6044776e-08 1.7939016e-08 -4.309153e-09 -3.598045e-08 1.1886853e-07
5.7343936e-08 8.5349585e-09 -3.527951e-08 1.5291443e-08 1.2881103e-09 -5.250981e-06 2.7359923e-05 2.0856898e-07
1.0261728e-09 -1.905726e-08 -4.8433957e-08 -1.944602e-08 8.38485e-08 -7.520578e-05 -7.2334883e-06 -1.6424674e-07
-1.1588636e-06 -3.8788006e-08 -1.140598e-07 -2.1783e-08 5.970216e-08 -1.1029621e-07 8.6613824e-08 -3.213342e-08
-6.6257414e-08 -8.60099e-08 -2.892636e-08 0.00021295097 -7.399534e-06 3.72306e-08 -4.1648192e-08 8.40373e-08
-1.0090955e-08 -6.683753e-09 -8.711301e-08 3.5836326e-08 -3.087996e-08 -3.9776808e-08 1.5719203e-07 6.739832e-08
1.779873e-09 -0.0006291785 8.06294e-06 -8.521334e-05 4.5973185e-05 -0.00065976824 -7.654049e-08 -8.4950145e-08
3.6221195e-07 -0.00016724825 -8.181476e-05 1.7659131e-07 1.8936819e-10 1.0336884e-09 5.0045054e-07 2.1103953e-07
1.8001534e-05 -2.2287168e-10 1.626624e-10 1.2837901e-07 -1.2994488e-09 -0.0015090721 0.0002038357 0.0006037151
0.00028207267 -0.0033084063 8.563589e-05 7.394506e-10 5.087753e-09 0.0034925074 -8.8551395e-05 2.1268114e-09
-8.065076e-05 6.696802e-08 0.00054490176 3.6464303e-09 -1.9053758e-08 -3.392385e-09 7.572224e-08 -1.9975825e-05
-2.5483746e-09 0.0002557678 -0.0007361722 -4.437251e-09 -2.0812908e-10 5.531471e-07 6.0114864e-08 1.8070058e-09
-0.00016433033 3.5029547e-07 8.6349533e-10 -8.295361e-09 -0.0033044422 0.00030707062 7.9883854e-08 -0.0001327331
-5.866083e-07 7.0911105e-05 0.0015070013 5.6508653e-10 0.0026922582 -0.0020582315 1.4532544e-11 -7.010188e-10
-7.1934885e-09 -0.0011189389 -5.7129323e-10 2.4253708e-05 1.6046837e-08 0.00034516543 0.00010846346 -1.418967e-05
-0.00012571602 0.00054254703 1.1277227e-06 0.00016859361 -2.8843539e-09 -3.8338116e-05 -4.005897e-08 0.0011600851
5.169235e-07 3.398322e-05 2.7379846e-10 -2.395678e-09 -1.73898e-09 2.8598048e-09 -4.426881e-09 2.401935e-10
-8.896885e-07 7.664927e-05 -6.9825505e-09 0.000723576 6.8363113e-07 0.0006325016 2.5398924e-07 -1.1204412e-09
7.347491e-06 5.677272e-07 9.412663e-06 -4.783617e-07 -3.5149264e-05 0.00062236824 0.00014888258 1.1285899e-09
-0.00015732826 0.0010589645 2.6265092e-09 -1.628613e-11 1.45708485e-08 8.735162e-05 -0.00030737213 -7.429067e-10
0.00066406565 4.3914217e-05 -0.00065374473 -0.00053174334 0.002641286 0.000253781 -1.0993665e-09 -0.000120348115
3.1777024e-06 1.0893676e-05 0.00088827027 -0.00015377477 -2.0436404e-09 -2.6242625e-07 2.0427429e-09 -9.494839e-10
00000000: 915e 6c33 90aa e833 2162 2e35 a1fe 8333
00000010: e7ad b3b3 8551 1838 5f88 2ab2 d22e 68b2
00000020: d0b8 01b1 e2c7 9936 6c37 0cb5 3a3b 0ab5
00000030: a4aa 1db3 44d1 e131 0120 f133 2406 b933
00000040: 6e8b c333 e0a8 9132 33bb d332 1a7d 72b3
00000050: d084 5fb2 f9ed 6cb3 40fa 0c33 c06f 1e32
00000060: 3405 edb8 f809 ff38 c8ab 7233 456c 76b2
00000070: b564 dc33 2a1d f9b3 6f69 1533 c4b5 2f33
00000080: 9fc1 45b5 bcd2 67b3 001e 1535 def1 4fb3
00000090: 8622 05b3 4e71 8133 f3c6 24b5 6afc aeb0
000000a0: 4a58 0fb3 60cd 3a34 6ea4 eeb1 0bb6 d6b2
000000b0: 459b 28b3 c418 a233 d58d 32b3 2232 21b3
000000c0: dafb 7c38 56c9 6d33 4833 39b4 5733 c5b3
000000d0: 51a7 c4b3 f8bf bab3 42df a6b2 5b21 55b5
000000e0: 4428 0db4 7f78 b534 5c97 96b8 81f5 03b2
000000f0: 8f51 8bb6 b3d8 a737 2530 dab3 06b4 4eb3
00000100: 24c8 78b3 7c50 43b3 8547 8431 8cec dd33
00000110: bcc0 cbb1 e4be 5731 50c9 3d35 8b2a 52b2
00000120: 0c42 3e33 7c5d b6b8 ffa7 2535 180e 54b4
00000130: efb3 8033 afdb 8432 9183 37af 5185 7cb7
00000140: 865d 2db4 8298 3035 043c 0f33 d6d2 8932
00000150: 5018 9a32 b60f 94b1 ec88 1ab3 aa44 ff33
00000160: 534a 7633 25a1 1232 3b86 17b3 3d5a 8332
00000170: 5a09 b130 9531 b0b6 fd82 e537 01f3 5f34
00000180: 3f09 8d30 5cb3 a3b2 b305 50b3 400a a7b2
00000190: 3310 b433 ccb7 9db8 31b7 f2b6 cd5b 30b4
000001a0: 408a 9bb5 dd97 26b3 0af1 f4b3 531d bbb2
000001b0: 9c35 8033 fcdb ecb3 7400 ba33 1203 0ab3
000001c0: 6649 8eb3 71b4 b8b3 bd79 f8b2 974b 5f39
000001d0: 8349 f8b6 7ae7 1f33 ace0 32b3 ff77 b433
000001e0: 7d5c 2db2 eaa6 e5b1 e212 bbb3 75ea 1933
000001f0: e0a0 04b3 10d7 2ab3 9ec8 2834 9ebc 9033
00000200: b79f f430 74ef 24ba 1046 0737 90b4 b2b8
00000210: 55d3 4038 4cf4 2cba 945e a4b3 d66d b6b3
00000220: 0876 c234 5c5f 2fb9 f793 abb8 0d9d 3d34
00000230: 6836 502f ad11 8e30 b356 0635 1b9a 6234
00000240: 0002 9737 cd0c 75af 65d9 322f 8ed8 0934
00000250: 4a98 b2b0 0fcc c5ba bbbc 5539 a242 1e3a
00000260: 27e3 9339 d9d1 58bb 6b97 b338 3642 4b30
00000270: 59d0 ae31 8de2 643b abb4 b9b8 4327 1231
00000280: 0c23 a9b8 0fd0 8f33 bdd7 0e3a ae94 7a31
00000290: a8ab a3b2 781f 69b1 be9c a233 c291 a7b7
000002a0: 7b1f 2fb1 9318 8639 aefb 40ba 7976 98b1
000002b0: 21d7 64af fb7b 1435 7f18 8133 5d5a f830
000002c0: 1650 2cb9 3e10 bc34 155b 6d30 6283 0eb2
000002d0: 578f 58bb 52fe a039 9d8c ab33 452e 0bb9
000002e0: 6a77 1db5 1cb6 9438 9386 c53a 6e54 1b30
000002f0: 9970 303b 65e3 06bb c2a8 7f2d d0b1 40b0
00000300: 982a f7b1 5ca9 92ba 3009 1db0 7174 cb37
00000310: 5ed7 8932 52f7 b439 e076 e338 2b10 6eb7
00000320: a3d2 03b9 b739 0e3a 425c 9735 81c8 3039
00000330: 1736 46b1 3dcd 20b8 4e0d 2cb3 ff0d 983a
00000340: b6c2 0a35 3489 0e38 b585 962f 37a1 24b1
00000350: eb00 efb0 3886 4431 421b 98b1 3b0c 842f
00000360: eed2 6eb5 c3be a038 2aeb efb1 5dae 3d3a
00000370: c682 3735 77ce 253a 045c 8834 05fe 99b0
00000380: 788a f636 eb65 1835 14eb 1d37 c468 00b5
00000390: 3c6d 13b8 6d26 233a 5d1d 1c39 ba1c 9b30
000003a0: 7cf8 24b9 f4cc 8a3a 0a7e 3431 1b41 8fad
000003b0: 4553 7a32 8b30 b738 ca26 a1b9 6935 4cb0
000003c0: b114 2e3a 8830 3838 1160 2bba b164 0bba
000003d0: 6d19 2d3b e90d 8539 8518 97b0 6763 fcb8
000003e0: 8340 5536 fbc3 3637 cfda 683a 9a3e 21b9
000003f0: 1a70 0cb1 97e3 8cb4 5060 0c31 ff7e 82b0

attention_layer.gate.bias f4 [128]
-3.7716486e-11 -2.1648964e-05 -0.06240197 -0.0015916263 9.153788e-07 -0.109446995 -0.1937515 3.3259496e-11
0.0050683906 -0.3906316 -0.00038408753 -0.098180145 -3.85184e-09 8.315577e-10 0.020627141 1.6747489e-08
1.3582008e-08 -0.0022641125 -0.0004159497 6.9705575e-10 -0.03833928 -0.015696462 -0.0399595 1.202279e-09
1.291203e-09 -4.0780726e-10 -2.4308888e-10 -0.0009199035 -4.0495524e-06 -0.10336616 -6.763827e-10 0.048414253
-0.1417914 -0.018355101 2.2837607e-09 1.4191952e-09 -0.013046086 4.443571e-05 -0.21728295 5.174168e-09
-2.4095807e-05 -8.9143845e-07 -3.003575e-09 3.8007513e-09 -1.1435795e-09 -0.000719871 -0.11970209 -1.8178348e-09
-0.050654445 -6.6520876e-08 -6.6043104e-10 1.7665924e-07 -0.028204024 -0.00037691093 -1.0158474e-09 -0.14355516
-0.01327991 -0.17138825 -0.15767445 -5.47115e-08 -0.107797995 1.6080113e-09 -0.00781209 -5.4408673e-08
-0.039629918 -0.22730547 -0.06976545 -0.042318333 -9.77217e-11 1.8116606e-07 -1.6074544e-08 5.668346e-10
-1.6293598e-08 -0.03140303 -0.07012336 -8.16163e-10 3.626322e-08 -0.016151106 -1.9940316e-09 -0.25362808
-0.0958273 -0.00032980894 0.114691645 2.85232e-09 -0.10660257 -0.044709668 -0.00030624348 1.090356e-09
-0.307465 0.0008432867 6.3539735e-10 -0.0015659269 -0.0021646668 7.635795e-09 2.6553935e-05 -0.05127014
-0.003344671 -1.383996e-07 -0.005363859 4.903274e-07 -0.0007459957 0.07003821 -0.18918328 -0.005487461
0.008024235 -2.7263088e-08 -0.13436137 -0.07934158 -0.32892564 4.486664e-09 -0.018125108 2.9256356e-08
-0.0016093196 -0.00010448243 -0.00092575484 5.8895813e-09 0.05455739 6.287548e-10 -0.006874814 0.007153167
1.1001117e-10 -0.3280714 -0.11817093 7.606122e-08 -0.0971668 3.3149836e-09 5.9872524e-11 -0.0007874253
00000000: fde0 25ae cc9a b5b7 3599 7fbd 1e9e d0ba
00000010: 5ab8 7535 bf25 e0bd cb66 46be dd46 122e
00000020: be14 a63b dd00 c8be 5b5f c9b9 ac12 c9bd
00000030: 2559 84b1 ac93 6430 40fa a83c 1edc 8f32
00000040: 4e56 6932 8161 14bb d313 dab9 f09a 3f30
00000050: a609 1dbd de95 80bc 93ac 23bd 6f3d a530
00000060: 2b76 b130 c531 e0af b8a3 85af ae25 71ba
00000070: 64e1 87b6 a3b1 d3bd 34ec 39b0 064e 463d
00000080: c431 11be 705d 96bc 58f0 1c31 7e0d c330
00000090: 40bf 55bc 7b60 3a38 6c7f 5ebe 77c8 b131
000000a0: 5a21 cab7 2f4b 6fb5 7367 4eb1 c397 8231
000000b0: 202c 9db0 bab5 3cba 5f26 f5bd 60d7 f9b0
000000c0: 097b 4fbd 3dda 8eb3 b489 35b0 b9af 3d34
000000d0: 200c e7bc 219c c5b9 f49d 8bb0 2000 13be
000000e0: fb93 59bc 6780 2fbe 6975 21be eefb 6ab3
000000f0: 32c5 dcbd de00 dd30 90fc ffbb f8ae 69b3
00000100: fb52 22bd c4c2 68be 30e1 8ebd fd55 2dbd
00000110: 6de4 d6ae 8c86 4234 4c14 8ab2 70cf 1b30
00000120: 00f6 8bb2 77a0 00bd d69c 8fbd 5e58 60b0
00000130: d5bf 1b33 534f 84bc 6007 09b1 8adb 81be
00000140: 1a41 c4bd 35ea acb9 74e3 ea3d 8b02 4431
00000150: 7352 dabd 7c21 37bd 4e8f a0b9 7edb 9530
00000160: 0d6c 9dbe 0310 5d3a 1da8 2e30 ca3f cdba
00000170: 15dd 0dbb 952e 0332 24c0 de37 a300 52bd
00000180: 4532 5bbb fe9a 14b4 4fc3 afbb 0b9f 0335
00000190: ed8e 43ba 3170 8f3d 43b9 41be 29d0 b3bb
000001a0: 1578 033c 2a30 eab2 0796 09be d77d a2bd
000001b0: f168 a8be 1d29 9a31 1b7b 94bc 684f fb32
000001c0: ceef d2ba 941d dbb8 5bae 72ba 4e5d ca31
000001d0: 9277 5f3d b0d4 2c30 1f46 e1bb 1d65 ea3b
000001e0: c8ea f12e f9f8 a7be 9a03 f2bd 1957 a333
000001f0: 63ff c6bd cfcd 6331 3ca9 832e 386b 4eba

attention_layer.w.weight f4 [1, 128]
-0.09658254 0.04538522 0.6793737 -0.68459797 -0.4072147 0.6752075 -0.6848985 0.038655024
0.21381754 0.757144 -0.5326068 -0.58952785 0.002339464 -0.25472 0.47303653 0.047702067
0.5094607 0.48424113 0.5090053 0.0011059429 0.44342738 0.4585262 0.2656463 0.54888886
0.14643678 -0.3123864 2.0478043e-07 -0.44807842 0.18653883 0.110093765 -0.4688571 0.47148463
-0.46335575 0.23335576 -0.31806928 -0.4835028 0.21122132 -0.67517895 0.6980632 -0.59217626
0.17831609 0.44095355 -0.31379208 -0.2727868 -0.2979566 0.04237088 0.6725722 0.5883776
-0.6329962 -0.054146923 0.22282453 -0.34959882 0.6245288 0.4862699 -0.09718671 0.11330367
0.032431554 -0.33975598 -0.66160816 0.0746553 -0.42487767 -0.2238403 0.005742129 -0.47519207
0.53998333 0.20722134 0.014077317 0.4799298 0.3166013 0.5514762 -0.7534751 -0.13527603
-0.65610737 0.21789877 0.5397452 -0.004455289 -0.090025246 -0.082454726 0.20039986 -0.7922014
-0.53477764 -0.02595617 0.25262907 -0.07197757 0.161588 -0.22117361 0.26417208 0.18455687
0.67642194 -0.46539918 0.40415886 0.8841766 -0.115043 0.27821895 -0.835473 0.56409466
-0.529789 -0.33899787 0.11841472 -0.05532063 -0.26599807 -0.35919848 0.92544687 0.67912287
0.14339596 -0.10477099 -0.1796873 0.14440739 0.6934459 0.16556445 0.0666062 0.56239605
-0.7564845 -0.5032881 0.34193736 -0.5187957 -0.51437896 0.34585723 0.5425804 0.35195848
-0.5272225 0.6903814 0.6723455 0.57040274 -0.1278112 -0.38912737 1.05833875e-08 -0.35522726
00000000: 11cd c5bd dae5 393d 6feb 2d3f d041 2fbf
00000010: 727e d0be 66da 2c3f 8255 2fbf bb54 1e3d
00000020: fcf2 5a3e 30d4 413f eb58 08bf 4ceb 16bf
00000030: b151 193b a96a 82be d831 f23e 3e63 433d
00000040: 046c 023f 74ee f73e 2c4e 023f 49f5 903a
00000050: ea08 e33e f2c3 ea3e cb02 883e fb83 0c3f
00000060: 86f3 153e 1cf1 9fbe 9ee1 5b34 896a e5be
00000070: 0904 3f3e d778 e13d 0a0e f0be 6f66 f13e
00000080: f73c edbe d0f4 6e3e fad9 a2be ae8d f7be
00000090: 674a 583e 87d8 2cbf 45b4 323f dd98 17bf
000000a0: 7e98 363e aac4 e13e 5ba9 a0be b6aa 8bbe
000000b0: c48d 98be 168d 2d3d b12d 2c3f ea9f 163f
000000c0: 0a0c 22bf 2ac9 5dbd 1d2c 643e 9efe b2be
000000d0: 1fe1 1f3f 5ef8 f83e d309 c7bd c10b e83d
000000e0: f3d6 043d 7ff4 adbe 275f 29bf e1e4 983d
000000f0: 9189 d9be 6436 65be 7828 bc3b 604c f3be
00000100: 593c 0a3f d531 543e 8ca4 663c 5cb9 f53e
00000110: 9119 a23e 8b2d 0d3f bfe3 40bf cd85 0abe
00000120: a7f6 27bf db20 5f3e be2c 0a3f acfd 91bb
00000130: 285f b8bd 06de a8bd 9f35 4d3e b6cd 4abf
00000140: 30e7 08bf 09a2 d4bc 9958 813e fa68 93bd
00000150: 5377 253e 567b 62be 9041 873e 7afc 3c3e
00000160: fd29 2d3f cd48 eebe e9ed ce3e 6659 623f
00000170: aa9b ebbd b772 8e3e 8fe1 55bf 8268 103f
00000180: 40a0 07bf 2191 adbe 6b83 f23d e397 62bd
00000190: e630 88be dde8 b7be 16ea 6c3f ffda 2d3f
000001a0: 64d6 123e 2c92 d6bd f3ff 37be 88df 133e
000001b0: ac85 313f ba89 293e d568 883d 30f9 0f3f
000001c0: f8a8 41bf 7dd7 00bf 6a12 af3e cccf 04bf
000001d0: 57ae 03bf 3314 b13e 8de6 0a3f e733 b43e
000001e0: 0ef8 06bf d6bc 303f d61e 2c3f ea05 123f
000001f0: f0e0 02be b43b c7be 3bd2 3532 59e0 b5be

mlp.0.0.weight f4 [128, 128]
1.0000005 -0.23907748 -0.8623784 -0.5412378 0.303816 -0.16764553 0.9264441 1.0134153
-0.1046357 -0.17883852 -0.27637622 0.8927498 0.8671205 -0.92715436 0.8631592 0.94817305
0.5484108 0.92105806 -0.30966932 0.36569118 0.86740446 -0.5503868 0.22448762 0.033487793
0.21397552 -0.52842295 0.6375861 0.2549141 0.20294847 0.3970057 -0.53125226 0.83687776
-0.35015777 0.4034525 0.14472975 0.8234582 0.20452455 0.91710526 -0.50757974 -0.28684908
-0.18504006 0.16318922 -0.19390732 0.33318698 0.92899436 -0.20480032 0.26745123 0.93765646
0.43199486 -0.29737243 0.9124161 -0.35892677 -0.54237944 0.5291748 0.1378342 -0.15389886
0.15096255 0.32326406 0.25382566 0.4175571 0.54859823 -0.31201488 -0.9284432 0.7645251
0.820305 -0.33858547 -0.17373258 0.2773125 0.27661252 0.6144236 0.5839267 -0.23308733
-0.2480934 0.1695131 0.14189407 -0.006569652 -1.0233635 -0.250687 -0.022300161 0.3006826
0.26425487 0.21946876 -0.90827054 -0.94466496 0.2030039 0.22818264 -0.14773247 0.64255553
-1.2150302 0.19157264 0.859283 0.2234127 0.24479525 -0.30139634 0.61900157 -0.4182456
0.18580297 -0.19206637 0.16062203 0.10329634 -0.60743785 0.34259498 0.50318724 0.23339128
-0.30003452 0.5303795 0.94803905 0.94801414 -0.31354153 0.24182685 -0.26610234 -0.7855565
0.3828362 0.2132937 -0.20478153 -0.31642774 0.33852318 0.38179782 0.28028128 -0.3364582
0.2530856 -0.3922815 0.5334817 -0.23109344 -0.5959756 0.14306827 -0.16964613 -0.78504086
0.43183592 0.36167973 -0.53144497 0.16638407 -0.22796065 0.2680832 0.44002113 0.3997612
0.45924577 0.5156939 0.22619832 0.5765834 0.48914263 -0.25001183 0.5692796 0.378356
-0.14997646 0.44876683 0.28140575 -0.26658309 0.27752632 0.024345629 -0.32453135 -0.31665984
-0.35851368 0.13731292 -0.04283465 -0.31883046 -0.007826369 -0.096963316 0.14762801 0.28193793
0.12979104 -0.088981085 -0.4324438 0.22647525 -0.24799784 0.31263667 0.20124838 0.22908911
0.23854592 -0.47758448 0.3949343 -0.36588326 0.24921538 0.46164945 -0.3788412 0.26149303
0.59321034 0.21411619 0.44702688 0.078848995 0.05256602 -0.03952602 -0.44257015 0.51524687
-0.5308743 -0.19540009 -0.50356156 -0.08042717 -0.030329967 0.19877028 -0.2956366 0.0849921
0.42414284 0.20180821 2.1345168e-05 -0.23913537 -0.20916408 -0.040624425 -0.051443428 0.34846386
0.13276905 -0.48255792 -0.5090377 -0.41784173 -0.41660833 0.17104755 0.48296484 -0.22460148
-0.27776304 -0.23033595 -0.27883926 -0.21552335 -0.20935959 -0.2521926 0.2642878 0.03558642
-0.4916033 -0.34165472 0.50679684 -0.33408317 -0.20041221 -0.44067958 0.44679967 0.0023338406
-0.26552963 0.4123096 -0.3533854 -0.4374803 0.10813288 -0.26078743 -0.13142034 -0.07103691
0.26148307 -0.058614273 0.008283714 0.23334411 0.19695298 -0.2867825 0.22228497 -0.09618043
-0.16933033 -0.37608117 0.22348559 0.17992625 -0.31105605 -0.1086072 0.06512536 0.15402764
-0.3435635 -0.4110173 -0.10421444 0.2685437 -0.22025059 -0.39348233 0.27343187 -7.0183134e-08
00000000: 0400 803f bad0 74be d5c4 5cbf 8f8e 0abf
00000010: c58d 9b3e 45ab 2bbe 712b 6d3f 98b7 813f
00000020: 3e4b d6bd 7221 37be 2f81 8dbe 408b 643f
00000030: 9cfb 5d3f fd59 6dbf 00f8 5c3f 78bb 723f
00000040: a664 0c3f 76ca 6b3f fa8c 9ebe e03b bb3e
00000050: 380e 5e3f 26e6 0cbf 15e0 653e 7f2a 093d
00000060: 661c 5b3e ba46 07bf d838 233f 1a84 823e
00000070: b9d1 4f3e 5544 cb3e 2600 08bf 9f3d 563f
00000080: e147 b3be 5391 ce3e 0934 143e 28ce 523f
00000090: e26e 513e 69c7 6a3f bff0 01bf e2dd 92be
000000a0: 247b 3dbe 131b 273e a48f 46be 7c97 aa3e
000000b0: 93d2 6d3f 2db7 51be 5eef 883e 410a 703f
000000c0: 6e2e dd3e 3341 98be 1a94 693f 40c5 b7be
000000d0: 61d9 0abf 0078 073f 6924 0d3e aa97 1dbe
000000e0: ed95 1a3e de82 a53e 70f5 813e 0bca d53e
000000f0: ef70 0c3f 6ac0 9fbe 74ae 6dbf ebb7 433f
00000100: 82ff 513f 135b adbe f4e6 31be e7fb 8d3e
00000110: 28a0 8d3e dd4a 1d3f 387c 153f 72ae 6ebe
00000120: 320c 7ebe d894 2d3e ae4c 113e 3c46 d7bb
00000130: 93fd 82bf 0c5a 80be d4ae b6bc 12f3 993e
00000140: 6a4c 873e 6bbc 603e 6b84 68bf 90d5 71bf
00000150: 41e0 4f3e b6a8 693e 2e47 17be 857e 243f
00000160: 1c86 9bbf 9e2b 443e f8f9 5b3f 4dc6 643e
00000170: 9bab 7a3e 9f50 9abe e376 1e3f 4a24 d6be
00000180: 2243 3e3e 0cad 44be 1a7a 243e 088d d33d
00000190: 0c81 1bbf 9c68 af3e e1d0 003f 20fe 6e3e
000001a0: 209e 99be f3c6 073f b0b2 723f 0eb1 723f
000001b0: 8488 a0be 75a1 773e 913e 88be 3b1a 49bf
000001c0: 1b03 c43e aa69 5a3e 40b2 51be d102 a2be
000001d0: e952 ad3e 017b c33e 0781 8f3e 4044 acbe
000001e0: 7094 813e 1fd9 c8be 4292 083f c2a3 6cbe
000001f0: db91 18bf 7d80 123e b7b7 2dbe 70f8 48bf
00000200: 9919 dd3e 162e b93e c70c 08bf 9660 2a3e
00000210: 846e 69be 3442 893e 734a e13e 80ad cc3e
00000220: 4322 eb3e 8404 043f 88a0 673e f89a 133f
00000230: e770 fa3e 8d01 80be 4fbc 113f e1b7 c13e
00000240: 6e93 19be c4c4 e53e 6a14 903e 947d 88be
00000250: ee17 8e3e 7c70 c73c f928 a6be 3d21 a2be
00000260: 1b8f b7be c29b 0c3e 6373 2fbd bf3d a3be
00000270: 2c3a 00bc b494 c6bd cc2b 173e 2b5a 903e
00000280: f1e7 043e b73b b6bd 4669 ddbe 21e9 673e
00000290: 25f3 7dbe ea11 a03e 0e14 4e3e 5696 6a3e
000002a0: 6245 743e f485 f4be d434 ca3e 0d55 bbbe
000002b0: 5132 7f3e 515d ec3e 79f7 c1be 6ae2 853e
000002c0: a2dc 173f 4641 5b3e b5e0 e43e 957b a13d
000002d0: 784f 573d 09e6 21bd 8e98 e2be 38e7 033f
000002e0: 61e7 07bf f616 48be 69e9 00bf 00b7 a4bd
000002f0: 8d76 f8bc 708a 4b3e ae5d 97be 5710 ae3d
00000300: 4029 d93e d0a6 4e3e 660e b337 e7df 74be
00000310: 1c2f 56be cc65 26bd 58b6 52bd db69 b23e
00000320: 9cf4 073e d511 f7be 4b50 02bf 5aef d5be
00000330: b04d d5be 1727 2f3e 2b47 f73e eefd 65be
00000340: f536 8ebe 30dd 6bbe 05c4 8ebe 27b2 5cbe
00000350: 5c62 56be 631f 81be bb50 873e 11c3 113d
00000360: 6eb3 fbbe 5eed aebe 70bd 013f f30c abbe
00000370: dc38 4dbe c1a0 e1be edc2 e43e 59f3 183b
00000380: 80f3 87be 3e1a d33e eeee b4be 6bfd dfbe
00000390: c574 dd3d ee85 85be 0e93 06be cd7b 91bd
000003a0: 1ce1 853e 8515 70bd 6ab8 073c c2f1 6e3e
000003b0: 0bae 493e 28d5 92be ac9e 633e 3ffa c4bd
000003c0: ee64 2dbe b68d c0be 68d9 643e 963e 383e
000003d0: bd42 9fbe 746d debd 7260 853d 6cb9 1d3e
000003e0: 8ee7 afbe dc70 d2be 616e d5bd 8f7e 893e
000003f0: 5f89 61be 8476 c9be 43ff 8b3e 96b7 96b3
