dataset/models/PDAC_Bailey16_Squamous/model.pth (torch, 696702 bytes, 14 tensors)

tiles_emb.hidden_layers.0.weight f4 [128, 768]
00000000: e3ea 992e c705 8aae 5938 322e 2113 332f
00000010: ad23 7b2f d96f 6eaf 1c93 6b2e c170 12af
00000020: 5314 86ae 12e4 01af a59c 482f 1504 fd2d
00000030: 6636 332e 4ed1 77ae 3646 2e2c 2480 602e
00000040: bf08 272f a6a5 39ac 0f9b 192e 1c2e 17ae
00000050: bffe 11b1 517f 262e d45d 7aae a8e4 182e
00000060: b810 12b1 b2e9 932e 52a6 dfad dee1 192f
00000070: 2e21 b72e 5f57 1a30 1076 852e 97c8 862e
00000080: 6cd7 73af 4102 c930 9b45 1e2f 3898 e7ad
00000090: fc1f 45af c18e 0b2e 6a33 c92c 0314 9c2e
000000a0: 785f a32f 88c0 15ae 9371 9fae a340 e92e
000000b0: fce2 80ae 12c4 5bae ab55 722e ebf6 0fb8
000000c0: 270c 122f 4c61 a5ae b6c9 48b1 fb59 11af
000000d0: bfa6 07ae 6633 6e2e 0a57 c62e 4156 e6af
000000e0: a037 12ae da74 e1ac f1b2 15ad c60e b62f
000000f0: 8ae7 9cac 7957 7baf 5e06 062e 3a15 94af
00000100: f1e5 e4ae 52c1 792e 2c30 00ac 8bcf 43ae
00000110: c180 d2ab f0f7 80ae ef4e 17af 1589 bcae
00000120: 4aa3 f22d c165 97ad 3aec 562e b717 0c2e
00000130: 317d b82b dd44 1ab0 6222 8eb0 00e6 ac2e
00000140: 6e41 032f dc48 572e 9077 1ead dafd 46ae
00000150: 6ea8 60ad 7335 002d 4061 0cae fc5c 34b0
00000160: 778a 222f aa47 07af b922 852e 1d6f 31af
00000170: 188b 8130 0249 002f 1884 c5ad f323 b8b1
00000180: 3842 fcad d4de cf2e 843b 7bae 767c 4a2e
00000190: cb21 ef2e 9d98 9c2e a585 43ae bee3 a42e
000001a0: 1d57 1bad 3d24 53ad 9ff8 592e 7bc2 2caf
000001b0: 56db 33ad e079 92ae 9e3e 78ae 0d76 1aac
000001c0: 4d46 79ae 79a6 73af 8e28 c22f 7156 99ae
000001d0: 2a5f 32af 9257 442f 1430 c52d 4ace ab2e
000001e0: 2529 08b0 4ead 42ae 60f5 e42e 3693 2c2e
000001f0: daf8 852e 3366 f6ad 297e 242e 875c ec2a
00000200: b575 5b2f e238 7b2d 6002 8d2d 1398 a22d
00000210: 1a1b 652f 87f9 adae 6eaa f0ac 0727 782e
00000220: 5075 a52d 6fb4 fcaf 0e03 51ae e93f c3ae
00000230: 635f 792e 5810 84ae 637d 43ad 8a24 802e
00000240: 9f2a 332f 2537 e22e ca08 0bb0 147f 1930
00000250: 49af 942d c595 80af 7e12 3c2e 96d0 83ac
00000260: 73ac dfae 0daa 45ad b3bc c12f 0f77 9eae
00000270: aa42 6bac 20ca 91af 8fe6 e2b0 dc57 112e
00000280: 4fc0 bfae b098 672f bc28 22ae e9bc 7fae
00000290: 3bd0 6fae 6529 44ae 84a0 49ae 488c 5fb0
000002a0: 627a 002e bef6 4fae 1c49 d32e bc77 7d2e
000002b0: e403 a6ae b568 8a2e c610 3caf 0e09 522f
000002c0: 16ea 76ad 6464 b82e b051 43ad 8c00 142f
000002d0: 87b4 472e 03cc 89ae f5c5 332e 07d7 f0ad
000002e0: c037 eb2f aaee a22e e0d9 deae c69e a8ae
000002f0: 3a66 40ae d786 e32d dcb5 00ad ebbe fb2d
00000300: 454a c02e 4caf bdad 46ad 65ae 02be 8e2d
00000310: 54e8 00ad f717 b32e 4d54 052d 26de 4d2e
00000320: 0b6a 17ae 2c60 d0ae 3f4c 55ae 2ddf 732e
00000330: db93 3fae d036 1e2e 0fe6 a32e 5f03 8c2d
00000340: e6be 612e 7dba 3faf 38e8 77ae 7a71 b2ae
00000350: b85d b22c bc0e baae 61b7 2c2f d40a 422d
00000360: f9c1 54ad 6303 90ae 2804 9330 f14d 062f
00000370: a00f e42e 67fc 4dae 912e 392f 3643 852f
00000380: d0ce bc2e bf7d bd2d 3aef 56ae 955e 7d31
00000390: f5ba 01af 421e a42d 973b 282e bc0b 102f
000003a0: 8898 50af c2f0 862d 993d 84ae e601 30ae
000003b0: 06d7 c830 43a6 822d 4036 ceae ae86 2dae
000003c0: 7786 bdae c304 b52d 06da d82e d83a d82d
000003d0: 624b f92d 98cb 0faf ab2b 532d daad a4ae
000003e0: 99f8 34af dbe7 bd2e 4d87 012f 3cd0 8eae
000003f0: 318f faaf 836c 2aaf ffc3 b3b0 3dbe 972f
6.999359e-11 -6.27654e-11 4.052256e-11 1.6286751e-10 2.2840992e-10 -2.168571e-10 5.3563473e-11 -1.3318681e-10
-6.097225e-11 -1.1813509e-10 1.8245545e-10 2.8764583e-11 4.0748203e-11 -5.6347198e-11 2.4765862e-12 5.1045515e-11
1.5191669e-10 -2.6382035e-12 3.4925892e-11 -3.437438e-11 -2.1245083e-09 3.785711e-11 -5.6926755e-11 3.4763886e-11
-2.12553e-09 6.726299e-11 -2.5426026e-11 1.3995513e-10 8.3277704e-11 5.6149035e-10 6.069112e-11 6.1292464e-11
-2.2177254e-10 1.4625315e-09 1.4394745e-10 -2.6329258e-11 -1.7928409e-10 3.1731732e-11 5.7184717e-12 7.0976135e-11
2.9717362e-10 -3.404968e-11 -7.250658e-11 1.0607095e-10 -5.8610866e-11 -4.996898e-11 5.5100518e-11 -3.4323817e-05
1.328294e-10 -7.520615e-11 -2.921849e-09 -1.321964e-10 -3.0843546e-11 5.4160586e-11 9.019459e-11 -4.1898043e-10
-3.324596e-11 -6.4078578e-12 -8.509402e-12 3.3116104e-10 -4.4594927e-12 -2.2859394e-10 3.0473728e-11 -2.6936126e-10
-1.04090854e-10 5.6787748e-11 -1.8216635e-12 -4.4522202e-11 -1.4957134e-12 -5.8648086e-11 -1.3761413e-10 -8.573601e-11
2.758473e-11 -1.72119e-11 4.8867778e-11 3.1853378e-11 1.3108734e-12 -5.6122734e-10 -1.0341632e-09 7.8625106e-11
1.1937626e-10 4.8950052e-11 -9.007808e-12 -4.5245453e-11 -1.2770325e-11 7.287826e-12 -3.191869e-11 -6.561576e-10
1.4783007e-10 -1.2303639e-10 6.054308e-11 -1.6137532e-10 9.425518e-10 1.166747e-10 -2.2454968e-11 -5.3591918e-09
-2.867849e-11 9.4528524e-11 -5.7123653e-11 4.6040026e-11 1.08744645e-10 7.121168e-11 -4.4456567e-11 7.498312e-11
-8.830073e-12 -1.2002008e-11 4.9560907e-11 -1.5712402e-10 -1.0223674e-11 -6.660961e-11 -5.6444287e-11 -2.1950248e-12
-5.6678485e-11 -2.2159864e-10 3.531721e-10 -6.9729895e-11 -1.6222815e-10 1.7857207e-10 2.2417658e-11 7.812824e-11
-4.953498e-10 -4.426442e-11 1.0411827e-10 3.9239022e-11 6.092345e-11 -2.8012348e-11 3.7401336e-11 4.1986225e-13
1.9959752e-10 1.4280329e-11 1.6030899e-11 1.8484802e-11 2.0837057e-10 -7.911454e-11 -6.8401318e-12 5.6423335e-11
1.8810425e-11 -4.596674e-10 -4.752381e-11 -8.878926e-11 5.6700766e-11 -6.005568e-11 -1.1112308e-11 5.827257e-11
1.6295097e-10 1.0287086e-10 -5.0580395e-10 5.5841665e-10 1.6903494e-11 -2.3389482e-10 4.2762675e-11 -3.7464016e-12
-1.0171499e-10 -1.1235912e-11 3.5240574e-10 -7.206157e-11 -3.3432515e-12 -2.6518965e-10 -1.6509193e-09 3.3047218e-11
-8.719835e-11 2.1063573e-10 -3.6870715e-11 -5.8148073e-11 -5.4527254e-11 -4.4602006e-11 -4.5844675e-11 -8.132628e-10
2.9212528e-11 -4.7285502e-11 9.608156e-11 5.7631885e-11 -7.549497e-11 6.294113e-11 -1.710446e-10 1.9102606e-10
-1.40354586e-11 8.385184e-11 -1.1102605e-11 1.3460716e-10 4.5407702e-11 -6.2662785e-11 4.087571e-11 -2.7380332e-11
4.2785864e-10 7.409302e-11 -1.01340936e-10 -7.667959e-11 -4.374654e-11 2.5866793e-11 -7.3163385e-12 2.8620181e-11
8.744342e-11 -2.156466e-11 -5.222247e-11 1.6227911e-11 -7.327545e-12 8.1442346e-11 7.578893e-12 4.680891e-11
-3.442761e-11 -9.4758285e-11 -4.8498313e-11 5.5450023e-11 -4.3559694e-11 3.5973724e-11 7.4532484e-11 1.5917654e-11
5.132863e-11 -1.7437603e-10 -5.636755e-11 -8.11466e-11 5.069469e-12 -8.460918e-11 1.5708458e-10 1.1030028e-11
-1.2093875e-11 -6.5489635e-11 1.0696839e-09 1.221492e-10 1.0371015e-10 -4.6835782e-11 1.6842196e-10 2.4240315e-10
8.5859875e-11 2.1542655e-11 -4.8870442e-11 3.687011e-09 -1.1798902e-10 1.8658079e-11 3.8251704e-11 1.3100893e-10
-1.897168e-10 1.5340954e-11 -6.013607e-11 -4.0019453e-11 1.4613029e-09 1.4853124e-11 -9.377432e-11 -3.9455265e-11
-8.618611e-11 2.0579432e-11 9.8612715e-11 2.4582489e-11 2.83415e-11 -1.3078105e-10 1.2003658e-11 -7.488739e-11
-1.6459224e-10 8.635911e-11 1.178055e-10 -6.494402e-11 -4.557648e-10 -1.5499961e-10 -1.307967e-09 2.7601912e-10

tiles_emb.hidden_layers.0.bias f4 [128]
00000000: bff2 08ba 9ded 76bd c1d6 b2ba 3455 84ba
00000010: 1753 a8ba 2b29 baba d95f bab9 9bd7 98b8
00000020: 7acd 96b6 2b2b 9bbd d5f6 73b4 6412 84b2
00000030: c1ed 28b8 1fae 4eb8 2335 1dbd 2aaf 53b7
00000040: 3e5f cbbc 8650 e5b4 d708 dbbc f18f 323d
00000050: c615 2cb8 5800 23bd 8fc5 bcbd adfc feb8
00000060: b3d9 c2b8 4b66 64b7 0943 a4bd 586e 18bd
00000070: 96b4 6ebd 5e01 88b8 ab1c 94b9 c073 0dba
00000080: 8b39 c9ba e667 18b3 3a28 84b6 83bd 47bd
00000090: de21 d7b7 d2cd d2b9 3c7b dcbc a999 82b8
000000a0: 20f2 0fbd 9b5b 0db4 2e35 18bd 43b9 6ebc
000000b0: 012d 0bba d038 cebc 3569 cfbb c798 41ba
000000c0: 15dc b9bb c507 05bd f38e 1cbd 4308 32ba
000000d0: 8a6e a2b9 a5db 83b9 6269 87b4 325f a9bc
000000e0: 599c 0cb7 9fb8 01bb 7d78 a3bc 982b c2b5
000000f0: 85ce 8eb9 d677 aeba c60e e0bc 40bf 28bc
00000100: cb34 0fb9 27d9 46bd be62 dabd 6854 06b9
00000110: 0863 deba d4df 71bd 14ab dabd ee14 99b8
00000120: 93db fcbc 1d19 b8ba beb8 33ba bd2b bdba
00000130: ebd8 333e c652 d6b6 3c58 9bb6 8399 50bc
00000140: db05 813d dd8c b1b8 4962 063d d998 863d
00000150: 947e a2ba 6fa2 b4bc bf4d 853e aabb 90b8
00000160: e3ad b83c e1f3 8fba 43d4 58b5 34ec ebbc
00000170: b557 28b4 8a58 2abd 91b8 9bbd 3e64 84b6
00000180: 6553 08b9 847d 32b8 e161 0dbd 2e24 433b
00000190: a318 79bc 8753 bcba dc73 4fb8 5d76 6933
000001a0: 7094 8f3d 7d0f 8ab9 1883 5ab6 4a50 90bc
000001b0: 6b37 32bd f20a babc 0d1c 8ebb 02c1 85b9
000001c0: 3b61 36b5 4615 203c afb7 a5bc 81b9 cfb2
000001d0: 3f52 cfbc 8a29 9eba 8a3e bcb6 a86d 8bbd
000001e0: 433d 24b7 f2dd 283d f0e1 82b6 81b4 94b6
000001f0: 5ae7 91b9 1579 32bd cdc3 78b8 f8cc a73d
-0.000522416 -0.0602852 -0.0013644324 -0.0010096193 -0.0012842146 -0.0014202943 -0.00035548097 -7.2880845e-05
-4.494269e-06 -0.07576593 -2.2720936e-07 -1.5375186e-08 -4.0275747e-05 -4.927639e-05 -0.038380753 -1.2617364e-05
-0.024825688 -4.2713162e-07 -0.026737614 0.043594304 -4.1028274e-05 -0.03979525 -0.09217369 -0.00012158728
-9.2911905e-05 -1.3613676e-05 -0.080205984 -0.037214607 -0.05827769 -6.48524e-05 -0.0002825012 -0.0005395971
-0.0015352232 -3.5484753e-08 -3.9385895e-06 -0.048764717 -2.5645768e-05 -0.0004020767 -0.026914231 -6.2275045e-05
-0.035143018 -1.3164974e-07 -0.03716009 -0.014570537 -0.00053091353 -0.025173575 -0.0063296803 -0.00073851313
-0.005671988 -0.032478113 -0.038222264 -0.0006791392 -0.00030981406 -0.00025149915 -2.5222386e-07 -0.020675275
-8.381053e-06 -0.001979388 -0.019954914 -1.4466814e-06 -0.0002723822 -0.001331086 -0.027350795 -0.010299504
-0.0001365721 -0.048546936 -0.10663365 -0.0001281068 -0.001696677 -0.05905135 -0.10677162 -7.299507e-05
-0.03086642 -0.001404557 -0.0006855837 -0.0014432591 0.17563216 -6.387333e-06 -4.629632e-06 -0.012731913
0.06299945 -8.4662555e-05 0.032808576 0.06572122 -0.0012397342 -0.02205011 0.26035878 -6.90141e-05
0.022543853 -0.0010982716 -8.077515e-07 -0.028799154 -1.5678127e-07 -0.041588344 -0.076035626 -3.9455763e-06
-0.00013001038 -4.2555403e-05 -0.034517173 0.0029776203 -0.015203628 -0.0014368155 -4.946055e-05 5.435719e-08
0.07010734 -0.0002633295 -3.2560838e-06 -0.01761641 -0.043509882 -0.022710297 -0.00433684 -0.0002551154
-6.794177e-07 0.009770697 -0.020229189 -2.4182329e-08 -0.025307773 -0.0012066823 -5.610117e-06 -0.06808025
-9.789425e-06 0.04122729 -3.9006045e-06 -4.431757e-06 -0.00027828926 -0.043572504 -5.931016e-05 0.081933916

tiles_emb.hidden_layers.2.weight f4 [128, 128]
00000000: 39e4 a42e 3de2 bfbc 4da9 69af 25f6 562e
00000010: 3e8f d8b7 ae8d b03c 67c8 45b9 5bc0 a92e
00000020: 562b 33ad ece5 c4bc 74ea 20b7 a726 8a2e
00000030: ced3 bbb7 d943 9fba 386a 1739 3f8f 2daf
00000040: d454 90bc 1e23 332f ef7a 0bbc 93c5 0bbe
00000050: f22b dd2e 0ccd 0fbc 3072 17bc be00 07ae
00000060: 4dbd 1bb0 1f91 81ae 17cf b03c 60ae 25bd
00000070: b86d afbd 9342 11b3 0414 03ba dd86 9dae
00000080: 0005 08af 4b6d 29b2 f534 efb9 28a6 963d
00000090: c367 a733 09cd 9eb7 93b0 9630 3755 1cad
000000a0: 0a8a 98bb 3dfd 9934 43a7 41bd 2e7b 94ba
000000b0: c7a3 1fae 78fc 9bb7 b0f9 c3ba 62e1 95b2
000000c0: efa6 20ae 4917 39bc 8983 73ba 32eb 1b2f
000000d0: 2e90 322e c57d 0b2e 5ae0 07b4 2d77 14bc
000000e0: b8f6 2136 fa56 8a2e 2a85 333b 51cc daaf
000000f0: 1d14 b7b9 51bb 1cb9 6be0 0dbc cbd0 e5b5
00000100: 3307 0138 4c79 043c 634e f33c 0952 8eb6
00000110: ba2f 3cb9 2ae2 48bd 0c79 223b 2da8 e2ba
00000120: ecfe 353e 5242 a02e 9b9a e8ae 2abf 26b9
00000130: 7f25 a83e d0dd 9bb5 d50a 3cae ade9 16bc
00000140: 8379 80be 492e 7eae 203d 95bd d8e0 79be
00000150: cfb5 ba38 5537 b3bc d949 9f3e f838 deb9
00000160: 93f1 debd 9cc1 78ae 12eb 9634 fdc2 293c
00000170: ea75 0333 e873 7ebb a630 f73c f685 06ae
00000180: 82af 18b8 2766 51b3 3135 1abd a0b7 123d
00000190: a88a 0e31 d21d 22bd e741 81b7 e7e3 b0b0
000001a0: 68cc 4bbe 18d0 a2b9 4787 762f 4eca 2abb
000001b0: d120 fdbb e658 f5ba 57f6 263c ada8 89ae
000001c0: 0f92 b235 746f 893d 79bb df36 f054 03b4
000001d0: 2b63 94bc f6f9 5639 4a55 3434 4b6c b13d
000001e0: 9f4f bd38 15d1 31be 45b1 15b0 df3e 8eae
000001f0: 5ebb 9cb4 baf7 53bc aad2 dcb8 3e36 1abe
00000200: 96ae 132d 196d 10bd f40d 6e2e f240 5e2c
00000210: 8f62 a8b1 286a fabc 9acf beb9 2e52 0aae
00000220: 69fe 74ad 83d9 833a cbe8 a7b5 a953 92ac
00000230: 954e 09b7 7e18 75ba d6d6 38b7 4ec5 d6ad
00000240: 542b 83bc 0fdb c02c 2b3b 6cbb 4a40 053c
00000250: 61e3 dd2c 4252 cdbb c151 38ba 9a33 4aae
00000260: d942 bdaf fd36 da2d e7d4 b6bc a7e5 b5bc
00000270: 703f 863d 5f04 d233 9701 cbb9 45bf 572d
00000280: da5c b3b0 86ec 51af 7bcf 3ab8 2910 34bd
00000290: dbd1 5c32 75f3 6833 283b 7a30 dcd6 03ad
000002a0: 042e ecba 64ae b034 c80e 29bc fbbc 9eb9
000002b0: a38e cdad 3474 9038 a807 533b bbad 22b1
000002c0: d667 1c2e ac9e f7bc 08eb 9db4 0977 ffac
000002d0: 8c73 4e2e 5b45 a3ad 1e88 f0b3 feac b4bb
000002e0: e20b 08b5 2bb1 a22b cac7 a1ba 7056 9aaf
000002f0: 49ab 19ba 400e ed30 b0cd 01bb 9ce7 aab6
00000300: 906d 0f38 c300 5cba 346d 71bb 6a71 9834
00000310: d6e8 5d3a 2623 a7bc e082 c43a da87 e9b9
00000320: e2e3 603d fe31 cbab 5abc 4bad 5210 513b
00000330: 6872 733d f3aa fdb1 73e2 67ad 6ada afbb
00000340: 584a 55bb 4d44 692e b660 933a 3cdc cf3c
00000350: 3f5a 8b38 9f4d 9ab8 c843 663d 46c3 69b9
00000360: b57e a73b 1d74 69ae d2d6 b4b4 c11a 51bc
00000370: 8076 09b3 7416 f6ba 64e1 1c3d 6731 672d
00000380: 64ef 97b7 7101 f031 5439 22bb 25ae 4f3d
00000390: 681b 30b5 372b 37bb 2cab 00b8 e315 91af
000003a0: 169c 06bd 68ca 4839 1505 aaae 478c 4eba
000003b0: c8eb c9bb 5f88 93bb 64d3 1f3a 9181 7a2e
000003c0: 01da f5b2 bcf1 b73d 31e6 8e37 dfd2 5c34
000003d0: c1bc 0bb8 ef5c c3b9 7fb2 49b5 2607 46bd
000003e0: 196b d831 722e 1ab9 3ccf e2af 29f1 3aad
000003f0: f971 5035 65c1 3cbc c535 2fb6 48c4 58bc
7.498397e-11 -0.023423309 -2.1251374e-10 4.8876587e-11 -2.5815909e-05 0.021551933 -0.0001886204 7.7193994e-11
-1.01845945e-11 -0.024035417 -9.591331e-06 6.2823795e-11 -2.2390766e-05 -0.0012150957 0.00014440052 -1.578515e-10
-0.017618574 1.6292431e-10 -0.008513196 -0.13649587 1.0057723e-10 -0.008776914 -0.009243533 -3.0696105e-11
-5.6657684e-10 -5.8920195e-11 0.021583123 -0.0404495 -0.08565849 -3.3820992e-08 -0.0005000236 -7.16349e-11
-1.2370904e-10 -9.861945e-09 -0.00045625088 0.073559105 7.795418e-08 -1.8930545e-05 1.0964122e-09 -8.886495e-12
-0.0046551274 2.8682726e-07 -0.047278654 -0.0011328214 -3.6297878e-11 -1.8595005e-05 -0.0014951732 -1.7448375e-08
-3.6528055e-11 -0.0112970555 -0.00092893146 1.4180726e-10 4.060057e-11 3.1716647e-11 -1.2654473e-07 -0.009061617
2.4134479e-06 6.2909636e-11 0.0027392604 -3.9799145e-10 -0.00034919466 -0.000149471 -0.008659462 -1.7122596e-06
3.07627e-05 0.00808556 0.029700464 -4.24148e-06 -0.00017946857 -0.04904381 0.0024791388 -0.0017292552
0.17773026 7.2877385e-11 -1.0577602e-10 -0.00015902208 0.32841107 -1.1612956e-06 -4.2755872e-11 -0.009210986
-0.25092706 -5.7794023e-11 -0.07287049 -0.24402177 8.9030356e-05 -0.02187697 0.3111103 -0.00042385585
-0.108859204 -5.656063e-11 2.8110713e-07 0.01036143 3.0608057e-08 -0.003882641 0.030174565 -3.0587054e-11
-3.640308e-05 -4.875451e-08 -0.037648384 0.03581965 2.0742537e-09 -0.03957922 -1.5408687e-05 -1.2870459e-09
-0.19902194 -0.0003105409 2.242163e-10 -0.0026060524 -0.0077248593 -0.001871851 0.010190568 -6.2600015e-11
1.3304542e-06 0.06710711 6.6677426e-06 -1.2231226e-07 -0.018113693 0.00020501748 1.6794834e-07 0.08663233
9.027053e-05 -0.17364915 -5.44578e-10 -6.4685805e-11 -2.9193592e-07 -0.012937481 -0.00010529657 -0.15059754
8.3947484e-12 -0.035260294 5.4127328e-11 3.158415e-12 -4.9006483e-09 -0.030568197 -0.000363943 -3.1450557e-11
-1.3926285e-11 0.001005933 -1.2510221e-06 -4.1588577e-12 -8.184133e-06 -0.0009349658 -1.1017275e-05 -2.4416604e-11
-0.016011871 5.4812886e-12 -0.003604601 0.0081330035 6.306442e-12 -0.0062659094 -0.0007031225 -4.5975314e-11
-3.4426398e-10 2.480815e-11 -0.022318317 -0.022204233 0.065550685 9.779682e-08 -0.00038720362 1.2263805e-11
-1.3050354e-09 -1.9092469e-10 -4.4539087e-05 -0.043960724 1.2853401e-08 5.4238132e-08 9.1033536e-10 -7.494196e-12
-0.0018019085 3.290944e-07 -0.0103184655 -0.0003027691 -2.3369145e-11 6.8880996e-05 0.0032200608 -2.3672857e-09
3.5562518e-11 -0.030227028 -2.9414537e-07 -7.2607515e-12 4.6941603e-11 -1.8561755e-11 -1.12006305e-07 -0.0055137863
-5.068124e-07 1.1559966e-12 -0.0012342867 -2.8073854e-10 -0.00058620103 1.724807e-09 -0.0019806437 -5.0933577e-06
3.4195895e-05 -0.00083924475 -0.0036838772 2.8394726e-07 0.0008465176 -0.020402502 0.0014992617 -0.0004454244
0.054904826 -1.4437893e-12 -1.15810365e-11 0.0031900597 0.05943528 -7.382704e-09 -1.3181112e-11 -0.005366613
-0.0032545533 5.303873e-11 0.0011244032 0.02537357 6.644846e-05 -7.35775e-05 0.056216985 -0.00022293357
0.00511154 -5.3081196e-11 -3.3683915e-07 -0.012762726 -3.2005573e-08 -0.0018775002 0.038300887 1.3141799e-11
-1.8112078e-05 6.985083e-09 -0.0024753409 0.050703187 -6.560499e-07 -0.0027949342 -3.0676994e-05 -2.6390898e-10
-0.0328637 0.00019148889 -7.731608e-11 -0.00078791793 -0.0061621405 -0.0045023407 0.00060968683 5.6958497e-11
-2.862089e-08 0.08981654 1.703491e-05 2.0565811e-07 -3.3315973e-05 -0.0003726254 -7.513808e-07 -0.04834666
6.298603e-09 -0.00014703887 -4.125641e-10 -1.0626424e-11 7.765189e-07 -0.011520718 -2.610833e-06 -0.013230391

tiles_emb.hidden_layers.2.bias f4 [128]
00000000: 6446 1fbd ce83 933d a0c0 be3d d782 a3bd
00000010: 4ca3 013e 1688 f23c 7a44 9c3d a1ef b43d
00000020: 6a6d 24bb 99a4 4ebd 3f2c f6bd c2ce 2dbd
00000030: 5c6b c93c fa84 bb3d 8548 cdbd ad9b c43d
00000040: a70c 0a3d 3b7a 37bd fc92 d1bb e04a 9ebc
00000050: 08e5 13bb aa21 38bd 2988 493c c12e d03d
00000060: 3bfa 97bc 2a90 2cbc 6bed 9a3d 164c 2f3c
00000070: 0105 a53d c16f 9cbd 3690 ddba c882 6abc
00000080: f275 7dbd cdfb 4a3d c578 283d d472 fbbd
00000090: 6497 b23d f7fd 2d3d 60b1 853c 77e5 79bc
000000a0: d2a9 1a3e 2866 c1bd 6216 a4bd 94a8 aebd
000000b0: c253 aebc 427d 0cbe 9f89 e93b 87b7 d2bc
000000c0: 2560 a6bc 9a78 903d 7e14 22bd dd25 f33d
000000d0: 0866 5e3d 1ee8 273d 4b68 cebd 9f9e e93d
000000e0: 1c72 603d 8300 c2bb e236 003e 96c8 83bd
000000f0: d1be 453c 53ca cabd f3bd cf3d 7804 bbbd
00000100: ca51 163d b151 8bbb f375 c53d 77b3 d43c
00000110: 99f0 b6bd ed3e 663d 2c55 c8bc fe1a 86bb
00000120: 0963 ae3b b480 ed3d 33d7 993c 1e29 b03d
00000130: 1e09 af3d da0a 9b3b 757e d8bd bc45 bd3d
00000140: 263e 843c cd8f 50bc f13b 813c cc76 163d
00000150: c0d7 bc3d 593a a83d 3ff7 293c d85b 9f39
00000160: abf7 89bd 41b0 683d aab9 bdbd e127 39ba
00000170: 1372 5c3d 15c9 aebd 62f9 ccbd 166a 96bd
00000180: 012c 29bc b07a d63d aea0 343d 9f29 c0bc
00000190: 0079 36bc 83cb 8a3d b82c f3ba f301 9bbd
000001a0: bf90 aabd 347f c9bd 72ee 88bd 33a8 83bc
000001b0: b7ec 97bc 9d19 d1bc c4de d63d f5cd 9b3d
000001c0: 1372 a6bd 0185 b63d 5847 bc3c 99b7 8d3d
000001d0: c944 263d c5ee e6bd 3600 b13c e93a dcbd
000001e0: 1b4b 7cbd 8739 243d 93b1 e23d ba72 163d
000001f0: 987a c7bd e852 bc3d d9f0 a0bd a513 1bbe
-0.03888549 0.07202874 0.09314084 -0.0798394 0.12659949 0.029605906 0.07630248 0.08834768
-0.002508963 -0.05044994 -0.12020158 -0.042433508 0.024587326 0.09156223 -0.10023598 0.09600005
0.033703472 -0.044794302 -0.0063956957 -0.019322813 -0.0022566933 -0.04495398 0.0123005295 0.101651676
-0.018551936 -0.010532418 0.07564815 0.010699293 0.08057595 -0.07638503 -0.001690394 -0.014313407
-0.06188006 0.049556542 0.0411308 -0.12277761 0.08720282 0.042478528 0.01631993 -0.015252463
0.15103844 -0.09443313 -0.08012082 -0.085282475 -0.021280173 -0.13719657 0.0071270014 -0.025722278
-0.020309517 0.07054253 -0.039570324 0.11872456 0.054296523 0.04099285 -0.10078486 0.11407208
0.054796323 -0.005920471 0.12520936 -0.06434743 0.01206942 -0.099018715 0.10143652 -0.09131712
0.036699094 -0.0042516817 0.09641638 0.025964482 -0.08932609 0.056212354 -0.024454676 -0.004092573
0.0053218645 0.11596814 0.018779373 0.086015925 0.08546661 0.004731518 -0.10570995 0.092418164
0.016142916 -0.012729597 0.015775653 0.036734387 0.092208385 0.08214254 0.0103738895 0.00030395272
-0.06736692 0.056808714 -0.09263928 -0.00070631324 0.053819727 -0.08534447 -0.100085035 -0.07344453
-0.010325433 0.104726195 0.04409855 -0.023457346 -0.011137247 0.06777098 -0.0018552756 -0.07568731
-0.083283894 -0.09838715 -0.06686105 -0.016071415 -0.018545492 -0.025524909 0.10491708 0.076076426
-0.08127227 0.08912087 0.022983238 0.06919784 0.040592942 -0.112760104 0.021606546 -0.10753424
-0.061595064 0.040093925 0.11069026 0.036730506 -0.0974018 0.091955006 -0.07858438 -0.15144213

attention_layer.att.weight f4 [128, 128]
00000000: b248 4d3d b204 223c 7cce 073d edae 463d
00000010: d78d ec3c 38d7 073d 2176 133c 7c50 36bd
00000020: 31df 8abd ed7c 92bb 0518 9bbc dca1 a3bd
00000030: 0562 983d 81a8 8d3b 9ba9 773c 36c8 cb3d
00000040: b859 893d 21c0 6b3d bebf 6f3d b80a d4bb
00000050: 5952 60bd 207e 623d 1b68 61bd ba9c 393d
00000060: 098f 58bd 6c9a 83bd 4519 9b3d 0982 90bd
00000070: 8989 8c3d 7c08 8abc afa0 813d dd83 83bd
00000080: bb08 5f3d 7a02 67bd bf32 503d 2b07 1dbd
00000090: 8a75 83bc cbce 8b3d fb00 85bd 8f71 083c
000000a0: d17d d13d 8c2a 0a3d ffe2 223d b25c b4bd
000000b0: 5beb 853d a71f b4bd 762f 863d d641 4f3d
000000c0: f0cc 073d a28f fabb 4892 f1bc cbbf 7e3d
000000d0: 3ed8 eb3b 903d 733d 63da 49bc 43b2 da3c
000000e0: 679c 983d 77dd 86bd 063c 383d 684a 02bc
000000f0: a846 b93d 7f1e 70bb 2920 33bd 2a62 8fbd
00000100: 2966 a73d 38ef 35bb 65bf 8c3c 5889 9e3d
00000110: 3f49 1e3c 132c b33d d6c1 33bd c12f 0abd
00000120: 6986 903d 553c 3dbc 57c1 9c3d 3a9b 4dbd
00000130: 77c7 ecbc 517e 9abd 7481 0cbc eb3d da3b
00000140: e0e7 4f3d 2ea3 c4bb f498 8b3d 9df5 913d
00000150: 5a8c 02bd 511d a73d 691e 80bd aebc f6bc
00000160: e1dd 203d c428 ac3d 984a 38bc 8e9a 8fbd
00000170: 00c3 9c3d a889 9abb 3d52 54bd 1f0a b8bd
00000180: 4f89 7a3c 801c 9dbc 0c73 73bd 7f78 823d
00000190: 2797 82bd 32f9 62bd 4599 94bd 7666 2f3d
000001a0: 07ae be3c ea5f 80bc eb28 9cbd a636 abbd
000001b0: 749f 7a3d 20e6 673d 8fcb 763d bb32 38bd
000001c0: f93f 1dbd 576f 07bd d50a b33d 1bb7 963c
000001d0: 6f8a 76bd 7e3d 82bd f6d8 a53d 2481 23bd
000001e0: 06a6 5dbd 7ccc 14bd 3857 e5bb d352 623d
000001f0: 46b0 b7bc fe36 f3bc a9fd a73c 8bb2 46bd
00000200: b361 a43c 9238 453c ae03 0739 66a0 8a3c
00000210: 5c02 e53b ac89 b73b b01d 2e3b a761 63bc
00000220: 23bb f5bc bd89 6a3c a5cc 13bc 94a2 25bd
00000230: 92ea 0e3d cf4e f839 1071 893c 3c13 803d
00000240: e5c1 f63c b7da cd3c 5c58 de3c 9c46 423b
00000250: cebb 80bd aa17 b83c 3f98 85bd 15ec 703c
00000260: 0d6e ddbc 12cf 05bd 0073 2a3d da74 00bd
00000270: 5be8 0b3d 5106 283b ed03 d93c 0e51 f3bc
00000280: 9313 943c ae39 a9bc 167b e33c 4580 b0bc
00000290: 7359 b6bc b1e0 083d 187a 99bd 71a4 8c3c
000002a0: bcdf 893d 00a1 b13b 2613 433c 83ae 60bd
000002b0: f759 dc3c 5fd1 86bd 4e96 f13c e063 863c
000002c0: e824 303d b95f 3d3c aa8a a0bc c421 263d
000002d0: 98c3 57bc dc8a e73c 0da5 033c 54d0 ce3b
000002e0: 9401 1a3d 5f93 e1bc 2225 bd3c 2870 db3a
000002f0: 0244 613d e68d 8c3c 026a 25bc af18 2cbd
00000300: 795e 403d 4a57 303c ad34 083c b665 433d
00000310: 5fe8 883c d51b 423d c039 e3bc 481c 15bd
00000320: 0653 023d ebbb f1ba d524 1e3d 9358 e3bc
00000330: ef32 08bd b724 12bd 86ce 82bc c490 a23b
00000340: 578d cc3c c050 53bc 29da 1f3d 9fb8 0e3d
00000350: ddda 5b38 786a 903d 8b2d bebc 3f2f 0bbd
00000360: 78a8 be3b 19d6 413d 4587 eebb 8644 f6bc
00000370: 00df 433d 89da 983c 50fa 28bd d975 64bd
00000380: ee2f 8d3c 1d8d e43a c9e2 cdbc eb31 d93c
00000390: 159d e0bc 6af6 c1bc a17c 03bd 62af 5c3c
000003a0: 1a5a 0d3b 4d88 9fbc 774c 1bbd a001 3cbd
000003b0: b5a0 ba3c 5d22 943c 86f1 353d d505 2fbc
000003c0: ddfe 6cbc 192e aabb 51c1 4f3d 63ca e5bb
000003d0: 6eeb c2bc 15eb 3fbd 1dd1 2c3d aa4d 9ebc
000003e0: 27ee 32bc c687 39bd 39a7 18bb 057e c63c
000003f0: 2192 e4bc e9ca 77bc 1422 b03a c63a bcbc
0.050118156 0.009888815 0.033155903 0.048506666 0.028876228 0.033164233 0.009000332 -0.04451035
-0.06780852 -0.0044704587 -0.018932352 -0.079898566 0.07440571 0.0043230657 0.015116121 0.099502966
0.067065656 0.057556275 0.05853247 -0.0064710043 -0.054766033 0.055296063 -0.055030923 0.04531548
-0.052870784 -0.06425938 0.07573179 -0.07056052 0.0686217 -0.016849749 0.06329476 -0.06421635
0.054451685 -0.056398846 0.050829645 -0.038336914 -0.016047258 0.06826552 -0.06494328 0.008327856
0.10229076 0.033731982 0.03976726 -0.08806743 0.06539031 -0.087951 0.06552021 0.050599895
0.033154428 -0.007646517 -0.029488698 0.062194627 0.007197409 0.059384882 -0.012320134 0.02669633
0.074517064 -0.0658521 0.044979118 -0.00795231 0.0904668 -0.003663927 -0.043731842 -0.07001145
0.081737824 -0.0027760994 0.017181108 0.0774104 0.009661018 0.08748641 -0.04388603 -0.033736948
0.07056887 -0.011550029 0.07654064 -0.050196864 -0.028903706 -0.07543624 -0.008575786 0.006660213
0.050758243 -0.006000898 0.06816283 0.07126925 -0.03187213 0.081598885 -0.062558 -0.030119266
0.0392741 0.08406213 -0.011248253 -0.07011901 0.07654381 -0.004716117 -0.05183624 -0.089863054
0.015291526 -0.019178629 -0.05943589 0.06370639 -0.06376486 -0.055413432 -0.07255796 0.042822324
0.023276342 -0.015670735 -0.07624992 -0.08360033 0.061187223 0.05661595 0.060252722 -0.044970255
-0.038391087 -0.033065166 0.087423004 0.018397858 -0.060190614 -0.06359385 0.08098023 -0.03991808
-0.05411341 -0.036327824 -0.0069989227 0.05525477 -0.02242292 -0.029689308 0.020506697 -0.048510116
0.020066118 0.012037413 0.00012875974 0.016922187 0.0069888067 0.0056011286 0.0026567988 -0.013878263
-0.02999646 0.014315066 -0.009020959 -0.04043825 0.034891672 0.00047360963 0.016777545 0.06253669
0.030121753 0.025128705 0.027141742 0.0029644137 -0.06285821 0.022472221 -0.06523179 0.014704724
-0.027030015 -0.03266818 0.04161358 -0.03136144 0.03415714 0.002563853 0.02649113 -0.029701736
0.01807574 -0.020657387 0.027768653 -0.021545539 -0.02225945 0.033417407 -0.07493991 0.017168256
0.06732127 0.005420804 0.011906421 -0.054853927 0.026898367 -0.06582903 0.029490616 0.016405046
0.043003947 0.011558467 -0.01959737 0.040559545 -0.013169192 0.028264455 0.008034957 0.0063114557
0.03759916 -0.027536092 0.023088995 0.0016741799 0.054996498 0.017157506 -0.010096075 -0.042015728
0.046965096 0.010762999 0.00831334 0.04770442 0.016712366 0.047389824 -0.027737498 -0.036403924
0.03181746 -0.0018442845 0.038609345 -0.027752196 -0.0332517 -0.035679545 -0.015967619 0.004961105
0.02496974 -0.01289767 0.039026413 0.034844037 5.24175e-05 0.07051557 -0.023215076 -0.033980604
0.005818423 0.04732332 -0.007279309 -0.030061971 0.04782009 0.018658893 -0.04125434 -0.05577645
0.017234769 0.0017437075 -0.025132554 0.02651306 -0.027418653 -0.02367707 -0.032101277 0.013469549
0.0021568597 -0.019474173 -0.03791472 -0.045899987 0.02278171 0.018082792 0.044419788 -0.010682543
-0.014465061 -0.0051934836 0.05072147 -0.007012652 -0.023793902 -0.04685505 0.042191613 -0.019324142
-0.010921038 -0.0452955 -0.0023293032 0.024230013 -0.027901711 -0.015124061 0.001343789 -0.022977244

attention_layer.att.bias f4 [128]
00000000: 3786 c33c 5c2a e83c c66b ebbb 7180 0cbc
00000010: cffa 07bc 6ff4 3d3d ae45 8abb ce2a 23bc
00000020: 8c13 f93c 3e8c b33d f5a1 d636 c5fe 2b3c
00000030: 10d1 64bd 6ad1 96bc 6f20 dcbc b9cd c3bc
00000040: 6cd6 863c 8dad 05bd c2db 6ebd ba8c ae3c
00000050: 0ff4 30bd 0899 d4bc 11bd 2dbd bf99 0c3a
00000060: bbf1 30bd 7a1c 113d e107 0ebd b9e1 22bd
00000070: b5c5 a83b f5bb c33c 4525 a83c 303a bcbd
00000080: 9fe0 8bbc 4b88 0bbd bf00 11bc afbe 833d
00000090: 8840 dbbc e5d4 733c 7492 c4bc 4e6d 5d3d
000000a0: 410c 653c ee35 be3c c970 ba3c 22af 0fbc
000000b0: c24b 74bc 5f4a 5cbc bb0a cdbd 9642 2a3c
000000c0: b7e4 ecbc ef44 79bd 0122 073d 0a66 933c
000000d0: 13ed b0bc 0637 d8bc b93e 09bd 202f ab3b
000000e0: 5e20 0cbc 0822 d6bc fb16 803c 97a2 12bc
000000f0: 5b7f 8fbc 5eee 99bc fa0e 35bd 4010 ddbd
00000100: f818 4a3c 2056 8bbd 91f4 463b 9db5 96bc
00000110: af24 c33b eedd 0abd db06 033d e133 91bc
00000120: d4ce b6bd b6c0 9abb 4a32 23bc 7bff 76bc
00000130: 66a6 b33c c229 c53c 38e2 55bd cd7b 6ebd
00000140: 42f9 883d 1e76 9f3b fb90 97bc 41fa 123c
00000150: b07d 483d 1bcc b7bd a017 8fbc 1d51 37bd
00000160: 687c 0d3d 244d 8eba 0a8a 0e3d 5d16 61bc
00000170: 3ba7 b1bc 574c 67bb 7a94 e4bb 1e01 5dbd
00000180: 8bb6 3bbc 56a5 dfbb 8742 033d 901a af3c
00000190: 98bc 3a3d f05d d33c 65d8 a53d f61b 373c
000001a0: 19af 3dbd 69fe 0e3c 6ae8 b4bb 0957 473d
000001b0: 7f13 ddbc d672 0e3b 8319 88bb 1fbc edbc
000001c0: 9832 1abc 079c b83b e23c 98bc 6ce7 0a3d
000001d0: 0915 0cbe e724 1bbc b976 163d 95fe a03c
000001e0: 7d54 65bd 5cc4 5e3c 7d7f 6abc c5fd c4bc
000001f0: 0816 733d 853a 3fbb 9d46 6f3d 3a17 4e3d
0.02386771 0.028340511 -0.0071844785 -0.008575545 -0.0082995435 0.04637569 -0.0042197322 -0.009958936
0.030404828 0.087669834 6.3965513e-06 0.0104977535 -0.05586344 -0.018410403 -0.026870934 -0.023901807
0.016459666 -0.032636214 -0.058315046 0.021307338 -0.043201502 -0.025951877 -0.042416636 0.0005363486
-0.043199282 0.035427548 -0.034675483 -0.039766047 0.0051505216 0.023893336 0.020525584 -0.09190786
-0.017074881 -0.034065526 -0.008850276 0.064328544 -0.02676417 0.014882301 -0.023995616 0.05405932
0.013979972 0.023219075 0.022758858 -0.008769782 -0.01491064 -0.013445466 -0.10011812 0.010391852
-0.028917653 -0.060856756 0.032991413 0.017992992 -0.02159742 -0.026393425 -0.033507083 0.0052241236
-0.008552639 -0.026139274 0.015635958 -0.008949897 -0.017516783 -0.01879042 -0.044203736 -0.10794115
0.012335055 -0.068035364 0.0030358175 -0.018397147 0.0059553008 -0.033903055 0.03198896 -0.017724933
-0.08926168 -0.00472268 -0.00996072 -0.01507556 0.02192993 0.024067763 -0.052217692 -0.058223534
0.06688167 0.0048663756 -0.01850175 0.008970798 0.04894799 -0.08974477 -0.01746732 -0.04475509
0.03454247 -0.001085673 0.034799613 -0.013738242 -0.021686187 -0.0035293305 -0.0069757076 -0.053956144
-0.011457096 -0.0068251295 0.032045867 0.02137497 0.045590013 0.025801629 0.080979146 0.0111761
-0.046309564 0.008727648 -0.00552087 0.048666988 -0.026986836 0.0021735928 -0.004153432 -0.029020367
-0.009411477 0.0056338343 -0.018583719 0.033912107 -0.136799 -0.009469247 0.036734316 0.019652644
-0.055988777 0.01359662 -0.014312622 -0.024046788 0.059347183 -0.0029179167 0.05841695 0.05031512

attention_layer.gate.weight f4 [128, 128]
00000000: 3502 3e3d 2e65 1c3c ad6e c7bc 6f87 483d
00000010: e549 f0bc 4e30 8d3c 5438 b0bc 6797 53bd
00000020: 9bfd fabc f012 023c 8962 c83c 9536 fbbc
00000030: 9a21 e43c 71ac 8cbc 97f3 ad3c 4f42 d33b
00000040: 6f89 d43c 65c6 153d c27e 123d 1553 cabc
00000050: ece6 3dbc ad64 2b3d 945a 7fbc d739 b4bc
00000060: f145 05bd ea24 08bd 2045 f53c 405d f8bc
00000070: 7fd4 a93c 91c7 d6bb f7ba 103d 165f e5bc
00000080: 957c 193d d561 1cbd 0bfa 033d 0767 c73c
00000090: ba18 00bd d0e9 083d 2772 afbc a618 aabc
000000a0: a6cb 643b 8ce1 593d c23a 633d c414 82bc
000000b0: cf98 033d 317a 7bbb dc61 003d 9247 2b3d
000000c0: 15cd 013c d9ab 10bd 9f2c c4bc 9d10 9cbc
000000d0: 9d33 343c bc18 113d ec19 ec3c 9499 ebbc
000000e0: 546d 083d dad4 f5bc 527a a4bc 47c9 dc3c
000000f0: 531c cd3c b806 e43c 92c2 35bd 2174 fabb
00000100: e332 033d e4f4 b4bc 49d3 eebc 2271 ec3c
00000110: 515d e03c 65e3 de3c 0ef7 febc d018 973c
00000120: 4c47 ee3c e465 2bbd d5f4 d13c 3a8f dfbc
00000130: 801e c4bc a894 d3bc 0a1b f43c 3dea 02bd
00000140: f98d 163d 1942 b33c 5ae9 d13c d3f1 0c3d
00000150: c2c1 2abd 2d89 69bc ef1a 10bd 8b9a 993c
00000160: 01b5 333d 623a ea3c 494e dd3c 7c38 fbbc
00000170: 3834 e03c 8616 f73c 9455 b33c 1655 c3bc
00000180: a6f8 b8bc 3005 5cbd 4f12 0dbd e570 f53c
00000190: c6a4 02bd 647b 1fbd 24bc edbc 4fb1 503d
000001a0: a313 1e3d 7aa0 da3c c7be febc ae8d babc
000001b0: 9ebf 103d 95be 163d f576 82bc 3345 48bd
000001c0: f729 e33c 71f7 59bd f02a d13c 62e9 08bd
000001d0: 8e65 0fbd 5abb 9b3c 930e 043d de65 c73c
000001e0: a2f1 9f3a e456 e6bb 98ba 23bd 0c55 c53c
000001f0: 92e4 923c 7600 b4bc 6c73 483d 8397 c03c
00000200: 6cd0 b13d 5094 633c 5a63 8bbd 5e4c 9a3d
00000210: 9b96 a3bd 7a36 183c b237 b1bd 07bd 99bd
00000220: 487f 98bd a4f1 b73c 8c1a a43d 1c1d b5bd
00000230: 4ae2 d83d 1de1 a5bd 218e a73d 0460 c73d
00000240: a90a c23d 4bd4 963d fd30 8b3d 72a0 7fbc
00000250: 3d69 0cbd 2dd8 b03d 0541 2ebd b906 8dbd
00000260: 9253 97bd 0364 9dbd efb7 bd3d 0271 cdbd
00000270: c6ae 263d e17b 173b 579b b43d 3615 c3bd
00000280: 7dfe 9f3d a56c a3bd 0228 863d 602d a23d
00000290: c95f c8bd 60e8 aa3d fa3c 55bd 8017 bdb8
000002a0: 555a 563d c20f a53d c91d aa3d e986 cdbd
000002b0: 9b25 a03d a4ce 12bd 28ce ae3d 319a a23d
000002c0: beaa c73c 3647 99bd fba7 94bd 859d 78bd
000002d0: 7b54 46b9 7110 983d 8504 9e3d b4e1 aebd
000002e0: cb6b a13d fc3c cdbd e250 88bd 038f b63d
000002f0: 7dab cc3d b68d 843d d1ce a3bd b07c b4bd
00000300: b8f9 b83d 016c 91bb 9b7a afbd 0d65 9e3d
00000310: 0608 b23d 4851 d63d 220e 73bd 56af 5ebb
00000320: 7b44 c83d 40a9 a9bd f35b a63d 7633 b0bd
00000330: 7b1b a6bd a4b3 d3bd 81cc 633d 90f6 9fbd
00000340: 5294 883d 7919 1a3c 337b 9a3d 9217 923d
00000350: 9f41 a2bd 9797 2fbd fd7c bcbd 81d7 0cbb
00000360: da00 af3d 0961 cd3d f357 a23d 7048 c5bd
00000370: a36d a63d 8d7f 7e3d adb7 913d a140 d1bd
00000380: dddc 55bb dc14 95bd ac27 9dbd f7cd bc3d
00000390: ca30 c1bd f3c9 81bd 9012 cdbd 4e33 a73d
000003a0: ecef 5a3d 17aa b73d 115f bfbd 8006 d7bd
000003b0: 90c2 ce3d 1779 c43d 8788 7bbd 6981 a9bd
000003c0: e340 ae3d 7dd9 b3bd 8615 c23d c713 abbd
000003d0: 3e2b c0bd 6fb7 863d 2c1f 9b3d a915 863d
000003e0: f407 c93b 6b0c d8bc 2116 a8bd c1e7 193d
000003f0: 742d 973d 4315 adbd 073b b03d fee8 923d
0.046388824 0.0095456075 -0.024344767 0.048957285 -0.02933211 0.017234948 -0.021511234 -0.05165806
-0.030638507 0.007939085 0.024461048 -0.030665675 0.027848054 -0.01717207 0.021234317 0.0064471136
0.02594444 0.036566157 0.035765417 -0.02469782 -0.011590701 0.04184406 -0.01558556 -0.022000236
-0.032537404 -0.03323833 0.029940188 -0.030317903 0.020731209 -0.006554552 0.035334554 -0.027999442
0.037472326 -0.038179237 0.03222088 0.02434112 -0.03127358 0.033426106 -0.021416737 -0.020763706
0.0034911423 0.053193614 0.055475958 -0.015879042 0.03212815 -0.0038372392 0.031343326 0.0418163
0.0079224305 -0.035320137 -0.023947058 -0.01905089 0.010998634 0.03542398 0.028820954 -0.028759755
0.03330739 -0.030008722 -0.020077858 0.026951445 0.02503792 0.027835235 -0.04437501 -0.007643238
0.03203095 -0.02208943 -0.029153483 0.02886254 0.027388247 0.02720804 -0.031123664 0.018444449
0.029086731 -0.041845217 0.02562944 -0.027289975 -0.023940325 -0.02582772 0.02979805 -0.03196167
0.03675649 0.021882104 0.025623966 0.03441031 -0.041688688 -0.014253897 -0.035181936 0.01875045
0.04387379 0.028592292 0.027014868 -0.030666582 0.02736865 0.030162107 0.021891393 -0.023844283
-0.022579502 -0.053715885 -0.03444129 0.029961059 -0.03189542 -0.038936034 -0.029020377 0.050950345
0.038592946 0.02668785 -0.03109683 -0.022772636 0.03533899 0.036802847 -0.015925864 -0.04889412
0.027729971 -0.053214494 0.02553317 -0.033425696 -0.03500896 0.019010235 0.03224046 0.024340566
0.001220275 -0.007029401 -0.03997287 0.024088405 0.017931256 -0.021972876 0.0489382 0.023509746
0.086823314 0.013890341 -0.06806059 0.07534097 -0.0798771 0.009290332 -0.08653201 -0.07506757
-0.07446152 0.02245409 0.08012876 -0.08843443 0.10590036 -0.080995776 0.08181406 0.097351104
0.094746895 0.073647104 0.06796453 -0.015602218 -0.03428005 0.08634982 -0.042542476 -0.06886048
-0.07388987 -0.07685091 0.09263598 -0.1003132 0.04069402 0.002311461 0.08818691 -0.0952553
0.07812212 -0.07979707 0.065506 0.07918811 -0.097838946 0.08345103 -0.052060105 -9.0165995e-05
0.05233224 0.08059646 0.08306462 -0.10035498 0.07819673 -0.0358416 0.08535415 0.07939566
0.024373408 -0.074842855 -0.07258602 -0.060697097 -0.00018914223 0.07425011 0.07715706 -0.08539143
0.07881888 -0.100213975 -0.06656052 0.08913996 0.09993646 0.06472342 -0.079984315 -0.08812845
0.09032005 -0.004437924 -0.08568307 0.07734118 0.086929366 0.10464722 -0.05933965 -0.003397902
0.097786866 -0.08284235 0.08123007 -0.086035654 -0.0811071 -0.10336998 0.055614952 -0.078107
0.06668915 0.009405487 0.0754303 0.07133402 -0.079226725 -0.042869177 -0.09203527 -0.0021490755
0.08545084 0.100282736 0.07926931 -0.09632957 0.0812638 0.06213336 0.071151115 -0.10217405
-0.0032632865 -0.07279369 -0.076735824 0.09218972 -0.09433134 -0.06337347 -0.10013306 0.081640825
0.053451464 0.08967989 -0.09344304 -0.10499287 0.100957036 0.095934086 -0.0614095 -0.08276636
0.0850847 -0.08781717 0.094767615 -0.083533816 -0.09383248 0.06577956 0.07574305 0.065471
0.0061349813 -0.026373109 -0.08207346 0.037574533 0.07381716 -0.08451321 0.086050086 0.07173346

attention_layer.gate.bias f4 [128]
00000000: 137b 223c ef15 7a3d 6921 2f3d 00f2 20bc
00000010: af6d 193d 0567 76bd 4c70 873c a19c 0c3d
00000020: 0e87 4b3d 3d5b 58bd 8d2b 90bc 7d4a 46bc
00000030: f897 d73d e273 753c 3723 383d 642e c3bc
00000040: 7905 eb3c 68d5 c1bd a80a aabb d215 08bd
00000050: 3b95 833d 6369 043e e00a 663c 77fc 65bd
00000060: 4fdf cabc b835 a23b 1cf5 253d 0db7 333c
00000070: 8839 473b 9008 cc3d c4dd 2f3b 03e2 24bd
00000080: 58dc 013d f4fd a03d d51e 3cbd ba98 8fbc
00000090: 8dec 813d 1712 25bc db4c a93b 6fb4 7cbd
000000a0: 06bb b23d 6995 173d b777 9ebc 8f03 413d
000000b0: 6f58 5c3d e0ed 63bc 136b 163d c115 9339
000000c0: 12ad 1dbd 6d05 413c f0ee e1bb 7f6e 393c
000000d0: 4637 1a3d e5a9 543d 6b69 e53d b6b0 053d
000000e0: bf7d 8cbc 1168 79bb 49e7 96bb 82bd bbbc
000000f0: fef3 07bd 2342 a83c fbb7 843d bb78 933d
00000100: 1bf7 11bb 790c 0fbc 979b a6bc 1954 2a3a
00000110: 641c 213c 5b13 083d adff 55bb 260c e93c
00000120: 02f5 123c f2b7 6d3d b903 f0bc 395a 8abc
00000130: f80f 673d 8ad8 603d f0c3 673d fe57 bcbd
00000140: 6fb2 60bd 6dd6 f73c 4d04 06bc be5c 0dbc
00000150: 4982 c73c 7951 7f3d 0155 433c 82a4 973d
00000160: dbd7 503d 4b16 833d 41e3 4f3d ccf9 023d
00000170: f192 76bd a9c5 153d 581a 95bc a052 e0b6
00000180: 3b9c ecbc 3647 77bc 2a19 1c3d 5f2f f9bb
00000190: 47c3 513d b296 2abd 3380 453d d8e9 e33a
000001a0: 9c37 2c3d 019a 44bc cd84 143c 3207 a53d
000001b0: 0a2c 953c 2db6 3dbd 57ed c03c 19b0 173d
000001c0: 93d4 41bd 32e5 1f3d dbd0 a4bc d292 8f3c
000001d0: 1d1d 1abc 99d8 85bc 9b66 0f3d 64a7 f6b8
000001e0: b744 5d3d 8a42 5a3c e17f 523d e06c ef3c
000001f0: 534b b93c 4504 f7bc 7264 803c 9af1 4abb
0.0099170385 0.061056074 0.04275647 -0.009823322 0.037458118 -0.06015684 0.01653304 0.03432906
0.049689345 -0.052821387 -0.017598892 -0.01210272 0.105270326 0.014981242 0.04495546 -0.023825832
0.028689133 -0.09464532 -0.0051892586 -0.033223934 0.06424948 0.12930827 0.014040679 -0.056148972
-0.024764685 0.0049502514 0.040516958 0.010968936 0.0030399282 0.09962571 0.0026835063 -0.040254604
0.031704277 0.07860938 -0.04592784 -0.01752888 0.063439466 -0.010075114 0.0051666326 -0.061695512
0.08727078 0.037007723 -0.019344194 0.047122534 0.053795274 -0.013911694 0.036723208 0.00028054233
-0.03849513 0.011781079 -0.0068949386 0.011317848 0.03765037 0.051919837 0.112017475 0.032639228
-0.017149804 -0.0038056413 -0.004605208 -0.022917513 -0.033191673 0.020539349 0.06480404 0.07200762
-0.002227253 -0.008731001 -0.020337863 0.0006497517 0.009833429 0.033221584 -0.0032653615 0.028448176
0.008969547 0.058036752 -0.02929865 -0.016888725 0.056411713 0.054894008 0.056583345 -0.09196471
-0.054857668 0.030253613 -0.008179736 -0.0086280685 0.024354117 0.062333558 0.011922122 0.07404424
0.050987106 0.064007364 0.050753836 0.031976506 -0.060198728 0.036565457 -0.018201038 -6.685339e-06
-0.02888309 -0.015092662 0.038109936 -0.007604524 0.05121162 -0.04164762 0.048217963 0.0017388416
0.04204522 -0.011999608 0.009064865 0.08058013 0.018209476 -0.046316314 0.023550672 0.037033174
-0.047321867 0.039036937 -0.020119121 0.017526064 -0.009406355 -0.016338633 0.03500996 -0.00011761373
0.05402061 0.013321528 0.051391486 0.02922672 0.022618925 -0.030153403 0.015672896 -0.003096676

attention_layer.w.weight f4 [1, 128]
00000000: af35 6f3d 54a9 2cbd e43b d73c 586d 99bd
00000010: cd32 c53c e0e5 f93c bc51 aabd 5e66 60bd
00000020: 1fd3 c93d b5ee a43e f23d f03c 18b3 27bc
00000030: 1334 533e 6d70 afbc 0b30 01be 7ffb 59bd
00000040: 81fb 943d e7be 1d3e dc04 45be 7c7f 93be
00000050: c94a d6bc bb8c 82be d960 09be b539 943d
00000060: 86d5 bc3d 57ba aa3d a646 583d eabf b0bd
00000070: 3989 593d 1bb1 043e fc37 a7bd 1c9d 0cbc
00000080: deb1 ab3d a52c 6d3e db45 d7bd 3eff c7bc
00000090: ca56 273d 3deb 97bb 9475 2f3e d631 9b3e
000000a0: 6f24 1dbe f0f6 2bbd 9e88 4d3e f6a0 8e3d
000000b0: c8ba cc3d 01be c3bc 1b64 573e 16d3 5e3c
000000c0: 1112 7f3e e0a3 a4bd 7afb 8cbd 5c5a 54be
000000d0: b744 f3bb 3176 2abe 367a acbd ef31 af3d
000000e0: 7bbc b9bc 98c6 86bd b4e1 f33c 9a3f 2f3e
000000f0: 0423 83bc 5ea5 a3bc edc0 2ebe ef8b 363e
00000100: 651e 2f3d 42a7 41be c008 de3b e8ce 053b
00000110: 6690 843d bc1f c4bd 3d09 5a3e f45d 513e
00000120: fe1b 4dbd 9819 b23d 05b7 5c3d ca70 2f3d
00000130: a3b6 953d edca 82bc 92a7 b5bc b597 68be
00000140: 12f5 48bc b8d5 543e 0b14 913d fcb5 1c3d
00000150: 02ad 47be 853f 10be e23b 10bd eb7c 0dbe
00000160: 98b4 faba 1f59 92bd f6e6 0a3e de45 ec3d
00000170: 01f3 8abe 0cf9 b2bd e199 02be c98c acbc
00000180: 87c7 91bd 4c48 633e 1a74 8b3d fe80 04be
00000190: 5b64 0f3e 2e48 d2bd 9933 113e 9d55 9e3c
000001a0: e1d9 85bd 48e8 863c 0980 933d 5b65 283e
000001b0: ef08 95bc 2a4e 3cbe c168 a1bd 85cb 7cbd
000001c0: 957a 81bd ce05 493d 8597 4b3e cf86 9c3d
000001d0: 52fb 243d 8f6d 183e 158b 263e b320 abbd
000001e0: 306a 11be 004e b53d 1b07 6c3d 5c4e 86bd
000001f0: 0e39 dbbd 8ded 7f3e 2bc0 0b3d d447 5fbd
0.058400806 -0.04215367 0.026273675 -0.07491559 0.024072075 0.03050512 -0.08316371 -0.054785125
0.09854721 0.3221337 0.029326413 -0.01023557 0.20625333 -0.021415913 -0.12615983 -0.05321836
0.07274533 0.15404855 -0.19240135 -0.288082 -0.026158707 -0.25497994 -0.1341585 0.07237569
0.09220414 0.08336323 0.05280175 -0.08630355 0.05310938 0.12958185 -0.08164975 -0.00858238
0.08383535 0.23161562 -0.10511371 -0.024413701 0.040854253 -0.004636197 0.17134696 0.3031146
-0.1534593 -0.041983545 0.20071647 0.069642946 0.09996563 -0.023894312 0.21034281 0.0136001315
0.24909236 -0.08039069 -0.06883903 -0.20737594 -0.007423963 -0.16646649 -0.084217474 0.08554446
-0.022672882 -0.065808475 0.02977071 0.17114106 -0.016007908 -0.019976314 -0.17065783 0.17826818
0.042753596 -0.1891146 0.0067759454 0.0020417515 0.06472854 -0.09576365 0.21292587 0.20445997
-0.050075524 0.08696288 0.05388548 0.042832173 0.07310226 -0.015965903 -0.02217463 -0.22714122
-0.012265461 0.20784652 0.07083901 0.03825949 -0.19499591 -0.14086731 -0.03521336 -0.13817184
-0.0019127307 -0.07145905 0.13564667 0.115367636 -0.27138522 -0.08738908 -0.12754013 -0.021063225
-0.07118135 0.22195548 0.06809254 -0.12939832 0.14003126 -0.102676734 0.14179839 0.019327933
-0.06535698 0.016468182 0.07202155 0.16444914 -0.018192736 -0.18389192 -0.07881308 -0.06171753
-0.06322209 0.0490778 0.19882019 0.076429 0.04027874 0.14885543 0.16263993 -0.08355846
-0.14200664 0.08852768 0.057623964 -0.065579146 -0.10704242 0.24992962 0.034118813 -0.05451186

mlp.0.0.weight f4 [128, 128]
00000000: 87d0 e8bc afd4 e43c 5941 05bd a70f d8bc
00000010: 129b 0dbd 0c9e ef3c 3de9 90bc 95f8 9e3c
00000020: 3bc6 433c b28c d9bc b896 b73c e71b 7e3b
00000030: 0e16 2dbc 4d30 c7bc 003f 533c 1005 b4bc
00000040: 19fe 81bc a1f0 fdbc b3d0 1a3b 446d 15bd
00000050: e59e 463d 504a b5bc 1810 483d a4e3 2cbd
00000060: 7f0d 59bb 2777 15bb eb38 e43b 95ed 3c3c
00000070: 9e35 633c 252c bebc 1c23 b2bc 3c96 bf3c
00000080: 4163 96bc 0caa 9f3c 62f3 513c 9f0d ea3c
00000090: b81f 8cbc 1a0d b9ba d695 583d 4a0c 17bd
000000a0: f3ae 9dbc 5354 eabb 2581 c2bc c2c1 fd3c
000000b0: 7a38 d6bc 5e43 643c 405a 54bc 74d6 9ebc
000000c0: 4a5c 31bd e882 f1bb f5e3 d4bc 565d 48bd
000000d0: 06f8 1a3d 956f d13a 5238 873c cf46 dabc
000000e0: 486f e53a 99bd d63b 0242 45bd 124a 853c
000000f0: a2d4 5bbb ab1c 083c 72af 383c 46a2 473c
00000100: a599 7bba 6db4 1bbd 13f4 82bc 8d12 253c
00000110: 0cbf c13c 0622 a43b b604 c7bc 2ace 3e3d
00000120: c887 1dbc 4e06 833a ade4 fcbb 5bc5 f83c
00000130: a565 13bc 48cd 4f3c d31d 9e3c 1ea3 68bc
00000140: 2f6b 123c 518f 113d d723 afbb 982a deb9
00000150: 1297 543c 2872 a7bd ab83 853c 0341 393d
00000160: c329 33bc 8d21 1cbb 74dd 783c c5fe 403c
00000170: c595 253c ae38 6abb 882d 413d 8276 9dbb
00000180: f4e6 25bd c74f 913b 6fad cf3c e85c 90bc
00000190: 0b9b a53c e7ca c03c c245 433c b7ae c2bc
000001a0: 861b 01bb c501 953c 7ccf cb3b 9d3d 8a3c
000001b0: e9ed a7bc 3e01 93bc bf68 80bd da58 a73c
000001c0: d1c6 f63c 1620 6c3c 368a 17bc 9f46 8fbc
000001d0: dc6e 8d3c 672e 603d 4b07 eab8 3423 0e3d
000001e0: 2761 8dbb b0c8 403d dd39 5abb 1e08 aa3c
000001f0: 8e00 163d 8d97 f93b a2f2 e0bb c814 383d
00000200: fdb3 dbbd 152f 4f3c 122d 763d 9f22 a0bd
00000210: 9cec fc3d 0023 633d b9cb b43d ee87 843d
00000220: 6e44 e13c 5b0a f0bd 3cfb a4bd d282 86bc
00000230: 77d3 13bd 5fec f23c 8af0 b0bd ca10 413c
00000240: 3ab8 7bbd 7993 87bd bd66 fabb 854a 15bd
00000250: 91a1 413e 1438 b9bd 50d7 423e e793 963d
00000260: 9f08 c7ba e96a 4bbb fca5 813a eb12 d33c
00000270: c61d 323d 4209 91bd 5d99 0dbd 54a4 a83d
00000280: 33b6 37bd 1bd3 183d 8580 63bc 5511 abbd
00000290: caf0 0e3e 4d4e d9bc c043 623e 8057 91bd
000002a0: c4ac 243c 77b1 99bd 6363 c4bd 1910 04bc
000002b0: d0fe 58bd e10f 35bd 89d6 cabc a4c8 82bd
000002c0: 79d5 30be cd9e 7f3d 97dc 87bb 15f8 243c
000002d0: 0449 be3d b5a5 f8bc f70a f4bd 8262 023e
000002e0: 6847 8a3c 25fd 0b3d 8667 353d c9d4 02be
000002f0: 2929 093c 4320 0abe f207 6c3d 2975 2d3c
00000300: 40ee 92bb 2633 6abd d95a a73d d69e 253d
00000310: 08e5 9abd 0b68 053d d6b1 14bd eb45 5f3d
00000320: dd30 1fbd 76b0 b73d 44ff b0bb fd27 073d
00000330: 7d13 023e 2fc7 ac3c ed09 5c3c 12fa 9b3d
00000340: 5217 e0bc 52fe 143d 10cc 52bb fb0f c73a
00000350: e623 803d 007d 1cbc bcda 713d 91fe 463d
00000360: 8bdb 4bbd 1ffd b63c 3807 acbd c370 323d
00000370: a71a 503c 0aaa f7bd d3c9 a0bc 02f2 f8bc
00000380: 4457 6bbd f7ec d33c 178c 253d 02e1 7cbd
00000390: bc3d 743d ff57 543d f647 1d3d e43a f6bd
000003a0: 1446 c6bc 31ee acbd 2606 fabb 16ea 323c
000003b0: 5467 86bd 4172 83bd d969 2f3d 68cb 973d
000003c0: 772c 96bd f8d0 9f3d 8600 a33c 8a57 0c3e
000003d0: 8440 923d 421c 49bd 5816 c63a 559e 1cbd
000003e0: e744 a5bd 4674 1e3e 9815 883d c44a 153d
000003f0: 92cc cfbc b98a e03c 07be c3bd d040 3dbd
-0.028419746 0.027933447 -0.032533024 -0.026374651 -0.034571715 0.029250167 -0.017689342 0.019405643
0.011949117 -0.026556347 0.022410735 0.0038773955 -0.01056434 -0.024315024 0.012893438 -0.02197507
-0.015868234 -0.03099853 0.002362293 -0.036481157 0.048491377 -0.022130162 0.048843473 -0.042209283
-0.0033119617 -0.0022806616 0.006964793 0.011531253 0.013867764 -0.02321441 -0.021745257 0.023387067
-0.018357875 0.019490264 0.012814375 0.028570948 -0.017104968 -0.0014118284 0.05287727 -0.036876954
-0.019248461 -0.0071511655 -0.023743222 0.03097618 -0.026149977 0.013932077 -0.01296097 -0.019389369
-0.043300904 -0.0073703416 -0.025987605 -0.048917137 0.03783419 0.0015978689 0.016506348 -0.026645092
0.0017504478 0.0065533635 -0.048158653 0.016270671 -0.0033543487 0.008307616 0.011272298 0.012184685
-0.0009597785 -0.038013864 -0.015985524 0.010075224 0.023650669 0.0050089387 -0.024294239 0.046583332
-0.009614892 0.0009996386 -0.00771769 0.030367544 -0.008996402 0.01268322 0.01930133 -0.014199046
0.008936687 0.035537068 -0.0053448486 -0.00042374874 0.012975471 -0.081760705 0.016298136 0.045228016
-0.01093525 -0.0023823709 0.015189517 0.011779492 0.010106509 -0.003573935 0.047162563 -0.004805387
-0.040503457 0.004434559 0.025351254 -0.017622426 0.020215532 0.023534251 0.011918487 -0.023764951
-0.0019700243 0.01818932 0.0062198024 0.016875083 -0.020499187 -0.017944928 -0.06269979 0.02042811
0.0301241 0.014411947 -0.009249261 -0.01748973 0.017264776 0.054731753 -0.00011159348 0.03470154
-0.00431456 0.04706639 -0.003329865 0.020755824 0.036621623 0.007616943 -0.0068648616 0.044941694
-0.107276894 0.012645503 0.060101576 -0.078191034 0.12349817 0.0554533 0.088279195 0.06471239
0.02749845 -0.11720725 -0.08055732 -0.016419802 -0.03609034 0.029653726 -0.08639629 0.011783788
-0.06145499 -0.06619925 -0.007641642 -0.03644802 0.18909289 -0.09043899 0.19027448 0.07352429
-0.0015185064 -0.0031039065 0.0009891386 0.025765857 0.043485425 -0.07081844 -0.034570087 0.08234468
-0.044851493 0.0373107 -0.013885622 -0.08352915 0.13959041 -0.026526595 0.22096157 -0.070967674
0.010050956 -0.07504552 -0.09589269 -0.008060479 -0.052977383 -0.044204596 -0.024760501 -0.063859254
-0.17268933 0.062407304 -0.0041461694 0.010068913 0.092912704 -0.030352453 -0.11916154 0.1273289
0.016879752 0.034176964 0.04428818 -0.12776484 0.00837163 -0.1348887 0.057624765 0.010587015
-0.004483968 -0.057177685 0.08171625 0.04043468 -0.075632155 0.032569926 -0.03630241 0.05451004
-0.03886496 0.08969204 -0.005401524 0.03299712 0.12702747 0.021091072 0.013430101 0.076160565
-0.02735487 0.03637535 -0.0032165088 0.0015187258 0.06256847 -0.009551287 0.059046492 0.048582617
-0.04976992 0.022337494 -0.08399814 0.04356457 0.012701667 -0.12092979 -0.019627487 -0.030388836
-0.05745627 0.02586983 0.040416803 -0.06173802 0.059629187 0.051841732 0.038398705 -0.12022951
-0.024203338 -0.08443869 -0.0076301275 0.010920068 -0.06562677 -0.064182766 0.042825554 0.074118435
-0.073327 0.078035295 0.01989771 0.13705269 0.07141212 -0.049099214 0.001511286 -0.038236935
-0.08069783 0.15474042 0.06644744 0.036448255 -0.025366101 0.027409898 -0.09557729 -0.04620439
