dataset/models/CCCA_MetaProg_MP34.Platelet.activation/model.pth (torch, 696702 bytes, 14 tensors)

tiles_emb.hidden_layers.0.weight f4 [128, 768]
000000 6b cf 17 bd 5f 5a 8a 3c 30 63 2b bd 57 65 4e bd
       -0.037063044 0.016888795 -0.04184264 -0.050389614
000010 85 19 85 3b cb ab 97 3c ba ed 90 bd f9 da da bb
       0.00406188 0.018514534 -0.07076593 -0.0066789356
000020 62 c6 31 3b a2 af 15 3d 72 8d 53 bc 6c b4 2e bd
       0.0027126302 0.03654445 -0.012912141 -0.042652532
000030 c0 34 0b be 7e e3 24 3d fe 62 b3 3c 1f 02 e7 3c
       -0.13594341 0.040256016 0.02189779 0.028199254
000040 ed 82 16 bd 58 a2 ab ba de 71 99 bc 14 aa 81 bb
       -0.036745954 -0.0013094647 -0.018731054 -0.0039570425
000050 fa 68 22 b8 d3 50 3b 3c 2f 79 84 bc e5 1d 46 3d
       -3.8721577e-05 0.011432844 -0.016171066 0.048368353
000060 c6 7c c0 bc 0f 4e 47 3d 4e 71 59 bc ad 34 31 3c
       -0.023496997 0.048658427 -0.013271643 0.010815782
000070 dc c9 88 3b 75 0b 20 3c 13 3b 61 3a 3a 8f b9 3c
       0.004174454 0.009768357 0.00085918716 0.022651304
000080 ef ab ac 3b e8 1b ef b7 18 c7 9d 3c 85 11 0c bc
       0.0052695195 -2.8504015e-05 0.019259974 -0.008549099
000090 66 3e 8f bc d1 c7 20 bd ff b5 48 bc 34 ed 09 3d
       -0.017485809 -0.03925306 -0.0122504225 0.03367348
0000a0 37 5b 04 bd d3 6d 1f 3d 4e 20 86 3c d4 5b 08 3c
       -0.03231355 0.038923096 0.016372826 0.008322675
0000b0 02 98 4f bd 39 ee 85 bb 36 e4 4d bd 19 c6 da 3c
       -0.050682075 -0.0040872362 -0.050266467 0.026705788
0000c0 b2 5c 3f bd 1a 6f 6b 3c c9 14 6e bd 7b b7 46 bd
       -0.04671926 0.01436975 -0.05812529 -0.048514824
0000d0 0f a7 3c bb f5 f2 2a bc 3b 5b 12 bb 14 3d 51 3c
       -0.0028786098 -0.010433902 -0.002233221 0.01277091
0000e0 3f 1c bb bc b5 95 c8 3b 18 46 b1 bc 23 cb cc bc
       -0.022840617 0.006121362 -0.021639869 -0.024999207
0000f0 5f 2a 20 bb a3 24 f4 bc 06 c0 ae 3d 39 fb 00 3d
       -0.0024439318 -0.029802626 0.08532719 0.031489585
000100 17 c2 1c 3c 86 a2 19 3d c9 96 01 bd 33 e8 e0 ba
       0.009567759 0.03750851 -0.03163794 -0.0017159045
000110 08 90 9f 3b a9 10 88 3d a1 1a ca 3c 47 02 38 bb
       0.004869465 0.06643803 0.0246709 -0.002807753
000120 68 4d b4 3c 79 0d d4 bc 10 82 2a 3d 78 d7 77 3c
       0.022009566 -0.02588533 0.041627944 0.015127055
000130 ab 3e 31 3d 66 53 bf 3b 41 27 89 bc 52 ad 61 bd
       0.043272655 0.0058387993 -0.01674235 -0.05509693
000140 2b 87 2a 3c 39 1f 90 3c f4 24 d6 3b 04 e3 51 3d
       0.010408203 0.017593013 0.006535167 0.05124189
000150 dd cd e6 3b ba f3 4e 3c f2 9d 78 3c 18 71 fe bc
       0.007043584 0.012631351 0.015174376 -0.031059787
000160 98 ef 58 3c 85 17 0b bd 5a b2 01 bd ec 6a c1 3a
       0.013240717 -0.033957977 -0.03166423 0.0014756597
000170 48 92 94 3c 3e 93 c5 bb a9 85 27 bd a2 5d 29 3d
       0.018136159 -0.0060295155 -0.040898953 0.04134906
000180 b4 cd d7 3b 9a 12 77 3c 64 6d fb 3b 38 f3 89 3c
       0.006585801 0.015080119 0.0076729525 0.016839609
000190 a5 f0 34 ba 53 42 1f bd 02 a0 43 bc 48 56 9a 3c
       -0.0006902314 -0.03888161 -0.011940004 0.01883997
0001a0 7a e1 a8 ba cd da 17 3d bf 6e b7 bc 7c de b6 bb
       -0.001288458 0.0370739 -0.022391675 -0.0055807214
0001b0 36 63 72 bb af bd 42 bc 9e ce 6b 3d 4b 1e 6b 3c
       -0.0036985404 -0.011886044 0.057570092 0.014350484
0001c0 1c 25 cb ba 55 9b 1f bd 18 73 75 3c 9c d7 b2 3c
       -0.001549873 -0.038966496 0.014981054 0.021831326
0001d0 09 6b 8c 3c d8 bc be bb 45 ec a3 3a 9a 58 61 3c
       0.017140882 -0.005820852 0.0012506327 0.013754034
0001e0 9a 36 9f 3c ba 40 d1 bc 62 a9 2a 3d 46 bb 86 3c
       0.019435216 -0.02554356 0.041665442 0.01644672
0001f0 ed 88 0b bd a9 bd 85 3d 22 f0 4b 3d cc 8e 18 3d
       -0.03406613 0.065303154 0.049789555 0.037245557
000200 9a 6b 56 3c 74 43 ed 3c 27 61 b6 bb 28 ac e4 3c
       0.013087178 0.028962828 -0.0055657807 0.027914122
000210 c4 0e 68 3d 5b 9b de 3c 21 37 6a bc c5 3f 1f 3b
       0.056654707 0.027173689 -0.01429537 0.0024299484
000220 4e 72 bf b9 b2 91 bf 3c 26 9b 56 bd 2a df c7 bb
       -0.00036515523 0.023384903 -0.052394055 -0.0060996013
000230 92 28 bc bd a9 18 4a 3d 4c 41 b3 3c a7 96 76 3d
       -0.09187426 0.049339924 0.021881722 0.060202267
000240 4b a9 ac 3c ea 23 5a 3c 03 82 a4 3b e0 d1 b8 3c
       0.021076819 0.013314227 0.0050203814 0.022561014
000250 70 2d 89 bb 93 07 b7 bc 56 45 c2 bb 61 1d 34 bd
       -0.004186325 -0.022342479 -0.0059286756 -0.04397333
000260 c8 f3 5b bc c3 f0 e2 3c 65 69 ba 3c d0 dd 0a 3c
       -0.013424821 0.027702695 0.022755334 0.008475736
000270 f4 5f b3 3c 10 3d a3 3c 6a eb c4 3c f7 59 e9 bc
       0.02189634 0.019926578 0.024038035 -0.028485281
000280 15 87 d6 3c 96 50 ce bb b0 f6 73 bb 1c 13 6b bc
       0.026187459 -0.0062962277 -0.0037225895 -0.014347818
000290 6d 63 3a bd 2d b1 51 3d c9 84 f2 bc be 52 d4 3c
       -0.045504976 0.05119436 -0.029604333 0.02591836
0002a0 27 14 aa 3d 64 f6 2d ba a3 0b 01 3d 83 3a 0c bd
       0.08304625 -0.00066361413 0.03150524 -0.03423549
0002b0 60 13 1d bc d9 bc df 3d fb 5c d2 3b 76 ab 1a bd
       -0.009587139 0.10924692 0.0064197755 -0.037761174
0002c0 0e 7f ea 3c 56 5c a4 3c 6a 53 6b 3c d5 5c 1b 3d
       0.028625038 0.02006356 0.014363149 0.03793033
0002d0 d2 84 07 3c 3e af 87 bb 59 74 64 bc e9 8d 01 3c
       0.008271413 -0.0041407635 -0.013943755 0.007907369
0002e0 ff 64 fa bc 66 5d 33 bc 02 e2 e9 3c 61 5f 09 bc
       -0.030565737 -0.010947561 0.028550152 -0.0083845565
0002f0 75 5d 20 bd b8 03 aa 3a 22 a6 4f bc 6e 55 fd 3c
       -0.039151628 0.0012971079 -0.0126738865 0.030924525
000300 8d 3f 80 bb 53 ac 37 3d 6b 91 88 3c 17 fc 60 bd
       -0.003913826 0.044842076 0.016670903 -0.05492791
000310 68 8c 2f bd 6a f7 99 3d 3b 91 a1 3c 08 21 a1 bc
       -0.04285851 0.075178936 0.019722572 -0.01966907
000320 4e c9 1f 3c 8e c7 33 bc e9 20 9d 3c 16 61 9c bc
       0.009752585 -0.0109728705 0.019180732 -0.019089263
000330 7e 08 0d bd 9c f6 1a bd be c8 37 bc 26 7d ba bb
       -0.034431927 -0.03783284 -0.011217294 -0.0056911884
000340 12 68 3f bc ef 2c 49 bd 4b b9 ec bc 20 20 2e 3d
       -0.011682527 -0.049115118 -0.028896948 0.042511106
000350 a3 ae ee bc 35 36 35 3b 09 50 37 bc 96 44 06 3b
       -0.029136008 0.0027650718 -0.011188515 0.0020487658
000360 b3 f0 fa bb 0d 79 51 bc 8b ca 14 3d 70 59 b5 3b
       -0.007658088 -0.012785208 0.036325973 0.0055343434
000370 3b eb c6 3b c9 7e e5 3c 7b 7c f7 3b 22 fb 6b bc
       0.006070522 0.028014557 0.007552681 -0.014403136
000380 68 28 9c bd 55 a8 b8 3d 28 14 b7 bb cf 51 e7 bc
       -0.076248944 0.09016482 -0.0055871196 -0.028237252
000390 84 1a 01 bc 2f 50 90 3d 1b 36 86 bc 56 c9 29 3b
       -0.007879857 0.07046544 -0.016383221 0.002590736
0003a0 21 a9 a1 3c 36 5f 98 3c b6 30 73 3b 1c 54 88 bc
       0.019733967 0.018600088 0.0037107891 -0.016641669
0003b0 27 e6 87 3c 8a 20 87 bc 11 6f ed bc 04 4e 06 3c
       0.016589237 -0.016495008 -0.028983625 0.008197311
0003c0 49 e4 16 3d 3d c7 06 3d ba 16 ab bc 62 0c 49 3d
       0.036838803 0.032904852 -0.02088486 0.049084075
0003d0 aa db 4c bd 87 69 07 bd 0d ac 18 3d 2f fc e8 3c
       -0.050014175 -0.033059623 0.037273455 0.028440563
0003e0 ac 56 1f 3d 43 d4 ba 3b 6a 23 da 3c 34 f7 12 bd
       0.038901016 0.005701573 0.026628215 -0.035880283
0003f0 26 b3 82 3b 3a d0 f7 3b 64 ce e0 3b 4a eb e0 bc
       0.0039886413 0.0075626643 0.006860541 -0.027455945

tiles_emb.hidden_layers.0.bias f4 [128]
000000 9d 11 b0 bc 12 a2 d4 3c 7d 96 cb 3c f1 42 04 3d
       -0.021492774 0.025956187 0.024852032 0.032290403
000010 22 fc 22 ba 26 0e d6 3b ec 23 61 3c 6c dc 1f bd
       -0.000621738 0.0065324483 0.013741475 -0.03902857
000020 82 60 b5 bc a6 9e af 3c 25 a9 8d 3c 1e 00 1b bd
       -0.022140745 0.021437954 0.017292568 -0.03784191
000030 9e 92 2e 3d 57 c2 43 bc ea 43 b0 3c cf 81 0c bd
       0.042620294 -0.01194819 0.021516759 -0.034303483
000040 1a 2a 86 bc b2 91 bd 3c 40 66 9a 3c c3 7b 0b 3d
       -0.016377497 0.023140762 0.018847585 0.034053575
000050 70 23 cd 3c 38 02 cf bc 98 1f 03 3d ae be 24 bd
       0.025041312 -0.025269613 0.032012552 -0.04022091
000060 7d 07 42 bc 1b e3 12 3d f3 12 1c 3d b7 d5 2f bc
       -0.011842606 0.035861116 0.03810401 -0.010732106
000070 86 63 24 bd 03 c4 f8 bc ff c9 86 bc 7b 1f d4 bc
       -0.040133975 -0.030366903 -0.016453741 -0.025893917
000080 6f bc 2b 3d c9 8c e5 3c fe 60 13 bb 31 60 26 3c
       0.04192775 0.028021233 -0.0022488232 0.01015477
000090 63 8a f4 ba 7b ad 22 bd 49 94 59 bc 03 50 bf 3c
       -0.0018656965 -0.039716225 -0.013279983 0.023353582
0000a0 f2 e4 5b bc 9b 82 b6 bb 6c 85 8f bb aa 7c 9a 3c
       -0.013421284 -0.0055697686 -0.004379919 0.018858273
0000b0 c0 7b 60 bc 2f c3 2a bd 92 69 9d 3c af ec 16 bd
       -0.013701379 -0.041690048 0.019215379 -0.036846813
0000c0 21 1f 23 bc 46 bb a1 3c ec fb 08 bd a9 4f 16 bd
       -0.009956152 0.01974262 -0.033443376 -0.036697064
0000d0 22 fb 5e 3d 1d b4 8f 39 d8 b1 f2 3c bf 06 29 3d
       0.054438718 0.0002740928 0.029625818 0.0412662
0000e0 35 50 ea bc a7 47 0f 3d 54 7d a5 3c 07 92 e8 3c
       -0.028602699 0.034980442 0.020201363 0.028389944
0000f0 bf d0 07 3d 0d ce 9f ba d6 90 cd bc db a2 e5 3c
       0.03315806 -0.0012192145 -0.025093477 0.028031757
000100 0f 82 2c bd eb 99 b2 ba 1e 13 fc 3a 89 c5 2b bc
       -0.04211622 -0.0013626193 0.0019231772 -0.010484108
000110 ab ae c3 bc e1 6c 23 bd a2 cc 92 3c f0 7c be 3a
       -0.023887 -0.039898757 0.017919842 0.0014533084
000120 9c 14 e5 bc e4 58 38 3c 1d 34 29 bc f8 1b fa bc
       -0.027963929 0.011251662 -0.010327366 -0.030530915
000130 d9 4e d6 bc cd 84 50 bc 5a 1f 55 3c c6 99 02 bd
       -0.026160644 -0.012726975 0.013007963 -0.03188493
000140 1a f0 93 3c f7 d5 92 bc f0 5c 97 bc 56 a3 ac bc
       0.018058825 -0.017924292 -0.018476933 -0.021073978
000150 02 0f 95 bc 6e 2d f3 3b 2e 9e 19 3b 7b 8d 7f 3c
       -0.018195633 0.007421187 0.002344023 0.015597696
000160 c7 ca e3 3c 83 e2 0a 3d 99 2a f3 3c 1e 49 3d 3d
       0.027806653 0.033907425 0.029683398 0.046212308
000170 1b 06 be bc 1c 70 da ba 9a 70 b5 3b 57 74 d4 bb
       -0.02319627 -0.0016665491 0.005537105 -0.0064835954
000180 3d 34 ac 3c 68 a9 d6 3c 97 2c 33 3c b4 6a a3 bb
       0.021021003 0.026203826 0.010935924 -0.0049870852
000190 81 45 1b 3c 1e 5e 1c bd c9 f3 2a 3c 72 10 cf ba
       0.00947702 -0.038175695 0.0104340995 -0.0015797748
0001a0 45 16 2a bd bf 57 2b 3d ea 0d 72 3c 18 52 c5 bc
       -0.041525144 0.041831728 0.014773825 -0.024086997
0001b0 55 b7 23 3d 04 38 b0 3c 7c a8 33 3c 2f 16 c7 3c
       0.03996976 0.021511085 0.010965463 0.02430257
0001c0 e2 53 87 3c c5 b8 d4 bc 14 60 0a 3d 7d db 81 3c
       0.01651949 -0.025967011 0.033783033 0.01585173
0001d0 48 f4 20 bd 23 44 6e bc 78 c5 e4 3c 3a 37 b5 3c
       -0.039295465 -0.014542612 0.027926192 0.02212106
0001e0 a8 a1 71 bc 21 87 3b bc 5d 49 5b 3d fb 8d 00 3d
       -0.0147480145 -0.011445791 0.05353676 0.031385403
0001f0 e8 c9 23 3d f9 6d 89 3c 39 2e 32 3d 90 ac b5 3c
       0.039987475 0.016776072 0.043501113 0.02217701

tiles_emb.hidden_layers.2.weight f4 [128, 128]
000000 2e f9 8d 3b eb e6 7e 3c 55 99 3c 3c 72 21 ec 3c
       0.004332683 0.015557985 0.011511167 0.028824542
000010 c2 de b1 3d 42 7c 0c 3c 56 2f 77 3c 7b 65 a5 bc
       0.08685066 0.008574547 0.015086969 -0.020189991
000020 88 31 6f bd bf b1 8d bd f1 8a 48 bd f5 02 88 bd
       -0.058396846 -0.06918668 -0.04896063 -0.06641189
000030 9a c1 af 3c 7c 1f 8c bd 9a 44 a3 bb 5f ac 8c bd
       0.021454621 -0.06841943 -0.004982543 -0.06868815
000040 91 85 0c bd b6 38 d5 3c f1 c0 d9 bc 36 8a 49 3d
       -0.034307066 0.026028018 -0.02658126 0.049204074
000050 20 96 82 3d 03 a7 de 3d 43 31 28 3c fa dd 62 bd
       0.0637629 0.10871699 0.010265651 -0.055387475
000060 21 30 96 3d b3 12 33 bd 10 12 aa 3d 4c 93 4c bd
       0.073333986 -0.043719005 0.083042264 -0.04994516
000070 51 19 9f bd be 83 b2 bc 8d 9f c8 3c 3c 68 19 bd
       -0.077685006 -0.021791335 0.024490142 -0.03745292
000080 40 46 5d bd 99 6a 96 bd 54 d8 8f bd 76 c3 6e 3d
       -0.054022074 -0.07344551 -0.07023683 0.058291875
000090 51 a2 81 bd 4b b1 f8 bc 98 3a 96 bd 36 d7 6b 3d
       -0.063297875 -0.030357977 -0.073353946 0.057578288
0000a0 76 7d 2e 3d a5 66 01 3d fb 56 bd 3d 94 02 3f bd
       0.042600118 0.03159203 0.09245106 -0.046633318
0000b0 e0 88 bb bb 14 c4 1d bc c1 61 85 bb 91 6a 44 bd
       -0.005723104 -0.009629268 -0.004070491 -0.047953192
0000c0 92 d1 af 3b 7e a0 36 bc a9 c8 c9 bc 38 1e a4 3d
       0.005365559 -0.011146663 -0.024631815 0.08013576
0000d0 93 de 91 3d f1 b0 96 3d 11 38 f8 bc 0b 50 61 bc
       0.07122531 0.07357968 -0.030300172 -0.013751994
0000e0 26 81 df bc df 97 19 bd 50 a3 11 3c 6b c8 58 3d
       -0.027283262 -0.03749835 0.008889034 0.05292551
0000f0 7c ad 96 ba 16 ad 51 3b b8 e8 22 3d 69 0b 05 bc
       -0.0011495794 0.0031994036 0.03977272 -0.008120396
000100 bc fc b3 3c f1 9a 36 3d 22 60 84 3c cf 88 e9 3c
       0.0219711 0.044581357 0.016159121 0.028507618
000110 c8 2a da 3d c2 3c 3e bd bf de 9b bd 11 18 33 3d
       0.10652691 -0.046444662 -0.07610845 0.043724123
000120 4d 81 8a bd 2a 81 b4 3d 09 12 b6 3d ef ef 87 bd
       -0.067629434 0.088136986 0.08890159 -0.066375606
000130 1b 0b be 3d 04 df 9e bb a8 b9 8e 3d 03 59 2c 3c
       0.09279462 -0.004848363 0.06969005 0.010519269
000140 e1 ed 4a bd ea d4 cc 3c 86 61 1d bd 38 13 2e 3d
       -0.049543265 0.02500387 -0.038423084 0.042498797
000150 4d 36 97 bd 09 0a 9f bd 34 7c 31 bd f2 1a f6 bb
       -0.07383404 -0.07765586 -0.04333134 -0.0075105364
000160 77 0e df 3d af 5c 87 bd a4 ae ea 3d 16 16 84 bd
       0.10891431 -0.06609475 0.11459091 -0.06449525
000170 b8 2b a0 3c 2f aa 79 bd 57 99 ee bb d2 54 0a bd
       0.019552097 -0.060953315 -0.007281463 -0.033772297
000180 28 16 5d bd b6 ad 5f bc e8 9c 60 3d 2f 69 65 bd
       -0.053976208 -0.013652256 0.054837137 -0.056008514
000190 a7 55 ae 3d 14 0d a5 bc 0a 5a a8 3d b4 b2 56 b8
       0.08512431 -0.020147838 0.082202986 -5.1188006e-05
0001a0 9c 5d aa 3d 32 f5 2c bc 57 29 eb 3d 8a 67 06 3d
       0.08318636 -0.010556506 0.11482494 0.032813586
0001b0 c4 63 bb 3d 91 e2 9c bc 5d bd 5a 3d 06 bc f7 3c
       0.09149888 -0.019151004 0.053403247 0.030241024
0001c0 c6 ed b1 3d 38 2b ed 3c 72 2c d2 3d 72 c7 ed 3c
       0.0868793 0.028951272 0.102623835 0.029025767
0001d0 47 30 88 3c 4d e6 cf bc 33 43 8c 3d 98 63 e0 bc
       0.016624583 -0.02537837 0.06848755 -0.02739124
0001e0 3b 65 2a bd 6d d2 ce 3d 92 bb c0 3d 6c 5d 52 bd
       -0.041600447 0.10098729 0.09410776 -0.051358625
0001f0 aa d3 95 bd 9a a6 c7 3d 97 8e cc 3c 49 69 b0 3d
       -0.07315762 0.097485736 0.024970336 0.086138315
000200 59 73 06 3d 75 5d 0d 3d 8e b7 62 3c 43 a7 96 bd
       0.032824848 0.034512956 0.013837708 -0.073561214
000210 cd bf 4f 3d f5 28 ed 3c 51 40 fa 3b ff 41 87 3d
       0.050720025 0.028950194 0.0076370616 0.06604385
000220 17 72 7c bc b6 93 fa 3b 8e 12 66 3c 3c 03 c1 3c
       -0.0154080605 0.007647003 0.01404251 0.023561113
000230 55 7e 2b 3d af 5f 82 bd c9 b8 43 bd cb c8 e8 3c
       0.041868526 -0.063659064 -0.047783647 0.028416058
000240 ee 53 6b 3d 90 94 2b 3d 34 f6 47 bd d7 1a a7 bd
       0.05745309 0.041889727 -0.048818782 -0.08159416
000250 dc 66 aa bd 8a 54 d5 bd 08 9b 4f bd b1 2b 73 3d
       -0.083204 -0.10416515 -0.05068496 0.05936784
000260 7e f0 86 3d 15 ba ad bd 43 55 9c bc 79 c8 f1 bc
       0.06588839 -0.08482758 -0.019083625 -0.029514538
000270 50 ea 96 3d 1b 6d 7a 3c 1d 0c b4 bd 19 34 42 bd
       0.0736891 0.015284802 -0.08791373 -0.047412965
000280 de c9 df bc 99 de 95 3d cf 93 8c 3d db 94 d3 bd
       -0.027317937 0.07317848 0.0686413 -0.10331126
000290 28 16 b7 3c 3c 35 20 3d 98 01 1f bd 52 50 ac bd
       0.022349432 0.03911327 -0.03881988 -0.084137574
0002a0 5b 9c cb bd 3d a9 4b bc 83 ad 08 3b 37 28 52 bd
       -0.09941932 -0.012430486 0.0020855374 -0.051307883
0002b0 c3 8a 8f bd 6d 98 15 bd f0 4c 81 3d 8d 9f 7a bd
       -0.070088886 -0.036522318 0.06313503 -0.061187316
0002c0 92 d5 66 bc 95 2d 49 3c 5a 7f 68 3d 88 63 a2 bd
       -0.014089005 0.012278934 0.056762077 -0.0792914
0002d0 ba 04 73 bd c9 55 04 3d 94 d5 7e 3d 62 f7 9f bd
       -0.05933068 0.032308374 0.062215403 -0.078108564
0002e0 3c 0b 2f 3d ff 19 2f 3d c7 ad 8b bd af 03 08 3d
       0.042735323 0.0427494 -0.06820255 0.033206638
0002f0 07 f2 3e bd 1e f7 8f 3d d4 f2 c6 bc 83 1c 07 3d
       -0.046617534 0.07029556 -0.024285711 0.032986175
000300 32 de 99 3d e6 35 1a bd a5 81 30 bd 24 68 8e 3c
       0.075130835 -0.037649058 -0.04309239 0.017383642
000310 f8 77 b6 bb 72 60 c4 3a 4f c9 a5 bc 84 48 0f 3d
       -0.0055685006 0.0014982356 -0.020237593 0.034981266
000320 94 04 03 bd 5c c4 bb 3b 52 29 38 bc eb 23 b9 bd
       -0.031986788 0.005730195 -0.01124032 -0.09040054
000330 18 9f ad bd 76 57 8e 3c a6 28 8a 3d 5c 7d 53 bd
       -0.0847761 0.017375689 0.06746034 -0.051633224
000340 f3 9a fc 3c ae 30 a8 3d c9 07 89 3d e2 58 cb 3c
       0.030835604 0.0821241 0.06690938 0.024822656
000350 5d 4f 70 bc 81 02 be bc 28 5d bc bd 16 e6 3d bc
       -0.014667359 -0.023194553 -0.09197456 -0.011590501
000360 77 30 70 bc 9c 92 81 bd 06 de cc bd 37 f5 08 bd
       -0.014659992 -0.06326792 -0.10003285 -0.03343698
000370 a2 73 0d 3d ec b9 a4 3d c9 0a ab 3d 4a 41 25 3d
       0.034534104 0.08043274 0.083516665 0.040345468
000380 ab 1b 1f bd d7 d4 49 3d 77 97 0c 3c e9 fc 76 3d
       -0.038844746 0.049275246 0.008581034 0.060299788
000390 88 e1 0c 3c 24 f5 b6 3c 36 84 e8 bc 10 4c 77 bd
       0.008598693 0.022333689 -0.028383356 -0.060375273
0003a0 9b 6c 6a bc 89 ad 7d 3d 4e ce 01 3d 84 52 8a bd
       -0.01430812 0.061933074 0.031690888 -0.0675402
0003b0 6d 2d e7 bd e1 a2 18 bd d7 8e 78 bc 24 f0 34 3d
       -0.11287961 -0.03726471 -0.015170774 0.04417433
0003c0 bf f9 f3 bd e5 7c e8 bc 86 c5 18 bd e1 29 52 bd
       -0.1191287 -0.028379867 -0.037297748 -0.05130947
0003d0 13 7b 3e 3c 7d ca 81 bd 36 eb 8e bd d4 b1 aa 3d
       0.011626023 -0.0633745 -0.06978457 0.08334699
0003e0 10 4a 85 bd 24 23 bc bc cc 17 95 bd 73 bc b5 3d
       -0.06508267 -0.022965975 -0.072799295 0.088738345
0003f0 e2 73 3d 3d 4f 82 c9 bd e2 54 77 3d a8 e6 92 bd
       0.046253093 -0.098393075 0.060383685 -0.071729004

tiles_emb.hidden_layers.2.bias f4 [128]
000000 be f2 87 3d bd a8 74 3d 0d ac d9 bb 77 91 1b 3d
       0.06638096 0.059731234 -0.0066428245 0.037980523
000010 02 25 29 bd 53 4e 05 3c a8 f0 87 3d ac c7 83 3d
       -0.04129506 0.00813635 0.066376984 0.06434569
000020 1e eb 4d 3d d5 03 13 3d cd 9c 3a bc c5 78 15 bd
       0.050273053 0.035892326 -0.011389923 -0.036492128
000030 82 bc 7e 3d ef cc 43 3d a6 b7 23 bd d1 9d b4 ba
       0.062191494 0.04780286 -0.039970063 -0.0013779943
000040 3c f9 16 bc 79 27 53 3d 5b ce 94 bc f5 ea c4 3b
       -0.009214696 0.051551316 -0.018164804 0.0060094544
000050 37 17 09 bd e1 8f 55 bd b2 1a 3e 3d e4 58 8c 3d
       -0.033469405 -0.052139167 0.046412177 0.06852892
000060 66 69 d4 bd 1a 1e 7b bd 43 3b 4c 3d 9e bc bf 3b
       -0.10371666 -0.061308004 0.049861204 0.0058513423
000070 4e 4b 4f 3c 22 54 2a bd 6d 8f 49 bc 24 f6 84 3d
       0.012652231 -0.04158414 -0.012302262 0.0649226
000080 4d 7c 83 3d 86 68 17 3d 1c bb 9c bd 28 f4 35 bc
       0.06420193 0.036964916 -0.07652876 -0.011105575
000090 64 d1 ae bc 8a 75 90 3d 20 b8 0a 3d 49 fd 68 bc
       -0.02134008 0.07053669 0.033867 -0.014220544
0000a0 97 00 bd 3c e0 be d7 3d c6 18 1a 3a ed 09 09 bd
       0.02307157 0.105344534 0.00058783253 -0.03345673
0000b0 35 c9 0c bd a2 d7 c0 3c 5c d4 b5 3d 35 c2 5a bd
       -0.034371573 0.023540322 0.08878395 -0.053407867
0000c0 76 61 1d bc f5 a2 9c bc 28 9b 83 3d 10 ad 4f 3d
       -0.009605756 -0.019120673 0.06426078 0.050702155
0000d0 e1 fa 89 bd c5 f9 40 3c 93 5e 5e 3b fc dd d0 bd
       -0.067373045 0.0117783 0.0033930882 -0.1019859
0000e0 21 71 a5 3d 99 75 92 3c 32 71 d0 bc 0e 6f 0f 3d
       0.08078218 0.01787834 -0.0254446 0.03501802
0000f0 2d 9e 8d bc a4 71 2b bc 34 9e c0 bd e3 17 38 3d
       -0.017287338 -0.010464106 -0.09405175 0.044944655
000100 e8 60 a6 3b 5c c6 ac ba ae 34 ef bc e8 d1 94 3c
       0.00507747 -0.0013181674 -0.029199924 0.018166497
000110 6b 84 0c bd 0b 37 79 3d fe 82 93 3b d2 79 1a bc
       -0.03430597 0.06084351 0.0045016995 -0.009428458
000120 c2 db 23 bd a2 83 6e 3d f1 e7 5a 3d 45 f1 2c bd
       -0.0400045 0.058231004 0.053443853 -0.04222228
000130 c0 06 9b 3c 46 f1 e7 3c b7 7e b1 bd 49 97 2f 3c
       0.018924117 0.02831329 -0.08666747 0.010717222
000140 8a 94 be 3c 33 61 5b bd 8e 2a f2 3a 1f ad 37 3d
       0.023264188 -0.053559493 0.0018475817 0.044842836
000150 04 63 4e bd 9e 2e 9c 3d 30 97 aa bd 53 0e 6c bd
       -0.050387397 0.07626079 -0.08329618 -0.05763085
000160 fd 92 d6 bb ad f3 29 bd f9 5d 89 3d 8c 03 a8 bc
       -0.006548284 -0.041492153 0.06707377 -0.020509504
000170 a6 6f b1 bc e8 85 d1 bd 1d 6c 03 3c 1f 96 1c bc
       -0.021659683 -0.10230619 0.008021382 -0.009557276
000180 e0 98 7f bd 71 f9 2e bd e1 42 33 3d de bb 7e bd
       -0.062401652 -0.042718355 0.043764953 -0.062190883
000190 d0 42 6d bd 0f 3c 68 bc e0 12 c0 3c 70 33 72 bd
       -0.057925045 -0.014174475 0.0234465 -0.059131086
0001a0 31 13 95 bd a8 e7 42 bd b9 39 a9 3d fa 50 dc 3d
       -0.07279051 -0.047584206 0.08262963 0.107576326
0001b0 01 99 0f bd 23 8b c6 3c 11 79 fa bc e9 98 b1 3d
       -0.035058025 0.024236267 -0.030575307 0.086717434
0001c0 de ac de bd f2 94 7a 3d 9f ac 35 bc 6e 4f 2a 3d
       -0.108728155 0.0611772 -0.011088519 0.041579656
0001d0 9a 6d 20 bd a2 1e 80 bc f0 a0 a3 bd 2e 73 d6 3d
       -0.039167024 -0.015639607 -0.07989681 0.104711875
0001e0 a0 cb b5 3d 1c c5 1d bd e9 34 af bd 4b 11 ef 3c
       0.08876729 -0.038518056 -0.08555014 0.02918305
0001f0 f1 19 a0 3d 79 d9 52 bd 5c d5 5c 3d 83 6d ba bd
       0.07817448 -0.05147693 0.053914413 -0.09102919

attention_layer.att.weight f4 [128, 128]
000000 f4 8e b8 bc 51 d0 d3 3d 93 a5 96 bd 70 84 a3 bd
       -0.022529103 0.103424676 -0.073557995 -0.07984245
000010 e4 36 39 bd 09 b9 8d bd 90 e7 94 bd 45 07 4a 3d
       -0.045218363 -0.06920058 -0.072707295 0.04932334
000020 04 be e2 bd 29 6e ab bb a5 f9 b5 3c 68 c5 56 3b
       -0.11071399 -0.005231638 0.022213766 0.0032771472
000030 ef d7 79 bb 3d a9 a7 bd db ce 52 bd c2 81 b9 3d
       -0.0038123091 -0.081865765 -0.051466804 0.090579525
000040 e5 f4 02 bd d0 ea 87 3d 5e 17 90 bd e4 92 c2 bd
       -0.03197183 0.06636584 -0.07035707 -0.095006734
000050 3f 34 0e bd bf 8f d0 3c c9 6c 8b bd 32 cc 83 bd
       -0.034717795 0.025459168 -0.068078585 -0.064354315
000060 9f 5d 51 3d 39 6e 03 bd 30 d4 e4 bc 42 f4 8b 3b
       0.051114675 -0.03208754 -0.02793321 0.004271061
000070 6f 96 8f ba 4a 35 ca bd be f8 a8 3d 1d 10 8c 3d
       -0.0010954867 -0.09873445 0.08250569 0.06839011
000080 78 12 d6 39 55 42 aa 3c 9f 2f 5d bd ee c7 0d bd
       0.0004083102 0.020783583 -0.054000493 -0.034614496
000090 c4 d6 6f bd 74 15 0f bd a6 11 9c bd 29 f6 94 bd
       -0.058554426 -0.03493257 -0.07620554 -0.07273514
0000a0 aa a6 7c bd b0 c3 f7 bd 0a 65 7a 3d 16 a0 c7 bd
       -0.06168238 -0.12097871 0.061131515 -0.09747331
0000b0 a4 80 b6 bd 88 52 88 bc f7 a3 fd bc 86 79 93 bd
       -0.08911255 -0.016640916 -0.030961974 -0.07200913
0000c0 6a 76 1d 3d 53 57 a4 3d 52 ef 83 3c d6 f5 0e 3c
       0.038443007 0.08024468 0.016105328 0.008725604
0000d0 ef 38 0e bd 5e 6d 9a 3c c0 45 92 bc 04 e5 7b bb
       -0.034722265 0.018850978 -0.017855525 -0.0038436064
0000e0 eb e3 11 3c bd 34 16 bd be 60 16 3d 50 e9 2e 3d
       0.008904438 -0.03667139 0.036713354 0.042702973
0000f0 7c c5 83 3d 82 c6 83 bd cb 74 58 3d 15 71 37 bd
       0.064341515 -0.06434347 0.052845757 -0.044785578
000100 9b cc 47 bc a5 b1 d9 3c b4 cc fd bc f8 15 4c 3d
       -0.012194778 0.026573965 -0.0309814 0.04982564
000110 16 c8 1c 3c c1 75 6b bd c1 77 c2 3d 34 75 94 bc
       0.009569189 -0.057485346 0.094954975 -0.018122293
000120 8f 59 02 bd 79 2e 3b bd 9c 19 e5 bc 7e be 2d 3d
       -0.03182369 -0.045698617 -0.027966313 0.042417996
000130 a9 0c 83 bd 80 06 7d 3d a2 10 30 3c e0 d3 84 3d
       -0.06398899 0.061773777 0.010746153 0.064857244
000140 2e 4f a4 3a 59 ec 25 3d 20 04 db 3c c7 88 89 bc
       0.0012535804 0.0405086 0.026735365 -0.016788853
000150 7d 9d b8 3d cb 6a 57 bc 6a 50 ce 3d 55 13 08 bd
       0.090144135 -0.01314802 0.100739315 -0.03322156
000160 c1 aa 7a bc b6 3e 6b 3d 1a f6 b2 3d 83 85 9b 3d
       -0.0152995 0.057432853 0.087383464 0.07593825
000170 58 84 27 bd 43 7d 07 3c ff 23 5a bd cb 3d ea 3c
       -0.040897697 0.008269611 -0.053256985 0.028593918
000180 3c 02 87 3d 94 62 8c 3d 2c 5b c4 bc 78 99 86 bd
       0.06592223 0.0685474 -0.023969255 -0.065722406
000190 c2 bb 81 3d ce db 24 bd 57 5c 56 3b 84 95 18 3d
       0.0633464 -0.040248685 0.0032708847 0.037251964
0001a0 74 4e 60 bb 27 e6 c1 3d ec de 20 bd 1e 75 e9 bc
       -0.003422645 0.09467726 -0.039275095 -0.028498229
0001b0 3b ce 8f bd 24 d4 98 3d 15 f1 71 bd 79 18 81 bc
       -0.07021757 0.074623376 -0.059067804 -0.01575874
0001c0 1e 67 24 bc dc ca b5 bd c9 2f 87 bd 74 7f 21 bd
       -0.010034351 -0.08876583 -0.06600911 -0.03942819
0001d0 f7 69 e9 3b b0 d7 90 3d 06 38 ae bc 7c 3a 33 3d
       0.0071232277 0.07072389 -0.021266948 0.043756947
0001e0 f4 45 84 3d 40 f1 73 3d b6 46 24 bd c1 a4 0d 3c
       0.06458655 0.059556246 -0.040106498 0.008645237
0001f0 25 6a 75 3d d0 2a 53 bd f1 5c 50 bc a9 2c 9c bb
       0.05991568 -0.0515545 -0.012717471 -0.004766066
000200 38 b1 e7 3c cc 1a 6c bb ae 1b 6f 3c ba a3 6e bd
       0.028282747 -0.0036026714 0.014594002 -0.05826161
000210 9c 50 dd ba 86 d2 97 b9 f4 c4 17 bd 39 77 b0 bd
       -0.0016884985 -0.00028957817 -0.037053064 -0.0861649
000220 84 f9 18 bd 4d bf 53 3d 06 03 ee 3b 29 91 f8 bc
       -0.03734733 0.05169611 0.007263544 -0.030342655
000230 9b 71 3f 3d 6a 0e 1c 3d b4 85 a3 bd 24 71 2f bd
       0.046739202 0.038099684 -0.07984486 -0.04283251
000240 dd 00 dd bd d3 b4 88 3d 4a bc f1 3c bb 39 cd bc
       -0.1079118 0.066751145 0.029508729 -0.025051942
000250 71 f5 00 bd 93 ec c7 bd 0c c7 ea 3c 6a 93 9a 3d
       -0.03148407 -0.0976192 0.028659366 0.07547648
000260 b9 3d 06 3c c3 6b 91 3c 74 db 80 3d bf 15 c1 3d
       0.008193427 0.01775158 0.06291857 0.09427976
000270 f7 5e d8 bc af cb 0e 3d dc 29 91 bc bf f5 73 3d
       -0.02641247 0.034862217 -0.017720155 0.059560534
000280 c9 fb 74 bd 25 89 b0 3d c6 cc 8e 3d 45 9e 10 bc
       -0.059810434 0.08619908 0.06972651 -0.008826797
000290 1f 7e 3b 3d 7c 9e 89 bd c8 48 52 3d 0c 47 31 3d
       0.045774575 -0.067196816 0.05133894 0.043280646
0002a0 20 35 a9 3d 52 9c a9 3d 32 11 2d 3d d7 ca 6f bc
       0.08262086 0.08281769 0.042252727 -0.014635763
0002b0 9c 19 9e 3d 1e c3 9a 3d 24 f4 7f bc 7f 05 d0 3b
       0.07719728 0.07556747 -0.0156221725 0.0063483114
0002c0 e3 00 b6 3d 2a ca 72 bc 07 75 57 3d b0 70 d0 3d
       0.08886888 -0.0148187075 0.05260184 0.101777434
0002d0 02 fd aa 3d 30 8d 4c bd f3 2c fc bc 26 bd d0 bc
       0.08349039 -0.049939334 -0.030783152 -0.025480818
0002e0 df 94 19 bd 83 6d 2d 3d d1 2a 85 3d 63 a8 79 bd
       -0.03749549 0.042340767 0.06502307 -0.0609516
0002f0 ec 1c 9c 3c 83 c8 68 bd c3 12 18 bd 14 41 6a 3d
       0.01905676 -0.056831848 -0.037127268 0.05719097
000300 27 1e bf 3d bd f9 b4 3d 0d fb c0 3d 43 e4 fa 3b
       0.09331923 0.08836696 0.09422884 0.0076566054
000310 3e 84 49 3d 45 63 26 3c 31 09 fb bb d0 00 ba bc
       0.04919838 0.010155504 -0.007661008 -0.022705466
000320 01 e9 b3 bc 9e 04 c0 bd 53 66 78 3d 55 63 a8 bd
       -0.02196169 -0.09375881 0.06064446 -0.08222071
000330 aa e7 87 3d ee fa e7 ba 17 b5 03 bc 44 fc cd bc
       0.06635983 -0.0017698684 -0.008038781 -0.025144704
000340 97 c9 c1 bd 8b fe c0 bd e9 61 07 3d 1c 2f e4 ba
       -0.09462278 -0.0942355 0.03305236 -0.0017409059
000350 5e 34 8f 3d 7a a7 bb 3c 52 94 34 3c fd 6c 9e bd
       0.0699241 0.022907007 0.01102169 -0.077356316
000360 7e bd 5d 3d 7e a1 21 bd a4 2c 88 bc 79 60 48 bc
       0.054135792 -0.03946065 -0.016622849 -0.012230032
000370 e5 d5 42 3c cf 5c b4 bd 75 c2 1c bd 50 50 33 bd
       0.011891817 -0.08806764 -0.038271386 -0.043777764
000380 6f 9c f0 bb 9b f1 8b bd 3a eb b9 3d e4 ad 32 ba
       -0.007342867 -0.06833192 0.09078069 -0.0006816073
000390 5d 3d 74 3d 97 d0 ae 3d b7 04 d4 3c b5 5a 62 3c
       0.059628833 0.08535879 0.025881154 0.013815572
0003a0 e0 2a 9d 3c 8a ac 35 3d 8d a0 7d bd 37 6d 51 bd
       0.019185483 0.044354 -0.06192069 -0.051129546
0003b0 c1 4b b4 bc 0f 59 19 bb 5f 77 b8 3b a9 71 f0 bc
       -0.022008779 -0.002339903 0.0056294645 -0.029351072
0003c0 d3 01 7c 3d 0a f4 4c bd 7c fd ad bd 99 7e 24 3d
       0.061525177 -0.05003742 -0.08495614 0.040159795
0003d0 24 82 47 3c ba f5 78 bd e2 f2 8b 3d 50 b6 9d bb
       0.012177024 -0.060781218 0.068334356 -0.004812993
0003e0 59 bb 07 3d 34 ab 12 bd 2b a9 58 bc cf 1e 3d 3d
       0.033137653 -0.035807803 -0.013223927 0.04617196
0003f0 f6 44 bb bb 77 02 99 3c 00 f0 3e 3d c4 97 4c 3d
       -0.005715008 0.018677933 0.0466156 0.049949422

attention_layer.att.bias f4 [128]
000000 d4 13 1c bd e8 20 57 3d 70 7e 8f bd 43 d4 a5 3c
       -0.038104847 0.052521616 -0.07006538 0.020242816
000010 13 44 1d 3d f2 64 d9 3b 10 15 d5 bc 0f bf b2 bd
       0.038395 0.006634348 -0.02601102 -0.08727848
000020 c0 ef 37 bd 61 14 09 39 5a f3 bd 3b f3 b4 ab 3d
       -0.044906378 0.0001307293 0.005796832 0.08384123
000030 c4 8b b0 bd 43 52 1d bd f5 5b b3 3d 4b 1f ce bc
       -0.08620408 -0.03840853 0.08757774 -0.025161406
000040 b8 ce fd 38 82 91 30 bd b9 f6 1a 3d 31 88 74 3c
       0.000121024845 -0.043107517 0.03783295 0.014925049
000050 62 e0 89 bd 80 3e 36 bd 92 7e b2 bb 13 30 70 bd
       -0.06732251 -0.0444932 -0.0054472173 -0.058639597
000060 b2 29 5e bd 09 72 f4 3c 03 5c a2 3d 2d 04 c6 bd
       -0.054238982 0.029839532 0.07927706 -0.09668765
000070 99 a3 a5 bd 92 e9 2c bb fc 44 02 3d 25 89 36 bd
       -0.080878444 -0.0026384336 0.03180407 -0.044564385
000080 52 2c 85 bc 5e e5 c5 3d d5 46 4f 39 8f 14 7b 3b
       -0.016256485 0.09662889 0.00019767445 0.0038311814
000090 48 1b 84 bd 2e 7f a4 3c bd 31 ba bd 7d 57 9c 3c
       -0.06450516 0.020080175 -0.09091518 0.019084686
0000a0 6f 69 34 3d 21 42 86 bd 34 ff 09 3d e2 04 9b bd
       0.04404586 -0.06555582 0.033690646 -0.07569291
0000b0 45 e9 bd 3c e1 07 67 3d 34 11 1d 3c cf 4a 52 3d
       0.02318252 0.056404 0.009586621 0.051340874
0000c0 d7 f6 05 3d c7 1b 8a 3d 77 16 74 bd 4e 42 f6 bc
       0.032706108 0.06743579 -0.059591737 -0.030060913
0000d0 b9 96 a4 bd 59 36 02 be d2 c6 1c bd 37 d4 1c bd
       -0.080365606 -0.12716044 -0.038275547 -0.03828832
0000e0 32 3c 20 3d b3 8a 81 ba 7a d4 aa bd 3e cb ff bc
       0.039119907 -0.0009883255 -0.08341308 -0.031224843
0000f0 d3 fd 8d 3d 07 b5 ab 3d 27 8a 04 b9 ee 42 0c bd
       0.06933179 0.083841376 -0.00012639967 -0.034243517
000100 b1 bf 20 bd b6 e4 b6 3c 7a ba 20 bc 76 eb e0 3d
       -0.03924531 0.022325855 -0.0098100845 0.109824106
000110 79 58 7c 3d 69 31 90 3c 70 6f b3 bb 6f f9 81 bc
       0.06160781 0.017601686 -0.005475931 -0.01586601
000120 48 50 72 bd ae 65 23 3c 38 66 ab 3c 04 24 9c 3d
       -0.059158593 0.009972973 0.020922765 0.07624057
000130 5f af 84 bd 27 d0 18 bd 40 b7 b9 3c 85 61 d3 bd
       -0.06478762 -0.037307885 0.022670388 -0.10321335
000140 95 75 06 3d 21 df db 3b 61 8b 39 bd f7 16 94 3d
       0.03282698 0.0067099486 -0.045298938 0.07230943
000150 86 02 b5 bb 67 54 3e ba e4 dc 19 bd 23 94 06 3d
       -0.0055239825 -0.0007260502 -0.037564173 0.032856118
000160 b9 c6 51 bd 33 a2 55 bd e5 bb 56 bc 18 f7 94 3c
       -0.051214907 -0.05215664 -0.013106321 0.01818423
000170 cf b3 f3 bb 95 bc 70 bd 02 61 e6 3d 9f 01 9d 3d
       -0.0074372063 -0.058773596 0.112489715 0.07666325
000180 11 4f 54 bd b3 3f 6b bb ce 66 d8 3c 64 3f 6b bc
       -0.051833216 -0.0035896122 0.026416209 -0.014358375
000190 ae 84 b9 bd dd 2b 02 bd 34 da 2d 3d 6c ec 4b bd
       -0.0905851 -0.031780113 0.042444423 -0.049786016
0001a0 4c 44 b1 bc f5 dd 52 3d 33 36 53 bc 8b d8 35 bd
       -0.021639012 0.051481206 -0.01289134 -0.044395965
0001b0 0e 06 97 3a de cb fa 3c 50 54 b5 3c 1d 81 68 bc
       0.001152219 0.03061479 0.02213493 -0.014190939
0001c0 7f ed a2 bc e7 1b c4 3d a0 6f 93 3d 88 07 ae 3d
       -0.019888638 0.095756344 0.07199025 0.0849753
0001d0 73 40 35 bd 54 9b 5d 3c 66 26 9f bd 42 23 d7 bd
       -0.044250917 0.013525803 -0.07770996 -0.10504772
0001e0 cd 76 84 bd 02 6b fe 3c a0 e8 e3 3b 3d f1 4f bc
       -0.06467972 0.031056885 0.0069552213 -0.012691793
0001f0 6a 18 ed 3c c2 1c a3 3c b6 79 c7 bc 4a 21 0e bd
       0.028942306 0.019911174 -0.024350028 -0.034699716

attention_layer.gate.weight f4 [128, 128]
000000 27 87 b0 bd 26 5a ba bc 31 ce 2b 3d 29 48 6f 3c
       -0.08619528 -0.022748064 0.041944686 0.014604607
000010 f1 a7 e0 3c 5c 0a 82 bc 43 e1 59 3d 05 64 4d 3d
       0.02742383 -0.01587408 0.053193342 0.050144214
000020 d7 0a e5 bc 0d e4 4e 3d 21 4a 26 3d c8 ac 9a bd
       -0.02795927 0.050510455 0.04059804 -0.07552487
000030 44 45 68 3b d8 d2 15 3b 23 2f 36 bc fb a6 98 3d
       0.0035441676 0.0022861268 -0.011119637 0.07453724
000040 94 e6 a0 bc 7f 4a 5f bd ad db 09 3c 3e 7d b8 3c
       -0.019641198 -0.054514404 0.008414191 0.022520658
000050 16 ba 5c 3c fb 84 c4 3d 80 dd 96 bd ae 44 ec bc
       0.013472101 0.095956765 -0.073664665 -0.028841343
000060 58 37 62 bc 6a 28 ed bc 15 e1 ed 39 ab 64 78 3d
       -0.01380714 -0.028949935 0.00045371862 0.06064288
000070 72 19 3d bd f7 63 65 bd a7 0c cc 3d 4c 6c 60 3d
       -0.046166845 -0.056003537 0.09963351 0.05479078
000080 52 93 9a 3d de 0d ad bd 86 29 ed 3d 8f 3b 70 bd
       0.0754763 -0.084499106 0.115801856 -0.05865055
000090 ff 15 ef 3d 75 d3 58 3d 7c bc d9 3d c6 f3 bb bd
       0.11674117 0.052936036 0.10631654 -0.091773555
0000a0 28 5c 37 3d ef 55 ec 3b 7f ce 15 bd 3b 6a 23 bd
       0.04476562 0.0072123925 -0.036573883 -0.03989623
0000b0 91 8c 7b bc 43 f4 97 bd f8 55 92 3d ff 01 68 bc
       -0.015353338 -0.07419636 0.071453035 -0.014160632
0000c0 3d f7 3c 3d 8a b7 98 3d ca d1 85 3d e5 4e 0b bd
       0.046134222 0.07456882 0.06534155 -0.034010787
0000d0 4f d0 e1 bb e8 e7 2d 3c e7 92 e9 3d e6 8b 07 bd
       -0.0068912874 0.010614373 0.114049725 -0.033092402
0000e0 13 1b 5f 3c ee c6 0e 3d 0f 57 32 3c db 8e 9c 3d
       0.013617295 0.034857683 0.010885014 0.07644435
0000f0 56 83 fd bb 93 3e 86 3d 5b cc e4 3c 09 76 a5 ba
       -0.0077366037 0.06554904 0.027929476 -0.0012623678
000100 8e 4c 72 bb 81 98 d5 bd 29 df b2 bd e9 e5 a0 bc
       -0.00369719 -0.104294784 -0.08733971 -0.01964088
000110 cc 97 59 bd 1e f9 4a bd 74 e3 2d 3c 31 9c 45 3d
       -0.05312328 -0.049553983 0.010613311 0.04824466
000120 1d 83 dc bc e7 ba 6c 3d 07 10 1e 3d 47 ce a6 3d
       -0.026917988 0.05779543 0.038589504 0.08144813
000130 da 04 4a bd fd c2 aa 3d 90 19 07 bb 52 e3 ff bc
       -0.049321033 0.08337972 -0.0020614602 -0.031236324
000140 ed 51 bd bc 1e 6a 9c 3d f5 88 4f bd 6c ff 51 3d
       -0.023110354 0.07637428 -0.05066772 0.05126898
000150 f3 8b 79 3d 3b f0 32 bd ca 2a 9a bb f0 34 b2 3d
       0.06092448 -0.043686133 -0.004704808 0.08701503
000160 e3 12 82 bd 5e e0 a5 bb 3f 3c a6 3d 16 15 b4 bb
       -0.063512586 -0.005062147 0.0811696 -0.0054956777
000170 ec 36 6d 3d 41 34 24 3d 46 aa 8d bc 08 c1 46 bd
       0.057913706 0.040088896 -0.017293107 -0.048523933
000180 38 4e 9a 3d 59 4a 82 bd aa 8c 99 bd 54 fc 87 3d
       0.0753445 -0.06361837 -0.07497533 0.06639925
000190 c0 31 fd bd 8f 7d 9e 3c 82 7f fb 3c 7f 3c 9d 3d
       -0.12363005 0.01934698 0.030700449 0.07677554
0001a0 e4 3d 83 3d f2 95 db 3d 6e 1d 22 3d 2d a4 da 3b
       0.06408289 0.10721959 0.039578848 0.0066724033
0001b0 67 ef de bd 2f 4c 30 3d 91 ce 94 bd 83 10 ab 3d
       -0.10885506 0.043041404 -0.07265962 0.08352759
0001c0 80 11 52 bd 45 d7 4d 3d bd c0 85 3d b8 f4 0e 3d
       -0.05128622 0.050254125 0.065309025 0.03490135
0001d0 b1 bf f3 bb 8d 1a 5f 3d c8 f8 30 bd 7d 52 70 bd
       -0.007438623 0.05446868 -0.043206006 -0.058672417
0001e0 5c dc 9c bc 7f 2b 54 bc 87 9c 57 bd 75 38 b0 3c
       -0.019148044 -0.012949823 -0.05263951 0.021511296
0001f0 69 c0 38 bd 74 49 a1 3d f3 d4 26 bd 76 58 ff 3d
       -0.04510537 0.07875338 -0.040730428 0.124680445
000200 6d b2 3d 3d b3 c0 8b 3b f8 ce 67 3d 8e 75 7b 3d
       0.04631274 0.004264915 0.056593865 0.061391406
000210 7b 27 aa bd 0d 4a 60 bc aa 6f ba 3d a4 d2 95 3c
       -0.083083116 -0.01368953 0.091033295 0.018288918
000220 6d 09 30 bd 82 57 45 3d e9 5a 05 bd 1f bc 1c bd
       -0.04297774 0.048179157 -0.0325574 -0.038265344
000230 f0 23 a8 3d b6 59 75 bd b5 79 75 bc 6f 27 df 3b
       0.082099795 -0.05990001 -0.0149826305 0.006810121
000240 c7 29 cb ba fa d6 a8 bd d2 ed 86 3b e7 1a 0d be
       -0.0015500122 -0.082441285 0.004117706 -0.13779794
000250 68 93 58 b9 08 12 af bc 70 d1 a9 bc d6 41 3e 3d
       -0.00020654278 -0.021370903 -0.02072975 0.046449505
000260 5d 5c 87 bd c2 d1 93 bd d3 5d 8a bc f9 1c b3 3c
       -0.06609414 -0.072177425 -0.016890442 0.021864401
000270 f1 79 68 bd d5 27 c4 bb 47 0d 0a bd 36 15 40 3d
       -0.056756917 -0.0059861937 -0.03370407 0.04689523
000280 d5 fa 04 bc 16 60 1f bd 69 2f 18 3c 09 db 56 bd
       -0.008116444 -0.038909994 0.009288647 -0.052454982
000290 f9 d9 ec 3d 74 b6 b1 3b 4f 94 66 bd 45 4e a0 bd
       0.115650125 0.0054233614 -0.05629378 -0.07827429
0002a0 b2 7e 82 bb e7 f7 08 3d 72 04 a1 3d c3 22 f4 3c
       -0.0039823884 0.033439543 0.07862176 0.029801732
0002b0 cf d2 87 3d 8d fc ec bc e7 4e 8b bc 42 ee 35 3c
       0.066320054 -0.02892902 -0.017005397 0.011104168
0002c0 73 56 49 bd 7d bb 46 bd 75 c3 0f bd c9 64 8d bd
       -0.04915471 -0.048518647 -0.03509851 -0.06903989
0002d0 9c 8f 79 bd 6d 5a 88 3d 11 46 22 bd 5b a9 37 3d
       -0.060927972 0.06657872 -0.0396176 0.044839244
0002e0 b2 f2 15 bd 01 d0 84 3c 50 5a de 3c 24 bb c1 b8
       -0.036608405 0.016212465 0.027142674 -9.237815e-05
0002f0 46 9d fc ba 1b ec 51 bc aa 1f 69 bd bb 2b e8 3c
       -0.0019272945 -0.01281264 -0.056914963 0.028341165
000300 e9 8f 50 bd 8b 39 59 bc 8a f1 65 3c 52 03 1e bc
       -0.050918493 -0.013258348 0.014034638 -0.009644346
000310 9a 43 a2 bd cc 3d a8 3c 5c de 88 3d 31 83 cc 3d
       -0.0792305 0.02053728 0.06683037 0.0998596
000320 f6 8c 13 3d df f8 d7 3c 5e eb 34 3d 2b 28 51 bd
       0.036023103 0.026363788 0.044169776 -0.051063698
000330 8c a4 b4 3d a7 48 fb 3d 7e 2c 82 bd d6 64 4d 3d
       0.08820447 0.12269717 -0.063561425 0.050144993
000340 f5 0e 1f bd 8a 7b 58 3b 0a 56 dc bd 4b 2c 8e bc
       -0.038832624 0.003303262 -0.10758598 -0.017355105
000350 d8 b8 24 3d fc 17 01 bd 1e 5e 23 bd 87 95 80 3d
       0.040215343 -0.031517014 -0.03988468 0.0627852
000360 8f 12 9f 3d 9f 1d 39 3d 9f dc 04 3d 6c 7c 21 bd
       0.07767212 0.045194265 0.032436963 -0.0394253
000370 70 37 c2 bd 07 0e 8b 3d 93 58 53 3d a7 36 ab bd
       -0.0948323 0.06789785 0.051598143 -0.083600335
000380 95 5e 9b bc 82 8b 84 3c 1f 01 94 3d b3 79 0d 3d
       -0.018965999 0.016179804 0.07226776 0.03453989
000390 81 63 d1 bd 07 a1 6b ba e0 1f 19 bc c2 12 d3 3c
       -0.10224057 -0.00089885335 -0.0093459785 0.02576578
0003a0 d2 d4 3b 3d 03 03 a5 3d 54 07 29 bb 4b ec b8 bc
       0.04585726 0.08057215 -0.0025791721 -0.02257361
0003b0 43 79 74 bd bc aa ea 3d 72 ad 93 3d cd 8b d2 bb
       -0.059685957 0.11458346 0.072108164 -0.006425357
0003c0 f3 7f 49 bd 6c ff 3c 3c f4 21 57 3d 58 3c d4 bc
       -0.049194288 0.011535507 0.052522615 -0.02590768
0003d0 f7 f2 a6 3d c1 66 31 3d 29 e4 c2 3d 70 6d 5c 3d
       0.081518106 0.043310884 0.09516174 0.053815305
0003e0 7f 90 71 3d 7b f4 48 bb cf 9e c0 3c a2 4d 5f bd
       0.058975693 -0.00306633 0.023513226 -0.054517396
0003f0 39 31 d6 3c 44 77 71 bd 20 d1 6a bd d8 d2 17 3d
       0.026146518 -0.05895163 -0.057328343 0.03706631

attention_layer.gate.bias f4 [128]
000000 f2 43 11 3d 54 76 9e bd 8a e6 c0 bd 39 14 8b 3d
       0.03546519 -0.07737413 -0.09418972 0.067909665
000010 e2 4e 67 3b e7 6b 58 3c 0d 88 c0 3c 18 7b 4a bd
       0.003529482 0.01320932 0.023502374 -0.049433798
000020 46 dd b7 3d f5 c4 68 bd ca 26 0c 3d 7a 9d 20 3d
       0.089777514 -0.056828458 0.03421668 0.03921268
000030 2c 44 e8 bc 73 6b 7b bd 57 ab 1a bd eb 8a 84 3d
       -0.02835282 -0.06138177 -0.03776106 0.06471809
000040 71 8c d3 bd cb b3 34 3d da 30 5d 3d 8c 29 8d 3d
       -0.103295214 0.044116776 0.054001667 0.0689269
000050 fc 98 c2 bd 6e d7 ab bd 1b 33 c3 bd ae d2 4f 3d
       -0.09501836 -0.08390699 -0.09531232 0.05073803
000060 f0 4e 04 bd 6c 22 cd bd 31 21 af 3d f0 cc 86 ba
       -0.032301843 -0.10016331 0.08551253 -0.0010284465
000070 46 7b 56 3d 92 4e 3c bd 22 31 f2 bd 23 d4 53 3d
       0.052363656 -0.045973368 -0.118257776 0.05171598
000080 db 7d 96 bd 57 ee 54 3d 8d a7 f7 bb b6 5f 8d 3d
       -0.07348224 0.05198511 -0.0075578154 0.06903021
000090 57 81 ab bd 1b a5 e8 bc 11 e3 7e bb 84 37 a0 bd
       -0.08374279 -0.02839904 -0.0038892666 -0.07823089
0000a0 71 7b 08 3d 57 f0 9a 3c 1e c1 ac 3c e0 f5 80 3d
       0.033320848 0.018913431 0.02108818 0.06296897
0000b0 62 bf 70 bc e5 87 a2 3d 22 7f 47 3d 78 dc 9e 3d
       -0.014694067 0.07936076 0.048705228 0.07756895
0000c0 a2 eb 6e bd e1 53 8e 3c 5c e4 c4 bd 91 f9 5c 3d
       -0.058330186 0.017373981 -0.096138686 0.053948943
0000d0 0b a1 88 bd 07 84 a0 3c c0 3f 87 bb dc 46 c9 bc
       -0.066713415 0.019594206 -0.0041274726 -0.024569921
0000e0 59 e7 56 3d 70 83 a9 bd 51 55 e3 bd d9 d4 d5 3c
       0.052466724 -0.08277023 -0.11100257 0.02610247
0000f0 11 1b 8a bc 42 56 6d 3c 02 70 fa 3b 84 21 a7 3d
       -0.01685861 0.0144858975 0.007642747 0.081606895
000100 0b 41 37 3c 7a a1 ad 3d 88 87 19 3d b5 e3 b4 3c
       0.011184941 0.08478065 0.03748277 0.022081235
000110 1b 6a b0 3d 3d d7 12 3b c7 d4 e5 3b 24 40 95 3c
       0.08613988 0.0022406124 0.0070138904 0.018219061
000120 f0 11 b4 bd 1a 85 11 bc 8e 73 26 bd 7f 55 6c bd
       -0.08792484 -0.008881832 -0.040637545 -0.057698723
000130 4f 22 3d bd 69 f3 8f bd 89 a3 74 3d bd a0 c7 3d
       -0.046175297 -0.07028849 0.05972627 0.09747455
000140 19 9c 81 bd 65 64 96 3b 7a 7c 8e bd 9b 67 8a bd
       -0.063286014 0.0045896047 -0.06957336 -0.067580424
000150 b4 ca 52 bd 3d e2 a2 3c 26 d0 55 3d cf 27 72 3d
       -0.051462844 0.01988327 0.05220046 0.059119996
000160 23 96 c3 3c b4 9c 12 3d 01 6f 62 bd a4 b8 85 3d
       0.023875302 0.035793975 -0.055281643 0.06529358
000170 43 eb 4b bd b4 1a f1 3c 07 d0 68 3d 48 62 f6 3c
       -0.04978491 0.029431678 0.056839015 0.030076161
000180 a7 15 f9 3a 53 88 84 3d 67 85 e1 bc c5 80 fe 3c
       0.0019003645 0.06471314 -0.027529432 0.031067261
000190 28 37 06 bc a0 36 8f bd 3c 26 8d 3c 7a b2 8c ba
       -0.008191861 -0.06992841 0.017230146 -0.0010734343
0001a0 9f 2c 80 3d 5d 40 69 bd 61 a9 52 bd e6 a1 8d 3d
       0.06258511 -0.056946147 -0.051431064 0.06915645
0001b0 44 63 a8 bd 57 20 97 3d f2 4b bc bd 09 ce d5 bd
       -0.082220584 0.07379215 -0.09194173 -0.10439689
0001c0 ba 3b 4a bd 3b 69 9d 3d 99 bc ab bd 6e 22 19 3d
       -0.049373366 0.07686087 -0.083855815 0.03738635
0001d0 c7 eb 17 bd 9d 37 a8 bd 7f 8c 87 3d 67 e5 84 3d
       -0.03709009 -0.082137324 0.066185944 0.064890675
0001e0 5b 44 9d 3c b6 01 fd bb 6b a2 51 3d 97 e1 f9 3c
       0.019197633 -0.007721151 0.051180284 0.030503077
0001f0 d4 2d 57 3c cb e1 3d 3d cf bd 3b bc ed 3e 93 bd
       0.013133485 0.04635791 -0.011458828 -0.071897365

attention_layer.w.weight f4 [1, 128]
000000 b9 0d 08 3d 0e 71 b0 bd d4 6b 5d ba d9 d7 bf bd
       0.033216212 -0.086153135 -0.00084465486 -0.093673415
000010 1f 0a 59 3d ec 0b 98 bd b0 b2 cd 3b 62 9e ad 3b
       0.052988168 -0.07424149 0.0062774047 0.0052984217
000020 60 12 a9 3d 37 bb c1 bd bb 63 96 bc dd ae 0a bd
       0.08255458 -0.094595365 -0.018358102 -0.03385817
000030 f5 8f 31 3d ea 50 c3 bd 9f b9 0e bd 1a 4d 08 bd
       0.04335018 -0.095369175 -0.03484499 -0.033276655
000040 08 31 6c bd 25 e9 52 3d cd 60 92 bd 9f 41 52 3d
       -0.057663947 0.051491875 -0.071473695 0.051332112
000050 62 d6 80 bd 3e a4 b8 bc 33 28 c0 bc 93 da 5e bd
       -0.0629089 -0.022539254 -0.023456668 -0.054407667
000060 ee 31 10 bd 61 6b 2f 3d 31 1a 57 bd 91 d6 f9 3c
       -0.035203867 0.042827014 -0.052515212 0.030497821
000070 a2 7e 02 bd 8e 56 b7 bd eb 49 80 39 80 b1 ce 3c
       -0.031859048 -0.08952056 0.00024469136 0.025231123
000080 81 a4 86 bd 18 29 19 bd 7a d9 97 3d 5e 02 9f bc
       -0.065743454 -0.037392706 0.07414527 -0.019410308
000090 d9 2e 2c 39 7b 32 c3 3d 94 df 54 3d 49 57 2c bd
       0.0001642065 0.09531113 0.051971033 -0.04207543
0000a0 67 3e d9 ba 0c be ae bd 40 92 b5 3d e7 52 72 3c
       -0.0016574383 -0.08532342 0.088657856 0.014790273
0000b0 97 67 54 3d ea 47 4d bd b9 ae 10 3c f3 99 7f bd
       0.051856603 -0.05011741 0.00883072 -0.062402677
0000c0 04 ea ba bd a1 96 8e bd c5 d5 a5 bc 79 17 9c bc
       -0.09126666 -0.06962324 -0.020243535 -0.019054161
0000d0 c5 88 69 3d 27 f3 1c 3d ec cc 00 bc 08 b8 6d bd
       0.0570152 0.038317826 -0.007861357 -0.058036834
0000e0 c8 56 77 3d 5b 2f b7 bc 18 3d 3e b8 ea d5 f3 3c
       0.060385495 -0.022361448 -4.5356428e-05 0.029765088
0000f0 80 ba 93 bd 52 ae 2e bd 51 01 15 3d 47 74 72 bd
       -0.072133064 -0.042646714 0.03637821 -0.059192922
000100 76 83 41 3d 54 9f 9e bd 28 27 c1 ba c5 2b ba bc
       0.04724451 -0.07745233 -0.0014736401 -0.022725949
000110 3f 5f 52 3d 25 75 ce 3c 35 7f a8 3d 3d 06 7c bc
       0.051360365 0.025202343 0.08227388 -0.015382347
000120 47 b2 46 3d de 7c 45 3c f8 ed 6c 3d d9 e1 ef bc
       0.048509862 0.012053696 0.057844132 -0.029282497
000130 72 57 af bd 1e 82 2c bd 3f 42 63 bd d8 81 8c 3d
       -0.08561601 -0.042116277 -0.0554831 0.06860703
000140 c8 fa 7f bd 41 d7 8f bd f2 31 af 3d f9 d6 60 3d
       -0.062495023 -0.07023478 0.08554448 0.054892514
000150 c9 82 44 3d 40 de be 3d fc f0 2f 3d d8 2f 33 bd
       0.04797629 0.093197346 0.04295443 -0.0437468
000160 f1 f7 5c 3d 24 35 6e bd 5a bf 6a 3d 3f ad 9b bd
       0.053947393 -0.058156148 0.057311393 -0.076014034
000170 b5 d3 20 3d 88 38 15 3d 1a 8e a9 bd 3a 7a 2b bc
       0.0392644 0.036430866 -0.08279057 -0.010466153
000180 77 9d 86 bd ea f6 b7 3d 8b 6f 99 3d f3 ff fb 3b
       -0.06573003 0.08982642 0.07491978 0.0076904236
000190 20 da 06 bd 92 64 ba 3d 69 b5 c0 bc 9e 68 02 3d
       -0.032922864 0.091012135 -0.023524003 0.031838052
0001a0 28 38 03 3d ea ea 97 3c a8 e9 9d 3d 0b 01 49 bd
       0.032035977 0.018544633 0.07710582 -0.04907326
0001b0 07 a5 11 bd 73 51 7d bd 31 2f 24 3d 2b df ea 3c
       -0.035557773 -0.061845254 0.040084068 0.028670868
0001c0 68 78 8c 3d c2 71 19 bd a9 70 c2 3d fe 30 9d bd
       0.06858903 -0.037462004 0.094941445 -0.0767536
0001d0 32 fe b3 bd 70 34 cd 3d a1 87 63 bd 63 f6 73 3d
       -0.08788718 0.10019767 -0.055549268 0.059561145
0001e0 6e 42 b1 39 06 7b 39 bd 5f 66 4d 3d cc a3 89 bd
       0.00033809565 -0.04528334 0.050146457 -0.06720695
0001f0 9b 8b cb 3d 95 a3 8e bd 32 94 8e 3d 21 aa 77 b8
       0.09938737 -0.069647945 0.0696186 -5.9047834e-05
