dataset/models/CAF_FMG20_wound.myCAF/model.pth (torch, 696702 bytes, 14 tensors)

tiles_emb.hidden_layers.0.weight f4 [128, 768]
000000 a0 be d1 ba 41 0b 8d bc a9 df d4 3a 1d cd 93 3c
       -0.0016002245 -0.01721728 0.0016240972 0.018042142
000010 e7 64 d1 3c 97 5f de ba f8 bd 02 bd 5d bf 95 3c
       0.02556081 -0.0016965744 -0.03191945 0.018279726
000020 a9 24 15 bb c7 25 5d 3d 61 d0 bf bc a0 57 08 3d
       -0.0022757447 0.053991105 -0.023414792 0.03328669
000030 13 62 43 3c 89 8e a8 3c f2 3b d1 bc e6 79 97 bc
       0.011925238 0.020575779 -0.02554128 -0.018490743
000040 27 d1 12 bc bf af e0 bb f2 17 d4 3a 05 79 13 bb
       -0.008960999 -0.006856888 0.0016181453 -0.0022502553
000050 51 b6 b1 bc 93 05 d2 3b 3c 55 a8 bc 19 53 8a 3c
       -0.02169338 0.006409356 -0.020548455 0.016885327
000060 29 18 03 3d 06 c0 55 3c d7 4a b9 3c e7 89 1d bd
       0.032005463 0.01304627 0.022618694 -0.038461592
000070 b7 bd e7 3c dd f6 fe 3b 35 f9 45 bd 58 fa b6 3c
       0.028288705 0.0077808932 -0.048333365 0.02233617
000080 df 42 c0 3c af 03 2d 3c 11 8d 3f ba d3 4e aa bb
       0.023469387 0.01055996 -0.00073070923 -0.005197385
000090 f3 8a b9 3c 37 d1 b2 bc 37 e6 36 bd 81 15 12 3c
       0.022649264 -0.021828277 -0.044653144 0.00891626
0000a0 87 67 1d 3b b7 c4 f8 bc fc 44 7c 3b 8a 07 23 3b
       0.0024018006 -0.030367238 0.0038493266 0.002487632
0000b0 c8 d4 60 3c 3e df 19 bd 15 0d 24 3d 90 3c a8 bc
       0.013722606 -0.037566416 0.04005154 -0.020536691
0000c0 22 60 45 bc 8f 38 4b 3b 9f 0d 39 bb 3f b2 80 3c
       -0.012046846 0.0031009053 -0.0028236879 0.015709994
0000d0 59 44 56 3c 8c a1 1e 3a 46 54 71 bc 45 dd 2b bb
       0.013077819 0.0006051294 -0.014729565 -0.0026224416
0000e0 c9 f4 4d 3c 0e 54 8f bc e6 a9 98 3c 79 27 c3 bc
       0.012570568 -0.017496135 0.018635701 -0.023822533
0000f0 bc 3b 51 bc c0 ec 1e 3c 3a a6 8f 3d bc dc 59 bb
       -0.012770589 0.0097 0.07014127 -0.003324314
000100 b3 cb 08 3c 4b 93 93 bb 8c 7c 55 bd b7 48 df bc
       0.008349347 -0.0045036427 -0.05212073 -0.027256353
000110 3f c2 af 3c ea 50 39 3c 45 44 3e bd de 3a 32 bd
       0.021454928 0.011310795 -0.046451826 -0.04351317
000120 35 95 9d 3c 28 ac 29 bd c9 2b a0 3c 9d 39 1b 3c
       0.019236187 -0.041423947 0.019552128 0.009474185
000130 d9 e9 56 3c b3 d2 05 bc 55 47 cc 3c bd d6 e2 3c
       0.013117277 -0.00816791 0.024936358 0.027690286
000140 45 9e c7 bc 74 ac b7 bc 75 79 60 b9 c7 df 95 3d
       -0.024367461 -0.0224211 -0.00021407551 0.07318073
000150 4a 84 c3 ba 18 d9 3a 3d 13 52 fa bb bf 12 07 3d
       -0.0014916745 0.045617193 -0.0076391785 0.032976862
000160 bd 3d cb bc 62 ac 93 3c 45 7b 51 3c 53 23 44 bc
       -0.024809713 0.018026534 0.012785737 -0.011971313
000170 3d c2 97 3b bd e5 a6 bc 5a b9 bd bc 64 b3 da bb
       0.0046313093 -0.02037322 -0.023159672 -0.006674217
000180 03 cb 8b 3b cc a1 e0 3c 62 a3 0e 3d 46 61 93 bb
       0.0042661442 0.0274209 0.034823783 -0.00449768
000190 9d e8 02 3c 02 62 48 3c 82 d1 88 3b 38 b5 81 3c
       0.00799003 0.012230398 0.004175366 0.015833482
0001a0 03 43 1d bd dd ec 7a bb 11 87 02 3c 67 cf e2 bc
       -0.038393985 -0.0038288154 0.007966773 -0.027686788
0001b0 0a 1b 7d 3c 5f 4b fb bc 87 e6 96 bc fb da 1d bc
       0.015448341 -0.030675588 -0.01842047 -0.009634729
0001c0 d4 e6 b6 bc 9c 11 35 bc d0 56 5b bc b2 dd 25 3d
       -0.022326864 -0.011051562 -0.013387397 0.04049463
0001d0 8c 72 9c 3c 3d 23 76 3b 7a 1c bc bb d9 e4 69 bd
       0.019097589 0.0037557625 -0.0057406994 -0.05710301
0001e0 dd 07 a4 3b a3 49 04 bc 12 5f 0d bc 34 e9 17 3a
       0.00500582 -0.008074197 -0.008628624 0.0005794943
0001f0 c9 57 52 bc a1 8f 0a 39 e8 fd 51 3b 31 44 71 bc
       -0.012838312 0.00013214212 0.003204221 -0.014725731
000200 60 1a f0 3b fc 5e 2e 3d cb e1 cc bc d9 d3 11 bc
       0.007327363 0.042571053 -0.02501001 -0.008900606
000210 64 fa b6 bc 3e f9 0c bd 3c 0c b4 bb 21 6e d9 3a
       -0.022336192 -0.034417383 -0.0054946225 0.0016588607
000220 a0 2b ab 3c a7 b3 26 ba a6 7b 0b 3d ad 89 d1 3c
       0.020894825 -0.0006359168 0.034053467 0.025578344
000230 89 de 3b bb e0 b8 8d bb c6 8a f4 bc 53 b5 a7 bc
       -0.0028666577 -0.0043250173 -0.029851329 -0.020472204
000240 71 59 52 3a 4d 23 0d 3b 23 b8 ac 3c 5b 64 56 bd
       0.0008024192 0.0021535933 0.021083897 -0.0523418
000250 da 48 bc 3c e4 2b 07 bb 6d 05 aa bc 2a 31 4e 3d
       0.022983957 -0.0020625526 -0.02075454 0.050339855
000260 fd f7 b8 3a 3f cb 12 bd 3d bb b3 bc 5f f5 47 ba
       0.0014111992 -0.03583836 -0.021939868 -0.00076278107
000270 9d 53 d8 3a b7 4e 7d bc 83 95 d4 bc a3 af 0b 3d
       0.0016504411 -0.015460662 -0.025950199 0.034103047
000280 df e6 cc 3c f6 0b a8 bc 1c a1 b1 3c 77 1f 81 bc
       0.025012432 -0.020513516 0.021683268 -0.015762074
000290 82 18 47 bd 2d 53 86 3b a2 6e 01 bc a4 d0 94 bc
       -0.048607357 0.004099271 -0.007899912 -0.018165894
0002a0 34 47 29 3c 1c cf e0 bc 8a 8d ef bc 99 62 ce bc
       0.010331918 -0.027442507 -0.029242296 -0.0251935
0002b0 71 89 42 bb 97 69 da bb a8 2d 82 3b 58 b0 b3 3a
       -0.0029683972 -0.0066654193 0.003972728 0.0013709171
0002c0 04 c1 30 3c c1 88 a1 bc c4 20 12 bc fc 12 0d 3c
       0.010788206 -0.01971853 -0.008918945 0.008610483
0002d0 d3 74 02 bb f7 27 82 bc 07 4d 44 bd 07 14 61 bd
       -0.0019906058 -0.015888197 -0.04792502 -0.05495074
0002e0 91 c9 33 3c c4 ae 2e bd fc b8 63 3c ee e1 7b bb
       0.01097335 -0.04264714 0.013899084 -0.0038434225
0002f0 c7 71 5f bc 66 fc 83 bb d4 eb 05 3d 1c cf f6 bb
       -0.0136379665 -0.004027891 0.032695606 -0.0075320136
000300 8a a5 03 bc 91 a1 03 3c af 0d a8 bc 95 c0 b9 bd
       -0.008035073 0.008034126 -0.020514337 -0.09069935
000310 4e 62 6d 3c f5 99 81 3c 9c 0f 4c 3d 04 a1 68 3c
       0.01448877 0.015820483 0.049819574 0.014198545
000320 5e 99 25 3d 91 af a6 bc f0 87 95 3c a1 5c a6 bb
       0.040429465 -0.020347388 0.018253297 -0.00507696
000330 19 39 1f bb bf ed a3 bc eb e6 c9 3c 72 1d 3e bb
       -0.0024295507 -0.020010827 0.024646243 -0.002900925
000340 66 60 41 bd a3 e5 41 bb 7d 4a d2 3c 3e fa 0f 3d
       -0.047211073 -0.0029586337 0.025670284 0.03515076
000350 0d c0 4c bd 9b c0 70 bb e4 3c f5 ba 99 ed 28 3d
       -0.04998784 -0.0036735896 -0.0018710163 0.041242216
000360 b0 d0 a7 3c a5 6d 92 bc b2 ff ce 3c 00 21 1c bc
       0.020485252 -0.017874548 0.02526841 -0.009529352
000370 59 ee 2e bc 8c 0e ee 3c fc 22 b0 3a a1 d4 ad 3c
       -0.010676944 0.02905967 0.001343816 0.021219553
000380 a7 03 30 3d e5 04 0b bd e1 a6 58 bb 92 c8 63 bb
       0.042972233 -0.033940215 -0.0033058452 -0.0034757
000390 2e ba a1 3c eb 3e f9 bb 2d 82 e2 bc 39 64 18 3d
       0.019742098 -0.0076063774 -0.027649963 0.037204955
0003a0 5b a3 94 3a 72 ad 3a 3d d6 73 46 3b ad 98 d9 3c
       0.0011340188 0.045575567 0.0030281446 0.02656206
0003b0 ab 34 07 bd 75 f7 24 3c 89 13 b5 bb 0c 14 8e 3a
       -0.033009212 0.010068764 -0.0055260104 0.0010839715
0003c0 e6 50 f7 bb ab 93 62 bb 49 40 e3 bb e5 7b 30 3c
       -0.0075474856 -0.003457288 -0.0069351536 0.010771726
0003d0 a2 1f a4 bb 0c 6b 3b bd 34 45 06 3b d4 6b b7 3b
       -0.0050086537 -0.045756385 0.0020488026 0.005597571
0003e0 19 cc e5 bb e0 d0 9a 3c ab 36 dd 3c 4e 24 35 3c
       -0.0070128557 0.018898427 0.027003607 0.011056019
0003f0 bf 99 b1 bc bf 1b bd 3b cc ca 9a bc 08 56 27 3c
       -0.021679757 0.00577113 -0.01889553 0.010213383

tiles_emb.hidden_layers.0.bias f4 [128]
000000 1b d2 bc 3b 01 76 eb 3c 8d 8d ae b6 bc ac b6 3c
       0.005762351 0.028742792 -5.202083e-06 0.022299163
000010 52 e7 be ba e5 71 28 3c ef 3f 02 3c 30 04 55 3c
       -0.0014564788 0.010281061 0.007949813 0.013001487
000020 21 70 30 3a 7e 33 0c b5 0c f0 01 b9 d5 f6 6f bb
       0.00067305757 -5.2228995e-07 -0.00012391823 -0.003661563
000030 99 0c 98 ba 9d a9 84 3c 84 d0 e1 3c 1a 04 ad bc
       -0.0011600434 0.01619416 0.027565248 -0.02112012
000040 8b 4d 72 bb 91 d3 7c 3c 82 5c fa b9 0e 62 03 b6
       -0.0036972489 0.015431301 -0.0004775264 -1.9577597e-06
000050 7d dc d9 b8 92 86 61 ba de 13 43 bc 0f bf 42 38
       -0.000103884355 -0.00086031214 -0.011906592 4.643114e-05
000060 17 11 05 3d d8 28 f9 bc 5c 63 18 ba 49 19 af bc
       0.032487 -0.030414984 -0.00058131455 -0.021374362
000070 23 f7 2e bc 9b d2 b8 3c c0 74 18 3c d2 ae b7 3c
       -0.010679039 0.022561362 0.009305179 0.022422228
000080 05 81 43 bc df d8 9e b8 b3 6f e7 3c 8b dc b9 bc
       -0.011932616 -7.5744225e-05 0.028251505 -0.02268817
000090 0a fe 18 39 bf fc 7c 3c 18 90 53 3c 4a de 02 3d
       0.00014590487 0.015441119 0.012912773 0.031950273
0000a0 1f 78 4a b7 3c 4b d7 bc 34 24 99 3c 4f 92 36 bc
       -1.2068106e-05 -0.026280992 0.01869402 -0.011143281
0000b0 b5 3f 6b 3c 52 b5 cc b7 59 f7 94 3b 3b 0b 99 3c
       0.014358451 -2.4403129e-05 0.0045460877 0.018682113
0000c0 8d 62 a4 bc 62 62 00 bd 93 f0 3c b5 99 56 20 3c
       -0.020066524 -0.031343825 -7.038554e-07 0.0097862715
0000d0 0d 75 33 bc 7f 7d ec bb 04 a3 ff bc 34 ba 80 3c
       -0.0109532 -0.0072171087 -0.031205662 0.015713789
0000e0 61 ea 92 3c 7e 0a ee 39 b5 36 73 b2 a3 8c 88 bc
       0.017934026 0.00045402715 -1.41569005e-08 -0.016668623
0000f0 eb 52 bb bc 24 05 45 b9 a0 95 0a 3d 4f 3f 4b bc
       -0.022866687 -0.00018789299 0.0338341 -0.012405231
000100 bc 96 e4 b9 2f b4 f3 ba 67 ce e8 b9 6d 80 58 bc
       -0.00043599855 -0.0018593128 -0.0004440427 -0.013214213
000110 ee eb 2f ba ad 84 e3 3c d0 f0 ef 3b 01 09 29 ba
       -0.00067108765 0.027773226 0.0073224083 -0.000644818
000120 18 67 82 ba b3 79 35 bc 07 9e ce 3c 33 1f 45 bc
       -0.0009948937 -0.011076379 0.025221838 -0.012031364
000130 56 1a c2 ba c9 83 0c 3b 0b 90 c6 3c 0a 4e 99 b7
       -0.0014808874 0.0021440855 0.024238607 -1.8275361e-05
000140 f5 62 4a 3b 46 d0 08 3a 92 ba 02 3c ce c5 19 bc
       0.0030881737 0.00052190234 0.007979052 -0.009385539
000150 e6 35 9d bb a4 53 74 b6 b1 71 0c bc 96 42 02 bc
       -0.004797685 -3.6407519e-06 -0.008572028 -0.007950446
000160 69 36 4d 3c 2d 2f 28 b8 a2 bc 01 ba b1 c3 23 ba
       0.012525179 -4.0098257e-05 -0.0004949068 -0.0006247117
000170 9f 0c 12 b6 7b 73 26 bb 27 cc 0a 3d a3 db 28 3c
       -2.1763042e-06 -0.0025398422 0.0338861 0.010306272
000180 fc a7 41 bc 91 b0 08 3c 0b 44 2b bc 19 f8 9e ba
       -0.011819836 0.008342878 -0.010453234 -0.0012128382
000190 8d ae ff b9 d2 9b e4 39 22 c1 4c 3b b1 a5 e8 3c
       -0.0004876744 0.00043603644 0.0031243046 0.02839932
0001a0 d5 6c bf ba 5e 0b 0a 3d 36 59 f2 ba 00 b6 cb 3c
       -0.0014604578 0.033702247 -0.0018489722 0.024867058
0001b0 d6 0f 0f 3d 40 56 dd b6 6b 07 90 bb fd 40 d0 3b
       0.03492721 -6.596354e-06 -0.0043954155 0.0063554035
0001c0 a3 32 f1 bc 83 67 c3 bc b5 e4 e5 ba 7d f0 ce bc
       -0.02944309 -0.02385307 -0.0017539473 -0.025261158
0001d0 b2 ac 10 bb 60 1a 3a ba 6b 4b 9d 3a 06 99 97 bc
       -0.002207559 -0.0007099267 0.0012000626 -0.018505584
0001e0 70 2c 20 bc 82 b2 86 3b 17 8f ce bb a3 2f 32 bc
       -0.00977622 0.0041106353 -0.0063036787 -0.010875615
0001f0 23 b9 a0 bb c4 9f a7 ba f5 58 07 b9 6d 80 14 ba
       -0.0049048825 -0.0012788703 -0.00012907742 -0.0005664889

tiles_emb.hidden_layers.2.weight f4 [128, 128]
000000 dd 2e 3c bd 56 58 f5 3a fe c3 61 ae 9a 21 04 3d
       -0.04594313 0.0018718343 -5.1333153e-11 0.032258607
000010 7f c0 40 b0 ff c7 06 bb 29 a2 0b bd 40 12 27 bd
       -7.0122746e-10 -0.0020565984 -0.034090195 -0.04078889
000020 ae 68 0a bd 6d 68 df af cc 04 cd 3c c9 39 30 bd
       -0.033791237 -4.0637663e-10 0.025026701 -0.04302386
000030 72 ad 2b 2e 19 8c e2 3c c2 92 db bc 99 83 15 bd
       3.903495e-11 0.027654694 -0.026803378 -0.036502454
000040 48 e7 c6 bb 13 f2 fb ba c0 c7 83 2f 6f 6a 0a 2e
       -0.0060700513 -0.0019221924 2.3970692e-10 3.14721e-11
000050 fc 77 b9 31 c4 56 92 b2 2a c1 5a bb 80 49 c6 b5
       5.3978493e-09 -1.7036093e-08 -0.0033379295 -1.4773541e-06
000060 4b 00 2f 3b fc d6 80 3b 33 28 3f ad 44 65 35 3c
       0.0026703055 0.003931878 -1.0866019e-11 0.011071507
000070 f6 47 0c 3c c6 d9 e7 3c 34 bc de bc 96 d0 e6 bc
       0.008562079 0.028302085 -0.027189352 -0.028175633
000080 79 73 08 3a bf 99 bb 3a ef 25 18 bc d3 b9 45 3b
       0.0005205195 0.0014312788 -0.009286388 0.0030170574
000090 29 7b 09 b3 01 f3 c8 bc fa 5f 4b bd bd 75 88 3c
       -3.200981e-08 -0.024529936 -0.049652077 0.016657704
0000a0 7a 63 6c 35 2c 84 25 bd 47 ce 54 bd f9 8b c3 30
       8.806161e-07 -0.040409252 -0.051954534 1.42279e-09
0000b0 e0 b8 8a bc 95 28 ae 2d bd 87 53 3a 8a 80 0b 3d
       -0.016933858 1.9799532e-11 0.0008069238 0.03405813
0000c0 7c 14 0a bb d9 7c 35 3c 6c d7 90 31 ee e1 7e bd
       -0.0021069339 0.011077129 4.215442e-09 -0.062227182
0000d0 5c f6 bd bb 7a 08 2d 3b c0 12 aa b7 8e 0e e4 bc
       -0.0057971906 0.0026402758 -2.027431e-05 -0.027838971
0000e0 65 aa 69 bc d1 8d c1 3b 76 64 16 b1 54 fc 1c 3d
       -0.014261817 0.0059067984 -2.1884978e-09 0.038326576
0000f0 1b fa b5 bc 0c 0f 5b 31 dd 92 81 3b dd 46 84 b9
       -0.022213986 3.1877248e-09 0.003954275 -0.000252298
000100 c2 1a f5 b4 b0 63 d5 b9 16 4d 98 af 6f 72 49 3d
       -4.5654275e-07 -0.000407008 -2.7703412e-10 0.049181398
000110 9d 2a 9e 38 d1 37 3e bc ba 07 ce bc e6 d7 b9 b2
       7.5419644e-05 -0.011609987 -0.025150169 -2.1635014e-08
000120 3e 92 20 bd ee 19 d6 3c 3a c3 ee 3c 0f f0 05 3d
       -0.039201967 0.026135411 0.029145826 0.03269964
000130 a1 b3 11 b1 e5 e7 ce 32 f9 74 17 bd 49 8b 9b b1
       -2.1202384e-09 2.408701e-08 -0.03697679 -4.5269286e-09
000140 e0 30 99 3a ba 0b 78 b5 76 6d 3b bd 1b 2b 22 3d
       0.001168754 -9.2404264e-07 -0.045758687 0.03959189
000150 22 d7 e9 ba 66 65 95 b3 04 3c 23 3d 9f dd 8d 3d
       -0.0017840604 -6.9567974e-08 0.039852157 0.069270365
000160 27 95 c0 bb 7f 7f 88 2f 4e 92 1b b3 55 e2 e5 b2
       -0.0058771553 2.4828847e-10 -3.6221813e-08 -2.6762033e-08
000170 a0 03 b6 ae 5d f7 ba 39 e4 cb 8b bc ba 75 2a bd
       -8.277046e-11 0.00035660985 -0.017064996 -0.04161618
000180 12 2d ea bb 58 af d4 3b 7e 46 27 3d 22 06 c6 2b
       -0.007146486 0.006490629 0.04083871 1.4070448e-12
000190 d3 60 99 b5 80 2d fa b6 bb bc 44 bc a6 b4 9c 3c
       -1.1427568e-06 -7.4558775e-06 -0.0120078875 0.019129109
0001a0 bc 65 99 af cd 08 91 3c 37 e7 c6 3c 7c b1 6f 3d
       -2.7902824e-10 0.017704392 0.024280174 0.05851887
0001b0 8d b7 3f 3d fb 93 e1 b3 30 39 bd b8 12 ba 05 3b
       0.046805907 -1.05042965e-07 -9.022874e-05 0.0020405096
0001c0 e6 b7 84 bc 13 82 82 bd 30 ba 3b b0 e9 cf ef bc
       -0.01620097 -0.06372466 -6.829479e-10 -0.029273944
0001d0 56 5b c6 31 bf 77 f7 37 e1 7d 74 3c e8 ae eb 3c
       5.772942e-09 2.9500456e-05 0.01492259 0.028769925
0001e0 74 1e 3e 3c 8d cd 52 bc 39 91 55 3a ab a9 f7 3c
       0.01160394 -0.01286639 0.0008146945 0.030232271
0001f0 28 d3 33 32 c8 a2 de b1 66 55 ed 2e 84 48 19 35
       1.0467183e-08 -6.4795564e-09 1.0792682e-10 5.7102466e-07
000200 df d1 29 3c f3 b3 c1 3c be bf 3d 2f a2 d6 07 bc
       0.010364979 0.023645377 1.725757e-10 -0.008290919
000210 06 95 c3 38 ad b8 68 bd 66 0f 6b bd 3a 3f 86 bd
       9.326082e-05 -0.056816746 -0.057387732 -0.06555028
000220 13 8b a5 bd f2 7a 49 30 27 3e 6d 3d 39 65 26 bc
       -0.08083167 7.329809e-10 0.0579206 -0.010155969
000230 3f 99 10 2d 2d f3 a6 bd a6 44 90 bb f0 43 6e bd
       8.21948e-12 -0.08151851 -0.004402715 -0.05817026
000240 fd 5f 90 bb 48 b6 8a bc 29 d7 8c b3 48 91 22 30
       -0.004405974 -0.016932622 -6.5583954e-08 5.9141714e-10
000250 f2 f6 42 b2 fd e2 e3 39 e0 f1 4c bd c5 b7 04 36
       -1.1348435e-08 0.00043465933 -0.050035357 1.97765e-06
000260 db 8e a4 3c fd a4 49 bb 85 0b 48 2d 85 4b 96 3c
       0.02008765 -0.0030768507 1.1371242e-11 0.018346557
000270 4a a2 3c 3c d4 c6 16 bd b7 11 54 bc ff cb 59 bd
       0.011513302 -0.03681071 -0.012943677 -0.05317306
000280 6e e8 bb ba a5 55 be bd de 50 e8 bc 51 a6 b5 bd
       -0.0014336237 -0.09293679 -0.028358873 -0.08869613
000290 c1 1a 41 35 1f e7 72 3d 47 54 29 3d 82 a0 4b bd
       7.1937035e-07 0.059302446 0.04134014 -0.04971362
0002a0 fd f3 31 36 75 73 65 bd 47 35 7e bd 7d 6c 6f 3a
       2.6517075e-06 -0.05601831 -0.062062528 0.00091332925
0002b0 e9 aa d5 bc 84 9f 01 31 08 dd 15 ba 4d 06 de bb
       -0.026082473 1.8862645e-09 -0.0005716835 -0.0067756535
0002c0 9a 1b 60 bb 37 49 88 bc 79 1a c2 ae 92 33 98 bd
       -0.003419614 -0.016636474 -8.826801e-11 -0.07431711
0002d0 02 39 60 bb 84 49 2e 3c 4b 6a 33 3c a0 94 1e 3d
       -0.0034213667 0.010637645 0.010950635 0.03871596
0002e0 24 af 56 bd 31 d1 1a 3d 73 03 06 b2 78 3c 71 bd
       -0.05241312 0.037797157 -7.800611e-09 -0.058895558
0002f0 99 b2 13 bc 9e e9 12 b3 46 d6 05 bd fe d1 bf 3a
       -0.009014749 -3.4205748e-08 -0.03267505 0.0014634726
000300 53 4f 98 b3 59 71 d9 3a ac a4 62 37 ae f3 ac 3d
       -7.0924806e-08 0.0016589566 1.350899e-05 0.08444916
000310 e6 50 e8 30 ac c1 52 3d 92 6d ab 3d df 0e b1 b0
       1.6903214e-09 0.05145423 0.08370508 -1.2882672e-09
000320 91 c5 55 3d a0 ce 86 3c 5a 37 5b bd ce 13 10 3c
       0.052190367 0.016455948 -0.053519584 0.008793784
000330 c4 56 8a 2f 6d 9c 01 ba 68 6b 3c bd 47 b6 34 33
       2.5163704e-10 -0.0004944269 -0.046000868 4.2075296e-08
000340 4a a0 96 3d ae 93 18 37 16 14 f6 3c 4e 3f 76 bd
       0.073547915 9.09429e-06 0.030038875 -0.060118966
000350 5f ff a3 ba 52 94 09 b1 30 4a 5a 3d 2d 30 b3 3c
       -0.001251202 -2.0020434e-09 0.053293407 0.021873558
000360 5a 6a 0f bc 89 bc 42 30 f3 6c b7 b0 d3 81 98 b7
       -0.0087533835 7.0844713e-10 -1.3345968e-09 -1.8180266e-05
000370 93 6f da 30 79 8c ca 3c 85 86 81 bd 3b cf 51 bd
       1.5893299e-09 0.024725186 -0.06324486 -0.05122302
000380 15 04 99 bd e7 0f 96 3c 1c 6a 39 3d fd ff f5 2e
       -0.07471482 0.01831813 0.04526721 1.1186783e-10
000390 60 b0 eb ba fe ef 02 b7 f6 9b 8d bb b0 05 be 3c
       -0.0017981641 -7.804481e-06 -0.0043215705 0.023196071
0003a0 dc c8 43 ac f3 01 2f 3d 67 d5 b2 3c b8 27 05 bd
       -2.7822666e-12 0.04272647 0.021830274 -0.032508582
0003b0 51 86 95 3d ab 89 aa b4 f3 14 4d bb a3 c6 a2 3b
       0.073010094 -3.1765134e-07 -0.0031293004 0.004967527
0003c0 34 44 86 bd 71 99 61 3c df 21 cb 39 7e cd 37 bd
       -0.065559775 0.013769493 0.00038744413 -0.044873707
0003d0 be 6e c2 b8 8e 64 ba b9 73 d4 34 bb 49 8a 72 3d
       -9.271268e-05 -0.00035551604 -0.002759245 0.05921391
0003e0 4f bf 95 3c 3f 4d e7 bc 0b 76 5d 3b 8d 18 91 bb
       0.0182797 -0.028235076 0.0033792283 -0.0044279755
0003f0 d2 c7 a2 39 93 da 0f 36 f0 21 a5 ae 9d b6 88 39
       0.00031047926 2.1435887e-06 -7.50936e-11 0.00026076

tiles_emb.hidden_layers.2.bias f4 [128]
000000 24 a4 6b ba 4c 18 4a 3d 98 c9 03 bb fd c6 63 3d
       -0.00089889974 0.049339578 -0.0020109173 0.055609692
000010 66 51 92 3c a3 a8 38 3d cc 07 b9 3c 30 31 95 3d
       0.01786108 0.0450827 0.022586726 0.072847724
000020 10 f4 e2 3b ba 05 2f 3d 3e 04 0c bd b5 4b 82 bc
       0.006926067 0.04273007 -0.034183733 -0.01590524
000030 83 e3 24 3c 18 e8 0a 3d b3 1e 98 3c 3b 2d a9 bd
       0.010064009 0.033912748 0.018569326 -0.0826058
000040 43 7f 0e 3d 7c 5b 86 3d 03 24 86 3d f2 6c 4e 3d
       0.034789335 0.06560418 0.065498374 0.050396867
000050 c4 68 e0 3c 15 a5 dd 3c 3b b0 62 bb c7 05 45 bd
       0.027393706 0.027056256 -0.0034589905 -0.048101213
000060 30 fa 79 bc d0 e6 e6 bc 9f 8c 97 3d 59 c6 60 bc
       -0.015257403 -0.028186232 0.07399868 -0.013719165
000070 83 e8 dc bc f1 91 0b bd 66 ec db bc 46 af 05 bd
       -0.026966339 -0.034074727 -0.026846122 -0.032637857
000080 65 99 10 3d b4 78 18 3d 8b b6 a9 bc dd 31 43 bd
       0.03530254 0.037224486 -0.020716926 -0.047654975
000090 a5 a1 c9 3c 15 46 9c bc 6f 7d 7f 3d 4c 6f ed bc
       0.024613211 -0.019076386 0.062375482 -0.028983735
0000a0 4f c2 a8 3d c5 5d 32 bd 8d 38 78 bd 6c 61 7f bd
       0.082401864 -0.043546457 -0.060600806 -0.062348768
0000b0 0b 72 80 bd 9a 1d 80 3d 94 b8 a2 3b 58 e1 8a 3d
       -0.06271752 0.06255646 0.004965851 0.06781262
0000c0 2b af 1f bd 9f 2a 38 3c 6f f3 cb bb 9a 1e ab bd
       -0.038985413 0.01124063 -0.006224088 -0.08355446
0000d0 e6 64 4d bd e2 6c af 3c 5c 68 61 bb 5f f8 7a 3c
       -0.050145052 0.021414224 -0.0034394478 0.015318005
0000e0 d4 50 06 3d 1a 04 3a 3d b5 64 15 bd 76 87 71 bd
       0.032791927 0.045414068 -0.036472995 -0.058967076
0000f0 33 46 1f bb 60 e0 25 bd c7 b9 18 bc 63 86 33 bd
       -0.0024303317 -0.040497184 -0.0093216365 -0.043829333
000100 06 73 6c 3d ac a4 6d 3d a0 38 f5 bc 34 18 a3 bd
       0.057726882 0.05801837 -0.029934227 -0.07963601
000110 6b 9d e7 3c de d9 95 bd 34 67 98 3d 54 ea c1 bc
       0.028273305 -0.073169455 0.074415594 -0.023671307
000120 56 33 aa bd b5 92 2b 3d 46 be fc bc a9 ce 29 3d
       -0.08310573 0.041887958 -0.030852448 0.041456852
000130 12 01 fc 3b 0d 52 69 bb 7c 91 21 3d 44 e5 d8 3c
       0.0076905573 -0.0035601885 0.039445385 0.02647651
000140 8a ea 23 3d 59 80 08 bd 5a a9 3f bd 15 19 07 bd
       0.040018596 -0.033325527 -0.046792366 -0.032982904
000150 94 86 af 3d b9 6d a6 bc a4 08 f9 3c 33 ca 9b 3d
       0.085705906 -0.020315992 0.030399628 0.07606926
000160 13 92 1c bc 48 de 4f 3c f5 db 1a 3d b2 85 f9 3a
       -0.009556311 0.012687273 0.037807424 0.0019037037
000170 a7 bc f5 3b 42 5b 99 bc 01 ff 97 bc e3 d2 7e 3d
       0.0074992958 -0.018720273 -0.018554213 0.062212836
000180 8f ed 97 3c dd 43 80 bd 6c b0 23 bd f4 c7 fe bc
       0.018545894 -0.06262944 -0.03996317 -0.031101204
000190 0a 3d 12 3d 87 06 f2 bc b2 f2 1a 3d d5 e1 9a bd
       0.035702743 -0.029544128 0.03782911 -0.07562605
0001a0 f8 9e 6c bd 1b dd 18 bd 58 2a 92 bc d7 e0 54 3d
       -0.057768792 -0.037320238 -0.017842457 0.051972236
0001b0 e3 21 77 3d 58 e7 e3 bc 02 22 8a 3d 36 5a 85 3d
       0.06033505 -0.027820274 0.06744768 0.06511347
0001c0 38 56 e9 3c a2 18 24 bd 42 20 f2 3c 42 a9 79 3c
       0.028483495 -0.040062554 0.029556397 0.015238108
0001d0 a6 4c b0 bc cb 3d ad bb 60 ed d1 3b c8 06 8c 3a
       -0.021520924 -0.0052869073 0.006406471 0.0010683173
0001e0 37 18 94 bd 91 04 90 3d 77 83 88 bd 6a ca d9 bc
       -0.07231181 0.07032121 -0.066657 -0.026585776
0001f0 b8 58 2e 3c 87 4b 2a bc 36 62 92 3d 32 ea 4d 3c
       0.010641269 -0.010393984 0.071476385 0.012568044

attention_layer.att.weight f4 [128, 128]
000000 29 7d 6c 3b 5c 8b 00 3c 82 c7 36 3c 3e fc 47 3b
       0.0036085343 0.007845726 0.011155965 0.0030515338
000010 15 19 96 3a d5 4d 13 bc 91 6d f8 3b 51 9d e3 bb
       0.0011451567 -0.008990725 0.0075814207 -0.006946244
000020 e5 11 fd 3b b7 ca 2a bc cf 1c 89 3b 11 bc 04 bc
       0.0077230805 -0.010424308 0.0041843425 -0.008101479
000030 b4 4c d0 3b fa 48 2e 3c ae b7 08 3c ee 38 47 3c
       0.0063568 0.010637516 0.008344574 0.012159569
000040 73 26 f6 3b d4 8c e1 3b 5f f7 e0 bb ce fd f8 ba
       0.0075119077 0.006883243 -0.0068654264 -0.0018996538
000050 a8 93 ac bb df 5f f8 bb 15 54 9e 39 3f 66 bc bb
       -0.0052666254 -0.007579788 0.00030198754 -0.0057494934
000060 d0 ec d0 3b b8 c4 b0 3b 51 1f de bb c9 d7 b4 3b
       0.0063758865 0.0053945445 -0.0067786356 0.0055188877
000070 df 49 61 3b c7 2b 63 bb 97 6a 1d bc 99 d8 32 3b
       0.0034376306 -0.0034663545 -0.0096079325 0.0027289747
000080 2a 3b ce bb 22 2e 84 3b 0e 80 8c 3b 00 f0 af bb
       -0.006293674 0.00403382 0.0042877262 -0.0053691864
000090 42 27 66 bb f5 b3 85 3b 11 5c e7 3b ba 47 31 ba
       -0.0035118614 0.0040802904 0.0070605357 -0.0006762702
0000a0 c9 80 17 3c ea 7c 2a 3b 29 0d e9 bb b3 dd c0 ba
       0.009247013 0.0026014396 -0.0071121645 -0.0014714509
0000b0 0e bf b2 3b 5e 65 e5 3b 0a ab 60 3b e8 4a 56 bb
       0.0054549044 0.0070006093 0.0034281635 -0.0032698456
0000c0 6b 1b 8d 3b 09 51 cd bb d6 03 56 bc f1 6f 0f 3c
       0.004306247 -0.0062657637 -0.013062438 0.008754716
0000d0 51 aa d3 bb 59 26 2e bc 14 98 d1 3b f7 31 d0 3b
       -0.0064595123 -0.01062926 0.006396303 0.0063536125
0000e0 14 af 4a 3b ea e4 9d 3b a1 f2 9a bb ae 21 80 bb
       0.0030927109 0.0048185484 -0.0047286307 -0.003910265
0000f0 c2 db 1a bc d9 d7 bb 3b 4a 29 ad 3b d4 13 1b ba
       -0.009451808 0.005732518 0.005284463 -0.00059157354
000100 ec 63 a0 3b f3 c0 11 bc b3 2f c2 3b 5b 89 aa 3b
       0.004894724 -0.0088961 0.0059260963 0.0052043623
000110 02 a6 b8 3b 5e ff 9a 3b fe af 08 bc 6f 4a c8 bb
       0.005635024 0.004730149 -0.008342741 -0.006112389
000120 9c 48 c8 bb ff 84 9f 3b 77 f0 d4 3b cd f8 ac 3b
       -0.0061121713 0.0048681493 0.006498392 0.005278683
000130 08 57 22 3c 32 c8 3c b8 b3 b4 be 3b d2 72 de 3b
       0.009908445 -4.500914e-05 0.005819881 0.00678859
000140 99 d6 e5 bb 8d 3f ce 3b 50 05 af 3b df 66 e3 bb
       -0.0070141074 0.006294197 0.0053412095 -0.0069397534
000150 43 1c 48 bc 0e bf ea bb 35 c8 bb 3b 7b c3 a6 bb
       -0.012213769 -0.007163889 0.0057306536 -0.005089221
000160 e7 ea 82 3b c7 69 01 3c 3f 4a ab 3a ba 99 d3 bb
       0.0039952877 0.007898754 0.0013068392 -0.0064575346
000170 f9 ce c2 bb df 7c 01 3c e9 ac 0b 3c be cc e7 bb
       -0.005945083 0.007903307 0.008525112 -0.0070739677
000180 42 ac ad 3b 63 8a 75 3b 69 ca c5 bb 90 5f a6 3b
       0.0053000757 0.0037466518 -0.006036092 0.00507731
000190 38 0a 2f 3b 69 60 09 bc 25 07 97 3b f4 75 b1 3b
       0.0026708972 -0.008384802 0.004609006 0.0054156724
0001a0 5c ff 89 3b ce 1a a2 3b 62 78 ac bb 83 34 fc 3b
       0.0042113494 0.004947043 -0.005263374 0.0076966896
0001b0 dd 46 f8 3b 61 65 0b bc 47 16 f7 bb e3 86 87 3b
       0.007576807 -0.008508057 -0.0075404975 0.004135953
0001c0 2d 90 1d bb d0 cc 77 bb f9 67 f3 3a 20 50 10 bc
       -0.0024042234 -0.0037811287 0.0018570415 -0.008808166
0001d0 38 ec d3 bb 55 85 5d 3b ee 15 74 bb 3c 4f ec bb
       -0.0064673685 0.0033801396 -0.0037244516 -0.007211594
0001e0 db 88 99 3b aa 06 70 3b 6c 08 26 3c be b8 6f 3b
       0.004685504 0.0036625066 0.010133844 0.003657862
0001f0 61 d8 11 bc 47 81 80 bb 1f 33 ad 3b 5b b7 21 bc
       -0.008901686 -0.003921661 0.005285635 -0.0098703755
000200 a6 4f 95 bb d3 74 15 bc 37 9f c4 bb cc c7 7e bb
       -0.004556614 -0.009122091 -0.006000425 -0.0038876412
000210 68 90 c9 ba b8 cc 1d 3c e1 c5 17 bc 9b 28 ff 3b
       -0.001537812 0.009631328 -0.009263487 0.007786823
000220 1c 3f 16 bc 79 f0 3d 3c dd 3b c0 bb 86 b6 f5 3b
       -0.00917032 0.011592978 -0.0058665113 0.007498565
000230 73 bb e1 bb 38 f8 56 bc 57 41 05 bc 3a 9b 3b bc
       -0.0068888008 -0.013120703 -0.008133254 -0.011450583
000240 0c 2c 33 bc f2 46 07 bc f6 e4 f5 3b 67 ca 2b 3b
       -0.010935795 -0.008256661 0.007504101 0.002621317
000250 f4 24 c9 3b bf 5f 13 3c 6e e0 f0 b9 88 28 0e 3c
       0.0061384384 0.008994996 -0.0004594358 0.008676656
000260 7c 4c fc bb 94 47 de bb 72 db e4 3b 89 e0 e6 bb
       -0.0076995473 -0.006783435 0.0069841677 -0.0070458096
000270 8a 24 8a bb bd 5a 8d 3b 9f 70 3c 3c 17 8f 8a bb
       -0.0042157816 0.0043137954 0.01150146 -0.0042284834
000280 2c 9e 2d 3c 36 ad a1 bb 4c 0e 9b bb 6d 4f e2 3b
       0.010596793 -0.0049339784 -0.004731929 0.006906441
000290 c9 15 96 3b b0 60 ad bb 98 ac 15 bc 06 e5 73 3a
       0.0045802337 -0.005291067 -0.009135388 0.00093038415
0002a0 64 83 2b bc 63 0e 4d bb 61 dd 04 3c 06 c7 e9 3a
       -0.010468338 -0.0031289093 0.0081094215 0.0017835803
0002b0 b3 7a 12 bc e9 6e 0d bc e7 fa 88 bb c0 2a 87 3b
       -0.008940387 -0.0086324 -0.0041803005 0.0041249692
0002c0 f3 ee b7 bb ce aa c0 3b 2c 62 71 3c fd 1b 2b bc
       -0.0056132018 0.0058797365 0.014732879 -0.010443685
0002d0 b2 80 51 3c 3e 9d 49 3c 7e 05 dd bb 32 0c 08 bc
       0.012787031 0.012305556 -0.0067450395 -0.008303689
0002e0 b1 04 77 bb 16 50 d5 bb c7 5c c5 3b 9a 51 13 3c
       -0.0037692005 -0.006509791 0.006023023 0.008991623
0002f0 7b 43 04 3c 30 60 e8 bb 9c b3 f3 bb 0a 81 57 3a
       0.008072729 -0.0070915446 -0.0074371826 0.00082208274
000300 d5 0b 6e bb eb 84 26 3c 48 de f1 bb 16 f8 d3 bb
       -0.003632297 0.010163526 -0.0073812343 -0.006468783
000310 14 76 06 bc 74 e8 c2 bb 49 b7 78 3c bc f6 21 3c
       -0.008206863 -0.0059481207 0.015180417 0.009885486
000320 8f 4a ef 3b 33 76 17 bc 3f 75 ca bb 96 2b d5 bb
       0.0073025892 -0.0092444895 -0.0061785276 -0.00650544
000330 5b 65 3d bc 58 a3 20 37 e4 b2 e7 bb 15 d4 07 bc
       -0.01155981 9.574775e-06 -0.007070886 -0.00829031
000340 f3 b5 cb 3b ec 04 f6 bb 3c be dc bb b2 b7 21 3c
       0.0062167584 -0.007507911 -0.006736545 0.0098704565
000350 61 d9 83 3c 87 86 0e 3c 04 c7 22 bc ff 23 a3 3b
       0.016094865 0.008699066 -0.009935144 0.0049786563
000360 ec 6d a9 bb 89 d8 1a bc cb 55 d7 ba b6 40 01 3c
       -0.0051705744 -0.00945104 -0.0016428767 0.007888963
000370 af 97 d2 3b 2b d6 0f bb 96 64 2b bc 49 de 02 3c
       0.0064267735 -0.0021947722 -0.010460993 0.007987567
000380 82 4f e8 bb fd 35 8b bb 37 dd f2 3b 2d fe eb bb
       -0.007089556 -0.0042483793 0.007411625 -0.007201931
000390 94 e4 60 bb 2f ce 37 3c b9 0d 12 bb 70 70 f5 bb
       -0.003431593 0.011218592 -0.0022286011 -0.0074902102
0003a0 3a 68 cb bb 9d 61 ce bb af b5 0d 3c 10 45 17 bc
       -0.006207493 -0.0062982575 0.008649274 -0.009232774
0003b0 59 a3 13 bc 92 dc 29 3c c1 5c 41 3c 3a 0f 96 bb
       -0.009011113 0.0103675295 0.011801899 -0.004579452
0003c0 07 fd 5f 3b 17 e6 96 3b 7e 57 19 bb bd 50 74 3c
       0.0034177916 0.0046050656 -0.0023398097 0.014911828
0003d0 4c c1 1f 3c f7 cf 86 bb 02 e3 c8 3b 2b bd 25 3c
       0.009750675 -0.004114147 0.006130577 0.010115902
0003e0 c6 16 bd bb 95 0f 94 bb 54 24 d0 bb dc ae 96 bb
       -0.005770537 -0.004518459 -0.006351987 -0.0045984816
0003f0 21 a2 54 3c a0 2a 0a 3c bb 1d cf bb be 0f 4d 3c
       0.012978108 0.008433014 -0.006320683 0.01251596

attention_layer.att.bias f4 [128]
000000 6c 93 8a 39 4c 50 0d b9 20 b6 84 bb f5 8c 97 b2
       0.0002643125 -0.00013476721 -0.0040500313 -1.7642813e-08
000010 09 2a 19 b1 38 34 11 ba 34 33 dd bb 61 b4 b3 3a
       -2.2288325e-09 -0.0005539092 -0.0067504887 0.0013710373
000020 0e 1d 61 ba 4d b4 e4 3a 06 bc 24 38 3d e7 85 3b
       -0.00085873983 0.0017448753 3.9275757e-05 0.0040864036
000030 dd 2c 83 ba 7d 8a b8 bb e9 d3 b0 3b cd 73 54 bb
       -0.0010007877 -0.0056317435 0.0053963554 -0.0032417655
000040 a8 64 f3 bb 65 ee 2d 38 e5 80 89 3b 1c 00 fb 36
       -0.0074277706 4.1468436e-05 0.0041962736 7.4803957e-06
000050 66 be 19 36 78 29 ff bb a7 45 a4 3b 80 07 f3 3a
       2.2909603e-06 -0.007786926 0.005013186 0.0018541664
000060 5e c7 f9 bb 5e 74 5d 3b cb d1 00 3c 64 eb 52 3a
       -0.0076226434 0.0033791284 0.007862519 0.000804594
000070 50 31 d6 2f c3 b1 84 ba 58 c7 b2 3b 4c 69 0f b4
       3.8961412e-10 -0.0010123778 0.0054558925 -1.335622e-07
000080 af 17 a4 39 b8 27 27 33 a1 6c ad 32 50 68 29 ba
       0.00031298163 3.891884e-08 2.018925e-08 -0.0006462382
000090 3c d6 53 35 02 16 08 b8 f0 0c 22 35 4e 9c c8 3a
       7.891538e-07 -3.2445423e-05 6.036853e-07 0.0015305371
0000a0 30 b9 f8 bb 05 b5 95 bb e3 59 02 b9 b3 e5 ed 3b
       -0.0075904354 -0.0045686984 -0.00012431252 0.0072600483
0000b0 26 7d cd 3b c8 7b c1 ba 47 7a 28 b9 19 e4 ab b9
       0.0062710224 -0.0014761621 -0.0001606728 -0.00032785608
0000c0 a4 c2 87 bb 3e 92 c5 38 b7 5d a4 b9 49 c8 e5 ba
       -0.004143076 9.420932e-05 -0.0003135034 -0.0017531003
0000d0 96 f2 02 3b d0 78 6b 39 8f d8 6b bb 97 a2 06 3c
       0.0019981018 0.00022456353 -0.0035987233 0.008217475
0000e0 b4 cd 75 38 b3 3f 03 bc 7d 37 4f bb 5f ed 50 3a
       5.8604128e-05 -0.008010793 -0.0031618767 0.00079699414
0000f0 3c 00 aa bb e8 dc e9 b8 27 3b 0c 3a 99 8e e3 ba
       -0.005188016 -0.00011151453 0.00053493906 -0.0017361223
000100 40 fc 01 3a 5f a1 eb 3b 1c 68 0f 38 8f bc 7f 2f
       0.00049585477 0.007190868 3.4190816e-05 2.3259104e-10
000110 17 f0 a6 bb 1d bc f6 b8 43 4b f7 39 5f ff 15 bb
       -0.005094539 -0.00011765233 0.00047167586 -0.0022887809
000120 d9 5e fb b0 87 29 ec bb a3 a3 4a bb 11 b5 b6 3a
       -1.8289611e-09 -0.007207099 -0.003092029 0.001393946
000130 68 c8 1a 3a ee ea 18 3a ca 28 8e bb ba d3 24 2f
       0.00059044966 0.0005833347 -0.0043383585 1.4990933e-10
000140 00 67 b6 3b d2 ab 00 b7 61 e6 a5 3a ec a4 89 3b
       0.005566478 -7.6694e-06 0.0012657159 0.0042005684
000150 35 86 25 3a ac 3b 17 b9 70 79 7d 3b 1e bc 11 ba
       0.0006314249 -0.00014422712 0.0038677119 -0.00055593427
000160 00 ac fd b1 05 2b 6d 38 f6 af a8 3b 75 16 52 ba
       -7.3828232e-09 5.654527e-05 0.0051479293 -0.00080142106
000170 f9 96 ff b2 d9 d4 a8 3a 71 5f fb 37 61 6c ae b8
       -2.9754561e-08 0.0012880816 2.9965975e-05 -8.317154e-05
000180 34 16 35 ba 5d f0 95 3b 3d 3d a9 b9 df 9b 2d b4
       -0.00069079106 0.0045757727 -0.00032279818 -1.6168586e-07
000190 7e 91 f2 33 f3 44 13 38 5c 1f 2b 39 6c ca 01 3a
       1.1295468e-07 3.5111745e-05 0.00016319513 0.00049511227
0001a0 7c b0 91 bb b6 2f 9c ba 34 94 bb 3b 00 d5 3b 3a
       -0.0044460874 -0.0011916074 0.0057244543 0.00071652234
0001b0 3b b1 b3 2f 1b c8 d2 3b 75 e8 1b bb 5c 1b 56 bb
       3.268584e-10 0.006432546 -0.0023789678 -0.0032670116
0001c0 c7 44 3c 30 22 e6 79 3a 4e 43 82 39 50 19 cf 3b
       6.849174e-10 0.00095328887 0.00024845678 0.006320156
0001d0 3b 2c 48 ba d7 d2 dd 3a 17 eb d6 3b 83 6a 22 af
       -0.00076359854 0.0016923797 0.0065587866 -1.4771655e-10
0001e0 1d bd 4a af 2c f4 ba ba 11 c0 9c ba 30 19 9d b8
       -1.843898e-10 -0.0014263443 -0.0011959096 -7.491035e-05
0001f0 ba 75 88 ba 60 cd b0 39 a0 ef 74 3b c9 ba 44 b9
       -0.0010411062 0.00033722352 0.0037374273 -0.000187616

attention_layer.gate.weight f4 [128, 128]
000000 75 0f 84 ba ed bf 0c ba 60 a7 a0 ba 20 ca d1 b8
       -0.0010075407 -0.00053691753 -0.0012256913 -0.00010003545
000010 3c 61 53 b9 53 f4 4e 39 f8 14 a8 b9 b4 4b 25 3a
       -0.0002015875 0.00019736709 -0.0003205908 0.0006305531
000020 c7 74 49 ba b7 ae 37 3a 6f c7 19 ba ce b6 5f 3a
       -0.00076849427 0.00070069305 -0.0005866205 0.0008534015
000030 d4 ef 4d ba 73 a3 4c ba e4 d6 e9 b9 79 e2 72 b9
       -0.00078558666 -0.0007806338 -0.0004460133 -0.00023163286
000040 f4 bc 21 ba e6 f0 ea b9 58 34 f9 38 a0 f4 08 3a
       -0.0006169819 -0.0004481144 0.00011882995 0.000522444
000050 35 c9 63 3a 5f 74 7c 3a b0 7d 83 b9 79 98 de 39
       0.0008689345 0.0009630378 -0.00025079912 0.0004245674
000060 c3 16 97 b9 cb 68 76 ba 8f a2 53 39 2a 4f b1 b9
       -0.00028817923 -0.00093997706 0.00020183086 -0.00033819053
000070 93 10 e1 b9 69 e1 2d 39 be dd f5 39 94 d9 1e ba
       -0.00042927693 0.00016582538 0.00046895252 -0.00060596433
000080 18 d3 3c 3a a7 1d 7e ba 60 2e 42 ba cc 2b ac 38
       0.0007203086 -0.00096937496 -0.0007407423 8.209757e-05
000090 d2 ed ac 39 36 fa bf 38 a7 78 b1 b9 b4 42 a3 39
       0.00032983586 9.154195e-05 -0.00033849964 0.0003113948
0000a0 e4 fb 78 ba 91 65 c7 b6 40 6f 6f 3a 6b 9a 7c 39
       -0.0009497984 -5.942486e-06 0.0009133704 0.00024090118
0000b0 9c 50 95 b9 c7 27 ff b9 d1 09 13 b9 cf 0d 25 3a
       -0.00028479553 -0.00048667027 -0.0001402267 0.0006296308
0000c0 8f ee 98 b8 78 b0 17 3a 71 f9 95 3a 04 b8 6f b9
       -7.29236e-05 0.0005786489 0.0011442137 -0.00022861367
0000d0 83 d2 3c 3a fc 8f 4b 3a 64 de 3d ba 5f 62 73 ba
       0.00072029995 0.0007765291 -0.00072429166 -0.0009284373
0000e0 0d cb 27 b9 07 dc 12 ba 75 4b 56 3a ec 25 e8 39
       -0.00016002003 -0.00056022446 0.0008174696 0.00044278742
0000f0 91 26 ad 39 02 16 51 ba 47 fb fe b8 f3 7e 13 39
       0.00033025866 -0.00079759967 -0.00012158468 0.00014066305
000100 cc 16 6a ba 77 91 97 3a f9 e7 13 ba 7f b1 f5 b8
       -0.00089297886 0.0011563738 -0.00056421716 -0.000117155716
000110 e8 e6 4b ba fb 02 9b b8 8f db 33 39 36 16 5e 3a
       -0.0007778243 -7.391531e-05 0.00017152562 0.00084719376
000120 8c ab 41 3a 5d cf 7d ba fe b0 39 ba 05 bd 02 ba
       0.0007387928 -0.00096820836 -0.0007083564 -0.00049872726
000130 62 49 26 ba 09 dd 79 b8 c0 72 15 ba b8 27 7a ba
       -0.00063433324 -5.957208e-05 -0.0005700998 -0.0009542662
000140 f0 ff 95 39 b6 39 24 ba 55 51 70 b9 b1 c6 28 3a
       0.00028610183 -0.0006264703 -0.00022918482 0.0006438299
000150 22 b7 bd 39 98 73 6c 39 36 08 68 ba 44 b1 3e 3a
       0.00036185334 0.00022549776 -0.0008851321 0.00072743394
000160 87 29 9c b9 28 88 e9 b9 ae c7 20 39 b3 33 95 39
       -0.0002978558 -0.00044542667 0.00015333176 0.00028458014
000170 1b 1d 16 39 5c d9 0e ba 80 83 91 ba 62 52 3f 39
       0.00014315957 -0.0005449259 -0.0011101812 0.0001824587
000180 08 1d c1 b9 71 01 26 b9 83 e9 7b 39 c8 b4 11 ba
       -0.0003683346 -0.0001583153 0.00024024215 -0.00055582495
000190 ab 1f 54 b9 1f e7 e2 39 ca cc 3a ba 11 a8 a3 b9
       -0.00020229693 0.00043278278 -0.0007125853 -0.00031215002
0001a0 82 25 94 ba b4 61 fc b9 c8 24 38 3a de f0 3a ba
       -0.0011302682 -0.0004813798 0.0007024524 -0.0007131229
0001b0 67 70 80 ba 9e ee 4c 3a 86 1a 07 3a b4 46 38 ba
       -0.0009799124 0.0007817539 0.00051537936 -0.00070295786
0001c0 3e bc 12 38 d1 8d 47 3a fb 19 ca b9 d4 85 66 39
       3.4984427e-05 0.000761238 -0.000385478 0.00021984364
0001d0 6c e4 e3 39 d4 6b 50 b9 39 6c ad 39 ae eb 34 3a
       0.00043467002 -0.00019876595 0.00033077764 0.0006901574
0001e0 06 91 51 b9 31 43 c1 b9 46 51 e0 b9 62 56 86 ba
       -0.00019985819 -0.0003686189 -0.00042785163 -0.0010249133
0001f0 8e cf b6 39 42 ef 16 3a 31 1e 69 ba 2f 77 81 3a
       0.00034868385 0.0005757698 -0.00088927435 0.0009877438
000200 c4 d0 54 ba 18 77 0b b9 3a a2 b1 ba 7e 1e 30 ba
       -0.00081182667 -0.00013300439 -0.0013552376 -0.0006718411
000210 f4 21 c4 b8 4d 77 9a 39 c3 1d 91 b9 97 ae 46 3a
       -9.3523326e-05 0.00029462055 -0.0002767873 0.00075791165
000220 72 0a 91 ba be 27 09 3a c8 36 0a ba 1c 46 73 3a
       -0.0011065735 0.00052320573 -0.0005272445 0.00092801615
000230 57 81 ee b9 0b 99 0f ba 41 cb f0 b9 9a 81 af b9
       -0.00045491263 -0.0005477822 -0.00045927803 -0.00033475162
000240 4e 5a c9 b9 41 f3 0b ba a8 3b 95 39 c0 24 ac 39
       -0.0003840499 -0.0005338677 0.00028463942 0.00032833777
000250 7a 7d 3c 3a 6c fc a5 3a ad be 15 ba 1c ee aa 39
       0.00071903283 0.0012663729 -0.0005712312 0.00032602332
000260 cb a2 06 ba 71 0c 6a ba e8 23 79 39 c1 35 e3 b9
       -0.00051359524 -0.00089282455 0.00023759867 -0.00043336864
000270 4e 57 ae ba 1a 77 a3 38 8f ed 00 3a c9 79 92 ba
       -0.0013301165 7.79463e-05 0.00049182115 -0.0011175211
000280 22 63 91 3a ff 45 16 ba 02 58 84 ba 53 0c 8b 39
       0.0011092166 -0.0005732476 -0.0010097029 0.00026521328
000290 aa bd 49 39 44 5c 51 38 a6 47 1c ba 18 92 50 39
       0.00019239509 4.9915412e-05 -0.0005961604 0.0001989085
0002a0 73 6d 7c ba bf 3f cc b8 27 50 3f 3a c7 da 25 39
       -0.00096293463 -9.739352e-05 0.00072980154 0.00015817127
0002b0 b1 ce ef b9 d2 3f 3e ba af 4a 3d b9 c0 a4 a6 39
       -0.0004573963 -0.0007257435 -0.00018052266 0.00031784736
0002c0 32 23 25 b9 02 f8 40 3a 13 f0 0f 3a 04 d6 ab b9
       -0.00015748737 0.0007361175 0.0005490791 -0.00032775116
0002d0 74 05 82 3a a8 d7 36 3a f7 67 4a ba fa 14 44 ba
       0.0009919838 0.00069748843 -0.00077211804 -0.00074799324
0002e0 66 4f 79 ba 5b f3 82 ba ab 27 c9 39 1d b3 9b 39
       -0.00095104275 -0.0009990738 0.00038367262 0.00029697354
0002f0 59 5e 87 3a a3 e9 85 ba 03 02 62 37 6a f2 e5 38
       0.00103278 -0.0010216724 1.3471118e-05 0.00010964724
000300 73 a7 60 ba 95 c1 a2 3a 72 a2 65 ba c2 3a 61 b9
       -0.0008569874 0.0012417311 -0.0008759863 -0.00021479561
000310 80 49 67 b9 4d 08 30 b9 f9 5f 78 39 75 2b 05 3a
       -0.00022057258 -0.0001678776 0.00023686876 0.0005080023
000320 f8 41 b0 39 30 c6 4b ba b4 f3 9d ba f9 49 41 ba
       0.00033618486 -0.00077733677 -0.0012050779 -0.00073733885
000330 27 c1 03 ba f2 7d 92 b8 82 26 95 b9 ea 6c 30 ba
       -0.00050260354 -6.985282e-05 -0.00028448185 -0.00067300966
000340 6c b9 41 3a 34 ea 1c ba 0e 84 7a b9 88 09 7b 39
       0.0007389996 -0.0005985827 -0.00023891052 0.00023940776
000350 51 c3 c5 39 20 44 23 39 aa ab 22 ba 7e 39 f3 39
       0.0003772029 0.0001557027 -0.00062053895 0.00046391407
000360 be 08 f7 b9 b3 f8 82 ba a0 5c 3a 39 e2 24 1d 3a
       -0.00047118025 -0.0009992331 0.00017772848 0.00059945707
000370 1f dd 70 39 75 84 37 ba ec 0a 77 ba 78 ae 93 39
       0.00022970558 -0.00070006336 -0.000942393 0.00028168014
000380 b1 c9 99 b9 61 d4 72 b9 d0 af a0 39 0e 12 3c ba
       -0.00029332706 -0.00023158036 0.0003064857 -0.0007174321
000390 d9 75 62 ba 70 01 cb 39 27 4d 78 b9 46 06 86 ba
       -0.00086387765 0.00038720248 -0.00023679865 -0.0010225258
0003a0 81 d6 d7 b9 ee 3a 39 ba ba c8 8f 39 73 94 6d ba
       -0.00041167813 -0.0007065971 0.00027424638 -0.0009062953
0003b0 e9 5b 6f ba 82 e1 fa 39 a0 48 32 3a 5c 5b f1 b9
       -0.0009130822 0.00047851732 0.0006800983 -0.0004603517
0003c0 da a4 42 38 2e ce 9e 39 61 d4 fe b9 0e 6c f5 39
       4.6406734e-05 0.00030289724 -0.0004860489 0.00046810549
0003d0 f9 5c 0b 3a 30 7f 9c b9 b5 92 1d 3a 8d 05 f9 39
       0.0005316283 -0.000298494 0.0006010936 0.00047497117
0003e0 d7 07 cc b9 b7 e4 85 ba 91 36 33 ba ab 76 88 ba
       -0.00038915753 -0.0010215257 -0.0006836439 -0.0010411342
0003f0 31 83 f2 39 30 51 f1 39 4b 04 4c ba f6 bf ef 39
       0.00046255582 0.0004602759 -0.0007782622 0.00045728654

attention_layer.gate.bias f4 [128]
000000 0c 72 61 39 d0 bd cd 3a c5 12 28 3c 01 17 23 b5
       0.00021500158 0.0015696827 0.010258381 -6.0755707e-07
000010 8a 0e 8b b4 3f e7 a4 b9 7c 55 9b 3c dc 36 aa 3b
       -2.5901346e-07 -0.0003145281 0.01896166 0.005194528
000020 72 92 69 3b e5 54 b2 3b c1 a0 ee b8 bf 9b 23 3c
       0.0035640267 0.005442249 -0.00011378667 0.009985863
000030 a7 eb 49 3b f8 3d 45 3c dd a9 6e 3c 9e 5a 3d 3c
       0.0030810626 0.0120387 0.014566866 0.011557249
000040 66 26 6c 3c f4 23 40 b9 fd 5a 80 3c ed 9c 42 b7
       0.014413452 -0.0001832394 0.015668387 -1.1599838e-05
000050 db 47 a6 b8 c3 32 69 3c 51 41 6d 3c 04 fa 06 3c
       -7.928881e-05 0.014233294 0.014480905 0.008238319
000060 55 b9 9a 3c be 19 33 3c 7e 54 82 3b 92 ec 6b 3b
       0.018887201 0.01093143 0.0039773574 0.0035999161
000070 3b 2b 1a 34 e2 51 87 3b 94 9c 46 3c 25 fd fa b7
       1.4358095e-07 0.0041296342 0.012122292 -2.9920202e-05
000080 81 24 0d ba 98 1e b8 b4 f9 78 a9 b5 a6 06 27 ba
       -0.00053841627 -3.429493e-07 -1.2626689e-06 -0.0006371535
000090 bb 57 35 39 3f 3f 02 b9 7d 61 93 b7 8c 42 99 3b
       0.00017294187 -0.00012421327 -1.7569162e-05 0.0046771225
0000a0 e8 da 82 3c d7 81 28 3c 5d 4a 0c ba 1c 24 79 3c
       0.015973523 0.0102848625 -0.0005351657 0.015206363
0000b0 d2 73 d4 3b 93 e5 b0 3b f7 9e f4 b9 68 a0 10 ba
       0.0064835334 0.005398461 -0.00046657745 -0.00055170665
0000c0 30 67 57 3c c1 91 d2 3a 7f bc 97 b9 6a c1 fd 3b
       0.01314716 0.0016065167 -0.00028941405 0.007744004
0000d0 db 41 cb 3b 78 51 75 3a e7 b4 12 3c 29 1a ba 3b
       0.006202919 0.0009358148 0.008954263 0.005679388
0000e0 c3 ac 13 b9 da a3 d0 3c 02 61 08 3c ba ed 6e 3b
       -0.00014083371 0.025468756 0.00832391 0.0036457614
0000f0 6f 32 1d 3c 59 bc 31 3a 12 12 40 3b 8b f8 01 3c
       0.009594544 0.000678008 0.0029307646 0.007932792
000100 62 b3 11 ba d3 45 72 3c 79 73 3c b9 64 c4 87 30
       -0.0005558041 0.014787155 -0.00017972094 9.87836e-10
000110 10 5f 32 3c ff d2 88 b9 c0 fd 25 ba 8d 20 e6 3b
       0.0108869225 -0.00026097146 -0.0006332062 0.0070229233
000120 e7 76 d2 b2 bf 9e 2d 3c fa 80 aa 3b 10 2e 9f 3b
       -2.4501288e-08 0.01059693 0.0052033635 0.004857786
000130 bb 40 36 b9 02 b4 8f 36 f0 62 a8 3b 56 72 de b0
       -0.00017380987 4.2826878e-06 0.0051387474 -1.6185122e-09
000140 ad 0f 7d 3c a0 3c e8 b7 b1 7f 26 3b dd 87 1c 3b
       0.015445632 -2.7684786e-05 0.00254057 0.0023884692
000150 98 85 e6 b9 6d 24 bf b9 95 8f 18 3c 9d 3d 9a 39
       -0.00043968554 -0.00036457498 0.009311576 0.00029419074
000160 25 ba 4a b4 19 e6 26 b9 1e 22 2e 3c 8c 2f 71 3b
       -1.8880435e-07 -0.00015916712 0.010628251 0.0036802022
000170 0c 8c 73 36 a4 65 a3 3b af 4b 86 3a 33 a3 4a b9
       3.629134e-06 0.0049864817 0.0010245944 -0.00019325018
000180 33 6e 03 ba 0b e3 33 3c 4a 4d 33 ba 71 57 33 36
       -0.00050136744 0.010979424 -0.0006839825 2.6723976e-06
000190 80 5a 8d b5 86 18 d4 3a fe 4b f4 b9 2e 4c 30 3b
       -1.0531658e-06 0.0016181625 -0.00046595925 0.0026900875
0001a0 5c 34 38 3c 59 49 90 3b 92 e0 39 3c 03 00 5e ba
       0.011242952 0.004403275 0.011345046 -0.00084686297
0001b0 66 e9 0b b4 e3 13 25 3c 78 de dd 3b cc c5 18 3b
       -1.3030294e-07 0.010075542 0.006770905 0.0023311255
0001c0 e2 16 97 b2 ba 52 6f 3b ac 6a 07 3b fc 42 82 3c
       -1.758912e-08 0.0036517815 0.0020662947 0.015901081
0001d0 66 fc c0 b9 d8 18 02 3c cb 0e 70 3c 23 a8 34 31
       -0.00036809145 0.0079404935 0.014651964 2.6289022e-09
0001e0 cc 1f cc 32 02 46 ae 3b 0e 4c 9a 3b cf 7e 8f b9
       2.3763185e-08 0.005318404 0.0047087735 -0.00027369565
0001f0 4e 79 8c 3a 8b 4c 83 3a f1 29 4d 3c 61 27 25 ba
       0.0010717304 0.0010017318 0.012522207 -0.00063001184

attention_layer.w.weight f4 [1, 128]
000000 1f fa ac 3c 73 a7 cf bc 1b 60 48 3d 60 aa 87 b8
       0.02111536 -0.0253484 0.04891978 -6.4690365e-05
000010 32 85 83 37 f5 9f a1 bc d2 73 89 3d 30 80 16 bd
       1.567844e-05 -0.019729594 0.06711544 -0.036743343
000020 74 8a 06 3d a5 24 19 bd be a0 b4 3b 3c 52 4a bd
       0.032846883 -0.037388463 0.005512326 -0.04939483
000030 93 a3 0b 3d 4b 04 72 3d 01 72 79 bd 43 40 5b 3d
       0.034091543 0.059086125 -0.06089974 0.05352808
000040 75 18 85 3d 41 aa da 3b 63 d5 8e bd 86 60 4e 3b
       0.064988054 0.006673128 -0.06974294 0.0031490638
000050 3d ef 67 b8 1c 33 86 3d c7 9b 46 bd 0f 10 20 bd
       -5.52975e-05 0.06552717 -0.048488405 -0.039077815
000060 08 57 7a 3d 88 17 37 bd a5 ea 8c bd 21 10 04 bd
       0.061118156 -0.044700176 -0.068806924 -0.032241944
000070 35 81 70 b7 70 2e 0c 3d 46 a9 6f bd 7c e4 88 b7
       -1.4335198e-05 0.034223974 -0.05851104 -1.631886e-05
000080 cf 0f 37 3c 03 bb 8c b9 d2 6c 47 37 c4 b4 85 bc
       0.011173203 -0.00026842215 1.1886661e-05 -0.016321547
000090 b9 4c 52 38 1b ac c0 bb 71 f3 66 38 9f 2a 18 bd
       5.0139355e-05 -0.0058798916 5.5062996e-05 -0.03715002
0000a0 fc 3a 71 3d 22 99 5d 3d 09 55 2b bc 07 14 8b bd
       0.058894143 0.054101117 -0.010457286 -0.06790929
0000b0 bf 26 84 bd be 85 16 3d 1a 78 18 bc 17 96 9f bc
       -0.06452703 0.03674864 -0.009305978 -0.019480748
0000c0 ab f0 77 3d 0b 4c e2 bc 92 70 9d bc 43 95 1d 3d
       0.060532253 -0.02762415 -0.019218717 0.038472425
0000d0 7c bd 1c bd 03 8e cc 3c c0 0a 43 3d 55 9a 92 bd
       -0.038266644 0.02497006 0.047617674 -0.07158343
0000e0 57 40 ca 3b bc 72 9e 3d d1 a8 37 3d fb b3 02 bd
       0.0061722207 0.077367276 0.04483873 -0.031909924
0000f0 bf 03 53 3d 48 ee d9 bc 72 ef fd bc b8 07 17 3d
       0.051517244 -0.02660288 -0.030997965 0.036872596
000100 2d 91 9b 3c f2 ba 8a bd 54 00 ba 3c f1 30 2f b7
       0.018990124 -0.06773938 0.022705235 -1.0442208e-05
000110 9d 76 53 3d 77 f8 fc bb a1 d0 53 3c 78 6e 25 3d
       0.05162679 -0.007720049 0.012928159 0.040388554
000120 01 43 99 36 26 0e 88 3d 6c 7e 37 3d d9 e4 0e bd
       4.5675556e-06 0.066433236 0.0447983 -0.034886215
000130 8b b4 ab 3c 16 ec 9f 3c 64 fc 52 3d a0 89 09 34
       0.020960113 0.019521754 0.05151023 1.2809187e-07
000140 70 a7 6c bd 2c c5 4c bb 6a 7e 10 bd 1b d5 46 bd
       -0.05777687 -0.0031245453 -0.035276808 -0.048543077
000150 a7 97 95 3c 64 16 09 bc a2 0a 48 bd dc ff bc bc
       0.01826079 -0.008367155 -0.048838265 -0.023071222
000160 15 94 a4 b6 64 9a c0 3b 4f 2c 51 bd d1 92 05 3d
       -4.90482e-06 0.00587778 -0.051067647 0.03261072
000170 74 1d 14 39 85 43 10 bd 8b d7 e0 bc 92 75 e2 bb
       0.00014125352 -0.03522064 -0.027446529 -0.006910988
000180 76 82 94 bc ce 9e 54 bd 66 69 60 bc 35 66 92 ba
       -0.018128615 -0.05190926 -0.013697004 -0.0011169376
000190 7c f0 e9 b7 cd 21 dc 3c 56 b5 22 3c 5f b1 00 bd
       -2.7887749e-05 0.026871586 0.009930929 -0.031419154
0001a0 f5 95 76 3d 13 fb 0d 3d 64 aa 5e bd 78 54 95 3c
       0.060201604 0.03466327 -0.054361716 0.018228754
0001b0 bf 1f 31 b7 80 85 8b bd 6d c0 25 3d 07 c4 3b 3d
       -1.0557414e-05 -0.068125725 0.040466715 0.045841243
0001c0 69 69 b7 b7 6f cb 06 bd e1 69 eb bc 26 56 91 bd
       -2.1864385e-05 -0.032908853 -0.02873701 -0.0709651
0001d0 de dd 9c bc d0 cb 1a bd 7b 18 8a bd 4b 71 3c 33
       -0.019148763 -0.037792027 -0.067429505 4.38752e-08
0001e0 00 59 d9 b7 12 89 10 3d 9d 63 0c 3d 15 8d e2 bb
       -2.590986e-05 0.03528697 0.034274686 -0.006913791
0001f0 cb f7 0e 3d cb cc c9 3c a1 8a 68 bd a3 0c 50 bc
       0.034904283 0.024633786 -0.05677283 -0.012698325
