dataset/models/CAF_FMG20_detox.iCAF/model.pth (torch, 696702 bytes, 14 tensors)

tiles_emb.hidden_layers.0.weight f4 [128, 768]
000000 2e 68 cf be 74 7d 2e 3f 1b 1d 2d 3f 62 90 bb 3e
       -0.4050917 0.68160176 0.67622536 0.36633593
000010 cc 4f f3 3e 4f 17 ba be a6 f7 33 bf 21 e6 28 bf
       0.47521818 -0.36345908 -0.70299757 -0.6597615
000020 d4 aa dc be 7a 1f 25 bf c5 de e3 3e 24 e5 ab 3e
       -0.43099082 -0.64501154 0.44505897 0.33573258
000030 dc 82 be 3e f7 dd ab 3e 51 8c 48 3f 0c e5 33 3f
       0.37209213 0.33567783 0.78339106 0.7027137
000040 fe d8 d7 3e c4 1a 3c 3f a0 9b 18 3f 37 dd cd be
       0.4215774 0.7347834 0.59612465 -0.40207836
000050 c2 50 dc be 16 0b 8f be 11 98 32 bf 95 ae c3 be
       -0.43030363 -0.27938145 -0.69763285 -0.38219133
000060 66 bb 30 3f 50 68 2b bf f9 31 31 3f df f2 e0 be
       0.6903595 -0.66956043 0.6921688 -0.43935296
000070 71 ff 51 3f 3d 63 29 bf ae 12 44 bf e7 92 ea be
       0.820304 -0.6616705 -0.76591 -0.45815203
000080 63 f6 e7 be 2f b1 e3 be c1 72 3a bf 3d 6c 2e bf
       -0.45305166 -0.44471118 -0.7283135 -0.6813391
000090 5e be e2 3e 73 39 fe bd 09 d5 bd 3e c0 90 24 bf
       0.44285864 -0.12413301 0.37076595 -0.6428337
0000a0 79 40 cf 3e b0 8e a2 be 35 ca d8 3e 87 1e cd be
       0.40478876 -0.31749487 0.42341772 -0.40062353
0000b0 ae b8 7c be a0 ac 8c 3e 42 8e 71 be 04 e3 cb be
       -0.24679825 0.27475452 -0.23589423 -0.39821637
0000c0 15 1f 37 3f 58 cf 39 3f 54 cb b0 3e b4 ab a4 3e
       0.715318 0.72582006 0.34530127 0.3216225
0000d0 d2 eb 29 3f b3 53 a0 be e8 2f 9c 3e 04 c7 c5 be
       0.6637546 -0.31313857 0.305053 -0.386284
0000e0 38 11 ba 3e b7 8f da be 55 23 9a 3e aa 0a e9 be
       0.36341262 -0.4268777 0.3010508 -0.4551595
0000f0 9a 40 2b 3d 0e 76 2f 3f ea f7 ce be 1c ce 26 bf
       0.041809656 0.6853951 -0.40423518 -0.6515825
000100 6f 4e b2 bd ba ff ce be 70 af 28 bf bb 6e 4f 3f
       -0.08706366 -0.4042948 -0.65892696 0.81028336
000110 f5 49 45 3f 04 0a 27 bf c6 01 2f bf 0e 7c 31 3f
       0.77065974 -0.6524966 -0.6836208 0.6932992
000120 de 91 49 3f a6 01 f8 be d3 f7 20 3f 8c 9b e8 3e
       0.787382 -0.48438758 0.6287815 0.45431173
000130 5f be dd be cd 53 32 bf 1e 29 29 bf 7a 5c cc 3e
       -0.43309304 -0.6965912 -0.66078365 0.39914304
000140 8b d6 e7 3e df 40 bf be 3f 4f d5 3e 20 ac c7 be
       0.4528087 -0.3735418 0.41662022 -0.38998508
000150 61 78 e9 be 37 1b da be 70 60 30 bf a0 15 d7 3e
       -0.45599654 -0.42598888 -0.6889715 0.42008686
000160 01 75 22 3f a7 2b f5 3e 8e 73 8f 3e 3e 8f f3 3e
       0.63459784 0.47884867 0.2801785 0.47570223
000170 2a da ec be 7e ec 38 3f 51 81 be 3e 15 af df be
       -0.46260196 0.7223586 0.37208036 -0.43688264
000180 e3 3e ec be 1b f2 2e 3f 7d 83 b5 be 13 dd 01 3e
       -0.4614173 0.68338174 -0.3545188 0.1268199
000190 92 ee d9 be 64 82 e5 be 23 13 44 bf e7 e0 3b 3f
       -0.42564827 -0.44826043 -0.765917 0.7339005
0001a0 f1 3c be 3e 86 d3 20 bf a6 2b 2d 3f 31 a3 27 bf
       0.3715587 -0.6282276 0.6764473 -0.65483385
0001b0 63 2d 39 bf ac 7c 1d 3f 05 8a 4d 3f 87 a1 d4 be
       -0.7233488 0.6151836 0.80288726 -0.41529486
0001c0 11 7b 7a 3e d3 21 31 3f 72 d5 25 3f 7a cd 2c 3f
       0.24461009 0.69192237 0.64778817 0.6750103
0001d0 d6 77 ca be 38 b4 cf 3e 68 e0 25 3f b8 7e 34 bf
       -0.39544553 0.40567183 0.6479554 -0.7050586
0001e0 a9 5f 29 3f 80 68 81 be 7d 14 2c bf 9b a4 e3 3e
       0.6616159 -0.2527504 -0.6721876 0.44461522
0001f0 50 66 32 bf 21 0b 3c bf f1 a8 d9 be 8a ec d7 be
       -0.69687366 -0.7345448 -0.42511705 -0.42172652
000200 2d 9e d9 3e 09 5b e6 3e e8 bf 43 bf a4 42 30 3f
       0.4250349 0.4499133 -0.764647 0.68851686
000210 f8 98 b5 be 8d d5 c2 3e 0d 8d 2f 3f 31 da 4d 3f
       -0.35468268 0.3805355 0.685746 0.8041106
000220 76 6d ed be df 54 f9 3e 1b be c4 be a1 dd 2b bf
       -0.46372575 0.48697564 -0.3842629 -0.67135054
000230 dc 45 a4 3e 29 bb c6 be 8c 3b 74 3e f6 04 e2 be
       0.32084548 -0.38814667 0.2385084 -0.4414441
000240 c9 c5 c7 3e e1 0d 32 bf 05 6c db 3e 07 9f cc 3e
       0.39018086 -0.6955243 0.4285585 0.39965078
000250 16 b4 4d 3f ee 96 d6 3e 0d f8 8e 3e b2 83 c1 3e
       0.80352914 0.41912025 0.27923623 0.37795788
000260 37 3e d8 be 52 c4 50 3f 78 15 25 bf 19 0e 2b 3f
       -0.42234966 0.8154956 -0.64485884 0.66818386
000270 5a f9 46 bf 88 2c dc be 57 b1 e8 be 6e 73 38 bf
       -0.7772423 -0.43002725 -0.454478 -0.7205113
000280 20 64 29 3f 12 4d d7 be 7b 29 e2 3e 97 b9 af 3e
       0.66168404 -0.42050987 0.44172272 0.3432128
000290 d3 38 59 3f 36 ad 3a bf 23 62 d8 3e e5 7d 39 bf
       0.8485233 -0.7292055 0.42262372 -0.72457725
0002a0 52 d7 3d 3f 3c de 5b be 9f 90 d5 3e dc ba d8 3e
       0.7415668 -0.21471494 0.417119 0.42330062
0002b0 e0 51 e5 3e 49 b2 d5 be a0 6c 35 3f e5 86 21 3f
       0.44789028 -0.41737583 0.70868874 0.6309646
0002c0 f2 c1 d6 be 80 54 d1 be 88 c0 21 3f 69 9a 2d bf
       -0.41944844 -0.4088478 0.63184404 -0.67813736
0002d0 46 a1 40 bf 32 51 c2 be f6 20 45 bf 16 29 d9 3e
       -0.75246084 -0.37952572 -0.7700342 0.4241416
0002e0 e4 74 26 3f 53 db cc be fb 88 c8 be f5 aa 38 3f
       0.6502211 -0.4001108 -0.39167008 0.7213586
0002f0 a9 2a d5 be 77 b7 28 bf 98 42 e0 3e 4a ea be be
       -0.4163411 -0.65904945 0.43800807 -0.37288123
000300 3f c1 3f bd 28 93 d8 be 13 9f d8 3e b7 24 bc 3e
       -0.046815153 -0.4229977 0.42308864 0.3674676
000310 df 08 00 3d f6 ad 9e be df 6f 80 be 48 35 ca 3e
       0.03125846 -0.30992097 -0.2508535 0.39493775
000320 45 3f 4d bf f6 fe 36 3e 50 01 c0 be 24 c2 a5 3e
       -0.80174667 0.17870697 -0.37501 0.3237468
000330 5b 43 bc 3e cc 75 c3 3e 1e 94 42 bf fd f4 c4 3e
       0.36770138 0.3817581 -0.7600726 0.3846816
000340 dc 71 5a 3e 47 2d c4 3e 37 2c 96 3e be 44 36 bf
       0.21332496 0.38315794 0.29330608 -0.7119864
000350 a9 74 51 3e 8c be 28 3f a5 98 ee 3e 9c e6 22 3f
       0.20454659 0.6591575 0.46600834 0.6363313
000360 c2 8b 29 3f 5b d8 2d 3f f3 8e de be 9a 36 e2 3e
       0.6622888 0.6790826 -0.43468437 0.44182283
000370 c4 45 d3 3e e1 72 2f 3f f4 b0 0b 3e cb dd 27 bf
       0.41264164 0.68534666 0.13641721 -0.65572804
000380 10 b1 89 3e d8 e0 84 be 1f 43 d8 3e 12 2f 28 3f
       0.268929 -0.25952792 0.4223871 0.65696824
000390 7a af c9 be 08 a3 35 3d 9b f5 d0 be 43 ac 38 bf
       -0.3939169 0.04434493 -0.40812382 -0.7213785
0003a0 27 f3 c3 3e a5 94 3e bf 1f b7 2a 3f f3 c3 c3 3e
       0.38271448 -0.74445564 0.6668567 0.38235435
0003b0 e2 5f 2d 3f ff 95 c0 3e 5c 5a 58 3f 5f d2 ad be
       0.6772443 0.37614438 0.8451288 -0.33949563
0003c0 0a 6c bf be f0 52 15 3f b7 17 e5 3e 90 e4 36 3f
       -0.37387115 0.5832968 0.44744655 0.7144251
0003d0 1b cf 5a 3e 23 25 36 bf 65 3f 2a 3f 81 d4 97 be
       0.21368067 -0.71150416 0.6650298 -0.29654315
0003e0 a5 06 dd be 48 cf d7 be c4 48 e2 be 3a 59 de 3e
       -0.43169132 -0.4215033 -0.4419614 0.4342745
0003f0 eb da 31 bf 3b 34 39 bf 7f 90 c9 be cf 8c d6 3e
       -0.6947467 -0.7234532 -0.39368054 0.41904303

tiles_emb.hidden_layers.0.bias f4 [128]
000000 bc 2a 2b bf 97 e4 11 bf 05 15 af be f5 8b fa be
       -0.6686208 -0.56989425 -0.34195724 -0.48934904
000010 d5 b4 0d bf 0e 06 5f bf 8d 56 0b bf 81 14 23 bf
       -0.5535405 -0.87118614 -0.5442894 -0.6370316
000020 32 2a 1d bf c5 94 0f bf 3c 03 32 bf 7f 54 f5 be
       -0.6139251 -0.5608638 -0.69536185 -0.47916028
000030 2a 1d 06 bf 90 e3 c5 be b8 16 f9 be 02 60 98 be
       -0.5238825 -0.3865018 -0.48650146 -0.29760748
000040 f2 fa ff be 49 9d b4 be 3d 28 f2 be da 9a f7 bc
       -0.49996144 -0.3527625 -0.47296324 -0.030225206
000050 05 65 f5 be c7 53 bb be d7 95 1c bf c6 e6 e5 be
       -0.47928634 -0.36587355 -0.6116614 -0.4490263
000060 1f 8f 15 bf c3 04 07 bf 9a a7 16 bf 9a e2 29 bf
       -0.5842151 -0.5274164 -0.5884949 -0.6636139
000070 d3 ea bd be 13 cb f9 be d7 db e7 be 5a b3 07 bf
       -0.3709322 -0.48787746 -0.45284912 -0.53008044
000080 34 4b fb be 0c e2 03 bf e4 5c da be 9d f8 18 bf
       -0.49080813 -0.51516795 -0.42648995 -0.59754354
000090 5d 29 de be af 98 21 bf f8 3b 18 bf 59 9b 07 bf
       -0.43390933 -0.631236 -0.59466505 -0.52971417
0000a0 44 b3 07 bf 88 0e ed be 79 de 25 bf 92 a4 0b bf
       -0.5300791 -0.4630015 -0.6479259 -0.5454799
0000b0 17 bc ae be 6c 3c cd be 5f 2b 1b bf b6 4d 12 bf
       -0.34127876 -0.4008516 -0.60613054 -0.5714983
0000c0 49 5a 14 bf 06 b9 04 bf d9 4d 11 bf e8 17 11 bf
       -0.57950264 -0.51844823 -0.5675941 -0.56677103
0000d0 47 a3 4d bf 8f 02 1c bf e0 06 1b bf de 27 25 bf
       -0.80327266 -0.60941404 -0.60557365 -0.6451396
0000e0 5b 2d 22 bf 06 89 ea be 9f 1f f7 be b0 a6 d7 be
       -0.63350457 -0.45807666 -0.48266312 -0.4211936
0000f0 a4 5e 14 bf d5 12 f2 be 67 21 22 bf 42 00 c6 be
       -0.5795691 -0.47279993 -0.6333222 -0.38672072
000100 64 86 04 bf f0 5c 13 bf 90 a3 a8 be fa cd bc be
       -0.51767564 -0.57563686 -0.32937288 -0.36875898
000110 57 3a 12 bf 38 6d 21 bf 8e be dd be 66 83 17 bf
       -0.5712027 -0.6305728 -0.43309444 -0.59184873
000120 d3 a2 ea be 83 18 1e bf 13 56 09 bf 33 f4 13 bf
       -0.4582735 -0.6175615 -0.53646964 -0.57794493
000130 83 24 1a bf 24 17 18 bf e3 89 c7 be 7d 80 14 bf
       -0.6021196 -0.5941031 -0.38972387 -0.5800856
000140 ab dc 02 bf 66 ca 39 bf 59 5d 03 bf 89 43 2e bf
       -0.5111796 -0.7257446 -0.5131431 -0.680718
000150 1e 17 a2 be 93 48 04 bf ba 0b f5 be 24 19 15 bf
       -0.31658262 -0.5167324 -0.4786051 -0.58241487
000160 a8 a3 39 bf b3 40 ba be c6 d2 38 bf 0c ac 1d bf
       -0.72515345 -0.36377487 -0.72196615 -0.6159065
000170 8e bd d0 be 2d 7f 08 bf bb 8f 22 bf 96 bc 22 bf
       -0.4076962 -0.53319055 -0.63500565 -0.6356901
000180 f9 8d 1e bf c2 02 f8 be c4 b7 05 bf 2c 50 1b bf
       -0.61935383 -0.48439604 -0.5223353 -0.6066921
000190 4e e9 16 bf b4 30 1e bf b8 7a 16 bf 6f 3c 19 bf
       -0.58949745 -0.61793065 -0.58781004 -0.5985784
0001a0 11 42 f4 be 43 57 af be e1 63 da be 16 6f 59 bf
       -0.47706655 -0.34246263 -0.42654327 -0.8493513
0001b0 f7 cb f1 be 32 a2 dd be 29 36 13 bf 7f 63 1e bf
       -0.47225925 -0.43287808 -0.57504517 -0.6187057
0001c0 0a c6 1f bf 1a 96 d1 be 16 dd dd be 38 c2 15 bf
       -0.6241156 -0.4093483 -0.43332738 -0.5849948
0001d0 3e 1f 06 bf 24 59 16 bf 9c 24 1a bf 60 3f b4 be
       -0.5239142 -0.5872977 -0.6021211 -0.352046
0001e0 7e f8 20 bf 19 10 f7 be fc e8 1d bf 8f b7 1e bf
       -0.6287917 -0.4825447 -0.6168363 -0.6199884
0001f0 ee 5b d4 be d6 4d 12 bf 70 65 12 bf ac 5b 15 bf
       -0.41476387 -0.5715002 -0.5718603 -0.58343005

tiles_emb.hidden_layers.2.weight f4 [128, 128]
000000 af c6 33 3f a1 09 28 3f ef 9a bf 3e 90 c4 24 3f
       0.7022504 0.6563969 0.37422892 0.6436243
000010 44 3c d7 3e be d6 c3 be 65 cb 8d 3e 25 b8 24 3f
       0.42038167 -0.38249773 0.2769424 0.6434348
000020 74 7f f0 3e 5a af c5 3e 57 f3 3a bf cf 82 45 3f
       0.4697224 0.38610345 -0.7302756 0.77152723
000030 d0 ea 20 3f 82 2c 9d 3e 0f 46 be 3e 5c 82 a6 3e
       0.62858295 0.3069802 0.37162825 0.3252133
000040 c2 2d 3e 3f dd a6 c6 3e c5 5e ad 3e f6 b1 96 bd
       0.7428857 0.38799182 0.33861366 -0.07358162
000050 c9 b0 2b 3f 3b 8c c9 3e cd 2c 17 bf 25 cb ec 3e
       0.6706663 0.393648 -0.59052736 0.46248737
000060 f6 a8 2a bf b4 50 42 3f 64 25 07 bf 8a e0 2e 3f
       -0.66664064 0.75904393 -0.5279143 0.6831137
000070 4b ed b1 3e 91 29 00 3f 51 20 16 3f a8 d7 ca 3e
       0.34751353 0.50063425 0.5864306 0.39617658
000080 ad 1d e8 3e 42 e7 28 3f b2 a3 a7 3e eb 3a 29 3f
       0.4533514 0.6597787 0.32742077 0.66105527
000090 30 73 37 3d 95 23 1d 3f 1c fd 2f bf 91 a8 c8 be
       0.044787586 0.6138242 -0.6874559 -0.39191106
0000a0 e7 46 05 3f ee 65 1a bf c9 f0 27 3f 61 93 ae 3e
       0.52061313 -0.6031178 0.65601784 0.34096816
0000b0 98 fb 06 3f d1 8b e6 3e 8c ef 11 3f 10 41 0b bf
       0.5272765 0.45028546 0.57006145 -0.5439615
0000c0 d5 d8 11 3f 7c 15 8f be b2 8a ab 3e cf 8d 03 bf
       0.56971484 -0.2794608 0.33504254 -0.5138826
0000d0 4e ce ef 3e e1 b5 0e 3f 4e d1 13 bf 99 e1 16 3f
       0.46837085 0.55746275 -0.5774125 0.58937985
0000e0 9c 3f 0f 3f 3d ea b0 3e 7f 9e 12 3f 19 d1 f2 3e
       0.55956435 0.3455371 0.57273096 0.47425154
0000f0 1a c2 2a 3f af 22 8e 3e e3 15 0b bf ff c4 ca 3e
       0.66702425 0.27760836 -0.5433027 0.3960342
000100 a8 da 00 3f eb 2e 29 3f bc 61 b6 3e 2c 1c bb 3e
       0.5033364 0.66087216 0.3562144 0.3654493
000110 63 a3 07 bf 41 3c 0d 3f 01 c1 0b 3f 6b b3 0e 3f
       -0.52983683 0.55170065 0.54591376 0.5574252
000120 79 8a a9 3e 46 cb 1a bf bd 77 1f 3f 5f 83 19 bf
       0.3311346 -0.6046642 0.6229208 -0.5996608
000130 88 28 07 bf eb bc 0d bf b6 12 0a bf 04 7d 05 bf
       -0.5279622 -0.5536639 -0.539348 -0.52143884
000140 14 22 4c 3f 21 79 3b bf 04 ee 3b 3f eb 43 37 3f
       0.797395 -0.73231703 0.7341006 0.7158801
000150 fa 93 f8 3e 0a ac 4b 3f b5 2b 2e 3f e8 1f 08 bf
       0.48550397 0.79559386 0.6803544 -0.53173685
000160 29 8d a4 3d 2b b0 ef 3d 7f 19 45 3e 80 8f 2a bf
       0.08034737 0.11703523 0.19248007 -0.66625214
000170 3b 6b b4 3e 01 b5 07 bf 94 72 1b bf de ee 07 bf
       0.3523806 -0.53010565 -0.6072171 -0.5309886
000180 b8 8f 1a bf 4f 5f 30 3f 9b ae 24 3f 56 07 10 bf
       -0.6037555 0.6889543 0.64328927 -0.56261194
000190 0e 1a 15 3f 78 0b c1 be 63 46 10 3f 0c 2a 2e 3f
       0.5824288 -0.37704062 0.563574 0.6803291
0001a0 c8 ab 1f bf 4c b1 2a 3f 9f 08 d5 3e 6d e3 41 bf
       -0.6237149 0.66676784 0.4160814 -0.7573765
0001b0 eb f3 d9 be c5 bf 06 3f 47 55 12 3f 3e e3 05 3f
       -0.42568907 0.5263637 0.5716137 0.5229987
0001c0 2c b2 11 3f da 82 00 3f d2 27 d7 3e 82 bf 07 3f
       0.56912494 0.50199664 0.42022568 0.5302659
0001d0 d5 52 39 3f f1 73 38 3f e5 ee 08 3f d9 78 9f 3e
       0.72392017 0.7205191 0.53489524 0.31146887
0001e0 9b f6 03 3f 5a 5d 26 3f dd 39 0e bf 4f e0 07 3f
       0.51548165 0.64986193 -0.5555704 0.5307664
0001f0 04 3d 9c 3e 11 28 2b bf cb 78 a0 3e 15 d7 fa 3e
       0.305153 -0.6685801 0.31342158 0.4899222
000200 db e8 c6 3e 34 3a 21 bf 52 ff 0a 3f 26 25 d0 3e
       0.3884953 -0.62979436 0.5429584 0.40653342
000210 3e 23 d3 3e 3a 00 48 bf 9b af 29 3f be dd c2 3e
       0.41237825 -0.78125346 0.6628358 0.380598
000220 45 67 ee be 5a ab 34 3f 60 70 86 be 42 3c 15 3f
       -0.46563163 0.7057396 -0.2625761 0.5829507
000230 5d f7 02 3f 80 0f d7 3e 9b 43 40 3f 79 93 da 3e
       0.51158696 0.42004013 0.7510316 0.42690638
000240 5c f5 e1 3e 0c de 04 3f 6e cb 21 3f 93 34 8b bd
       0.44132507 0.51901317 0.63201034 -0.06797137
000250 d1 92 db 3e f6 d3 02 3f e3 a7 1f 3f c0 e5 e1 3e
       0.4288545 0.51104677 0.6236555 0.44120598
000260 5b cc 03 bf 64 f2 fb 3e 42 3f 19 bf 15 dd bc 3e
       -0.51483697 0.49208367 -0.5986215 0.36887422
000270 4d 0b 2f 3f fb 0f da 3e 2a 92 eb 3e e3 39 1c 3f
       0.6837662 0.42590317 0.46009952 0.6102583
000280 26 b6 06 3f b6 4e 08 3f 7e 14 3a 3f 47 22 03 bf
       0.52621686 0.53245103 0.7268752 -0.5122418
000290 f2 19 91 3e a3 20 15 bf 87 f4 c5 3e 88 13 0b 3f
       0.28340107 -0.58252925 0.38663122 0.5432668
0002a0 52 c2 14 3f 5a 52 e4 3e 2e 41 73 3e f1 b6 1e 3f
       0.5810901 0.4459408 0.23755333 0.61997896
0002b0 fb 2f 47 3f 38 18 db 3e d0 21 09 bf 2c 78 0c 3f
       0.7780759 0.42791915 -0.5356722 0.5487087
0002c0 97 bb 1a bf ba b9 07 3f a6 10 8e be 44 16 04 3f
       -0.6044249 0.5301777 -0.27747077 0.51596475
0002d0 69 a2 31 3f 5d 71 14 bf d6 62 95 3e 42 a3 c8 3e
       0.69388443 -0.5798548 0.29176968 0.39187056
0002e0 2c dd fe be 0a ec 1f 3f af 61 e8 3e a2 ba e4 3e
       -0.49778116 0.6246954 0.45387027 0.4467364
0002f0 be 38 29 bf 9f b5 21 3f 71 1d 15 3f 19 17 3d 3f
       -0.66102207 0.63167757 0.5824805 0.7386337
000300 a8 55 45 3f 74 80 09 bf 12 4c 1b 3f b8 b4 0f 3f
       0.77083826 -0.5371163 0.6066295 0.5613513
000310 8c 9d 1d 3f 1d 0b e0 be dd a6 fa 3e 81 a5 1d bf
       0.6156852 -0.4375848 0.48955432 -0.61580664
000320 c9 00 37 3f bc 25 08 bf 8e 93 e0 3e ca 15 10 bf
       0.71485573 -0.5318258 0.43862575 -0.5628325
000330 3f b3 0f 3f 50 33 fe 3e 3c 0b f5 3e e3 43 04 bf
       0.5613288 0.49648523 0.47860134 -0.51666087
000340 19 03 ec 3e bd 22 44 3f 7d 53 de 3e c5 15 fe 3e
       0.46096113 0.76615506 0.43423072 0.49625984
000350 cd a5 00 3f 70 99 0d 3f a0 94 11 3f a3 88 10 3f
       0.5025299 0.5531225 0.5686741 0.5645849
000360 04 3a 15 3f 18 90 58 3e 1d 76 73 3e 20 92 2d 3f
       0.5829165 0.21148717 0.23775525 0.67801094
000370 60 c3 df 3e 80 b0 02 3f b4 c3 10 bf 5c 55 2e bf
       0.43703747 0.5105057 -0.5654862 -0.68099
000380 62 f4 0f 3f 24 fc 0e 3f e4 b7 dc 3e ce 1c 1a 3f
       0.56232274 0.55853486 0.43109047 0.602002
000390 f2 e7 17 bf 52 62 d8 3e a7 8e 2a bf cb 13 11 bf
       -0.59338295 0.42262512 -0.6662392 -0.56670827
0003a0 7a 74 11 3f 6e 7a 00 3f 11 95 c7 3e 68 78 75 bc
       0.56818354 0.5018681 0.38980916 -0.01498232
0003b0 77 8f 0c 3f be 7b 36 3f 5d a1 05 bf 22 0f 0d bf
       0.5490641 0.71282566 -0.52199346 -0.55101216
0003c0 d8 b4 08 bf 78 39 cf 3e 95 c6 25 3f d3 41 11 bf
       -0.53400946 0.40473533 0.6475614 -0.56741065
0003d0 52 45 de 3e c6 a8 05 3f 27 30 29 bf 01 cb 43 3f
       0.43412262 0.5221065 -0.660891 0.76481634
0003e0 8b 90 0c bf 2d d8 e5 3e ab f1 2a 3f 76 10 10 bf
       -0.54908055 0.44891492 0.66775006 -0.5627512
0003f0 73 eb 3d 3f fe e6 07 3f 1f 67 b6 be 29 89 3b 3f
       0.7418739 0.5308684 -0.3562555 0.73256165

tiles_emb.hidden_layers.2.bias f4 [128]
000000 07 bd 09 3f ba c3 30 3f 24 eb 08 3d 01 f5 b8 be
       0.5380406 0.69048655 0.033427373 -0.36124423
000010 05 04 34 3f 37 77 35 bf a4 81 7d 3e e3 ba 25 3e
       0.70318633 -0.7088503 0.24756485 0.16184573
000020 fb 59 92 3d eb 8e e3 bd 2d 01 28 3f 03 4d 3a 3f
       0.07146069 -0.11111244 0.65626794 0.7277376
000030 ee 97 22 3f 6f ae 02 3e c4 5e f1 3e 3c 5a f6 3d
       0.63513076 0.12761854 0.47142613 0.120289296
000040 73 81 86 3e 6f a8 0a bf ae ac 11 bf a2 c3 83 be
       0.26270637 -0.5416326 -0.56904113 -0.25735193
000050 b1 e8 12 3f 0f bd 17 3f ab 23 2c bf a7 4a ea bc
       0.5738631 0.59272856 -0.67241925 -0.02860005
000060 92 de 60 bf a4 4b 27 bf 9a 23 1f be 90 6b 0c be
       -0.87839615 -0.65349793 -0.15540925 -0.13712907
000070 48 68 47 be 73 ff b5 be 90 27 c5 be 8a 47 c4 3d
       -0.19473374 -0.35546455 -0.38506746 0.095839575
000080 d6 d5 4e bd fb c6 2c 3f cd e5 05 bf 1a fd 8b 3e
       -0.0504969 0.6749112 -0.52303773 0.2734154
000090 bb 5d da 3d 66 43 1a 3f 90 4c db 3c 1d 15 4a 3c
       0.10662409 0.6025909 0.026769906 0.012334135
0000a0 fb c5 e0 bd b4 fc 55 bf ef e3 9a be 1a 04 a8 3e
       -0.10975262 -0.8358872 -0.30252025 0.3281563
0000b0 f1 14 be bd a3 e6 0e be 9d b8 19 3f 4e 15 19 bd
       -0.09281338 -0.13955168 0.6004732 -0.037373833
0000c0 c5 49 87 3e e9 d2 86 3e 51 91 89 be ff f8 2f bf
       0.2642347 0.26332787 -0.2686868 -0.6873931
0000d0 4e b8 24 bf ab aa 4b ba c0 95 15 3e 37 71 4b 3f
       -0.64343727 -0.0007769267 0.14607906 0.7946963
0000e0 9a 05 91 3e 83 db 29 be 2d 95 0c 3f 80 ee 6b be
       0.28324586 -0.16587643 0.54915124 -0.230402
0000f0 97 d2 17 3f 5e 40 2f be 97 3c 17 bf 83 93 93 be
       0.5930571 -0.17114398 -0.5907683 -0.2882348
000100 1e 11 20 bf 24 df a3 3e 38 ac 2f bf bd ef b3 3e
       -0.6252612 0.3200618 -0.6862216 0.35143843
000110 86 6f b2 be 2e 2c 1c bf 3c ad 92 3d 2d 01 98 3e
       -0.3485071 -0.6100491 0.07161948 0.29688397
000120 69 c8 03 bf 75 32 b1 3e 38 78 7b be d5 58 1e bf
       -0.51477677 0.34608808 -0.24557579 -0.61854297
000130 22 bd 15 3f a1 80 ff 3e 3a a8 21 3f af ea 05 be
       0.5849172 0.49902824 0.6314732 -0.13077806
000140 f4 1d 6c 3e 99 c8 4d 3d e6 9c ec 3d 11 5e 10 3f
       0.23058301 0.050240133 0.115533635 0.56393534
000150 6b 74 25 be bb af d6 be 89 ba 60 bc 3c 8f a1 3e
       -0.16157691 -0.41930947 -0.013716348 0.31554592
000160 3f cc 0f bf 5a 09 57 3f 15 33 4d 3d b7 1f 23 bf
       -0.5617103 0.83998644 0.050097544 -0.6372027
000170 9a a7 81 be 7e 11 52 be 96 11 4b bf 18 ce b7 be
       -0.25323182 -0.20514485 -0.7932371 -0.35899425
000180 4e 9e 88 3e 3a 9c 56 bc 20 ca 65 be 7c a6 38 3d
       0.26683277 -0.013098771 -0.22440386 0.045080647
000190 e3 15 21 3f 2f 39 e8 3e af 4d fd 3e 8f ec 2a 3f
       0.6292402 0.45356128 0.4947333 0.6676721
0001a0 84 d6 b5 3e 51 5a f3 bb 32 b4 9a be 6c 1b 82 3e
       0.35515225 -0.007426538 -0.30215603 0.25411546
0001b0 5a 7b a0 bd 9f e2 20 3f c0 34 01 3f 06 44 63 3e
       -0.078360274 0.62845796 0.50471115 0.22193918
0001c0 49 3f 2e 3f 6b 12 17 bf 75 51 1c 3f c7 36 b0 3d
       0.68065315 -0.5901248 0.61061794 0.08604198
0001d0 21 e0 26 3f 36 10 24 3f 49 78 24 be 0e 12 0a be
       0.65185744 0.64087236 -0.1606151 -0.1348345
0001e0 c4 36 21 be 26 07 3e 3f 16 4b 20 3e 90 de 2d 3f
       -0.15743548 0.7422966 0.15653643 0.6791773
0001f0 ba a6 5e bf 13 b4 be 3d 3e 7d 5e be db 7b eb be
       -0.86973155 0.0931169 -0.21727464 -0.45992932

attention_layer.att.weight f4 [128, 128]
000000 c2 52 ed be 59 cf 1c bf 15 ce 0f bf 03 05 12 bf
       -0.46352202 -0.6125389 -0.5617383 -0.570389
000010 c3 06 20 bf 46 8f 1b 3f e8 5c 0a 3f 91 e4 05 3f
       -0.6251032 0.6076549 0.54048014 0.5230189
000020 af e0 c0 be a9 09 4b bf 6f cf d9 be 9c a6 0e bf
       -0.3767142 -0.79311615 -0.42541072 -0.55722976
000030 92 ec e4 be 09 94 03 3f b2 62 be be 51 fa 2d 3f
       -0.4471174 0.5139776 -0.37184674 0.6796008
000040 9d fb 14 3f f4 d3 9b 3e 8c 8a 0b 3f e2 9d 1e bf
       0.5819643 0.30435145 0.5450828 -0.6195966
000050 a5 ed 1c bf c0 13 03 bf 7f a0 e5 3e 46 d2 bb 3e
       -0.61300117 -0.5120201 0.4484901 0.36683863
000060 6b 4b 01 3f 41 3a 1e 3f 26 47 e0 be 10 be f4 be
       0.50505704 0.6180764 -0.43804282 -0.47801256
000070 b3 51 ff be 0d 0e dd 3e c0 f9 2a bf 0b 7a af 3e
       -0.4986702 0.43174782 -0.6678734 0.342728
000080 15 a1 20 3f 1b c4 23 bf c9 96 db 3e 7a e6 0a 3f
       0.6274579 -0.6397111 0.42888477 0.5425793
000090 f3 96 07 3f 86 76 11 bf c4 db ae be 61 7d a4 3e
       0.52964705 -0.5682148 -0.34152043 0.32126907
0000a0 bb 51 1e bf e6 3e 24 3f af 07 17 bf 86 94 08 bf
       -0.6184346 0.64158475 -0.589961 -0.5335163
0000b0 5a 56 2f 3f cb dc fe be 4d 1f 06 bf 67 d7 12 bf
       0.6849114 -0.49777827 -0.5239151 -0.5735993
0000c0 73 19 0c 3f c6 44 25 3f 5d 75 36 bf 99 ce 12 3f
       0.5472633 0.64558065 -0.7127283 0.57346493
0000d0 d3 8c fa 3e a0 66 32 bf f5 69 02 bf 8f 3d 16 bf
       0.48935565 -0.69687843 -0.5094293 -0.5868768
0000e0 06 ae 18 bf a8 82 b4 be e8 a2 aa be 46 0b 0f 3f
       -0.5964054 -0.35255933 -0.33327413 0.55876577
0000f0 75 9d dc be e9 a4 ca 3e b6 34 0e 3f e8 13 16 bf
       -0.4308888 0.3957894 0.5554918 -0.58624125
000100 9c 3b f2 3e aa 38 11 3f b1 1a 28 3f 7d aa 02 3f
       0.47311103 0.5672709 0.6566573 0.51041394
000110 c6 fd c3 be 7f c1 0e 3f 72 9c 05 3f 87 2b 27 bf
       -0.3827955 0.55764 0.5219184 -0.6530079
000120 fd a0 14 3f 19 34 ff be de 3d d0 3e 9a a9 06 3f
       0.5805815 -0.49844435 0.406722 0.5260254
000130 b8 51 f8 be 86 ce d7 3e 82 61 cc be 99 6c 18 3f
       -0.48499846 0.42149752 -0.39918143 0.59540707
000140 af 37 12 bf 73 39 c5 be c3 fb 92 be cc 27 20 bf
       -0.57116216 -0.38520393 -0.28707704 -0.62560725
000150 05 25 15 bf 9b f1 12 bf 64 26 06 bf dd 9f 0c bf
       -0.5825961 -0.5739991 -0.5240233 -0.5493143
000160 b4 d2 24 3f 5b 2c 0d bf 11 75 f0 3e 1b 9c 9a 3e
       0.6438401 -0.55145806 0.46964315 0.30197224
000170 a6 4f d1 3e a8 db 00 3f 45 0f 1b 3f 78 7c 0e 3f
       0.4088108 0.5033517 0.60570174 0.55658674
000180 47 73 dd 3e de d2 97 3e ed f4 05 3f 1f 1d de be
       0.43252012 0.29653066 0.5232685 -0.43381593
000190 a1 66 cd be a8 fd f7 be ca 2b f3 be 9c a0 da be
       -0.40117362 -0.48435712 -0.47494346 -0.4270066
0001a0 b5 8c 17 3f 43 68 ce 3e f6 87 ec be 0f 25 17 3f
       0.59199077 0.4031392 -0.4619748 0.5904092
0001b0 2b 8c 0b 3f a4 78 ed 3e b2 f7 f2 be 28 88 0a bf
       0.54510754 0.46381104 -0.47454602 -0.5411401
0001c0 8e db 09 bf b9 07 ed 3e e7 8d fc be 7b 75 42 bf
       -0.5385064 0.46294954 -0.49327013 -0.7596051
0001d0 2a 48 06 bf 00 70 d7 be 4b 03 30 bf e3 d7 ef be
       -0.52453864 -0.42077637 -0.68755025 -0.46844396
0001e0 98 49 0b 3f 3c 02 ed be af 62 1f bf 03 f1 1f bf
       0.5440917 -0.46290767 -0.62259954 -0.6247713
0001f0 3e f1 cb 3e 88 7a 02 bf 7c e2 0f bf 15 b4 13 3f
       0.3983249 -0.5096822 -0.5620496 0.5769666
000200 72 cf f1 be 1a fd a9 be 0d f0 25 bf b4 3d af be
       -0.4722858 -0.33200914 -0.64819413 -0.34226763
000210 64 d0 ce be 5a e4 d0 be ea ab e3 3e 57 85 3a bf
       -0.40393364 -0.40799218 0.44467098 -0.7285971
000220 cd 69 23 bf 7d d7 3d 3f 1e 1f 37 bf 3f 39 c7 be
       -0.63833314 0.74156934 -0.71531856 -0.38910863
000230 cb ff 36 bf 56 bc 20 bf 07 10 0e bf 71 c7 be 3e
       -0.7148406 -0.6278738 -0.55493206 0.37261537
000240 b3 26 17 3f a5 17 e0 3e af c6 92 3e dd 57 0b bf
       0.59043425 0.4376804 0.2866721 -0.54430944
000250 6b ed 24 bf 00 d4 8d be d5 a7 00 3f 15 76 44 3f
       -0.6442477 -0.27700806 0.5025609 0.7674268
000260 91 07 38 3f 54 71 0e 3f 8b cc da be 0e 17 3a bf
       0.71886545 0.55641675 -0.4273418 -0.7269143
000270 e9 b1 b4 be 01 28 d0 3e fb 30 8b be de d8 3e 3f
       -0.35291985 0.4065552 -0.27185807 0.74549663
000280 4a 0b 28 bf e1 86 99 be 51 0f e2 3e 9c 50 47 bf
       -0.65642226 -0.29985717 0.4415231 -0.77857375
000290 78 1f b0 3e e6 0a b7 be fc b5 23 bf 3d 3b 33 3f
       0.3439901 -0.35750502 -0.6394956 0.70012265
0002a0 26 d4 29 3f 33 ab fd 3e f6 a2 b6 be ad 53 0d bf
       0.6633934 0.49544677 -0.35671204 -0.55205804
0002b0 95 0c 0e 3f 5e 21 05 bf 71 f7 0e 3f 70 41 a8 be
       0.5548795 -0.5200404 0.55846316 -0.32862425
0002c0 dd 66 91 3e c2 34 8e 3e cb 12 31 3f b5 df cd 3e
       0.2839879 0.27774626 0.691693 0.40209737
0002d0 9b 18 32 3f c0 1d 4b 3f 28 f1 14 bf 7c 1e 24 bf
       0.69568795 0.7934227 -0.58180475 -0.64109015
0002e0 d6 55 13 bf 41 c5 32 bf 49 02 d0 be 0d 76 18 3f
       -0.5755285 -0.69832236 -0.40626743 0.5955513
0002f0 b1 eb d4 be 2a f0 3b 3f be 14 8f 3e e4 e3 c3 be
       -0.41586068 0.73413336 0.27945513 -0.38259804
000300 09 69 c0 3e 64 69 cc 3e cd 2c c3 3e d0 68 fc 3e
       0.37580135 0.39924157 0.38120118 0.49298716
000310 28 41 dd be 53 d1 98 3e 88 a5 40 bf aa ee 0a bf
       -0.43213773 0.29847202 -0.7525258 -0.5427042
000320 d3 e4 96 3e 7e 94 2a bf 5a 09 29 3f ec 80 0f 3f
       0.29471454 -0.6663283 0.66029894 0.56056094
000330 b5 65 03 bf 7b 33 d5 3e 5c 1b 07 bf 3d 5b 0b 3f
       -0.5132707 0.4164084 -0.5277612 0.54436094
000340 b0 12 05 bf 96 8a 34 bf ac f4 30 bf 52 b2 63 be
       -0.5198164 -0.70523965 -0.6912334 -0.22235993
000350 47 0c 43 3f 5b 74 12 3f bd 31 20 bf 40 bf 0f bf
       0.7619061 0.57208794 -0.62575895 -0.561512
000360 0c f1 0e 3f 06 13 1c bf cc be f0 3e ac e6 03 3f
       0.5583656 -0.6096653 0.47020566 0.5152385
000370 ad 73 35 3f b3 19 07 3f fe 17 15 3f 25 10 0c 3f
       0.7087963 0.5277359 0.58239734 0.54712135
000380 ef 1e ee 3e 53 02 4d 3f 07 06 ee 3e bf da 21 bf
       0.46507975 0.8008167 0.46488973 -0.63224405
000390 f9 eb 05 bf b5 97 3f bf 14 a2 07 bf 2e 37 41 bf
       -0.5231319 -0.7484086 -0.52981687 -0.7547482
0003a0 6a 9d c0 3e 37 8f 3f 3f c8 62 d2 be 61 18 f2 3e
       0.37620097 0.74827904 -0.4109099 0.47284225
0003b0 65 6b 9f 3e 89 e6 f6 3e 0f 6c e5 be ec fa 15 bf
       0.31136623 0.4822276 -0.44809005 -0.58586
0003c0 60 01 8f be 13 ee f0 3e 60 fa e3 be 6a 02 38 3f
       -0.27930737 0.47056636 -0.44526958 0.71878684
0003d0 82 66 ac be cd 73 03 bf 68 c5 95 be c0 70 0a bf
       -0.33671957 -0.5134857 -0.29252172 -0.5407829
0003e0 03 9f 21 3f 2c 27 8c be c2 c7 12 bf df a8 87 be
       0.6313326 -0.27373636 -0.57336056 -0.26496026
0003f0 81 54 23 3f fa ef 0a bf cc d0 be be b5 84 f4 3e
       0.6380082 -0.54272425 -0.37268674 0.47757497

attention_layer.att.bias f4 [128]
000000 95 00 e5 be 56 3d 0f bf 44 0b 2f bf 19 b3 04 bf
       -0.44727007 -0.55952966 -0.68376565 -0.5183578
000010 5a 37 d0 3d fb 5b 86 3e 0e bf 31 3f 20 f2 11 bf
       0.101668075 0.2624205 0.6943215 -0.5701008
000020 a1 d4 23 3f 2b d8 d1 be 92 69 56 be e0 07 18 3f
       0.6399632 -0.40985236 -0.2093871 0.59387016
000030 d7 09 31 bf 19 ac 1d bf 16 65 2a 3f 62 44 a9 be
       -0.6915564 -0.61590725 0.66560495 -0.33059984
000040 03 c7 cc 3e 64 9b 09 3f b5 b0 c9 3e 00 9e e8 be
       0.39995584 0.5375273 0.3939263 -0.45433044
000050 e2 d3 d8 3e 84 bc ff 3e 75 66 9c be c4 43 f4 be
       0.42349154 0.49948514 -0.3054692 -0.4770795
000060 ed e1 c3 be 1d 64 25 bf 93 d4 0a bf cf 89 07 bf
       -0.38258305 -0.64605886 -0.5423061 -0.52944654
000070 ce c7 86 3e dc c8 76 3e 5e c8 42 3f eb 7b 22 bf
       0.26324314 0.2410006 0.76086986 -0.63470334
000080 64 48 b0 3e d2 9b c1 be 0f 77 01 3f 01 60 89 be
       0.3443023 -0.37814194 0.50572294 -0.26831058
000090 c2 06 09 3f 97 79 bb be e3 eb 22 3f 8b b1 dc be
       0.53525937 -0.36616203 0.63641185 -0.43104205
0000a0 8b 86 46 3f 5b 87 b3 be dd 04 29 bf a0 f1 1b 3f
       0.77549046 -0.35064206 -0.66023046 0.60915565
0000b0 23 54 3d 3e 42 6e 24 bf e4 29 57 bb 95 f9 b0 3e
       0.18489127 -0.6423074 -0.0032831365 0.34565416
0000c0 27 31 dc 3e 1b bf 93 be 0a 69 27 bf ea 95 87 3e
       0.4300625 -0.2885674 -0.6539465 0.26481563
0000d0 b7 25 62 be cb dc cb be 98 68 9a be 5e 4f 1d 3f
       -0.220847 -0.3981689 -0.30157924 0.6144923
0000e0 72 24 2e bf b8 11 d8 be 30 1d 33 bf 76 dd 4d 3e
       -0.6802436 -0.42201018 -0.6996641 0.20104012
0000f0 9b 33 ff be 10 40 05 bf ac 83 10 3f d2 58 d1 3e
       -0.4984406 -0.52050877 0.56450915 0.40888077
000100 ff 9c b1 3d 7d f9 1c bf cc 7a 25 bf af 9e 2a bf
       0.08672523 -0.6131819 -0.646405 -0.6664838
000110 e5 86 fd 3e c2 42 27 3f 77 77 95 3e 84 74 8b 3e
       0.4951698 0.6533624 0.29192707 0.27237332
000120 a5 73 18 3f 35 ea 2b 3d c8 e5 25 3f 40 b6 bb 3e
       0.5955146 0.041971404 0.64803743 0.36662483
000130 1a e0 26 3f 40 59 f0 be 21 25 11 3e 69 6b 3c bf
       0.651857 -0.46943092 0.1417432 -0.73601395
000140 fa 09 2d bf c2 36 01 3f 03 18 d7 3e a9 c7 9d be
       -0.6759335 0.5047418 0.42010507 -0.3081639
000150 1c cc d1 be ec 81 ca 3e 63 b1 3e be df 91 0b 3f
       -0.40976036 0.39552248 -0.18622355 0.54519457
000160 14 f7 15 3f 49 e0 f1 3e d2 ea 1a bf 53 f0 2b 3f
       0.58580136 0.47241428 -0.6051456 0.6716358
000170 29 0b 0d bf 0c ea c0 be 54 d0 e5 be 32 23 dc 3e
       -0.55095154 -0.37678564 -0.44885504 0.42995602
000180 ce 21 0b bf 28 f3 c4 3e 38 6e 6b be be 46 94 be
       -0.54348457 0.38466763 -0.22991264 -0.28960222
000190 bc 84 ff be ae 34 a9 be f2 54 37 bf 1e 26 25 bf
       -0.49905956 -0.33048004 -0.7161399 -0.6451129
0001a0 85 56 38 3f 8d 93 d9 3e a2 fa d4 3e 7f c0 17 bf
       0.7200702 0.42495385 0.41597468 -0.592781
0001b0 24 a7 24 3f 79 e7 25 3f cd 04 be be c9 10 96 3e
       0.64317536 0.64806324 -0.37113038 0.2930968
0001c0 a4 04 02 3f db 7a e4 3e 58 29 51 3f 0e b3 2b 3f
       0.5078833 0.4462498 0.8170371 0.6707009
0001d0 6b 57 26 3f 2b a7 da be 8d 69 8c 3e 48 07 0e bf
       0.6497714 -0.42705664 0.2742428 -0.5547986
0001e0 a1 96 49 3f 2f 61 fb 3e ea 37 21 3f d0 74 1d bf
       0.78745466 0.49097583 0.62975943 -0.61506367
0001f0 9a a5 1d 3f 6c 5c 18 3f b2 8e 4f 3e 10 04 94 be
       0.6158081 0.59516025 0.20269278 -0.2890935

attention_layer.gate.weight f4 [128, 128]
000000 c6 17 97 3e c8 8f 9b 3e 91 ab 43 3f b8 ec d2 3e
       0.29510325 0.30383134 0.76433665 0.41196227
000010 ed 1e 97 3e 24 06 b5 3e ee 80 ce be cc bf a0 be
       0.29515782 0.35356247 -0.4033274 -0.3139633
000020 dc 75 3c 3f 65 8d a7 3e b7 a5 39 3f 41 5a 35 3f
       0.7361734 0.32725063 0.72518486 0.7084084
000030 ce 64 46 3f 20 05 94 be af 48 3f 3f e4 e8 3a bf
       0.77497566 -0.2891016 0.7472028 -0.7301161
000040 47 f7 40 bf 22 a3 dd be 98 93 a5 be f7 ed 38 3f
       -0.75377315 -0.43288523 -0.32339168 0.72238106
000050 4b 61 2e 3f 14 64 b4 3e c6 5d 87 be 49 4c 2d bf
       0.6811721 0.35232604 -0.2643873 -0.67694527
000060 f3 68 33 bf 95 b7 3c bf 61 af 8d 3e 52 b2 30 3f
       -0.70082015 -0.73717624 0.27672866 0.69022095
000070 fd 7f 44 3f e5 d3 86 be 08 2d 44 3f f0 1e 36 bf
       0.76757795 -0.26333538 0.7663121 -0.71140957
000080 e6 7c 99 be 43 68 b8 3e f3 49 35 bf bf 54 9f be
       -0.29978102 0.36017045 -0.7081596 -0.31119344
000090 97 dd 3f bf 8d 11 cb 3e ad a7 41 3f 3d f3 42 bf
       -0.74947494 0.39661828 0.7564648 -0.761524
0000a0 80 5d d4 3e 0f 68 38 bf 2f a7 84 3e 8c 1e 42 3f
       0.41477585 -0.7203378 0.259088 0.7582786
0000b0 b8 db 2f bf 41 65 22 3f b2 d2 42 3f 2b b3 d3 3e
       -0.6869464 0.6343575 0.76102746 0.41347632
0000c0 d6 05 d1 be 72 99 c1 be e0 c3 d1 3e 36 64 d6 be
       -0.40824765 -0.37812382 0.40969753 -0.4187333
0000d0 35 08 2c bf 51 cb 2d bf 90 00 2d 3f 8a 0d 24 3f
       -0.6720002 -0.6788836 0.67578983 0.6408316
0000e0 0a 23 3e 3f f8 a6 33 3f a0 72 25 3f 63 b9 43 bf
       0.74272215 0.7017665 0.6462803 -0.7645475
0000f0 a5 1b 9e 3e 90 45 3c bf 08 66 d2 be 6f 21 c8 3e
       0.30880466 -0.73543644 -0.4109347 0.39088008
000100 d8 00 a5 be da de b3 be 36 3e c1 be df 1c 45 bf
       -0.32227206 -0.3513096 -0.37742776 -0.7699718
000110 36 b1 8d 3e 5f 5c 94 be 8c 58 d7 be a7 78 29 3f
       0.27674264 -0.28976724 -0.42059743 0.66199726
000120 f8 8d bd be c1 a6 8e be b3 79 26 bf e1 30 3e bf
       -0.37022376 -0.27861598 -0.6502945 -0.74293333
000130 b6 d7 29 3f a8 97 90 be ef 1c c6 3e 33 84 34 bf
       0.66344774 -0.28240705 0.3869395 -0.7051422
000140 54 02 9f be c2 17 26 3f 28 4b 90 be db b8 80 3e
       -0.31056464 0.6488 -0.2818234 0.25141034
000150 34 9e 84 3e e6 43 b0 3e d0 4a 32 3f 26 f6 d5 be
       0.2590195 0.34426802 0.69645405 -0.4178936
000160 a4 6e 34 bf 58 64 33 3f be 3a d1 be 66 38 a2 be
       -0.70481324 0.7007499 -0.4086513 -0.31683654
000170 8f 8a 45 bf 8c 66 aa 3e 33 03 1e bf 6a ea 2b bf
       -0.7716455 0.33281362 -0.6172363 -0.6715456
000180 41 34 1e bf b8 0e 3e bf f4 be 94 be bb a7 42 3f
       -0.61798483 -0.7424121 -0.29051936 0.76037186
000190 d8 6e b3 3e 58 99 43 3f c3 64 cb 3e 7a 43 3f 3f
       0.35045505 0.7640586 0.39725313 0.74712336
0001a0 d4 8b b0 be 2a 0c 2b bf 2d 12 a9 3e 41 4e 3b bf
       -0.3448168 -0.66815436 0.3302168 -0.7316628
0001b0 3b 1e ab be 9f 19 a7 be eb bb c9 3e 12 84 1b 3f
       -0.33421502 -0.32636735 0.39401183 0.607484
0001c0 d4 c9 96 3e e0 b6 29 bf 90 6c 89 3e 1d 57 22 bf
       0.29450858 -0.6629467 0.2684064 -0.63414174
0001d0 0a 86 b3 3e 58 7c 87 3e 91 5c bc 3e 57 05 a4 3e
       0.350632 0.26462054 0.36789373 0.32035324
0001e0 93 bb 27 bf a8 a9 86 3e fe b1 3b 3f f8 fd 87 3e
       -0.6552059 0.26301312 0.7331847 0.2656095
0001f0 a6 78 31 bf 7a f6 24 3f f4 ee 38 3f 57 6b b2 be
       -0.6932472 0.64438593 0.72239614 -0.3484752
000200 6e 31 e4 be 54 71 82 bd c6 6c f4 be c1 bc dd 3e
       -0.44568962 -0.06369272 -0.47739238 0.4330807
000210 d6 33 ff 3c e2 24 77 3f 87 97 77 bf ad ed 8f bf
       0.031152647 0.96540654 -0.9671559 -1.1244408
000220 08 ad a5 bf 7e 6d 86 3f e2 0e 79 bf 75 a5 e4 bc
       -1.294343 1.0502164 -0.97288334 -0.027910927
000230 9b 4c b5 bd 33 ac 29 bf 7e 0c 45 be 5b 32 90 bf
       -0.08852502 -0.6627838 -0.19243047 -1.1265367
000240 18 4b 23 3f b8 51 80 3c 34 66 31 bd 35 71 13 3f
       0.6378646 0.015663967 -0.04331036 0.57594615
000250 01 5c 68 bf 19 1d f1 bb a0 6f ca bc e2 49 e7 3e
       -0.90765387 -0.007358205 -0.02471143 0.45173556
000260 1d df fa 3e b1 55 69 3f 30 93 92 3e 52 03 0a bf
       0.48998347 0.9114638 0.2862792 -0.53911316
000270 bb 14 04 3f 87 ce 4d 3e 90 d3 16 3f b3 c8 b7 3e
       0.5159413 0.20098315 0.5891657 0.3589531
000280 ff e6 0f bf ad 2d db 3c 07 bb c7 3d ae 33 1e 3f
       -0.5621185 0.026755178 0.097524695 0.61797607
000290 b7 a4 1a bf 1b e0 a6 bd 55 5a 59 bf 9c 8f 9a 3f
       -0.60407585 -0.081482135 -0.8490346 1.2075076
0002a0 b7 ae 90 3f 1f 74 e3 3e 20 b4 0b 3f fc bd 7b bf
       1.1303319 0.4442453 0.54571724 -0.9833677
0002b0 ba f4 98 3f 01 db ed 3e 7f 40 76 bf a5 01 ed be
       1.1949685 0.4645615 -0.96192163 -0.46290317
0002c0 22 9e 77 bf f6 ef 60 bf e0 13 89 3f a4 a1 13 3e
       -0.96725667 -0.8786615 1.070919 0.1441713
0002d0 64 6e e3 3e e9 2e 5e 3f fe 80 87 bf 51 7a 7b bf
       0.4442016 0.8679033 -1.058624 -0.98233515
0002e0 dd 06 89 bf 5b 68 e4 be f6 eb f0 be 02 82 8b 3f
       -1.070522 -0.44610867 -0.47055024 1.089905
0002f0 80 29 ea bd ab 79 ab 3f 11 40 06 3f 2b 1a e8 3e
       -0.11433697 1.3396505 0.5244151 0.45332465
000300 de a7 b0 3d e6 fd 59 bf fb 2c d6 3e 9e 6f 00 bf
       0.08625768 -0.85153043 0.41831192 -0.50170314
000310 a8 75 d1 3e 64 0e ee 3e 17 d7 a1 bf f6 aa 8e bf
       0.40910077 0.46495354 -1.2643765 -1.1145923
000320 1b 4c 18 3f 89 5c 83 bf ed f1 81 3f ae 58 cd 3e
       0.5949113 -1.0262614 1.0151955 0.4010672
000330 c5 ed 67 bf de a4 5d bf 41 8a 11 be 5c 7e 0c 3f
       -0.9059718 -0.8657969 -0.14212896 0.5488031
000340 1c e7 8b bf 71 a8 8a bf 65 21 0b bf 07 c2 a6 be
       -1.0929904 -1.0832654 -0.5434783 -0.32569906
000350 8a 04 fe 3e 76 56 f9 3e 1d 48 f1 be 05 f7 6d bf
       0.49612838 0.48698777 -0.4712533 -0.92955047
000360 48 f7 87 3f 31 a3 e7 be 76 97 36 3e 63 ee d3 3e
       1.0622339 -0.45241693 0.17831215 0.41392812
000370 e9 7e 79 3f 06 19 10 3f fa dd 68 3f 16 27 63 3f
       0.97459275 0.5628818 0.9096371 0.88731515
000380 5f 3a 06 bf 6a 90 96 3f 4d 66 57 bf 9a 2f 4c bf
       -0.5243282 1.1762822 -0.84140474 -0.79760134
000390 04 b6 05 bf 97 0f 31 bf 9c 62 0f bd d5 1e 08 bf
       -0.5223086 -0.69164413 -0.03500615 -0.53172046
0003a0 70 9c 74 bf 1a 24 aa 3f 6c a1 84 3f 55 54 10 3f
       -0.95551205 1.3292267 1.0361762 0.5637868
0003b0 8e ee 23 3f f8 df ce be 74 7c b2 3b 8c 11 81 bf
       0.6403588 -0.4040525 0.005446965 -1.008348
0003c0 51 86 e3 bc f2 f8 d7 3e bd 19 ef be 27 7c 98 3e
       -0.027774008 0.42182118 -0.46699324 0.2978222
0003d0 02 9e 73 bd 42 e0 0d bf fe d0 00 3f ee 9f 25 3f
       -0.05947686 -0.55420315 0.50318897 0.6469716
0003e0 36 ea 83 3f a9 60 08 bf c0 d0 8e bf 48 14 ec bc
       1.030585 -0.5327249 -1.1157455 -0.028818265
0003f0 13 55 09 3f d5 17 85 bf 80 9e 2c 3f 18 46 1a bc
       0.5364544 -1.0397898 0.6742935 -0.009416126

attention_layer.gate.bias f4 [128]
000000 b3 b5 48 3f 69 ed 87 bf 55 27 2a 3f 06 94 7d bf
       0.7840225 -1.0619327 0.66466266 -0.9905399
000010 91 cb 64 be eb 8d fa be a2 68 92 3e f0 2e ed 3e
       -0.2234328 -0.489364 0.28595454 0.46324873
000020 f7 84 1d 3f 6f 49 f3 3e 45 38 a3 be ee 89 09 3f
       0.61531013 0.47516963 -0.31878868 0.5372609
000030 dc f6 fc 3e 55 b8 d2 3d 03 76 7c ba 09 6b aa 3e
       0.4940709 0.10289065 -0.0009630622 0.33284786
000040 98 79 2a bf c4 28 4a 3e 79 a2 da be 94 ad c2 3e
       -0.6659179 0.19742113 -0.42702082 0.38023055
000050 fd 02 f9 3e 8c 31 2a bf d0 fc 21 bf 41 13 44 bf
       0.48635092 -0.6648185 -0.63276386 -0.7659188
000060 47 b7 51 3f 5b 3c 2e bf 9e 78 bb be ac a9 0d bf
       0.81920284 -0.68060845 -0.3661546 -0.55337024
000070 f3 de 3b 3f ea cb 4e bf a3 55 9a 3e 08 c4 65 bf
       0.7338707 -0.807799 0.3014346 -0.89752245
000080 a9 46 dc 3e 9e 6c 0a bf bb ee 77 3f d7 e2 14 3f
       0.4302266 -0.54071987 0.9684865 0.5815863
000090 78 9c d8 3e 70 cc 0b bf c7 33 f9 3e 85 37 48 3f
       0.42306876 -0.5460882 0.48672315 0.78209716
0000a0 f0 4f 89 be 0d c8 51 bf 63 ad 10 bf a1 78 14 3f
       -0.268188 -0.8194588 -0.5651457 0.57996565
0000b0 18 77 24 bf a9 8e e1 3e 81 53 f2 3e df d0 28 bf
       -0.6424422 0.44054154 0.47329333 -0.6594371
0000c0 f7 84 28 bf 08 7e 2f bf 13 c1 44 3f b0 4f 26 bf
       -0.6582789 -0.68551683 0.7685711 -0.64965343
0000d0 5d 32 46 3f 5a e8 a5 3e cd 07 27 3f a6 6f 30 3f
       0.774206 0.32403833 0.6524628 0.6892036
0000e0 0f c6 f7 be 98 0e cb be cc e3 4d 3f 58 05 4e 3f
       -0.48393294 -0.39659572 0.80425715 0.80476904
0000f0 e7 01 11 3f de 35 bb 3e 6e c2 28 3f db fa 16 3f
       0.5664353 0.36564535 0.65921676 0.58976525
000100 ba 21 61 bd 21 9f 81 3e 46 e0 bc be c2 61 01 3f
       -0.054963805 0.25316718 -0.36889857 0.5053979
000110 96 f0 11 3f dd 70 2e 3f c7 21 b9 3c ed fa 63 be
       0.5700773 0.68140966 0.022599114 -0.2226369
000120 9a 47 c5 be 82 08 1e bf be 88 19 bf d5 20 b8 be
       -0.3853119 -0.6173173 -0.59974277 -0.3596255
000130 88 b7 48 bf 97 c7 50 3f 08 80 05 be 61 93 03 bf
       -0.78405046 0.8155455 -0.13037121 -0.5139676
000140 cf ac 71 3e 52 f3 70 3f 4b 67 81 3e 82 1f 02 bf
       0.23601077 0.9412128 0.2527412 -0.5082933
000150 69 44 3b 3f d8 55 1f be 66 1d 44 bf c1 68 07 3f
       0.7315126 -0.1556009 -0.7660736 0.52894217
000160 b3 a4 ec be 75 65 12 bf f0 94 78 bf 9f a1 2a 3f
       -0.46219406 -0.5718606 -0.9710226 0.66652864
000170 5a 89 1e 3f 16 bd dd be d5 3b 92 3d 3b 0d 40 3f
       0.6192833 -0.43308324 0.07140318 0.7502019
000180 a3 a5 13 bf 13 70 0b bf 25 7c 7e bf e5 ce 1f 3f
       -0.57674617 -0.54467887 -0.9940818 0.6242507
000190 5f 1a 17 3e 46 16 20 bf 90 83 3c 3f f5 71 03 be
       0.14756154 -0.62533987 0.7363825 -0.1283644
0001a0 58 42 54 bf 3d 36 ad 3e 75 8a 0e 3f 30 83 1e bf
       -0.8291373 0.33830443 0.5568002 -0.61918926
0001b0 fe 50 22 bf 7a d0 1e 3f 37 5e 73 3e 26 e8 b0 be
       -0.63404834 0.6203686 0.23766409 -0.34552115
0001c0 ca 08 f7 3e 98 b4 5a bf 81 ac 92 be 53 ed 37 3f
       0.48248893 -0.85431814 -0.28647235 0.71846503
0001d0 d6 51 0d bf f8 37 f4 3e eb 11 11 bf f6 33 c4 be
       -0.55202997 0.4769895 -0.56667966 -0.38320893
0001e0 32 64 25 3e 69 ae 69 bf 0f f6 c4 3e bf 58 11 bf
       0.16151503 -0.91281754 0.38468978 -0.5677604
0001f0 8e 8e 2e bf cb d4 87 be 2c 8e 39 bf e8 68 db be
       -0.6818627 -0.26529536 -0.7248256 -0.42853475

attention_layer.w.weight f4 [1, 128]
000000 a0 5e 54 bf 05 b4 0a bf 00 d4 d9 3e 95 93 0b bf
       -0.82956886 -0.5418094 0.42544556 -0.5452207
000010 32 f1 3e 3f 54 a3 89 be 78 52 33 3f 94 7f ad bd
       0.74586785 -0.26882422 0.7004771 -0.08471599
000020 65 a5 24 3f 3b be 68 3e 76 ea 37 bf 61 5d d1 3e
       0.6431487 0.22728817 -0.71842134 0.40891555
000030 e7 57 93 3e 72 b0 15 3f 00 c0 39 3f 3e 3e 1c 3f
       0.28778002 0.5847236 0.72558594 0.61032474
000040 4b 94 d5 bd 71 74 42 3f 70 86 51 3f df e8 9a be
       -0.10428675 0.75958925 0.8184576 -0.30255792
000050 ac d6 69 be 50 78 a1 be 31 7f ed bd e7 42 2b bf
       -0.22835797 -0.31537104 -0.115965255 -0.6689896
000060 8f 8b 37 bf 12 ac 40 3e 90 22 1a bf ed 74 f6 3d
       -0.71697325 0.1881564 -0.6020899 0.120340206
000070 f3 4e c4 be 9b 00 b7 3e ce 57 03 3f d7 2f 02 3f
       -0.38341483 0.3574265 0.51305854 0.5085425
000080 54 03 8b be a6 a8 08 3e 5b a7 47 3f 5d 4f 69 bf
       -0.27150977 0.13345584 0.7798974 -0.91136724
000090 d3 f8 2f 3f 95 8d 28 3f 98 e9 7e 3e 2c 69 9d 3e
       0.6873905 0.6584104 0.24893796 0.30744302
0000a0 94 7d 4b 3e 49 26 29 3f 19 2d c7 3e 56 18 e6 3e
       0.19872123 0.66074044 0.38901594 0.44940442
0000b0 e9 45 5f 3f c4 1f 17 3f b3 91 15 3f 3d 32 a1 3e
       0.8721605 0.59032845 0.58425444 0.3148364
0000c0 d1 eb ea be 9a 98 32 3f 57 e7 a5 be 5d 58 86 be
       -0.4588304 0.697641 -0.3240306 -0.2623929
0000d0 72 22 cd be 0a fd 89 3e 1b 90 cd 3e 03 5a 16 3f
       -0.40065342 0.26950866 0.40149006 0.58731097
0000e0 d3 6a 59 3f 2e 36 af 3d 40 29 1b 3e 8f 80 9b be
       0.84928626 0.08555256 0.15152454 -0.3037152
0000f0 ac f1 a5 3e 39 48 f9 3e ac 57 22 bf 31 8c a7 be
       0.32410944 0.48687914 -0.63415027 -0.32724145
000100 fb 86 df bd 12 2c c6 be 8d 27 ec be 4c 1f fa 3e
       -0.10914417 -0.38705498 -0.46123925 0.48852003
000110 39 05 06 3f 26 ef f8 3e a5 08 f2 be 5e b2 11 bf
       0.5235172 0.48619956 -0.4727222 -0.5691279
000120 a9 ff 5b be 81 84 1a 3f ee 10 9e be d6 1c 1e 3f
       -0.21484245 0.60358435 -0.3087229 0.6176275
000130 e5 f1 94 be 14 de 9a 3f 3c 52 8b be fe f8 ea 3d
       -0.290908 1.2099023 -0.27211177 0.11473273
000140 bf c5 55 bf fc 74 eb be 72 3b 0a 3f 63 a9 42 3f
       -0.8350486 -0.4598769 0.53996956 0.76039714
000150 23 1f b5 be 5a bc 69 3e b0 69 16 3f 06 e6 77 3e
       -0.35375318 0.22825757 0.58755016 0.2420884
000160 bc d7 f0 3c 81 01 cc bb 3d 37 b7 be 10 a2 0d 3f
       0.029399745 -0.006225765 -0.3578433 0.5532541
000170 f2 a1 ae 3e 9b 42 86 be df 7e 3f 3f 0f 50 96 3e
       0.3410793 -0.2622269 0.74802965 0.29357955
000180 05 fd df be aa b8 da 3e a1 3d db be 92 3f 4e bf
       -0.43747726 0.42719012 -0.42820457 -0.8056575
000190 5c c3 41 bf d4 b7 d6 3e dc 3d 5e bf c0 3e 83 3e
       -0.7568872 0.41937125 -0.8681314 0.25633812
0001a0 33 cc 0c 3f 64 c7 8c 3e 18 5f 05 3f da 57 e0 3d
       0.54999083 0.27495873 0.52098227 0.10954256
0001b0 e4 32 ce 3e 8b 7e 4b 3f 93 4d f4 3d fe f1 9d be
       0.402732 0.79489964 0.119288586 -0.30848688
0001c0 3b 16 e2 be 0d 22 a1 3e d5 53 5f 3f 0e a7 5c bf
       -0.44157586 0.3147129 0.8723729 -0.86192405
0001d0 09 de 04 3d ab 90 d2 be 6f 62 8f 3f ce 20 94 3d
       0.03243831 -0.41125998 1.1201915 0.072328195
0001e0 3b d0 2d 3e 5d 59 80 be 10 fe a5 bb 5f ac e7 3e
       0.16973965 -0.2506818 -0.005065687 0.45248696
0001f0 24 c5 da 3e 53 e3 1a bf 7b 03 ad 3e b9 47 2b 3f
       0.4272853 -0.6050312 0.33791718 0.66906315
