dataset/models/CAF_Tuveson19_myo/model.pth (torch, 696702 bytes, 14 tensors)

tiles_emb.hidden_layers.0.weight f4 [128, 768]
00000000: ac37 f235 e269 70b8 4ec1 713b 6ca0 bfb7
00000010: 9d9b 84b7 959c c8bb ee94 6bb6 fdfc 6f39
00000020: 3150 db3b 2196 4736 e65a 4fb8 c7f9 a1bb
00000030: fa69 3135 293d 99bb 98cf b7bb b048 2ebb
00000040: a078 4f3b 1001 72b8 d0df f236 f02f 993b
00000050: f28a 1b3a 2bf1 dfba 7b21 f6bb 1cd8 ae37
00000060: bc00 66b8 3f3b dd36 c72d 93b6 f734 e336
00000070: 2c0b 9c37 461d c137 505f c6b6 310c 13ba
00000080: c7b2 57bb 5960 373a d64e 563a 74cd 353b
00000090: caf2 8f3b f09d e037 6439 123b 4bf9 93bb
000000a0: b790 eb3b d298 8038 e7b9 ff3a 8ae2 0839
000000b0: f953 4c37 b1cd c53b 2861 623b 7b2c 5139
000000c0: ff45 cdbb a292 dcba 6e47 5fb8 c05c c7bb
000000d0: 4327 bf36 c600 7b37 1e54 793a 9181 123a
000000e0: 404a 92bb 1710 88b8 ef66 ee3b 4c05 da3a
000000f0: f08a e73b 8ac5 8ab6 5d55 74bb e17d 7bbb
00000100: 84ff 4e36 7216 81bb 904b c33b eb80 c33b
00000110: 9867 6036 bf3d ca36 3f6a f039 c0dc 0e3b
00000120: a97f 863a 6baf 9ebb 1f0c deba 721c c0b6
00000130: dc66 913a 8f1a 25b5 f2a6 1f3b 31d3 ceb6
00000140: e3fe 01bb 5fd9 4fb9 48d3 e539 fedf 8eb6
00000150: c6dc bf39 3c4e 8236 0527 c3b6 d24a 94b7
00000160: 1ac5 a1b6 5b1f 74bb 1bcf b6b7 76fc 563b
00000170: 8e48 8937 84ad deba e441 cabb f563 80ba
00000180: 9fd5 e738 defe 28bb f440 90b7 d45d 9137
00000190: d706 2a3b cb97 d0b6 ce59 2fbb 38c1 3836
000001a0: 3bfc 2c39 3d21 e2bb 6463 b736 738d a7ba
000001b0: 8352 1335 e5b4 0a39 2927 bf37 753c a437
000001c0: 5d42 bfb7 bd2e 5db6 5fd7 8c37 2633 9638
000001d0: 794a 7337 f9f7 36b7 3356 abbb f782 0cb9
000001e0: c731 10b7 18d4 c836 a756 ee3b 5168 bfb7
000001f0: eae4 d43a e547 c637 8f0e 7136 6a08 c7ba
00000200: 1646 b9b6 3dda 32bb dfd4 11b6 344a bfb9
00000210: 9153 4c3b 0222 853a 599a cbbb 497a e936
00000220: 605a 1eb6 9536 c8b7 7e24 003b 106c 63b7
00000230: 76b0 303a 0d1d 44ba d39d be37 b995 59b9
00000240: 1ff2 143a 328d 98bb 9c17 d9bb 4ed2 92b8
00000250: 71cb 9c35 ac26 133b a941 dc39 26e5 89b7
00000260: 0eb9 e63a c5fe 3f3b 71e7 323b 09cb d83b
00000270: 02a7 123a a6eb 2d37 098c 8737 2630 0539
00000280: 98ae a536 78be 39bb f69c 6b3a 302e 89b7
00000290: 78c8 dfb6 3e34 fb36 ccd1 f9b7 2962 d53b
000002a0: 2283 b639 dcc5 c7ba 15d1 b7ba 2d1e 8db9
000002b0: 7e4f b6bb eadf c23b 71b9 3537 102f 15b8
000002c0: 2a7e d6ba 0b6b fdbb d332 b93b d8fe 1cbb
000002d0: 05fe f637 adba abb8 9fe9 a03a a957 bcbb
000002e0: e39e dc3a d5ca 733b c67d cfba 8c70 83b7
000002f0: c18b 4f38 c06b 62b8 3c57 9e38 27e2 a237
00000300: 66fe 1ebb bb64 823a dff5 5e37 a889 5f3b
00000310: 1fc2 5c39 c7b1 833b d1cb 4bbb 6411 a0b7
00000320: 8545 56b6 6dd1 5238 ed3c f838 438e 8bb6
00000330: d5bd c8bb 600f 203a 5ff8 283b 130d c038
00000340: e609 e0bb bee1 f53b 9743 99b7 327f 2239
00000350: c7aa 9c39 6615 c6b9 1f91 3c3b 3935 f0b5
00000360: 9623 0e36 9278 1a37 4366 a838 2226 faba
00000370: 91b2 69b7 b7c1 053b b69e 00b9 1e15 d636
00000380: dc3d af3b fcfa 9c39 f2b5 babb aeae 2eba
00000390: 79d0 e337 bce1 5937 9526 703b ac55 d039
000003a0: 60f2 5436 4ec3 82bb 525b bab7 5092 feb6
000003b0: d59f aa3b d329 233a 30d9 8237 0622 97b8
000003c0: 8b0b 6d37 1f3c b03a 272d aeb7 b40b 73bb
000003d0: ec44 2f36 7084 bc3a 809e 4d37 55d2 dbba
000003e0: bae7 15bb 42b1 ab37 04b0 58bb b7b1 6739
000003f0: 814b b53b 79ed 1fb7 a752 a137 2c82 a83b
1.8046608e-06 -5.731907e-05 0.00368889 -2.2843677e-05 -1.580809e-05 -0.0061221817 -3.5104417e-06 0.00022887062
0.006692909 2.9740697e-06 -4.94373e-05 -0.004943106 6.6091854e-07 -0.0046764803 -0.005609464 -0.0026593618
0.0031657591 -5.7698286e-05 7.238217e-06 0.004674904 0.0005933485 -0.0017085423 -0.0075113154 2.084305e-05
-5.4836957e-05 6.5932104e-06 -4.3862706e-06 6.771293e-06 1.8601851e-05 2.3021024e-05 -5.9119557e-06 -0.00056094216
-0.0032912956 0.0006995253 0.00081751996 0.0027740868 0.0043929564 2.6776426e-05 0.002231204 -0.004515802
0.007188882 6.1319806e-05 0.0019510359 0.00013054363 1.2178899e-05 0.006036483 0.0034542773 0.00019948363
-0.0062644477 -0.0016828368 -5.3233867e-05 -0.0060840547 5.6968142e-06 1.4960946e-05 0.00095111306 0.0005588765
-0.0044644177 -6.487982e-05 0.0072754542 0.0016633659 0.007066123 -4.135717e-06 -0.0037282326 -0.003837459
3.0845122e-06 -0.0039394433 0.0059599355 0.005966296 3.34389e-06 6.0272573e-06 0.00045855527 0.0021799058
0.0010261434 -0.004842689 -0.0016940868 -5.7253574e-06 0.0011093277 -6.150594e-07 0.0024360982 -6.1638643e-06
-0.0019835762 -0.00019822035 0.000438357 -4.258006e-06 0.00036594848 3.8834096e-06 -5.8159953e-06 -1.7677816e-05
-4.8211195e-06 -0.0037250135 -2.1792532e-05 0.0032804287 1.6365459e-05 -0.0016988968 -0.0061724056 -0.0009795415
0.000110547284 -0.0025786678 -1.7196384e-05 1.732904e-05 0.0025944018 -6.216554e-06 -0.0026756409 2.7530605e-06
0.00016497161 -0.006900935 5.4653956e-06 -0.0012783244 5.488184e-07 0.00013228094 2.278721e-05 1.9578476e-05
-2.2799877e-05 -3.2958771e-06 1.678959e-05 7.1620845e-05 1.4501268e-05 -1.0905781e-05 -0.0052287816 -0.00013400229
-8.5946585e-06 5.9851554e-06 0.0072735134 -2.281755e-05 0.0016242538 2.3636918e-05 3.5920273e-06 -0.0015185003
-5.5215887e-06 -0.0027290725 -2.173059e-06 -0.00036485645 0.003117774 0.001015723 -0.006213468 6.958177e-06
-2.359644e-06 -2.3867275e-05 0.0019553 -1.3555415e-05 0.0006740162 -0.00074811355 2.2723258e-05 -0.00020750509
0.0005681831 -0.0046555037 -0.006625129 -7.000995e-05 1.1682115e-06 0.002245347 0.0004201059 -1.6438378e-05
0.0017602758 0.0029296142 0.0027298594 0.0066160006 0.0005594344 1.036647e-05 1.6158463e-05 0.00012701805
4.9377086e-06 -0.0028342288 0.00089879276 -1.635318e-05 -6.6692555e-06 7.4864647e-06 -2.9780807e-05 0.0065119457
0.00034811447 -0.0015241462 -0.0014024103 -0.00026916098 -0.0055636754 0.005947103 1.0831617e-05 -3.55682e-05
-0.0016364504 -0.007733708 0.0056518107 -0.002395561 2.9443772e-05 -8.1886865e-05 0.0012276656 -0.0057477546
0.001683202 0.0037199755 -0.001583033 -1.5668826e-05 4.9482802e-05 -5.398295e-05 7.550276e-05 1.9417215e-05
-0.002426052 0.0009948233 1.32894775e-05 0.003410915 0.0002105315 0.0040189954 -0.0031096826 -1.9081584e-05
-3.192895e-06 5.0262945e-05 0.0001183691 -4.1590843e-06 -0.0061261454 0.00061058067 0.0025782806 9.157709e-05
-0.0068371175 0.007503717 -1.8270495e-05 0.00015496908 0.00029881878 -0.00037781446 0.0028773022 -1.7896883e-06
2.1180363e-06 9.207188e-06 8.029912e-05 -0.0019084851 -1.3929458e-05 0.0020409652 -0.00012266156 6.3801554e-06
0.0053479504 0.00029941637 -0.005697959 -0.00066636025 2.7157586e-05 1.2986766e-05 0.003664409 0.00039736682
3.1731543e-06 -0.0039905673 -2.2215452e-05 -7.586823e-06 0.0052070417 0.0006224189 1.5598343e-05 -7.2065784e-05
1.4128988e-05 0.0013445652 -2.0763442e-05 -0.0037085833 2.611715e-06 0.0014382731 1.2255856e-05 -0.0016771058
-0.0022873715 2.046733e-05 -0.0033063898 0.0002209608 0.0055326824 -9.532429e-06 1.9231184e-05 0.005142471

tiles_emb.hidden_layers.0.bias f4 [128]
00000000: 3a74 c03a 65fb dd3b ce2d efb8 1790 25bb
00000010: a55e dc39 c9ef d739 c70c 0bbb 3b66 9fb9
00000020: 6183 a93a 6f64 e8bb 8527 183a db01 7abb
00000030: 1022 ceb9 1268 2fbb ec08 22b8 764f 25b9
00000040: 0853 f8bb 855b b539 8323 df39 8abb 1bba
00000050: 21b1 f5b9 77da 0ab9 10d6 54bb 76c3 5c3b
00000060: 7e5e 053b 83e1 4239 f883 203b 12dc 3bba
00000070: da05 35ba 5a30 9438 b609 c6bb bc37 013c
00000080: b542 273c 8011 883a 47ef 2fb7 d280 3f3b
00000090: 907d 2b3c e510 a0bb 0ea6 4738 619a 2bbb
000000a0: a4df ec3b 0182 c63b 49f5 bebb 4dc5 86bb
000000b0: a0d2 8bba 71ae 53bb f04c c23b a07e 3b3b
000000c0: 9b09 bb39 215f 9b3b 8470 8e3a c50d 1d3a
000000d0: f9cd df38 3322 1139 3d7b 7836 30d5 fd3a
000000e0: cb92 f838 4868 e738 0f86 f53b d85e 8a3b
000000f0: b6c3 323c 43dc 9f3b 8cee d5bb 6310 4ab8
00000100: c02d 5a3b 03bd 913a cc73 b8b9 b010 843b
00000110: 1e8a d73a 708e 7039 4dd9 073b 7a79 563b
00000120: 5995 8b38 f7ee 633a 10fe 093a 5351 68bb
00000130: f521 f4ba f419 afb9 0318 bd3a 8303 963b
00000140: 9887 a138 ce83 df3b 9de0 a8b7 5c3f 0536
00000150: bb09 6b3a 5911 c1b8 eebd 02ba 7a51 9b3a
00000160: 59f8 f337 753c c13b 4ed7 613a 60bc 43bb
00000170: f03f 553a dba5 7f39 9cdd d83b 98a1 913b
00000180: c2b1 79b9 839c 663a 25d9 1cbb 0540 66bb
00000190: 2d56 82b8 3899 63b8 ea9a 0fbb 3f58 a739
000001a0: 4e0c a13a 2120 cc3a 8d0a 7039 8e0a 85b8
000001b0: 0a78 6fb9 84ed 80ba ebf8 b0bb 9516 213c
000001c0: 2985 ebbb 2f5c bb3a 6cab 353b d8eb 74bb
000001d0: e9b7 ffb9 5e69 e837 3de6 e0b9 fa52 6dba
000001e0: dcac 843b 0a15 803b d584 33ba 9a62 faba
000001f0: 0609 a2bb 3f90 12ba f085 cb39 5665 ba3b
0.0014683076 0.0067743533 -0.0001140494 -0.0025262886 0.00042032186 0.0004118665 -0.0021217333 -0.0003040301
0.0012932831 -0.0070920507 0.0005804229 -0.0038148079 -0.0003931676 -0.0026764912 -3.863212e-05 -0.00015765228
-0.0075782575 0.00034591198 0.00042560333 -0.0005940726 -0.00046862013 -0.0001324209 -0.0032476224 0.003368584
0.0020350511 0.00018585291 0.0024492722 -0.0007166277 -0.0006905474 7.066196e-05 -0.006043638 0.007886823
0.010208775 0.0010381192 -1.0486524e-05 0.002922107 0.010466948 -0.0048848265 4.7599948e-05 -0.0026184546
0.0072288085 0.006057978 -0.00582758 -0.0041128756 -0.001066763 -0.003230002 0.005929582 0.002860941
0.00035674576 0.004741565 0.0010867273 0.00059911265 0.00010671834 0.00013841018 3.7026614e-06 0.0019365903
0.00011852904 0.00011034362 0.0074927877 0.004222732 0.010910919 0.004878552 -0.006528681 -4.8175814e-05
0.003329143 0.0011118952 -0.0003518149 0.0040303096 0.001644436 0.00022941246 0.0020728887 0.0032726214
6.655855e-05 0.00086949713 0.00052639935 -0.0035448864 -0.0018625843 -0.00033397938 0.0014426712 0.0045780553
7.7023346e-05 0.0068211323 -2.0131754e-05 1.9855424e-06 0.00089659885 -9.2061884e-05 -0.0004987408 0.0011849843
2.9083503e-05 0.0058970996 0.0008615152 -0.002986692 0.00081348326 0.00024380481 0.006618215 0.0044443123
-0.0002381271 0.0008797126 -0.002393314 -0.0035133373 -6.2149345e-05 -5.4263714e-05 -0.0021912404 0.0003191847
0.0012286992 0.001557354 0.00022892114 -6.3439e-05 -0.00022837534 -0.000983641 -0.005400767 0.009832044
-0.007187505 0.0014294441 0.0027720584 -0.003737202 -0.00048774414 2.770562e-05 -0.0004289615 -0.0009053197
0.0040489268 0.003908758 -0.00068481016 -0.0019102872 -0.0049449233 -0.00055909524 0.00038818968 0.0056883497

tiles_emb.hidden_layers.2.weight f4 [128, 128]
00000000: 6623 573c cbbf eb3a 1d71 d5bc cbb7 2bbc
00000010: 7b95 50b7 04cb 3a3d 446e af3a f852 36bc
00000020: 8fa8 cabc 3a6c b03b a93b f3bc ee6e debc
00000030: 2d15 1a3b 816b 813b 543d 5c3c aee4 00b8
00000040: f421 373d 9b74 ed39 6c44 06bc b114 383d
00000050: b40a ce3c 6c88 533d 0870 5a3c 55a4 e6b7
00000060: c399 833c 2b05 413c 090a 0c3c 047e 083d
00000070: 81d5 45bd ad8e 3bbd 9cf6 45b7 821c 293d
00000080: d6ad babb b09b 1b3d 82b6 10bd 81ac 0f3d
00000090: e0f5 a1bc a349 763c 2dac 1abb cf33 85b1
000000a0: a934 efbc 58c7 043d 2db4 0b3d c762 c63b
000000b0: 390a 393c c843 8ebc 7cce 28b8 85b6 02bd
000000c0: ebfb 8831 2904 0f3d 5022 9bbc b62f f8ba
000000d0: d07c 3c3c fa79 03bd 4522 803c 3692 71bc
000000e0: b3d3 cc3c 01ad 073c 41bd 1a3c dd94 7fbc
000000f0: be6f abbc 67d3 1b3c aad6 2136 7f10 0db6
00000100: bb4a 093d 3754 233c ee5d 7038 ef35 1d3d
00000110: fa85 ffbc ad24 233c 290d 76bc 174c 0cbd
00000120: a5bd dcbb f4af 1e3b 6db2 2a3d 9a62 3639
00000130: 6e90 013c bd0d cebb 47f1 bd3a 5e62 04b8
00000140: 0da3 42bc a3fe 6abc f44b 073d fc4c ebbb
00000150: 783e feb9 e9cb 46bd ab24 09bd d7cd 1cbd
00000160: 0c54 8b3c 73dc 8c38 1ef6 4d3d 75f9 b838
00000170: 3296 39bb 0b2e 56bb e328 b93b 0fe5 0b3d
00000180: 6f4d dabc 5710 073a abb3 1cbd 5380 f5ba
00000190: 0530 83bc c06d b13c 64fd 173d 37b4 fc3c
000001a0: 3cbd 17b8 b0d2 d33c 449c f6b6 f7b1 78b5
000001b0: 64e0 9bb9 bab1 abbc d770 d7bc b3d7 6cb7
000001c0: 53d8 1f3d 0b44 7e37 3d9d 21bd 86b3 edbc
000001d0: d680 14bb 7457 6a3b bdfb 9a3a 0ed1 f43c
000001e0: f2cf e8bc c9f7 a6bc 3804 22ba ef6e 1fb4
000001f0: 98bf b53a 76f1 47b8 6d9b a4b6 3d5f 1336
00000200: 862f 1c3c a8bf 613c 78f3 f1b6 7679 80b6
00000210: 9779 e53c 1b00 c3b8 e9ab f4b6 a415 a9bc
00000220: c4a7 bfbc d9f4 563d 821c b33c b837 603c
00000230: 53c2 23b6 a5bc d93c d15f 2738 13c6 e43b
00000240: e760 2ebd e832 a23c 67e2 29bd b2a2 c63c
00000250: f810 d13c 3cfa 13bc d43e 15bd cc33 e1b7
00000260: f971 e2bb cdae 92b7 e6a3 83bb 8e93 3e3c
00000270: 6318 9c3c d1de 8dbc 6859 2f3d 3f1c d5bb
00000280: 598b 0ebd c207 d835 83ee f1bc 3085 51bb
00000290: 470e 113d 166b 70bc 3b7b e63c f889 f8bb
000002a0: 50cf 7e3c c264 7f37 f00f 1239 4ccf 653a
000002b0: 4a37 5f3b 7a6a 7d34 2956 ed3c a514 51bc
000002c0: 3089 483d fe55 c2ba 0955 90bc cbd7 a2bc
000002d0: 074b 2136 4630 61ba 0df2 373d 6a08 f2b6
000002e0: bc0a b739 f009 0eb6 8800 31bb ad16 cdb9
000002f0: f3d1 943b f934 06b8 a541 0b3d 9d24 513d
00000300: e1b1 073b 9e0a c73c 4d9e 3cbd be61 e53b
00000310: 5aca f2bc 7085 573d f74e 51bc f181 45bb
00000320: c610 fc3b 7612 5cbc c48b 5fb6 cdb3 273d
00000330: ef7b 54bd 581c ceb8 d714 133d 4882 443d
00000340: d5f6 2d3d 6754 b735 126e 44b6 b49f a333
00000350: 9e8e d6bc de3b d236 bbe3 06bd 33eb f338
00000360: 2adc 333d 55f6 7735 6134 b5bc e17e 7bbb
00000370: 8d66 ab3c 56f8 1dbc f22e fc3c 77bc 1e3c
00000380: 2a0d 243d ad44 beb7 af23 0b3d c93c debc
00000390: 1153 2c3d 633d 24bd bbf9 12bc d1ac 0136
000003a0: 00f9 2fba ee92 813b 9dd7 65ba 8a25 f63c
000003b0: 0567 a1b4 941e e3bc 8486 f6b8 6e69 0f3d
000003c0: 74a3 f63c 92f1 9437 fa4f b8b7 d279 45bd
000003d0: 3dac 073d 035a 1abd 644e 09b6 405a 57bd
000003e0: e52e 3d38 4694 73bc ed21 5437 59fd c53b
000003f0: aac4 2dbd b53d 42bb 7f18 81ba bff2 b73c
0.013130998 0.0017986236 -0.026054913 -0.010480831 -1.243257e-05 0.045603767 0.0013384302 -0.01112818
-0.024738578 0.0053839954 -0.029691534 -0.027152505 0.0023511157 0.003949583 0.013442356 -3.0730553e-05
0.044710115 0.0004529104 -0.008195024 0.044941608 0.025151588 0.051643774 0.013332374 -2.749466e-05
0.01606453 0.011781017 0.008547314 0.033323303 -0.048299316 -0.045790363 -1.1799533e-05 0.041286953
-0.0056969924 0.037990272 -0.035330303 0.035076622 -0.019770563 0.015032205 -0.002360116 -3.8766994e-09
-0.029199915 0.03241667 0.034107376 0.0060542556 0.011293941 -0.017366305 -4.0246625e-05 -0.031912345
3.9867607e-09 0.034916077 -0.01893726 -0.0018935117 0.011504367 -0.032098748 0.015641341 -0.014744332
0.02500329 0.008280993 0.009444536 -0.015599457 -0.020927306 0.009510851 2.411582e-06 -2.102024e-06
0.033518534 0.009968809 5.7307938e-05 0.038381513 -0.031191815 0.009957475 -0.015017786 -0.034252252
-0.0067364746 0.0024213763 0.041674066 0.00017393605 0.00790797 -0.006288259 0.0014491462 -3.1562864e-05
-0.011879695 -0.014342937 0.03303142 -0.007180808 -0.00048493198 -0.048534308 -0.033482235 -0.03828224
0.01700785 6.716782e-05 0.050283544 8.820269e-05 -0.0028318283 -0.0032681252 0.005650626 0.034153994
-0.026648251 0.0005152276 -0.038257282 -0.001873026 -0.016014108 0.021658778 0.037106887 0.030847652
-3.6177444e-05 0.0258573 -7.349563e-06 -9.264617e-07 -0.00029731088 -0.02095877 -0.026298923 -1.4116918e-05
0.039024662 1.5155422e-05 -0.039456595 -0.029016268 -0.00226598 0.0035757693 0.0011824291 0.029884841
-0.028419469 -0.020381825 -0.0006180438 -1.4848386e-07 0.0013866303 -4.7670175e-05 -4.905675e-06 2.1960143e-06
0.009532815 0.013778605 -7.210703e-06 -3.828837e-06 0.02801208 -9.298344e-05 -7.2917796e-06 -0.020640202
-0.023395427 0.0524796 0.02186418 0.013685159 -2.4402004e-06 0.02657921 3.990514e-05 0.00698162
-0.042572882 0.019799665 -0.04147568 0.024247501 0.025520787 -0.0090318285 -0.03643687 -2.684621e-05
-0.0069105593 -1.7485954e-05 -0.004017341 0.0116318595 0.019054597 -0.017318161 0.042809874 -0.0065036113
-0.03480086 1.6095512e-06 -0.029532677 -0.0031970255 0.035414007 -0.014673969 0.028134933 -0.0075848065
0.015552357 1.5222644e-05 0.00013929582 0.00087665464 0.0034060054 2.3601197e-07 0.028971748 -0.01276127
0.048958957 -0.0014826653 -0.017618673 -0.019878289 2.4034541e-06 -0.0008590262 0.044908572 -7.2131415e-06
0.00034912478 -2.1165433e-06 -0.0027008373 -0.00039117542 0.0045416295 -3.1997424e-05 0.03399815 0.051060308
0.002070539 0.024297055 -0.046049405 0.007000177 -0.029637504 0.05261749 -0.012775174 -0.0030137266
0.0076924292 -0.013432136 -3.3310944e-06 0.040942956 -0.051876005 -9.828125e-05 0.035908546 0.04797581
0.042471725 1.3659127e-06 -2.9270345e-06 7.619329e-08 -0.026191052 6.265457e-06 -0.032932024 0.00011630952
0.043911137 9.237313e-07 -0.022119703 -0.0038375186 0.020922923 -0.009641727 0.030784104 0.009688488
0.040051617 -2.2681745e-05 0.033969577 -0.027128594 0.042071406 -0.040097605 -0.008970673 1.932309e-06
-0.0006712824 0.003954283 -0.00087677856 0.030047197 -3.0063543e-07 -0.027724542 -0.000117552496 0.035012655
0.030107237 1.7755465e-05 -2.1971751e-05 -0.04821188 0.033123244 -0.037683498 -2.046022e-06 -0.052576303
4.5104785e-05 -0.014866894 1.2644084e-05 0.0060421643 -0.04242388 -0.002963883 -0.0009849219 0.022454618

tiles_emb.hidden_layers.2.bias f4 [128]
00000000: 469b c9ba 5d69 c83c f27a 353d 026c 2d3d
00000010: f905 153c e23c a0bb 2295 39bd a302 2cbb
00000020: 4821 463c a6c9 133d 6b6d ceba 80d9 c13c
00000030: c8c5 2c3c deda 943c aef2 033c 4060 04bd
00000040: 2916 c7bc f7bb 10bd fdb7 e93c 178f 943c
00000050: a182 f13c 388d 1d3b ace7 483d a805 4d3d
00000060: 0d1e e23a 48e0 103d 420f e5bc 0390 22bd
00000070: 5b08 023b 8ee1 a8bc b1bb 2d3d c9dc 5d3d
00000080: 047b 38bd 9194 12bc 38e0 233d 5305 d7b9
00000090: 0bee 31bb ad4d 3fbd 4590 24bd b30b b4bc
000000a0: fc47 ab3b b249 6a3c 62db 01bd 8a72 f53a
000000b0: 7d76 3a3a 42f3 9e3c 7c0e 5dbc 3ed6 71ba
000000c0: d68b 0bbd 5d16 18bd 3acd fb3b 9f1c db3c
000000d0: 4f25 c9bb 9105 343d 73df b0bc 9b60 cb3c
000000e0: bf94 11bd 4844 57bc 4ccb 143d c5f0 b73c
000000f0: d93e 87bc 318a 0abd 579b a8bc e85f fcbb
00000100: 1fc0 1dbc 899c 82bc 116d 4b3d 4584 e33a
00000110: b081 d73c c775 c8bc ec5f 0dbd 5889 cd3c
00000120: c2ae 903b 6d60 ee3c 201b 12bc feaa b63c
00000130: e6cf 28bd dd8a 9839 c180 85bb 2926 943b
00000140: 6ab1 2a3b 821b 563d 447c af3b 4e10 9bbc
00000150: 2a0f 32bc 5576 1c3d eebc 713c 6a4a 9c3c
00000160: a23d ee3c 5d7f 573a 83d4 0a3d b01c 443d
00000170: dba5 233c 42ba 0abd cf41 ab3b 3b4d 8d3a
00000180: 2d9f d73c edbe 17bd 4426 373d edd7 a5bc
00000190: b288 043d e0c2 3ebd c948 d4bc 8f6e f73c
000001a0: 6903 e9ba bafa 163d ea9e 06b9 5c63 2e3d
000001b0: ca9a 34bd 806a f23c 9ba1 4d3d 1f8b 08bc
000001c0: 4ec3 31bc 4e28 e53c 6b44 ab3c ea57 58bd
000001d0: 2da8 293d b3e0 3ebd 7c72 04bc b5d3 563a
000001e0: 30b0 0c3a ad57 08bd 14be 2b3d bc0e 923b
000001f0: c5db 47bd 5a03 10bd 0fd8 25bd 5054 933c
-0.0015381358 0.024464304 0.044306703 0.042339332 0.009095662 -0.0048900703 -0.04530824 -0.0026246689
0.012092896 0.03608098 -0.0015749162 0.023663282 0.010545202 0.01817077 0.008053465 -0.032318354
-0.024302559 -0.035335507 0.028530115 0.018134637 0.029481234 0.0024040472 0.049049065 0.050054222
0.0017251387 0.03537014 -0.027961377 -0.03968812 0.0019841406 -0.020615365 0.042415325 0.054165635
-0.04503919 -0.008946554 0.040008754 -0.00041011962 -0.0027149941 -0.046704937 -0.04017665 -0.021978235
0.005227087 0.014299797 -0.03170336 0.0018726152 0.0007112993 0.019403104 -0.013492223 -0.0009225345
-0.034068905 -0.037130702 0.007684377 0.026747046 -0.0061384807 0.04395062 -0.021590924 0.024826339
-0.035542246 -0.013138838 0.03632669 0.022453675 -0.01650946 -0.033823196 -0.020581884 -0.0077018626
-0.009628325 -0.015943782 0.04966456 0.0017358145 0.026306957 -0.024470223 -0.034515306 0.025089905
0.004415364 0.029098714 -0.0089176 0.022298332 -0.041213892 0.0002909516 -0.0040741866 0.0045211506
0.0026045688 0.052272327 0.00535539 -0.018928673 -0.010867873 0.038198788 0.014754517 0.019078452
0.029082123 0.0008220578 0.033894073 0.04787892 0.0099882735 -0.033869036 0.005226351 0.0010780463
0.026321018 -0.037047315 0.044714227 -0.020244563 0.032356925 -0.046572566 -0.025913613 0.030204086
-0.0017777506 0.036860205 -0.00012838436 0.042575225 -0.04409293 0.029591799 0.050202947 -0.00833395
-0.010849787 0.02797332 0.020906648 -0.052818216 0.04142015 -0.04660101 -0.008083936 0.0008194999
0.000536683 -0.03328674 0.04192932 0.004457323 -0.048793573 -0.035159446 -0.040489253 0.01798454

attention_layer.att.weight f4 [128, 128]
00000000: 9f9f 223d d395 03bd 9f0e ae2d e931 3fbc
00000010: 399d b93b 9edc e7bb d614 2f3d d779 11bd
00000020: eb73 fa3c a9cc 1e37 db8b b9bc 5096 3c3d
00000030: be53 83bc 3b08 893c a373 2032 2bfa 33bd
00000040: 6766 0c3c 497d 6836 8084 bcbc 0f21 ee3c
00000050: 549c 30bd aa9e edb9 08d9 402f edd2 86bc
00000060: ba62 333c 19e7 c6bc 8660 203d 473f 1a3c
00000070: b142 7e3c e2b6 4faf cd2b 4a3c b612 54bc
00000080: 049c 6d3c 0e1a afbc e195 c33c 79a8 b73c
00000090: a15d aabc 75b5 91bc f459 92b0 6771 443d
000000a0: adf1 11bc d799 94bc 2271 543d 3c5d 2abd
000000b0: 3333 b4bb 6571 80bc f160 8fbc d9b6 cfbc
000000c0: 8dc6 f9bc 67a4 d0b8 6dd8 8bbb 64ac 11bd
000000d0: 35b0 c0ae 263c a338 30a6 f5bc b066 503b
000000e0: 261e abbb 405f c3ba f5bd 0dbd 1ae5 4c3c
000000f0: 0248 d4bc 56c3 343d dcd3 d7bc 1ac4 fc3c
00000100: 183b 9e35 0d6e 323d 05b9 a93c 359f c9b8
00000110: 0793 9bbc 8bb1 48ae b5f4 3a3d dc82 86bc
00000120: 789b 0b3c 2bc1 fdb8 cc80 10bb be1e aa2e
00000130: 70db 33b8 5287 4fba 809a ddbb 8a01 283d
00000140: 9d6c 4caf e9cb 16ba 44bd 2b32 00eb 07b2
00000150: 9f60 663a 11d4 12bd 7d94 612b 5a31 3432
00000160: bdd2 2c3d 1a52 7d3a a399 953b 65d7 723b
00000170: f9b4 01af 9b64 e1bc 6f08 3fbd 6951 e43c
00000180: 6e3b 60bb e1ca a83b 3169 3a2f 3f5b c7bb
00000190: bd02 023d bfde 69bc 4e6c 953c 3e89 f0ba
000001a0: d29d 97b6 8400 3bbd 5326 36ba 6617 23bd
000001b0: 409a 7a3c 30e6 53bd faec 56bd 28df 57bd
000001c0: 44b2 3830 c401 30bd d5de 8bbb 7022 713c
000001d0: 0a7c 843a af3d 6039 9b3c 1db8 1a5d 05bd
000001e0: 5412 16b7 caf2 1e3c 3ce1 65b8 1383 0d3d
000001f0: b49d 46bd a05a 8a39 73a7 b8bc 012f f23a
00000200: eb4f 37bc 29d2 67bc be2b 153d 8508 203c
00000210: 3b77 b7b9 112d 2e3c 7759 26bb 8ae3 30bd
00000220: e729 eeb9 312f cebb eb34 4ebd 38a6 c33c
00000230: 680e 383d 6794 19bb fd1c 86bc ee11 d933
00000240: b8b4 c9bc f60b 05bd cf48 d93c 330e a439
00000250: b69c 63ba 6635 05bd a887 563d 7f3a d039
00000260: 6821 02bd e718 1cbd 7237 65bc ae05 e3bc
00000270: 0ae1 06b2 64e7 a93a 9d36 e2bc 510e 3dbb
00000280: ae41 51bd fbc8 29bd 1393 6730 bd4f a0bc
00000290: c010 533d 073a ccbc d8b2 8b3b a367 113c
000002a0: 81d5 113b 85a6 2a3d cd70 153d 76c3 bd3c
000002b0: 9815 23bc 0910 58bb d620 0e3d 1b84 0c3c
000002c0: 2339 4ebc fd14 3635 2527 0738 7e90 e53c
000002d0: 53db a6af d0ce 94bb fbc5 c93a 3bcb af3c
000002e0: f73c 0dbb 99cd 783c 630c 1d3d 4dda b4bc
000002f0: ce07 ba2e 57dd fabc 711c 41bd ceb1 123c
00000300: 69c8 7f36 dd4d 813b 1d72 f9ba e4e7 083d
00000310: c154 02b9 7758 b9bc f09c 543d 04d4 a4bc
00000320: 7eae 0739 4fab d63c 63fc 9cbc 0b74 463d
00000330: 90fb 163d 95d0 11bc 21bd a1bb ded3 573b
00000340: 9197 43b9 2442 1a3c 4e93 253d 27b2 29bd
00000350: f818 b9bc 7e07 eb3b 04d7 b4bc 0044 353d
00000360: bfdb ad3b f472 87b0 5cac 093d 1094 b8bc
00000370: 5ea8 823c 1a2b 8a2f ed24 90bc dc68 6837
00000380: c391 c53b 5d92 e93b 88c4 febc c18d 1d3c
00000390: 9882 cbb9 a269 65bc fd0e 4cbd a94d 8d38
000003a0: b182 4439 3d18 2dbc 8779 30ba 1778 353c
000003b0: b18b 263c 274e 06bc b553 2abd 897c d43c
000003c0: ebf4 f63c d409 28b0 f462 8838 975b febb
000003d0: 7118 cb3c 5e50 2c3d fea2 3dbd 1c31 06bb
000003e0: 3cfc 933c 0cf5 193d 8132 703b d4fc 433c
000003f0: 0e0f ce3b 3cf4 ae3c 9584 9d3b 3275 823b
0.039703008 -0.032125305 1.9788003e-11 -0.011669614 0.0056644944 -0.00707586 0.04274448 -0.035516586
0.030572852 9.465185e-06 -0.022649696 0.046041787 -0.016031142 0.016727557 9.3395185e-09 -0.04393975
0.0085693365 3.464362e-06 -0.0230124 0.029068498 -0.043117836 -0.00045322377 1.7539403e-10 -0.016458
0.010948831 -0.024280118 0.039154552 0.009414501 0.01551883 -1.8891513e-10 0.0123395445 -0.012943914
0.014502529 -0.021374729 0.023875179 0.022419201 -0.020796599 -0.01778672 -1.0648464e-09 0.04795971
-0.008907718 -0.018139763 0.051865704 -0.04159282 -0.0054992675 -0.01567907 -0.01750228 -0.025355743
-0.030490184 -9.948835e-05 -0.0042677433 -0.035564795 -8.76245e-11 7.783649e-05 -0.029986471 0.0031799488
-0.0052221 -0.0014905706 -0.034604985 0.012505794 -0.025913242 0.0441316 -0.02634614 0.030855227
1.1789116e-06 0.043561984 0.020718107 -9.6140815e-05 -0.018991007 -4.5632425e-11 0.045643527 -0.01641982
0.008520953 -0.000120999604 -0.0022049425 7.736166e-11 -4.2881293e-05 -0.00079165876 -0.0067628026 0.041017093
-1.8592279e-10 -0.0005752431 9.996544e-09 -7.911467e-09 0.00087882014 -0.035846774 8.0142127e-13 1.04886e-08
0.042193163 0.0009663418 0.004565434 0.0037054655 -1.1796776e-10 -0.027513793 -0.046638902 0.02787085
-0.003421511 0.005151138 1.6953973e-10 -0.0060838754 0.031740893 -0.014274298 0.01824012 -0.0018351448
-4.5185234e-06 -0.04565479 -0.000694846 -0.039817236 0.015295565 -0.051733196 -0.052472092 -0.052703053
6.719214e-10 -0.042970434 -0.004268507 0.014717683 0.0010107767 0.00021385284 -3.748816e-05 -0.03255949
-8.944964e-06 0.00970144 -5.480762e-05 0.03454883 -0.04849024 0.00026388932 -0.022540784 0.0018477143
-0.0111884875 -0.014149227 0.03641867 0.009767656 -0.00034993314 0.010630862 -0.0025382915 -0.04318575
-0.00045426117 -0.0062922467 -0.050343435 0.02388297 0.044935614 -0.0023434402 -0.016371245 1.0108111e-07
-0.024622306 -0.03248211 0.026523976 0.00031291097 -0.00086827145 -0.032521628 0.052375466 0.00039716435
-0.03177014 -0.038109686 -0.01399027 -0.02771267 -7.8509945e-09 0.0012962637 -0.027613932 -0.0028847645
-0.051088028 -0.041451436 8.4246315e-10 -0.019569272 0.051529646 -0.024930013 0.004263263 0.008874807
0.0022252502 0.04166271 0.03648453 0.023164492 -0.009953879 -0.0032968542 0.034699284 0.008576418
-0.012586865 6.7830825e-07 3.2222964e-05 0.028023 -3.0351063e-10 -0.0045412555 0.0015394086 0.021459213
-0.002155123 0.015185737 0.03834189 -0.02207675 8.459687e-11 -0.030623121 -0.047146264 0.008953525
3.8114615e-06 0.0039460496 -0.0019031201 0.033424273 -0.0001242934 -0.022625191 0.05190748 -0.020120628
0.00012939607 0.026204733 -0.019163316 0.04845051 0.036861002 -0.0088998275 -0.004935876 0.003293268
-0.00018653112 0.009415183 0.040423684 -0.041429665 -0.022594914 0.007172524 -0.022075184 0.044254303
0.005305737 -9.855214e-10 0.03361164 -0.02253154 0.015949424 2.513268e-10 -0.017595733 1.3852692e-05
0.006029339 0.0071280436 -0.031099573 0.009616316 -0.00038816477 -0.014002236 -0.04981898 6.737869e-05
0.00018740703 -0.010564861 -0.0006731976 0.011075995 0.010165141 -0.008197344 -0.041583735 0.02593829
0.030146083 -6.113201e-10 6.503417e-05 -0.007762383 0.024791928 0.04206883 -0.04629802 -0.0020476049
0.01806461 0.03758721 0.0036651196 0.011962134 0.0062884158 0.021356694 0.004807065 0.003981256

attention_layer.att.bias f4 [128]
00000000: 7723 883c 407f 163d 8ace 1bbd 760d d9bc
00000010: 9521 3e3d 23f4 0bbd 789b 3c3d dbce 8f2e
00000020: 69cc 92bc acac 82bc 2a92 d7bc 54d9 353c
00000030: 1a02 53bd f388 c63c 9075 8dba 0fa9 353d
00000040: 9f95 ebbc 78ec 153d 993a 433d 0f72 923c
00000050: 08d5 1c3d 0d22 efbc f534 153d 512f e9bc
00000060: 98fe 483d 69a2 1c3d fe76 223d 3649 7aba
00000070: d6d1 643c f2b1 c13c 45bd 243d 9ecc ba3c
00000080: ab0d ed3b e24f 94bb 32b3 463d 361e 903c
00000090: 591d 44bc 0527 2ebd 48aa 893c fe9d 2aad
000000a0: f403 0d3d 1711 22bb a2f7 c53b a12d 31bd
000000b0: ef33 a83c c491 6a3c bd5b 78bc b975 153c
000000c0: d6d9 41bd 6e4e b5bb 78ec 81aa 3a4b 38bd
000000d0: f2c0 abbb a3e6 0cba 1cc9 8abc e211 b0b9
000000e0: 4fa5 edbc 45ae 25bd 434d a7bc e929 273b
000000f0: c5c9 e0bc b821 0bbd f1a6 0cbb ae86 b638
00000100: 9efc 5c3c efb8 75bc 25b3 17bd 060e 143c
00000110: fdf5 28bd a2c3 0434 a3b7 b3bb 3bf7 39bd
00000120: f4ea 0fb9 b66c 34bd c8e0 812d 6871 e2bc
00000130: 00f9 8a3c 1df0 83bb a49d 163d a931 25bd
00000140: 196e 1bbd f1d4 f43c 9b70 81bc c3e9 413c
00000150: 02a6 e0bb 5955 243d efef d7ad c566 a62d
00000160: f994 0338 96d8 493d bcf0 f42b 8492 ef3b
00000170: 317b 3a3d 4342 0c3d f0ae fcbc 7366 48bd
00000180: 6ec3 563d 26b3 0abc f818 283c 4a24 9db1
00000190: 27bf 572d b059 28aa 9421 f33b e4d3 fd3c
000001a0: a8e2 243c dfed cfbc c0bb ab3b 706d 23ad
000001b0: b0f9 903c 5cb4 73bb c03c 47bd 876f 2e3d
000001c0: 7f9c 1d2b e7b3 1abd 549b 633c 0fe3 92bb
000001d0: df1d 353b f7f8 3038 7389 223d 3aaf 99bc
000001e0: 84b4 5e31 0028 0aba 3e7f b73c c042 8cbc
000001f0: ce26 18ad 17ac dfbc c601 1732 597c d6b8
0.016618473 0.03674245 -0.038038768 -0.026495676 0.046418745 -0.034168374 0.046046704 6.539632e-11
-0.017919736 -0.015951477 -0.026314814 0.011099178 -0.051515676 0.024235224 -0.0010792483 0.04435068
-0.028757868 0.036602467 0.047663305 0.017876653 0.0382891 -0.029191041 0.036427457 -0.028464945
0.049070925 0.038240824 0.03966426 -0.00095476524 0.013966044 0.023644421 0.040219564 0.022802647
0.0072342954 -0.0045261243 0.048510738 0.01759253 -0.011969888 -0.04251768 0.01680483 -9.6984625e-12
0.034427598 -0.0024729425 0.006041483 -0.043256406 0.020532576 0.01431698 -0.015158591 0.009122306
-0.047326885 -0.005533031 -2.3079086e-13 -0.044993617 -0.0052415067 -0.0005374944 -0.0169416 -0.0003358266
-0.02900949 -0.0404494 -0.020422583 0.0025507158 -0.027439961 -0.033967704 -0.002146181 8.703522e-05
0.013487963 -0.014997705 -0.03703608 0.009036547 -0.041250218 1.2364629e-07 -0.0054845377 -0.045401793
-0.0001372507 -0.044048987 1.4765425e-11 -0.027641967 0.016964436 -0.0040264265 0.03677143 -0.040330563
-0.037946794 0.029886695 -0.015800765 0.011835518 -0.006855727 0.040120456 -2.4549222e-11 1.8917654e-11
3.1371575e-05 0.049278818 1.740406e-12 0.007311167 0.04552764 0.03424288 -0.030845135 -0.04892583
0.05243247 -0.008465564 0.010259859 -4.573427e-09 1.2263779e-11 -1.4952514e-13 0.0074197743 0.030984826
0.010063805 -0.02538198 0.0052408874 -9.289777e-12 0.017697185 -0.003718636 -0.04864192 0.04258683
5.5994787e-13 -0.037769224 0.013892014 -0.004482634 0.0027636213 4.2193537e-05 0.039681863 -0.018760312
3.2407863e-09 -0.00052702427 0.022399541 -0.017121673 -8.648816e-12 -0.027303739 8.78976e-09 -0.00010227477

attention_layer.gate.weight f4 [128, 128]
00000000: d05e 89bc 660e 18ba f8d1 1d3d 6eb3 80bb
00000010: ff3e 653a 2282 8fb9 4d07 6cac ded6 a4bc
00000020: e214 ea3c c054 39bd 0f52 b82b 1daf f7bc
00000030: 07b6 0f30 e732 8039 c36c 3bac a9ca 3b3d
00000040: 8682 f53c 1c5f 6a2b 069d 543d a3db 57bd
00000050: 7ad7 42bd 08f3 8cba 17ae 6ebc 03b6 b739
00000060: 713d 5dbc 32ac 77bc 910f 1e3d 4148 8a3b
00000070: faa8 c3bb f4fd 1138 e27f a6bb eac3 383b
00000080: e186 383d 2d1e 1fbc c521 d4bb c437 fabc
00000090: c403 b63c 718e 413d 0684 c8bc 9c77 2d3d
000000a0: 3179 b03c 5c8c 2cbc 140c 0ebb 8113 23bd
000000b0: 1ab0 bbbb b44b ac2e 0f74 5f3c 76f5 d03b
000000c0: 4332 b03c e018 25bd 4b79 aaac 9ca1 4b3c
000000d0: b705 23bb 8b34 903a 747e a838 cda2 c3b6
000000e0: eae7 243b ca3e 1d3d 0ad0 20bd fcb0 2c3b
000000f0: a227 4fb8 63b4 333c fe37 a72d 76f4 23bd
00000100: 3105 493d b10d 6a3c 2018 373a 47c9 4a3c
00000110: c85d 1e3d dbda 823c 21c1 06bd adce 0abd
00000120: 9fe7 2c3c 7334 263d 472c 8c3b 1fb8 b32c
00000130: 3ce4 2dbc 4e82 053b ebd0 d33a 93cf 26bd
00000140: d1dd 293d d129 23ac ee81 ccbc f07e 84bc
00000150: 818b b4bb 2fef 4bb8 09b4 01bd 71db ac3c
00000160: 0545 abb8 a830 90ba 96ac 07bd 5d0d 233c
00000170: 91aa 04bd da01 bebc 1020 793c 1f2d 8a2c
00000180: dfb7 bb3c 9b00 00ac 87ca d2bc 666f 033c
00000190: 2714 bcbc 4684 87bc 3299 64bc de46 e33b
000001a0: de3c 15bd 71f0 f33c 81c4 c23b deff 20bd
000001b0: f420 61bc 86f2 c93c 502b 373d 0ace 433d
000001c0: 682e 3e3d 9151 0dbd 98ee d93c 5112 39b2
000001d0: 69a0 92bc e6cf a73a a604 043a 3e08 2b3d
000001e0: f633 223d 2854 ee38 c792 debc d214 90bc
000001f0: 3711 49bc 0da2 583a ca0a e1bc bfd4 9ebb
00000200: 74d4 563c 7ced 38bd ab0c 20bd 8dfb 923c
00000210: c4fa ea3b d34b 313c 5cfc 6b3c df28 85bc
00000220: 8d7b 0abd 82fa f03c 933c 1831 b87d 0c38
00000230: ade9 fabc ac48 3c3d 9e89 1a3d 3784 133c
00000240: 773f 573d 0580 3cae 1ad1 15b9 8b7f 31bc
00000250: 9b9d fabb 55eb 7cbc ff7b 3abd 926f c4bb
00000260: d746 09bc d5df 16bd 9c99 dabc bd7d 35bd
00000270: e4db 30bd f3e5 35bd 5d01 2a2f e8e4 903c
00000280: 0643 2b3a 1d28 d2bc 85b0 1c3d 788c 4cbc
00000290: 509a dcb9 51c0 11bd 710b 163c dd79 0a3d
000002a0: b543 ba3c af15 343d 1b98 d32f d963 e23c
000002b0: 28e3 f13c 64a3 9836 7860 e4b7 575b 2b3d
000002c0: 8fa5 7f2e 3946 443d 1d63 afba ea0a 362d
000002d0: 4176 39b2 6e63 15ba 9cfa 7f3c 7add 37b1
000002e0: 04db 95ba 9b2e 9abc 9cc6 03bc 7997 55bd
000002f0: 7637 16bd 863a 593b ff84 faac 874d 91b5
00000300: cb0a 0b36 dbee 902c d5c4 56bd 99da 0abd
00000310: 2d41 273d 64a5 19bb 783a 423c 6f7f d82b
00000320: 3761 ad3c d6cd 0eba 3b22 d8bc 4869 e5ba
00000330: ea64 a2bb b462 3b3c 8d75 6a37 45ad abba
00000340: b82a 9735 0058 56bd 9603 98bc cefa e33b
00000350: 2136 743a c4d8 6a2c 0831 5c3a bac5 17bd
00000360: 5c30 363d 8d05 23b9 c7c9 d93c 9c95 92b9
00000370: 9414 bf3c 6680 a939 7468 903c 9965 472e
00000380: ba78 5ebb 0957 18bc 87ac e5bc 8a94 3e3d
00000390: 416a 353d 75f5 71bc 4722 39bd cbb4 793c
000003a0: 82e4 1d3c 6593 813c 3690 06bd 81d2 0a3d
000003b0: 8a20 17bd c771 112d 086b 4b2d 97bc 1d3d
000003c0: d641 553d 77fd 22ae af90 23bd 2464 28bd
000003d0: 97a5 36bd 30f9 093d f926 2e3c 6f17 26bd
000003e0: 51d4 6538 bee5 09bc 984f a73c 484d d8b9
000003f0: df83 c4b7 dc70 6d3c 6f86 95bb cb0e 1abd
-0.016768843 -0.00058004854 0.03853032 -0.0039276397 0.0008745044 -0.00027372042 -3.354167e-12 -0.020121988
0.02857441 -0.04524684 1.3096762e-12 -0.030234868 5.2281773e-10 0.00024451988 -2.6634673e-12 0.04584757
0.029969465 8.326549e-13 0.05190756 -0.052699696 -0.047568776 -0.0010753581 -0.014567873 0.0003504009
-0.013503418 -0.015116738 0.038589064 0.004220039 -0.0059710713 3.4807206e-05 -0.005081163 0.0028192946
0.045050506 -0.009711784 -0.006473752 -0.03054417 0.022218592 0.047254983 -0.024477016 0.042350397
0.021542164 -0.010531511 -0.002167468 -0.039813522 -0.00572778 7.835102e-11 0.01363851 0.0063769175
0.021508342 -0.040306926 -4.845157e-12 0.012428667 -0.0024875232 0.0011001987 8.034418e-05 -5.8304054e-06
0.0025162646 0.03838996 -0.0392609 0.0026350608 -4.9389557e-05 0.0109683005 1.9010567e-11 -0.040028058
0.049077217 0.014285491 0.0006984491 0.01237709 0.038663656 0.015973499 -0.032899026 -0.033888508
0.01055327 0.040577363 0.004277739 5.1079275e-12 -0.010613497 0.0020371857 0.0016160285 -0.040725302
0.041471306 -2.3186906e-12 -0.024964299 -0.01617381 -0.005509794 -4.862173e-05 -0.031665836 0.021100732
-8.166771e-05 -0.0011000829 -0.033123575 0.0099519165 -0.032389227 -0.023194242 0.015205398 3.9272053e-12
0.022914825 -1.819023e-12 -0.025731338 0.008022165 -0.022958828 -0.016542565 -0.01395254 0.0069359383
-0.036435 0.029777737 0.0059438352 -0.039306514 -0.013740767 0.024651777 0.04471904 0.047803916
0.046430975 -0.034501616 0.026603028 -1.0772582e-08 -0.017898755 0.0012803047 0.0005036093 0.041755907
0.039600335 0.000113644 -0.027169598 -0.017588053 -0.012272171 0.00082638935 -0.027470965 -0.0048471387
0.013112176 -0.045148358 -0.03907458 0.017942214 0.007171007 0.010821301 0.014403429 -0.01625484
-0.033809233 0.029416326 2.2153344e-09 3.3495686e-05 -0.030629003 0.045967743 0.0377289 0.00900369
0.05255076 -4.2859955e-11 -0.00014287644 -0.010833631 -0.0076481826 -0.015436967 -0.04552841 -0.0059947455
-0.008378706 -0.036834557 -0.026684575 -0.044309366 -0.043178454 -0.04440875 1.5461894e-10 0.017687276
0.00065331196 -0.025653893 0.03825428 -0.012484662 -0.00042076642 -0.035583798 0.009158001 0.033807624
0.022737363 0.04396599 3.8488754e-10 0.027635502 0.029527262 4.548974e-06 -2.722464e-05 0.041835155
5.8127333e-11 0.047918532 -0.0013380978 1.0347926e-11 -1.0795305e-08 -0.0005698715 0.015623715 -2.67559e-09
-0.001143307 -0.018821051 -0.008042958 -0.05214641 -0.036673985 0.0033146455 -7.120193e-12 -1.0825905e-06
2.0718896e-06 4.1192444e-12 -0.052433807 -0.033899877 0.04083364 -0.0023444528 0.01185476 1.5383093e-12
0.02116452 -0.0005447542 -0.02638351 -0.001750269 -0.0049558775 0.011437107 1.3974856e-05 -0.0013097903
1.126281e-06 -0.052330017 -0.018556397 0.0069573885 0.0009315927 3.337373e-12 0.000839964 -0.0370538
0.044479713 -0.00015546959 0.026585473 -0.00027958758 0.023325242 0.00032329856 0.017627932 4.5337598e-11
-0.003394647 -0.009298095 -0.028036369 0.046528377 0.044290785 -0.014767994 -0.045198705 0.015240858
0.009637 0.015817354 -0.032852374 0.03389216 -0.036896266 8.267559e-12 1.156298e-11 0.03850993
0.05206474 -3.7059657e-11 -0.039932903 -0.041111127 -0.044591513 0.03368491 0.010629409 -0.04054969
5.479559e-05 -0.008416591 0.020423695 -0.0004125631 -2.3426428e-05 0.01449224 -0.004563145 -0.037611764

attention_layer.gate.bias f4 [128]
00000000: 8916 563d e421 91bb bb27 a6b8 bbc2 f13c
00000010: 2565 5ebb 4ea8 b92c 0a16 bdbc 01b4 e7bc
00000020: 93cd 0a39 814a b3ad 7164 b3bc c750 c2bc
00000030: f319 57bd d793 40bd 771e 2a2d a57c eb2d
00000040: 5017 afbc f70d 89bb 7090 c0bb 0fe2 efbc
00000050: 678a 0dbd 5936 0c3d 81d6 d8ba 7f62 9b3c
00000060: ccdc 6635 eba5 f63c 9782 8e38 d932 15bd
00000070: e023 3cac 04dd f83c 4ba4 503d c80b 233c
00000080: cbdd 863a 3fb8 eebc 6aff 0bbd 96c9 01b6
00000090: 6ac3 98ba 88f8 b3b9 9767 18b6 a8cd 14bd
000000a0: 413d 5437 5961 0434 b311 cfbb f237 093d
000000b0: 0e1c 50ae 3b1a 0db7 0a9b 1fbd 8ae6 1f3c
000000c0: 5fe3 ecbc 913c 0b3c 96c0 62ac 6042 4c3c
000000d0: 6c34 b93c 033e 3dbc 4747 a62e 092e debc
000000e0: 7e6c 4cbd 89dd 2433 1d2d 78bc 82d2 8bbc
000000f0: 5c20 5e3b a551 ccb9 3dea c62d ae83 193d
00000100: 6930 163c 7b53 f1bb 3151 003d 9f15 ccbc
00000110: d99c cc3b fc26 2cbb 6a4c 80bc 1350 9fb9
00000120: 0357 b9bc ba5f 35bd 3816 00bd cf7e 3db7
00000130: a2a0 8c36 9ec1 50bc e94e 1cbd 67a3 d4ba
00000140: 6ab2 2fbd 54ac 103d ffa9 82bc 8d08 0ebd
00000150: 186e 433d c4e6 a82d ff3b 393a 69ae 34bd
00000160: cf00 8ab9 49ae a5aa 6005 d6bc 4e34 493d
00000170: 1aab fd3b 0bba 99ad 77db cb3c 2c71 463c
00000180: f501 313d b0be 7c3c 275b 1b3d 60fd 503d
00000190: f7dc 2b3c b738 31bc dfc7 1bbd 60d4 de2e
000001a0: a6b0 7cbc 4156 3ebd 144b 0dbb 26dc 0cbc
000001b0: 8301 503d 5093 df3c 62ff 843a 3252 553a
000001c0: 1571 a93c 6e75 453d f03d 09bd 3bb2 f0bc
000001d0: 2b69 152b 42a4 00bc 85bc 4abd f47e 96bc
000001e0: 03d4 2abc 258f 76b4 44fe 4fb2 b3d5 8b3b
000001f0: 29e0 553d 2427 803b b7cc 8bbb 98d2 e639
0.052267585 -0.004429089 -7.922897e-05 0.0295118 -0.0033934799 5.276702e-12 -0.023081798 -0.028284075
0.00013237288 -2.038303e-11 -0.02189848 -0.023720158 -0.05251498 -0.04701599 9.670146e-12 2.677176e-11
-0.021373421 -0.004182573 -0.0058765933 -0.029282598 -0.03455582 0.034231517 -0.0016543419 0.018967865
8.600298e-07 0.030108413 6.795412e-05 -0.036425445 -2.6736321e-12 0.030378826 0.050937932 0.009951539
0.0010289488 -0.02914059 -0.03417913 -1.9339836e-06 -0.0011654918 -0.0003432671 -2.2710062e-06 -0.03632894
1.26504465e-05 1.2328873e-07 -0.0063192486 0.03350062 -4.7318642e-11 -8.410362e-06 -0.038966216 0.009759555
-0.028917013 0.008498327 -3.2223438e-12 0.012466997 0.022608005 -0.011550429 7.5614674e-11 -0.02712156
-0.049908154 3.838571e-08 -0.015147475 -0.017068151 0.00338938 -0.00038970742 2.2614017e-11 0.037479095
0.009166815 -0.007364688 0.03132743 -0.024912653 0.0062442836 -0.0026268354 -0.015661437 -0.00030386503
-0.022624498 -0.044280745 -0.03127119 -1.1294803e-05 4.1910253e-06 -0.012741474 -0.038161192 -0.0016223014
-0.04289476 0.035320595 -0.015950201 -0.034676123 0.047712415 1.920187e-11 0.000706613 -0.044111643
-0.00026322014 -2.9430822e-13 -0.02612561 0.049122147 0.007741344 -1.7476706e-11 0.024884922 0.012111943
0.043214757 0.015426323 0.037928727 0.051022887 0.010489694 -0.0108167445 -0.03803241 1.01331166e-10
-0.015422976 -0.046468977 -0.0021559643 -0.008597409 0.05078269 0.027291924 0.0010146911 0.0008137553
0.020683805 0.048207693 -0.033506334 -0.029381862 5.3081384e-13 -0.007851662 -0.049496192 -0.018371083
-0.010426524 -2.2962611e-07 -1.2106799e-08 0.0042674183 0.05221573 0.003910916 -0.0042663473 0.00044025923

attention_layer.w.weight f4 [1, 128]
00000000: 6eaf 16bc 5111 04bd 4ef3 913b 093e d33c
00000010: 0c84 2a3d ac86 203b d84c 41b1 c478 c93c
00000020: 7f9b 573d e8fa b1bc f926 363d 41b7 66bc
00000030: 86a4 ed3c 040a 563d 6969 633b 4ee4 193d
00000040: ce5c cfbc 295d 523d f86f d039 16bb 033d
00000050: 0cd6 52bd 4d3a 283d 0907 27bb ddea f7bb
00000060: 3fbb 47bb 5e70 b0bc a39c 1f3c 2631 593a
00000070: 5d62 2cb1 5826 003d 5da1 203d 318c b22f
00000080: 3cdb 67ba e136 2b3c c0d8 b9ba 855e 15b2
00000090: f441 e3b9 4397 42bd 71ac ddbc 181c 4e3d
000000a0: c442 00bc d814 89bc a283 783b 637a 2e3d
000000b0: 32ec 67bc f1ae 563d 332d 7abc 3155 9bbb
000000c0: 6b89 26bd 5c70 11b1 a5f3 9937 a7c5 8231
000000d0: c0b4 01bd 81d6 31bc 0628 1cbd c343 10bc
000000e0: bea9 4fbb 191f 223d 7580 063d 051b 9c31
000000f0: 2975 1433 94aa e1bb d5fb a1bb 10e5 bd3b
00000100: d52c d63c 2f8d 0039 77af 0d35 9dc1 dc3b
00000110: 91a7 e7bb 0f30 d53a 49ef 99bc 8c61 453d
00000120: e339 d0ba a956 4dbd 651c 37ba 3d39 4a3b
00000130: 49fb aa3c f971 343d 330e b3bc 296d 86b9
00000140: 01da 863c b87d b7bc cef4 7431 f639 0abd
00000150: 3d5b 4a3d d301 1c3d 99ff 05bd 33b1 5630
00000160: e8c2 87bc 828b da35 cf0b 44bd 37d5 f7bc
00000170: 2acb 0837 f792 f9bb 501e 22b6 b6ce a53b
00000180: a85d b0bb 33ac 8abc d95b 923b af18 87bc
00000190: 5d80 2b31 fc98 25b6 2fc9 243d 0c65 6439
000001a0: f5db 8dbc 26d7 53bd f6a8 c3bc d74e 39bd
000001b0: 6419 87b1 0d64 6bb1 65e0 b4b1 5280 aa3c
000001c0: 7fd4 b6b1 b552 3831 6537 163a 204a b935
000001d0: 705f 43bc c749 033d 72c3 db3c 3829 043d
000001e0: 53ee a13c 0b1d 103b eae5 b23c 6c16 093c
000001f0: 32f0 cb3c 1a82 0a3d ddf3 333d 25aa e63b
-0.009197099 -0.032243077 0.004454053 0.025786417 0.041629836 0.0024494333 -2.8128877e-09 0.024593718
0.052638527 -0.021726087 0.04447076 -0.014081777 0.029009115 0.052255645 0.003470028 0.037571244
-0.025312807 0.051358376 0.00039756275 0.03216084 -0.051473662 0.041071225 -0.002548637 -0.0075658397
-0.0030476598 -0.021537956 0.009741935 0.0008285217 -2.5085207e-09 0.031286567 0.039216388 3.2477623e-10
-0.0008844619 0.010450096 -0.0014178976 -8.694433e-09 -0.00043345953 -0.047507536 -0.027059766 0.05031976
-0.007828418 -0.016733572 0.0037920256 0.042597186 -0.014155434 0.05241293 -0.015269565 -0.00474038
-0.040658396 -2.1164146e-09 1.8352477e-05 3.8059684e-09 -0.031666517 -0.010854364 -0.038124107 -0.008805218
-0.0031686868 0.03958044 0.03283735 4.5432693e-09 3.4565492e-08 -0.0068867896 -0.004943351 0.0057951286
0.026144424 0.00012259626 5.278193e-07 0.0067369477 -0.007069536 0.0016264933 -0.018790858 0.04818873
-0.0015886392 -0.050131474 -0.0006985127 0.003085687 0.020871775 0.044054005 -0.021857357 -0.00025639802
0.016461374 -0.022398815 3.5645829e-09 -0.033746682 0.049403418 0.038087677 -0.03271446 7.810456e-10
-0.01657243 1.6282868e-06 -0.047862824 -0.030253036 8.1535345e-06 -0.0076163965 -2.4157525e-06 0.0050600423
-0.0053822584 -0.016927814 0.0044665155 -0.016491262 2.4956741e-09 -2.4675965e-06 0.040230926 0.00021781417
-0.017316798 -0.051718853 -0.023884278 -0.045241203 -3.9319037e-09 -3.4253873e-09 -5.2642e-09 0.020813141
-5.321055e-09 2.6822538e-09 0.00057303003 1.3805147e-06 -0.01192461 0.03205278 0.026826594 0.03226587
0.019766962 0.0021989967 0.021838147 0.008367162 0.024894807 0.03381548 0.043933738 0.007039326

mlp.0.0.weight f4 [128, 128]
00000000: 0afc f43c f519 72b9 be15 51bd 6de2 ef3c
00000010: a69e 812d 12cf 803a d887 933c 2091 1338
00000020: 4328 15bb 64af 3a3c bb21 25bd af48 1737
00000030: 7895 de3a 9fb2 c13c 92b0 20bd 3ca9 c5bc
00000040: ab9b a9b8 7d2d 3bbb 3d64 dc3a f649 83ba
00000050: 6f66 c4bb 3309 fb3c 69bd aa38 a89b 563d
00000060: 45fa d7b4 3615 ecbc c0d6 9dbc d4a4 43bc
00000070: aceb fc3c e114 1e39 d69d ac39 42e4 4a3d
00000080: c6ee 63ba 196c 6c3b cc86 f33c 4df9 e6bc
00000090: 30a9 44bd 73c2 36bc b911 9ebc 3e0a 2f3d
000000a0: 9c58 803a 8aa1 8e3c 8803 5a3c e153 0b3b
000000b0: cf3c 982b 9716 fd3c ac4c e7bb 839d 9f2e
000000c0: d295 c03c 5bb4 c9b2 fcbf 1aac 30ce 4dbd
000000d0: 3581 48ba 0ba4 b4bc 233f 713a b18b cdbc
000000e0: 8f93 fabc 29a4 9439 cc71 6b3c c6b2 f3b3
000000f0: 7b60 e7b9 bad4 20bd 35f8 a3bc df4c 8a3c
00000100: 6ceb b5bc 68e5 a9b7 ad7d eb3b 256f 803c
00000110: 767b 0d3c f478 953c c1d9 22bc dba1 e13b
00000120: d3e6 e13b 41ea 45bd f2ca df3c 5d01 2f3d
00000130: 1570 2bbb 8642 f2bc 97e5 19bd df8e df3c
00000140: ca97 0abb 19f3 23bb 20f2 16ab 9b10 6a3c
00000150: 222d 8aad d04a e6bc 7e39 1db7 3579 243d
00000160: bca6 08bd 238e 183c e5c7 95b9 d9b2 2fb2
00000170: 225a 493c caad 46bd 91f1 4c3c 24c6 38b8
00000180: 795d 802b 593e b63b e9ba 903c d661 0fbd
00000190: 0e16 d32b 9d02 153a 2194 503b dcaa 4abd
000001a0: 867b 1f3d 6ab6 552a 84b1 f827 4914 49bd
000001b0: 37bc d5ba 8fa1 20ae 476b 1cbd 43af 04bb
000001c0: 6e03 a02c 14f5 c03c 532f 0c3c 93ba 7a3b
000001d0: e12f d93b 6a0a 9fbc 1909 0e3d 39f0 0bb8
000001e0: 2239 75bc 2bc2 25af a017 3dbd 07b9 9030
000001f0: 7732 bfb6 76c7 9e37 e666 ae3c 9cc3 49bd
00000200: 58be e8bc d553 64bb acd7 3bbd 42c3 07bb
00000210: fe29 193d e2a5 393a dd25 43bd d448 0d39
00000220: 4e40 a5bc 2ff7 eb3c 7bee 56bd ae0d b2ba
00000230: 4d2f 103d a3aa abb9 df17 573d 95e1 1a3b
00000240: 5907 3ebc 22fa 183d 07e7 80ba 7e0a 86ba
00000250: 49b3 4fbc c679 353d 414f 7dbb cc63 a1bc
00000260: 9f87 95b7 f0a8 3e3c 5a6b e9bc 64c8 2cbd
00000270: 76ab 2e3c 69e3 51bd 6f9f 9f3c 8333 1abd
00000280: 67f3 8a3c f054 e4bc 7cd5 b33c e5ee cf3c
00000290: 6456 cb37 c9fd 42bd 9eb1 843a 1812 85bc
000002a0: ad7f 0b3b eac0 abb9 b55e 83bc 96a7 49bd
000002b0: 57ee 85b6 495e 95b9 0760 02ba e4a1 033d
000002c0: b1ab b83a ae9a 2e3a f59b 48bd 9cc5 a5bc
000002d0: 21d6 13bc cb64 33bd 5127 043d c888 06bc
000002e0: 65e1 673c d6ea 66bc 83e5 89bc 4d5e d33b
000002f0: dbee fdbc d5d1 e03a a40c 6d39 78f4 1b39
00000300: c845 bb3c ecb8 4339 147b cdba dea1 edbb
00000310: e2bc 01bc 62da bbbb da35 9abc 280a 02bd
00000320: 1812 4bbd dbe6 4fbc 73b3 473d 8e8d 0d3d
00000330: 1538 2fbd b209 10bc a222 f63a 2f9e 523d
00000340: bfc6 15bd 96e8 973c 87ef 4c3b 5bb2 90bb
00000350: 6ecb 51bc 5f18 a43c 03e0 e63c 0b15 1cbd
00000360: 62f9 01bd 3bfb 2f3d f3a1 bd3c 98ec 6abc
00000370: 2a2d 353c a04d f03a b23c 293c 9fae 80b9
00000380: 4e31 293c d1d1 113d f7f6 a0ba 0336 3abd
00000390: 6627 7abc a169 bb3c d041 1ebd 7777 5b3c
000003a0: 8b95 983c 07de f5bc 8c74 49ba a0c0 1c3d
000003b0: be53 013d 84e5 893c 3bb6 cbba c2cb 32ba
000003c0: 8b07 1738 7797 57ba 7180 6cb9 1f57 12bd
000003d0: b24d 413b b7ca 7d3a 53b7 fe3c 23eb db3a
000003e0: 9155 023d d288 a03b 0471 10bd b516 55bd
000003f0: 27e1 31bd 62b7 2bbd 89af f1bc 62b2 2cbd
0.029905338 -0.00023088588 -0.051046126 0.029282773 1.4736056e-11 0.0009827337 0.018009111 3.518269e-05
-0.0022759594 0.011394355 -0.04031537 9.017224e-06 0.0016981801 0.023644743 -0.03923089 -0.024128549
-8.0875434e-05 -0.0028561049 0.0016814541 -0.0010016549 -0.0059936563 0.030644035 8.141512e-05 0.05239454
-4.0228966e-07 -0.028818708 -0.01926744 -0.011941154 0.030874096 0.00015075832 0.00032923993 0.04953409
-0.0008694943 0.0036075173 0.029727362 -0.028195048 -0.048012912 -0.011154759 -0.01929556 0.042734377
0.0009792033 0.017411012 0.013306506 0.0021259713 1.0817127e-12 0.03089456 -0.0070587005 7.2584626e-11
0.02350894 -2.3481496e-08 -2.199129e-12 -0.050245464 -0.0007648648 -0.022050878 0.00092028285 -0.025091024
-0.03058794 0.0002835107 0.014370393 -1.1348088e-07 -0.00044131637 -0.03926537 -0.020015815 0.016882358
-0.022206984 -2.0253196e-05 0.0071866126 0.015677998 0.008635392 0.018246152 -0.009939612 0.0068857498
0.0068939715 -0.048319105 0.027318452 0.04272591 -0.0026159335 -0.029572736 -0.03757247 0.027289806
-0.0021147602 -0.0025016724 -5.362672e-13 0.014286186 -1.5708827e-11 -0.028111845 -9.371315e-06 0.040154655
-0.033362135 0.009311232 -0.00028568428 -1.0227006e-08 0.012289556 -0.048505582 0.012508766 -4.405355e-05
9.120891e-13 0.0055616316 0.01766725 -0.035005413 1.4998573e-12 0.00056842883 0.0031826573 -0.04947935
0.03893616 1.8981488e-13 6.902629e-15 -0.04909161 -0.0016306703 -3.652328e-11 -0.038188245 -0.0020246066
4.5478543e-12 0.023554362 0.008556205 0.003825818 0.006628022 -0.019414145 0.034676645 -3.3363907e-05
-0.014967235 -1.5075645e-10 -0.04616511 1.0529967e-09 -5.6981185e-06 1.8927949e-05 0.0212893 -0.049258813
-0.028411075 -0.0034840007 -0.045859978 -0.0020715748 0.037393562 0.00070819084 -0.04764353 0.00013473938
-0.020172264 0.02880439 -0.052473526 -0.0013584399 0.03520136 -0.00032742796 0.052513 0.0023632993
-0.0115984315 0.03734792 -0.0009834477 -0.0010226516 -0.012677022 0.044305585 -0.0038651975 -0.019700907
-1.7825338e-05 0.0116369575 -0.028493572 -0.042183295 0.010660997 -0.051242266 0.019485204 -0.03764678
0.016961766 -0.027872533 0.021952383 0.025382468 2.4239715e-05 -0.04760531 0.0010123735 -0.01624398
0.0021285817 -0.00032759394 -0.01603637 -0.049232088 -3.9914553e-06 -0.00028489743 -0.00049734156 0.032136813
0.0014089254 0.00066606223 -0.048976857 -0.020235829 -0.00902322 -0.043797296 0.032264058 -0.008211322
0.014152859 -0.014094075 -0.016833073 0.0064504505 -0.030997684 0.0017152379 0.0002260679 0.00014873024
0.022860423 0.00018665538 -0.0015676939 -0.007251962 -0.007918568 -0.0057328204 -0.018824507 -0.031747967
-0.049577802 -0.012689318 0.04875512 0.034558825 -0.042778093 -0.008791374 0.0018778632 0.051420387
-0.036566492 0.018543523 0.00312707 -0.004415793 -0.012804849 0.020031152 0.028182989 -0.038106006
-0.03173197 0.0429642 0.023148512 -0.014338635 0.011058131 0.0018333681 0.010329412 -0.00024544165
0.010326697 0.035600487 -0.0012280633 -0.045461666 -0.015268182 0.022877516 -0.038636982 0.013395182
0.018625995 -0.030013097 -0.00076849083 0.03826964 0.031574003 0.016833074 -0.001554198 -0.00068205234
3.600823e-05 -0.0008224169 -0.00022554562 -0.035727616 0.0029495773 0.0009681391 0.031093275 0.001677845
0.031819884 0.0048991228 -0.03526403 -0.05202361 -0.043427613 -0.041922934 -0.029502647 -0.042162307
