dataset/model_tum_seg.pth (torch, 396160 bytes, 3 tensors)

0.0.weight f4 [128, 768]
0	0x3d5cc64b	0.053900044
1	0xbd9a4722	-0.07533099
2	0x3cddc485	0.027071247
3	0xbe12cd70	-0.1433618
4	0x3d46e108	0.04855445
5	0x3daebef8	0.08532518
6	0xbd167399	-0.036731336
7	0xbd23ea15	-0.04001816
8	0x3cf36e91	0.029715808
9	0xbc9ea5f7	-0.019366248
10	0x3c72e024	0.014823947
11	0x3cff0f5e	0.031135257
12	0x3dfe32e9	0.12412054
13	0xbd0ddc4e	-0.034633927
14	0x3d4f71ad	0.05064552
15	0x3dbe5f34	0.09295502
16	0x3cb5ba89	0.022183673
17	0xbc57484e	-0.013139797
18	0x3d7d8bf1	0.061901037
19	0xbdae79de	-0.08519338
20	0x3d4b011b	0.0495616
21	0xbca5098f	-0.02014616
22	0xbce26237	-0.027634723
23	0xbb6c387d	-0.0036044412
24	0xbab48fd8	-0.0013775779
25	0x3ddee9e9	0.108844586
26	0xbb803b58	-0.0039133243
27	0x3d1ac960	0.037789702
28	0xbbe247ef	-0.006905548
29	0x3962c32d	0.00021625748
30	0x3cd78504	0.026308544
31	0x3d6e654f	0.058202084
32	0xbca1cfad	-0.019752348
33	0x3c286572	0.010278093
34	0x3da0f180	0.078585625
35	0x3c81edea	0.015860517
36	0x3d8f6eb4	0.07003537
37	0x3ddda766	0.10822944
38	0xbc74bfd9	-0.014938318
39	0xbd0544b1	-0.032536212
40	0x3dee93b8	0.11649269
41	0x3d6f61d9	0.058442924
42	0xbc647320	-0.013943464
43	0xbe001336	-0.12507328
44	0xbd548222	-0.051881917
45	0xbd071c11	-0.03298575
46	0x3e3c1983	0.18369107
47	0x3d180799	0.03711662
48	0x3c9224f7	0.017839892
49	0xbc6bdab5	-0.014395406
50	0x3c3fe0a2	0.0117112715
51	0xbda2125a	-0.079136565
52	0x3d022a35	0.031778533
53	0x3c5fa6cc	0.013650607
54	0xbd52e407	-0.051486995
55	0x3d4ea52f	0.0504505
56	0x3b9979b9	0.0046837
57	0x3da8b2a5	0.08237199
58	0xbc560e56	-0.013064941
59	0x3bbcd762	0.0057629803
60	0xbc0809db	-0.008303131
61	0xbd1388ed	-0.036019254
62	0xbd9a123f	-0.075230114
63	0xbd12e360	-0.035861373
64	0x3dea0fa2	0.11428763
65	0xbdae90a4	-0.08523682
66	0x3cdee82d	0.02721032
67	0x3c7d54e7	0.015462137
68	0xbc457a01	-0.012053014
69	0xbd6b6b1c	-0.057475194
70	0x3cb3fb0c	0.021970294
71	0xbd4f6cba	-0.0506408
72	0xbced82a5	-0.02899296
73	0x3e13f9c2	0.14450744
74	0xbd7e44d6	-0.062077366
75	0x3da152c3	0.07877114
76	0xbbaf33ae	-0.005346737
77	0x3cdccdf3	0.026953673
78	0xbdd27b51	-0.10277427
79	0xbcc7c305	-0.024384985
80	0xbb46b75b	-0.003032169
81	0x3af2348f	0.0018478798
82	0x3cc640ae	0.024200764
83	0xbc78508a	-0.015155921
84	0xbc84449e	-0.016146
85	0xbc6d9099	-0.014499807
86	0xbe16cfd6	-0.1472772
87	0xbd05246b	-0.032505434
88	0xbd73a47e	-0.059483044
89	0x3cbac02a	0.02279671
90	0xbc528858	-0.01284989
91	0xbd5bb2ae	-0.0536372
92	0xbc44c2f0	-0.012009367
93	0xbc344e6b	-0.011005024
94	0xbcb9c6d3	-0.022677815
95	0xbc302267	-0.01075039
96	0xbc579f13	-0.013160485
97	0xbdb13b43	-0.086538814
98	0x3cc8752f	0.02446994
99	0x3d84388c	0.06456098
100	0x3d7beebb	0.061506968
101	0xbc62c95b	-0.013841952
102	0xbe521a3f	-0.20517825
103	0xbda9fc5e	-0.08300088
104	0x3d9be01a	0.07611103
105	0xbe07cec9	-0.13262476
106	0x3d92d8c4	0.07170251
107	0x3cd48604	0.02594281
108	0x3ce7a0e0	0.028274953
109	0xbbe7a1c2	-0.0070688436
110	0xbcc6e9ce	-0.024281409
111	0x3a282519	0.00064142194
112	0x3d0df78a	0.0346599
113	0xbcc39e6d	-0.023879254
114	0x3d124194	0.03570707
115	0x3dccf9a3	0.10008552
116	0xbca8e783	-0.020618206
117	0xbd531af4	-0.051539376
118	0x3c390f99	0.011295223
119	0x3d270f2f	0.040785965
120	0x3d94b9c6	0.07261996
121	0x3e02e875	0.12783988
122	0xbd4a8f58	-0.04945311
123	0x3d958621	0.07300974
124	0xbdb7a2b1	-0.08966578
125	0xbc5b9b33	-0.013403702
126	0xbe089445	-0.1333781
127	0xbbee3934	-0.0072700027
128	0x3d551301	0.052020077
129	0xbbb2ec7b	-0.0054603196
130	0xbcfa9944	-0.03059066
131	0x3da33538	0.07969135
132	0x3ccf2905	0.025288114
133	0xbb3efe10	-0.0029143132
134	0x3b0c7d11	0.002143685
135	0x3da4dc6a	0.08049853
136	0x3c1dc2f0	0.009628996
137	0xbd1305b8	-0.035894126
138	0xbd8e28b2	-0.06941356
139	0x3cbbdc52	0.022932205
140	0xbd891616	-0.06693666
141	0x3d9e6fee	0.07736193
142	0x3da3844d	0.07984219
143	0xbc563a55	-0.013075431
144	0x3d81ff81	0.06347562
145	0x3d75e6eb	0.060034674
146	0xbd0c0ef9	-0.034193967
147	0xbd1d5db8	-0.038419455
148	0x3ced035f	0.028932272
149	0xbd206974	-0.039163068
150	0xbd175857	-0.03694948
151	0xbd5b3146	-0.053513788
152	0x3d7bd5eb	0.061483305
153	0xbe2d9ee0	-0.16955137
154	0xbd2f3afb	-0.042780858
155	0xbc20d8ae	-0.009817285
156	0x3dbb60fe	0.09149359
157	0x3a02bd4d	0.00049873145
158	0xbcbd9aae	-0.023145046
159	0x3ccddba4	0.025129147
160	0xbc5911a6	-0.013248837
161	0x3cec52e7	0.028848125
162	0xbca7a8b4	-0.020466186
163	0x3c229159	0.009922349
164	0xbe10c33e	-0.14136979
165	0xbd3a4a93	-0.045481276
166	0xbdc200a8	-0.094727814
167	0xbdf62ee8	-0.120206654
168	0xbc1fc463	-0.009751412
169	0xbc04faac	-0.008116405
170	0xbd124f81	-0.035720352
171	0xbe4617ce	-0.19345018
172	0xbb45c80a	-0.0030179047
173	0xbd0f5b23	-0.034999024
174	0x3cf65621	0.030070366
175	0xbd1631d7	-0.036668625
176	0x3caf1e5a	0.021376777
177	0xbc68e209	-0.014214047
178	0x3ceb1f6b	0.028701505
179	0xbcb15bb1	-0.021650167
180	0xbc6bcb9e	-0.014391808
181	0xbc27efb8	-0.0102500245
182	0x3cada233	0.021195507
183	0xbcfd01d9	-0.03088467
184	0xbbd64557	-0.0065390277
185	0xbcdb4612	-0.02676681
186	0x3d3440d2	0.04400713
187	0xbcf806e2	-0.03027672
188	0x3c05c52c	0.008164685
189	0x3cb3626f	0.021897523
190	0xbd00ee9c	-0.031477556
191	0xb98bb9b2	-0.000266505
192	0xbd12003f	-0.035644766
193	0xbc7305be	-0.014832912
194	0xbc8f712d	-0.017510021
195	0x3ba27d04	0.0049587507
196	0xbdc94c40	-0.09828997
197	0x3c88d231	0.01670179
198	0x3d97fd7f	0.074213974
199	0xbd2070cb	-0.039170068
200	0x3cce1554	0.025156654
201	0xbba70b9c	-0.0050978195
202	0xbe0945c9	-0.13405527
203	0x3e1137c1	0.14181425
204	0xbde47ba3	-0.11156394
205	0xbd59ddf3	-0.053190183
206	0xbdd625cd	-0.10456429
207	0x3d170102	0.036866195
208	0x3cea8a25	0.028630326
209	0xbd1d8214	-0.03845413
210	0xbd4646bf	-0.048407312
211	0xbc4cf604	-0.012509827
212	0x3cb21bee	0.021741834
213	0x3d0f8d9e	0.035047166
214	0x3ca3ef5e	0.0200116
215	0x3d33cb65	0.043895144
216	0xbd05995d	-0.03261696
217	0xbcc80dcc	-0.024420641
218	0x3cf6af9e	0.030113038
219	0x3d0b0215	0.033937532
220	0x3d202ea1	0.03910697
221	0x3db97087	0.09054666
222	0x3b44dbe1	0.0030038285
223	0xbd4b4557	-0.049626675
224	0xbd2a4d5d	-0.041577686
225	0xbc1ec2d3	-0.009690004
226	0x3da2acb9	0.079431005
227	0xbd5576ee	-0.052115373
228	0x3c3fc2ec	0.011704188
229	0xbc35168c	-0.011052739
230	0x3db1efc7	0.08688312
231	0x3b38e176	0.0028210557
232	0x3c62845c	0.013825502
233	0x3d2abb4d	0.04168253
234	0xbd4d1f0c	-0.050078437
235	0x3d8b4aaf	0.06801354
236	0x3b395ba1	0.0028283375
237	0xbdcb6ce7	-0.09932881
238	0x3c3ba912	0.011453884
239	0x3c6715e0	0.0141043365
240	0x3d4abe36	0.049497806
241	0x3dbc062e	0.09180866
242	0x3bf71285	0.0075400495
243	0xbd8690cd	-0.06570587
244	0x3d213a97	0.039362516
245	0xbd916b95	-0.07100598
246	0x3e09e3b5	0.1346577
247	0xbda66e0c	-0.081264585
248	0xbc9cb07f	-0.019127129
249	0x3d9f6aaa	0.077840164
250	0xbc12c54d	-0.008958173
251	0x3c863fbe	0.016387817
252	0x3cb73a8c	0.022366785
253	0xbd460026	-0.048339985
254	0x3c3c793b	0.011503513
255	0xbc04ae52	-0.008098202

0.0.bias f4 [128]
0	0x3cdb397f	0.026760815
1	0xbd17aa0b	-0.0370274
2	0x3c5ea7a9	0.013589778
3	0xbd191a2e	-0.037378483
4	0x3d306254	0.043062523
5	0xbbaeea21	-0.005337969
6	0xbbffb892	-0.007803985
7	0xbd1b3772	-0.037894674
8	0xbce915c9	-0.02845277
9	0x3b540517	0.0032351667
10	0xbd0e7190	-0.03477627
11	0xbc82c4ee	-0.015963044
12	0xbd1c4458	-0.038151115
13	0x3c057dfa	0.008147711
14	0xbc453788	-0.012037165
15	0x3c71d53e	0.014760314
16	0x3bd59260	0.0065176934
17	0xbd7fd1ca	-0.06245593
18	0xbd68a7fb	-0.056800824
19	0x3c0f66b6	0.008752516
20	0x3c0c4737	0.008561901
21	0x3bf30d20	0.007417336
22	0x3ce06cfa	0.027395714
23	0xbccfdb0e	-0.025373008
24	0xbb46a85b	-0.003031275
25	0x3b22d905	0.0024848592
26	0x3a0e2a3e	0.00054231647
27	0xbb08fd91	-0.002090309
28	0xbb818737	-0.0039528864
29	0x3c9b07be	0.01892459
30	0xbc899c04	-0.016798027
31	0x3ccb44b0	0.024813026
32	0x3ca906e2	0.020633165
33	0xbcaea5a1	-0.021319212
34	0xbacb0b04	-0.0015490954
35	0x3c8cd3c4	0.017190821
36	0x3c1d24ef	0.009591325
37	0xbab2687c	-0.0013611461
38	0xbce75fdc	-0.028243951
39	0x3d2e5e44	0.042570367
40	0x3d3a6869	0.04550973
41	0xbcc96675	-0.024584988
42	0x3ce81ec4	0.028334983
43	0x3d0c7a52	0.03429634
44	0x3ca4fb02	0.020139221
45	0xbced8ac1	-0.028996827
46	0x3ce8326a	0.028344352
47	0x3ba888ff	0.0051432843
48	0xbd7072db	-0.058703285
49	0xbca3a4a7	-0.019975973
50	0xbc874147	-0.016510619
51	0xbd2ea4f4	-0.04263778
52	0x3b08fefd	0.0020903938
53	0x3c82dfcf	0.01597586
54	0x3d4828c4	0.048867002
55	0x3c5e525a	0.013569439
56	0x3a94060f	0.001129331
57	0x39a39c49	0.00031206224
58	0xbd0c7704	-0.03429319
59	0x3d47d674	0.048788503
60	0xbcac0b38	-0.021001443
61	0x3c99dee7	0.018783046
62	0x3d41b3cd	0.047290612
63	0x3bae613c	0.00532165
64	0xbc44d33f	-0.012013256
65	0xbd227d28	-0.03967014
66	0xbd462ccc	-0.048382565
67	0xbd3efb54	-0.046626404
68	0xbad3234b	-0.0016108541
69	0x3d11aef2	0.03556723
70	0x3ca8a1df	0.020584999
71	0x3ccac877	0.024753792
72	0x3b9cb62d	0.0047824592
73	0x3c1fc0c3	0.009750548
74	0x3cd3cd20	0.025854647
75	0x3bc27e71	0.005935483
76	0xbc9dccfb	-0.019262781
77	0x3c18aaf4	0.009318102
78	0x3d1d5e77	0.038420167
79	0x3d3c1756	0.045920692
80	0x3b12918b	0.0022364582
81	0x3c38cb26	0.011278903
82	0x3c43ab54	0.011942703
83	0x3d3a5b1a	0.045497037
84	0xbd8d5f91	-0.069029935
85	0x3d08a241	0.033357862
86	0x3cffef12	0.031241927
87	0x3cb9dedc	0.022689275
88	0x3d0bc0f2	0.034119554
89	0xb9a7c68d	-0.00032000654
90	0x3bd41c4c	0.0064731
91	0x3cd0b065	0.025474736
92	0xbc7b460f	-0.0153365275
93	0x3d3035e9	0.043020163
94	0x3c7dcefb	0.0154912425
95	0x3d0f4a7f	0.034983154
96	0xba5111ca	-0.0007975368
97	0x3b5fd39a	0.0034153224
98	0x3b9e5bd0	0.0048327222
99	0x3d2ea8e4	0.042641535
100	0x3b94c32b	0.0045398674
101	0xbcf24905	-0.029575834
102	0xbb5c6abc	-0.0033632955
103	0xbcf324c0	-0.02968061
104	0x3c18fba5	0.0093373405
105	0x3c40cee6	0.011768078
106	0x3b61b0c9	0.0034437648
107	0x3caa0028	0.020752028
108	0xbc948d0c	-0.018133663
109	0xbc23789d	-0.009977487
110	0xbcb77c54	-0.022398151
111	0xbd46153a	-0.048360087
112	0x3cb38947	0.021916045
113	0x3c7562ed	0.014977199
114	0xbc8d7aa3	-0.017270392
115	0x3a6d81f3	0.00090601965
116	0xbd28f11f	-0.041245576
117	0x3ce29b4e	0.027661946
118	0xbc419052	-0.011814194
119	0x3d8cef57	0.06881588
120	0x3ccff49c	0.025385194
121	0xbd4e87fe	-0.05042266
122	0xba75e784	-0.0009380507
123	0xbad1ca32	-0.0016005693
124	0x3d6fd084	0.058548465
125	0xbc430546	-0.011903113
126	0x3d0f927f	0.03505182
127	0x3a3e429f	0.0007257852

1.weight f4 [1, 128]
0	0xbe62f7bb	-0.22164814
1	0x3f5f3f95	0.87206393
2	0xbf1d12c8	-0.6135678
3	0x3f55b835	0.834842
4	0xbf1b675d	-0.60704595
5	0x3e078048	0.13232529
6	0xbf52afbf	-0.8229942
7	0x3f43e376	0.7651895
8	0x3f447254	0.7673695
9	0xbe77f347	-0.24213897
10	0x3f372a68	0.7154908
11	0xbf97c77f	-1.1857756
12	0x3fa65b9c	1.2996707
13	0x3e3195cd	0.173423
14	0x3f8f7725	1.1208235
15	0x3db22b5b	0.08699676
16	0xbf75e430	-0.9605131
17	0x3f77a2cc	0.96732783
18	0x3f32c969	0.6983858
19	0x3e0a5191	0.13507678
20	0xbf89b8f4	-1.0759568
21	0xbf0d4b6a	-0.551932
22	0xbe9a8f59	-0.3018749
23	0x3dd654fc	0.10465428
24	0x3de3b8da	0.11119242
25	0x3e2b7dea	0.16747251
26	0x3f57a42d	0.8423489
27	0x3f46337d	0.77422315
28	0x3f8d7a2b	1.1052908
29	0xbf3effad	-0.7460888
30	0x3f8da564	1.1066098
31	0xbf4cf335	-0.80058604
32	0xbf9222ee	-1.141691
33	0x3f8495fb	1.035827
34	0xbf851ad7	-1.0398816
35	0xbf86a700	-1.0519714
36	0xbfa9c680	-1.3263702
37	0xbef0611a	-0.46949083
38	0x3de6f973	0.112780474
39	0xbedc79cc	-0.43061674
40	0xbeeefe21	-0.4667826
41	0x3f2c72de	0.67362773
42	0x3e32df36	0.1746796
43	0xbf0c53a3	-0.5481512
44	0x3ded8b08	0.11598784
45	0x3f51cd3e	0.819538
46	0xbe97a8b3	-0.29620895
47	0xbef5238f	-0.47878692
48	0x3f8507c7	1.0392998
49	0x3f01efaf	0.50756353
50	0x3e089fc7	0.133422
51	0x3f44d621	0.76889235
52	0xbf82448a	-1.0177166
53	0xbf155524	-0.5833304
54	0xbf4bb3eb	-0.7957141
55	0xbf6decf1	-0.9293967
56	0x3e170fba	0.14752093
57	0x3f10b1a7	0.56521076
58	0x3f4a6c96	0.7907194
59	0xbf0437ac	-0.5164745
60	0xbf48acf9	-0.78388935
61	0xbf7b6106	-0.9819492
62	0xbf257960	-0.6463833
63	0x3e56d3f2	0.20979288
64	0x3f0bc002	0.54589856
65	0x3f87607c	1.057632
66	0x3f4b4f54	0.7941792
67	0x3f9d9ad3	1.2312874
68	0xbf98a588	-1.1925516
69	0xbeef7491	-0.4676862
70	0x3f285a0e	0.6576241
71	0x3f7d7ab4	0.99015355
72	0xbee77515	-0.45206514
73	0xbecb0ce7	-0.3965828
74	0x3dd533d5	0.10410277
75	0xbf27bf00	-0.6552582
76	0xbf88aa13	-1.0676903
77	0xbf80b0e0	-1.0053978
78	0xbf89dbab	-1.0770162
79	0xbf2dec3e	-0.679386
80	0xbf871073	-1.0551895
81	0x3eea3dbc	0.45750225
82	0xbf8a6677	-1.081252
83	0xbf9aee01	-1.2103883
84	0x3f98e967	1.1946229
85	0xbef30397	-0.47463676
86	0xbeea7d1f	-0.45798585
87	0xbec36422	-0.38162333
88	0xbf7d726b	-0.9900271
89	0x3ef300c4	0.47461522
90	0xbf4dc418	-0.8037734
91	0x3f6cecd5	0.92548877
92	0xbf173c4e	-0.5907639
93	0xbf0d6d1e	-0.55244625
94	0xbf272d4c	-0.6530349
95	0xbf1e4578	-0.6182475
96	0xbf6430a3	-0.89136714
97	0x3f17cd7d	0.59297925
98	0x3f0bbcc1	0.5458489
99	0xbeee0153	-0.46485385
100	0x3f5c9fef	0.8618154
101	0x3e234a5d	0.15946336
102	0xbf8273d7	-1.0191602
103	0x3f1a42c5	0.6025813
104	0x3dcbeebd	0.09957645
105	0xbf218ef2	-0.6310874
106	0xbf2fef75	-0.6872476
107	0xbf8a0b38	-1.0784674
108	0x3ef3fa33	0.47651824
109	0xbf5afd1a	-0.8554245
110	0x3ef8e1fb	0.4860991
111	0x3f6a2c28	0.9147363
112	0xbf84fe89	-1.0390178
113	0x3f5618cd	0.83631593
114	0x3f294c22	0.66131794
115	0x3f5806b6	0.8438524
116	0x3f326106	0.69679296
117	0xbec68704	-0.38774884
118	0x3e21418b	0.15747659
119	0xbf5a9f15	-0.8539899
120	0xbf4171f7	-0.7556452
121	0x3f46a146	0.77589834
122	0x3e030ffc	0.12799066
123	0x3f40a196	0.7524656
124	0xbf8e5de6	-1.1122406
125	0x3e277b2f	0.16355585
126	0xbf1cbfee	-0.6123036
127	0x3e229cba	0.15880099
