dataset/models/PDAC_Hwang22_Fibro.Adhesive/model.pth (torch, 696702 bytes, 14 tensors)

tiles_emb.hidden_layers.0.weight f4 [128, 768]
0	0xb7e7c0f5	-2.7627199e-05
1	0xbb5619e8	-0.003266925
2	0xbaa16102	-0.0012312236
3	0xbbc4b39e	-0.0060028573
4	0x3848ea48	4.7901907e-05
5	0xba6723ae	-0.00088172674
6	0x3a8a9d64	0.001057547
7	0xbad5d6bb	-0.0016314605
8	0x3b739a97	0.0037171
9	0xb88b9a7d	-6.656812e-05
10	0xbb32b6b0	-0.0027269535
11	0xb7c5434a	-2.3515564e-05
12	0xb75343d4	-1.25923725e-05
13	0xbb279412	-0.0025570435
14	0x3b12aeb4	0.0022381963
15	0x382c50ee	4.1083367e-05
16	0x377e974e	1.5174808e-05
17	0x39b60b36	0.00034722098
18	0x38831e3e	6.2522e-05
19	0xbbf0e183	-0.007351102
20	0x39dcc7b5	0.00042110463
21	0x38f8bfeb	0.00011861309
22	0xb9277b26	-0.00015972237
23	0xbbe259c5	-0.006907674
24	0xba2b5164	-0.00065352605
25	0x3bd7a20d	0.0065805973
26	0xbb73c975	-0.0037198935
27	0xb84ae0f7	-4.8370068e-05
28	0x38bbdc4a	8.957887e-05
29	0xb8c6d614	-9.481251e-05
30	0x3b979320	0.004625693
31	0xb7f48afc	-2.9151786e-05
32	0xb84668da	-4.730453e-05
33	0xbb755faa	-0.0037441053
34	0xbbe0d441	-0.00686124
35	0x3b208721	0.0024494606
36	0xbb87e5ae	-0.004147253
37	0x3b456e57	0.0030125582
38	0xbba6c6e8	-0.0050896294
39	0xb7c5c35e	-2.3575205e-05
40	0xbba0e3f4	-0.0049099866
41	0x38516fbd	4.9933547e-05
42	0x3aadf864	0.0013272879
43	0x3ba08b40	0.0048994124
44	0xbaa43940	-0.0012529269
45	0xbb75dc4b	-0.0037515338
46	0xb95290d0	-0.00020081108
47	0xbbcbc1b7	-0.006218161
48	0xbb9e2aa2	-0.0048268596
49	0xb8517e6e	-4.994723e-05
50	0xbb23450b	-0.002491298
51	0x3ae9b2dc	0.0017829794
52	0x38ada89a	8.280687e-05
53	0xba5df6bc	-0.0008467247
54	0xbbebc2d5	-0.0071948566
55	0x39fc5965	0.0004813179
56	0xb780b1c2	-1.5341564e-05
57	0xb84a2149	-4.8191552e-05
58	0xba923d70	-0.0011157226
59	0xbbbb4b62	-0.0057157734
60	0xb7d313f6	-2.5162455e-05
61	0x38d453db	0.00010124567
62	0x39a62aac	0.0003169378
63	0x3be7659c	0.0070616733
64	0x3a765dd0	0.00093981344
65	0xb8c3a246	-9.3285504e-05
66	0x3bd4c134	0.006492758
67	0x3b4476dc	0.0029978072
68	0xb9ddfffb	-0.00042343125
69	0x3b804fb2	0.0039157504
70	0xbaa34f15	-0.0012459481
71	0xbbf56ceb	-0.0074897907
72	0x375bab72	1.3093335e-05
73	0x3b14aef4	0.0022687288
74	0x39cddff9	0.0003926752
75	0x3791d601	1.7385e-05
76	0x3aaa8916	0.0013010825
77	0xbbc00172	-0.0058595473
78	0x3b81f9f0	0.0039665624
79	0x3bd28486	0.0064244894
80	0x3ae718d9	0.0017631307
81	0x38c960c5	9.6024516e-05
82	0xb6bdf084	-5.6606386e-06
83	0x3bc170d6	0.0059033437
84	0x37e83b6d	2.7684227e-05
85	0x39ee995a	0.00045509153
86	0xb83005b7	-4.1966992e-05
87	0xbb5ce173	-0.0033703714
88	0xbbc05df3	-0.0058705746
89	0xb98f940a	-0.00027385383
90	0xbabc8205	-0.001438201
91	0xba82a7ce	-0.0009968223
92	0xb8c0c738	-9.192381e-05
93	0x38e90524	0.00011111263
94	0x3a19fe55	0.0005874385
95	0xb8b1a056	-8.4698826e-05
96	0x3739c2ff	1.107226e-05
97	0xbb55b552	-0.0032609296
98	0x3b5a4a4b	0.0033308442
99	0x388d5d1e	6.740748e-05
100	0x3605645c	1.9876961e-06
101	0xb8601e1c	-5.3433803e-05
102	0xb9cd94d9	-0.00039211547
103	0x3a9fb1b7	0.00121837
104	0xbb364b13	-0.0027815744
105	0xb9b34d28	-0.00034199026
106	0xbb6bd79a	-0.0035986663
107	0x3b03b780	0.0020098388
108	0xb5d5bfab	-1.5925519e-06
109	0xba08c7c6	-0.0005217757
110	0x3bced750	0.0063122883
111	0x386565ee	5.4692784e-05
112	0xbabf0d26	-0.0014576062
113	0x38a7e2e1	8.00544e-05
114	0x38b24e42	8.502278e-05
115	0xbb96ef11	-0.0046061357
116	0xbbc019ff	-0.005862474
117	0x363a276a	2.7739102e-06
118	0x3880d7e7	6.1437306e-05
119	0xb9d0cafd	-0.0003982409
120	0x3b1fbef2	0.0024375287
121	0xbbc5a54b	-0.0060316673
122	0x3b853c7f	0.0040660496
123	0x3931d4fd	0.0001695938
124	0xb80e1008	-3.387037e-05
125	0x3b69ad5c	0.0035656309
126	0x391cb866	0.00014946013
127	0x3b40a111	0.0029392878
128	0x39f43546	0.00046578998
129	0x3b071dfc	0.0020617237
130	0xba606791	-0.00085603545
131	0xbbf36a1a	-0.00742842
132	0x3aa8fbf8	0.0012892475
133	0x3769c9cd	1.3934868e-05
134	0x3903162d	0.00012501395
135	0x38ae125f	8.3003884e-05
136	0xb80f24b6	-3.4128047e-05
137	0x38509eea	4.9739065e-05
138	0xb9434a60	-0.00018624356
139	0xb7c73886	-2.374897e-05
140	0xbb8658b0	-0.004099928
141	0x37c6ef41	2.371485e-05
142	0xb93dfdb0	-0.0001811895
143	0xb9944562	-0.00028280454
144	0xbb064ae4	-0.0020491416
145	0xbb930427	-0.004486579
146	0x36cd1417	6.111815e-06
147	0xb9cf9561	-0.00039593413
148	0x3b352baf	0.0027644446
149	0xbaa7537f	-0.0012765973
150	0x3b83ca5d	0.0040219263
151	0xb8238566	-3.8986465e-05
152	0xb766a243	-1.3746848e-05
153	0x3a47bb7d	0.00076191855
154	0xbac68366	-0.0015145361
155	0x385499d2	5.0687995e-05
156	0xb7d5ea9e	-2.550083e-05
157	0xb88e3cff	-6.782449e-05
158	0xb8b45b89	-8.6001186e-05
159	0x36aa3e70	5.0736635e-06
160	0x38c75a0a	9.5058305e-05
161	0xbbb68d08	-0.0055710115
162	0x388021b9	6.109797e-05
163	0xbb998540	-0.004685074
164	0x37e00e41	2.6709518e-05
165	0xb8131fda	-3.5077195e-05
166	0xb7a8a222	-2.010266e-05
167	0xb9718f6e	-0.00023036983
168	0xb9bc69f2	-0.0003593709
169	0xb88cddf7	-6.7170644e-05
170	0xbb103035	-0.002200139
171	0x3a5d1d0a	0.0008434808
172	0x3a3bcac8	0.00071637006
173	0x3633b7fa	2.6780167e-06
174	0x3923234f	0.00015558045
175	0x397504e1	0.00023366838
176	0xb8b17dd0	-8.463452e-05
177	0xb8014326	-3.0818534e-05
178	0x3843f66b	4.6721118e-05
179	0xb821e2d5	-3.8596645e-05
180	0x3b70442f	0.0036661734
181	0xb8498483	-4.8045546e-05
182	0xb892b600	-6.995723e-05
183	0xb6687b13	-3.4642333e-06
184	0x38ec28bd	0.00011260945
185	0xb9a5210c	-0.00031495874
186	0xb98d058b	-0.00026897746
187	0xbb23c0b0	-0.0024986677
188	0xba3edb07	-0.00072805624
189	0x38423025	4.6298042e-05
190	0x3787f3a7	1.6206714e-05
191	0xb9e26377	-0.00043180186
192	0x3a5ee3e6	0.00085025874
193	0xbb9c18af	-0.0047636847
194	0x383f13ea	4.5556495e-05
195	0x3a4570e6	0.0007531777
196	0xbb9a4649	-0.0047080857
197	0xb65199d4	-3.1232967e-06
198	0xbab1a4b5	-0.0013553115
199	0x3b49ad9f	0.0030773652
200	0xbaa2254f	-0.0012370738
201	0x3b92c26d	0.0044787438
202	0xbbea3d26	-0.0071484027
203	0x3a247e2c	0.00062749046
204	0xb6e50161	-6.8248924e-06
205	0xb8470719	-4.7451907e-05
206	0x3bf9eb98	0.007626962
207	0x3bde882e	0.006791136
208	0x39067094	0.00012821174
209	0x37a779cb	1.9964666e-05
210	0xb897fa95	-7.2469156e-05
211	0xbbda967c	-0.006670771
212	0xb8e3d663	-0.00010864136
213	0x35ac9931	1.2859583e-06
214	0x3864fe1a	5.4596087e-05
215	0x370b3647	8.297683e-06
216	0x38e3e1c1	0.000108662534
217	0xba4838eb	-0.0007637876
218	0x3b037c13	0.0020062968
219	0x3bbc043b	0.005737809
220	0x3b0260b3	0.0019894063
221	0xbbc35058	-0.0059605055
222	0xbb3e502f	-0.0029039492
223	0xb9244dfe	-0.00015669313
224	0x3bf3d461	0.007441089
225	0x37d178d1	2.4971001e-05
226	0xb7b3bd1e	-2.1426527e-05
227	0x39532cb6	0.00020139184
228	0xbbceb6a1	-0.006308392
229	0xbad62386	-0.0016337491
230	0xb928b3e9	-0.0001608875
231	0xb8b67a2e	-8.701194e-05
232	0x38604296	5.3467775e-05
233	0xb86d33fc	-5.6553617e-05
234	0x3ae168c4	0.001719736
235	0x3798db34	1.8221886e-05
236	0x3978d2a5	0.00023729594
237	0x3bcf0e09	0.006318812
238	0xbbccdc54	-0.006251851
239	0xbbd06941	-0.0063602035
240	0x3bf0689f	0.0073366906
241	0xba72e9c0	-0.0009266399
242	0xb731e687	-1.0603696e-05
243	0x3bc9f712	0.0061634863
244	0x3b36933d	0.0027858757
245	0x3965e10b	0.00021922977
246	0x37f8d3f7	2.9662608e-05
247	0x382b6d5a	4.087142e-05
248	0xb8acde96	-8.243059e-05
249	0x383e6746	4.539571e-05
250	0x3b9b638f	0.004742093
251	0x37943aaa	1.7670292e-05
252	0xb8e551fa	-0.0001093484
253	0xb8ab1980	-8.158665e-05
254	0xb8428459	-4.6376463e-05
255	0x3bebbbbe	0.0071940115

tiles_emb.hidden_layers.0.bias f4 [128]
0	0xba990631	-0.0011674819
1	0x3aebd328	0.0017992007
2	0x3aaf84a3	0.0013390969
3	0xbaba24a4	-0.0014201594
4	0xbbcf44ec	-0.006325355
5	0xba7d6c15	-0.00096672896
6	0xba80ea51	-0.0009835457
7	0x38b218b6	8.492304e-05
8	0x3b05b4c4	0.0020401934
9	0x3aa581a9	0.0012627143
10	0xba84f012	-0.0010142347
11	0xb88f5d7b	-6.8361835e-05
12	0x3afd4982	0.0019324275
13	0x3bf4b019	0.0074672815
14	0xba12964d	-0.00055918546
15	0xbbd20af5	-0.0064099976
16	0xbb9e81e7	-0.004837263
17	0x3bf3fddb	0.0074460334
18	0x390c9b3d	0.00013409271
19	0x3abc0958	0.0014346046
20	0x3be69a13	0.00703741
21	0x3a2b1c1c	0.0006527321
22	0x39f358b0	0.0004641465
23	0xba88e798	-0.0010444997
24	0xb92c29ab	-0.00016418721
25	0x3a1d7463	0.00060064177
26	0x3ad85b39	0.0016506679
27	0xbb373e39	-0.0027960672
28	0xb91265ce	-0.0001396157
29	0x37d9d017	2.5965315e-05
30	0x3a4e59b5	0.0007871644
31	0x38dddd2e	0.00010579299
32	0x3b28438a	0.0025675022
33	0x3aa09a53	0.0012253023
34	0xbb3dc39e	-0.0028955708
35	0xbbcf4b52	-0.0063261176
36	0x3b3c5c06	0.0028741374
37	0xbb05ef87	-0.002043696
38	0xbbb17798	-0.005415868
39	0xba2e74a9	-0.0006654957
40	0xbb3ba016	-0.0028629354
41	0xba156698	-0.00056991866
42	0x3b542d86	0.0032375767
43	0xbbc292bf	-0.0059379037
44	0xbaa6fe9b	-0.0012740673
45	0xbb6aa8f5	-0.0035806273
46	0xbb18163b	-0.002320661
47	0xba9d2d22	-0.00119916
48	0xb9c19678	-0.00036923937
49	0xba92cc64	-0.0011199829
50	0x3ace8594	0.0015756362
51	0x3b7f8795	0.0038990725
52	0xbacc4804	-0.0015585427
53	0xb96fbe9b	-0.00022863822
54	0x3a22e70b	0.00062142377
55	0xb931406b	-0.00016904033
56	0x3ac2769f	0.0014836377
57	0xbb23ed8a	-0.002501341
58	0x39cf1a88	0.00039501884
59	0x3a9d1d65	0.001198691
60	0x39afe26a	0.00033547293
61	0xbbf7bd18	-0.0075603835
62	0x3bf35b02	0.0074266205
63	0xb9edb5a9	-0.0004533951
64	0x3b451b99	0.0030076264
65	0xbbcacb75	-0.0061888047
66	0x3a6ff7e8	0.00091540674
67	0xbb951379	-0.0045494405
68	0x3aebf378	0.0018001636
69	0x3509fda0	5.140555e-07
70	0x3be1de7c	0.0068929773
71	0xbb9bfdd9	-0.0047604856
72	0x3be7a413	0.0070691197
73	0x3af711f5	0.0018849956
74	0xbb8faeec	-0.004384866
75	0x3bdcef64	0.006742405
76	0xb8a6e7fa	-7.958706e-05
77	0x3b023333	0.0019866943
78	0xb79dd6ec	-1.881594e-05
79	0x34aab60b	3.179742e-07
80	0x37bf9cdb	2.2842016e-05
81	0x3933e833	0.00017157271
82	0x3ba6f5af	0.0050952057
83	0xb92f4bd3	-0.00016717547
84	0xb93d9942	-0.00018081538
85	0xb8931670	-7.0136855e-05
86	0x3ae8b902	0.0017755332
87	0xbb3b6d20	-0.002859898
88	0x39aebfc2	0.00033330737
89	0x3bd6322d	0.006536743
90	0xbb1514d3	-0.0022748008
91	0x37932a49	1.7543456e-05
92	0xbadbc63e	-0.0016767455
93	0xbb9d9d48	-0.004810009
94	0x3b2f1139	0.0026713146
95	0xba435091	-0.0007450665
96	0xbb503861	-0.0031771886
97	0x3ad0296a	0.0015881483
98	0xbbdcd58c	-0.006739324
99	0xbbb01b2f	-0.0053743343
100	0xbbda246e	-0.006657175
101	0x3b278e7b	0.0025567103
102	0x3adf057f	0.0017015188
103	0x394d0189	0.00019550895
104	0xba5ab84a	-0.0008343501
105	0xbac20dba	-0.0014805116
106	0x3ac58780	0.0015070289
107	0x3b2f757c	0.0026772907
108	0x3b9d2ae5	0.004796373
109	0xbb9d8368	-0.0048069246
110	0xba109b98	-0.00055163493
111	0x3a1b15b4	0.0005916015
112	0xbbb23a7b	-0.0054391003
113	0x3ba9c76c	0.0051812436
114	0xba87fe23	-0.0010375421
115	0x3b1019b6	0.002198798
116	0xba1c4fd5	-0.00059628236
117	0x38fd6f74	0.0001208474
118	0x38220fd1	3.863854e-05
119	0x39d51598	0.00040642614
120	0xbbabe727	-0.0052460614
121	0x381eee67	3.7892165e-05
122	0x3a3705e1	0.0006981772
123	0x3a97da48	0.0011585439
124	0x390b7185	0.00013298362
125	0x39cd0c86	0.00039109978
126	0x39bc8068	0.00035953824
127	0x38b31110	8.538563e-05

tiles_emb.hidden_layers.2.weight f4 [128, 128]
0	0x3cdd370e	0.027003791
1	0xbc6fc4bb	-0.014634307
2	0x398d4193	0.00026942472
3	0x33d6f998	1.00105524e-07
4	0x3c80efcf	0.01573935
5	0xbd2068a7	-0.039162304
6	0x3cad42cf	0.02115002
7	0xb97444e6	-0.0002329532
8	0x3d33f0db	0.04393087
9	0xbcea1276	-0.028573256
10	0x3d0c89f2	0.034311242
11	0x3a8359a2	0.001002122
12	0xbc03a763	-0.008035514
13	0x38aea25c	8.327208e-05
14	0x3bf5a88e	0.0074969
15	0xbd24c43d	-0.04022621
16	0xbb06a172	-0.0020543006
17	0x3c5b1f10	0.013374105
18	0x3d50aac4	0.050944105
19	0x3ba8b774	0.0051488224
20	0xbd3777d1	-0.044792
21	0x3d3866df	0.04501998
22	0x3bf1ee7a	0.007383165
23	0x3d2c2392	0.04202611
24	0x3837c8fd	4.3817785e-05
25	0xbce35fa0	-0.027755558
26	0xbcea9238	-0.028634176
27	0xbbbb098f	-0.0057079266
28	0xbd207f7a	-0.03918407
29	0x3cf83c50	0.030302197
30	0x3b51d954	0.0032020407
31	0xbb290550	-0.002579052
32	0x3a74639a	0.0009322703
33	0x3a25cff3	0.00063252373
34	0x3cddac34	0.027059652
35	0x3bb18f78	0.005418714
36	0x3d0de4ab	0.034641903
37	0x3d0ab230	0.03386134
38	0x3d1bcb55	0.03803571
39	0xba81cae9	-0.0009902391
40	0x3c8425ff	0.0161314
41	0xbbc91b02	-0.006137253
42	0xbb2e32e2	-0.0026580621
43	0xba113ade	-0.0005540083
44	0x3ca8fd49	0.020628588
45	0xbc7d83ed	-0.015473348
46	0x37728342	1.4454885e-05
47	0xbd526c69	-0.05137292
48	0xb2016846	-7.532497e-09
49	0x3c70cc0a	0.014697084
50	0x3d46c9c0	0.048532248
51	0x3d34c42e	0.044132404
52	0x3afa2ae2	0.0019086266
53	0xbd10157c	-0.03517674
54	0x3bf26a1c	0.007397903
55	0xbd1878ea	-0.037224688
56	0xbc938fd8	-0.018012926
57	0x3c9c1ac4	0.019055732
58	0x3807223e	3.22184e-05
59	0xbd1a43a7	-0.037662175
60	0xbc16a3f8	-0.009194367
61	0x3d441a85	0.047876853
62	0xbbf539b4	-0.0074836854
63	0x3ccf438d	0.025300765
64	0x3d2a0e9b	0.041517835
65	0x3877f0de	5.9113714e-05
66	0xbd2bc639	-0.041937087
67	0xbd47af94	-0.04875143
68	0xbaba9380	-0.0014234632
69	0x3c71fc6d	0.014769656
70	0x3cb03ad2	0.021512423
71	0x37b8ed6e	2.2045071e-05
72	0xbc02fd76	-0.007995
73	0x3bcb42e3	0.006203042
74	0xbd4b0289	-0.049562965
75	0xbd1da161	-0.03848398
76	0x393f34b7	0.00018234817
77	0xba38660e	-0.00070342503
78	0x339303a5	6.845884e-08
79	0xbc11ede3	-0.008906814
80	0x38e7b758	0.00011049089
81	0x3c2cbb3d	0.010542688
82	0x399ccb9a	0.00029906334
83	0xbbd64af3	-0.0065396964
84	0x3d323bec	0.043514177
85	0x3c3bf783	0.011472586
86	0x388632b7	6.399064e-05
87	0xb9102873	-0.00013747979
88	0xba92da72	-0.0011204018
89	0x3d154071	0.03643841
90	0xb4b9c4ff	-3.460227e-07
91	0x3cc98dd4	0.024603762
92	0xbcf7a000	-0.030227661
93	0xbc8905b0	-0.016726345
94	0x37be69d5	2.2699047e-05
95	0xbac9bedc	-0.0015391964
96	0x303ccf43	6.868854e-10
97	0x3d383fc0	0.04498267
98	0xbc7410ea	-0.014896611
99	0x3cfa37be	0.030544158
100	0xbbc52d98	-0.006017398
101	0xbbf4b8c0	-0.007468313
102	0x3bfb1ba9	0.0076632095
103	0x3948d1a0	0.00019151578
104	0xb9b41dea	-0.00034354563
105	0x3d10cb2d	0.035350014
106	0x3ce571d7	0.028008385
107	0x3812e207	3.5019617e-05
108	0xbd0de3c7	-0.034641054
109	0x3d220dd2	0.03956396
110	0xb9bd3506	-0.00036088395
111	0x3cabd00e	0.020973232
112	0x3b3fc769	0.0029263145
113	0x3ba41aed	0.0050080926
114	0x3d10474c	0.035224244
115	0x3cb0ad0e	0.021566894
116	0x3d4f28a6	0.050575875
117	0x3814c9df	3.5473957e-05
118	0xbcd46467	-0.025926782
119	0x3c4a0a2e	0.012331529
120	0x388e00e5	6.771254e-05
121	0x3bebcefd	0.007196306
122	0x3b49f9e2	0.0030819108
123	0x38647150	5.4464967e-05
124	0xbd0634a7	-0.032765057
125	0x3c503d43	0.012709918
126	0xbca5ed7f	-0.020254849
127	0x3c2f4bfe	0.01069927
128	0x3bb4f310	0.0055221394
129	0x3c509fe3	0.012733432
130	0x3c46bb1f	0.012129574
131	0xbbacff06	-0.0052794246
132	0xbbbfbcb1	-0.005851351
133	0xb6b64cf1	-5.43298e-06
134	0xbd492bae	-0.04911392
135	0x3c482cdb	0.012217726
136	0x3ab38413	0.0013695977
137	0x3cc9ff3d	0.02465784
138	0xbce6c5ff	-0.028170584
139	0xbb8fa3e3	-0.0043835505
140	0xb7492517	-1.1989169e-05
141	0x3bf4de9d	0.0074728266
142	0x361a53ce	2.299657e-06
143	0x3d3bd87d	0.045860756
144	0xbc86ba8d	-0.016446376
145	0x39862470	0.0002558562
146	0xbb2df93e	-0.0026546265
147	0xbc622d39	-0.013804727
148	0xbc9e95a7	-0.01935847
149	0x3d253617	0.040334787
150	0x3b3138bb	0.002704187
151	0x3c48cd38	0.012255959
152	0xbd44ef62	-0.048079856
153	0xbbe8110e	-0.007082111
154	0xbd059bc0	-0.032619238
155	0x3c036bbf	0.008021294
156	0xbc144761	-0.009050221
157	0x3932ffdd	0.0001707072
158	0xb644a9b1	-2.930505e-06
159	0xbd03a45b	-0.032139163
160	0xbd0c3655	-0.034231503
161	0xba48eac8	-0.00076643797
162	0x3c26beeb	0.010177354
163	0x3c1eb2c5	0.009686177
164	0xb7a5c68f	-1.9761994e-05
165	0xbd29a97e	-0.041421406
166	0x3cfd16c3	0.030894643
167	0x3cdd4f94	0.027015485
168	0xb4fce7af	-4.710723e-07
169	0x3a8dc2cd	0.0010815501
170	0x3ca8eef0	0.020621747
171	0x3cf06a9e	0.029347714
172	0x3cddb94a	0.027065892
173	0x3c075ba1	0.008261592
174	0xb68017e3	-3.817478e-06
175	0x3bb0c8cf	0.005395032
176	0xbcf063ec	-0.029344521
177	0xbc81bac8	-0.015836135
178	0xbce1688e	-0.027515676
179	0x381b11a5	3.6971313e-05
180	0x3a28665a	0.0006423943
181	0x3d256e63	0.040388476
182	0xbb92223c	-0.0044596475
183	0xb93ca13e	-0.00017989145
184	0x378eccc4	1.702307e-05
185	0x3a9c1fdf	0.0011911354
186	0x3d177560	0.036977172
187	0xbc8f9856	-0.017528694
188	0xbb965789	-0.0045880717
189	0x3d413617	0.047170725
190	0x3af0a026	0.0018358275
191	0xbd2d50e1	-0.04231346
192	0x3c3c56b4	0.011495281
193	0xbd097910	-0.03356272
194	0x3d552b1d	0.05204307
195	0xbc11a90f	-0.008890404
196	0xbad3cd2c	-0.0016159168
197	0xbc754d53	-0.014972049
198	0xb797c51a	-1.8092385e-05
199	0xbc4269df	-0.011866062
200	0xb76c9364	-1.4101013e-05
201	0x3b6a68b7	0.0035767981
202	0xb57b9bc8	-9.373148e-07
203	0xb7accb81	-2.0598762e-05
204	0x37b01708	2.099156e-05
205	0x3b8de4fb	0.004330275
206	0x3c850fe0	0.016242921
207	0xbce8e6bf	-0.02843034
208	0x3afbd665	0.0019213675
209	0xbd2c6400	-0.042087555
210	0x3d2c53ab	0.04207198
211	0x3b18c0c0	0.0023308247
212	0xb5a41922	-1.2226267e-06
213	0x3a47f020	0.0007627029
214	0xb7663446	-1.3721239e-05
215	0xbd0714c9	-0.032978807
216	0x3c3296a1	0.010900171
217	0x3ba97e3c	0.005172519
218	0xbbe99265	-0.0071280473
219	0x3c3547da	0.011064494
220	0x3c26107f	0.010135769
221	0xbd334a20	-0.043771863
222	0xbcad4a54	-0.021153606
223	0x38cb34d1	9.689632e-05
224	0xbd05c265	-0.032656092
225	0xbc0d1c70	-0.008612737
226	0xbcc8a521	-0.024492802
227	0xbb78fbc2	-0.0037991856
228	0xbcca9a32	-0.02473173
229	0x3b938be2	0.0045027593
230	0xb9e78721	-0.00044160432
231	0xb798fead	-1.8238405e-05
232	0x3d13d33a	0.036090113
233	0xb9425e2c	-0.00018536363
234	0x3c95fdd2	0.018309508
235	0xb96e8673	-0.00022747535
236	0xbd425636	-0.0474455
237	0xbcda1755	-0.026622454
238	0x3c4e638a	0.012596974
239	0xb57c46b7	-9.398022e-07
240	0x37960ab2	1.7886374e-05
241	0x3a6b3b2e	0.0008973357
242	0xbbc86cdb	-0.006116492
243	0x3cbf329d	0.023339564
244	0x3bb61b0c	0.0055574235
245	0x3b71d80d	0.0036902458
246	0xbcf4e11e	-0.0298925
247	0xb654c254	-3.1703576e-06
248	0xbd319a17	-0.043359842
249	0xbce372fc	-0.02776479
250	0x3cc75940	0.02433455
251	0xbcb16d29	-0.021658497
252	0x3be3f823	0.0069570704
253	0x3c8c0e68	0.017096713
254	0x3b4e51a9	0.0031481779
255	0xbc9e9b1f	-0.019361077

tiles_emb.hidden_layers.2.bias f4 [128]
0	0xbc6e2eaa	-0.014537493
1	0xbcf155cf	-0.029459862
2	0xbca32a40	-0.019917607
3	0xbcfcca61	-0.03085822
4	0x3d06dd83	0.032926094
5	0x3ac86334	0.0015288354
6	0xbb3fca10	-0.0029264726
7	0xbd24f459	-0.04027209
8	0xbd0e8fd5	-0.034805138
9	0x3bb18023	0.0054168864
10	0xbd07bcdc	-0.033139095
11	0xbc9128f3	-0.017719721
12	0xbc3851d5	-0.011249979
13	0x3c0beb36	0.008539965
14	0x3ac408d7	0.0014956248
15	0x3aa55d4b	0.0012616304
16	0x3d266828	0.040626675
17	0x3ab0b6cc	0.0013482212
18	0xbc4ee53f	-0.012627899
19	0xbca0e967	-0.019642545
20	0x3ce950f5	0.028480986
21	0x3ccd386b	0.025051316
22	0xbb8fd350	-0.004389204
23	0xbd43a6a9	-0.04776636
24	0x3d4fb4f2	0.050709672
25	0xbbce0c45	-0.0062880837
26	0x3cbd73ce	0.023126509
27	0xbd366d7c	-0.044538006
28	0xbbe7c480	-0.007072985
29	0xbc2455e6	-0.010030245
30	0x3c353a74	0.0110613
31	0x3d1b33af	0.037891086
32	0x3a57d4ff	0.0008233338
33	0xbc210033	-0.009826708
34	0x3ca498f8	0.020092472
35	0x3cfc98c7	0.030834569
36	0xbb2b3e63	-0.0026129715
37	0x3c8c40d7	0.017120762
38	0x3a85154a	0.0010153439
39	0xb9d953b1	-0.0004145182
40	0xbb2da1e2	-0.0026494195
41	0xbcb0a718	-0.021564052
42	0x3cbd7d64	0.02313108
43	0x3c027123	0.007961544
44	0x3c95d06d	0.018287862
45	0x3d0660c0	0.03280711
46	0x3c00955d	0.007848111
47	0x3c81ad83	0.015829807
48	0x3bcb251f	0.0061994935
49	0xbc222435	-0.009896328
50	0xbc9b252a	-0.01893862
51	0xbd55b138	-0.052170962
52	0x3c4f1614	0.012639541
53	0xb9b6f8d5	-0.0003489914
54	0xbd2411f8	-0.0400562
55	0xbc0c77a7	-0.008573449
56	0xbd39dbeb	-0.045375746
57	0xbd534bf7	-0.051586118
58	0xbcd23d0d	-0.025663877
59	0x3d397404	0.045276657
60	0xbc5c0d97	-0.013430974
61	0x39a129b5	0.00030739387
62	0x3cb10f46	0.021613728
63	0x3ca34d04	0.019934185
64	0xbc993ed1	-0.018706711
65	0x3d5edadd	0.054407943
66	0xbd44dff7	-0.048065152
67	0x3c95f291	0.018304141
68	0xbcfab4e0	-0.030603826
69	0x3cfa933a	0.030587781
70	0x3d3c8d32	0.04603309
71	0xb6e3094e	-6.7662104e-06
72	0x38979154	7.2273106e-05
73	0xbb1d03ae	-0.0023958492
74	0xbd4ef20c	-0.050523803
75	0x3cc555fe	0.024088856
76	0xbd44a6aa	-0.048010506
77	0xbca69c1d	-0.020338112
78	0x3b616a7a	0.003439574
79	0xbd194c49	-0.037426267
80	0xbd2684f9	-0.040654156
81	0x3cbf96ea	0.023387391
82	0xbb9a500e	-0.0047092503
83	0xbb2860e1	-0.002569251
84	0x3ca530f2	0.02016494
85	0xbd25ed73	-0.040509652
86	0x3c65d75f	0.014028399
87	0x3b5949e7	0.0033155621
88	0xbd3c1a83	-0.04592372
89	0x3d1d8c40	0.03846383
90	0xbbccc226	-0.0062487302
91	0x3d46a768	0.048499495
92	0x3c40d39c	0.011769202
93	0xbb4cb340	-0.003123477
94	0x3cd349d5	0.025792042
95	0x3bd18fae	0.006395302
96	0x3b40caa3	0.0029417656
97	0xbc9fdf4a	-0.019515652
98	0x3c619c56	0.013770184
99	0xbd5ee7bc	-0.054420218
100	0x3cdf83f8	0.027284607
101	0x3c1530e2	0.009105893
102	0xbd464630	-0.04840678
103	0x3b63ebf8	0.00347781
104	0xbd27a316	-0.040927015
105	0xbb6251ee	-0.0034533697
106	0x3d096ed8	0.033552974
107	0x3c833c06	0.016019832
108	0xbc9597ae	-0.018260803
109	0x3c70207b	0.014656181
110	0x3d4fc7a9	0.05072752
111	0x3bc67e04	0.0060575027
112	0xbd55def0	-0.052214563
113	0xbd002e79	-0.03129432
114	0xbaa50a15	-0.0012591506
115	0x3ad4a36c	0.001622302
116	0x3d180065	0.03710975
117	0xbd17f237	-0.03709623
118	0xbb7b0c8f	-0.0038307046
119	0xbc1e6c1e	-0.009669332
120	0xbbfcff06	-0.007720831
121	0x3b9d4406	0.004799369
122	0x3c0726c7	0.008248991
123	0x3d139032	0.036026187
124	0xbd5ad23c	-0.05342315
125	0xbceb5bcd	-0.028730297
126	0xbd760524	-0.060063496
127	0xbd34db57	-0.04415449

attention_layer.att.weight f4 [128, 128]
0	0x3cabd6bb	0.020976415
1	0x3d1dcacb	0.038523477
2	0x3c34c74a	0.011033842
3	0x3d1a457a	0.037663914
4	0x3cb12425	0.02162368
5	0xae14f627	-3.386993e-11
6	0x3cde0bcf	0.02710524
7	0x3c0869b7	0.008325986
8	0x2dc09632	2.1894573e-11
9	0xbbd9d62d	-0.006647846
10	0xba125a1d	-0.0005582886
11	0xba02f679	-0.0004995834
12	0xbb80762e	-0.003920338
13	0xbce31480	-0.027719736
14	0x3d353ff8	0.04425046
15	0x3b83eb49	0.004025851
16	0x3c3a1df3	0.0113596795
17	0xbc957374	-0.018243529
18	0xbb3cb85b	-0.0028796408
19	0x3d431fc3	0.047637712
20	0x39beba32	0.0003637835
21	0x2eaa5d61	7.7472924e-11
22	0xb9970729	-0.000288063
23	0x3cd9e847	0.026600016
24	0x2de4134e	2.5929172e-11
25	0x2d24c059	9.3650305e-12
26	0x3d0035da	0.031301357
27	0xbcc0fb5b	-0.023557356
28	0x3bed1f1e	0.0072363755
29	0x3d397862	0.04528082
30	0x3c145c02	0.0090551395
31	0xbcc17226	-0.023614
32	0x3b42a510	0.0029700436
33	0x3c9cf6db	0.019160679
34	0xbd46c9f0	-0.048532426
35	0xbc0793a2	-0.0082749445
36	0xbb12f07e	-0.0022421177
37	0x2d9c0f3c	1.7741912e-11
38	0xbd0c88a4	-0.03431
39	0xb68d6a7a	-4.214523e-06
40	0x2e1c730b	3.5572472e-11
41	0xbd1566ce	-0.036474995
42	0x3cfbc064	0.030731387
43	0x3d0e33aa	0.03471724
44	0xbb93809d	-0.004501416
45	0x3d3e650a	0.046483077
46	0x3b5e3459	0.0033905713
47	0x2de4bd6b	2.6004717e-11
48	0xac8864b0	-3.876531e-12
49	0x3d339cba	0.043850638
50	0xbcad87e1	-0.021182956
51	0x3d443cd0	0.047909558
52	0x3d0b10e3	0.03395165
53	0xba3ffaa8	-0.00073234225
54	0xb585b7a2	-9.962716e-07
55	0x3d0ec3f5	0.034854848
56	0xbc9a3e60	-0.01882857
57	0x3d41440c	0.047184035
58	0x2eba56ea	8.47374e-11
59	0xbd137676	-0.036001645
60	0xbc051ed3	-0.008125025
61	0xbbb4c3ba	-0.0055164965
62	0xbcc32a94	-0.023824014
63	0xbcff7f06	-0.0311885
64	0x3c186d30	0.009303376
65	0xbccc11d2	-0.024910841
66	0xbb2cd6c9	-0.002637314
67	0x3b80a8b2	0.00392636
68	0x3d058538	0.03259775
69	0x33f43f08	1.1373601e-07
70	0xbc95f1d2	-0.018303785
71	0xbd4fc599	-0.050725553
72	0x3c2b7f97	0.0104674315
73	0xbcacf1db	-0.02111142
74	0xba05b942	-0.0005101153
75	0xbcf18b4d	-0.02948537
76	0xbc2650c2	-0.01015109
77	0x3d3ff89b	0.046867948
78	0x3b57db4f	0.0032937115
79	0xbbf22045	-0.0073891007
80	0x3d12522f	0.035722908
81	0xbd3ddd04	-0.046353355
82	0x3d2c20e4	0.042023554
83	0xba33af30	-0.0006854413
84	0x3cb2d4ef	0.02183005
85	0xbc8e749c	-0.017389588
86	0xbd30e28f	-0.043184813
87	0x3d4bedbc	0.049787268
88	0x3ab93f14	0.0014133179
89	0x3c8bc2e3	0.017060703
90	0xb90b63d4	-0.00013293262
91	0xbcc3d982	-0.023907427
92	0xbcd7b467	-0.02633114
93	0x3c9ece15	0.019385377
94	0x3a968d23	0.0011486154
95	0x3cd335b2	0.02578244
96	0x3d2489ae	0.040170364
97	0x3cc8b773	0.024501538
98	0x3cccf719	0.02502017
99	0xbd4052ab	-0.04695384
100	0x3c03189a	0.008001471
101	0xbd322336	-0.04349061
102	0x3c3b7f75	0.011443962
103	0x387d7e73	6.0437666e-05
104	0xb583a120	-9.807154e-07
105	0x3c9908ed	0.018681014
106	0x3c9c3bf7	0.019071562
107	0xbc33a887	-0.010965473
108	0xbada4cc1	-0.0016654955
109	0xad85e15c	-1.5220429e-11
110	0xb75d1432	-1.3177329e-05
111	0xbab8c69e	-0.0014097278
112	0xbc0253c0	-0.007954538
113	0x3c4e0a98	0.012575768
114	0x2e9c4b66	7.107452e-11
115	0xbb4dc353	-0.003139694
116	0xba1ec893	-0.00060571096
117	0x3c91b23e	0.017785188
118	0xbd4748b3	-0.048653316
119	0x3b67b04d	0.0035352886
120	0x3c19a318	0.0093772635
121	0x3c50fdfb	0.012755866
122	0xbcec54ea	-0.028849084
123	0x3d3fecf0	0.04685682
124	0xae6becad	-5.3643024e-11
125	0xbc611375	-0.013737549
126	0xacf6b88c	-7.0122293e-12
127	0xbb96d53e	-0.004603057
128	0xb64bb8e9	-3.035699e-06
129	0xbd4663eb	-0.048435133
130	0x39bbe460	0.00035837572
131	0xafeb9243	-4.2850176e-10
132	0xbd2606fd	-0.04053401
133	0x2f51d1c6	1.9082966e-10
134	0x3bc89e05	0.006122353
135	0xbd53de86	-0.051725887
136	0xbd488bfd	-0.04896163
137	0x3accaebd	0.0015616041
138	0xbb9f4fed	-0.004861823
139	0xbd4fb3b7	-0.0507085
140	0xbd11286a	-0.035438932
141	0x3d14fb6c	0.036372587
142	0xb5e904dc	-1.7361267e-06
143	0x3c6bb4cc	0.014386367
144	0x3ccdf255	0.025139967
145	0x3c776ef3	0.015102136
146	0xbc3d6a9a	-0.01156106
147	0xba56d1ca	-0.0008194713
148	0x389cb98b	7.47322e-05
149	0xaf8dcad1	-2.579186e-10
150	0xbd160497	-0.03662547
151	0x31cae6db	5.905219e-09
152	0x3c1f808b	0.009735237
153	0xbccfdbb0	-0.02537331
154	0x3d245387	0.04011872
155	0x3c3dfa72	0.011595355
156	0xbc66e33f	-0.014092266
157	0x3c8bef51	0.017081888
158	0xbd1ec180	-0.038758755
159	0x3b3bb524	0.0028641904
160	0xbd142bfb	-0.036174756
161	0x3addb72f	0.0016915555
162	0xbce77b64	-0.02825708
163	0xbb9bbf53	-0.0047530322
164	0xb95810c9	-0.00020605618
165	0xbcba66d7	-0.022754116
166	0x38579a80	5.1403884e-05
167	0xbd0ef758	-0.034903854
168	0x3d1e886e	0.03870433
169	0x2f423a69	1.7664949e-10
170	0xbd0a0f5e	-0.03370606
171	0xbcf2586a	-0.029583175
172	0xaee5d7f4	-1.0452075e-10
173	0xbc61441b	-0.013749148
174	0x3b5e2c5b	0.003390095
175	0x3d2167d9	0.039405677
176	0xbca5a467	-0.020219995
177	0x3b04f543	0.002028779
178	0x3a1942ea	0.0005846458
179	0xbc012aea	-0.007883767
180	0x3d13d09c	0.036087617
181	0xbcd810b4	-0.026375152
182	0x3cbba309	0.02290489
183	0xbd5448b6	-0.051827155
184	0x3c89cd6c	0.016821586
185	0xbbf924f3	-0.0076032816
186	0x3c99abd4	0.018758692
187	0xbcf586fb	-0.02997159
188	0x3c8a8337	0.016908271
189	0x3d35683c	0.04428886
190	0xbb4dabdc	-0.0031382954
191	0xbd40e560	-0.04709375
192	0xbd35b3b3	-0.044360828
193	0x2ee9e0ff	1.06355806e-10
194	0x3d4298bb	0.047508936
195	0xbb86ee39	-0.004117754
196	0xbd13f684	-0.036123767
197	0xbc3a4512	-0.011369007
198	0x3d344ea1	0.0440203
199	0x385e0034	5.2929114e-05
200	0x3c22611b	0.009910847
201	0xbc0c6597	-0.008569143
202	0xbd2dd656	-0.042440735
203	0xbd4c7f91	-0.049926344
204	0x3083a3e5	9.578086e-10
205	0x3c732e46	0.014842575
206	0xbd181b7f	-0.037135597
207	0xbd3ae329	-0.045626793
208	0xaffe6cfd	-4.6279772e-10
209	0xabd6a591	-1.5251568e-12
210	0x3d379376	0.044818364
211	0xaf1ab316	-1.4069843e-10
212	0xbcc07991	-0.023495467
213	0xbd2fbee6	-0.042906664
214	0xbd231bde	-0.039821498
215	0xbd3f5caa	-0.04671923
216	0x3d43372c	0.047660038
217	0x3af7e265	0.0018912075
218	0xbcba425e	-0.022736724
219	0xbb345553	-0.0027516678
220	0x3d4ca831	0.049965087
221	0xbcc8d7be	-0.024516936
222	0xafe60f8f	-4.184781e-10
223	0xbd3cf7de	-0.046134822
224	0x3c19b716	0.00938203
225	0xbb5a5b8c	-0.0033318726
226	0xbc25bfe1	-0.010116548
227	0xbd12b189	-0.035813842
228	0xb213ebde	-8.610156e-09
229	0xbce62ba5	-0.028096983
230	0xbca7e405	-0.02049447
231	0xba45ff9f	-0.0007553044
232	0xbca96b37	-0.020681007
233	0xbccb4f85	-0.024818191
234	0xbc48cbae	-0.012255592
235	0xbc7c2576	-0.015389791
236	0xb8013457	-3.0804742e-05
237	0xb9e532ff	-0.0004371628
238	0xbba7ac2e	-0.005116961
239	0x2ea2ab63	7.3973515e-11
240	0x3c9456fb	0.018107882
241	0x3caf1168	0.021370605
242	0x3d30aea8	0.043135315
243	0x3d45f530	0.048329532
244	0xbc8bf187	-0.017082943
245	0xb8eb1285	-0.00011209123
246	0xbd1aab0a	-0.03776077
247	0xbc84b1f7	-0.016198142
248	0x3d2849b0	0.0410859
249	0x3cd11582	0.025522951
250	0xbcc0d0cf	-0.023537068
251	0x3d17868c	0.03699355
252	0xb20e9179	-8.2985645e-09
253	0xbb16ea46	-0.0023027821
254	0xbd17f67e	-0.037100308
255	0xb044e6df	-7.163247e-10

attention_layer.att.bias f4 [128]
0	0x3d0a5020	0.03376782
1	0x3d295666	0.04134216
2	0xbba2bd8d	-0.004966444
3	0xbd38e140	-0.04513669
4	0x3d4de855	0.050270397
5	0x3bc6c6be	0.0060661724
6	0xbd1b06f9	-0.037848447
7	0xbd2b29c1	-0.041787867
8	0xbd3880f5	-0.045044858
9	0x3d0826f6	0.03324028
10	0x3b6a603b	0.0035762924
11	0xb3b1d748	-8.281364e-08
12	0x3c7f3508	0.0155766085
13	0x3c559029	0.013034859
14	0x3b4765bc	0.0030425629
15	0xbc8d8a63	-0.017277902
16	0xada3ffa4	-1.8644482e-11
17	0x3cc0ed08	0.023550525
18	0xbd402bad	-0.046916652
19	0xbd38353f	-0.044972654
20	0x3cb25776	0.02177022
21	0xbd52922c	-0.05140893
22	0xbca82272	-0.020524237
23	0x3d4659fc	0.04842566
24	0x3cf45bcf	0.029828934
25	0xbd078e29	-0.03309456
26	0x3d53a3a6	0.05166974
27	0xaf0ec51b	-1.2984851e-10
28	0xb9949598	-0.00028340216
29	0x2d3766ea	1.0425197e-11
30	0xbcfc3a5d	-0.030789549
31	0xba460f4f	-0.0007555382
32	0xbd43d690	-0.047812045
33	0xbc7e97f1	-0.015539155
34	0xbafff7ea	-0.001952884
35	0xbd2546b2	-0.040350623
36	0xb8c87a44	-9.559517e-05
37	0xbcf46207	-0.0298319
38	0xbc4bada0	-0.012431532
39	0x3d4458c0	0.0479362
40	0x3d01fcfe	0.031735413
41	0xbc9d3ee2	-0.019195024
42	0xbcf71ca8	-0.030165032
43	0x3d18bb5e	0.037288062
44	0xbd14d780	-0.03633833
45	0x3cdb70a2	0.026787106
46	0x2ec2ed68	8.8642704e-11
47	0x3c5ab894	0.013349671
48	0xbb09060d	-0.0020908148
49	0x3d07b9e2	0.033136256
50	0xbd3920bc	-0.045197234
51	0x3d2c05e9	0.041997824
52	0x398654fe	0.00025621796
53	0x3d49be47	0.04925373
54	0x3af0e28d	0.0018378064
55	0x3d2bd6e9	0.041953
56	0x2cdbda79	6.2486097e-12
57	0x3ccdf6b6	0.025142055
58	0xbc8f43ac	-0.017488323
59	0xb0aadf71	-1.2432634e-09
60	0xbbd7d437	-0.0065865773
61	0x2e6602c3	5.2298398e-11
62	0xbcd5fc4e	-0.026121285
63	0xbd466a4b	-0.048441213
64	0x3c46e89e	0.012140421
65	0xbd17f024	-0.03709425
66	0xbc889610	-0.016673118
67	0x3d4d9397	0.05018958
68	0xb408058a	-1.2668002e-07
69	0x2df9b815	2.8389771e-11
70	0x3b83f5a4	0.0040270854
71	0xb199631a	-4.4641526e-09
72	0xbc1c6e3d	-0.009547767
73	0xaf825099	-2.370413e-10
74	0x3c6a1f17	0.014289639
75	0x3d343bd6	0.044002376
76	0xae195fa4	-3.487312e-11
77	0xbc737d0d	-0.014861357
78	0xbd06ece8	-0.032940775
79	0xbd5569ad	-0.052102733
80	0xbd36a05f	-0.044586536
81	0xbcf9cff0	-0.03049466
82	0x3d288488	0.041142017
83	0xbcc65997	-0.024212642
84	0xbb971a19	-0.0046112654
85	0x3c24dccf	0.0100624105
86	0x3d2de479	0.042454217
87	0x3c0fb08c	0.008770119
88	0x364fb083	3.0948147e-06
89	0xba19e0b8	-0.00058699725
90	0xb73c74b9	-1.123285e-05
91	0x3c9410a7	0.018074347
92	0x3b95e152	0.0045739794
93	0x3ce8f56d	0.02843734
94	0xbc5fafe9	-0.01365278
95	0xbcbf098a	-0.023319978
96	0xab4bb33a	-7.2368815e-13
97	0xbbcb773a	-0.0062092813
98	0xbcfc8a16	-0.030827563
99	0xbd31d68f	-0.04341751
100	0x3d4340a3	0.047669064
101	0xb78e378b	-1.6953583e-05
102	0xbc7d3fea	-0.015457133
103	0xb44821df	-1.8638774e-07
104	0xbcc51aaa	-0.024060566
105	0x3ce14cbb	0.027502408
106	0xb9266a3d	-0.0001587057
107	0xac977c4d	-4.3054783e-12
108	0xbcd3f1c7	-0.025872124
109	0x3cd19d2a	0.025587637
110	0x2f9d2c33	2.858954e-10
111	0xbc6feb9b	-0.014643575
112	0xbc39243b	-0.011300142
113	0x3c2b7753	0.010465461
114	0x3d1910a2	0.037369378
115	0xbc036dbb	-0.008021767
116	0xbc3bf651	-0.011472301
117	0xbd01d083	-0.031692993
118	0x3c7b9bb8	0.01535695
119	0x3c3072e1	0.010769577
120	0xbb208756	-0.002449473
121	0x3c01212e	0.007881446
122	0xb04ba165	-7.4080325e-10
123	0x3ac3acf7	0.0014928867
124	0x3d521f37	0.0512993
125	0xb7f3985b	-2.9038803e-05
126	0x3cf69c98	0.030103967
127	0xbc4f48c5	-0.012651627

attention_layer.gate.weight f4 [128, 128]
0	0x3cb49389	0.022043006
1	0xbafefd13	-0.0019454084
2	0xbd28f3c8	-0.041248113
3	0xb9a55259	-0.00031532606
4	0xbc455587	-0.012044317
5	0xb9211c63	-0.00015364731
6	0xac42af57	-2.7666391e-12
7	0xb217d1c8	-8.8370555e-09
8	0xbba202c3	-0.004944177
9	0xbd21d06f	-0.03950542
10	0xac160d6c	-2.1323733e-12
11	0x3cfadba6	0.030622315
12	0xbcf065ca	-0.029345412
13	0x3d4b12e8	0.049578577
14	0xab543370	-7.5388914e-13
15	0xbcff146d	-0.03113767
16	0xbb9a159d	-0.0047022835
17	0x2f297e2b	1.5415284e-10
18	0xbc28620a	-0.010277281
19	0x3ccb6dcc	0.024832629
20	0x3d498c22	0.049205907
21	0xbbc168ec	-0.0059024002
22	0xb935f979	-0.00017354441
23	0xbc18db2b	-0.0093295975
24	0xba6386a6	-0.0008679427
25	0x2eacff4a	7.867003e-11
26	0x3c1ce0cc	0.00957508
27	0x3d397390	0.045276225
28	0x3cb01580	0.021494627
29	0x3bf1fd50	0.0073849335
30	0xbd286f07	-0.04112151
31	0x3ccdca4e	0.02512088
32	0x3ac8177b	0.0015265787
33	0x3c43bf7b	0.011947508
34	0xbd031468	-0.032001883
35	0x2bd0761f	1.4812074e-12
36	0xbc2f596c	-0.010702472
37	0xbc8e24cd	-0.017351532
38	0xbd3bb1a5	-0.045823712
39	0xad4f3fc3	-1.1780746e-11
40	0x3414d66c	1.386158e-07
41	0xbbbe9a72	-0.005816751
42	0xbd27bce2	-0.040951617
43	0xb7b9f7c8	-2.21691e-05
44	0x30c3bdf1	1.4242102e-09
45	0xb9a14934	-0.00030762854
46	0xbd431488	-0.047627002
47	0x3b126401	0.002233744
48	0x3d4b4534	0.049626544
49	0x3d382902	0.044960983
50	0x3d3a3863	0.04546393
51	0xbd3477ff	-0.04405975
52	0x2c8ea815	4.0545436e-12
53	0xbd4f82ac	-0.050661728
54	0xbd12d3f6	-0.035846673
55	0x3912e54a	0.00014009062
56	0xbcd5a6eb	-0.02608057
57	0x3079423f	9.0679814e-10
58	0xbce42596	-0.027849954
59	0xb9295494	-0.00016148604
60	0x2c798440	3.5458442e-12
61	0x3b5e6b2d	0.0033938393
62	0x33bf3b23	8.9048875e-08
63	0x389f0c9c	7.5840595e-05
64	0x3ccc9943	0.024975425
65	0xbc80a245	-0.015702376
66	0x3c2b9405	0.010472302
67	0x3bfa4349	0.0076374155
68	0x3b4bd8fb	0.0031104672
69	0x2cad4ff2	4.9258314e-12
70	0xbd1b4780	-0.037909985
71	0x3cc3a452	0.023882065
72	0xac6b71bc	-3.3458644e-12
73	0xac498ff4	-2.8643728e-12
74	0xb43edc2b	-1.7775226e-07
75	0xbb185903	-0.0023246414
76	0x3abfe60a	0.00146407
77	0xbd4a77a1	-0.049430493
78	0x3a8ea87b	0.0010883951
79	0x3d524736	0.051337443
80	0x38fe0669	0.00012112858
81	0x3d3046f9	0.043036435
82	0x3c46913e	0.012119589
83	0x3c0bd0f9	0.00853371
84	0x3b12f19c	0.0022421842
85	0xbc0c33b5	-0.00855725
86	0xbc6e6a2c	-0.014551681
87	0xbd3070af	-0.043076213
88	0x3c460c48	0.012087889
89	0x3d567653	0.052358937
90	0xb58e5bd3	-1.0606549e-06
91	0xbd189cb5	-0.037258822
92	0x3d493166	0.049119376
93	0x3c9c1084	0.019050844
94	0x318802b6	3.958429e-09
95	0x3be50786	0.0069894223
96	0x2daa1546	1.933621e-11
97	0xbd27c127	-0.04095569
98	0xaf83adc4	-2.395223e-10
99	0x2e952f98	6.78419e-11
100	0xaca559af	-4.699539e-12
101	0xa9815ada	-5.744511e-14
102	0xbd2da094	-0.042389467
103	0xbc82593f	-0.015911696
104	0xbb9d8c93	-0.0048080175
105	0x39b22171	0.0003397572
106	0x3bb1b5dc	0.0054232907
107	0x3c51b297	0.012798927
108	0xbc8e5603	-0.017374998
109	0xab95f8a3	-1.0656097e-12
110	0xbd289552	-0.041158028
111	0x3660ba3b	3.3487001e-06
112	0xbc2aee61	-0.0104328105
113	0x3c55c3d6	0.013047179
114	0x3d3ec86e	0.046577863
115	0xadc8618c	-2.2780687e-11
116	0x2c51ee5c	2.9833002e-12
117	0x3a8dbf63	0.0010814484
118	0xbca9c09d	-0.020721728
119	0x3d57a541	0.052647833
120	0x3d2ca93e	0.04215359
121	0xbd382166	-0.044953726
122	0x3c18eeb8	0.009334259
123	0xbd161223	-0.03663839
124	0x3030ab6e	6.4272043e-10
125	0xbd46e1b2	-0.048555084
126	0xbcd83bcc	-0.0263957
127	0x31fc2ce0	7.339267e-09
128	0x3c7ed569	0.015553811
129	0x3d0f5692	0.03499467
130	0xbbd5f9ba	-0.006530014
131	0x3c65d729	0.014028349
132	0x3b4a6427	0.003088245
133	0xae2ee8e8	-3.9769882e-11
134	0x3d471fb5	0.048614223
135	0x3d0beffe	0.03416442
136	0x3cd2f714	0.025752582
137	0x3b8e476e	0.004342011
138	0xb2116b64	-8.464529e-09
139	0xba9a2b12	-0.0011762104
140	0x3b9d447b	0.0047994233
141	0xbcad1215	-0.021126786
142	0xbd035306	-0.0320616
143	0x3d0fa28d	0.03506713
144	0x3cff9906	0.031200897
145	0x3d415ce7	0.04720774
146	0x3d175767	0.036948588
147	0xbd4f6cf0	-0.050641
148	0x3226c533	9.70731e-09
149	0xbc895b42	-0.016767148
150	0x3c79721c	0.01522496
151	0x3be48678	0.0069740377
152	0x2c95aa40	4.2537363e-12
153	0xac18a8f1	-2.169428e-12
154	0xb97f921d	-0.00024373127
155	0x39581b5b	0.00020609556
156	0x3a59f84b	0.00083148916
157	0x3814e3bb	3.549804e-05
158	0x2de602a9	2.6149154e-11
159	0x3d3eb27f	0.046556946
160	0xb7ef7cd2	-2.8549144e-05
161	0x3c9724a7	0.018450094
162	0xbcaf9746	-0.021434437
163	0x3c160917	0.009157441
164	0xbd32368b	-0.043509047
165	0x393f401b	0.0001823906
166	0x3d0365f3	0.03207965
167	0xbb3cc4dc	-0.002880386
168	0xbbc8e2c3	-0.0061305477
169	0xbd1cd361	-0.038287524
170	0x3bb843cb	0.005623316
171	0x3cbe5c38	0.023237333
172	0xbd2279b8	-0.03966686
173	0x3cd8c15f	0.026459394
174	0x3d4bec35	0.04978581
175	0xb92c1f6f	-0.00016414908
176	0xba9feb43	-0.0012200851
177	0x3d4237fe	0.04741668
178	0x3c1b4083	0.00947583
179	0xbcfdbbd9	-0.030973362
180	0x3b07d1f7	0.0020724514
181	0xbd39cd03	-0.04536153
182	0x3cd0bdad	0.02548107
183	0xbbb8e36d	-0.0056423456
184	0xbba4b83f	-0.0050268467
185	0xbd1353b0	-0.035968482
186	0x3d413430	0.04716891
187	0x3bf353cb	0.0074257604
188	0xba40e8ea	-0.00073589256
189	0xbd0dd645	-0.03462817
190	0x3c798a02	0.0152306575
191	0xbb8bcd56	-0.0042664213
192	0xbc14c1cf	-0.009079411
193	0x2cb21abe	5.0620333e-12
194	0x3d2c699c	0.042092904
195	0x3d1f7e15	0.0389386
196	0xbbb75d7b	-0.0055958605
197	0x3c6c5929	0.014425554
198	0xbada8455	-0.0016671518
199	0xbc11237e	-0.00885856
200	0x3bdce55b	0.0067412085
201	0x3d276dda	0.040876247
202	0xbca1394a	-0.019680638
203	0x3d3cc928	0.046090275
204	0xbcd41691	-0.025889667
205	0xbc0abac9	-0.008467385
206	0x3b3473e8	0.0027534906
207	0xbbe70dbc	-0.007051198
208	0x3d11dc43	0.03561045
209	0x3cb10e6f	0.021613328
210	0x3b0ffeea	0.002197201
211	0xbd47ff60	-0.04882753
212	0x38793d08	5.9423066e-05
213	0x394ddba8	0.00019632152
214	0xb8b717b9	-8.730539e-05
215	0xbd02bfbc	-0.031921133
216	0xbcc1c7f3	-0.023654914
217	0x3d167d7e	0.036740772
218	0xbbb0ae50	-0.0053918734
219	0xbc2f52f4	-0.01070093
220	0x3b015d8f	0.0019739603
221	0xbd018c34	-0.03162785
222	0x3c514af6	0.01277422
223	0xb9635624	-0.00021680497
224	0x350950e4	5.115419e-07
225	0xbd260d37	-0.040539946
226	0x3acc05d6	0.0015565704
227	0x3cc693fc	0.024240486
228	0xb905b89e	-0.00012752644
229	0xbd402437	-0.046909537
230	0xbd018f08	-0.031630546
231	0x3baf6920	0.005353108
232	0xbd3ee21e	-0.04660236
233	0xbc9dd849	-0.019268172
234	0xbcbeb7c2	-0.023280982
235	0x3880d931	6.143971e-05
236	0x3c361c6c	0.011115175
237	0xbcf9c789	-0.030490654
238	0x2d216c24	9.1758025e-12
239	0x2cb77883	5.2145523e-12
240	0xbcfda76d	-0.030963624
241	0xbc42de31	-0.011893795
242	0xbd0c434b	-0.034243863
243	0x3bde2bd2	0.006780126
244	0x3bb0e9c1	0.0053989594
245	0x3d465b73	0.048427057
246	0x3c1cbc7e	0.009566424
247	0x3d3f6e10	0.046735823
248	0x3c304b4f	0.0107601425
249	0xbcb202f5	-0.021729926
250	0x3ca9ee41	0.020743491
251	0x3d4d4333	0.050112914
252	0x3cb5033e	0.022096273
253	0xbcd8c002	-0.026458744
254	0x3c88ffb8	0.016723499
255	0xbd50341a	-0.050830938

attention_layer.gate.bias f4 [128]
0	0x3cc9930f	0.024606256
1	0x3c41ffda	0.011840785
2	0xb1ca77bb	-5.8925855e-09
3	0xbce9709e	-0.028496083
4	0x3bc96536	0.0061460985
5	0xb8d94ef4	-0.000103620725
6	0x3a940c4b	0.0011295167
7	0x2dcec927	2.3508818e-11
8	0x3d35d8d5	0.04439624
9	0xbaad2cba	-0.0013212182
10	0x3905b4b7	0.0001275119
11	0x3d4d0bed	0.0500602
12	0x3d202f89	0.039107833
13	0x3d20c39e	0.039249055
14	0xbc1111bb	-0.008854325
15	0x3cc8f0d3	0.024528896
16	0x3b01b751	0.0019793103
17	0xbd229434	-0.03969212
18	0xb45c22dd	-2.050178e-07
19	0x3d3060e3	0.04306115
20	0x323a13a9	1.0831095e-08
21	0x3d186c5a	0.037212707
22	0xbc9d8a48	-0.019230977
23	0x3cb2bbd6	0.021818083
24	0x3c4c3cb6	0.0124656465
25	0xbd16e506	-0.036839508
26	0xbbb065ac	-0.005383214
27	0x3d4af085	0.049545784
28	0x3cabce85	0.0209725
29	0x3cb148e9	0.021641212
30	0x3730e9c6	1.0544847e-05
31	0xb7c4cef7	-2.3461396e-05
32	0xbc2d6a3b	-0.010584409
33	0xbd3bc3ec	-0.045841143
34	0x3c2ad4fa	0.010426754
35	0x351468be	5.5286716e-07
36	0x3c849278	0.016183123
37	0xb9966dbe	-0.00028691994
38	0xbc8930b9	-0.016746866
39	0x3b8bb73e	0.0042637875
40	0x3d194ca9	0.037426624
41	0xbc87e566	-0.016588878
42	0x38a9640c	8.077183e-05
43	0x2d2b04d9	9.721301e-12
44	0x3c03bea7	0.0080410605
45	0xbd1ccc85	-0.038280983
46	0xbd2c5374	-0.042071775
47	0x3ceeeff4	0.029167153
48	0xaeacf030	-7.86432e-11
49	0x2cb69d41	5.19021e-12
50	0x3c9d0333	0.019166565
51	0xac2586e9	-2.35228e-12
52	0x3a837ee4	0.0010032323
53	0xbca70e36	-0.020392518
54	0x3d1cd264	0.03828658
55	0x3ce3217e	0.027725931
56	0xbcbb2a49	-0.022847312
57	0xba0c0331	-0.0005341052
58	0xbcc04f88	-0.023475423
59	0xbcf8d972	-0.030377124
60	0xbb00af00	-0.0019635558
61	0x3094b701	1.082043e-09
62	0x39c3ed3b	0.0003737005
63	0x3cae75dc	0.021296434
64	0xbbfafe51	-0.0076597114
65	0xadb39b24	-2.041884e-11
66	0xbd53382b	-0.051567238
67	0xbd42361f	-0.047414895
68	0x2cb1269b	5.0349286e-12
69	0xbb89a326	-0.004200357
70	0xbc518c7b	-0.012789841
71	0x3c7ce206	0.015434748
72	0xbc69b42b	-0.014264147
73	0x3cce705f	0.025200067
74	0xbc8267ee	-0.015918698
75	0x3ca4e846	0.020130288
76	0xbc5964f7	-0.013268701
77	0x3d067cf1	0.032833997
78	0xad337fa6	-1.0203316e-11
79	0x377e7a9f	1.516813e-05
80	0x3aeec699	0.0018217146
81	0xbc9990c3	-0.018745786
82	0x3c9660c8	0.018356696
83	0x393234d7	0.00016995087
84	0xbd476bc5	-0.04868676
85	0x3c84f7ab	0.016231379
86	0x3caca20e	0.021073367
87	0xbbe87b43	-0.007094772
88	0xbcf7fc66	-0.03027172
89	0x3d56785e	0.052360885
90	0x3c2852a2	0.010273607
91	0x3d080487	0.033207443
92	0x3c6e39e1	0.014540167
93	0x3d3cef33	0.046126556
94	0xbce7b932	-0.02828655
95	0x2d0a410c	7.858835e-12
96	0x3b30fc72	0.0027005938
97	0xbcd6eb5b	-0.026235273
98	0x3b61b9d1	0.003444303
99	0x3c1be73f	0.009515583
100	0xb9c1e584	-0.0003698283
101	0xbd2b398f	-0.04180294
102	0x3ca7b0df	0.02047008
103	0xbd16c726	-0.036811016
104	0x3c537747	0.012906856
105	0x3a9e4230	0.0012074169
106	0x3c80cf32	0.015723798
107	0xbcd97cf8	-0.026548848
108	0xac85670b	-3.7915274e-12
109	0x3bd5ae71	0.006521039
110	0xbb648842	-0.0034871255
111	0xbcb06a8e	-0.021535184
112	0x3c1a55a8	0.009419836
113	0x3c3627f1	0.011117921
114	0x3c5c6cb2	0.013453649
115	0x3d46b440	0.048511744
116	0xafeddc45	-4.326656e-10
117	0x3d1829e8	0.03714934
118	0xb9c4170c	-0.00037401204
119	0x3c8e8a96	0.017400067
120	0x3d471f12	0.048613615
121	0x3c859a40	0.016308904
122	0x3ce344c7	0.027742757
123	0x3808b964	3.2597585e-05
124	0xb7784b8a	-1.479954e-05
125	0x3c3802be	0.011231123
126	0x3cc7473c	0.02432596
127	0x3d2b6ee4	0.0418538

attention_layer.w.weight f4 [1, 128]
0	0xbb353c27	-0.0027654262
1	0x3c946ffb	0.018119803
2	0xbd562a15	-0.052286226
3	0xb9b44937	-0.00034386825
4	0x32f9cf48	2.9081676e-08
5	0x3d30bf6d	0.043151308
6	0x3d08e0fb	0.033417683
7	0xbc873f4c	-0.016509674
8	0xbcefcce9	-0.029272513
9	0x3d272bf6	0.04081341
10	0xbd23c87e	-0.039986126
11	0x3c8dd8b5	0.017315248
12	0xbd0645fc	-0.032781586
13	0xbd056d7d	-0.03257512
14	0x3d4be1ef	0.049776014
15	0xbc276665	-0.010217284
16	0x3c9a5249	0.018838065
17	0x3ca71bf6	0.020399075
18	0x3c01ec32	0.0079298485
19	0x3ce1c67a	0.027560461
20	0xbd50bb00	-0.050959587
21	0xbcf32a24	-0.02968318
22	0xbd164024	-0.036682263
23	0x3b1d2dcf	0.0023983603
24	0xb9d086b8	-0.00039773225
25	0xbc8a3fae	-0.016876068
26	0xb8f3ed24	-0.00011631314
27	0xbd02f6e9	-0.031973753
28	0x3d3568fa	0.044289567
29	0x3c303605	0.010755067
30	0x3c9d1e42	0.019179467
31	0xbc929da0	-0.017897427
32	0x31fa9f34	7.294057e-09
33	0xb1bf00ea	-5.5589355e-09
34	0x3d051f7f	0.03250074
35	0x3a587a20	0.0008257944
36	0x3bd36719	0.006451499
37	0x3bcd5caa	0.00626715
38	0x3c86531b	0.01639705
39	0xbd15be30	-0.03655833
40	0x3d06a1e0	0.03286922
41	0x3cbed7cd	0.023296261
42	0x3ba0a385	0.0049023055
43	0x3a837271	0.0010028613
44	0xba5e00a8	-0.0008468726
45	0xbbb9194f	-0.005648769
46	0xbce4bdc6	-0.027922522
47	0x3cf1e15f	0.02952641
48	0x3d3b97c8	0.045799047
49	0x3b37ed19	0.0028064905
50	0xb7e00f6e	-2.6710066e-05
51	0x30084194	4.9569704e-10
52	0xaf4a1cfe	-1.8382093e-10
53	0x3cc8eb30	0.024526209
54	0x2ff1d127	4.3986256e-10
55	0xbd450126	-0.0480968
56	0x3c0de963	0.008661601
57	0x3c6b4064	0.014358614
58	0x3d53c569	0.051701937
59	0x3d3f8250	0.046755135
60	0xb43fe75b	-1.7872428e-07
61	0xbd36c343	-0.04461981
62	0xbbf5e1a0	-0.0075037032
63	0x3c694dc6	0.014239734
64	0x313c93ae	2.7441547e-09
65	0xbd018e9d	-0.031630147
66	0x3d157439	0.03648779
67	0x3d5620b8	0.052277297
68	0x3a4467b3	0.0007492259
69	0xbbba2278	-0.0056803785
70	0x31fe2c25	7.3973916e-09
71	0xbd1d88db	-0.038460594
72	0xbca0fd96	-0.01965217
73	0xbcf3bba7	-0.029752566
74	0x3cb13aa3	0.021634405
75	0xb931c0a7	-0.00016951804
76	0xbcde975f	-0.027171789
77	0x3ad22aa7	0.001603444
78	0x3c6498c6	0.01395244
79	0xbce53af0	-0.027982205
80	0xbc94fa5c	-0.018185787
81	0xbd32a2a5	-0.04361214
82	0xbc9582fe	-0.018250939
83	0xb2aa6dee	-1.9840595e-08
84	0x3cd2920f	0.025704412
85	0x3af8685d	0.0018952001
86	0xba47b979	-0.0007618885
87	0x3abf1e83	0.0014581237
88	0x3b978af5	0.0046247193
89	0xbcc0ab32	-0.023519132
90	0x3ca6c4a8	0.020357445
91	0x317754a5	3.5991345e-09
92	0xbcd2057e	-0.025637385
93	0x30d5ab1a	1.554642e-09
94	0x3d22b79f	0.039725896
95	0xbcb63084	-0.02223993
96	0xbc0af81f	-0.008482008
97	0xbc8d5f25	-0.017257283
98	0x3d415aab	0.04720561
99	0x3b8b13f4	0.004244322
100	0xbd15f86d	-0.03661387
101	0xbcef5dfb	-0.029219618
102	0x392e51c2	0.0001662439
103	0x3c8085b1	0.015688749
104	0xbc1bd5f2	-0.009511458
105	0x320ed7c2	8.3145455e-09
106	0xbd2faae3	-0.04288758
107	0xbb09b21c	-0.0021010702
108	0xbd190954	-0.03736241
109	0x3c9d3148	0.019188538
110	0x3d57374f	0.05254298
111	0xbd18641d	-0.03720485
112	0xbbdea3a1	-0.0067944084
113	0x313af9a1	2.720846e-09
114	0xb9b294c2	-0.0003406164
115	0xbce00073	-0.027343964
116	0xbcacec5e	-0.021108802
117	0xbc79f6d0	-0.015256599
118	0x3d15fbab	0.036616962
119	0x3d16031d	0.036624063
120	0xb7a2f0da	-1.942406e-05
121	0xb8035da9	-3.132006e-05
122	0x30bb5438	1.3629977e-09
123	0x3cc50ba6	0.024053406
124	0x3d0f559d	0.034993757
125	0xb5bf6670	-1.4260422e-06
126	0xb19f48c3	-4.635781e-09
127	0x3b0df304	0.0021659741
