dataset/models/PDAC_Hwang22_Malignstate.Adhesive/model.pth (torch, 696702 bytes, 14 tensors)

tiles_emb.hidden_layers.0.weight f4 [128, 768]
0	0xbf146ad6	-0.5797552
1	0x3f1ca569	0.61189896
2	0x3f18f461	0.5974789
3	0x3f13acc4	0.57685494
4	0x3f101ff9	0.56298786
5	0xbf162cbf	-0.5866203
6	0xbf14d612	-0.58139145
7	0xbf2051ca	-0.626248
8	0xbf0c1ea0	-0.5473423
9	0xbf0c83aa	-0.54888403
10	0x3f10e384	0.5659716
11	0x3f147eea	0.58006155
12	0x3f1cade9	0.61202866
13	0x3f17796c	0.5916965
14	0x3f24fd8b	0.64449376
15	0x3f4c2d3e	0.79756534
16	0x3f1937eb	0.5985095
17	0x3f148d26	0.58027875
18	0x3f13510b	0.57545537
19	0xbf53d0f2	-0.827407
20	0xbf17515c	-0.5910852
21	0x3f13b045	0.5769084
22	0xbf195ca5	-0.5990699
23	0xbf0b2e15	-0.5436719
24	0x3f0f5242	0.5598489
25	0xbf0e325e	-0.55545604
26	0x3f126080	0.571785
27	0xbf109ccc	-0.56489253
28	0x3f163fb5	0.5869096
29	0xbf1a5ac9	-0.6029478
30	0xbf3e3c02	-0.74310315
31	0xbf13a151	-0.57668024
32	0xbf0c3862	-0.54773533
33	0xbf1d4b0c	-0.6144264
34	0xbf0f27b8	-0.5591998
35	0xbf18f9ee	-0.5975636
36	0x3f1cc598	0.61239004
37	0x3f2a6348	0.6655774
38	0x3f42c039	0.7607456
39	0xbf1a3aa8	-0.6024575
40	0x3f11e1f9	0.5698543
41	0x3f1aeded	0.60519296
42	0x3f153b66	0.5829376
43	0xbf0d9945	-0.55311996
44	0xbf1423ec	-0.5786731
45	0x3f0d82e1	0.5527783
46	0xbf1cbf94	-0.61229825
47	0xbf188f21	-0.595934
48	0x3f124263	0.5713255
49	0x3f1065d3	0.5640537
50	0x3f0cbac3	0.54972476
51	0x3f1694ea	0.58820975
52	0x3f0f18ee	0.55897415
53	0xbf1490ce	-0.58033454
54	0x3f13f431	0.5779448
55	0xbf12e4a1	-0.5738011
56	0x3f13633f	0.5757331
57	0xbf0e47bc	-0.5557821
58	0x3f12b8b0	0.5731306
59	0xbf1cb069	-0.6120668
60	0x3f0ba8ed	0.54554635
61	0x3f0ecf31	0.557849
62	0xbf500086	-0.812508
63	0xbf1792df	-0.5920848
64	0xbf2d1de1	-0.67623717
65	0xbf10dae3	-0.56583995
66	0xbf08260a	-0.53183043
67	0x3f471c18	0.7777724
68	0x3f0d73f5	0.5525506
69	0xbf4cd2cc	-0.8000915
70	0xbf15f93e	-0.5858344
71	0x3f456346	0.77104604
72	0x3f1885dc	0.59579253
73	0xbf40ccb6	-0.75312364
74	0x3f1b1f97	0.6059508
75	0x3f154717	0.583116
76	0xbf194135	-0.59865123
77	0xbf1855a1	-0.5950566
78	0xbf1aea99	-0.6051422
79	0x3f0f3fe6	0.55956876
80	0x3f0cf7f1	0.5506583
81	0x3f0cf8ff	0.5506744
82	0x3f18840d	0.59576494
83	0x3dd8d1f4	0.105869204
84	0xbf1313ed	-0.5745228
85	0xbf29f392	-0.66387284
86	0xbf18fe40	-0.59762955
87	0x3f16d134	0.5891297
88	0x3f16a5cb	0.5884673
89	0x3f19c6c7	0.60068935
90	0x3f0adb0c	0.5424049
91	0x3f139aa6	0.5765785
92	0xbf1dee55	-0.6169179
93	0x3f0e12d2	0.5549747
94	0x3f1b6f7a	0.60716975
95	0xbf14c888	-0.58118486
96	0xbf52f848	-0.824101
97	0x3f0db045	0.5534709
98	0x3f14631e	0.5796374
99	0x3f18462b	0.5948207
100	0xbf11efb5	-0.5700639
101	0xbf1624de	-0.58650005
102	0xbf0e1962	-0.5550748
103	0x3f135300	0.5754852
104	0x3f180792	0.5938655
105	0xbf217fb6	-0.63085496
106	0x3f151d16	0.58247507
107	0xbf10469b	-0.56357735
108	0xbf27f680	-0.65610504
109	0x3f1827f8	0.5943599
110	0x3f11f093	0.5700771
111	0xbf0deae1	-0.5543652
112	0x3f13fd07	0.57807964
113	0x3f11986d	0.5687321
114	0x3f1c85e2	0.6114179
115	0x3f11f19f	0.5700931
116	0xbf127fea	-0.5722643
117	0x3f5141d6	0.8174108
118	0x3f617431	0.8806792
119	0xbf07f288	-0.5310445
120	0x3f1dc0a7	0.6162209
121	0xbf1f777e	-0.62291706
122	0xbf18faba	-0.5975758
123	0x3f15cfc2	0.5852014
124	0xbf1adebf	-0.60496134
125	0x3f292473	0.6607124
126	0xbf149bbd	-0.5805014
127	0xbf1a8d25	-0.6037162
128	0x3f0f542a	0.559878
129	0x3f1957b2	0.5989944
130	0x3f4604a5	0.77350837
131	0x3f0d1c17	0.55120987
132	0xbf20716a	-0.62673056
133	0x3f17fc1b	0.5936906
134	0x3f16e3d2	0.58941376
135	0x3f3fae5f	0.74875444
136	0xbf0f070a	-0.55870116
137	0x3f173422	0.59063923
138	0x3f1256fb	0.5716397
139	0xbf18b2bc	-0.59647727
140	0x3f1a20fe	0.6020659
141	0xbf453be7	-0.7704453
142	0x3f190079	0.59766346
143	0xbf5ac26d	-0.8545292
144	0x3f103c47	0.56341976
145	0xbf1647ec	-0.58703494
146	0x3f16fc50	0.5897875
147	0x3f0d2ec0	0.5514946
148	0x3f133b44	0.5751231
149	0x3f1d98ed	0.6156147
150	0xbf037d4c	-0.5136306
151	0x3f0f31f7	0.55935615
152	0xbf1cb7ea	-0.6121813
153	0xbf535dfb	-0.8256528
154	0xbf1f14a3	-0.62140864
155	0x3f1533d4	0.5828221
156	0xbf1d12e7	-0.6135697
157	0xbf1de2c7	-0.6167416
158	0xbf1bfdfb	-0.6093442
159	0xbf0e616b	-0.556174
160	0x3f18d521	0.5970021
161	0xbf1b6c36	-0.6071199
162	0x3f1daadb	0.6158883
163	0x3f19f332	0.6013671
164	0x3f0899ed	0.5335987
165	0xbf1cffe8	-0.6132798
166	0x3f1e733b	0.6189458
167	0xbf14c34b	-0.58110493
168	0xbf152385	-0.58257324
169	0xbf0d8a0d	-0.55288774
170	0x3f4209d4	0.75796247
171	0x3f409215	0.75222903
172	0x3f1aa7a4	0.6041205
173	0xbf101257	-0.56277984
174	0x3f146cbd	0.5797842
175	0x3f0fc810	0.56164646
176	0xbf145b96	-0.5795225
177	0xbf1b9964	-0.6078093
178	0x3f117f2b	0.5683467
179	0xbf1fde6a	-0.6244875
180	0xbf42cdf9	-0.7609554
181	0xbf16a625	-0.58847266
182	0xbf17f5e1	-0.59359556
183	0xbf650ea8	-0.8947549
184	0x3f134580	0.57527924
185	0xbf1d1b5d	-0.6136988
186	0xbf12f09c	-0.5739839
187	0x3f1c97ef	0.6116933
188	0xbf1a530f	-0.6028299
189	0x3f26aca1	0.6510716
190	0x3f4a9270	0.79129696
191	0xbf179fd3	-0.5922825
192	0xbf11261d	-0.5669878
193	0xbf18cecf	-0.59690565
194	0x3f0ab2e2	0.54179204
195	0x3f1f6fb6	0.6227983
196	0x3f0ccb62	0.5499784
197	0xbf1cab4d	-0.61198884
198	0x3f259bda	0.64690936
199	0x3f149597	0.58040756
200	0xbf0fd96a	-0.5619112
201	0x3f1af4f9	0.6053005
202	0xbf1637ff	-0.58679193
203	0x3f12f378	0.57402754
204	0x3f1622d9	0.58646923
205	0x3f10b6fd	0.5652922
206	0xbf164bfb	-0.58709687
207	0xbf12e30e	-0.5737771
208	0xbf154102	-0.5830232
209	0x3f0b7e5a	0.5448967
210	0x3f1a8d61	0.6037198
211	0xbf10f92b	-0.566302
212	0xbf18b68b	-0.5965354
213	0x3f546b1f	0.82975954
214	0x3f19e205	0.60110503
215	0x3f2023ba	0.62554514
216	0x3f17e136	0.5932802
217	0x3f1df06c	0.6169498
218	0xbf1dcc71	-0.6164008
219	0x3f137ddc	0.5761392
220	0x3f100716	0.5626081
221	0x3f4e4bcd	0.8058441
222	0x3f11fd4d	0.5702713
223	0xbf1f458e	-0.6221551
224	0x3f155671	0.58335024
225	0xbf13b269	-0.5769411
226	0x3f132fc5	0.57494766
227	0x3f16c358	0.5889182
228	0xbf1a4ef3	-0.60276717
229	0xbf14348e	-0.5789269
230	0xbf14021d	-0.57815725
231	0xbf0cb684	-0.54965997
232	0x3f4428a6	0.76624525
233	0xbf1b00f4	-0.6054833
234	0x3f1dcd05	0.6164096
235	0x3f4abe45	0.7919658
236	0x3f1cf29f	0.6130771
237	0x3f21afd7	0.63158935
238	0x3f1bb859	0.6082817
239	0xbf1a4151	-0.60255915
240	0xbf13f838	-0.57800627
241	0xbf1c0a20	-0.6095295
242	0x3f0fddaf	0.5619764
243	0x3f103305	0.5632785
244	0x3f1adbd4	0.6049168
245	0xbf13ca27	-0.57730335
246	0x3f4bd13d	0.7961615
247	0xbf166797	-0.58751816
248	0xbf196b97	-0.59929794
249	0x3f16c1a3	0.58889216
250	0xbf17804c	-0.5918014
251	0x3f127e17	0.5722365
252	0xbf16ce7b	-0.58908814
253	0xbf10d8d9	-0.56580883
254	0xbf0ff4d9	-0.5623298
255	0x3f13a711	0.576768

tiles_emb.hidden_layers.0.bias f4 [128]
0	0xbf14409c	-0.57911086
1	0xbf1b90ae	-0.6076764
2	0xbf1e7096	-0.6189054
3	0xbf2b478a	-0.66906035
4	0xbf228185	-0.6347888
5	0xbf34a3ab	-0.7056224
6	0xbf171db1	-0.5902968
7	0xbf1427d8	-0.57873297
8	0xbf160720	-0.5860462
9	0xbf18f522	-0.59749043
10	0xbf17fc08	-0.59368944
11	0xbf1f4f6a	-0.6223055
12	0xbf2c9273	-0.67410964
13	0xbf212eb3	-0.6296188
14	0xbf127912	-0.5721599
15	0xbf1c0c74	-0.609565
16	0xbf155d70	-0.583457
17	0xbf29daf8	-0.66349745
18	0xbf15adc2	-0.5846826
19	0xbf1ee7af	-0.6207227
20	0xbf24dea3	-0.64402217
21	0xbf15e29a	-0.5854889
22	0xbf25a78d	-0.6470879
23	0xbf26f7f2	-0.65222085
24	0xbf37c3fe	-0.71783435
25	0xbf319a3e	-0.6937598
26	0xbf2df088	-0.67945147
27	0xbf210e27	-0.6291222
28	0xbf1fbffa	-0.6240231
29	0xbf292467	-0.6607117
30	0xbf2597da	-0.6468483
31	0xbf11227a	-0.5669323
32	0xbf258e98	-0.64670706
33	0xbf1d18ef	-0.6136617
34	0xbf139e14	-0.57663083
35	0xbf2c487a	-0.6729809
36	0xbf1eff94	-0.6210873
37	0xbf19b825	-0.6004661
38	0xbf18a268	-0.5962281
39	0xbf16bcbe	-0.5888175
40	0xbf1bdf2b	-0.608874
41	0xbf191eb1	-0.59812456
42	0xbf22acb8	-0.635448
43	0xbf1d3348	-0.61406374
44	0xbf1fbd8c	-0.623986
45	0xbf334659	-0.70029217
46	0xbf1dbc03	-0.6161501
47	0xbf1e5db7	-0.6186175
48	0xbf1bfaea	-0.6092974
49	0xbf1ea764	-0.6197417
50	0xbf10c3c4	-0.56548715
51	0xbf17995b	-0.59218377
52	0xbf274a83	-0.6534807
53	0xbf3963ba	-0.72417796
54	0xbf205138	-0.6262393
55	0xbf26ac49	-0.65106636
56	0xbf108b76	-0.564628
57	0xbf1f4fb6	-0.62231004
58	0xbf20ce2b	-0.6281459
59	0xbf20f8b7	-0.6287951
60	0xbf244346	-0.6416515
61	0xbf2bfc82	-0.6718217
62	0xbf253993	-0.64540976
63	0xbf201d46	-0.6254467
64	0xbf14e55c	-0.58162475
65	0xbf2114f0	-0.62922573
66	0xbf2c9309	-0.6741186
67	0xbf3a0b03	-0.7267305
68	0xbea91adf	-0.33028314
69	0xbf1aa256	-0.60403955
70	0xbf1b64f3	-0.6070091
71	0xbf17fe55	-0.59372455
72	0xbf2788f5	-0.65443355
73	0xbf0b7da1	-0.5448857
74	0xbf37b54f	-0.7176103
75	0xbf1ecfaa	-0.6203562
76	0xbf229ce2	-0.63520634
77	0xbf226e9d	-0.6345003
78	0xbf1ee4fa	-0.6206814
79	0xbf1512db	-0.58231896
80	0xbf2084ba	-0.62702525
81	0xbebe2cb0	-0.3714347
82	0xbf168b31	-0.5880614
83	0xbf13b01a	-0.57690585
84	0xbf28a209	-0.65872246
85	0xbf12a2f6	-0.5727991
86	0xbf3740fb	-0.7158353
87	0xbf230424	-0.63678193
88	0xbf220c19	-0.6329971
89	0xbf2ec447	-0.68268245
90	0xbf14824c	-0.5801132
91	0xbf2aac9d	-0.66669637
92	0xbf1cb296	-0.6121
93	0xbf3036df	-0.68833727
94	0xbf14c733	-0.58116454
95	0xbf0d472f	-0.5518674
96	0xbf159be1	-0.5844098
97	0xbf2b3099	-0.6687103
98	0xbf392e2e	-0.7233609
99	0xbf1308b8	-0.5743518
100	0xbf2a4527	-0.6651177
101	0xbf10d5da	-0.5657631
102	0xbf1f4b0b	-0.6222388
103	0xbf310ea4	-0.69162965
104	0xbf129e98	-0.57273245
105	0xbf34176a	-0.7034823
106	0xbf135f71	-0.5756751
107	0xbf204b6a	-0.6261507
108	0xbf34222b	-0.70364636
109	0xbf223b3d	-0.6337164
110	0xbf3036a9	-0.68833405
111	0xbf1bfaeb	-0.60929745
112	0xbf2ef3ad	-0.6834057
113	0xbf15e7ef	-0.5855703
114	0xbf2e04a2	-0.6797582
115	0xbf10fafb	-0.56632966
116	0xbf20bd3c	-0.6278875
117	0xbf2349c7	-0.6378445
118	0xbf2b4cb6	-0.66913927
119	0xbf32d107	-0.698502
120	0xbf189b98	-0.5961242
121	0xbf19427a	-0.5986706
122	0xbf22c241	-0.6357766
123	0xbf14c753	-0.58116645
124	0xbf1b69eb	-0.60708493
125	0xbf228b3b	-0.634937
126	0xbf145fa0	-0.5795841
127	0xbf231a91	-0.6371241

tiles_emb.hidden_layers.2.weight f4 [128, 128]
0	0xbf298b55	-0.6622823
1	0xbf08a9f6	-0.5338434
2	0xbf0e63a1	-0.5562077
3	0xbef12e32	-0.47105557
4	0xbf0f4eb4	-0.55979466
5	0xbf2353ca	-0.63799727
6	0xbf1d725b	-0.6150262
7	0xbf1ba829	-0.6080347
8	0xbf1eda22	-0.62051594
9	0xbf1e586f	-0.6185369
10	0xbf1df589	-0.6170278
11	0xbf1d44f8	-0.6143336
12	0xbf04c343	-0.51860446
13	0xbf17dc64	-0.59320664
14	0xbf0dda4a	-0.5541121
15	0xbf2bed23	-0.67158717
16	0xbf0fe8af	-0.5621442
17	0xbf148f30	-0.58030987
18	0xbf1b4cb0	-0.6066389
19	0xbf2873a6	-0.65801466
20	0xbf2bf9d3	-0.67178077
21	0xbf0d5d0f	-0.5522012
22	0xbefefeb3	-0.49803695
23	0xbf1e81d2	-0.6191684
24	0xbf1200d0	-0.5703249
25	0xbf037604	-0.5135195
26	0xbf18a416	-0.59625375
27	0xbe7ffc3b	-0.24998562
28	0xbeff5139	-0.49866655
29	0xbf130ac6	-0.57438314
30	0xbf0db00f	-0.5534677
31	0xbf0f8c50	-0.56073475
32	0xbefe9056	-0.49719495
33	0xbf1a8b98	-0.60369253
34	0xbf12cf4b	-0.57347554
35	0xbf0ffbe7	-0.5624375
36	0xbf17245c	-0.59039855
37	0xbf243fec	-0.6416004
38	0xbf077dc8	-0.529263
39	0x3ecc742a	0.39932376
40	0xbf27cc1b	-0.65545815
41	0xbf209e10	-0.62741184
42	0xbf1d2d6d	-0.6139744
43	0xbf21fbdc	-0.6327493
44	0xbf10ad3c	-0.56514335
45	0xbf19b8e9	-0.60047776
46	0xbf17b8ce	-0.59266365
47	0xbf2b54ef	-0.66926473
48	0xbf152d51	-0.5827227
49	0xbf1c7163	-0.61110514
50	0xbf0baadd	-0.5455759
51	0xbf1da7ed	-0.6158436
52	0xbef9785f	-0.48724648
53	0xbefe9ae0	-0.49727535
54	0xbf1de2c8	-0.61674166
55	0xbf00afc6	-0.5026821
56	0xbf089a26	-0.5336021
57	0xbf05b32b	-0.52226514
58	0xbf25ce47	-0.6476788
59	0xbf03b73e	-0.5145148
60	0xbf05a87d	-0.5221022
61	0xbf187857	-0.59558624
62	0xbf0700e5	-0.5273574
63	0xbf1468e7	-0.5797257
64	0xbf16c825	-0.58899146
65	0xbf056064	-0.52100205
66	0xbf18d9dc	-0.5970743
67	0xbf2309fd	-0.63687116
68	0x3e43edfb	0.19133751
69	0xbf1e1ea6	-0.61765516
70	0xbef4eae0	-0.47835445
71	0xbf065fd5	-0.5248998
72	0xbf153edc	-0.5829904
73	0xbf288935	-0.6583436
74	0xbf36a336	-0.7134279
75	0xbf045ffc	-0.5170896
76	0xbf120ffe	-0.5705565
77	0xbf0474d6	-0.5174078
78	0xbf0a393d	-0.5399359
79	0x3ea4fe65	0.32225338
80	0xbf12727f	-0.5720596
81	0x3e8affbd	0.27148238
82	0xbf0ca9d6	-0.5494665
83	0xbf25763d	-0.6463354
84	0xbf147c0f	-0.580018
85	0xbf0288af	-0.5098981
86	0xbf0e974e	-0.5569962
87	0xbf1d36b9	-0.61411625
88	0xbf0d24d6	-0.5513433
89	0xbf18015d	-0.5937708
90	0xbf16c1f8	-0.5888972
91	0xbf06a42c	-0.52594256
92	0xbf0e87f4	-0.556762
93	0xbf1f41bb	-0.6220967
94	0xbf2fc4e1	-0.6865979
95	0x3ee47548	0.44620728
96	0xbf18cce3	-0.5968763
97	0xbf03428a	-0.51273406
98	0xbf0c1d43	-0.5473215
99	0xbf2ad644	-0.66733193
100	0xbf190491	-0.5977259
101	0xbf1bc1bd	-0.60842496
102	0xbf04f4f7	-0.51936287
103	0xbf1268bb	-0.57191056
104	0xbf2c6eae	-0.67356384
105	0xbf13b3a5	-0.5769599
106	0xbf0ebd48	-0.5575757
107	0xbf0397c4	-0.5140345
108	0xbf0dedfb	-0.55441254
109	0xbf28a855	-0.65881854
110	0xbf02513c	-0.50905204
111	0xbf2a34b2	-0.66486657
112	0xbf1bd7cb	-0.6087615
113	0xbf1b13a1	-0.60576826
114	0xbf294986	-0.6612781
115	0xbf26a0e0	-0.65089226
116	0xbef1e309	-0.47243527
117	0xbefcec7a	-0.49399167
118	0xbf205655	-0.6263173
119	0xbf048848	-0.5177045
120	0xbf2a27ed	-0.6646717
121	0xbf108c91	-0.5646449
122	0xbf256658	-0.6460929
123	0xbf05a424	-0.52203584
124	0xbf2a75ff	-0.665863
125	0xbf169bee	-0.5883168
126	0xbf146633	-0.57968444
127	0xbf11a939	-0.5689884
128	0x3eb9cdd7	0.36289856
129	0x3eb87416	0.36026067
130	0x3f295dfa	0.6615902
131	0x3eafd5e2	0.34342867
132	0xbf1b354b	-0.60628194
133	0x3ed7b391	0.42129186
134	0xbf22aad5	-0.6354192
135	0xbf1dc0a1	-0.61622053
136	0xbf285520	-0.6575489
137	0xbe5db68b	-0.21651666
138	0x3eafe769	0.3435624
139	0xbf2b333f	-0.6687507
140	0x3e7bfd44	0.24608332
141	0x3f268fd1	0.65063196
142	0xbf081a78	-0.5316539
143	0xbf1da2f4	-0.6157677
144	0x3f0407ca	0.51574385
145	0x3eb64f55	0.356074
146	0xbf04f39d	-0.51934224
147	0xbf2a2c0a	-0.6647345
148	0x3eb002f1	0.34377244
149	0xbf164d52	-0.5871173
150	0x3eb4e73b	0.35332665
151	0x3eac524f	0.33656546
152	0x3ec59e1f	0.385972
153	0x3ebfa7d7	0.3743274
154	0x3ecd793f	0.40131566
155	0xbdf930ae	-0.12167488
156	0xbf0e28b9	-0.5553089
157	0x3f0f8305	0.56059295
158	0x3e66e11b	0.22546808
159	0xbf148ee9	-0.58030564
160	0x3e9a53a6	0.30141944
161	0xbf1bcd1d	-0.60859853
162	0xbf2f89b2	-0.6856948
163	0x3e8c3e54	0.27391303
164	0x3ee4679a	0.44610292
165	0xbf212991	-0.6295405
166	0xbf2bf217	-0.67166275
167	0xbecee049	-0.4040549
168	0x3ed8b201	0.42323306
169	0xbf2564fc	-0.64607215
170	0xbf12bee8	-0.5732255
171	0xbf0eab1d	-0.5572985
172	0xbf173bb3	-0.5907547
173	0x3e808817	0.25103828
174	0x3ed12d4e	0.40854877
175	0xbf2365a3	-0.6382696
176	0xbf184331	-0.59477526
177	0xbf1a39fe	-0.6024474
178	0xbf0b10e0	-0.54322624
179	0xbf2772af	-0.6540937
180	0x3e7ca7d6	0.246734
181	0x3e8e7dd5	0.27830377
182	0xbf0a33f5	-0.5398553
183	0x3eb66e03	0.35630807
184	0xbf02b311	-0.51054484
185	0x3ea9724f	0.33095023
186	0xbf1a7bca	-0.6034514
187	0xbf1d8f0b	-0.6154639
188	0x3ec1b77c	0.378353
189	0x3ec72201	0.3889313
190	0x3e8b1f31	0.27172235
191	0x3ebb385e	0.36566442
192	0x3ebbdbb2	0.36691052
193	0xbf1f4802	-0.6221925
194	0x3ebd663f	0.3699207
195	0x3ea225bb	0.3166941
196	0xbedd1424	-0.4317943
197	0xbf2cf17f	-0.67555994
198	0x3ecc4094	0.3989302
199	0xbf18a016	-0.5961927
200	0x3ecce3ba	0.40017492
201	0x3ece93c8	0.40347123
202	0x3f02d517	0.511064
203	0xbf11cb7d	-0.56951123
204	0x3f0a53bf	0.54034036
205	0xbf2163cc	-0.630429
206	0xbf2f64d5	-0.6851323
207	0xbea6467e	-0.32475656
208	0xbf147124	-0.5798514
209	0xbe1b0519	-0.15138663
210	0xbf0d5170	-0.5520239
211	0xbf16ca92	-0.5890285
212	0x3e9d9fc5	0.30785957
213	0x3ef3369e	0.47502607
214	0x3e9c84c0	0.3057003
215	0x3ea435a6	0.3207218
216	0xbf13b3d0	-0.5769625
217	0x3ea758a0	0.32684803
218	0xbf20afa7	-0.62768024
219	0x3ec2b9da	0.38032418
220	0xbf11fe17	-0.57028335
221	0x3e882f9a	0.26598817
222	0xbf14acf7	-0.58076423
223	0xbea39f6c	-0.31957567
224	0xbf06910b	-0.5256507
225	0x3eca71ec	0.3954004
226	0x3e9a2f55	0.30114236
227	0xbf096ffe	-0.5368651
228	0x3e89a1ce	0.2688126
229	0xbf297ee0	-0.6620922
230	0xbf0ec086	-0.5576252
231	0x3ea03d8c	0.31296957
232	0xbf1eecf7	-0.6208033
233	0x3ef55309	0.47914913
234	0xbf1a8ebd	-0.6037405
235	0xbf2e8487	-0.6817097
236	0x3ec18a52	0.37800843
237	0x3f242b32	0.6412841
238	0x3ead5197	0.3385131
239	0xbf1bf36e	-0.6091832
240	0x3ecc94de	0.39957327
241	0xbf14f5a4	-0.5818732
242	0x3ebf2941	0.37336162
243	0xbf0e6d0c	-0.5563514
244	0x3eb6c239	0.35695055
245	0x3e93ee62	0.2889281
246	0x3eccbd84	0.3998834
247	0x3e910bcf	0.28329322
248	0xbf0dbef3	-0.5536949
249	0xbf15be20	-0.5849323
250	0xbf2739d8	-0.6532264
251	0xbf1bf7af	-0.6092481
252	0xbf27efa7	-0.65600055
253	0xbf2813e5	-0.65655357
254	0xbf05ce7c	-0.52268195
255	0x3ea3dd94	0.32004988

tiles_emb.hidden_layers.2.bias f4 [128]
0	0x3d8bbb24	0.068228036
1	0x3de5c20f	0.11218654
2	0xbb7cdaef	-0.0038582643
3	0x3ce23e60	0.027617633
4	0x3d3a0c4d	0.045421887
5	0xbded2173	-0.115786456
6	0xbdb9bde3	-0.09069421
7	0xbc5da2b1	-0.013527558
8	0x3c76284c	0.015024256
9	0xbcce7eea	-0.025207002
10	0x3d70a09d	0.058746923
11	0xbd9f2b5b	-0.07771941
12	0xbc44b331	-0.012005613
13	0xbd496e1d	-0.049177278
14	0x3cb2a85b	0.021808794
15	0x3da2ee5b	0.07955619
16	0x3de20c3a	0.11037488
17	0x3aa84185	0.0012836909
18	0xbd944361	-0.07239414
19	0x3df215ac	0.1182054
20	0x3db26e4e	0.08712445
21	0x3d44162e	0.047872715
22	0xbe248b72	-0.16068819
23	0x3d65ee11	0.05613524
24	0x3c9bbf7b	0.019012203
25	0xbcfc05f9	-0.030764567
26	0x3db237d0	0.08702052
27	0xbd7c9205	-0.061662693
28	0xbcc6e3d0	-0.024278551
29	0x3e10acc0	0.14128399
30	0x3da220e2	0.07916428
31	0x3bdc1f79	0.006717619
32	0x3da52514	0.08063713
33	0xbe350ee7	-0.17681466
34	0xbc8872b1	-0.016656252
35	0x3d982ae1	0.074300535
36	0xbcb6dd9d	-0.02232247
37	0xbd753440	-0.059864283
38	0xbcc3e12f	-0.023911087
39	0x3cbe8e0a	0.023261089
40	0x3c1f4c3d	0.0097227665
41	0xbed265ee	-0.4109339
42	0x3db03675	0.08604137
43	0xbc75864d	-0.014985633
44	0x3dd23586	0.10264115
45	0x3d61b360	0.055102706
46	0xbd9f4162	-0.07776143
47	0x3d7fea7d	0.062479485
48	0x3db131b6	0.0865206
49	0x3e6b043a	0.22950831
50	0xbe11041f	-0.14161728
51	0xbc9abd5d	-0.018889124
52	0xbd5bbef0	-0.05364889
53	0xbc329748	-0.010900326
54	0xbd435019	-0.04768381
55	0xbd8ec0d7	-0.06970375
56	0xbcb47d70	-0.02203247
57	0xbe513231	-0.20429303
58	0x3e9ebb94	0.31002486
59	0xbe0fdb59	-0.14048518
60	0x3daa958c	0.08329305
61	0xbd9adec4	-0.075620204
62	0x3d8174a8	0.063210785
63	0xbe1115a0	-0.14168406
64	0x3c509921	0.012731821
65	0x3d80b55d	0.06284592
66	0xbe27f6b8	-0.1640271
67	0xbe0d7601	-0.13814546
68	0x3ca24a36	0.019810777
69	0xbd11943a	-0.03554175
70	0x3d47ea74	0.048807576
71	0x3e0149dd	0.12625833
72	0x3c5d2af5	0.013499011
73	0xbe09b0ca	-0.13446346
74	0xbe0d69cf	-0.13809894
75	0x3cc7de9a	0.024398137
76	0x3c26063f	0.010133325
77	0xbd89b9e4	-0.06724909
78	0x3d5ed249	0.054399762
79	0x3cc15437	0.023599727
80	0x3d6d6557	0.057957973
81	0xbd57c299	-0.052675817
82	0xbd402803	-0.04691316
83	0xbe0b03be	-0.13575646
84	0x3d16e5b6	0.036840163
85	0x3d08bf2e	0.03338545
86	0xbddbd653	-0.107342385
87	0xbda862ea	-0.08221991
88	0x3d5deb1e	0.054179303
89	0xbdeadba0	-0.114676714
90	0xbcafa03e	-0.021438714
91	0xbbba7121	-0.0056897555
92	0xbd6ba625	-0.057531495
93	0xbd791688	-0.060812503
94	0xbdcf5f33	-0.1012558
95	0x3d9316b8	0.07182068
96	0xbcfbd000	-0.03073883
97	0xbdf5e5f3	-0.1200675
98	0xbdc389d6	-0.095477745
99	0x3e397408	0.18110669
100	0xbd0979a9	-0.03356329
101	0x3da14e5a	0.078762725
102	0xbd83b92e	-0.064318046
103	0xbdb8e5fd	-0.09028242
104	0xbd82dc5c	-0.063896865
105	0x3c593c19	0.013258957
106	0x3d48e299	0.049044225
107	0xbda7a689	-0.08186061
108	0x3d1b8300	0.03796673
109	0x3e0e1ae7	0.1387745
110	0xbd01b39d	-0.031665433
111	0xbe0000f7	-0.12500368
112	0xbdcdb753	-0.10044732
113	0x3d9ffff5	0.07812492
114	0xbd918545	-0.07105497
115	0xbd1a428d	-0.037661124
116	0xbd010e82	-0.031507976
117	0xbdaab02b	-0.083343826
118	0xbc2c153b	-0.010503109
119	0xbd30efab	-0.043197315
120	0x3d5ede21	0.054411057
121	0x3db461ab	0.08807691
122	0x3cb30a96	0.021855634
123	0xbe1b6de7	-0.15178643
124	0x3e7d8d28	0.24760878
125	0x3d98c5a5	0.07459573
126	0xba329eff	-0.00068138534
127	0x3d923d4d	0.071405984

attention_layer.att.weight f4 [128, 128]
0	0xbf4fc648	-0.8116193
1	0xbed76547	-0.42069456
2	0xbead8d56	-0.33896893
3	0x3f2721de	0.6528605
4	0x3ef8c652	0.48588806
5	0xbf004400	-0.5010376
6	0xbf08ea7d	-0.534828
7	0x3e853da9	0.26023605
8	0x3f4d962b	0.80307263
9	0x3e840d30	0.2579131
10	0x3dcbc8db	0.099504195
11	0x3f2319cb	0.6371123
12	0xbe05367e	-0.13009068
13	0x3f21eb55	0.63249713
14	0xbf614867	-0.880011
15	0x3f4b133e	0.79326236
16	0x3f2f4e4c	0.68478847
17	0x3e077168	0.13226855
18	0x3f2caf63	0.6745512
19	0xbeaeac4b	-0.34115824
20	0x3edcb47f	0.43106458
21	0x3eeb8120	0.45996952
22	0xbf002b1d	-0.50065786
23	0x3f2eb510	0.6824503
24	0x3e790864	0.24319607
25	0xbe33cd36	-0.1755875
26	0xbda6d4ef	-0.081460826
27	0x3e2fa19f	0.17151497
28	0xbf4835ad	-0.782069
29	0x3f73dcc1	0.9525872
30	0x3f2baa5f	0.6705684
31	0x3e8b09fe	0.2715606
32	0xbe05be82	-0.13060954
33	0xbd7188ab	-0.058968227
34	0xbeca51c0	-0.39515495
35	0x3f2ba721	0.67051893
36	0x3ec4ec36	0.38461465
37	0xbeefe908	-0.46857476
38	0xbf7bcb4a	-0.9835707
39	0x3c040304	0.00805736
40	0x3e266038	0.16247642
41	0x3f82f9ca	1.023248
42	0xbf742222	-0.9536458
43	0xbd421e4f	-0.047392186
44	0x3f0bf3af	0.54668707
45	0x3eb489e5	0.35261455
46	0x3e9f4029	0.31103638
47	0xbda3b49a	-0.079934314
48	0x3f4374f9	0.7635036
49	0x3d89f796	0.067366764
50	0xbe629f87	-0.22131167
51	0xbf559737	-0.8343386
52	0xbf486a64	-0.7828734
53	0x3f31e2e3	0.69486827
54	0x3f004a1a	0.5011307
55	0xbf01e9b3	-0.5074722
56	0x3e086dab	0.13323085
57	0x3e9f0919	0.31061628
58	0xbf7ac2c0	-0.97953415
59	0x3e65b518	0.22432363
60	0xbf704674	-0.938575
61	0xbf0cf6ba	-0.55063975
62	0x3f791f60	0.973135
63	0x3e89dd1c	0.26926506
64	0x3e233f26	0.15942058
65	0x3efc26a6	0.49248236
66	0xbe7aa7de	-0.24478099
67	0xbe8ada9f	-0.2711992
68	0xbed4b531	-0.41544488
69	0xbef01dd8	-0.4689777
70	0x3cbb2f48	0.022849694
71	0xbe60c045	-0.21948345
72	0xbf5d886d	-0.86536294
73	0xbc4ffbcb	-0.012694309
74	0xbed47cac	-0.41501367
75	0x3e22d153	0.15900163
76	0x3f3a9e54	0.7289784
77	0x3e53f1ca	0.20697704
78	0x3f1c97fa	0.611694
79	0x3e0e916e	0.13922665
80	0x3dfe3c4b	0.12413844
81	0x3d550aed	0.052012373
82	0xbf09cd8a	-0.5382925
83	0xbe97fd4a	-0.29685432
84	0xbef4b4b8	-0.47794127
85	0xbf251a8b	-0.64493626
86	0x3ed6da8e	0.4196362
87	0xbe2abdb8	-0.16673934
88	0x3f77ae35	0.96750194
89	0xbf23f03c	-0.64038444
90	0xbe8a2fdf	-0.26989648
91	0x3f161735	0.5862916
92	0x3f3f7a3a	0.7479588
93	0xbf453792	-0.7703792
94	0xbf0345f4	-0.51278615
95	0xbee14dcf	-0.44004676
96	0xbda4a6f1	-0.08039654
97	0xbf20a24b	-0.6274764
98	0x3f677239	0.90408665
99	0xbe95ad08	-0.29233575
100	0xbf2e7eb1	-0.68162066
101	0xbefbbf3a	-0.49169332
102	0x3f31aac5	0.694012
103	0xbc80a141	-0.015701892
104	0xbec9155c	-0.39274108
105	0xbf3357fd	-0.70056134
106	0x3f57e60d	0.84335405
107	0xbc4ca1eb	-0.012489776
108	0x3eb8d4de	0.36099905
109	0x3ea922bc	0.33034313
110	0xbe6e1908	-0.23251736
111	0xbf11cd7c	-0.5695417
112	0xbe9a4f2e	-0.30138534
113	0x3f39b8f6	0.72547853
114	0x3e9e1b0a	0.30880004
115	0x3ee67c28	0.450166
116	0xbefde218	-0.49586558
117	0xbf1a24a6	-0.6021217
118	0x3f3ab93e	0.7293891
119	0x3c18fba2	0.009337338
120	0x3f16cbc4	0.5890467
121	0x3f172b1c	0.59050155
122	0xbe0a4e76	-0.13506493
123	0xbf46b634	-0.7762177
124	0x3d3321e6	0.0437335
125	0x3eccb80a	0.3998416
126	0xbef82c63	-0.48471364
127	0x3f3204d4	0.6953862
128	0xbf105c78	-0.56391096
129	0xbebb10f9	-0.36536387
130	0xbf04f6bb	-0.5193898
131	0x3f1318ae	0.57459533
132	0x3f2eaee4	0.6823561
133	0xbf1d2c89	-0.6139608
134	0xbf28714b	-0.6579787
135	0x3ef1ccaa	0.4722646
136	0x3f0f1d3b	0.5590398
137	0x3efdc3f1	0.49563554
138	0x3f078067	0.529303
139	0x3f3a9dbf	0.7289695
140	0xbe9df737	-0.30852672
141	0x3f258711	0.6465922
142	0xbf218477	-0.6309275
143	0x3f3578ea	0.70887625
144	0x3f35354d	0.70784456
145	0x3eac74e2	0.33682925
146	0x3f212cf9	0.6295925
147	0xbf0f2f99	-0.55932003
148	0x3f159eea	0.5844561
149	0x3f2e1119	0.6799484
150	0xbf292440	-0.6607094
151	0x3f2916aa	0.6605021
152	0x3ecc10aa	0.39856464
153	0xbf31dd1d	-0.6947802
154	0xbeead331	-0.4586425
155	0x3ec7fa09	0.3905795
156	0xbf04d6bf	-0.51890177
157	0x3f370b61	0.7150174
158	0x3f04fcf5	0.5194848
159	0xbeb2eecb	-0.3494781
160	0xbec1848b	-0.37796435
161	0x3ebbbb7e	0.36666483
162	0xbef71267	-0.48256227
163	0x3f0a4654	0.5401356
164	0x3ee4665e	0.4460935
165	0xbed49e07	-0.41526815
166	0xbf0dbbb1	-0.5536452
167	0xbeccf1a7	-0.40028116
168	0x3ec5d004	0.38635266
169	0x3f0cb090	0.54956913
170	0xbf245806	-0.64196813
171	0xbf4a3bcd	-0.789975
172	0x3f246f51	0.64232355
173	0x3f2c9d10	0.6742716
174	0x3f010a24	0.504061
175	0xbee7375b	-0.4515942
176	0x3f28a40e	0.6587533
177	0x3f377c99	0.71674496
178	0xbf26edd0	-0.65206623
179	0xbf13c244	-0.577183
180	0xbf0d586a	-0.55213034
181	0x3f13313a	0.5749699
182	0x3eed4c46	0.46347255
183	0xbf0f0dca	-0.55880415
184	0x3ee05755	0.4381663
185	0x3f163687	0.5867695
186	0xbf1dae8b	-0.61594456
187	0x3ef291cc	0.4737686
188	0xbf338241	-0.70120627
189	0xbf14e42a	-0.5816065
190	0x3f277426	0.65411603
191	0x3f1b3f5c	0.60643554
192	0x3f109949	0.56483895
193	0x3f2ab64b	0.66684407
194	0xbf524aea	-0.8214556
195	0xbef50fc9	-0.47863606
196	0xbee3c760	-0.4448805
197	0xbefc3167	-0.4925644
198	0x3f5e4d6b	0.8683688
199	0xbec810b0	-0.39075232
200	0xbf1acdbd	-0.6047018
201	0x3ebb9be3	0.3664237
202	0xbf1e7b2e	-0.6190671
203	0x3f1232e1	0.57108885
204	0x3ee17a9c	0.44038856
205	0x3f072189	0.52785546
206	0x3f2335c1	0.63753897
207	0x3edf85f7	0.43656895
208	0x3f1f339f	0.6218814
209	0x3f080a1d	0.5314043
210	0xbf041980	-0.5160141
211	0x3ee0afd9	0.4388416
212	0xbf291621	-0.6604939
213	0xbf075d70	-0.5287695
214	0x3f04ffd9	0.5195289
215	0xbedc93f2	-0.43081623
216	0x3f1b909a	0.6076752
217	0xbf21c817	-0.6319594
218	0xbee45727	-0.44597742
219	0x3ec5f5e5	0.38664165
220	0x3f1281a7	0.57229084
221	0xbf0d9377	-0.5530314
222	0xbeccfd39	-0.40036944
223	0xbf08bb12	-0.53410447
224	0xbec3b36b	-0.38222823
225	0xbf23d9e2	-0.6400434
226	0x3f243a39	0.6415134
227	0xbf284e72	-0.657447
228	0xbf40a37d	-0.75249463
229	0xbf34e61a	-0.7066361
230	0x3f1c60d1	0.6108523
231	0x3ee325f1	0.44364884
232	0xbf30b343	-0.6902353
233	0xbeed84b4	-0.46390307
234	0x3f2d292b	0.6764094
235	0xbf493df3	-0.7861015
236	0x3f18d53f	0.5970039
237	0x3f4a838e	0.79106987
238	0xbed9a1a2	-0.4250613
239	0xbf2c38a2	-0.67273915
240	0xbf4ea9c9	-0.8072782
241	0x3f30e709	0.6910253
242	0x3f21fae5	0.6327346
243	0x3f1e4f5e	0.61839855
244	0xbed63376	-0.41836137
245	0xbf226b3f	-0.63444895
246	0x3f292d50	0.66084766
247	0xbed94bf7	-0.4244077
248	0x3ec791b3	0.38978347
249	0x3f270460	0.6524105
250	0xbed3c370	-0.41360044
251	0xbf192265	-0.59818107
252	0xbe609a60	-0.2193389
253	0x3f0225fa	0.508392
254	0xbf13ce55	-0.5773671
255	0x3f2b6666	0.6695312

attention_layer.att.bias f4 [128]
0	0x3eb99696	0.362477
1	0x3f30c1b3	0.6904556
2	0xbedc3398	-0.43008113
3	0xbec6ddbb	-0.38841042
4	0xbf2f5665	-0.684912
5	0x3efeaf13	0.49742946
6	0x3f0998f4	0.5374901
7	0xbf07259c	-0.5279176
8	0x3f0a3b9f	0.53997225
9	0xbf070a5f	-0.527502
10	0x3ef99851	0.4874902
11	0xbefcec50	-0.49399042
12	0xbf1e26fe	-0.6177825
13	0xbf0e3e16	-0.55563486
14	0xbecee472	-0.40408665
15	0xbf14699d	-0.57973653
16	0xbf0d1274	-0.5510628
17	0x3ebeb68d	0.3724865
18	0x3ed99a54	0.42500556
19	0xbf0bddf9	-0.5463558
20	0x3eb53aea	0.3539651
21	0xbf36df92	-0.7143489
22	0x3cf51195	0.02991561
23	0x3f74465d	0.95419866
24	0x3efee790	0.49786043
25	0xbed066e3	-0.40703496
26	0xbf2472e1	-0.6423779
27	0x3f00c2ff	0.5029754
28	0xbee35031	-0.4439712
29	0xbf4fbcfa	-0.8114773
30	0x3f45c373	0.77251357
31	0x3f4990f8	0.7873683
32	0x3f2ad0b8	0.6672473
33	0xbf350fc0	-0.7072716
34	0x3eeff348	0.46865296
35	0x3f11229d	0.5669344
36	0xbedf4fdd	-0.43615618
37	0xbf1536de	-0.58286846
38	0x3f2d6610	0.6773386
39	0x3f319330	0.69365215
40	0xbf32a3be	-0.697811
41	0x3f115f62	0.5678617
42	0xbf21d2ee	-0.6321248
43	0x3ef6bf2a	0.48192722
44	0x3f395ae6	0.72404325
45	0xbd199076	-0.037491284
46	0xbf20dd65	-0.6283782
47	0x3ecf5abc	0.40498912
48	0x3f0e00f0	0.5547018
49	0xbeb99e8c	-0.36253774
50	0x3ed73961	0.42035964
51	0x3ef6b95a	0.48188287
52	0xbeaa3f6e	-0.33251518
53	0xbf1810fb	-0.5940091
54	0xbec7945e	-0.38980383
55	0x3e9a3f3a	0.30126363
56	0x3f1afc2d	0.6054104
57	0x3eec0f52	0.46105438
58	0xbf0eba02	-0.55752575
59	0x3f024e79	0.5090099
60	0x3f234c26	0.6378807
61	0xbec2612d	-0.37964764
62	0x3f03c841	0.5147744
63	0xbf061248	-0.52371645
64	0x3edb542f	0.42837664
65	0xbef82844	-0.4846822
66	0x3ef7473c	0.48296535
67	0xbc480b63	-0.012209746
68	0xbecd6139	-0.40113238
69	0xbf3621f2	-0.71145546
70	0x3efa07b4	0.48834002
71	0xbf01c676	-0.5069345
72	0x3eed01c5	0.46290413
73	0x3eb52b10	0.35384417
74	0xbf23a189	-0.6391836
75	0xbf184eea	-0.59495413
76	0xbf07fc88	-0.5311971
77	0xbf09844c	-0.53717494
78	0xbf25b4cc	-0.64729
79	0x3ed7dd9e	0.42161268
80	0xbefe1a41	-0.49629405
81	0x3f0b0a38	0.5431247
82	0x3edc868e	0.43071407
83	0xbf07efbb	-0.53100175
84	0x3f280515	0.65632755
85	0x3f4d5a7a	0.8021618
86	0xbefc823a	-0.49318105
87	0xbf3105f0	-0.69149685
88	0x3f143f14	0.5790875
89	0xbf2472b8	-0.64237547
90	0x3f04b5b8	0.5183978
91	0xbed1c223	-0.40968427
92	0xbee97f4e	-0.45604938
93	0xbeff665d	-0.49882784
94	0xbecfe42f	-0.40603778
95	0xbef60cfe	-0.48056787
96	0x3f063c1f	0.5243549
97	0xbf2383a6	-0.63872755
98	0xbf066d5c	-0.5251062
99	0x3f452b09	0.7701879
100	0x3f1d88d9	0.6153694
101	0x3f4ceef5	0.8005212
102	0x3f19fc7e	0.601509
103	0x3e532fd2	0.20623711
104	0x3f0a1b1c	0.53947616
105	0x3f0b973a	0.5452763
106	0x3eedb1d0	0.46424723
107	0xbef3ad08	-0.4759295
108	0x3effd041	0.49963573
109	0x3ef42449	0.47683933
110	0xbf08bc3a	-0.5341221
111	0x3f28b220	0.658968
112	0xbf3b4d2f	-0.7316465
113	0x3f2e854f	0.6817216
114	0x3f19e524	0.60115266
115	0x3f34d9e3	0.7064497
116	0xbec3c035	-0.3823258
117	0x3ef6b7bc	0.48187053
118	0xbf14c6a0	-0.5811558
119	0xbef672bc	-0.4813441
120	0x3eb95f90	0.3620572
121	0xbf135b88	-0.5756154
122	0xbf213a80	-0.6297989
123	0x3f059666	0.52182615
124	0x3f150019	0.58203274
125	0xbea771cf	-0.32704017
126	0x3f35ec92	0.710641
127	0xbf08e4fc	-0.534744

attention_layer.gate.weight f4 [128, 128]
0	0xbf048a05	-0.517731
1	0x3f1cce43	0.6125223
2	0x3f1cac01	0.6119996
3	0x3ef257b8	0.4733255
4	0x3f21eb8b	0.63250035
5	0x3f2d5078	0.6770091
6	0xbe635b83	-0.22202878
7	0xbf2c4a81	-0.67301184
8	0x3f03b1de	0.5144328
9	0xbf0da611	-0.5533152
10	0xbf422870	-0.7584295
11	0x3f12563b	0.5716283
12	0x3f862159	1.0478927
13	0x3ef0f599	0.47062376
14	0xbee4678a	-0.44610244
15	0x3f0daf4a	0.55345595
16	0x3f1efb34	0.62102056
17	0xbf18ad18	-0.5963912
18	0x3f1afaa7	0.60538715
19	0x3f40e963	0.7535612
20	0x3e307825	0.17233332
21	0xbf4d6935	-0.8023866
22	0xbf19a3a2	-0.6001531
23	0x3efab136	0.48963326
24	0x3f158104	0.5839999
25	0xbee9416c	-0.45557725
26	0x3f5710c4	0.8400996
27	0xbf2f6d56	-0.6852621
28	0xbefb9384	-0.49135983
29	0x3f22a09e	0.6352633
30	0x3f0b2671	0.5435553
31	0x3f15412d	0.58302575
32	0x3f3af0d8	0.7302375
33	0xbf1c5631	-0.6106902
34	0x3f36d861	0.7142392
35	0xbef8f00e	-0.48620647
36	0x3f046d2d	0.5172909
37	0xbf0b56b1	-0.54429156
38	0xbefc76e1	-0.49309447
39	0x3f2529ca	0.6451689
40	0xbf16a178	-0.5884013
41	0x3f1dfbcf	0.61712354
42	0xbf07c5b3	-0.5303604
43	0xbf10b641	-0.565281
44	0x3ecbcdbd	0.39805403
45	0x3f142179	0.57863575
46	0xbf5e3591	-0.86800486
47	0x3f2bdbab	0.6713206
48	0x3f053846	0.5203899
49	0x3f09efd9	0.53881603
50	0xbefa5af4	-0.48897517
51	0xbef72da1	-0.48277
52	0xbefc403c	-0.49267757
53	0x3f151580	0.5823593
54	0x3eeba344	0.46023
55	0x3f6c322e	0.9226407
56	0xbf32ab4d	-0.69792634
57	0xbf5750a7	-0.8410744
58	0xbeeafca6	-0.4589588
59	0xbf541c28	-0.82855463
60	0xbf12a2c5	-0.57279617
61	0xbed7c0ad	-0.42139187
62	0x3f134f4d	0.5754288
63	0xbf52ca8b	-0.82340306
64	0xbf181e01	-0.5942078
65	0xbf736ec5	-0.95090896
66	0xbf2a8755	-0.6661275
67	0x3f48463d	0.78232175
68	0xbf1cea62	-0.6129514
69	0xbf0513cb	-0.51983327
70	0x3f144cef	0.5792989
71	0x3f410ccd	0.7541016
72	0xbf179a3d	-0.59219724
73	0xbf312f54	-0.6921284
74	0xbe28e0f8	-0.16492069
75	0xbf063dcb	-0.5243804
76	0x3f0bc91c	0.54603744
77	0xbf3d15ff	-0.7386169
78	0x3ef56d5e	0.47935003
79	0xbe6f7069	-0.23382725
80	0x3f0da388	0.55327654
81	0xbf22aefd	-0.6354826
82	0xbf194634	-0.59872746
83	0xbf076217	-0.5288405
84	0x3f07a3c4	0.5298426
85	0xbf00ead8	-0.50358343
86	0xbf452ead	-0.77024347
87	0xbe0e1ac5	-0.138774
88	0x3f116800	0.56799316
89	0xbf18647b	-0.5952832
90	0xbf0373fa	-0.5134884
91	0x3f0f4197	0.5595946
92	0x3f01efc3	0.5075647
93	0xbf072788	-0.52794695
94	0xbef5a81b	-0.47979817
95	0x3f61fd9a	0.8827759
96	0x3f1cd191	0.6125727
97	0xbf0fcd27	-0.5617241
98	0x3f01ac6d	0.50653726
99	0x3f40f16e	0.7536839
100	0xbf1e297b	-0.61782044
101	0x3f2bec77	0.6715769
102	0x3f10690a	0.56410277
103	0xbf34fe3c	-0.7070043
104	0xbe559924	-0.208592
105	0xbed74f27	-0.42052576
106	0x3f0192d9	0.50614697
107	0xbf2e26d5	-0.68028
108	0xbf88d6b6	-1.0690525
109	0x3f0f78d3	0.5604374
110	0x3c509035	0.012729694
111	0xbf0ba68e	-0.5455102
112	0xbf223b6d	-0.63371927
113	0x3ef7d0b3	0.48401412
114	0xbf24150c	-0.64094615
115	0xbf1e42e3	-0.6182081
116	0xbec88bc6	-0.3916914
117	0xbf048f19	-0.5178085
118	0x3ef6d2bd	0.48207656
119	0x3f62a3fc	0.8853147
120	0x3efeaf1b	0.4974297
121	0xbe8acd8f	-0.27109954
122	0x3f1d53a9	0.6145578
123	0xbf190384	-0.5977099
124	0x3f585ae0	0.84513664
125	0x3d8105c6	0.06299929
126	0xbf1c13a3	-0.60967463
127	0x3f001b0f	0.5004129
128	0xbef9f0e4	-0.48816597
129	0x3f0762bf	0.5288505
130	0x3f069855	0.5257619
131	0x3f0a54e4	0.5403578
132	0x3f06c304	0.5264132
133	0x3eee455f	0.465373
134	0xbef655e5	-0.48112407
135	0xbf01e2ba	-0.5073658
136	0x3f1ab579	0.60433155
137	0xbf1f29f6	-0.621734
138	0xbf01d67a	-0.5071789
139	0x3f0c021b	0.5469071
140	0x3ef54f6c	0.47912157
141	0x3f0e6d73	0.55635756
142	0xbef167cc	-0.47149503
143	0x3f1b69e8	0.60708475
144	0x3f068f67	0.52562565
145	0xbf054ed4	-0.5207341
146	0x3f0db622	0.5535604
147	0x3f17118e	0.5901116
148	0x3f17e493	0.5933315
149	0xbf0a7c87	-0.54096264
150	0xbefc08ec	-0.49225557
151	0x3f159354	0.5842793
152	0x3f10e25a	0.56595385
153	0xbf0b631d	-0.5444811
154	0x3eff1f9e	0.4982881
155	0xbeecef74	-0.46276438
156	0xbefedb9d	-0.49776927
157	0x3f1bf87e	0.60926044
158	0x3f0c31fa	0.5476376
159	0x3eeee29c	0.46657264
160	0x3f17267f	0.59043115
161	0xbeeb3197	-0.45936272
162	0x3f021915	0.5081952
163	0xbf0a98ae	-0.5413922
164	0x3ef5bfb5	0.47997823
165	0xbf0a0a71	-0.5392218
166	0xbf0a5091	-0.54029185
167	0x3f139b7d	0.5765913
168	0xbef81937	-0.48456737
169	0x3f10f836	0.5662874
170	0xbf10526d	-0.5637577
171	0xbf10c086	-0.5654377
172	0x3f142dd0	0.57882404
173	0x3f121155	0.57057697
174	0xbeed66c5	-0.4636747
175	0x3f0be475	0.5464547
176	0x3ef4c415	0.4780585
177	0x3f1447d7	0.5792212
178	0xbf111983	-0.5667955
179	0xbf029246	-0.51004446
180	0xbeffed72	-0.49985844
181	0x3f1c4336	0.61040056
182	0x3eef8b66	0.4678604
183	0x3f0a0126	0.53908
184	0xbf00c39f	-0.50298494
185	0xbf0bedd2	-0.5465976
186	0xbf13ddac	-0.5776012
187	0xbf119dfd	-0.56881696
188	0xbf05599c	-0.5208986
189	0xbf037f0a	-0.5136572
190	0x3f136e4f	0.5759019
191	0xbef79b89	-0.4836085
192	0xbf0f17d2	-0.5589572
193	0xbf096c4b	-0.53680867
194	0xbf209530	-0.6272764
195	0x3eb52342	0.35378462
196	0xbf105c8d	-0.5639122
197	0xbf1caee7	-0.6120438
198	0x3eebb5b5	0.4603707
199	0x3f060a31	0.523593
200	0xbf152e57	-0.58273834
201	0xbef886e1	-0.48540404
202	0xbf07bc40	-0.5302162
203	0xbeeeb9f2	-0.4662624
204	0x3f1aca60	0.6046505
205	0xbf155216	-0.5832838
206	0x3f0b9aae	0.545329
207	0xbefd2f59	-0.49450186
208	0x3f19a233	0.6001312
209	0xbef204d8	-0.4726932
210	0xbef31177	-0.47474262
211	0xbf1787b9	-0.5919147
212	0x3f125fdd	0.57177526
213	0xbf18769e	-0.59555995
214	0xbf0a7d4a	-0.54097426
215	0xbf1c4a4d	-0.61050874
216	0x3ef22162	0.47291094
217	0xbf07517e	-0.5285872
218	0xbf1c444a	-0.610417
219	0x3ee851df	0.45374963
220	0x3efc04de	0.49222463
221	0xbf0516a7	-0.5198769
222	0xbf07eebe	-0.53098667
223	0x3f0bfe22	0.5468465
224	0x3f117198	0.56813955
225	0xbf1a0d2f	-0.60176367
226	0x3ef9cbe6	0.48788375
227	0x3f05cf07	0.52269024
228	0xbf134b96	-0.5753721
229	0x3ee9e950	0.45685816
230	0x3ef82412	0.4846502
231	0xbf00eeb2	-0.5036422
232	0xbf1a6d10	-0.60322666
233	0xbf039134	-0.5139344
234	0x3ef268f2	0.47345692
235	0xbf18cdb7	-0.59688896
236	0xbf1d8679	-0.61533314
237	0x3f1eaeb4	0.61985326
238	0xbee23af6	-0.4418561
239	0xbf1cf1e7	-0.61306614
240	0xbf0ec667	-0.5577149
241	0x3eecce1f	0.46251008
242	0xbf13b375	-0.57695705
243	0xbf0c9a01	-0.5492249
244	0xbf09497c	-0.53627753
245	0xbf1dd1b8	-0.6164813
246	0x3f149a2f	0.58047765
247	0x3efac316	0.48976964
248	0x3ee7f447	0.45303556
249	0xbf016e20	-0.5055866
250	0x3ee9361a	0.4554909
251	0xbf07879f	-0.52941316
252	0x3f182d1a	0.5944382
253	0x3f08b662	0.53403294
254	0xbf067e44	-0.52536416
255	0x3f10bcad	0.56537896

attention_layer.gate.bias f4 [128]
0	0x3f1bdc3b	0.6088292
1	0x3efd8c9c	0.4952134
2	0xbf471ccc	-0.77778316
3	0xbe15a41b	-0.14613383
4	0xbf063443	-0.52423495
5	0xbe068acc	-0.13138884
6	0x3ebaa0da	0.36450845
7	0x3eea2984	0.457348
8	0x3f23a047	0.6391644
9	0x3f2540b2	0.6455184
10	0xbf0d4441	-0.5518227
11	0x3f75326f	0.9578008
12	0xbea17c7b	-0.31540284
13	0x3f2d0e78	0.676002
14	0xbf25e369	-0.64800125
15	0x3f839251	1.0279027
16	0x3f216a2c	0.6305263
17	0xbf111c82	-0.56684124
18	0x3f0d7fd4	0.55273175
19	0x3f26a1dd	0.65090734
20	0x3eb2bc6f	0.34909388
21	0x3f85923b	1.0435251
22	0x3f09ca61	0.5382443
23	0x3f1af4fe	0.6053008
24	0x3efbf541	0.4921055
25	0x3f0122e3	0.5044386
26	0x3f3de045	0.74170333
27	0x3f259380	0.6467819
28	0xbf26d264	-0.6516478
29	0x3f296959	0.6617637
30	0xbf132d11	-0.5749064
31	0x3e8fc630	0.28080893
32	0xbf0fe9d3	-0.5621616
33	0x3f198e69	0.59982926
34	0x3f20aabf	0.6276054
35	0x3f39ccc8	0.72578096
36	0x3f1bc979	0.608543
37	0xbd82bf13	-0.06384101
38	0xbf0a0e9a	-0.5392853
39	0x3f3f5cc2	0.7475091
40	0x3f1fb019	0.6237808
41	0xbf217313	-0.63066214
42	0x3f39ecd6	0.7262701
43	0xbd94b31e	-0.072607264
44	0x3f30698f	0.6891107
45	0xbebae203	-0.36500558
46	0x3f2ef7d2	0.68346894
47	0x3f7a3e00	0.97750854
48	0x3f2a8283	0.66605395
49	0xbefa4b6a	-0.4888566
50	0x3f22d59d	0.636072
51	0x3f2d1be4	0.6762068
52	0x3f2cfddd	0.67574865
53	0xbf1d3f7c	-0.61424994
54	0x3f0a77dc	0.5408914
55	0xbe3233db	-0.17402594
56	0x3f27b038	0.65503263
57	0xbf19b4c3	-0.60041445
58	0x3f10b3dc	0.56524444
59	0x3f471e15	0.77780277
60	0x3f2cdffc	0.67529273
61	0xbf0f6958	-0.56020117
62	0x3ea12e24	0.31480515
63	0x3f1a42bd	0.60258085
64	0xbe26f687	-0.1630498
65	0x3ef81395	0.4845244
66	0x3f12f10e	0.5739907
67	0xbecec0db	-0.40381512
68	0x3f8f345c	1.1187854
69	0xbf2089a0	-0.6271
70	0x3f0b5df1	0.5444022
71	0xbf269a18	-0.6507888
72	0x3f29b254	0.6628773
73	0x3ef09665	0.46989742
74	0x3eab5502	0.33463293
75	0xbf2996c8	-0.662457
76	0x3f01384c	0.5047653
77	0x3f00d19d	0.50319844
78	0x3f355423	0.7083151
79	0xbeffc3d7	-0.499541
80	0x3f04ef64	0.5192778
81	0x3f7c4838	0.985477
82	0x3efe770e	0.49700207
83	0x3efe6517	0.496865
84	0xbf3237a9	-0.6961618
85	0xbf18d16f	-0.5969457
86	0x3f041ee1	0.5160962
87	0x3ed5ef01	0.41783908
88	0xbe5f4f34	-0.21807557
89	0xbf70cb25	-0.94059974
90	0xbf59712e	-0.84938323
91	0x3eee0052	0.4648462
92	0xbf2922ef	-0.6606893
93	0xbdc3f885	-0.09568886
94	0x3f0b6591	0.54451853
95	0xbf128504	-0.57234216
96	0xbf4f2ede	-0.8093089
97	0x3f66e085	0.9018634
98	0xbf349d7c	-0.705528
99	0xbf4ce69d	-0.8003939
100	0x3f17bfbc	0.5927694
101	0x3d7021cc	0.05862598
102	0x3f6a89cd	0.9161652
103	0x3f155301	0.5832978
104	0xbe401260	-0.1875701
105	0x3f72c040	0.948246
106	0x3f2a6604	0.66561913
107	0xbf183717	-0.5945906
108	0x3f29d65f	0.6634273
109	0x3f20a6c7	0.6275448
110	0x3f3246c8	0.69639254
111	0xbc6af02f	-0.014339491
112	0x3eb0a91b	0.34504017
113	0x3f217ee1	0.63084227
114	0x3d88843b	0.06665846
115	0xbf18a5c0	-0.59627914
116	0xbec56c8f	-0.38559386
117	0x3f36bf14	0.7138531
118	0xbe56bddd	-0.20970865
119	0xbf19eda1	-0.6012822
120	0x3f2c856a	0.67391074
121	0x3f105493	0.5637905
122	0x3e9fd7ec	0.31219423
123	0xbe927ae1	-0.28609374
124	0x3f08a796	0.53380716
125	0xbddc6ac7	-0.10762554
126	0x3ef8559a	0.4850281
127	0x3f60baa9	0.8778482

attention_layer.w.weight f4 [1, 128]
0	0x3f06e20b	0.52688664
1	0xbe987926	-0.2977993
2	0x3e9b3ec9	0.3032134
3	0xbf2087ce	-0.6270722
4	0xbf038a95	-0.51383334
5	0x3f1f6080	0.6225662
6	0x3f3373ea	0.70098746
7	0x3ec3d09d	0.38245097
8	0x3f348df5	0.7052911
9	0xbf3c1ef2	-0.7348472
10	0x3f06fc70	0.5272894
11	0xbf18df8f	-0.59716123
12	0x3e557c8e	0.20848295
13	0xbf68eaff	-0.90983576
14	0x3f231663	0.63706034
15	0xbf75234f	-0.95757
16	0xbf1767ef	-0.59142965
17	0x3f1428a3	0.57874507
18	0x3e80a693	0.25127086
19	0xbf5dfe01	-0.86715704
20	0x3f24fa69	0.64444596
21	0xbf189327	-0.59599537
22	0x3dd20860	0.10255504
23	0x3f51b088	0.8190999
24	0xbe7ca1d1	-0.24671103
25	0x3eeb45d2	0.45951706
26	0xbf675b7c	-0.9037397
27	0x3e11d286	0.14240465
28	0x3f1a9cc0	0.6039543
29	0xbf760ca8	-0.9611306
30	0x3f2205c7	0.63290066
31	0x3f30185d	0.68787175
32	0xbefa9df2	-0.48948628
33	0xbe4df255	-0.20111974
34	0xbed0c5de	-0.4077596
35	0x3f3bd3c3	0.7337
36	0x3eb33087	0.3499796
37	0x3dcbffcd	0.099608995
38	0x3f205cb9	0.62641484
39	0x3f697b37	0.91203636
40	0xbec05931	-0.37568048
41	0x3f25e53f	0.64802927
42	0xbf5badb8	-0.8581195
43	0xbcd9eb69	-0.02660151
44	0x3f3559c6	0.7084011
45	0x3f1605d1	0.58602625
46	0xbf511426	-0.8167137
47	0x3f81d5f0	1.0143414
48	0x3f32d740	0.69859695
49	0xbf32edd2	-0.69894135
50	0x3e9562f4	0.29177058
51	0x3f4a3781	0.7899094
52	0x3e2ea64f	0.17055629
53	0xbec2e085	-0.3806192
54	0x3e7a3af3	0.2443655
55	0x3f1a3edc	0.60252166
56	0x3f38120e	0.7190255
57	0x3f130524	0.5742972
58	0x3e87427e	0.26417917
59	0x3f2994d4	0.6624272
60	0x3f4b1931	0.79335314
61	0xbf360d43	-0.71113986
62	0x3e5dfe98	0.21679151
63	0xbf1698ba	-0.5882679
64	0xbe96c684	-0.2944833
65	0xbec21026	-0.37902945
66	0xbee94d57	-0.45566818
67	0xbee9f0d4	-0.4569155
68	0xbf861f25	-1.0478255
69	0xbf0e1dfb	-0.55514497
70	0xbeef7171	-0.46766236
71	0x3eab9c74	0.33517802
72	0x3f290a85	0.66031677
73	0x3f31d700	0.6946869
74	0xbf2becdb	-0.6715829
75	0x3eecc31a	0.462426
76	0xbee20d4d	-0.44150773
77	0xbe8fa3a1	-0.28054526
78	0xbec0150f	-0.37516066
79	0xbe0d51ae	-0.1380069
80	0xbee37275	-0.4442326
81	0x3f821491	1.0162526
82	0x3ee49ec8	0.4465239
83	0xbeefcac0	-0.46834373
84	0xbe992464	-0.29910576
85	0x3f3714de	0.71516216
86	0xbf51f80c	-0.82019114
87	0xbf29f75e	-0.6639308
88	0xbe3aa805	-0.18228157
89	0xbe79c0c7	-0.24389945
90	0xbe05f85f	-0.13083027
91	0xbf38e613	-0.72226065
92	0xbf10375b	-0.56334466
93	0x3e27184e	0.16317865
94	0xbf05a426	-0.52203596
95	0x3f1b1fdf	0.60595506
96	0xbddc4502	-0.1075535
97	0xbf83a86d	-1.0285774
98	0x3eef8d32	0.4678741
99	0x3f24359c	0.641443
100	0x3f1687d7	0.58801025
101	0x3f256cdb	0.64619225
102	0x3f826941	1.0188371
103	0xbec887f5	-0.39166227
104	0x3f234d03	0.63789386
105	0x3f82a224	1.0205731
106	0x3f3cc4ea	0.73737967
107	0xbf29905d	-0.66235906
108	0x3f375fbc	0.71630454
109	0xbec4551f	-0.38346192
110	0xbf3d9129	-0.7404962
111	0x3f2afc28	0.6679101
112	0xbf29ff7f	-0.6640548
113	0x3f4f09e5	0.8087447
114	0xbc3adb01	-0.011404754
115	0xbee6d20a	-0.45082122
116	0xbf15e050	-0.585454
117	0xbe939a08	-0.28828454
118	0x3e16df77	0.14733683
119	0x3f1d05dc	0.61337066
120	0x3f7d38c9	0.9891477
121	0xbf1dfaef	-0.6171102
122	0x3eed5746	0.46355647
123	0x3f0a0c83	0.5392534
124	0x3ef9c3c8	0.48782182
125	0x3f22c1e1	0.63577086
126	0x3ee81eb9	0.4533594
127	0xbf7cdcee	-0.9877461

mlp.0.0.weight f4 [128, 128]
0	0x3f2ee3df	0.68316454
1	0x3ecec395	0.40383592
2	0x3f0ac7c8	0.5421109
3	0xbec12c61	-0.3772917
4	0xbf2187e4	-0.6309798
5	0x3f090b6f	0.5353307
6	0x3ec7a089	0.38989666
7	0xbed2bbab	-0.41158804
8	0xbf1dafe0	-0.6159649
9	0xbec042f7	-0.3755109
10	0xbf0321e8	-0.5122361
11	0xbf364b44	-0.71208596
12	0x3ebc5b19	0.36788252
13	0xbf1ac4db	-0.6045663
14	0x3f057c3f	0.5214271
15	0xbf07175a	-0.52770007
16	0xbf37b628	-0.71762323
17	0xbeeaddae	-0.45872253
18	0xbf36d308	-0.7141576
19	0x3eea8bb5	0.45809713
20	0xbf05e34d	-0.5229996
21	0xbef4fa55	-0.47847238
22	0x3f3d8995	0.7403806
23	0xbf14cab1	-0.5812178
24	0xbf269cfd	-0.65083295
25	0x3edb786c	0.42865312
26	0x3ec8c0ad	0.392095
27	0xbf09a3d7	-0.53765625
28	0x3f070fbe	0.52758396
29	0xbf36fac1	-0.7147637
30	0xbecfea71	-0.40608552
31	0x3ee8a2a8	0.45436597
32	0x3ed61b9c	0.4181794
33	0xbf03dd0e	-0.5150918
34	0x3edecba6	0.43514746
35	0xbeec75d8	-0.46183658
36	0xbee396fa	-0.44451123
37	0x3f2de597	0.6792845
38	0x3f29e654	0.6636708
39	0x3ee7e5da	0.4529255
40	0x3f2c2e47	0.67258114
41	0xbec5dfdf	-0.38647363
42	0x3f280b9e	0.65642726
43	0x3f05827f	0.52152246
44	0xbef83041	-0.48474315
45	0xbee614a6	-0.44937629
46	0xbf38b426	-0.72149885
47	0x3ed2b914	0.41156828
48	0xbf123715	-0.571153
49	0x3f36050b	0.71101445
50	0x3efccc6b	0.4937471
51	0x3f3d99c1	0.74062735
52	0x3f13a820	0.57678413
53	0xbf1736f3	-0.5906822
54	0xbf39419a	-0.72365725
55	0x3f02b3f0	0.5105581
56	0x3f02766c	0.5096195
57	0xbf03ca97	-0.51481
58	0x3f141dd3	0.5785801
59	0xbee6f845	-0.4511129
60	0x3f3b76a4	0.73227906
61	0xbec431a9	-0.38319138
62	0xbf372041	-0.7153359
63	0xbeedf0c0	-0.4647274
64	0x3f127b99	0.57219845
65	0xbef5bb3c	-0.4799441
66	0x3f11ef51	0.5700579
67	0x3f065851	0.5247851
68	0x3f2ab222	0.6667806
69	0x3f35ab65	0.7096465
70	0xbee3682f	-0.44415423
71	0x3f0ae14a	0.54250014
72	0x3f18f819	0.59753567
73	0xbf35dc73	-0.71039504
74	0x3eda369c	0.4261979
75	0x3f1505db	0.5821206
76	0xbf3dd61e	-0.7415484
77	0xbee51593	-0.44743022
78	0xbec93275	-0.39296308
79	0xbf06edc6	-0.52706563
80	0xbecb3d47	-0.39695188
81	0xbedb4338	-0.4282472
82	0x3f1d7980	0.6151352
83	0xbf087ace	-0.53312385
84	0x3ec8de69	0.39232185
85	0x3f16ad45	0.5885814
86	0xbf002386	-0.50054204
87	0x3ec1d980	0.37861252
88	0xbf3e0d6d	-0.74239236
89	0x3f3c7a91	0.7362452
90	0x3f34f5aa	0.70687354
91	0xbf15059e	-0.58211696
92	0xbf33d1a6	-0.70241773
93	0x3f3659ac	0.7123058
94	0x3f2fe638	0.6871066
95	0x3f0b0b23	0.5431387
96	0x3eed9e9a	0.46410066
97	0x3f288a70	0.6583624
98	0xbf204e68	-0.6261964
99	0x3f011f3a	0.5043827
100	0x3f349973	0.70546645
101	0x3ef6a711	0.48174337
102	0xbf170eda	-0.59007037
103	0xbec242c8	-0.37941575
104	0x3eecaf11	0.46227315
105	0x3f266bf6	0.65008485
106	0xbf378230	-0.71683025
107	0x3ed94e00	0.42442322
108	0xbf074f0e	-0.52855
109	0xbedf31bf	-0.4359264
110	0x3efadee3	0.48998174
111	0x3f3ac34a	0.7295424
112	0x3f1e4dc9	0.6183744
113	0xbf2a1cfc	-0.66450477
114	0xbf059823	-0.5218527
115	0xbee3e026	-0.4450695
116	0x3ee0b953	0.4389139
117	0x3f18fb82	0.5975877
118	0xbed7ed98	-0.42173457
119	0x3ed6d6fb	0.41960892
120	0xbf25ca7a	-0.6476208
121	0xbed65a3d	-0.4186572
122	0xbf3888ee	-0.7208394
123	0x3f39682d	0.72424585
124	0xbee77e2a	-0.45213443
125	0xbed92eae	-0.42418426
126	0x3f38aa54	0.721349
127	0xbecd8efb	-0.40148148
128	0x3f149f4a	0.58055556
129	0x3ed7b2a9	0.42128494
130	0x3ee6adf3	0.45054588
131	0xbec2b405	-0.3802797
132	0xbf208551	-0.62703425
133	0x3ed2bc33	0.4115921
134	0x3ef845fc	0.48490894
135	0xbedaa422	-0.42703348
136	0xbf22b55e	-0.63557994
137	0xbf0a389b	-0.53992623
138	0xbedd5582	-0.432293
139	0xbf28681e	-0.6578387
140	0x3ed332f6	0.41249818
141	0xbf118923	-0.5684988
142	0x3edb54cc	0.42838132
143	0xbed0ef26	-0.40807456
144	0xbf28bff7	-0.65917915
145	0xbedc2985	-0.43000427
146	0xbf31e14f	-0.6948442
147	0x3ee79606	0.45231646
148	0xbed63f27	-0.41845056
149	0xbedf1dd3	-0.43577442
150	0x3f15dfb9	0.585445
151	0xbf35ebfd	-0.71063215
152	0xbf2dcdaa	-0.67891943
153	0x3ed05f5c	0.40697753
154	0x3ed2586a	0.4108308
155	0xbed1d45a	-0.40982324
156	0x3ee73c13	0.4516302
157	0xbf235e49	-0.6381574
158	0xbef7e36b	-0.48415694
159	0x3ed5d83e	0.41766542
160	0x3efd43ad	0.49465695
161	0xbee7e06f	-0.45288417
162	0x3eeed2d8	0.46645236
163	0xbef50d07	-0.47861502
164	0xbf00e4c6	-0.5034908
165	0x3f34c21d	0.70608693
166	0x3f2a9251	0.6662951
167	0x3ec68aba	0.38777715
168	0x3f2b3f9f	0.66893953
169	0xbf1e6e08	-0.61886644
170	0x3f15a831	0.58459765
171	0x3ee647bb	0.449766
172	0xbee34d10	-0.44394732
173	0xbeeee640	-0.46660042
174	0xbf3697f3	-0.71325606
175	0x3f0392db	0.5139596
176	0xbf116610	-0.5679636
177	0x3edf3d05	0.43601242
178	0x3eef61a8	0.46754193
179	0x3f13ddd8	0.5776038
180	0x3f321b3d	0.6957281
181	0xbf171e4f	-0.5903062
182	0xbf241ea3	-0.6410925
183	0x3effa8bd	0.49933425
184	0x3f00ac46	0.5026287
185	0xbeeeab6a	-0.46615154
186	0x3f19acab	0.60029095
187	0xbec2e4d9	-0.38065222
188	0x3f291edb	0.66062707
189	0xbec40387	-0.3828394
190	0xbf29bc91	-0.66303355
191	0xbf0238ba	-0.5086781
192	0x3f1c33d3	0.6101658
193	0xbee64183	-0.44971856
194	0x3f32ffeb	0.6992175
195	0x3ec6b574	0.38810313
196	0x3f16522e	0.58719146
197	0x3f33d5ce	0.70248115
198	0xbf04e5d4	-0.5191319
199	0x3f0a55aa	0.54036963
200	0x3f3176f3	0.6932213
201	0xbee3ddb3	-0.4450508
202	0x3ecdf452	0.40225464
203	0x3f387a73	0.7206184
204	0xbf33b992	-0.7020503
205	0xbecd0415	-0.40042177
206	0xbecf9298	-0.4054153
207	0xbf0307fb	-0.5118405
208	0xbf24465e	-0.6416987
209	0xbef9987f	-0.48749158
210	0x3f34ed6a	0.70674765
211	0xbefaf5d2	-0.4901567
212	0x3f01b019	0.5065933
213	0x3f1604b2	0.58600914
214	0xbee13427	-0.43985102
215	0x3ef86b69	0.48519447
216	0xbf2496e1	-0.6429272
217	0x3f386911	0.7203532
218	0x3f3438bd	0.70399076
219	0xbf1bf02f	-0.60913366
220	0xbf11b83d	-0.5692175
221	0x3f1fbb6f	0.62395376
222	0x3f345cb3	0.7045395
223	0x3ec2f594	0.38077986
224	0x3ec6fd3f	0.38865086
225	0x3f265233	0.64969176
226	0xbf28c79b	-0.65929574
227	0x3ec0e39c	0.37673652
228	0x3f2184e2	0.6309339
229	0x3eff0993	0.49811992
230	0xbf219893	-0.63123435
231	0xbedf963b	-0.43669304
232	0x3efc2db5	0.49253622
233	0x3f1b8e8f	0.607644
234	0xbf164788	-0.587029
235	0x3edca958	0.4309795
236	0xbef2cdc5	-0.47422615
237	0xbf2eb6e8	-0.6824784
238	0x3ee6ef76	0.4510457
239	0x3f1c24c3	0.60993594
240	0x3f1219a0	0.5707035
241	0xbf1b793e	-0.60731876
242	0xbeeabef2	-0.45848805
243	0xbf070b49	-0.52751595
244	0x3eda91b0	0.42689276
245	0x3f22b0eb	0.63551205
246	0xbeff644c	-0.49881208
247	0x3ec4f77f	0.38470075
248	0xbf153cb6	-0.5829576
249	0xbefd8e83	-0.4952279
250	0xbf2dd105	-0.67897063
251	0x3f3707ee	0.71496475
252	0xbecc5915	-0.39911714
253	0xbebe9ca3	-0.3722888
254	0x3f16b349	0.5886732
255	0xbec7c5e4	-0.39018166
