dataset/models/CAF_Turley20_hCAF0TGFB/model.pth (torch, 696702 bytes, 14 tensors)

tiles_emb.hidden_layers.0.weight f4 [128, 768]
0.022377485 0.025587557 0.008518574 -0.0055374904 -0.0026221916 -0.02388643 -0.00046325475 0.0061290273
-0.02485633 -0.03774201 0.018995635 -0.016507871 -0.014649721 -0.02273703 -0.004134344 -0.025816603
0.024391618 -0.021709159 0.035340246 -0.0282374 -0.035842393 -0.025080606 -0.031239577 0.016545042
-0.024247536 0.00296998 -0.008796687 0.0028193872 -0.0012118694 -0.029406995 -0.039884258 -0.038996473
-0.043375988 0.00787763 0.022241818 -0.015194569 0.040131126 0.006206994 0.028007166 -4.334906e-05
0.02076671 0.014847894 -0.018706055 -0.0020451027 0.010018644 0.03439429 0.0031200268 -0.02831472
0.017496483 0.0040503214 0.040028144 -0.012187525 -0.00514331 -0.018681936 0.0054952386 -0.011540218
0.0040288325 -0.030835118 0.042793605 -0.006754685 0.023977628 -0.019120114 -0.013747659 0.016771654
-0.029011609 -0.014016842 -0.044464998 0.04292766 0.0076371934 0.0033423635 -0.03690908 0.012341453
0.04043327 0.027671378 0.017644288 0.022612069 -0.033261362 -0.0030389102 -0.030810436 0.03120591
-0.027040018 0.011840177 0.031004665 -0.020724026 -0.012153338 -0.026792247 -0.01535177 0.01786747
0.0073678377 -0.011780439 0.028313402 -0.0041023297 0.020946601 0.0062539726 0.024818745 -0.015642183
0.009185467 0.029723734 0.03068042 -0.011006433 0.014200318 -0.04012412 0.013423308 -0.015595629
-0.028806804 -0.040230647 0.029321441 -0.02072555 0.01352636 -0.004757917 0.030036012 0.020701146
-0.02103268 -0.0061961072 -0.02394308 -0.019264216 0.025817575 -0.02279043 0.028083794 -0.037541166
-0.018685335 0.014207944 -0.027378956 -0.0025019348 0.01790891 0.005166602 -0.015636373 0.024732102
0.0329861 0.037184812 -0.020431409 -0.020550994 0.023809034 0.0082436865 -0.0165278 0.02694677
0.007331751 0.027934998 0.040733926 -0.028805876 -0.026612494 -0.0030241527 0.041596476 -0.009804664
0.017748998 -0.037507795 0.031621218 0.034168754 -0.0060793664 0.011082667 0.02195002 -0.026585532
-0.015391692 0.039267533 -0.041590348 0.03543339 -0.016363263 0.0026815967 -0.020547545 0.0124058295
0.023186646 -0.0031952076 0.024403697 -0.020584712 0.018026695 -0.03054545 0.00061161915 0.023847802
-0.007678969 -0.019292034 -0.013513938 0.012961736 -0.02661121 -0.0132453125 -0.016089264 0.014833558
-0.012427969 -0.0108794095 0.0052134925 -0.031899266 0.008179714 -0.03534634 -0.042390864 0.020339781
0.026024994 -0.037462972 0.000120912446 -0.012093717 -0.014731609 0.01203856 -0.009764883 -0.03083846
-0.020201968 -0.011588295 0.015053111 0.026965927 -0.010103494 0.0048700417 -0.010250246 0.02068297
-0.03284876 -0.0052309628 -0.016231097 0.03426308 0.01715605 0.0072056013 -0.035150215 0.013288584
0.022127692 -0.023664862 0.038776044 -0.012735718 0.014760088 -0.0044700145 0.015592163 -0.00011714296
-0.02123591 -0.014303523 0.007116612 0.02123894 0.02189823 0.040512297 0.023216486 -0.02764258
-0.0024589524 -0.032477234 -0.0286877 0.0054625776 -0.008710141 -0.0034854875 0.010208153 -0.032107066
-0.027879857 -0.024582524 -0.019137975 0.012470088 0.0134006 0.035054192 0.0009768386 -0.021092787
-0.03527402 0.001347578 0.0056882575 -0.0039025142 -0.014759615 0.007904575 -0.019390445 -0.031104745
0.020077271 -0.013752284 -0.0230154 0.025660742 0.01772215 0.023173552 0.019630877 0.021064242
00000000: fd50 b73c ff9c d13c 7d91 0b3c d673 b5bb
00000010: 13d9 2bbb 79ad c3bc 00e1 f2b9 02d6 c83b
00000020: 819f cbbc 5e97 1abd bc9c 9b3c 843b 87bc
00000030: 6205 70bc 0243 babc 6479 87bb 577d d3bc
00000040: eed0 c73c 68d7 b1bc efc0 103d 1f52 e7bc
00000050: 79cf 12bd d875 cdbc 24ea ffbc 7889 873c
00000060: c5a2 c6bc ffa3 423b fb1f 10bc 78c5 383b
00000070: 97d7 9eba f0e6 f0bc ad5d 23bd c4ba 1fbd
00000080: 05ab 31bd 2d11 013c 7934 b63c a4f2 78bc
00000090: 8960 243d 0a64 cb3b 496f e53c b3d1 35b8
000000a0: f31e aa3c 9544 733c 713d 99bc 2107 06bb
000000b0: 3d25 243c 07e1 0c3d 5d79 4c3b 46f4 e7bc
000000c0: c954 8f3c 8fb8 843b 8df4 233d 2fae 47bc
000000d0: 3689 a8bb dc0a 99bc 6711 b43b 2f13 3dbc
000000e0: 4c04 843b ee99 fcbc 5948 2f3d 6856 ddbb
000000f0: bb6c c43c c9a1 9cbc dc3d 61bc b564 893c
00000100: c1a9 edbc e5a6 65bc ee20 36bd ead4 2f3d
00000110: 6c41 fa3b 8e0b 5b3b fa2d 17bd ce33 4a3c
00000120: 5b9d 253d 16af e23c c18a 903c f23c b93c
00000130: 113d 08bd 7428 47bb 2b66 fcbc 89a3 ff3c
00000140: 0783 ddbc 4dfd 413c 7ffd fd3c 6fc5 a9bc
00000150: cb1e 47bc 6a7b dbbc fe85 7bbc cd5e 923c
00000160: e76d f13b be02 41bc 82f1 e73c d66c 86bb
00000170: 3598 ab3c 20ee cc3b ae50 cb3c 0924 80bc
00000180: a47e 163c 307f f33c 8155 fb3c 5354 34bc
00000190: 73a8 683c 3059 24bd 6fed 5b3c cf84 7fbc
000001a0: 3ffc ebbc e4c8 24bd 8533 f03c a1c8 a9bc
000001b0: aa9d 5d3c 4de8 9bbb 150e f63c 7395 a93c
000001c0: ba4c acbc b708 cbbb 4724 c4bc fdcf 9dbc
000001d0: 617f d33c ffb2 babc fc0f e63c c4c4 19bd
000001e0: fd11 99bc 70c8 683c d549 e0bc 80f7 23bb
000001f0: b5b5 923c 994c a93b da17 80bc fa9a ca3c
00000200: 6f1c 073d 1a4f 183d c55f a7bc 8f5a a8bc
00000210: 2a0b c33c 8710 073c 4f65 87bc 79bf dc3c
00000220: 2f3f f03b f0d7 e43c 9ed8 263d 4dfa ebbc
00000230: 7202 dabc dd30 46bb 1161 2a3d bea3 20bc
00000240: 5966 913c c6a1 19bd 4085 013d 89f4 0b3d
00000250: 6c35 c7bb 1394 353c 87d0 b33c e7c9 d9bc
00000260: 6f2d 7cbc fed6 203d a45a 2abd 9a22 113d
00000270: 400c 86bc babd 2f3b 5353 a8bc d241 4b3c
00000280: ecf1 bd3c b066 51bb 43ea c73c 45a1 a8bc
00000290: b8ac 933c 743a fabc 1155 203a 775c c33c
000002a0: dc9f fbbb 540a 9ebc 9069 5dbc 765d 543c
000002b0: c1ff d9bc de02 59bc a2cd 83bc 7408 733c
000002c0: ae9e 4bbc 8d3f 32bc f2d5 aa3b cea8 02bd
000002d0: 3504 063c 53c7 10bd 0ba2 2dbd 9d9f a63c
000002e0: 5e32 d53c c672 19bd 6092 fd38 ba24 46bc
000002f0: d95c 71bc 613d 453c e3fc 1fbc f0a0 fcbc
00000300: 997e a5bc d5dc 3dbc 53a1 763c a6e7 dc3c
00000310: 2089 25bc df94 9f3b a6f0 27bc 556f a93c
00000320: 6c8c 06bd 7f68 abbb 14f7 84bc 7257 0c3d
00000330: d88a 8c3c f71c ec3b acf9 0fbd 5cb8 593c
00000340: 2245 b53c d0dc c1bc a1d3 1e3d 79a9 50bc
00000350: 4cd4 713c 3379 92bb 4676 7f3c a6aa f5b8
00000360: eef6 adbc 5359 6abc 7832 e93b 49fd ad3c
00000370: eb63 b33c 39f0 253d 8030 be3c b172 e2bc
00000380: 6026 21bb d906 05bd 7802 ebbc 6cff b23b
00000390: fbb4 0ebc c76c 64bb 1940 273c b382 03bd
000003a0: 4c64 e4bc 4a61 c9bc 3ec7 9cbc 574f 4c3c
000003b0: 318e 5b3c fc94 0f3d 4409 803a c8ca acbc
000003c0: 7e7b 10bd 37a1 b03a 9064 ba3b 53c1 7fbb
000003d0: 50d2 71bc 3182 013c b6d8 9ebc 61cf febc
000003e0: 1779 a43c 4351 61bc cb8a bcbc 7a36 d23c
000003f0: 0b2e 913c 76d6 bd3c efd0 a03c eb8e ac3c

tiles_emb.hidden_layers.0.bias f4 [128]
-0.03283838 -0.014504432 -0.0290895 0.02412295 -0.002143627 -0.019715253 0.017431833 -0.024217634
0.028890545 -0.008511117 0.03693381 -0.009333065 0.017356383 -0.015748685 -0.040291935 0.018852359
0.017090242 -0.018046578 -0.014761558 -0.025864227 -0.024647892 -0.000607791 0.000477719 -0.034047086
-0.010292005 -0.0011084136 -0.028646331 0.03767956 -0.027104199 -0.028158784 0.0061654774 0.0034893036
0.01465964 0.0029644265 0.0114874495 -0.015615697 0.021700062 -0.021450447 -0.016687179 -0.018984502
0.010734095 0.019224644 -0.0011172148 -0.005273639 -0.009613109 -0.023743974 -0.015247658 -0.009899851
0.01848915 -0.03469426 0.013236495 -0.017827224 -0.014777976 -0.014381962 -0.024225524 0.026454814
0.015354863 0.022309626 -0.037825994 0.028367335 -0.040537428 -0.021434477 -0.00090955733 0.00055508065
-0.003393228 0.035790585 -0.024552386 0.0031899512 -0.03566898 0.061003204 -0.022854848 -0.0014884697
-0.008739226 0.02264824 0.027781425 -0.031795595 -0.009056226 0.010415546 0.002526453 -0.008531819
0.04252413 0.0071294415 0.04690743 -0.02948798 -0.027757032 -0.032144755 0.012385066 0.0089772865
0.0506744 -0.025575137 -0.031385154 -3.3900287e-05 -0.006067723 -0.030369848 -0.03456522 -0.029134143
-0.008071134 -0.006549363 -0.035900097 -0.034804545 0.021392515 0.034810185 -0.0007912378 -0.021382382
0.027406368 -0.008313782 -0.003085375 0.03926559 0.028958898 -0.035148803 0.0038270564 -0.012798528
-0.012955885 0.030145992 0.004562887 0.02184711 0.025894707 -0.035455637 -0.023416767 -0.022069944
0.017741509 0.006644744 0.00947386 -0.009950324 0.013640553 0.018017607 0.027857367 0.016979162
00000000: 8a81 06bd ffa3 6dbc 1a4d eebc 7e9d c53c
00000010: 187c 0cbb e281 a1bc 34cd 8e3c 0f64 c6bc
00000020: ddab ec3c 3672 0bbc e847 173d b6e9 18bc
00000030: f92e 8e3c 6303 81bc 2809 25bd 4370 9a3c
00000040: d600 8c3c 6bd6 93bc 76da 71bc 37e1 d3bc
00000050: 60ea c9bc 2a54 1fba 5c76 fa39 f574 0bbd
00000060: cc9f 28bc 3048 91ba b6ab eabc e255 1a3d
00000070: a009 debc 40ad e6bc c607 ca3b cdac 643b
00000080: fd2e 703c d346 423b db35 3c3c fbd8 7fbc
00000090: 54c4 b13c d9b8 afbc 8db3 88bc 6385 9bbc
000000a0: 0fde 2f3c 007d 9d3c 826f 92ba 7ece acbb
000000b0: 4d80 1dbc b982 c2bc 50d1 79bc fc32 22bc
000000c0: 8f76 973c 921b 0ebd e2dd 583c 660a 92bc
000000d0: 531f 72bc 52a2 6bbc 9b74 c6bc c4b7 d83c
000000e0: f792 7b3c adc2 b63c 6eef 1abd 9d62 e83c
000000f0: 930a 26bd 5b97 afbc 5c6f 6eba d582 113a
00000100: eb60 5ebb 2699 123d 1622 c9bc 800e 513b
00000110: a319 12bd 7fde 793d 173a bbbc c118 c3ba
00000120: f82e 0fbc cd88 b93c df95 e33c 193c 02bd
00000130: 9160 14bc f7a5 2a3c d992 253b 0bc9 0bbc
00000140: c82d 2e3d 179e e93b 0122 403d c790 f1bc
00000150: b762 e3bc 38aa 03bd bbea 4a3c 7815 133c
00000160: f68f 4f3d f382 d1bc b88d 00bd 2830 0eb8
00000170: c0d3 c6bb 30ca f8bc 4394 0dbd baaa eebc
00000180: ca3c 04bc 0a9c d6bb fb0b 13bd 368f 0ebd
00000190: 5b3f af3c 2095 0e3d 126b 4fba 1b2a afbc
000001a0: 5283 e03c 8736 08bc 0134 4abb f5d4 203d
000001b0: 363b ed3c 31f8 0fbd 5acf 7a3b ebb0 51bc
000001c0: ec44 54bc baf4 f63c 4584 953b b6f8 b23c
000001d0: 2321 d43c ee39 11bd 85d4 bfbc 07cc b4bc
000001e0: a456 913c 27bc d93b 4038 1b3c af06 23bc
000001f0: a07c 5f3c a999 933c 2235 e43c e217 8b3c

tiles_emb.hidden_layers.2.weight f4 [128, 128]
0.011901557 0.10895413 -0.036536243 -0.008061341 0.07688554 -0.021687573 0.009382143 -0.041953165
-0.039360676 0.040609587 -0.07696782 0.03966904 0.071314834 -0.033203002 -0.017968465 0.11481047
-0.078752786 0.019263018 0.0048046913 0.079055615 -0.08161059 0.07967567 0.08876411 0.006358833
-0.0009969416 0.07564757 0.007950046 -0.022211136 0.039490107 -0.07064404 0.08237078 -0.04533187
0.114394 0.03662528 0.07128092 0.020601057 -0.043028843 -0.031156342 -0.040284112 0.041722734
0.03170259 -0.061318647 -0.0027662287 -0.065718144 0.028107338 -0.07651353 0.025569731 0.04325041
-0.08825884 -0.0054779043 -0.09337826 -0.07210829 0.031360585 -0.10016441 0.018929306 0.06258402
-0.023436321 0.10869616 -0.041457176 0.0071079377 -0.021063622 0.04049682 -0.010663076 0.024131216
0.061096847 0.028352829 0.11709414 0.014022145 0.030266678 0.07445086 -0.036334153 0.07149384
-0.07767826 0.0035138838 -0.055068173 -0.03289081 -0.02827483 0.016944392 -0.08051725 -0.022014972
-0.069783024 -0.021091996 -0.05197377 0.061791647 0.08624813 0.09315825 0.056813512 -0.011595551
-0.06578778 0.089047454 -0.062461168 -0.005330018 -0.10166655 -0.07069327 -0.088592075 -0.010493236
-0.06315354 0.04498719 -0.048211638 -0.07818493 -0.059495736 -0.03923924 0.06803694 0.027398389
-0.040591292 0.09251373 -0.04380323 -0.041854043 0.00432414 0.0012174877 0.0071674846 0.07754171
0.04237606 0.0004978782 0.02189669 0.10092558 -0.06328216 -0.058224745 -0.07083553 0.08692215
-0.08050548 -0.010377666 -0.0027867993 -0.038890332 0.037800338 0.022602692 -0.070690975 0.09691993
-0.06354194 -0.07225921 -0.079304025 0.04003721 0.04297587 0.03572629 0.008642121 0.029502787
-0.0671567 -0.058001287 0.045876272 -0.045749392 -0.045479637 -0.027346943 0.03819265 -0.10864534
0.08990821 -0.03703141 0.073984586 0.021927426 0.05299025 -0.051272787 0.07505977 0.055105127
-0.05338839 0.06944282 -0.066965014 -0.04241987 0.0043570376 -0.081574656 -0.029559484 -0.039166246
-0.092675164 -0.03550165 -0.062237445 -0.052970942 0.08176731 -0.0021879326 -0.0044634766 -0.026051018
0.04399891 -0.020225842 0.04796728 0.06790062 -0.071743116 -0.066612706 0.07896883 0.05796027
0.034343228 4.9727005e-05 0.10687558 -0.027655791 0.057114847 0.0069941347 -0.058608215 -0.05581368
0.016570656 0.012866786 -0.019555124 0.071298756 -0.07017862 0.0488668 -0.023463598 -0.015132531
-0.10513305 -0.08143057 -0.076058336 -0.0483756 0.030425183 0.012089739 0.07481702 -0.021747207
-0.0131008355 -0.06962327 -0.010087563 -0.048467323 -0.06820668 -0.044735573 0.08900849 -0.08532828
0.03867015 -0.083773784 -0.08325185 -0.042172804 -0.02286275 -0.037669186 -0.028316444 0.03410677
0.06734148 -0.02168161 -0.023336254 -0.026602412 -0.03385974 -0.06947187 0.0471389 -0.011210029
0.06500016 -0.03598307 -0.034326255 0.0258881 -0.045513354 -0.070894495 -0.07910399 0.015125196
-0.043880835 -0.054503284 -0.07739008 -0.05646677 -0.08671702 -0.041892696 0.060583662 0.028762
-0.07862635 -0.008198811 -0.0005939187 -0.08708652 -0.052295886 0.08597689 0.07390258 -0.0049009924
0.0068562217 0.011658794 0.0056402422 0.0139990505 0.044340037 0.035625245 -0.03748994 -0.062041964
00000000: c0fe 423c 5823 df3d 07a7 15bd b713 04bc
00000010: 2a76 9d3d 23aa b1bc 8fb7 193c 15d7 2bbd
00000020: a938 21bd 3d56 263d 4ea1 9dbd 017c 223d
00000030: 830d 923d dfff 07bd 9a32 93bc c021 eb3d
00000040: 2449 a1bd 7acd 9d3c ac70 9d3b e9e7 a13d
00000050: 7423 a7bd ff2c a33d f5c9 b53d c25d d03b
00000060: cfab 82ba 1ded 9a3d e940 023c 21f4 b5bc
00000070: 61c0 213d d3ad 90bd 03b2 a83d e9ad 39bd
00000080: 6747 ea3d 6404 163d bbfb 913d 8cc3 a83c
00000090: 033f 30bd 963b ffbc f400 25bd 75e5 2a3d
000000a0: 93da 013d 4329 7bbd 9e49 35bb 3c97 86bd
000000b0: 5c41 e63c 20b3 9cbd 9d77 d13c 5827 313d
000000c0: 0dc1 b4bd fe7f b3bb 1a3d bfbd 83ad 93bd
000000d0: f573 003d 0023 cdbd a211 9b3c 0d2c 803d
000000e0: 87fd bfbc 189c de3d 00cf 29bd b4e9 e83b
000000f0: 9e8d acbc fedf 253d 2fb4 2ebc d4ae c53c
00000100: b040 7a3d 3144 e83c 0dcf ef3d 24bd 653c
00000110: d3f1 f73c b179 983d 1fd3 14bd 5d6b 923d
00000120: c815 9fbd 3049 663b 2a8f 61bd 84b8 06bd
00000130: 9ea0 e7bc f7ce 8a3c 3ae6 a4bd be58 b4bc
00000140: 67ea 8ebd 1fc9 acbc 73e2 54bd 3d19 7d3d
00000150: dca2 b03d c1c9 be3d 49b5 683d 44fb 3dbc
00000160: bebb 86bd 835e b63d 48d7 7fbd 6ea7 aebb
00000170: 8d36 d0bd a2c7 90bd c36f b5bd d2eb 2bbc
00000180: a556 81bd 7d44 383d 9179 45bd 6c1f a0bd
00000190: cdb1 73bd 53b9 20bd f456 8b3d 9672 e03c
000001a0: 0e43 26bd d777 bd3d 046b 33bd 256f 2bbd
000001b0: 84b1 8d3b 1c94 9f3a 38dd ea3b 30ce 9e3d
000001c0: 8592 2d3d 0a84 023a b060 b33c 12b2 ce3d
000001d0: 149a 81bd 127d 6ebd 3812 91bd 3d04 b23d
000001e0: 0fe0 a4bd 1607 2abc bca2 36bb 784b 1fbd
000001f0: 87d4 1a3d 4829 b93c 6ec6 90bd f57d c63d
00000200: 4722 82bd a3fc 93bd 266a a2bd 0ffe 233d
00000210: 7707 303d bb55 123d af97 0d3c d4af f13c
00000220: 7489 89bd c292 6dbd c2e8 3b3d b763 3bbd
00000230: db48 3abd b206 e0bc e56f 1c3d 7381 debd
00000240: cc21 b83d 3fae 17bd 3b85 973d 25a1 b33c
00000250: 4e0c 593d 6a03 52bd f0b8 993d eab5 613d
00000260: c9ad 5abd 0a38 8e3d f424 89bd 75c0 2dbd
00000270: 7bc5 8e3b 9d10 a7bd bb26 f2bc c96c 20bd
00000280: 7acc bdbd 2e6a 11bd b1ec 7ebd 0ff8 58bd
00000290: 9f75 a73d 6b63 0fbb 5b42 92bb f268 d5bc
000002a0: 3338 343d aab0 a5bc 5779 443d 7b0f 8b3d
000002b0: 0eee 92bd 3e6c 88bd 69ba a13d c067 6d3d
000002c0: 7cab 0c3d f791 5038 96e1 da3d 668e e2bc
000002d0: 42f1 693d 0e2f e53b 2b0f 70bd e39c 64bd
000002e0: 2fbf 873c 36cf 523c 1132 a0bc 1505 923d
000002f0: cfb9 8fbd 8e28 483d bb36 c0bc 6fee 77bc
00000300: ff4f d7bd 12c5 a6bd 79c4 9bbd 7e25 46bd
00000310: 3c3e f93c 0a14 463c aa39 993d 3327 b2bc
00000320: e3a4 56bc a596 8ebd 4e46 25bc ac85 46bd
00000330: f2af 8bbd a63c 37bd 154a b63d 98c0 aebd
00000340: 9764 1e3d 9791 abbd f27f aabd 64bd 2cbd
00000350: a94a bbbc 014b 1abd e3f7 e7bc 8ab3 0b3d
00000360: 54ea 893d a29d b1bc ac2b bfbc 4ded d9bc
00000370: 83b0 0abd 4547 8ebd b814 413d 45aa 37bc
00000380: ce1e 853d fc62 13bd b099 0cbd 4813 d43c
00000390: 366c 3abd 2231 91bd 4601 a2bd accf 773c
000003a0: 64bc 33bd d63e 5fbd b17e 9ebd b349 67bd
000003b0: b198 b1bd ad97 2bbd 9326 783d 499e eb3c
000003c0: da06 a1bd 4e54 06bc 36b1 1bba 6b5a b2bd
000003d0: 3634 56bd a714 b03d 3c5a 973d 8198 a0bb
000003e0: 28aa e03b 8704 3f3c c8d1 b83b 465c 653c
000003f0: e69d 353d c7eb 113d 0d8f 19bd b71f 7ebd

tiles_emb.hidden_layers.2.bias f4 [128]
-0.061841726 -0.014835023 0.057680275 -0.08710439 0.022609202 0.055075306 0.072361484 -0.040931292
0.039064884 -0.08579617 -0.016423553 -0.0110540725 0.009973228 0.074956894 0.09502216 -0.037447713
0.04972528 -0.0056999433 0.088479236 0.0808282 0.07046961 0.0033386382 0.090847574 0.029909482
-0.063426286 0.09955328 -0.05460996 -0.053527873 -0.010139101 0.037338015 -0.0073971823 -0.08311802
0.039344046 0.033944555 0.0042517968 0.00041454527 -0.04620665 -0.091306426 -0.0088579925 -0.06584079
0.045758385 -0.03520647 0.025872823 -0.038398385 0.009674302 -0.09853589 0.02479631 -0.057563078
-0.0104430765 -0.04186229 0.0074941865 0.03336096 0.03803314 0.1155507 -0.018895952 -0.0590019
-0.010019842 0.077813745 0.011309925 0.07957429 -0.046190932 0.0056072464 0.08044835 -0.039951943
-0.020338016 0.09489942 -0.049639 0.060179397 0.0041631246 0.08540912 0.015000677 -0.06986867
-0.06098262 -0.030648328 0.02242032 -0.046837475 0.04468548 -0.027934987 0.07574556 -0.043346252
0.03819561 -0.012976184 0.044112384 0.03426649 0.061052803 -0.06656359 0.07522166 -0.046507332
0.043914307 0.074224606 0.08165541 0.013359489 0.046629976 0.0073890677 -0.062223144 0.0633024
0.059573658 0.0436722 -0.049264606 0.034298036 0.026939545 0.04070932 -0.019191936 0.05553984
-0.044539083 0.06416907 0.0074929893 -0.005400506 -0.0527368 -0.010067949 0.054549698 -0.04954212
0.02845217 -0.08044441 0.032110937 -0.02382051 0.018861277 -0.0869602 0.0072815325 -0.07318742
0.01713301 0.022921747 0.006940527 0.09748152 0.01389341 -0.02439748 0.044632643 0.09562239
00000000: c04d 7dbd 990e 73bc 2742 6c3d c963 b2bd
00000010: ef36 b93c a596 613d 4232 943d 92a7 27bd
00000020: 8002 203d e7b5 afbd b08a 86bc 241c 35bc
00000030: c066 233c 0083 993d fa9a c23d c662 19bd
00000040: bcac 4b3d 97c6 babb 9a34 b53d 4189 a53d
00000050: 5f52 903d 0ecd 5a3b 4b0e ba3d bb04 f53c
00000060: a4e5 81bd 97e2 cb3d b2ae 5fbd 0b40 5bbd
00000070: 791e 26bc bfef 183d 1064 f2bb c839 aabd
00000080: 3927 213d 7209 0b3d a852 8b3b 5357 d939
00000090: 2f43 3dbd ddfe babd 1d21 11bc 89d7 86bd
000000a0: 256d 3b3d a934 10bd 3ef3 d33c a047 1dbd
000000b0: f780 1e3c 2fcd c9bd a221 cb3c 43c7 6bbd
000000c0: 7019 2bbc cb77 2bbd cb91 f53b 81a5 083d
000000d0: a3c8 1b3d d8a5 ec3d afcb 9abc faab 71bd
000000e0: 432a 24bc d05c 9f3d 434d 393c d8f7 a23d
000000f0: b432 3dbd febc b73b 1bc2 a43d a6a4 23bd
00000100: e99b a6bc a15a c23d 4452 4bbd ac7e 763d
00000110: d26a 883b faea ae3d 66c5 753c 4e17 8fbd
00000120: e9c8 79bd 3412 fbbc d2aa b73c a7d8 3fbd
00000130: 1f08 373d ead7 e4bc 7d20 9b3d d78b 31bd
00000140: 0073 1c3d 0f9a 54bc 30af 343d 055b 0c3d
00000150: 8112 7a3d 7e52 88bd d00d 9a3d 797e 3ebd
00000160: 7ddf 333d 1203 983d f43a a73d c2e1 5a3c
00000170: 13ff 3e3d fe1f f23b b2dd 7ebd b0a4 813d
00000180: 8203 743d 9fe1 323d afc9 49bd 197c 0c3d
00000190: 52b0 dc3c d1be 263d 6838 9dbc be7d 633d
000001a0: 9d6e 36bd 136b 833d c087 f53b baf6 b0bb
000001b0: 8b02 58bd 0af4 24bc 816f 5f3d aeec 4abd
000001c0: 8614 e93c 0ac0 a4bd c286 033d 3b23 c3bc
000001d0: f782 9a3c 3018 b2bd ec99 ee3b 49e3 95bd
000001e0: 875a 8c3c 63c6 bb3c 5c6d e33b 64a4 c73d
000001f0: 2fa1 633c 39dd c7bc b8d0 363d acd5 c33d

attention_layer.att.weight f4 [128, 128]
-0.0032062605 0.08514581 0.033138398 0.02691738 -0.09522199 -0.015421702 0.069636375 0.10336618
0.04441465 -0.061774693 -0.0476176 -0.0452866 -0.05261248 -0.07554793 -0.051101122 0.041950997
-0.02127359 -0.033468038 0.017261906 0.060560286 -0.063794255 0.07933587 -0.08800242 -0.036827598
-0.07153569 0.049439136 0.060531884 -0.042272467 -0.067847684 -0.082623 -0.059223842 0.036352918
-0.05425019 -0.058430023 0.05810724 0.118364975 -0.02080051 0.0086121885 0.022140566 0.022521004
-0.029046262 0.033368766 -0.053906266 0.038894176 0.043614045 -0.037107818 0.026322564 0.033036307
-0.057823744 -0.07346157 0.047330704 0.09501591 -0.028696088 -0.016245073 -0.047586534 0.10087081
0.023872575 -0.042651165 -0.040671535 -0.049750865 -0.06341613 0.036005974 0.0004884689 -0.011220648
0.064095244 -0.12522617 0.038320683 0.07063038 -0.051532526 -0.0343343 -0.004149141 0.07401415
0.1159202 -0.053585693 -0.04544706 0.09651213 -0.04833218 0.0069337375 0.083202906 -0.04239618
-0.0039109862 -0.004740289 0.007062492 0.020827012 0.05631724 0.08534072 -0.04464699 0.0714933
-0.047726743 0.029391687 -0.014922044 -0.05357363 0.0016972554 -0.049722172 -0.02114137 -0.04695975
0.04195776 -0.06473064 -0.06196425 0.06569547 -0.028376488 -0.04074778 -0.024785478 -0.015494847
0.03734212 -0.018754337 -0.11942474 0.10018338 0.02612075 0.028826274 0.0042460547 -0.115313895
0.013680325 -0.051733296 0.09190222 0.07899844 0.075485714 -0.07242703 0.005521256 -0.088324115
-0.051597837 0.06048577 0.03569494 -0.09365183 -0.047161445 -0.12511721 -0.0016149984 0.0384742
-0.06499591 0.051959015 0.021706818 0.0043567205 -0.017537532 0.02692318 0.08375157 0.033274144
-0.006390753 0.06915774 -0.044960834 -0.072697505 0.009540454 -0.034239747 -0.036281254 0.07047596
0.058568384 0.022944761 0.043199368 -0.028417028 -0.060745224 -0.031141076 0.008796204 0.020094965
0.04174564 0.06913038 -0.016797187 0.064869724 0.03184935 -0.053985402 -0.01944616 0.03221976
0.0113872085 -0.07047817 -0.07105947 -0.027089419 0.054418717 0.063522264 -0.05652658 0.11562451
0.00085494283 0.008893234 -0.039393842 0.06285353 0.02681963 -0.17596143 -0.025036445 0.03594037
-0.0245878 -0.021560322 0.062540345 0.029907519 -0.024292845 -0.031107025 0.028436407 0.10430189
0.028465714 -0.13320416 0.08865115 -0.032983724 -0.03408655 0.017864564 -0.021947911 0.02410372
-0.03508949 -0.12983619 0.00896467 0.05950944 -0.05163297 0.03607867 -0.08490117 -0.021969482
0.06722633 0.06340042 0.022262601 -0.05465336 -0.068077184 0.039094068 0.03056568 -0.029796528
0.04745455 0.025928682 0.01498405 0.1014241 -0.059334308 0.004899334 -0.011272202 -0.07398605
0.011876498 -0.07742583 0.10332633 0.055005535 -0.06967214 -0.052367847 -0.042866424 0.006888396
0.08719661 0.027659861 -0.06257415 -0.028888175 0.089166224 -0.0033470273 0.018112618 -0.07429595
-0.031338405 0.007920463 -0.04612721 -0.036628567 0.0021366538 0.019104242 -0.0264008 -0.15137812
0.09117147 -0.039868552 0.117577076 0.008963615 -0.055441212 -0.008543699 0.09371666 -0.0702957
-0.07744936 -0.034881923 0.062323764 0.04292371 0.021262536 -0.10159905 0.020983793 -0.05684339
00000000: 2020 52bb ed60 ae3d 21bc 073d d681 dc3c
00000010: bf03 c3bd 4eab 7cbc 849d 8e3d a6b1 d33d
00000020: 23ec 353d 7607 7dbd ac0a 43bd 717e 39bd
00000030: 2f80 57bd e0b8 9abd 694f 51bd cfd4 2b3d
00000040: f445 aebc c815 09bd d768 8d3c 100e 783d
00000050: 90a6 82bd d87a a23d 9d3a b4bd 89d8 16bd
00000060: 4e81 92bd b180 4a3d 48f0 773d e525 2dbd
00000070: baf3 8abd 3f36 a9bd b394 72bd cce6 143d
00000080: 7235 5ebd 5254 6fbd db01 6e3d 5669 f23d
00000090: d565 aabc 231a 0d3c 2260 b53c f87d b83c
000000a0: 6df2 edbc b0ad 083d d1cc 5cbd 804f 1f3d
000000b0: a4a4 323d 5efe 17bd 6ba2 d73c 1451 073d
000000c0: 97d8 6cbd 0573 96bd d7dd 413d b497 c23d
000000d0: 0f14 ebbc 6314 85bc 19ea 42bd 5b95 ce3d
000000e0: 6b90 c33c fdb2 2ebd 3297 26bd 90c7 4bbd
000000f0: 51e0 81bd 007b 133d 980c 003a cfd6 37bc
00000100: 5e44 833d 4a3b 00be 26f6 1c3d a9a6 903d
00000110: c513 53bd 1fa2 0cbd 84f5 87bb bb94 973d
00000120: 9267 ed3d ac7c 5bbd b226 3abd 27a8 c53d
00000130: f7f7 45bd 6834 e33b 4966 aa3d 9ea7 2dbd
00000140: bb27 80bb 6d54 9bbb 7a6c e73b 699d aa3c
00000150: e8ac 663d 1ec7 ae3d c3df 36bd 146b 923d
00000160: 1e7d 43bd d6c6 f03c 977b 74bc 0670 5bbd
00000170: 7176 de3a 7aa9 4bbd ab30 adbc de58 40bd
00000180: e6db 2b3d 7f91 84bd 3ace 7dbd 598b 863d
00000190: cf75 e8bc 25e7 26bd ea0a cbbc 19de 7dbc
000001a0: 0df4 183d b2a2 99bc f594 f4bd f22c cd3d
000001b0: 2ffb d53c 1425 ec3c 7d22 8b3b b129 ecbd
000001c0: 7123 603c 4be6 53bd 3b37 bc3d efc9 a13d
000001d0: 4198 9a3d 9f54 94bd a7eb b43b 46e3 b4bd
000001e0: 4158 53bd edbf 773d db34 123d 88cc bfbd
000001f0: 5c2c 41bd ba1e 00be 5bae d3ba 1f97 1d3d
00000200: 931c 85bd fad2 543d 7fd2 b13c d2c2 8e3b
00000210: dfaa 8fbc 008e dc3c f185 ab3d 784a 083d
00000220: 8669 d1bb 93a2 8d3d da28 38bd 6ee2 94bd
00000230: 904f 1c3c fa3e 0cbd a79b 14bd b355 903d
00000240: 67e5 6f3d a7f6 bb3c d2f1 303d d4ca e8bc
00000250: fccf 78bd 921b ffbc f41d 103c 329e a43c
00000260: 7afd 2a3d 3b94 8d3d 419a 89bc 6bda 843d
00000270: 7774 023d cc1f 5dbd 8e4d 9fbc def8 033d
00000280: 6a91 3a3c dc56 90bd a187 91bd a1ea ddbc
00000290: 29e6 5e3d f617 823d 6a88 67bd 8bcc ec3d
000002a0: 3e1e 603a edb4 113c 705b 21bd 5ab9 803d
000002b0: d7b4 db3c 3c2f 34be 3b19 cdbc 3636 133d
000002c0: 5b6c c9bc 469f b0bc 2715 803d 9d00 f53c
000002d0: ca01 c7bc 29d4 febc 78f3 e83c 3b9c d53d
000002e0: ee30 e93c ac66 08be bc8e b53d f119 07bd
000002f0: 579e 0bbd b558 923c 1bcc b3bc 2a75 c53c
00000300: ffb9 0fbd c7f3 04be 8de0 123c 2cc0 733d
00000310: 187d 53bd 3ac7 133d aae0 adbd 58f9 b3bc
00000320: f5ad 893d 14d8 813d 0f60 b63c 34dc 5fbd
00000330: 0d6c 8bbd 1a21 203d e064 fa3c d917 f4bc
00000340: b45f 423d 6368 d43c a97f 753c 70b7 cf3d
00000350: 8808 73bd 988a a03b 0baf 38bc 0086 97bd
00000360: a595 423c 6f91 9ebd c19c d33d 7c4d 613d
00000370: 44b0 8ebd ab7f 56bd b494 2fbd 0eb8 e13b
00000380: 2394 b23d ef96 e23c e026 80bd e5a6 ecbc
00000390: c89c b63d cd59 5bbb ea60 943c 7a28 98bd
000003a0: b35c 00bd d4c4 013c e3ef 3cbd d607 16bd
000003b0: 1a07 0c3b 8080 9c3c 7e46 d8bc de02 1bbe
000003c0: 1cb8 ba3d 354d 23bd 40cc f03d 20dc 123c
000003d0: 5316 63bd dffa 0bbc 85ee bf3d 31f7 8fbd
000003e0: c59d 9ebd 59e0 0ebd 3447 7f3d c6d0 2f3d
000003f0: c52e ae3c 2a13 d0bd 34e6 ab3c 9dd4 68bd

attention_layer.att.bias f4 [128]
-0.0146757215 0.0066095083 0.025522752 -0.05447024 0.019200165 -0.091876805 0.0002109211 0.023621066
0.041649427 -0.051825367 -0.04013452 0.056870513 0.048507676 -0.050656445 -0.026096558 -0.03137812
-0.017082717 0.09714486 0.067717455 0.05029446 -0.017221872 -0.013330688 -0.0051864446 -0.0037962792
0.072955504 0.017915692 -0.12087573 -0.014985138 0.03232358 0.022207344 0.027466152 0.073491536
0.109200425 -0.016182167 -0.055721488 0.006540381 0.055932432 -0.04882434 -0.043963186 0.02100795
0.03284928 0.0045780186 -0.004932494 -0.032486737 -0.02989472 0.051087085 -0.07165445 -0.06203436
-0.0149483485 -0.024507655 0.07582891 -0.0954038 0.060185097 -0.104392484 0.03527879 -0.06003786
0.062894985 -0.014068609 -0.05486633 -0.054006603 0.04190521 0.045730643 -0.013802906 0.09058753
0.10850951 0.11780591 0.007281244 0.13062865 -0.10039138 -0.0749876 0.012432257 0.03181643
-0.09144602 -0.083874226 0.083090216 -0.0019929854 -0.0025961462 -0.081184804 0.17280783 -0.028102906
-0.04824391 0.030041097 -0.012783134 -0.10191207 0.09477582 0.021243306 0.058541246 -0.022659713
0.019750604 -0.029568806 0.03960734 -0.07411368 0.0238125 0.07186383 -0.0768771 -0.0059901006
-0.11697032 -0.09502278 0.108880445 0.012325866 -0.089603625 -0.047850993 0.04381926 0.0244184
0.018351888 0.09124016 -0.082222246 -0.011490167 -0.023450697 0.05018993 0.006452246 -0.0631295
0.045528136 0.050442398 0.020575633 0.07809471 0.07679067 0.057726327 0.13722952 -0.041279115
-0.004069512 0.05693826 -0.040037863 0.042833444 0.05246601 -0.042242028 0.07134838 -0.057002466
00000000: 7072 70bc 9394 d83b 1715 d13c 301c 5fbd
00000010: aa49 9d3c e829 bcbd b42a 5d39 f780 c13c
00000020: 9798 2a3d d646 54bd 1864 24bd 0ef1 683d
00000030: fcaf 463d 227d 4fbd 73c8 d5bc 5886 00bd
00000040: 0ef1 8bbc e2f3 c63d 73af 8a3d 9001 4e3d
00000050: e214 8dbc f568 5abc 0df3 a9bb ffca 78bb
00000060: b269 953d eec3 923c b28d f7bd 3984 75bc
00000070: bb65 043d 2dec b53c b200 e13c bb82 963d
00000080: 79a4 df3d 7790 84bc 373c 64bd b150 d63b
00000090: 6819 653d 08fc 47bd be12 34bd dd18 ac3c
000000a0: f78c 063d 3403 963b c2a0 a1bb d010 05bd
000000b0: c6e5 f4bc b140 513d 91bf 92bd be17 7ebd
000000c0: ebe9 74bc 47c4 c8bc 304c 9b3d 1163 c3bd
000000d0: a684 763d bacb d5bd 7e80 103d 42ea 75bd
000000e0: 16cf 803d 0680 66bc 84bb 60bd 0736 5dbd
000000f0: cca4 2b3d 0e50 3b3d 9525 62bc f485 b93d
00000100: 3c3a de3d 3a44 f13d 8097 ee3b 84c3 053e
00000110: ff99 cdbd 1993 99bd aab0 4b3c f251 023d
00000120: 0d48 bbbd 40c6 abbd 342b aa3d bf9c 02bb
00000130: 1b24 2abb 3844 a6bd 89f4 303e 1138 e6bc
00000140: 689b 45bd bf18 f63c 5a70 51bc 46b7 d0bd
00000150: d319 c23d 7106 ae3c f2c8 6f3d dda0 b9bc
00000160: 05cc a13c 483a f2bc 4e3b 223d eac8 97bd
00000170: 6f12 c33c 582d 933d be71 9dbd 9b48 c4bb
00000180: 238e efbd 4e9b c2bd b6fc de3d 6ef2 493c
00000190: 1b82 b7bd 67ff 43bd d37b 333d 1909 c83c
000001a0: b356 963c 1fdc ba3d 2364 a8bd 4141 3cbc
000001b0: ad1b c0bc f593 4d3d 5d6d d33b 0a4a 81bd
000001c0: b67b 3a3d b09c 4e3d 3b8e a83c 1ff0 9f3d
000001d0: 6d44 9d3d 7172 6c3d e585 0c3e 4a14 29bd
000001e0: 8a59 85bb 1838 693d befe 23bd 1f72 2f3d
000001f0: 99e6 563d fa05 2dbd 191f 923d 6b7b 69bd

attention_layer.gate.weight f4 [128, 128]
0.035020262 0.026889691 -0.028546223 -0.07316893 -0.04388913 0.022656618 -0.06809182 -0.044262577
0.047148895 -0.047640577 0.08176935 0.027575005 -0.039667986 -0.047154896 0.07519746 0.056601252
-0.036420323 0.03437662 -0.03709935 -0.08489718 0.059311893 0.00654849 0.026132584 0.03323211
-0.0075581544 -0.069528036 -0.0461939 0.021185193 0.011364406 0.060208302 0.042988688 -0.06196463
0.062807605 -0.0013524272 -0.027471155 -0.113772646 0.048165653 0.008956738 0.028003938 -0.043614455
0.07123509 -0.046318047 0.067930445 -0.0005607092 0.06712385 0.04614217 -0.06707364 -0.054588955
-0.0980772 0.031235648 0.051851567 -0.027356455 0.043362547 0.08956987 -0.021805618 -0.14539886
0.024369871 0.016249614 -0.07123364 -0.025221882 0.026467616 0.0061054323 0.07494323 0.085104406
0.023317862 0.026971636 0.08447486 0.07516677 0.09987869 0.037675813 0.005245112 0.035270657
-0.14671522 -0.0044607013 0.05638436 0.0036750222 -0.039278172 0.052856896 0.0399418 -0.054455634
-0.05783533 0.11096169 -0.023801437 -0.001846693 0.040375326 -0.00035945527 0.10039987 0.02216753
-0.05332576 -0.02530572 -0.07181538 0.037773777 -0.0202456 -0.041626245 -0.040169153 -0.04857034
-0.09740923 0.081171 0.10951005 -0.056753915 -0.06674421 0.07197626 0.0018838398 0.12197438
0.03049338 -0.04633334 -0.051259775 -0.11120734 -0.021778071 -0.0034833758 0.050857335 0.15603386
0.028429786 -0.06366501 0.042251512 -0.030377416 0.020094907 0.08590952 -0.039627526 0.09485719
-0.029147588 -0.034711048 0.024140192 0.07978595 0.006048184 -0.02004672 0.03406113 0.006330121
-0.07315534 0.032781508 0.01628901 0.05442631 0.07143074 -0.034711037 0.026167037 -0.00769801
-0.007047179 -0.12936457 -0.09674221 -0.021893658 0.0332576 0.070234254 0.017287375 0.018105175
0.055681698 -0.0069699762 0.04959348 -0.036110308 0.05144617 -0.019363811 0.054526094 -0.06823167
0.096365 0.06888782 -0.0362724 -0.0076266197 -0.05258056 -0.043547656 -0.03666903 -0.097886
0.08353325 0.0011898766 -0.074938565 -0.05205556 0.009473976 0.03436707 -0.07522029 0.024814066
-0.072963804 0.05444152 -0.024336893 -0.058061626 -0.00899424 0.061206203 0.05234688 0.020587707
-0.01831905 -0.034645956 0.044093277 0.07987871 -0.010808593 0.08328052 -0.015081439 0.026479231
-0.062827915 0.068077944 -0.049488604 0.0170114 -0.018708615 -0.023149148 -0.017289884 -0.014411648
-0.093325004 0.005245916 0.0073488015 -0.07322042 0.06544278 -0.018664604 0.047765184 -0.08243558
-0.011636988 0.10994342 0.047765188 0.08378384 -0.10034391 0.046841253 0.04041286 0.08409465
-0.07703206 0.029631848 -0.013910048 -0.0077224514 -0.04710226 -0.056298733 -0.011523508 -0.03757007
0.040562443 0.032072347 -0.11063277 0.0083006425 -0.050728995 -0.0062861405 0.05924214 -0.08791167
-0.05423723 0.055034734 0.03206262 0.040305283 0.019065827 -0.0022905674 0.02712245 -0.006181918
-0.045638587 0.060570225 0.08647287 -0.06793667 0.0029242726 -0.050937347 0.038351215 0.007085078
-0.09622485 -0.04589224 -0.017571213 -0.0421437 -0.015202195 -0.060913477 -0.03049415 0.028547699
0.07822233 -0.008972768 0.0021689693 -0.052420676 0.08007197 0.094688356 0.037684835 0.020129064
00000000: 6871 0f3d c547 dc3c c5d9 e9bc 98d9 95bd
00000010: 17c5 33bd 5f9a b93c b973 8bbd ad4c 35bd
00000020: 331f 413d c422 43bd b076 a73d fae4 e13c
00000030: e67a 22bd 7e25 41bd 2001 9a3d b7d6 673d
00000040: 7a2d 15bd 80ce 0c3d 7df5 17bd 93de adbd
00000050: 07f1 723d b794 d63b 0014 d63c 651e 083d
00000060: 65aa f7bb b764 8ebd d135 3dbd 928c ad3c
00000070: c631 3a3c fb9c 763d e814 303d a0ce 7dbd
00000080: 46a1 803d ed43 b1ba 300b e1bc a201 e9bd
00000090: 5949 453d 48bf 123c 8468 e53c 12a5 32bd
000000a0: b4e3 913d feb7 3dbd 1e1f 8b3d 8ffc 12ba
000000b0: 3b78 893d 92ff 3c3d e85d 89bd ab98 5fbd
000000c0: b3dc c8bd e7e1 ff3c 4f62 543d a51a e0bc
000000d0: ed9c 313d 6870 b73d b2a1 b2bc 70e3 14be
000000e0: 53a3 c73c e91d 853c f1e2 91bd 1f9e cebc
000000f0: 9dd2 d83c 1410 c83b d67b 993d 384b ae3d
00000100: 1a05 bf3c 9ff3 dc3c 2801 ad3d 09f1 993d
00000110: 338d cc3d f451 1a3d 30df ab3b f777 103d
00000120: 843c 16be 132b 92bb 49f3 663d a4d8 703b
00000130: 26e2 20bd 7980 583d 039a 233d df0c 5fbd
00000140: bde4 6cbd e23f e33d 3bfb c2bc bc0c f2ba
00000150: 9960 253d 4575 bcb9 729e cd3d ae98 b53c
00000160: 1d6c 5abd f14d cfbc f113 93bd adb8 1a3d
00000170: 1ada a5bc 4880 2abd 6988 24bd b1f1 46bd
00000180: 7e7e c7bd fb3c a63d ce46 e03d cb76 68bd
00000190: 30b1 88bd 4a68 933d 2deb f63a b4cd f93d
000001a0: 41cd f93c 07c8 3dbd c5f5 51bd adc0 e3bd
000001b0: ed67 b2bc 5949 64bb c84f 503d 57c7 1f3e
000001c0: 95e5 e83c cd62 82bd ec0f 2d3d 0fda f8bc
000001d0: 139e a43c 55f1 af3d 7950 22bd 7d44 c23d
000001e0: ecc6 eebc 2c2d 0ebd a7c1 c53c d166 a33d
000001f0: d82f c63b 0539 a4bc af83 0b3d e76c cf3b
00000200: 78d2 95bd e745 063d 8870 853c 1fee 5e3d
00000210: 484a 923d 292d 0ebd 415c d63c 973f fcbb
00000220: 06ec e6bb 2578 04be c820 c6bd 545a b3bc
00000230: 1f39 083d fad6 8f3d 419e 8d3c 4e51 943c
00000240: 7e12 643d 6664 e4bb 8822 4b3d 67e8 13bd
00000250: 38b9 523d dba0 9ebc c156 5f3d 0cbd 8bbd
00000260: 035b c53d 0f15 8d3d 5e92 14bd b9e8 f9bb
00000270: b75e 57bd 075f 32bd 4432 16bd 7578 c8bd
00000280: 7b13 ab3d a2f5 9b3a 6479 99bd 3638 55bd
00000290: bc38 1b3c 7cc4 0c3d 180d 9abd de46 cb3c
000002a0: 0c6e 95bd 12fe 5e3d 2a5e c7bc 07d2 6dbd
000002b0: 945c 13bc 5bb3 7a3d af69 563d 8da7 a83c
000002c0: d511 96bc ebe8 0dbd 279b 343d 7397 a33d
000002d0: 8616 31bc fa8e aa3d 2418 77bc f9ea d83c
000002e0: ecab 80bd 736c 8b3d 90b4 4abd 7e5b 8b3c
000002f0: cf42 99bc 48a3 bdbc 84a3 8dbc d51e 6cbc
00000300: 2e21 bfbd efe5 ab3b 37ce f03b 96f4 95bd
00000310: dd06 863d 83e6 98bc 6da5 433d fcd3 a8bd
00000320: 11a9 3ebc 042a e13d 6ea5 433d dd96 ab3d
00000330: 1c81 cdbd 9ddc 3f3d f587 253d d139 ac3d
00000340: fcc2 9dbd 7dbe f23c f8e6 63bc 9e0c fdbb
00000350: 4dee 40bd 8099 66bd 18cd 3cbc 13e3 19bd
00000360: ce24 263d 4b5e 033d 6f93 e2bd 6bff 073c
00000370: 35c9 4fbd f8fb cdbb e3a7 723d 090b b4bd
00000380: dc27 5ebd 1a6c 613d 1854 033d 2717 253d
00000390: f02f 9c3c 581d 16bb e62f de3c b091 cabb
000003a0: 87ef 3abd 7c18 783d b018 b13d 6122 8bbd
000003b0: 27a5 3f3b aea3 50bd 2a16 1d3d f129 e83b
000003c0: 8911 c5bd 80f9 3bbd 81f1 8fbc df9e 2cbd
000003d0: a112 79bc 6980 79bd dece f9bc dddc e93c
000003e0: 0733 a03d 8402 13bc 4425 0e3b 10b7 56bd
000003f0: c6fc a33d f8eb c13d 6a5b 1a3d b5e5 a43c

attention_layer.gate.bias f4 [128]
0.017219815 -0.024762625 -0.016453903 0.1014094 0.04055097 0.035143897 0.042199947 0.052938163
-0.026325602 0.00483072 0.02317111 0.07854629 0.111540094 0.08709932 -0.04226961 -0.02987422
0.08426197 0.037100308 -0.016851056 0.007776643 0.033659905 0.06572737 -0.067470886 0.04891406
-0.089447506 0.09267606 0.014640248 -0.029804442 0.027871512 -0.027839094 -0.058304664 -0.08235194
0.04323313 0.057094812 -0.068032354 0.11160601 0.058580004 0.05906387 0.016566591 -0.041720856
-0.048921213 -0.007409142 0.060670108 -0.05868783 -0.028295355 0.08154616 0.049534447 -0.0088724075
0.07898584 0.01959532 0.10308588 0.02472656 0.09342604 -0.044990685 0.074058354 0.042773392
0.04654202 0.07422689 0.05219148 0.02195331 -0.019415885 -0.005803714 -0.0623309 0.05337011
-0.03234497 0.010918816 -0.025565065 0.06340427 -0.021775696 0.017535614 0.03851736 -0.048113763
0.07017564 0.04638809 0.1083104 0.0673189 0.01705862 0.018642958 0.06962894 -0.058658905
-0.098745815 0.07173066 -0.008236341 -0.008403912 0.07278782 0.010654741 0.03509187 0.0024820822
-0.046752412 0.0047521284 0.0027653894 0.037659384 0.09264616 -0.12386435 0.024905222 -0.07791121
0.10224071 0.04275009 -0.0505158 -0.009077069 -0.0044728094 0.009868329 0.10954477 0.09397097
0.09991253 0.08468764 -0.012574529 -0.017635066 -0.053185135 -0.021070061 -0.0521557 -0.044357933
-0.068283394 0.050782066 0.014981512 0.06365149 -0.043699153 0.084273875 -0.035708707 0.05498249
-0.03880797 0.021087592 0.05989503 -0.037270706 0.071738854 0.07766804 0.060386866 -0.05005897
00000000: 9210 8d3c fdda cabc 56ca 86bc bbaf cf3d
00000010: c618 263d 0cf3 0f3d dad9 2c3d b0d5 583d
00000020: caa8 d7bc 044b 9e3b 57d1 bd3c e1dc a03d
00000030: 226f e43d 2161 b23d e622 2dbd c8ba f4bc
00000040: 8a91 ac3d 7ef6 173d 3a0b 8abc 36d3 fe3b
00000050: f8de 093d 129c 863d 2d2e 8abd 1c5a 483d
00000060: 4130 b7bd f2cc bd3d a7dd 6f3c 7228 f4bc
00000070: cc52 e43c d00e e4bc dfd0 6ebd 22a8 a8bd
00000080: 3915 313d 40dc 693d 8c54 8bbd b191 e43d
00000090: 96f1 6f3d f5ec 713d a9b6 873c 7de3 2abd
000000a0: 9c61 48bd 63c8 f2bb 3881 783d a662 70bd
000000b0: a9cb e7bc ac01 a73d a2e4 4a3d 935d 11bc
000000c0: 54c3 a13d 5d86 a03c b11e d33d 5b8f ca3c
000000d0: 2756 bf3d 2748 38bd e8ab 973d 2733 2f3d
000000e0: d8a2 3e3d 4504 983d bcc6 553d 6ed7 b33c
000000f0: 100e 9fbc 152d bebb b04e 7fbd 9e9a 5a3d
00000100: 297c 04bd d5e4 323c d46d d1bc 19da 813d
00000110: f262 b2bc d9a6 8f3c 61c4 1d3d f012 45bd
00000120: 3fb8 8f3d 7001 3e3d d8d1 dd3d 7ede 893d
00000130: 85be 8b3c 1eb9 983c 9e99 8e3d 5244 70bd
00000140: 3f3b cabd 86e7 923d b8f1 06bc 90b0 09bc
00000150: c811 953d 3991 2e3c 7ebc 0f3d 6eaa 223b
00000160: 757f 3fbd beb7 9b3b 893b 353b ba40 1a3d
00000170: 45bd bd3d 98ac fdbd 0906 cc3c ea8f 9fbd
00000180: 9463 d13d b81a 2f3d a8e9 4ebd fdb7 14bc
00000190: a590 92bb c6ae 213c 0259 e03d da73 c03d
000001a0: f19e cc3d b770 ad3d 6605 4ebc 6a77 90bc
000001b0: a8d8 59bd 1f9b acbc 37a1 55bd aab0 35bd
000001c0: 2ad8 8bbd db00 503d 0475 753c b65b 823d
000001d0: e2fd 32bd c897 ac3d 4b43 12bd 5235 613d
000001e0: 1bf5 1ebd e3bf ac3c 7e54 753d 2ba9 18bd
000001f0: d2eb 923d 6c10 9f3d 3858 773d a20a 4dbd

attention_layer.w.weight f4 [1, 128]
-0.09781199 -0.06968104 -0.05673239 -0.061384786 -0.08302021 0.08764211 -0.073159 0.020766595
-0.007700639 0.06273499 -0.08521243 -0.105401725 -0.04435464 -0.10219068 -0.029315384 -0.05187324
-0.06577538 -0.04137499 -0.10652797 0.091372594 0.08810476 0.08022012 -0.01144818 -0.04547115
0.07713198 -0.018160354 0.10019494 0.057345703 -0.03819871 -0.055113293 -0.06011782 -0.05604882
-0.11844029 0.058343813 0.07135229 0.08649143 0.062513 -0.07047728 -0.06717372 0.098636605
0.0701673 0.09869585 0.034960568 0.049353596 0.042860493 0.07047539 0.105958186 0.11481949
-0.043652963 -0.08199049 -0.06841142 0.07287578 -0.09530144 0.07552471 -0.102969505 0.06979161
-0.06873692 -0.06210362 0.053418618 0.08992303 0.05744314 -0.038528983 0.044030804 -0.05287689
0.010294367 -0.06443445 0.049919646 -0.03521813 0.071916044 0.047930736 0.06652611 0.07389111
0.019626712 0.106326856 -0.054033607 0.101348884 0.029710162 0.039753325 -0.05162616 -0.086498395
0.025439175 -0.07241653 -0.073477365 0.049464826 -0.07060782 0.04765655 -0.099940605 0.12525834
-0.07593393 -0.04279279 -0.03207365 0.08768873 -0.06623704 0.0023816428 0.07080784 0.056041922
0.058670342 0.1028691 -0.122078836 0.09231886 0.094672784 -0.035914127 -0.08258308 -0.04354441
0.06428359 -0.067225374 0.046226397 -0.035870254 0.08771853 -0.065635994 -0.036735564 0.0878849
0.11027772 -0.0053166943 -0.0011960036 -0.09205712 -0.04927711 -0.10741084 -0.03394156 0.12891349
-0.07899855 -0.06643376 0.025690477 0.07765871 -0.08136987 0.03412334 -0.07489827 -0.07328773
00000000: a751 c8bd efb4 8ebd 3960 68bd 9d6e 7bbd
00000010: 8006 aabd b57d b33d 63d4 95bd b51e aa3c
00000020: a455 fcbb 347b 803d db83 aebd dcdc d7bd
00000030: 36ad 35bd 5949 d1bd d126 f0bc 0979 54bd
00000040: 3eb5 86bd d278 29bd 562b dabd 8e21 bb3d
00000050: 4570 b43d 724a a43d 2691 3bbc f53f 3abd
00000060: 5ff7 9d3d 06c5 94bc 0133 cd3d 54e3 6a3d
00000070: 4076 1cbd 7abe 61bd 1a3e 76bd 7393 65bd
00000080: d390 f2bd ecf9 6e3d 2621 923d 6b22 b13d
00000090: d106 803d 6456 90bd 6092 89bd fd01 ca3d
000000a0: e0b3 8f3d 0d21 ca3d d032 0f3d ff26 4a3d
000000b0: 7c8e 2f3d 6755 903d 9b00 d93d 7b26 eb3d
000000c0: 73cd 32bd a1ea a7bd 491b 8cbd e63f 953d
000000d0: 672d c3bd b3ac 9a3d ade1 d2bd e7ee 8e3d
000000e0: f1c5 8cbd 5e60 7ebd 7bcd 5a3d 9129 b83d
000000f0: 7f49 6b3d 91d0 1dbd a559 343d 7095 58bd
00000100: b4a9 283c 35f6 83bd 8b78 4c3d e340 10bd
00000110: b848 933d 0553 443d d73e 883d 3954 973d
00000120: 33c8 a03c e5c1 d93d 5852 5dbd 0190 cf3d
00000130: ba62 f33c 62d4 223d f475 53bd 1226 b1bd
00000140: d165 d03c 1e4f 94bd 4d7b 96bd a19b 4a3d
00000150: d59a 90bd 8433 433d a9ad ccbd b943 003e
00000160: 4083 9bbd 7e47 2fbd a95f 03bd 2696 b33d
00000170: 49a7 87bd 5615 1c3b b303 913d 378c 653d
00000180: 5050 703d 09ad d23d 7804 fabd ac11 bd3d
00000190: cee3 c13d b11a 13bd 5121 a9bd a05b 32bd
000001a0: 1da7 833d 75ad 89bd e457 3d3d b0ec 12bd
000001b0: c6a5 b33d 2a6c 86bd 0878 16bd 00fd b33d
000001c0: 49d9 e13d aa37 aebb 39c3 9cba 7188 bcbd
000001d0: cbd6 49bd 37fa dbbd 4e06 0bbd e601 043e
000001e0: fec9 a1bd 6c0e 88bd d674 d23c 880b 9f3d
000001f0: 3fa5 a6bd eac4 0b3d 4464 99bd e117 96bd

mlp.0.0.weight f4 [128, 128]
0.055552684 0.009021793 0.038126603 -0.02967877 -0.06335263 -0.04770461 -0.021948086 0.050291844
0.03884651 0.037319995 0.092334576 0.07325829 0.01965057 -0.0087816715 0.054441705 -0.0009795224
-0.054350488 -0.07897039 0.029024461 0.0917272 -0.02976184 0.03498373 0.04636748 0.00092482683
-0.07718791 -0.07056123 -0.024725463 0.07910987 -0.0036405367 -0.038118936 0.0058911396 -0.029981658
-0.008814361 0.05953605 0.07836798 -0.024600998 -0.05954746 -0.027134158 -0.005783691 -0.057380393
-0.033333287 -0.009890912 -0.002874568 0.006362609 0.055662684 0.094116636 0.051920947 0.053455673
0.074035116 0.06198024 -0.027534025 -0.03359807 -0.074115634 -0.05079785 -0.04452706 0.05566078
-0.03621734 -0.07491161 -0.071429275 -0.009286791 0.055576276 0.081735566 -0.0131488 -0.05064893
0.04636472 -0.047780152 -0.00034353748 0.05075382 0.039440565 0.07180349 -0.061458923 -0.06921336
-0.034454595 0.072386645 0.013947217 -0.014628468 0.07661725 0.04396896 0.018944101 -0.033709485
-0.08331212 0.044527143 -0.014256989 -0.05236099 0.039442066 0.05881654 -0.042323463 -0.004706901
0.013118506 0.059975248 -0.022234336 0.036766686 0.026143717 0.07341587 -0.08927297 -0.011596669
0.0480884 0.033772636 -0.045991495 0.07190635 0.08122565 -0.073472805 -0.019760009 0.04259073
0.04918127 0.08451488 -0.023868835 -0.067180544 -0.092282414 0.071808286 -0.06344597 -0.08707579
0.03697586 0.042145 0.010875344 -0.050434593 -0.061317954 -0.019053835 -0.005088781 0.08208515
0.046347745 -0.035854574 -0.010345528 0.04166932 0.073389806 0.028309165 -0.061876383 -0.044729933
-0.04779275 0.092794344 -0.0065115835 0.0660671 -0.04123279 -0.071824476 -0.06608562 0.050029263
-0.07168516 -0.037298728 -0.021730866 0.08258111 0.048986644 0.03181309 -0.021390865 0.078617066
0.053937044 0.0015142895 0.032808118 0.046561856 -0.08155124 0.0057697413 -0.050501395 0.061016478
-0.064380035 0.020713953 0.044445943 -0.07186265 0.026409576 0.019165598 0.08822785 0.09490097
0.04415434 -0.014386566 -0.026265107 0.055645283 0.07108735 -0.065708384 0.080984786 0.070324056
0.06721405 -0.040179785 -0.067508906 0.060151763 -0.010318873 -0.028430397 0.023349179 -0.03914763
0.02188356 0.08612425 0.066165835 -0.010300156 0.026164187 -0.06567703 0.07607094 -0.061034724
0.06428314 0.06715853 0.056090683 -0.04695328 0.03246818 0.024755888 0.034614164 0.012424518
-0.008227681 -0.056120183 -0.0010989356 -0.022671906 0.056098107 -0.08770277 0.05775839 -0.025727386
0.08529084 0.07866264 -0.005633153 0.089754656 -0.082864776 -0.008338298 -0.023678064 0.037048858
0.02886581 -0.059841104 0.0009903809 -0.07177802 0.0041729417 0.03465319 -0.093515165 0.011661888
0.07646582 0.040250387 0.037683133 0.058180284 0.0053654057 -0.07863713 -0.07739314 0.021550715
0.02088484 -0.029614817 0.06281148 0.022032574 0.005990891 0.030497886 -0.04534405 0.028065098
0.027050674 -0.016658518 -0.05360693 -0.05082968 -0.028324435 -0.036357135 0.04705591 0.021737402
-0.094029345 0.082174465 0.002033298 -0.013373507 -0.0062313867 0.026381167 -0.056218136 -0.021005
0.038649175 0.008710812 -0.059003387 -0.080336444 -0.06963706 0.036973655 0.0060403864 0.042686373
00000000: 368b 633d 24d0 133c a42a 1c3d e420 f3bc
00000010: 06bf 81bd e965 43bd 79cc b3bc d2fe 4d3d
00000020: 851d 1f3d dadc 183d e919 bd3d 7108 963d
00000030: 3bfa a03c 00e1 0fbc 44fe 5e3d 5163 80ba
00000040: 9e9e 5ebd 3abb a1bd b5c4 ed3c 78db bb3d
00000050: 1acf f3bc 1a4b 0f3d d4eb 3d3d 1470 723a
00000060: b214 9ebd 6882 90bd 0e8d cabc 5b04 a23d
00000070: 1296 6ebb 9a22 1cbd 760a c13b 189c f5bc
00000080: 1c6a 10bc 13dc 733d 647f a03d 0888 c9bc
00000090: 0ae8 73bd 7448 debc 1e85 bdbb b407 6bbd
000000a0: 7c88 08bd 7e0d 22bc 4063 3cbb 6f7d d03b
000000b0: 8efe 633d 39c0 c03d 0fab 543d 56f4 5a3d
000000c0: b99f 973d fede 7d3d 098f e1bc 219e 09bd
000000d0: f0c9 97bd 6811 50bd 0262 36bd 8ffc 633d
000000e0: a258 14bd 426b 99bd 8349 92bd a027 18bc
000000f0: f3a3 633d fa64 a73d 106e 57bc 4175 4fbd
00000100: efe8 3d3d 1fb5 43bd d21c b4b9 3de3 4f3d
00000110: 6e8c 213d b50d 933d 5abc 7bbd bcbf 8dbd
00000120: 4320 0dbd 733f 943d de82 643c 3eac 6fbc
00000130: 81e9 9c3d cc18 343d a930 9b3c f512 0abd
00000140: 8b9f aabd 1862 363d 2596 69bc 7a78 56bd
00000150: 018e 213d 9de9 703d 5e5b 2dbd 593c 9abb
00000160: 01ef 563c 9ba8 753d c824 b6bc aa98 163d
00000170: 592b d63c 0f5b 963d bfd4 b6bd f5ff 3dbc
00000180: 58f8 443d 2d55 0a3d 9461 3cbd a343 933d
00000190: a259 a63d e978 96bd bedf a1bc 9e73 2e3d
000001a0: 4d72 493d 2316 ad3d 9388 c3bc f495 89bd
000001b0: 90fe bcbd 3910 933d f6ef 81bd cb54 b2bd
000001c0: 0074 173d 3ca0 2c3d 802e 323c 8194 4ebd
000001d0: 8928 7bbd ca16 9cbc cabf a6bb 421c a83d
000001e0: 22d7 3d3d 3fdc 12bd 4a80 29bc 73ad 2a3d
000001f0: 654d 963d 9fe8 e73c 1772 7dbd bc36 37bd
00000200: 55c2 43bd f60a be3d 1f5f d5bb 304e 873d
00000210: b7e3 28bd b618 93bd e657 87bd 7ceb 4c3d
00000220: abcf 92bd 8dc6 18bd ee04 b2bc 4920 a93d
00000230: 38a6 483d 714e 023d e53b afbc fc01 a13d
00000240: 17ed 5c3d 207b c63a ce61 063d a5b7 3e3d
00000250: 5604 a7bd 1910 bd3b 8dda 4ebd 6aec 793d
00000260: aed9 83bd 4fb0 a93c f30c 363d ba2c 93bd
00000270: e558 d83c 2c01 9d3c ceb0 b43d 715b c23d
00000280: 2edb 343d a2b5 6bbc ec29 d7bc 4fec 633d
00000290: 3f96 913d 1e92 86bd 5adb a53d 0f06 903d
000002a0: 85a7 893d 8f93 24bd 1c42 8abd b261 763d
000002b0: 7e10 29bc dde6 e8bc c746 bf3c 4459 20bd
000002c0: 2745 b33c e961 b03d f481 873d fcc1 28bc
000002d0: 4756 d63c ae81 86bd 15cb 9b3d 8cff 79bd
000002e0: e1a6 833d 698a 893d 58bf 653d 1552 40bd
000002f0: 5bfd 043d dccc ca3c 95c7 0d3d 3590 4b3c
00000300: 65cd 06bc 47de 65bd 290a 90ba 6fba b9bc
00000310: 21c7 653d 839d b3bd 1094 6c3d 3dc2 d2bc
00000320: f7ac ae3d e119 a13d 5096 b8bb 4ad1 b73d
00000330: 02b5 a9bd 5b9d 08bc 80f8 c1bc 8bc0 173d
00000340: fe77 ec3c f21b 75bd abcf 813a 5b00 93bd
00000350: 2cbd 883b 81f0 0d3d e184 bfbd 8111 3f3c
00000360: 1d9a 9c3d 97dd 243d a159 1a3d 734e 6e3d
00000370: 49d0 af3b 810c a1bd 4b80 9ebd 208b b03c
00000380: af16 ab3c c69a f2bc 4ea3 803d a87d b43c
00000390: 3c4f c43b b4d6 f93c afba 39bd c7e8 e53c
000003a0: 6099 dd3c 7277 88bc f192 5bbd c832 50bd
000003b0: a508 e8bc 38eb 14bd b3bd 403d a312 b23c
000003c0: 7592 c0bd 164b a83d 1441 053b 8e1c 5bbc
000003d0: a930 ccbb 511d d83c fd44 66bd ae12 acbc
000003e0: 994e 1e3d cbb7 0e3c 89ad 71bd 6f87 a4bd
000003f0: e09d 8ebd b071 173d 6fee c53b e8d7 2e3d
