dataset/models/PDAC_Hwang22_Fibro.Myofibroblastic/model.pth (torch, 696702 bytes, 14 tensors)

tiles_emb.hidden_layers.0.weight f4 [128, 768]
3.5635408e-06 -9.09743e-06 -2.076348e-06 -6.337731e-06 1.5421992e-06 2.938495e-06 8.3039447e-07 1.3265331e-05
-4.753454e-06 6.0365124e-07 2.2111002e-05 -2.9160599e-06 -3.3486126e-06 -4.185107e-06 -2.245017e-06 -1.0969039e-05
-1.0280199e-05 7.545226e-06 2.661338e-06 8.2347447e-07 6.3021225e-06 6.100032e-06 -0.00012424242 5.2370756e-06
1.0218118e-05 9.532417e-06 -8.124361e-06 4.1253124e-06 -7.4142836e-06 -9.107918e-05 -1.5772524e-06 8.7148455e-06
3.1336544e-06 -2.2983593e-05 -1.0083254e-05 -9.075653e-06 -1.0156945e-05 -9.417582e-06 -1.3382039e-06 3.7791472e-06
6.58993e-07 -5.5506284e-06 -1.2118255e-05 8.717078e-06 -1.3639105e-06 -7.3332117e-06 1.0345443e-06 0.0015211337
-7.053328e-06 -5.7082793e-06 -3.6538324e-05 -1.09977e-05 9.1211456e-07 2.2081747e-06 -6.2533622e-06 3.2501794e-07
-7.5907133e-06 4.1694802e-06 6.4271094e-06 -8.451998e-06 6.473561e-07 9.47912e-06 8.562914e-06 -1.0968301e-05
7.094474e-06 -3.5670241e-06 2.6077532e-06 -6.17662e-06 -7.1781193e-07 3.2886971e-06 1.3815155e-06 4.377556e-05
-2.255836e-06 -8.24809e-06 -4.894871e-06 -5.7568072e-06 1.2299276e-05 -0.00018424468 -1.4516365e-06 -3.0367455e-06
-2.4962462e-06 -1.6812926e-06 -1.381844e-06 6.931287e-06 -8.061931e-06 4.857629e-06 3.3440422e-06 -1.3089957e-05
-7.833991e-06 -8.866163e-06 -5.0758686e-06 6.4148176e-06 9.2027386e-07 -6.4213637e-06 -3.3749668e-06 1.5033238e-06
4.5725737e-06 -1.2878163e-05 -2.7581323e-06 -1.319968e-06 6.0648413e-06 8.8265614e-07 5.027138e-07 -6.79995e-06
-1.2645941e-05 2.1603964e-06 -7.3800074e-06 -5.2517596e-05 1.5694718e-06 -7.213872e-06 -8.9955165e-06 2.0049522e-06
-6.283038e-06 -2.9935811e-06 -1.1350425e-05 -1.0906942e-05 8.672697e-06 -1.6917404e-05 -4.5611437e-06 4.6501136e-06
3.754956e-05 -2.2103816e-06 7.9438205e-06 -2.4796607e-06 5.509122e-06 1.4095762e-07 5.9615254e-06 7.982907e-06
-1.2481801e-06 -2.5647598e-06 -7.1194586e-06 4.3672776e-06 1.1402824e-05 -6.2834993e-06 2.7601323e-05 8.918316e-07
8.645773e-06 -7.71197e-07 -3.7335553e-06 9.601135e-06 -7.79711e-06 5.0055687e-06 -8.629e-06 -2.1247489e-07
-3.1940847e-06 4.596903e-06 -8.683703e-06 3.586949e-05 -3.7920433e-06 -1.4355309e-05 1.1817501e-06 -3.7391197e-07
7.89495e-06 -9.34026e-07 5.713531e-06 -3.9346255e-06 2.7596213e-06 -1.3001806e-05 3.1822526e-06 2.7879307e-07
-1.0701658e-05 9.981241e-06 -5.8050728e-06 -2.0508205e-06 -6.0410416e-06 3.3662143e-06 3.4172854e-06 -0.00012747322
5.862131e-07 -2.33801e-06 -7.5259472e-06 -4.033148e-06 5.3748754e-06 1.2034059e-06 -8.826593e-06 -5.9515896e-06
-2.9768612e-06 8.1175085e-06 -3.835305e-06 -1.6016249e-07 5.9826507e-06 7.0160263e-06 -1.304872e-06 4.4915687e-06
2.6005539e-05 1.7077225e-07 2.965946e-06 0.001317416 1.8704941e-06 -7.757492e-06 -1.1749405e-06 6.263882e-06
1.0087621e-05 4.909293e-06 -5.156395e-06 -4.1070844e-06 -8.8543146e-07 9.190549e-06 -4.5490365e-06 -5.000159e-06
4.5419605e-07 3.0950946e-07 4.370275e-06 -6.1472206e-06 -5.1985585e-06 -1.0544252e-05 3.2120327e-06 1.8306629e-06
-5.6891986e-06 -7.68525e-06 -8.596036e-06 -6.760704e-06 8.3079004e-07 -1.0093476e-05 -8.373648e-06 -2.6322696e-06
1.2593582e-05 2.825637e-06 -9.179454e-07 -6.584681e-06 -1.7564159e-06 -2.872034e-06 -9.349991e-06 -4.712441e-05
-3.0141289e-06 -1.1647076e-06 -9.423078e-06 0.0001904263 4.8557613e-06 4.5788765e-06 6.7916844e-06 -5.483517e-06
-6.227883e-06 5.759777e-06 -8.068165e-06 1.7785021e-06 9.377374e-05 -4.0334203e-06 -1.6778704e-06 1.3463488e-05
6.4901387e-06 7.446751e-06 -7.0387573e-06 -1.4911053e-06 -6.2309796e-06 -1.2566135e-05 -5.811742e-06 2.8932136e-06
-1.4066088e-05 1.2180019e-06 1.0738972e-05 -1.6290351e-06 -1.13880105e-05 5.2993646e-06 2.5995835e-06 1.4575466e-05
00000000: 2a25 6f36 2aa1 18b7 6357 0bb6 b2a8 d4b6
00000010: 90fd ce35 f632 4536 46e8 5e35 2a8e 5e37
00000020: dc7f 9fb6 990a 2235 047b b937 87b1 43b6
00000030: bab8 60b6 cc6d 8cb6 19a9 16b6 aa07 38b7
00000040: 1e79 2cb7 ff2c fd36 7099 3236 bc0c 5d35
00000050: d276 d336 e0ae cc36 1247 02b9 23ba af36
00000060: 7c6e 2b37 6bed 1f37 dd4d 08b7 2a6c 8a36
00000070: 36c8 f8b6 c301 bfb8 fbb1 d3b5 fa35 1237
00000080: c64b 5236 e4cc c0b7 3f2b 29b7 a243 18b7
00000090: bf67 2ab7 3500 1eb7 569c b3b5 419d 7d36
000000a0: a7e5 3035 893f bab6 824f 4bb7 913f 1237
000000b0: 9c0f b7b5 cf0f f6b6 acda 8a35 c760 c73a
000000c0: a0ab ecb6 bf89 bfb6 ba40 19b8 c382 38b7
000000d0: 09d8 7435 2730 1436 f9d3 d1b6 207e ae34
000000e0: bbb3 feb6 90e7 8b36 73a8 d736 0ecd 0db7
000000f0: f9c5 2d35 8308 1f37 70a9 0f37 7e04 38b7
00000100: 110d ee36 0261 6fb6 dc00 2f36 c340 cfb6
00000110: a9af 40b5 63b3 5c36 836c b935 a69b 3738
00000120: f862 17b6 4761 0ab7 9f3e a4b6 992a c1b6
00000130: fd58 4e37 ce31 41b9 dad5 c2b5 e4ca 4bb6
00000140: 2f85 27b6 c6a8 e1b5 cc77 b9b5 4d93 e836
00000150: bb41 07b7 b7fe a236 356a 6036 f09c 5bb7
00000160: bc6e 03b7 e1bf 14b7 6151 aab6 dd3e d736
00000170: bd08 7735 1877 d7b6 7d7d 62b6 d0c5 c935
00000180: 1c6e 9936 4a0f 58b7 5a18 39b6 c129 b1b5
00000190: 9780 cb36 abef 6c35 3bf2 0635 202b e4b6
000001a0: e729 54b7 54fb 1036 c8a1 f7b6 5746 5cb8
000001b0: a4a6 d235 b00e f2b6 73eb 16b7 d18c 0636
000001c0: e3d2 d2b6 55e5 48b6 b46d 3eb7 f6fc 36b7
000001d0: f380 1137 d9e9 8db7 ed0b 99b6 2c08 9c36
000001e0: 887e 1d38 1156 14b6 7346 0537 3f68 26b6
000001f0: ffda b836 235a 1734 1d09 c836 53ee 0537
00000200: 2487 a7b5 3d1e 2cb6 afe3 eeb6 a18a 9236
00000210: c24e 3f37 d9d6 d2b6 6489 e737 3366 6f35
00000220: 500d 1137 4104 4fb5 fe8d 7ab6 9014 2137
00000230: 55d0 02b7 82f5 a736 46c5 10b7 a724 64b4
00000240: f559 56b6 193f 9a36 38b0 11b7 9272 1638
00000250: cf7a 7eb6 95d7 70b7 a09c 9e35 12be c8b4
00000260: 8d74 0437 c7b9 7ab5 dcb6 bf36 2d06 84b6
00000270: ef31 3936 5522 5ab7 af8e 5536 07ad 9534
00000280: 458b 33b7 1b75 2737 32c9 c2b6 d4a0 09b6
00000290: 27b4 cab6 1fe7 6136 8454 6536 55aa 05b9
000002a0: 425c 1d35 b5e6 1cb6 6587 fcb6 7a54 87b6
000002b0: d459 b436 b684 a135 ee15 14b7 c4b3 c7b6
000002c0: 16c6 47b6 6f30 0837 05b1 80b6 21f9 2bb4
000002d0: 94be c836 356b eb36 0f23 afb5 48b6 9636
000002e0: 7826 da37 855d 3734 900a 4736 25ad ac3a
000002f0: b00d fb35 2d26 02b7 a6b2 9db5 562e d236
00000300: 013e 2937 81ba a436 1905 adb6 96cf 89b6
00000310: 63ae 6db5 1b31 1a37 eda3 98b6 0ac7 a7b6
00000320: 3bd8 f334 a82a a634 60a4 9236 3944 ceb6
00000330: 476f aeb6 38e7 30b7 4d8e 5736 19b5 f535
00000340: d8e5 beb6 e6ef 00b7 b237 10b7 01da e2b6
00000350: 7503 5f35 2657 29b7 8b7c 0cb7 0ca6 30b6
00000360: 0649 5337 13a0 3d36 ba68 76b5 fbf1 dcb6
00000370: febd ebb5 2bbd 40b6 e8dd 1cb7 73a7 45b8
00000380: 5746 4ab6 0c53 9cb5 d017 1eb7 2cad 4739
00000390: acee a236 40a4 9936 20e4 e336 0dff b7b6
000003a0: 1cf9 d0b6 1c44 c136 815c 07b7 deb4 ee35
000003b0: 65a8 c438 d156 87b6 3033 e1b5 3ee1 6137
000003c0: dec5 d936 1bdf f936 772e ecb6 fd21 c8b5
000003d0: b513 d1b6 24d3 52b7 7c02 c3b6 0829 4236
000003e0: 63fd 6bb7 3a7a a335 892b 3437 38a5 dab5
000003f0: 220f 3fb7 32d1 b136 8174 2e36 2689 7437

tiles_emb.hidden_layers.0.bias f4 [128]
-0.0008916604 -4.989215e-07 -0.009058145 0.0014009979 -0.0024257204 0.003285273 0.019117612 0.009648954
-0.00012454305 0.013646946 0.024545837 -0.00023944989 0.008032818 0.0069431723 0.008925307 -2.3776668e-06
0.007965317 -1.187117e-06 0.0066985553 0.023089217 -0.0070021204 1.5307601e-09 -0.0003799969 2.1165216e-07
0.007981508 -0.00032903397 0.007808155 -1.4021694e-05 0.0077629704 0.011624974 0.01475726 -0.00024584765
0.010592355 0.010420547 0.00526179 0.011991681 0.0008401215 0.025427267 0.02105252 0.0012519195
0.026648428 0.008265014 0.020953786 -1.08298145e-05 0.007516045 -3.1038903e-06 -1.0340906e-05 -0.00032823568
0.022774033 -1.5321599e-05 -0.00038841993 0.0069406102 0.0185865 0.0046379967 0.017576858 0.03918349
-3.6340454e-05 0.008053151 0.016900448 0.008855342 0.008968526 0.026399884 3.7391505e-08 5.585917e-07
0.014178964 -1.9714828e-06 -0.004130169 0.0026638075 -0.00012729202 0.005027405 -2.745185e-05 0.0035548755
0.0020289025 -0.00067626865 0.00951675 0.009005309 0.0086704325 0.0044370038 0.006461533 -0.00010342583
0.011863237 -0.00016470929 0.025872331 -0.00055607944 -8.8743e-05 -0.00091008056 0.0061449814 0.004215173
-0.0027674865 -0.00015906163 -1.5990064e-08 0.011072965 0.017537052 0.0066182613 0.01039149 -1.9866454e-06
-0.00027956098 -0.0004482606 -1.41749915e-05 -7.695919e-05 0.021252383 0.0039677937 -4.8108272e-06 -0.0007742758
0.008320875 -0.0007087122 -0.0067810067 0.0056252987 0.019520387 -0.0015703618 -5.404999e-07 0.0014431587
-0.0005249751 0.007185776 0.013113136 0.009994618 0.02892576 -0.003129143 -8.578557e-06 0.011002542
-0.00012900286 -0.00074842136 -0.00026679877 0.0074818637 0.00908125 0.033058494 0.0026891872 0.03147097
00000000: 51be 69ba a0ed 05b5 9d68 14bc b0a1 b73a
00000010: d6f8 1ebb bc4d 573b 8a9c 9c3c a516 1e3c
00000020: c597 02b9 7197 5f3c 5a14 c93c d714 7bb9
00000030: 159c 033c 8d83 e33b 733b 123c 0190 1fb6
00000040: f680 023c 0855 9fb5 8e7f db3b 9925 bd3c
00000050: 0b72 e5bb d562 d230 523a c7b9 8142 6334
00000060: dfc4 023c 3182 acb9 8ddb ff3b b83e 6bb7
00000070: 8460 fe3b ad76 3e3c 6fc8 713c 1de5 80b9
00000080: 8f8b 2d3c f1ba 2a3c 186b ac3b c178 443c
00000090: 993b 5c3a d84c d03c 5676 ac3c 7317 a43a
000000a0: ce4d da3c fb69 073c 46a7 ab3c b3b1 35b7
000000b0: 2849 f63b 6e4c 50b6 da7d 2db7 0c17 acb9
000000c0: 9c90 ba3c e286 80b7 d7a4 cbb9 0f6e e33b
000000d0: b742 983c 56fa 973b 58fd 8f3c de7e 203d
000000e0: 446c 18b8 5df1 033c cf72 8a3c ff15 113c
000000f0: b9f0 123c 9244 d83c 6598 2033 21f2 1535
00000100: e34e 683c d14d 04b6 5e56 87bb 4693 2e3b
00000110: b179 05b9 eebc a43b 6648 e6b7 eaf8 683b
00000120: 56f7 043b 9f47 31ba 25ec 1b3c 018b 133c
00000130: 6e0e 0e3c 4964 913b 44bb d33b 52e6 d8b8
00000140: 065e 423c d0b5 2cb9 36f2 d33c dcc5 11ba
00000150: 891b bab8 7992 6eba d75b c93b 6f1f 8a3b
00000160: b85e 35bb c8c9 26b9 865a 89b2 626b 353c
00000170: dda9 8f3c 00de d83b 1141 2a3c 4f52 05b6
00000180: 0a92 92b9 8504 ebb9 20d1 6db7 2765 a1b8
00000190: 7a19 ae3c 4404 823b b16c a1b6 c5f8 4aba
000001a0: 4754 083c dfc8 39ba 3533 debb 6d54 b83b
000001b0: 38e9 9f3c 99d4 cdba df16 11b5 5f28 bd3a
000001c0: 7c9e 09ba a876 eb3b 7bd8 563c 77c0 233c
000001d0: b7f5 ec3c 4f12 4dbb 9fec 0fb7 0244 343c
000001e0: f144 07b9 b531 44ba 20e1 8bb9 6c2a f53b
000001f0: 86c9 143c 5868 073d 133d 303b b4e7 003d

tiles_emb.hidden_layers.2.weight f4 [128, 128]
-1.4280712e-06 -4.5814918e-08 0.000919882 0.004847056 -0.011556591 -0.004457204 0.011651411 0.006236074
0.000104823026 0.0070671476 0.005580419 1.4433449e-09 -0.002070629 0.0033114457 0.005651807 2.3097615e-09
0.0050723394 4.878722e-08 0.005332489 0.0073930714 0.008819639 -2.4050215e-10 -0.004964133 -3.8357705e-08
0.00427793 -0.00249377 0.009319882 1.3198033e-11 -0.0076841246 0.010595638 0.009086911 -2.1561262e-05
0.007282975 0.013299126 0.009140794 0.0076827095 0.0058932975 0.008909968 0.009433254 -0.008551887
0.00806267 0.0035060395 -0.0117676025 8.3033547e-10 0.010456025 -2.194345e-09 1.2881403e-10 -9.1388414e-10
0.004605938 -1.3348012e-10 -1.3875192e-08 -0.005863937 -0.0050673494 0.0051777223 -0.009129964 0.012036814
6.3415245e-11 0.004625126 -0.008561188 0.004479494 0.013157562 0.010586191 3.2773406e-10 -1.4563846e-08
-0.004617267 -1.6785046e-08 -0.008616038 -0.008668964 4.328239e-11 -0.006168208 1.1358757e-11 0.0063838223
-0.0052186465 -1.4076372e-06 -0.013011658 -0.004392549 0.0043872334 -0.0048827324 0.006329785 -1.3538853e-07
0.004184183 -2.250694e-08 0.0118363965 3.6606745e-10 -1.684287e-06 0.009751863 -0.0035030025 -0.0034303956
0.00033711502 4.8162006e-11 1.7185187e-10 0.007469263 0.0099484585 -0.008606763 0.0052284924 -9.57758e-07
3.218029e-11 -6.447151e-10 -4.53921e-12 3.4702963e-09 0.008964456 -0.0028353753 1.4857785e-09 -1.6031589e-05
-0.005889762 6.544092e-07 -0.0110407295 -0.004944478 0.008985219 -4.157625e-07 9.8956576e-08 0.0068614758
9.868794e-09 0.0040562716 -0.009365472 -0.01081361 0.010282819 0.0002322643 0.001567718 0.0039859777
5.5606993e-06 2.7454578e-07 -9.919732e-05 0.007129623 0.0053169588 0.010869659 -0.0048138383 0.010181222
-4.7014456e-07 6.0546848e-09 2.1999143e-07 0.0012188306 -0.0030398548 -0.0013261219 0.0029041034 0.001317861
2.829512e-05 0.0016966925 0.002780953 -1.4138588e-09 -0.00064584916 0.0009180663 0.0014409603 -8.370821e-10
0.0012391403 3.5620392e-08 0.0013914147 0.00183695 0.0022565743 -2.887153e-10 -0.0016118679 5.714003e-08
0.001104202 -0.0007768093 0.0023763906 1.9360982e-10 -0.002301065 0.0031349314 0.0023036094 5.8508397e-07
0.0018357721 0.0029760601 0.0024443853 0.0018621987 0.0013434466 0.0022529361 0.002332392 -0.0024052446
0.0020562813 0.00088814454 -0.0037774532 -4.9276618e-11 0.0027942352 -6.7434175e-10 4.3740556e-11 2.615929e-10
0.0018022239 -5.659749e-09 -4.2970276e-09 -0.0016161104 -0.0017063132 0.0013942716 -0.002762602 0.0040742345
-5.2051065e-11 0.0012045536 -0.0027458614 0.0011570009 0.0045745308 0.0034055773 3.386619e-10 -1.3261101e-08
-0.0013703429 4.5904747e-09 -0.0026525252 -0.002355853 3.0456224e-10 -0.0018937615 -5.0353874e-11 0.0015665407
-0.0014055665 1.8794384e-06 -0.004329449 -0.0012969353 0.0011654597 -0.0014863826 0.0015726809 -9.115782e-08
0.0011042971 1.7054548e-08 0.001901046 3.4851864e-09 -3.4978217e-07 0.0021020267 -0.0010420965 -0.0010264012
3.1514188e-05 -3.2252694e-11 -9.1008007e-10 0.0016868962 0.002403765 -0.002584984 0.0013934453 -7.5026475e-07
-1.1922363e-10 -6.0502253e-10 -1.1161527e-10 3.7619365e-09 0.0022308296 -0.0009100786 3.2116912e-10 9.4426e-06
-0.0016293267 2.720567e-07 -0.003503703 -0.0014189614 0.0020925517 4.454597e-07 -9.68916e-09 0.0017251344
-4.3737196e-09 0.0010859118 -0.0028511423 -0.0030819434 0.0027626592 -1.3981918e-06 0.0004585054 0.0010723583
1.1582476e-06 6.367913e-08 -2.8411945e-05 0.0017642066 0.0020301712 0.0028364623 -0.001428913 0.0028058442
00000000: 27ac bfb5 09c6 44b3 3c24 713a 0ed4 9e3b
00000010: db57 3dbc bd0d 92bb 8fe5 3e3c fb57 cc3b
00000020: 6fd4 db38 8893 e73b f3db b63b 2f5f c630
00000030: 64b3 07bb d704 593b cb32 b93b c1b9 1e31
00000040: de35 a63b 1e8a 5133 29bc ae3b 9441 f23b
00000050: 3f80 103c ab37 84af 2aaa a2bb bebe 24b3
00000060: e12d 8c3b 856e 23bb 6bb2 183c a82e 682d
00000070: 1ccb fbbb 5499 2d3c 44e1 143c 75de b4b7
00000080: 06a6 ee3b 94e4 593c 45c3 153c 3dbf fb3b
00000090: 901c c13b 1dfb 113c ef8d 1a3c 371d 0cbc
000000a0: 4a19 043c 95c5 653b e7cc 40bc aa3d 6430
000000b0: bf4f 2b3c 53cb 16b1 eda1 0d2f e134 7bb0
000000c0: 69ed 963b 50c3 12af bd5f 6eb2 4526 c0bb
000000d0: 020c a6bb e2a9 a93b d895 15bc 0f36 453c
000000e0: 9c73 8b2e 5e8e 973b 3a44 0cbc b8c8 923b
000000f0: d192 573c b471 2d3c 782c b42f 7934 7ab2
00000100: 714c 97bb b52e 90b2 482a 0dbc 4508 0ebc
00000110: a45b 3e2e ae1e cabb 4bd3 472d 622f d13b
00000120: 2e01 abbb 0cee bcb5 d92e 55bc 5fef 8fbb
00000130: c8c2 8f3b 54ff 9fbb 166a cf3b 515f 11b4
00000140: 791b 893b 4955 c1b2 72ed 413c 6a3f c92f
00000150: a90f e2b5 47c6 1f3c a192 65bb 7dd0 60bb
00000160: d0be b039 99d1 532e 00f4 3c2f b8c0 f43b
00000170: dcfe 223c 6103 0dbc c653 ab3b 508c 80b5
00000180: c987 0d2e cb37 31b0 92b5 9fac 197a 6e31
00000190: a7df 123c b4d1 39bb 2f34 cc30 937b 86b7
000001a0: e8fe c0bb a8aa 2f35 2de4 34bc 4a05 a2bb
000001b0: bd36 133c f735 dfb4 f481 d433 3bd6 e03b
000001c0: 6a8b 2932 79ea 843b a371 19bc 912b 31bc
000001d0: 4579 283c f98b 7339 e37b cd3a ce9c 823b
000001e0: 0b96 ba36 4965 9334 2808 d0b8 9d9f e93b
000001f0: e239 ae3b a716 323c 67bd 9dbb 24cf 263c
00000200: 2d68 fcb4 9209 d031 c936 6c34 2bc1 9f3a
00000210: 4d38 47bb 44d1 adba c552 3e3b 14bc ac3a
00000220: 4f5b ed37 8e63 de3a a640 363b bc51 c2b0
00000230: 344e 29ba 63aa 703a 9bde bc3a 6b18 66b0
00000240: a66a a23a 09fd 1833 2160 b63a d0c5 f03a
00000250: 09e3 133b 11b9 9eaf 5045 d3ba 216a 7533
00000260: dfba 903a caa2 4bba 38bd 1b3b 52e0 542f
00000270: 77cd 16bb 6c73 4d3b 27f8 163b aa0e 1d35
00000280: 4a9e f03a 010a 433b fb31 203b 0515 f43a
00000290: 9616 b03a ffa5 133b 0bdb 183b 4fa1 1dbb
000002a0: adc2 063b 5fd2 683a 268f 77bb 8ab8 58ae
000002b0: 7d1f 373b 955c 39b0 7d5f 402e edcf 8f2f
000002c0: 9938 ec3a ae77 c2b1 0ea5 93b1 abd3 d3ba
000002d0: 5fa6 dfba febf b63a c50c 35bb 2881 853b
000002e0: 4aec 64ae 1de2 9d3a e9f3 33bb 82a6 973a
000002f0: f2e5 953b 1b30 5f3b 6d2e ba2f f0d2 63b2
00000300: 149d b3ba 3eba 9d31 fdd5 2dbb a864 1abb
00000310: 536f a72f 1738 f8ba 6c75 5dae 6254 cd3a
00000320: fc3a b8ba 0341 fc35 0dde 8dbb edfd a9ba
00000330: 57c2 983a b9d2 c2ba 6a22 ce3a 8bc2 c3b3
00000340: 10be 903a 597f 9232 852c f93a 0c80 6f31
00000350: b2c9 bbb4 28c2 093b f596 88ba 4f88 86ba
00000360: 1a2e 0438 4ed9 0dae 3129 7ab0 d81a dd3a
00000370: 7c88 1d3b d668 29bb 44a4 b63a cd65 49b5
00000380: 7816 03af ad4e 26b0 d071 f5ae 5842 8131
00000390: 1c33 123b 5792 6eba 8990 b02f a86b 1e37
000003a0: 228f d5ba 300f 9234 629e 65bb 72fc b9ba
000003b0: 3123 093b 8427 ef34 6075 26b2 e81d e23a
000003c0: a547 96b1 2755 8e3a 3bda 3abb 6efa 49bb
000003d0: bb0d 353b 81a9 bbb5 8e63 f039 608e 8c3a
000003e0: 1675 9b35 f9bf 8833 3056 eeb7 f33c e73a
000003f0: 9f0c 053b f1e3 393b 5d4a bbba 41e2 373b

tiles_emb.hidden_layers.2.bias f4 [128]
0.0069901305 0.008721379 0.043156732 -0.012982485 -0.006397622 0.03798457 -0.004392901 -0.051910482
0.021042112 0.0255106 -0.013435115 0.011525 0.0075454144 0.023042671 -0.028622463 0.016884154
-0.049999114 0.03456071 0.0040301946 0.032630228 -0.024442503 0.0021827905 -0.03373828 -0.056351945
0.0023424362 0.0071556303 -0.02349408 0.02547592 0.026885066 0.005916277 0.0086615 -0.0011640446
-0.005953803 0.027982248 0.0009750263 0.005289701 0.02882732 -0.00086165074 -0.04106571 0.03261257
-0.01394401 0.011962321 0.03530206 0.014035849 0.011086802 -0.027831865 0.03653606 -0.010144652
-0.009015899 -0.0030774688 0.044712473 -0.027418524 -0.07096668 0.061904885 -0.061444923 -0.0142745115
-0.028865244 0.04221694 0.009081149 0.03022619 -0.00078313943 0.011178892 -0.035475317 -0.0011319718
-0.055265855 0.028661532 -0.028898496 0.017117327 0.025527865 0.040195893 -0.0034505948 0.039077938
-0.009903075 0.06693571 0.051768992 0.007831676 0.0032170468 -0.05616825 0.014174044 0.011917791
0.0043252227 -0.0055710617 0.017760677 -0.048472393 0.036974013 0.0022921595 0.0485335 0.026117116
0.01788914 -0.020924611 0.0040417057 -0.024605561 0.021677015 -0.008567843 -0.03952123 -0.030604318
0.034115586 0.021410735 -0.047056932 -0.012895008 0.012910731 0.013022095 0.05065262 0.03660975
-0.03570195 0.0043997653 -0.032216664 0.019894024 -0.003336492 0.043448344 0.037631582 -0.048348665
-6.3262814e-05 -0.021621585 -0.0021955112 0.02918165 0.04715727 0.013729261 0.0037408525 0.01963014
0.01676312 -0.011683138 -0.018875489 0.022512775 0.030145282 -0.042859036 -0.017450437 0.04899405
00000000: 770d e53b 1de4 0e3c 1dc5 303d 7db4 54bc
00000010: 25a3 d1bb b595 1b3d 53f2 8fbb 16a0 54bd
00000020: 8260 ac3c 9bfb d03c f51e 5cbc 5bd3 3c3c
00000030: 863f f73b fcc3 bc3c a879 eabc a350 8a3c
00000040: dfcb 4cbd 888f 0d3d b90f 843b 46a7 053d
00000050: a53b c8bc 260d 0f3b 2731 0abd 4cd1 66bd
00000060: 8f83 193b c779 ea3b a876 c0bc e0b2 d03c
00000070: 123e dc3c 54dd c13b f7e8 0d3c db92 98ba
00000080: 1f18 c3bb 073b e53c e898 7f3a 3a55 ad3b
00000090: 4627 ec3c 67e0 61ba 8534 28bd c294 053d
000000a0: 6b75 64bc 9cfd 433c e598 103d 9ef6 653c
000000b0: 6ba5 353c a7ff e3bc d6a6 153d c135 26bc
000000c0: 6cb7 13bc 5caf 49bb 6d24 373d d09c e0bc
000000d0: fb56 91bd fa8f 7d3d acad 7bbd a4df 69bc
000000e0: ce76 ecbc aceb 2c3d 19c9 143c ea9c f73c
000000f0: 994b 4dba ac27 373c 914e 11bd ac5e 94ba
00000100: 735e 62bd 97cb ea3c 8abc ecbc a339 8c3c
00000110: d01f d13c 73a4 243d 6023 62bb 3010 203d
00000120: 8240 22bc 9715 893d b90b 543d 6e50 003c
00000130: 17d5 523b ae10 66bd 403a 683c d742 433c
00000140: 99ba 8d3b 748d b6bb d77e 913c fd8a 46bd
00000150: 1072 173d 0e38 163b 10cb 463d 90f3 d53c
00000160: 3f8c 923c 176a abbc 4970 843b 9a91 c9bc
00000170: ff93 b13c 2360 0cbc 03e1 21bd e8b5 fabc
00000180: c9bc 0b3d 9165 af3c c5be 40bd 9545 53bc
00000190: 8887 533c a05a 553c 1f79 4f3d 1bf4 153d
000001a0: 353c 12bd e82b 903b 9ff5 03bd cbf8 a23c
000001b0: 0ca9 5abb e4f6 313d 9323 1a3d 4009 46bd
000001c0: f7ab 84b8 c01f b1bc 91e2 0fbb 5b0e ef3c
000001d0: fb27 413d b2f0 603c 1729 753b 63cf a03c
000001e0: d052 893c a26a 3fbc c5a0 9abc b66c b83c
000001f0: 3df3 f63c f58c 2fbd 38f4 8ebc fcad 483d

attention_layer.att.weight f4 [128, 128]
-4.4234252e-08 -8.732984e-09 -1.3745382e-07 -1.5239851e-07 -1.0106921e-07 2.0196909e-07 -9.1208406e-08 1.8367207e-07
-1.5764653e-07 -1.1751434e-07 7.1979564e-08 -1.7797429e-07 -5.7689125e-08 -1.4629356e-07 1.0247155e-07 1.7245142e-07
9.272347e-08 1.7244848e-07 -1.2803447e-07 -1.0533209e-07 -1.39050504e-08 -5.547976e-08 1.2576463e-07 1.5581318e-07
-1.4187609e-07 1.353773e-07 1.3442148e-07 1.08669795e-07 1.16695134e-07 1.4581828e-07 -1.3937071e-07 7.68791e-08
-3.7949256e-08 1.2343095e-07 -9.117211e-10 -1.1562035e-07 1.14813034e-07 8.9159414e-08 -1.09940494e-07 -1.4142987e-07
-8.0269544e-08 -6.1857975e-08 -1.0598511e-07 5.814536e-08 -9.0818695e-08 5.903167e-08 1.4601603e-07 4.408813e-08
1.1463449e-07 -8.730198e-08 -1.1301679e-07 9.439524e-08 2.1382166e-07 -1.3250164e-07 2.1244459e-07 7.51549e-08
-1.17826204e-07 1.2724456e-07 9.7237894e-08 -1.3767657e-07 -1.2523272e-07 -4.132515e-08 -1.1262557e-07 -9.446871e-10
1.829994e-07 -7.934795e-08 -9.545168e-08 1.7019867e-07 1.1103867e-07 -1.4481891e-07 1.1264894e-07 1.0466948e-07
1.6986907e-07 -2.213977e-07 -1.6039877e-07 -1.2018037e-07 9.788381e-08 1.733851e-07 -1.9313859e-07 -7.478601e-08
-1.4907972e-07 1.9643832e-07 -1.9584948e-07 1.03833514e-07 -9.1745484e-08 7.475164e-08 -2.1438521e-07 -8.268645e-08
1.3798567e-07 -1.0947944e-07 1.06789265e-07 8.207408e-08 1.14287715e-07 -5.6370273e-09 -4.569575e-08 7.911411e-08
-8.852188e-08 -5.870876e-08 1.453948e-07 -9.2060155e-08 -1.3241682e-07 -5.6825392e-08 -1.267225e-07 -9.9039255e-08
-1.5799688e-07 1.3929399e-07 -6.0740504e-08 -8.299334e-08 -9.868518e-08 -1.2565587e-07 -1.7780478e-07 -1.6796022e-07
5.3753757e-09 9.8120246e-08 -1.7212606e-07 -8.673611e-08 1.2318344e-07 -1.5740501e-07 -1.4268835e-09 -1.9136897e-07
3.966851e-08 1.1318211e-07 -9.5289224e-08 -1.540276e-07 -9.940433e-08 9.976045e-08 -1.555819e-07 1.628056e-07
4.7107747e-08 1.0364635e-08 2.543938e-07 2.7634033e-07 1.624075e-07 -3.3079476e-07 1.6918047e-07 -3.4105966e-07
2.809294e-07 2.1122423e-07 -1.3732557e-07 2.9839003e-07 9.883405e-08 2.5358574e-07 -1.8197402e-07 -3.2192818e-07
-2.0314674e-07 -3.1340397e-07 2.4893416e-07 2.0641117e-07 4.6543782e-08 6.9772156e-08 -2.4921843e-07 -2.7240247e-07
2.4949375e-07 -2.4627082e-07 -2.72137e-07 -2.0962534e-07 -2.2561755e-07 -2.7631722e-07 2.7505772e-07 -1.4370524e-07
3.1818786e-08 -2.0101645e-07 -2.0336648e-09 2.2563152e-07 -2.209124e-07 -1.6437039e-07 2.148251e-07 2.7397192e-07
1.4291908e-07 5.6022728e-08 3.0696717e-07 -1.0696266e-07 1.6497631e-07 -6.5168756e-08 -2.8417426e-07 -3.635027e-08
-2.144999e-07 1.6904781e-07 2.2037705e-07 -1.8446933e-07 2.7261208e-07 2.5435236e-07 -3.5747007e-07 -1.4280758e-07
2.307243e-07 -2.465989e-07 -2.540171e-07 2.6696753e-07 2.489511e-07 7.872704e-08 2.0868175e-07 4.252249e-09
-3.3847732e-07 1.6028774e-07 1.8987065e-07 -3.1115795e-07 -2.2021973e-07 2.39019e-07 -2.2063534e-07 -2.0678445e-07
-2.9981072e-07 3.3747284e-07 2.137266e-07 2.1595591e-07 -1.866974e-07 -3.145877e-07 3.5408004e-07 1.3067675e-07
2.7812894e-07 -2.7815295e-07 3.0988923e-07 -2.0384181e-07 1.7787805e-07 -1.4291804e-07 3.1190413e-07 1.6016409e-07
-2.1287332e-07 2.0110065e-07 -2.2262346e-07 -1.5459503e-07 -2.2504179e-07 2.4465988e-08 7.50175e-08 -1.6200765e-07
1.6837207e-07 1.020127e-07 -2.8345806e-07 1.5698505e-07 2.568417e-07 8.734346e-08 2.5256423e-07 1.8313975e-07
3.0877655e-07 -2.498725e-07 1.012329e-07 1.5580343e-07 1.8602971e-07 2.4486027e-07 2.4213765e-07 3.025377e-07
6.785238e-10 -1.9460646e-07 3.1382336e-07 1.7075224e-07 -2.1811113e-07 3.0300646e-07 -2.7715635e-10 3.030961e-07
-4.629458e-08 -2.2485055e-07 1.7241432e-07 2.8115352e-07 1.9002442e-07 -1.9217073e-07 2.919981e-07 -2.9651108e-07
00000000: 13fc 3db3 1208 16b2 0597 13b4 fca2 23b4
00000010: 630b d9b3 d7dc 5834 5ade c3b3 6537 4534
00000020: 8c45 29b4 315c fcb3 2f93 9a33 3319 3fb4
00000030: ddc5 77b3 de14 1db4 550e dc33 162b 3934
00000040: 441f c733 472a 3934 d979 09b4 ee32 e2b3
00000050: 0fe3 6eb2 a448 6eb3 eb09 0734 9a4d 2734
00000060: 9a56 18b4 3b5c 1134 7f55 1034 da5d e933
00000070: d499 fa33 3992 1c34 eea5 15b4 bb18 a533
00000080: a6fd 22b3 7188 0434 ab9c 7ab0 f64a f8b3
00000090: 228f f633 e877 bf33 6d18 ecb3 f2db 17b4
000000a0: a660 acb3 c8d6 84b3 ee99 e3b3 80bb 7933
000000b0: 1b08 c3b3 028a 7d33 95c8 1c34 695b 3d33
000000c0: fa2c f633 c57a bbb3 a3b3 f2b3 55b6 ca33
000000d0: da96 6534 c645 0eb4 531c 6434 d864 a133
000000e0: a407 fdb3 b8a0 0834 19d1 d033 3fd4 13b4
000000f0: b577 06b4 7c7d 31b3 90dc f1b3 39d6 81b0
00000100: 7e7e 4434 ff65 aab3 1efb ccb3 dbbf 3634
00000110: 2874 ee33 857f 1bb4 69e9 f133 a8c6 e033
00000120: 4165 3634 56b9 6db4 143a 2cb4 ee0a 01b4
00000130: 3234 d233 bc2b 3a34 8861 4fb4 0b9a a0b3
00000140: b912 20b4 8eec 5234 b24a 52b4 14fb de33
00000150: 9d05 c5b3 2687 a033 c231 66b4 5b91 b1b3
00000160: 3629 1434 f51a ebb3 0554 e533 b440 b033
00000170: 566e f533 d1af c1b1 0243 44b3 71e5 a933
00000180: 6b19 beb3 f726 7cb3 d11d 1c34 9bb2 c5b3
00000190: 752e 0eb4 2e10 74b3 3711 08b4 68af d4b3
000001a0: daa5 29b4 d790 1534 7270 82b3 123a b2b3
000001b0: c0ec d3b3 06ec 06b4 9bea 3eb4 8e58 34b4
000001c0: 4eb2 b831 2db6 d233 a7d1 38b4 ae43 bab3
000001d0: 6844 0434 2903 29b4 001c c4b0 1a7b 4db4
000001e0: fd5f 2a33 860e f333 cea1 ccb3 c962 25b4
000001f0: 1c78 d5b3 e33b d633 070e 27b4 aacf 2e34
00000200: 8453 4a33 2610 3232 9e93 8834 ed5b 9434
00000210: 3c62 2e34 1698 b1b4 f9a7 3534 e21a b7b4
00000220: a5d2 9634 e0cc 6234 c473 13b4 6a32 a034
00000230: 983e d433 8f24 8834 a364 43b4 79d5 acb4
00000240: 8d20 5ab4 ea41 a8b4 40a5 8534 dfa1 5d34
00000250: 6ee7 4733 a6d5 9533 52cc 85b4 b63e 92b4
00000260: 29f2 8534 3437 84b4 391a 92b4 6015 61b4
00000270: 4841 72b4 c058 94b4 a5ab 9334 654d 1ab4
00000280: 20a9 0833 fbd6 57b4 9cc0 0bb1 1f45 7234
00000290: f033 6db4 ca7d 30b4 adaa 6634 6a16 9334
000002a0: 4c75 1934 a49d 7033 3fcd a434 58b3 e5b3
000002b0: 5824 3134 e7f2 8bb3 9d90 98b4 8b1f 1cb3
000002c0: 4951 66b4 8283 3534 c8a0 6c34 8b12 46b4
000002d0: 855b 9234 ec8d 8834 50ea bfb4 a656 19b4
000002e0: 03bd 7734 4b64 84b4 d85f 88b4 bd53 8f34
000002f0: 94a7 8534 a610 a933 0112 6034 2e1b 9231
00000300: f8b7 b5b4 8f1b 2c34 3fdf 4b34 390d a7b4
00000310: 8a75 6cb4 8552 8034 c8e7 6cb4 7a08 5eb4
00000320: acf5 a0b4 ea2d b534 b87c 6534 82e1 6734
00000330: fe76 48b4 9be4 a8b4 6418 be34 2750 0c34
00000340: c051 9534 0d55 95b4 da5e a634 9cdf 5ab4
00000350: bffe 3e34 0375 19b4 c773 a734 92f9 2b34
00000360: 2c92 64b4 20ee 5734 450a 6fb4 c2fe 25b4
00000370: 04a3 71b4 4729 d232 4f19 a133 53f4 2db4
00000380: c3c9 3434 1312 db33 2e2e 98b4 b98f 2834
00000390: 0ee4 8934 9391 bb33 2a98 8734 12a5 4434
000003a0: edc5 a534 3726 86b4 6065 d933 ec4a 2734
000003b0: 75bf 4734 5775 8334 25ff 8134 776c a234
000003c0: de82 3a30 04f5 50b4 8e7b a834 0558 3734
000003d0: ee31 6ab4 e4ac a234 4a5e 98af 36b9 a234
000003e0: 6ed5 46b3 736e 71b4 e320 3934 72f1 9634
000003f0: 8409 4c34 7d57 4eb4 eac3 9c34 2c30 9fb4

attention_layer.att.bias f4 [128]
-2.6750286e-11 -5.2675125e-11 1.0280017e-05 -6.833929e-07 -8.258882e-09 2.3979516e-07 -9.513457e-10 7.221494e-11
-0.0009515758 -1.523305e-08 -0.00034085906 7.454882e-05 -7.559613e-13 0.00015027908 7.759594e-05 -0.0024459378
0.0019088379 7.825456e-07 1.1990805e-05 9.992287e-05 -8.523359e-11 -3.814944e-10 0.004109794 -3.552978e-08
3.346488e-10 -6.926329e-10 0.00031952132 -0.0044196253 1.0616476e-10 2.970682e-10 0.0015077163 0.0022498725
0.0006102792 -1.3534697e-10 -0.0014443499 0.0015159411 1.9131037e-10 0.00069074094 7.568681e-09 -0.00080992695
-0.0019432814 0.00044707168 -4.7474913e-09 -5.595848e-07 -5.044602e-10 2.9464765e-05 -9.144423e-09 0.0005465015
1.8532896e-10 0.0014839685 -0.00029945883 -0.005346791 -0.0030024988 -9.7223754e-05 9.267289e-11 8.3732965e-11
0.0065720677 -6.572732e-10 -4.804042e-11 -0.00037166046 7.823019e-08 -2.8620663e-12 -0.002924138 3.3775264e-05
-3.519808e-11 1.9427904e-10 1.2264939e-10 -4.762235e-09 -2.0436849e-07 0.00021576068 1.2546509e-05 -0.0015200094
9.2633884e-10 -0.0027508275 0.0056241327 0.00018591757 2.328947e-05 3.2348132e-07 -3.0439767e-10 -0.004053194
0.0007673006 -3.9856105e-09 -4.089867e-12 1.4793376e-10 -0.0044460543 -2.1833197e-09 -0.0049039964 -1.0876549e-08
5.1147534e-08 3.3601904e-07 -1.08185995e-10 6.8931655e-08 6.4353405e-11 -0.00013022008 0.00010905046 7.16884e-05
1.120119e-11 -7.9628426e-10 -1.7696733e-09 -3.647776e-10 0.000992859 2.0783323e-06 -2.2010051e-10 0.0045211534
3.5997674e-11 -0.00022079349 9.185844e-11 -8.4641544e-11 -0.002015271 1.367146e-10 -5.6968024e-06 -0.002216361
-1.1014191e-09 -5.063972e-09 -1.1457958e-10 1.1235386e-10 -0.0020128097 -1.3225578e-08 0.0017538288 -2.987202e-07
1.0873002e-09 -0.0042288937 0.0011163788 -0.00631258 -3.5974795e-10 5.6754884e-10 1.7673333e-11 -2.160753e-10
00000000: 4a4c ebad ebaa 67ae 5678 2c37 6772 37b5
00000010: f2e2 0db2 32bd 8034 80c0 82b0 66cd 9e2e
00000020: 2c73 79ba d5d9 82b2 54b5 b2b9 1857 9c38
00000030: c1c8 54ab 3c94 1d39 01bb a238 074c 20bb
00000040: f931 fa3a 2010 5235 1e2c 4937 af8d d138
00000050: 3f6e bbae 90ba d1af 73ab 863b 6899 18b3
00000060: a2f9 b72f b563 3eb0 6d85 a739 81d2 90bb
00000070: 7275 e92e a250 a32f 909e c53a 9972 133b
00000080: 25fb 1f3a c9d0 14af 5750 bdba 8bb2 c63a
00000090: 1559 522f d712 353a 6907 0232 4751 54ba
000000a0: b4b5 feba f264 ea39 601f a3b1 6036 16b5
000000b0: 3baa 0ab0 1a2b f737 9919 1db2 1843 0f3a
000000c0: 77c5 4b2f b881 c23a af00 9db9 2234 afbb
000000d0: 92c5 44bb 9be4 cbb8 33ca cb2e 7821 b82e
000000e0: 805a d73b 7dab 34b0 b448 53ae 6cdb c2b9
000000f0: 80ff a733 6766 49ac e5a2 3fbb eaa9 0d38
00000100: 84cd 1aae b09c 552f bcda 062f 10a1 a3b1
00000110: 6270 5bb4 d13d 6239 d97e 5237 0d3b c7ba
00000120: 4da1 7e30 3a47 34bb a54a b83b def2 4239
00000130: c25d c337 efaa ad34 2a58 a7af a8d0 84bb
00000140: ac24 493a cdf1 88b1 3fe6 8fac a7a7 222f
00000150: 35b0 91bb 5e09 16b1 b4b1 a0bb 92db 3ab2
00000160: 4fad 5b33 1b66 b434 4de7 edae 9407 9433
00000170: bf83 8d2e b08b 08b9 05b2 e438 6b57 9638
00000180: ad0d 452d 86e1 5ab0 d838 f3b0 e289 c8af
00000190: d222 823a 7a79 0b36 c900 72af 2f26 943b
000001a0: c751 1e2e cd84 67b9 b4ff c92e f420 baae
000001b0: a312 04bb bd51 162f 2927 bfb6 5e40 11bb
000001c0: bd60 97b0 2bff adb1 92f6 fbae 9a11 f72e
000001d0: 58e9 03bb b536 63b2 bbe0 e53a cb5f a0b4
000001e0: fa6f 9530 8892 8abb 7553 923a c2d9 cebb
000001f0: 06c6 c5af b301 1c30 cf74 9b2d ca93 6daf

attention_layer.gate.weight f4 [128, 128]
9.50036e-11 2.6006083e-10 3.0520245e-10 -1.5524995e-10 -2.2454368e-11 -3.7314923e-10 -7.549152e-10 8.514429e-10
-8.8645585e-10 -6.0910876e-10 -4.1917725e-10 5.858112e-10 -6.6801453e-10 -1.467403e-10 -1.1235376e-10 1.7948397e-10
2.1688544e-10 3.9305298e-10 -6.205123e-10 -2.3217916e-10 -1.4685247e-10 3.8928535e-10 -8.947909e-11 -7.013517e-10
7.402888e-10 -8.943451e-11 -4.2282633e-10 2.1911433e-09 -1.9404012e-09 -1.7898537e-10 -3.0044003e-09 1.1471695e-09
-6.8950914e-11 -4.2329616e-11 8.275422e-11 3.8257322e-10 -2.9693048e-10 4.060443e-10 -1.0094159e-10 2.3504423e-09
-3.3967354e-10 2.2533608e-10 1.4674456e-10 2.9258052e-10 5.1205953e-11 -4.557405e-10 3.677975e-10 -3.305958e-10
-2.7787192e-10 -5.088706e-10 6.4052624e-11 -4.696577e-10 -1.2672598e-10 6.447237e-11 8.428713e-11 -1.6256503e-10
3.1205635e-10 -1.4086968e-10 -4.4087647e-10 6.0847755e-10 1.2491133e-10 -2.4558472e-10 -1.7760114e-09 2.1360688e-10
4.1763454e-10 1.7356679e-10 -1.3061724e-10 3.9140513e-10 2.963036e-09 -1.7719158e-09 -6.3554724e-11 2.9448374e-10
-1.8609942e-09 -1.9478437e-10 9.599524e-11 1.8230832e-09 5.7780183e-11 -1.3907726e-10 8.9470314e-10 4.456348e-10
2.2125917e-09 1.5140597e-10 -4.350633e-10 -2.1012844e-10 -3.8564799e-10 8.1367996e-10 -4.1192746e-10 3.1967526e-10
-2.6294894e-10 6.4586886e-10 2.0525592e-09 -3.5529724e-10 -1.0032804e-10 1.275803e-10 -3.1495606e-10 -1.0346576e-10
5.606033e-10 3.3495628e-10 -1.9462099e-10 7.900605e-10 1.6127136e-10 -6.822096e-11 -3.0908765e-11 -3.098757e-10
-3.3403458e-10 -7.4428563e-10 -1.7618082e-10 -2.1145026e-09 4.6428647e-10 6.638817e-10 5.4409377e-10 3.3000078e-10
-1.0716285e-10 -8.21508e-09 4.715421e-10 3.3504352e-11 -7.982175e-11 1.2568939e-11 -1.4009026e-10 -6.143851e-10
8.869172e-11 5.044777e-10 2.510161e-09 2.092885e-10 6.639653e-12 -6.469607e-10 8.011752e-10 2.822052e-10
1.7377848e-09 2.666739e-10 -8.2315266e-10 1.3811093e-09 6.528376e-10 1.6226849e-10 7.725928e-10 -3.913974e-09
-1.1988799e-09 7.012934e-10 1.7508517e-09 1.5224494e-09 -3.308067e-09 8.3920065e-11 3.6980585e-09 -4.3162305e-09
9.594524e-10 -4.6090025e-09 -4.116699e-09 1.9832873e-09 -1.1776247e-09 -2.2153551e-10 -6.451195e-10 -9.00638e-10
-4.524928e-10 -8.008587e-10 5.942348e-10 -9.494844e-10 3.3027634e-09 -6.413943e-10 -4.5327525e-10 4.169982e-09
3.883307e-09 -1.945629e-09 9.550397e-11 5.725305e-10 -4.714308e-10 2.4825144e-09 -1.6750898e-09 6.7618533e-10
1.5574191e-09 -5.211203e-10 1.4261677e-09 7.341672e-12 1.2531958e-09 5.223405e-10 8.130023e-10 2.1643678e-09
6.0910266e-10 -1.1854074e-09 1.1677114e-09 5.3848024e-09 6.1135252e-09 -2.773583e-09 -1.9170137e-09 1.0235177e-09
-1.6878736e-09 -5.741709e-10 2.8504632e-09 -3.8853396e-10 -1.6070613e-09 -7.226284e-10 5.779614e-10 -5.7636423e-11
1.24332e-09 1.3944732e-09 8.515622e-10 -4.7701345e-09 -4.2091045e-10 -1.6595838e-09 -1.772279e-09 3.2420244e-09
9.055223e-09 -3.628411e-09 -1.8210178e-09 1.4676212e-09 -2.3485536e-09 -1.6654281e-09 2.6894673e-09 -8.896224e-10
-1.3021895e-09 7.714036e-11 -1.8704858e-09 9.894323e-10 -9.294941e-10 -1.6506639e-10 -2.2072995e-09 -1.8188531e-09
-1.2835493e-09 -7.474124e-10 1.6274324e-09 -6.100193e-10 -6.7686545e-10 -4.689438e-10 1.346454e-09 1.342129e-09
-1.8137409e-09 9.632895e-11 3.8426338e-09 3.72333e-10 5.986074e-10 1.9437062e-10 -6.7171086e-09 -5.9477095e-10
7.6364e-10 -1.0343206e-09 -1.1637353e-09 -2.3681773e-10 5.010419e-09 -2.1981994e-09 2.0582418e-09 5.952128e-10
-1.5925672e-11 1.8406803e-09 7.686991e-10 -8.2255447e-10 9.196751e-09 -8.866521e-10 6.442596e-11 1.646429e-09
1.6367709e-09 3.085191e-09 -9.1976177e-10 1.6411429e-09 -8.3316837e-10 -1.930863e-09 -3.4238992e-10 -7.1618494e-10
00000000: 46ea d02e 4ff8 8e2f 6dc9 a72f fab2 2aaf
00000010: be82 c5ad 1624 cdaf 6f82 4fb0 f80a 6a30
00000020: c9aa 73b0 386e 27b0 f471 e6af cc06 2130
00000030: 589f 37b0 b957 21af 8b11 f7ae 3f58 452f
00000040: d377 6e2f 4a15 d82f ac90 2ab0 a048 7faf
00000050: 4c77 21af 0b03 d62f 40c4 c4ae 3dc9 40b0
00000060: 317d 4b30 27ab c4ae 8473 e8af 0093 1631
00000070: e657 05b1 e7cb 44af f875 4eb1 70aa 9d30
00000080: ea9f 97ae e92a 3aae 7cfa b52e 6552 d22f
00000090: 403d a3af a839 df2f 10f9 ddae 6b85 2131
000000a0: cdbc baaf 78c2 772f ec58 212f 0cd9 a02f
000000b0: c734 612e c68b faaf e532 ca2f 39bf b5af
000000c0: ffc2 98af 96e0 0bb0 6cda 8c2e 3919 01b0
000000d0: 3156 0baf b8c6 8d2e 7059 b92e fdbd 32af
000000e0: 078e ab2f 4ae3 1aaf d95f f2af cd41 2730
000000f0: 6a57 092f fa02 87af d917 f4b0 fedc 6a2f
00000100: d698 e52f b5d6 3e2f 7c9d 0faf 602d d72f
00000110: 489e 4b31 bf87 f3b0 21c2 8bae e7e4 a12f
00000120: eac5 ffb0 ed2a 56af 8418 d32e 0a90 fa30
00000130: b41e 7e2e c5ea 18af 23ef 7530 86fd f42f
00000140: 530c 1831 fe78 262f b72d efaf e609 67af
00000150: 2103 d4af a3a9 5f30 a375 e2af 4bbe af2f
00000160: c68e 90af fb88 3130 010d 0d31 a453 c3af
00000170: aa9f dcae a946 0c2f 2026 adaf 0b86 e3ae
00000180: f318 1a30 e824 b82f f0fc 55af 912b 5930
00000190: da51 312f fc04 96ae 2df0 07ae 215b aaaf
000001a0: 30a3 b7af 7296 4cb0 7eb6 41af b94e 11b1
000001b0: 833e ff2f 867c 3630 328f 1530 7b6b b52f
000001c0: 52a7 ebae 4e22 0db2 d39d 0130 8c5a 132e
000001d0: a787 afae 781d 5d2d e707 1aaf 82e1 28b0
000001e0: 0009 c32e 76ab 0a30 387f 2c31 7a1d 662f
000001f0: ad9c e92c d0d5 31b0 b139 5c30 da24 9b2f
00000200: ded6 ee30 049b 922f 3844 62b0 77d1 bd30
00000210: 5d73 3330 856a 322f 635e 5430 ae7b 86b1
00000220: d6c5 a4b0 23c5 4030 9ea2 f030 6d3e d130
00000230: 2154 63b1 cc8a b82e ef20 7e31 f74d 94b1
00000240: bbdd 8330 375d 9eb1 de72 8db1 5c4a 0831
00000250: fcd9 a1b0 b494 73af 4054 31b0 c490 77b0
00000260: b3c2 f8af 6c23 5cb0 8e57 2330 037f 82b0
00000270: d4f6 6231 1d4e 30b0 d230 f9af 8d47 8f31
00000280: ee6d 8531 deb3 05b1 f503 d22e 4160 1d30
00000290: fe95 01b0 db98 2a31 fc38 e6b0 50de 3930
000002a0: d00c d630 953e 0fb0 d102 c430 f427 012d
000002b0: e83c ac30 7294 0f30 f379 5f30 f6bb 1431
000002c0: ca6d 2730 d1eb a2b0 317d a030 3905 b931
000002d0: 230f d231 6399 3eb1 76bc 03b1 d4ab 8c30
000002e0: c6fa e7b0 afd3 1db0 e1e1 4331 4b99 d5af
000002f0: 71df dcb0 74a2 46b0 6bde 1e30 d87c 7dae
00000300: 6fe1 aa30 aaa7 bf30 5d13 6a30 8ce6 a3b1
00000310: e165 e7af 6a17 e4b0 8694 f3b0 4cca 5e31
00000320: 4b91 1b32 ae57 79b1 5e47 fab0 55b5 c930
00000330: 3164 21b1 0be5 e4b0 9cd1 3831 9c89 74b0
00000340: b8f8 b2b0 29a2 a92e ef89 00b1 8efc 8730
00000350: 557f 7fb0 0f7e 35af 39af 17b1 34fb f9b0
00000360: e068 b0b0 7972 4db0 30ac df30 4bae 27b0
00000370: 2c0e 3ab0 fce6 00b0 230e b930 f775 b830
00000380: 5647 f9b0 61d4 d32e 2a08 8431 36b1 cc2f
00000390: 408b 2430 77b6 552f 50cc e6b1 497d 23b0
000003a0: 63e8 5130 ec27 8eb0 4cf1 9fb0 2231 82af
000003b0: 1d28 ac31 220f 17b1 f970 0d31 619c 2330
000003c0: 6d15 8cad 2efb fc30 644c 5330 201a 62b0
000003d0: bdff 1d32 98b8 73b0 97ac 8d2e 9248 e230
000003e0: c2f4 e030 4103 5431 7bd2 7cb0 958e e130
000003f0: 0305 65b0 1ab0 04b1 193b bcaf 09dd 44b0

attention_layer.gate.bias f4 [128]
-3.3622186e-10 -1.0764946e-09 4.355727e-05 7.6114165e-06 5.095859e-10 3.0746144e-06 5.8014017e-08 -1.0409473e-09
0.0010470783 -2.522598e-10 0.00055976096 0.00015858674 1.5813647e-09 0.00030128335 0.0001784013 0.0017182874
0.0014884176 1.1698289e-05 5.0183924e-05 0.00020340987 5.349816e-10 -4.0224206e-09 0.0024212082 1.0636977e-07
-1.5138465e-09 2.4798283e-08 0.00048331954 0.00251436 3.818059e-10 9.404665e-10 0.001293964 0.0016655375
0.00082884985 1.4754931e-08 0.001266473 0.0013019799 -4.710143e-10 0.00087362324 4.8020854e-07 0.00086966914
0.0015196697 0.00059225544 1.4881072e-09 3.1227733e-06 1.27188855e-08 9.737851e-05 3.1435866e-07 0.00067614147
1.7504719e-10 0.0013017792 0.0004681597 0.0029344922 0.0019749026 0.0002057034 -5.455083e-10 9.131113e-10
0.0032919513 2.1989786e-09 -6.599462e-10 0.00051297527 1.0115469e-05 9.303272e-10 0.001933082 0.00010642548
-8.360422e-09 -4.2139496e-09 5.324339e-10 1.3521189e-08 2.1089572e-06 0.000357441 6.489505e-05 0.0013184416
4.386086e-10 0.0018706565 0.0029714692 0.0002979766 8.012753e-05 4.0591353e-06 7.52231e-10 0.0024008688
0.0008820856 -1.780747e-08 -5.3720134e-10 -1.3472819e-10 0.0025468182 6.386701e-08 0.0027115713 -6.4677206e-09
6.217808e-06 4.9607684e-06 -1.7858078e-10 3.4108878e-06 2.5758689e-09 0.000276504 0.00025362225 0.00018982554
-4.935919e-10 8.308724e-10 8.184545e-09 -1.0246123e-09 0.0010563745 1.5567404e-05 2.1307118e-09 0.002573953
-2.0617003e-10 0.00039527484 -5.586726e-10 -1.2158817e-09 0.0015530236 5.590231e-10 3.3323613e-05 0.0016486567
3.9982662e-10 1.4131323e-08 9.388847e-10 1.2172893e-09 0.0015212325 4.9585054e-08 0.0013928903 5.177266e-06
5.370599e-08 0.0024470997 0.001108898 0.0031911223 2.369375e-10 8.706998e-09 -4.4689819e-10 -2.1840922e-09
00000000: 05d7 b8af c9f3 93b0 43b1 3638 9265 ff36
00000010: eb12 0c30 7955 4e36 162b 7933 1411 8fb0
00000020: 1e3e 893a 69ae 8aaf ecbc 123a 4e4a 2639
00000030: 5357 d930 91f5 9d39 3c11 3b39 2838 e13a
00000040: 0217 c33a c543 4437 947c 5238 6c4a 5539
00000050: fc0d 1330 9635 8ab1 22ad 1e3b 666d e433
00000060: bd0f d0b0 0004 d532 0d66 fd39 f6c7 243b
00000070: 67e6 d12f b941 8130 3a9a a93a 2a4e da3a
00000080: 2c47 593a df7c 7d32 c8ff a53a 32a7 aa3a
00000090: af78 01b0 dd03 653a aee7 0035 82fa 633a
000000a0: a72f c73a 9741 1b3a 1e86 cc30 d690 5136
000000b0: 4082 5a32 b137 cc38 20c5 a834 163f 313a
000000c0: 6777 402f 76a0 aa3a 5573 f539 9c50 403b
000000d0: 5e6d 013b 16b2 5739 bcf2 15b0 7ffe 7a30
000000e0: c7bd 573b d71c 1731 9667 35b0 3079 063a
000000f0: 9cb5 2937 f5b9 7f30 785f fd3a bf30 df38
00000100: 86a1 0fb2 4bca 90b1 b45a 1230 d14a 6832
00000110: 9c87 0d36 eb66 bb39 4418 8838 8fcf ac3a
00000120: ac20 f12f d130 f53a fbbc 423b be39 9c39
00000130: 240a a838 b533 8836 8dc5 4e30 e557 1d3b
00000140: c33b 673a 0af7 98b2 2faa 13b0 9d22 14af
00000150: 85e8 263b 4327 8933 9eb4 313b ac3a deb1
00000160: 90a2 d036 ad74 a636 055a 44af 9be6 6436
00000170: 2a03 3131 bdf7 9039 9af8 8439 e80b 4739
00000180: 71ad 07b0 7363 6430 029c 0c32 57d2 8cb0
00000190: 0c76 8a3a bf96 8237 e16b 1231 c4af 283b
000001a0: b4af 62af e43c cf39 1791 19b0 091c a7b0
000001b0: d38e cb3a c1a9 1930 f5c4 0b38 bd17 d83a
000001c0: 98ce db2f 37c6 7232 120a 8130 8f4d a730
000001d0: 1864 c73a 58f7 5433 a591 b63a 60b8 ad36
000001e0: 5caa 6633 855f 203b 7158 913a 2622 513b
000001f0: fd41 822f c895 1532 54af f5af f516 16b1

attention_layer.w.weight f4 [1, 128]
-8.490593e-07 1.4106467e-06 -0.00578199 0.0023154584 -3.5160942e-06 -0.0014598009 0.00025418607 1.587966e-05
0.026294138 -0.00021067949 0.019080386 -0.01082304 4.3783098e-06 -0.013984247 -0.011247162 0.034902178
-0.03216901 -0.00275124 -0.006080464 -0.01208711 -3.6778613e-06 -1.325335e-05 -0.042625736 -0.00031937918
-1.9103845e-06 -0.00020277486 -0.017821284 0.043437235 1.8282002e-05 -6.95102e-07 -0.029672282 -0.03427544
-0.023146082 7.3123396e-05 0.02945918 -0.029651849 -4.729698e-07 -0.023910651 0.00056171534 0.023695286
0.032602485 -0.019753072 5.031e-06 0.0021605704 7.4376e-05 -0.008229143 0.00036972668 -0.020938804
1.975436e-05 -0.029771792 0.017336724 0.04713899 0.03784631 0.012215285 -9.741561e-06 2.883465e-05
-0.050942212 1.0421511e-05 -2.4496476e-06 0.018465105 0.0029478497 2.500725e-05 0.037298247 -0.0084209535
2.8652987e-06 -0.00021623772 3.216211e-06 -1.7023818e-05 0.0014104083 -0.015365205 -0.0065916316 0.03005849
-1.7564416e-06 0.0366055 -0.047961902 -0.014533184 -0.0077566737 -0.0017354476 -4.44952e-06 0.042197756
-0.024005253 -5.3079657e-05 1.032919e-05 1.8816489e-05 0.043599337 -0.00023508907 0.045474738 6.0155835e-05
-0.002047513 -0.0018384513 -2.6339534e-05 -0.0014596484 -2.8732182e-05 0.0133538535 -0.0128901685 -0.011695343
1.0416596e-06 2.8281996e-05 -0.00011921516 -4.3884183e-06 -0.026432516 -0.0033680291 -6.7723035e-06 -0.04398672
1.664149e-05 0.01594699 1.9835023e-05 1.4970029e-05 0.033071615 1.7542183e-05 0.00471403 0.034190763
1.1467399e-06 -0.00011317455 -2.2839205e-05 3.0290885e-05 0.03251414 0.00015955334 -0.0308497 0.0019969589
0.00012410418 0.042772528 -0.027311113 0.050030615 2.1260166e-06 2.4095609e-05 1.3477692e-05 2.307042e-06
00000000: e9ea 63b5 7455 bd35 d976 bdbb f2be 173b
00000010: 0af6 6bb6 ca56 bfba 4744 8539 4f35 8537
00000020: ce66 d73c d8e9 5cb9 784e 9c3c 1f53 31bc
00000030: 65e9 9236 2f1e 65bc 0446 38bc 96f5 0e3d
00000040: a7c3 03bd 264e 34bb a13e c7bb 0409 46bc
00000050: 2dd1 76b6 b45a 5eb7 5398 2ebd 5972 a7b9
00000060: 2834 00b6 f69f 54b9 f1fd 91bc 3eeb 313d
00000070: 4d5c 9937 0c97 3ab5 4913 f3bc 6764 0cbd
00000080: da9c bdbc d359 9938 6154 f13c 6fe8 f2bc
00000090: 79ec fdb4 45e0 c3bc 1440 133a 9e1c c23c
000000a0: 2f8a 053d 32d1 a1bc f6cf a836 5b98 0d3b
000000b0: 50fa 9b38 87d3 06bc e0d7 c139 db87 abbc
000000c0: 2ab6 a537 f9e3 f3bc bf05 8e3c d014 413d
000000d0: bb04 1b3d 9e22 483c b06f 23b7 f0e1 f137
000000e0: c8a8 50bd 0dd8 2e37 a064 24b6 2244 973c
000000f0: b630 413b a9c6 d137 0cc6 183d 0af8 09bc
00000100: 7549 4036 dfbd 62b9 16d6 5736 5fce 8eb7
00000110: 73dd b83a 57be 7bbc 9dfe d7bb 393d f63c
00000120: e0be ebb5 a6ef 153d b373 44bd 971c 6ebc
00000130: b22b febb f577 e3ba 164d 95b6 8ed7 2c3d
00000140: aaa6 c4bc d9a1 5eb8 894b 2d37 1ad8 9d37
00000150: 3895 323d 3e82 76b9 b843 3a3d d64f 7c38
00000160: 912f 06bb 30f8 f0ba b8f3 dcb7 ac51 bfba
00000170: e405 f1b7 1fca 5a3c 4931 53bc d39d 3fbc
00000180: 27cf 8b35 203f ed37 2703 fab8 3a40 93b6
00000190: 0189 d8bc 27ba 5cbb a53d e3b6 6b2b 34bd
000001a0: 5499 8b37 43a3 823c 6363 a637 c927 7b37
000001b0: 1a76 073d 8d27 9337 2678 9a3b 9d0b 0c3d
000001c0: afe9 9935 2058 edb8 d296 bfb7 2e19 fe37
000001d0: 8c2d 053d c64d 2739 83b8 fcbc 69df 023b
000001e0: f621 0239 3f32 2f3d 8ebb dfbc e7ec 4c3d
000001f0: b0ac 0e36 ed20 ca37 3f1e 6237 aed2 1a36
