dataset/models/CAF_Neuzillet22_MYH11/model.pth (torch, 696702 bytes, 14 tensors)

tiles_emb.hidden_layers.0.weight f4 [128, 768]
-0.0018124684 -1.2813431e-06 5.5499946e-05 6.574538e-05 0.0061147385 1.4203734e-05 -1.7571916e-05 -0.00017363075
-5.363441e-05 -6.779309e-05 -0.0015607643 -0.00018563122 1.0166705e-05 2.6697604e-05 8.1010876e-05 8.7151e-05
-0.0069942875 0.00058341614 -0.0015574894 8.003418e-05 0.0019198605 0.00010285993 -0.0067870608 7.786788e-05
-0.00096950267 0.0041997787 -0.000121600104 -0.00015394052 -0.0035998835 0.0053503853 0.00013332583 6.110155e-05
-0.0053534317 -0.0055408743 -0.0001345684 0.0071775154 -0.005616838 2.0162606e-05 0.006938805 1.8301502e-05
0.00650618 4.71703e-05 0.0011611072 -5.4708198e-05 -0.000124597 1.189361e-05 -5.0155268e-05 0.0019566906
-0.0023931582 0.00017423254 -0.001699135 -0.00074938365 -4.0553823e-05 -9.6053634e-05 -0.0023786 -0.0058526485
-1.1632101e-05 3.6100308e-05 6.4929765e-05 -5.0992e-05 -7.929409e-05 0.0017391144 2.8365721e-05 0.00016165926
-2.663272e-06 7.6946424e-05 -5.4181e-05 -0.000112723224 1.2968096e-05 0.000111608 -4.377307e-05 0.004705039
1.8936707e-05 -0.001925777 -0.00069137773 -0.0017145278 -0.00064801454 -7.85669e-06 4.216699e-06 -3.2949663e-06
0.0074746734 6.966534e-05 -8.644982e-05 -6.7719186e-05 4.5358185e-05 0.004347668 -0.004952997 3.7740298e-05
-6.8146604e-05 0.00063993776 -8.9132545e-06 0.0003037693 0.0013925177 0.004108144 -6.5784857e-06 -0.001041749
-0.00029210275 -1.37313145e-05 -0.0030138583 0.00010925684 5.0183156e-05 0.0032217386 -4.8855658e-05 -3.062568e-05
3.8531492e-05 0.0011770596 7.63671e-05 -0.00012268218 0.0002992594 -5.468497e-05 9.298944e-05 0.00069505296
-0.00494101 -0.0003886635 0.00019457712 0.00040405188 -0.004603871 0.0050917715 7.966242e-05 -0.0066237766
-0.00021077227 2.8698785e-05 -0.004974138 9.041118e-06 0.001197602 0.00011628014 -9.4348805e-05 5.0199436e-05
-0.0003153549 8.082004e-05 0.000103018785 -0.00023667332 0.0004945992 0.0076271878 5.9748927e-06 3.6632064e-05
-2.113178e-05 0.0044995295 -4.1429044e-05 -4.704107e-06 -0.0004236653 2.3681916e-05 -0.0016655964 0.00039593328
-1.5146096e-05 -0.0038374902 2.1355707e-05 0.00026761257 0.0047891326 -0.001743318 3.5066507e-05 6.043086e-05
0.0017942031 0.001749743 0.002959208 3.709708e-05 -0.000122036094 0.0047757146 -9.596411e-05 -8.167059e-05
1.9751e-05 -0.0049188957 3.774774e-05 0.0034964983 -0.006547573 -4.3914457e-05 -0.00066610146 -0.0003446307
-0.0049334043 -2.6943992e-05 -0.0010471585 0.00017587363 -0.0004732904 7.419575e-05 3.6033478e-05 -2.1514688e-05
-0.0023146397 -5.6884954e-05 -5.8176915e-06 -2.366231e-05 -0.0016736331 -6.6156856e-05 -0.0021354365 0.0003366601
2.5770069e-05 0.0014708412 7.301913e-05 3.898167e-05 0.0011155034 0.0051430045 -0.0024863551 -0.00010997939
-0.002782034 6.2097795e-05 -0.0072811684 -4.2304928e-05 -0.0014635958 0.003037675 0.0061403476 -3.823743e-05
0.00017306626 0.0056412485 -7.129871e-05 0.0018341546 0.003398624 -4.993623e-05 -2.3582334e-05 -9.0604764e-05
9.098034e-05 6.31127e-06 3.2180335e-05 -0.0045816284 -1.1045227e-06 0.00011802308 -0.0076064095 0.005321432
0.0040324633 -2.8725244e-05 -7.35283e-05 -0.0018120517 -8.475835e-05 0.00242889 0.0045133084 -0.002758458
-3.6867645e-05 -1.835029e-05 0.006142002 0.0011162525 4.8525435e-05 0.004204258 -9.148352e-05 -0.0044505713
-0.00059092935 6.947676e-05 0.0049697757 4.4086977e-05 0.00012746351 -6.5080916e-05 0.0048458325 -0.0005019278
0.0014022706 -0.00010784195 -9.3978204e-05 -8.004683e-05 -0.0046965955 -0.0013909935 2.1747222e-05 -0.0005306217
2.17312e-05 1.96525e-05 -0.00016654463 -0.0048020915 -0.0030261746 -0.00024382395 -0.0014843325 0.001863858
00000000: 5990 edba 9dfa abb5 9dc8 6838 c8e0 8938
00000010: 255e c83b 934c 6e37 6767 93b7 a610 36b9
00000020: 82f5 60b8 232c 8eb8 8f92 ccba 00a6 42b9
00000030: aa91 2a37 abf4 df37 62e4 a938 d6c4 b638
00000040: 5630 e5bb 65f0 183a ac24 ccba 06d8 a738
00000050: d4a3 fb3a 81b6 d738 fe65 debb 004d a338
00000060: 3926 7eba 4c9e 893b 8f03 ffb8 186b 21b9
00000070: 06ec 6bbb 4952 af3b 61cd 0b39 a523 8038
00000080: d76b afbb 3990 b5bb ee1a 0db9 5d31 eb3b
00000090: 740d b8bb de22 a937 ea5e e33b 2d86 9937
000000a0: cb31 d53b b9d8 4538 4b30 983a 7b76 65b8
000000b0: 41a6 02b9 aa8a 4737 cf5d 52b8 d23b 003b
000000c0: 88d6 1cbb 31b2 3639 83b5 deba 4972 44ba
000000d0: 5618 2ab8 6770 c9b8 49e2 1bbb 93c7 bfbb
000000e0: 7e27 43b7 696a 1738 e72a 8838 3ee0 55b8
000000f0: b14a a6b8 fff2 e33a ecf2 ed37 1483 2939
00000100: aaba 32b6 4c5e a138 6840 63b8 d265 ecb8
00000110: 8c91 5937 170f ea38 fa98 37b8 ba2c 9a3b
00000120: 45da 9e37 5a6a fcba 933d 35ba 02ba e0ba
00000130: 85df 29ba 3ad0 03b7 2b7d 8d36 171f 5db6
00000140: 1bee f43b 4b19 9238 654c b5b8 7604 8eb8
00000150: fb3e 3e38 e276 8e3b c04c a2bb 564b 1e38
00000160: eee9 8eb8 7fc1 273a 238a 15b7 3a43 9f39
00000170: 2485 b63a 9c9d 863b c3bc dcb6 4c8b 88ba
00000180: 5e25 99b9 8c5f 66b7 2784 45bb d220 e538
00000190: c17b 5238 ce23 533b 5dea 4cb8 1374 00b8
000001a0: e09c 2138 9147 9a3a 4627 a038 3fa4 00b9
000001b0: ebe5 9c39 8a5d 65b8 5303 c338 3734 363a
000001c0: 32e8 a1bb 88c5 cbb9 6607 4c39 edd6 d339
000001d0: 12dc 96bb e0d8 a63b 7010 a738 440c d9bb
000001e0: c002 5db9 2cbe f037 18fe a2bb 4eaf 1737
000001f0: dbf8 9c3a 6ddb f338 21dd c5b8 3c8d 5238
00000200: 3856 a5b9 ee7d a938 ca0b d838 832b 78b9
00000210: fea7 013a 7ded f93b f07b c836 61a5 1938
00000220: 2744 b1b7 ca70 933b 19c4 2db8 f9d7 9db6
00000230: 651f deb9 87a8 c637 2450 daba 4495 cf39
00000240: fd1b 7eb7 677e 7bbb 0825 b337 5a4e 8c39
00000250: 28ee 9c3b 0c80 e4ba 6014 1338 2477 7d38
00000260: 772b eb3a a257 e53a 46ef 413b b098 1b38
00000270: a1ed ffb8 997d 9c3b 5740 c9b8 9046 abb8
00000280: f3ae a537 b02e a1bb 5453 1e38 8225 653b
00000290: 068d d6bb ca30 38b8 509d 2eba 8daf b4b9
000002a0: 65a8 a1bb c805 e2b7 cf40 89ba b86a 3839
000002b0: f623 f8b9 8a99 9b38 a722 1738 717a b4b7
000002c0: 36b1 17bb c197 6eb8 9735 c3b6 6c7e c6b7
000002d0: cf5d dbba b1bd 8ab8 aef2 0bbb c181 b039
000002e0: cd2c d837 3ec9 c03a d921 9938 4080 2338
000002f0: 1536 923a a686 a83b 1ef2 22bb bca4 e6b8
00000300: c952 36bb 803a 8238 de96 eebb 9270 31b8
00000310: 20d6 bfba bb13 473b f834 c93b 2161 20b8
00000320: 1f79 3539 39da b83b 3486 95b8 0468 f03a
00000330: 73bb 5e3b 9e72 51b8 add2 c5b7 1003 beb8
00000340: b3cc be38 66c5 d336 5ff9 0638 7c21 96bb
00000350: 1c3f 94b5 2983 f738 303f f9bb 685f ae3b
00000360: c122 843b fef6 f0b7 3533 9ab8 5e82 edba
00000370: 4bc0 b1b8 032e 1f3b 60e4 933b 3fc7 34bb
00000380: 55a2 1ab8 f3ee 99b7 d942 c93b 384f 923a
00000390: ca87 4b38 dfc3 893b d7da bfb8 19d6 91bb
000003a0: 99e8 1aba 0db4 9138 80d9 a23b 08ea 3838
000003b0: baa7 0539 0d7c 88b8 cac9 9e3b ce93 03ba
000003c0: 65cc b73a 3529 e2b8 2a16 c5b8 d1de a7b8
000003d0: e6e5 99bb ff51 b6ba ce6d b637 6b19 0bba
000003e0: 664b b637 6cdb a437 7ca2 2eb9 dd5a 9dbb
000003f0: c952 46bb feaa 7fb9 ef8d c2ba b24c f43a

tiles_emb.hidden_layers.0.bias f4 [128]
-0.005660111 0.020410262 -0.0012810318 -0.008854737 -0.003410714 0.028784884 -0.006544937 -0.0131088495
-0.012182962 -0.0019327864 0.0060652443 -0.0060024504 0.0014984317 -0.0008106659 0.013293646 0.0006634736
-0.0064235977 0.018382227 -0.006165212 -0.0074109766 0.0003798743 -0.004797966 -0.00045625507 0.02736402
-7.545117e-05 0.016687537 0.02729785 0.01012809 0.019863527 0.003110226 -0.0029618472 -0.012909703
-0.019604865 0.014286144 -0.007544843 -0.016915806 0.01364053 0.005105994 0.023446683 0.013809197
6.20204e-06 0.022264816 0.026288068 0.01918478 0.000104721 0.0081830975 -0.0019804821 0.008299049
0.0058271335 -0.0011658273 0.0065468946 0.009398054 0.005456571 -0.00055007375 0.004254327 0.0036453365
0.015699204 0.0020545942 0.013641902 0.025707344 0.027029723 0.017320951 -0.013422696 0.008248294
-0.004516907 -0.011571154 -0.004669317 0.02489539 0.009483632 0.0048300913 -0.010282948 0.003347077
0.004040409 0.024200458 0.028239036 0.010849933 0.022177154 0.0036768683 -0.013878482 -0.007887567
0.00105207 -0.005888016 0.021289691 -0.011679675 0.019173725 0.026075426 -0.01281082 -0.0017789304
0.00698835 0.012844683 0.025105422 0.008448868 -0.013203228 0.003444938 -0.0094387615 0.013259541
-0.007078356 0.021417176 -0.014992157 0.014923334 -0.0067613395 -0.000442026 0.035806753 -0.0034671766
-0.0166318 -0.0015688438 0.00013860597 -0.0008603539 -0.00052498456 0.010533262 0.0034036934 -0.0052197333
0.010321687 -0.012271753 -0.0010893478 -0.006709512 -0.009297224 -0.0010260803 0.011384538 0.03388985
0.022800928 0.0045923316 0.0265859 0.00088023697 0.0034188603 0.01825097 0.013108748 -0.0005080445
00000000: 7478 b9bb 6c33 a73c 4be8 a7ba 7513 11bc
00000010: 4986 5fbb 47ce eb3c e976 d6bb 80c6 56bc
00000020: 0c9b 47bc 8d55 fdba f5be c63b 34b0 c4bb
00000030: 0667 c43a de82 54ba 98cd 593c f6ec 2d3a
00000040: 0b7d d2bb 5396 963c 8c05 cabb c7d7 f2bb
00000050: de29 c739 4238 9dbb 8535 efb9 822a e03c
00000060: 8a3b 9eb8 4db4 883c be9f df3c 4af0 253c
00000070: d6b8 a23c efd4 4b3b 8d1b 42bb 3883 53bc
00000080: 629a a0bc 6e10 6a3c bb3a f7bb 0493 8abc
00000090: 887c 5f3c 2f50 a73b 4213 c03c f83f 623c
000000a0: 1e1b d036 b464 b63c 135a d73c 6629 9d3c
000000b0: a99d db38 6612 063c faca 01bb bcf8 073c
000000c0: 8af1 be3b acce 98ba 5587 d63b 4cfa 193c
000000d0: 09cd b23b d332 10ba e267 8b3b 99e6 6e3b
000000e0: 9e9b 803c 5fa6 063b 4982 5f3c 3598 d23c
000000f0: 706d dd3c abe4 8d3c deea 5bbc da23 073c
00000100: 9002 94bb f094 3dbc 1201 99bb 6bf1 cb3c
00000110: 3c61 1b3c be45 9e3b cf79 28bc a25a 5b3b
00000120: 6865 843b 0a40 c63c 8d55 e73c ebc3 313c
00000130: ddac b53c 9df7 703b 9362 63bc db3a 01bc
00000140: 9ce5 893a 42f0 c0bb b867 ae3c 1c5c 3fbc
00000150: 3712 9d3c 229c d53c 79e4 51bc 002b e9ba
00000160: 87fe e43b 8172 523c e3a9 cd3c 1f6d 0a3c
00000170: 5a52 58bc 78c4 613b 09a5 1abc 8c3e 593c
00000180: 8ef1 e7bb 1373 af3c aaa1 75bc 0081 743c
00000190: 3a8e ddbb babf e7b9 1aaa 123d 9239 63bb
000001a0: 6a3f 88bc aaa1 cdba c256 1139 5f89 61ba
000001b0: 1e9f 09ba b493 2c3c 8010 5f3b 4c0a abbb
000001c0: 4b1c 293c 760f 49bc 72c8 8eba 77db dbbb
000001d0: 6253 18bc 8b7d 86ba 3786 3a3c 15d0 0a3d
000001e0: 03c9 ba3c 457b 963b acca d93c b4bf 663a
000001f0: f50e 603b 0f83 953c 13c6 563c 4a2e 05ba

tiles_emb.hidden_layers.2.weight f4 [128, 128]
-0.052405562 -0.029220803 0.01678015 -0.010207735 0.007927659 0.05063584 0.032664165 0.014446219
0.00081023906 0.01566213 0.021717561 0.0143269 -0.00914949 -0.027052475 0.029481 -0.0027712567
-0.01550325 0.0052379905 0.025157655 0.020393157 0.027444381 0.020186417 5.6385115e-06 0.034759622
-0.0006107868 0.037294697 -0.02938577 -0.0028015114 -0.032540187 -0.041597806 0.033012632 -0.04625772
-0.04210449 -0.008112132 -5.6644776e-06 -0.0073681334 0.029244058 -0.0077462145 0.043091025 0.047956374
-7.090943e-05 0.0011009056 0.02476712 -0.0076260758 8.936268e-06 0.03421082 -0.032875482 0.009252226
-0.012970857 0.047483217 -0.00033307204 -0.008527423 -0.043220118 -0.01007248 0.004376936 -0.036271315
-0.045944896 0.050819326 0.035317216 0.007473152 -0.04579458 0.032643784 -0.04509882 -0.017059673
-0.008768034 0.034931827 -0.009670421 -0.012077576 -0.005068028 -0.0028091515 -0.015257919 0.04427325
-0.0073920423 0.045783874 0.013540681 -0.050446663 0.03952991 0.00073717686 0.03431946 0.04226492
-0.046166647 -0.0058257207 -0.037488963 0.020099368 0.0018455258 -0.027751204 0.018987734 3.717278e-05
-0.017788706 0.007011371 0.029292613 0.029277781 -0.045576543 0.008213261 -0.05175131 0.04597912
-0.038096625 -0.040012896 0.006171164 0.0074211913 -0.012019667 0.0043632723 0.021130448 0.003849229
0.010385754 0.011791586 -0.054296494 -0.043605234 -0.013794669 0.00925977 0.0022356752 5.7171536e-07
0.010651635 0.004154581 0.003038681 -0.013462104 -0.052977286 -0.0009074856 0.015247303 0.020857064
0.003711867 0.021279223 0.031909928 -0.0146056665 0.04294981 -0.044677973 0.02116681 0.05462785
-0.045480043 -0.02592308 -0.031924166 0.0432524 -0.004472395 -0.042387035 -0.015342737 -0.008157034
-0.00055384584 0.029300094 0.0010230313 0.010488127 -0.001950615 0.0011103294 -0.02995898 -0.02638534
0.057352576 -0.010678987 -0.044072475 -0.014023529 -0.005507168 0.010701995 -8.964672e-06 -0.034214366
-0.0059605474 0.025005521 0.045022126 -0.048036583 -0.04691952 -2.8570405e-05 -0.028495032 0.00058228784
-0.015377762 -0.019190006 0.045496743 -0.008035295 0.011397073 0.0065858704 -0.03910805 0.02172141
-0.0140597895 -0.0012869318 -0.026655365 -0.012858845 -1.5009301e-05 0.0074833683 -0.0028569645 -0.008136015
0.0527871 0.026380436 -0.04069898 0.025855714 0.011227522 0.012097173 0.02632902 0.031468224
0.047187 -0.028773304 -0.03664405 -0.017940978 0.036999933 0.038238343 -0.005704024 -0.019098049
-0.000109181325 0.045011517 0.030231427 0.0075469185 0.042359862 0.025767118 -0.016513279 -0.006034347
0.0117742 -0.0048674764 -0.008807172 -0.030154726 -0.018955892 -0.008395443 -0.02167873 -0.00416065
0.018753275 0.025005728 -0.016636256 -0.010695476 0.03730599 0.024361208 0.034837533 -0.040224392
0.0255769 0.048244487 0.019410746 0.0123495 0.025422655 -0.032997537 -0.04277652 0.0055382685
0.008204739 -0.028169656 -0.0075546163 -0.0054966374 -0.0060361247 0.03978323 -0.014477155 0.014291667
-0.03584806 0.030128948 0.016197788 0.02678381 -0.0013144151 0.027720371 -0.002530559 -0.05194899
-0.014031483 0.04564151 -5.726726e-05 -0.009478918 0.00028696156 0.013763268 -0.015535129 -0.01841075
0.028046953 -0.014568037 0.042818952 0.009967117 -0.014909464 0.038583934 0.04606309 -0.016687367
00000000: 37a7 56bd 7760 efbc 8676 893c 583e 27bc
00000010: 03e3 013c 8767 4f3d dcca 053d d6af 6c3c
00000020: 3966 543a de4d 803c 07e9 b13c 60bb 6a3c
00000030: bee7 15bc 279d ddbc 2382 f13c f99d 35bb
00000040: 5801 7ebc 73a3 ab3b 6d17 ce3c 8d0f a73c
00000050: 0ad3 e03c fc5d a53c 7232 bd36 1b60 0e3d
00000060: 351d 20ba 53c2 183d 6dba f0bc 9099 37bb
00000070: dc48 05bd 7662 2abd 4138 073d bc78 3dbd
00000080: c275 2cbd bfe8 04bc 7e11 beb6 6270 f1bb
00000090: 3c91 ef3c f5d3 fdbb 3780 303d e76d 443d
000000a0: 36b5 94b8 434c 903a 6ae4 ca3c 29e4 f9bb
000000b0: fbec 1537 a520 0c3d 71a8 06bd a696 173c
000000c0: b883 54bc c37d 423d 2ca0 aeb9 9bb6 0bbc
000000d0: 9407 31bd 0b07 25bc 666c 8f3b 3b91 14bd
000000e0: b730 3cbd ed27 503d c9a8 103d 58e1 f43b
000000f0: 1993 3bbd 7db5 053d 8ab9 38bd bac0 8bbc
00000100: cda7 0fbc ad14 0f3d af70 1ebc 06e1 45bc
00000110: b311 a6bb be19 38bb 5afc 79bc de57 353d
00000120: f238 f2bb df87 3b3d bcd9 5d3c 29a1 4ebd
00000130: 1dea 213d 1a3f 413a 9092 0c3d fb1d 2d3d
00000140: 3d19 3dbd b0e5 bebb 078e 19bd 6ea7 a43c
00000150: 92e5 f13a 7e56 e3bc 2a8c 9b3c f8e9 1b38
00000160: 9fb9 91bc a5bf e53b 10f7 ef3c f5d7 ef3c
00000170: 78ae 3abd ea90 063c 2ef9 53bd 9a54 3c3d
00000180: 350b 1cbd 90e4 23bd 7a37 ca3b 772d f33b
00000190: 23ee 44bc c8f9 8e3b c319 ad3c 5943 7c3b
000001a0: 0229 2a3c 7f31 413c 0066 5ebd 679b 32bd
000001b0: 0903 62bc 4ab6 173c 6884 123b fb77 1935
000001c0: 3284 2e3c 2723 883b 9c24 473b 2890 5cbc
000001d0: b6fe 58bd 54e4 6dba d3cf 793c 6fdc aa3c
000001e0: cb42 733b c451 ae3c fcb3 023d 9b4c 6fbc
000001f0: 24ec 2f3d 4000 37bd 0566 ad3c 74c1 5f3d
00000200: 4849 3abd a45c d4bc eac2 02bd 6e29 313d
00000210: 2b8d 92bb 079e 2dbd 1a60 7bbc 15a5 05bc
00000220: f72f 11ba c006 f03c 3c17 863a 65d6 2b3c
00000230: c7ab ffba 7988 913a 896c f5bc 1226 d8bc
00000240: 89ea 6a3d ebf6 2ebc 5785 34bd f2c2 65bc
00000250: 7975 b4bb 6c57 2f3c f966 16b7 5d24 0cbd
00000260: b250 c3bb 61d8 cc3c 1f69 383d 02c2 44bd
00000270: af2e 40bd 7aaa efb7 6a6e e9bc ada4 183a
00000280: 02f3 7bbc 5c34 9dbc cb5a 3a3d 78a6 03bc
00000290: caba 3a3c 49ce d73b c32f 20bd 19f1 b13c
000002a0: 085b 66bc 44ae a8ba 5a5c dabc e8ad 52bc
000002b0: 75d0 7bb7 0b37 f53b e93b 3bbb ec4c 05bc
000002c0: 4937 583d c91b d83c f9b3 26bd 5dcf d33c
000002d0: a4f3 373c 3933 463c f5af d73c d3e4 003d
000002e0: 2847 413d feb5 ebbc 1218 16bd f5f8 92bc
000002f0: 3e8d 173d cf9f 1c3d d2e8 babb 8373 9cbc
00000300: 47f8 e4b8 ff5d 383d e6a7 f73c 244c f73b
00000310: 8981 2d3d 9015 d33c db46 87bc c6bb c5bb
00000320: 93e8 403c 5a7f 9fbb f54b 10bc 0b07 f7bc
00000330: 6349 9bbc 0a8d 09bc 9897 b1bc 1056 88bb
00000340: 78a0 993c d0d8 cc3c c248 88bc 143c 2fbc
00000350: 2ace 183d 2891 c73c cdb1 0e3d 55c2 24bd
00000360: a686 d13c 039c 453d 4903 9f3c 8f55 4a3c
00000370: 2c43 d03c 6d28 07bd 6f36 2fbd 5d7a b53b
00000380: 2b6d 063c 0dc4 e6bc b78c f7bb 231d b4bb
00000390: afca c5bb bdf3 223d 9731 6dbc 9927 6a3c
000003a0: 6ad5 12bd fcd0 f63c 39b1 843c b969 db3c
000003b0: 7448 acba d515 e33c bcd7 25bb 77c8 54bd
000003c0: 4ee4 65bc 98f2 3a3d 4132 70b8 774d 1bbc
000003d0: 5473 9639 547f 613c 0e87 7ebc 24d2 96bc
000003e0: b9c2 e53c c7ae 6ebc ed62 2f3d 1e4d 233c
000003f0: d346 74bc 300a 1e3d a7ac 3c3d f2b3 88bc

tiles_emb.hidden_layers.2.bias f4 [128]
-0.020562489 -0.04240433 0.028098775 -0.011033245 0.0525171 -0.064402826 0.05573532 0.056938794
-0.0053087845 0.073090024 0.012213341 0.03537359 -0.033462685 -0.048391167 -0.036431648 0.025027592
0.052162405 0.053005483 0.010834111 -0.060166482 0.026471242 0.025052194 0.020584654 -0.038806394
0.036939386 -0.0001341856 -0.058609586 -0.006142009 -0.03075977 0.05269354 -0.051388845 0.06629896
0.043839116 -0.059666175 -0.05861087 -0.06041802 0.03585698 -0.058730096 0.0006292008 0.056821663
0.021400804 -0.02984426 0.028855745 -0.07658557 -0.05434179 -0.05671554 0.020312784 0.04697895
-0.034883913 -0.002785105 -0.062398534 0.043298587 0.023277687 -0.060658757 -0.04206236 -0.03085301
0.008684907 0.0066078836 0.040004797 -0.0072514354 -0.062518306 -0.06615318 -0.044542782 0.036641147
-0.07643508 -0.060329206 0.028481951 0.021541 -0.081742495 -0.037633505 0.055866715 0.06594558
0.07220028 0.020752823 -0.07084302 -0.040507473 -0.027110837 -0.0020174684 0.035072647 -0.027684892
0.070951216 0.028375506 -0.04778995 0.045027446 -0.002646269 0.015862973 -0.03906545 0.05811544
0.060197618 -0.00893955 -0.054104745 0.048012584 0.03639292 -0.030144475 -0.027485857 0.07082365
-0.045269076 0.05662368 -0.0423908 -0.024324398 -0.04615468 -0.05683699 -0.010596556 0.033995572
0.016623398 -0.0251511 0.050393376 -0.06849831 -0.03289348 -0.017534558 -0.010772619 -0.044353925
0.015997345 -0.054087445 0.07146238 -0.014363328 0.014166903 -0.018868139 -0.05031161 0.040165976
0.036437504 -0.07039257 -0.030390844 0.064584255 0.015868843 0.03819893 -0.012076232 0.0031436933
00000000: aa72 a8bc 2ab0 2dbd 672f e63c c9c4 34bc
00000010: 2c1c 573d a1e5 83bd b84a 643d a738 693d
00000020: 50f5 adbb 39b0 953d 771a 483c e6e3 103d
00000030: 2b10 09bd d135 46bd 5a39 15bd aa06 cd3c
00000040: 3fa8 553d 471c 593d 8e81 313c 2171 76bd
00000050: 38da d83c 423a cd3c 26a1 a83c 74f3 1ebd
00000060: c14d 173d 2cb4 0cb9 9b10 70bd e842 c9bb
00000070: eafb fbbc 2ed5 573d 1c7d 52bd c0c7 873d
00000080: a590 333d 8564 74bd f411 70bd e378 77bd
00000090: c5de 123d f88e 70bd f3f0 243a d5bd 683d
000000a0: bd50 af3c f37b f4bc e262 ec3c e5d8 9cbd
000000b0: 7f95 5ebd 8e4e 68bd ff66 a63c 006d 403d
000000c0: 6fe2 0ebd 4f86 36bb 9b95 7fbd dc59 313d
000000d0: d9b0 be3c 5175 78bd 9549 2cbd 74bf fcbc
000000e0: 244b 0e3c f286 d83b 12dc 233d 739d edbb
000000f0: 9909 80bd 527b 87bd 7e72 36bd 0715 163d
00000100: ff89 9cbd c21b 77bd fb52 e93c c076 b03c
00000110: 9c68 a7bd 9725 1abd 7fd4 643d 7a0e 873d
00000120: bedd 933d d301 aa3c 2516 91bd 2aeb 25bd
00000130: 8c17 debc 8137 04bb 56a8 0f3d 6dcb e2bc
00000140: df4e 913d c073 e83c 65bf 43bd b36e 383d
00000150: 076d 2dbb 11f3 813c 1803 20bd 750a 6e3d
00000160: c791 763d 3177 12bc f09c 5dbd d8a8 443d
00000170: be10 153d 8cf1 f6bc 052a e1bc fd0b 913d
00000180: 116c 39bd 3bee 673d faa1 2dbd f643 c7bc
00000190: b10c 3dbd e7cd 68bd 2d9d 2dbc f13e 0b3d
000001a0: cb2d 883c ae09 cebc 4969 4e3d d848 8cbd
000001b0: 50bb 06bd a2a4 8fbc a47f 30bc 76ac 35bd
000001c0: dd0c 833c cc8a 5dbd de5a 923d 2a54 6bbc
000001d0: 4c1c 683c 5b91 9abc 8c13 4ebd 1485 243d
000001e0: 7e3f 153d fb29 90bd 38f6 f8bc c044 843d
000001f0: 60ff 813c 7b76 1c3d 63db 45bc 6c06 4e3b

attention_layer.att.weight f4 [128, 128]
0.023190245 -0.0015296834 -0.039525855 -0.017193718 -0.05244617 -0.027889453 -0.00014728191 -0.023389464
0.05169263 0.028893135 -0.02170631 -0.00013315868 0.041905776 -0.0002139592 7.2882634e-05 0.04576429
-1.3435717e-05 2.7953014e-05 -0.04391353 -0.014777972 -0.02548157 0.022922488 -0.033239484 -0.00026190127
-0.03939978 -0.04156026 0.019391498 -0.00027334513 -0.0028362037 0.004759736 -0.035996288 0.008297651
-0.046780005 -2.8594022e-05 0.043430552 0.043977607 -0.038611073 0.047634695 -0.010580008 0.00016179684
0.006593298 -0.03635415 0.038359888 0.009883157 -0.0013476667 -0.049699992 0.00013142062 0.0026223378
-0.0026528619 0.045139924 -0.026073752 -0.0013100499 -0.024272583 -0.024096407 -0.008698257 -0.0021911077
-0.00022390267 -3.8336915e-05 -8.030844e-05 0.019417146 -0.013770614 0.0006788843 0.039316088 -0.04526323
-0.052540377 0.0030911255 -0.001417477 0.023810133 0.0011571045 0.00023877401 0.024995582 0.02824345
-0.010387145 -0.0144759705 0.010040877 -0.0024218142 0.03874309 -0.042498615 0.023192829 0.015423196
-0.010109665 -0.01569321 0.000105393905 -0.0001300524 0.0005947499 -0.005143514 0.040691108 -0.01129763
0.04726228 -0.026211223 -0.00018995306 0.0064809644 0.036291927 -0.032937348 -0.032816224 -0.0016658767
-0.000105981395 -0.016553372 -0.0054040826 -0.025621697 0.052386396 0.00015518832 0.016541017 -0.042642005
0.00019499107 0.00010924973 0.000405981 -0.017030474 -0.00013971509 -0.0003262509 -0.015583234 0.0076382235
-3.3909506e-05 -0.009924187 -0.039448783 -0.0002199277 0.044327643 0.010332037 0.04524587 0.035918187
-0.00032507692 0.041704018 -0.040873703 -0.022331707 0.0381615 0.009176962 -0.013341778 -0.044684473
0.035075985 0.03643324 -0.01903821 0.027559493 0.0015319443 -0.04966842 -2.3087166e-06 0.00760538
-0.021803604 -0.00936034 0.00088577485 0.014769827 0.00068517926 0.042760577 -0.0155705 0.0013186873
-0.045577932 -0.024234751 0.04937856 -0.013865621 -0.0058696726 0.048960324 -0.051799953 -0.04597177
0.046111386 0.000588717 -0.02249262 -0.0079085 0.008232485 0.021149464 -0.00081713754 -0.048330445
-0.019192655 0.038600937 1.2886856e-05 -4.515684e-05 0.0041371654 -1.7808852e-06 0.04740188 -0.001737568
0.0040711006 -0.006323058 -0.007291235 -0.008780591 0.010986767 0.014918157 -0.03071315 8.678716e-07
0.00046786564 0.031275705 0.008809023 -0.03147748 0.039419036 -0.034444932 6.1822634e-06 0.0012809505
-0.0010153153 0.049738206 -7.053992e-05 -0.03014095 1.5339662e-06 0.004602769 2.141367e-06 -0.016963365
8.464104e-06 -0.03684675 -0.0024938022 0.009861509 -0.00026402276 -4.8928287e-06 -0.008623819 -9.278209e-06
-0.028289344 -0.031785496 4.6277088e-05 0.009190122 5.2855485e-06 0.015670823 -0.00023569773 0.019338965
-0.008134721 -0.03504524 0.04843608 3.6123402e-06 -8.435669e-05 3.157549e-05 4.7458354e-07 -0.02981234
-0.03156091 -0.036055397 0.006894786 -0.026886092 -0.013988446 0.03868102 0.016005138 -0.032259103
2.3445453e-05 -0.004622502 -0.0072854464 0.025815504 -0.03609443 -7.329432e-08 0.0007132132 -0.024784677
-0.0018983335 -0.006674541 -4.595444e-05 -0.021566296 0.006646021 -0.004772909 0.026837368 -4.101259e-07
0.010295286 0.035963885 -0.009721632 -0.04835343 -0.0006122403 -0.02658894 0.045773797 -3.354924e-05
-0.008181194 -2.616177e-06 -0.017757356 1.3676034e-06 -8.880935e-06 -0.052358843 -2.7687504e-06 -0.04141023
00000000: 78f9 bd3c a87f c8ba dde5 21bd d7d9 8cbc
00000010: ccd1 56bd 6c78 e4bc b06f 1ab9 439b bfbc
00000020: a7bb 533d 4cb1 ec3c 6ed1 b1bc 83a0 0bb9
00000030: 64a5 2b3d 3c5a 60b9 91d8 9838 5673 3b3d
00000040: f769 61b7 a47c ea37 acde 33bd 4f1f 72bc
00000050: babe d0bc f1c7 bb3c 2026 08bd cb4f 89b9
00000060: aa61 21bd 173b 2abd ebda 9e3c c34f 8fb9
00000070: 9adf 39bb 8ff7 9b3b d870 13bd dff2 073c
00000080: 649c 3fbd 32dd efb7 3ce4 313d dd21 343d
00000090: a526 1ebd 991c 433d c557 2dbc 02a8 2939
000000a0: 980c d83b 17e8 14bd 421f 1d3d f7ec 213c
000000b0: 31a4 b0ba 3892 4bbd f4cd 0939 87db 2b3b
000000c0: a3db 2dbb a4e4 383d 9f98 d5bc fbb5 abba
000000d0: 4cd7 c6bc d465 c5bc 2283 0ebc b098 0fbb
000000e0: 6ac7 6ab9 f3cb 20b8 446b a8b8 b510 9f3c
000000f0: 249e 61bc 27f7 313a e809 213d f065 39bd
00000100: 9434 57bd 7b94 4a3b a3ca b9ba 780d c33c
00000110: fca9 973a 695f 7a39 89c3 cc3c cf5e e73c
00000120: d82e 2abc 9f2c 6dbc 7e82 243c 4db7 1ebb
00000130: 13b1 1e3d 0713 2ebd e3fe bd3c 93b1 7c3c
00000140: 02a3 25bc 0c8f 80bc ec06 dd38 ad5e 08b9
00000150: fde8 1b3a ec8a a8bb b8ab 263d b219 39bc
00000160: 1896 413d ebb8 d6bc 232e 47b9 455e d43b
00000170: d8a6 143d 50e9 06bd 4e6a 06bd 8c59 daba
00000180: 5442 deb8 f09a 87bc bb14 b1bb 98e4 d1bc
00000190: 1e93 563d 0cba 2239 0781 873c 62a9 2ebd
000001a0: 8476 4c39 011d e538 d9d9 d439 7e83 8bbc
000001b0: 7c80 12b9 a80c abb9 d250 7fbc 104a fa3b
000001c0: 0e3a 0eb8 0f99 22bc 0c95 21bd 649c 66b9
000001d0: e790 353d b447 293c bc53 393d f31e 133d
000001e0: 166f aab9 d5d1 2a3d 2f6b 27bd fcf0 b6bc
000001f0: 3c4f 1c3d f85a 163c 7997 5abc 1107 37bd
00000200: d6ab 0f3d 053b 153d 05f6 9bbc 72c4 e13c
00000210: 85cb c83a 1d71 4bbd 73ef 1ab6 8d36 f93b
00000220: 799d b2bc 1d5c 19bc 5833 683a 25fd 713c
00000230: 9a9d 333a b725 2f3d 691b 7fbc ced7 ac3a
00000240: edaf 3abd f587 c6bc 2c41 4a3d a12c 63bc
00000250: 6256 c0bb 9f8a 483d 302c 54bd e54c 3cbd
00000260: 4bdf 3c3d 2154 1a3a 7142 b8bc a792 01bc
00000270: 8be1 063c a441 ad3c 2c35 56ba 25f6 45bd
00000280: ea39 9dbc 041c 1e3d a034 5837 ca66 3db8
00000290: 0f91 873b c006 efb5 7928 423d 1bbf e3ba
000002a0: de66 853b a831 cfbb 50eb eebb 78dc 0fbc
000002b0: d701 343c 496b 743c 259a fbbc aff7 6835
000002c0: dd4b f539 f41a 003d b853 103c 88ee 00bd
000002d0: db75 213d 2116 0dbd 3d71 cf36 91e5 a73a
000002e0: 5414 85ba 4aba 4b3d d5ee 93b8 27ea f6bc
000002f0: ade2 cd35 d3d2 963b 68b4 0f36 c1f6 8abc
00000300: 0d01 0e37 9eec 16bd 0f6f 23bb 2b92 213c
00000310: 896c 8ab9 142d a4b6 eb4a 0dbc 9ba9 1bb7
00000320: 0ebf e7bc 8231 02bd a519 4238 2a92 163c
00000330: 845a b136 1960 803c a125 77b9 c06c 9e3c
00000340: 7e47 05bc 998b 0fbd e964 463d 886b 7236
00000350: a7e8 b0b8 ed6f 0438 44ca fe34 0239 f4bc
00000360: 0346 01bd d3ae 13bd a8ed e13b 3940 dcbc
00000370: cc2f 65bc fd6f 1e3d 351d 833c 1f22 04bd
00000380: baac c437 5b78 97bb c1ba eebb 097b d33c
00000390: c1d7 13bd fb65 9db3 edf6 3a3a 3c09 cbbc
000003a0: 81d1 f8ba 1cb6 dabb 34bf 40b8 cdab b0bc
000003b0: ddc6 d93b 1066 9cbb 0ada db3c 462f dcb4
000003c0: 8fad 283c de4e 133d 7b47 1fbc 3f0e 46bd
000003d0: c07e 20ba 0cd1 d9bc 4e7d 3b3d 39b7 0cb8
000003e0: 6a0a 06bc 9491 2fb6 e077 91bc 7f8e b735
000003f0: 53ff 14b7 3a76 56bd c5ce 39b6 c69d 29bd

attention_layer.att.bias f4 [128]
3.7731195e-05 -0.047427263 -0.002261492 -0.00010592547 -0.00019624831 0.00011428675 0.0079732835 -0.030504616
-0.0004379958 -0.039018296 -0.005837424 -0.002018871 0.0044910535 1.7008284e-05 -0.00035199092 0.017812064
-0.03339603 -0.017540328 0.00072086684 -0.017906403 0.013602425 0.042837273 -2.1925141e-05 0.023181248
5.719696e-05 -7.0961178e-06 0.02417653 -7.022707e-05 -0.028158665 -0.012648086 0.00062207214 -0.00039644627
0.0060466924 0.04898075 0.009173646 -1.06205025e-05 -0.0005676416 -0.030822374 0.030732282 0.05168731
-0.027122168 -0.0252673 -0.028059829 -0.0031624555 0.00028324663 -0.015464063 -0.03415384 -0.018985739
-0.052166168 -3.4830289e-06 -0.006040185 7.058645e-05 0.01372813 -0.020163674 0.0044870023 -0.005172279
0.0149370525 0.030914074 0.008723078 -0.0075711343 0.0036195933 0.042883113 0.0021406002 0.04530037
-8.58048e-06 -0.008925274 0.014890617 0.04226888 9.702915e-05 -0.03015079 -0.0028603552 -0.0070082466
0.01959124 -0.02287293 0.03226577 0.006625831 -6.3077437e-06 -0.0396642 -8.889412e-05 -8.1702586e-07
-0.002901639 -3.3029242e-05 -0.00010864516 0.04756189 -0.03801028 -0.0022559867 -0.004158247 0.010410969
-0.0013235866 0.0071116253 0.006576827 -0.006290188 -0.039096866 -0.052057937 0.00014418496 -0.0004802976
-0.047814872 0.033285353 -0.0038552787 0.039708365 3.24315e-05 0.03231027 -0.022068197 -1.2154569e-06
-0.040244102 0.00020403303 -0.021240868 -0.030976344 0.027543657 -0.023861174 -0.024360178 -0.0022889464
-0.004780145 2.0741883e-05 -0.0014362306 0.0014928923 -0.012608521 -0.004020531 -0.045139737 -0.017225392
0.048411362 0.0022383975 -2.7192149e-05 -0.0040160883 -0.050777532 -0.005674912 0.01715491 -0.0014814456
00000000: 9041 1e38 1743 42bd 8a35 14bb 4e24 deb8
00000010: 01c8 4db9 3bad ef38 60a2 023c d1e4 f9bc
00000020: cda2 e5b9 a6d1 1fbd dd47 bfbb 094f 04bb
00000030: b029 933b 03ad 8e37 6c8b b8b9 9bea 913c
00000040: 47ca 08bd bcb0 8fbc 8ef8 3c3a 73b0 92bc
00000050: b5dc 5e3c 2376 2f3d e2eb b7b7 9ae6 bd3c
00000060: c5e6 6f38 301b eeb6 dc0d c63c df46 93b8
00000070: 00ad e6bc eb39 4fbc 8e12 233a 1eda cfb9
00000080: 5523 c63b 0aa0 483d 0f4d 163c b62e 32b7
00000090: c8cd 14ba 347f fcbc 44c2 fb3c 13b6 533d
000000a0: 4f2f debc 5efd cebc badd e5bc 3341 4fbb
000000b0: b880 9439 fb5c 7dbc e6e4 0bbd fb87 9bbc
000000c0: 31ac 55bd fbbd 69b6 bfec c5bb d007 9438
000000d0: f3eb 603c 4a2e a5bc b407 933b 397c a9bb
000000e0: 8aba 743c 833f fd3c 3eeb 0e3c 4717 f8bb
000000f0: b336 6d3b 34a6 2f3d 5049 0c3b e18c 393d
00000100: e2f4 0fb7 503b 12bc c6f7 733c 2222 2d3d
00000110: 217c cb38 cafe f6bc cc74 3bbb 6fa5 e5bb
00000120: cf7d a03c 0360 bbbc 1d29 043d 801d d93b
00000130: 1ba7 d3b6 ee76 22bd ab6c bab8 9751 5bb5
00000140: 6d29 3ebb e188 0ab8 6dd8 e3b8 42d0 423d
00000150: abb0 1bbd 2dd9 13bb e741 88bb c592 2a3c
00000160: 327c adba a308 e93b 6c82 d73b ec1d cebb
00000170: 0924 20bd b43a 55bd 5b30 1739 74d0 fbb9
00000180: 87d9 43bd 3956 083d d8a8 7cbb 3da5 223d
00000190: 0f07 0838 c657 043d 5dc8 b4bc c822 a3b5
000001a0: 00d7 24bd b3f1 5539 5401 aebc 1ac2 fdbc
000001b0: 3ca3 e13c 8278 c3bc ff8e c7bc 2602 16bb
000001c0: c3a2 9cbb dbfe ad37 e73f bcba 27ad c33a
000001d0: f893 4ebc a9be 83bb 72e4 38bd 441c 8dbc
000001e0: fe4a 463d 14b2 123b b21a e4b7 6499 83bb
000001f0: 1afc 4fbd 9df4 b9bb 7488 8c3c 112d c2ba

attention_layer.gate.weight f4 [128, 128]
-0.047310647 -0.047018215 0.028063105 -4.9058813e-06 -0.0061306073 -4.9262064e-05 -0.02656278 0.039730314
9.34411e-07 -0.029714473 0.03428072 1.0673608e-06 0.023740193 -0.0005395191 -0.01415162 -0.045295797
-0.00087201735 3.579183e-06 8.2309625e-06 -6.447836e-06 0.04730349 -0.003658319 -0.049735952 -0.0028102505
-0.048120987 -0.0057685883 0.02957365 -0.0004907962 0.010873694 -2.397853e-07 0.050745837 2.1191068e-05
-0.011481591 0.00023871733 -0.044481765 0.02305375 0.043580472 0.021158634 -1.6663407e-07 0.04439634
6.0772304e-06 -0.0072958358 -0.011737881 3.843323e-06 0.0009784054 -0.0142221395 2.8525014e-06 -0.045838993
-0.007256751 0.027158288 -0.04842786 -0.0032287226 0.047324292 0.029835805 -1.6513412e-05 -0.051632836
0.04781909 -2.2329018e-06 0.009774443 -0.033508163 0.012431675 0.04643838 -0.02387887 0.019705873
-0.030441958 0.009761179 0.001666943 0.00045337682 1.6315131e-06 1.8536364e-06 -0.00013572547 -0.048414182
0.0006201076 -0.005651016 -1.495886e-06 -0.006319591 0.03675228 2.9465768e-06 -0.006976672 -4.5951456e-06
0.04497092 -0.039254036 0.049717255 -0.000652868 -0.04440282 -0.0006643555 -0.038763702 0.045145698
0.012860028 -0.041783947 -0.046892043 -0.037935473 0.02567025 -0.002127752 -0.042136956 0.0051231156
-0.015315483 0.0022937802 5.5446897e-05 -0.04606702 -0.028030155 -0.00064807764 0.013310403 -0.04398411
3.7918148e-06 -0.022503017 0.018096656 0.037317276 -0.0033926836 -0.028040655 0.0400878 -0.012056873
7.0775064e-07 -0.0044636657 -0.028731354 -0.0018728458 0.0015305725 0.026552318 -1.7708084e-05 0.0017261242
0.0025504765 0.0068527497 -3.0640986e-06 -0.036974035 0.039676666 0.021127256 0.025948059 -0.00073473656
0.04082679 0.008242287 -3.25223e-07 0.03615793 -0.041433502 -0.03288338 0.024142498 0.015266245
-0.0011976052 -0.01697005 -2.6352652e-07 -0.020585686 -0.023810351 -0.003422284 0.005220194 0.0008333317
0.0075907162 -0.003301856 -0.006934695 -0.050651897 0.042240743 0.037333 0.041942168 -0.003186206
-2.1272851e-07 0.00037763984 -0.01970914 0.017829252 -0.017007142 -0.049739614 -0.016259639 0.0013065675
-0.012720579 0.0037548605 -0.046997905 0.028709032 0.0044118813 -0.013537313 -0.0027782675 -4.39465e-06
0.01756964 -4.195085e-07 0.033917155 -5.462821e-07 0.04868784 0.000214335 0.02124157 0.013193996
-0.02753858 -0.0003780785 0.00019815208 -0.031767197 9.83728e-05 -0.037704326 0.018172638 0.051636007
-0.030645585 -0.0059192604 -2.688202e-07 -0.038787156 0.052134234 0.00061133184 0.040023897 -1.1012521e-07
-0.00021569287 -0.0433454 0.042226877 -3.083377e-05 9.783532e-05 -0.05160892 -0.005719861 0.011370567
-1.3682173e-07 0.0037451286 0.010537887 -1.2133991e-06 -0.033530366 0.034036215 -0.01981625 -0.027228575
-0.05133134 0.043307956 0.024654875 -0.0017137063 -0.05037525 0.011651709 -0.030425278 -0.003113837
0.00053991587 0.030323394 0.010718011 0.0011957362 1.4988156e-07 -0.03951963 -1.10630594e-07 0.031412672
-0.010781697 -0.032369938 -0.046935268 -0.008345897 0.011591262 0.02521605 -0.0058544236 0.051872812
-0.024576789 0.0333435 -0.02084066 -0.034360126 0.00016573055 -2.2449221e-07 0.04755852 2.3662523e-08
-1.3999887e-06 -8.0184465e-05 0.039410274 0.042686693 -1.5463394e-07 -0.04637373 -0.02215266 -1.6650553e-07
-4.0026526e-07 1.05976994e-07 0.0021146333 -0.024134569 -0.030110499 -0.043319955 -0.0017283186 -8.8340375e-06
00000000: cfc8 41bd 2c96 40bd 99e4 e53c 339d a4b6
00000010: 43e3 c8bb bd9e 4eb8 309a d9bc 41bc 223d
00000020: 3cd4 7a35 c46b f3bc f169 0c3d 3d42 8f35
00000030: cb7a c23c 846e 0dba 32dc 67bc 1688 39bd
00000040: 1898 64ba e531 7036 b717 0a37 7d5a d8b6
00000050: 4ec1 413d 68c0 6fbb edb7 4bbd 2e2c 38bb
00000060: 831a 45bd 6d06 bdbb 7044 f23c c7a8 00ba
00000070: 9427 323c d7bb 80b4 deda 4f3d 79c3 b137
00000080: 481d 3cbc 3250 7a39 8332 36bd 38db bc3c
00000090: 7081 323d df54 ad3c 06ec 32b4 f0d8 353d
000000a0: 03eb cb36 e811 efbb 3e50 40bc e5f5 8036
000000b0: d63d 803a fa03 69bc 9a6d 3f36 abc1 3bbd
000000c0: 0aca edbb 0f7b de3c 4b5c 46bd fa98 53bb
000000d0: 1ed7 413d 386a f43c 4886 8ab7 f47c 53bd
000000e0: f3dd 433d f6d8 15b6 fc24 203c db3f 09bd
000000f0: 39ae 4b3c 2c36 3e3d 9f9d c3bc 366e a13c
00000100: 6a61 f9bc 5aed 1f3c 537d da3a 35b3 ed39
00000110: 5dfa da35 76ca f835 8751 0eb9 f34d 46bd
00000120: b78e 223a 282c b9bb 40c6 c8b5 9214 cfbb
00000130: 8f89 163d cebd 4536 919c e4bb 0030 9ab6
00000140: 6d33 383d d7c8 20bd 52a4 4b3d 3b25 2bba
00000150: bbdf 35bd 2528 2eba b0c6 1ebd b2ea 383d
00000160: deb2 523c a525 2bbd df11 40bd 3a62 1bbd
00000170: 6b4a d23c c171 0bbb cd97 2cbd cfdf a73b
00000180: cbed 7abc 3f53 163b a78f 6838 c6b0 3cbd
00000190: 7f9f e5bc c1e3 29ba e013 5a3c af28 34bd
000001a0: e276 7e36 3f58 b8bc 703f 943c 00da 183d
000001b0: c957 5ebb 84b5 e5bc 1b33 243d 318a 45bc
000001c0: 41fc 3d35 f143 92bb 045e ebbc 477a f5ba
000001d0: 7e9d c83a 3f84 d93c d28b 94b7 1e3f e23a
000001e0: e525 273b 088d e03b d0a0 4db6 1672 17bd
000001f0: 0084 223d 1113 ad3c 0691 d43c 569b 40ba
00000200: fe39 273d a80a 073c 4f9a aeb4 561a 143d
00000210: 2db6 29bd b9b0 06bd 7dc6 c53c 461f 7a3c
00000220: f6f8 9cba c604 8bbc cf7a 8db4 50a3 a8bc
00000230: ed0d c3bc 6648 60bb 290e ab3b f273 5a3a
00000240: 8bbb f83b f463 58bb 703c e3bb 5d78 4fbd
00000250: a104 2d3d 7dea 183d 8dcb 2b3d abcf 50bb
00000260: 5e6a 64b4 f6fd c539 1075 a1bc a70e 923c
00000270: 9052 8bbc c4bb 4bbd ef32 85bc 2141 ab3a
00000280: fa69 50bc 1b14 763b e080 40bd 342f eb3c
00000290: 8b91 903b 9bcb 5dbc 9813 36bb c275 93b6
000002a0: 35ee 8f3c cf38 e1b4 b7ec 0a3d 38a4 12b5
000002b0: e76c 473d 1dbf 6039 cd02 ae3c a12b 583c
000002c0: 9798 e1bc d638 c6b9 0bc7 4f39 521e 02bd
000002d0: 7f4d ce38 da6f 1abd c9de 943c 4780 533d
000002e0: 730c fbbc 5bf6 c1bb 5e52 90b4 48df 1ebd
000002f0: b58a 553d c941 203a 19f0 233d f97d ecb3
00000300: 9d2b 62b9 f28a 31bd 17f6 2c3d 8253 01b8
00000310: f02c cd38 e063 53bd ac6d bbbb 9d4b 3a3c
00000320: 45e9 12b4 d570 753b 1aa7 2c3c 13dc a2b5
00000330: 2357 09bd 8f69 0b3d b055 a2bc 760e dfbc
00000340: d040 52bd af63 313d 05f9 c93c 719e e0ba
00000350: 4756 4ebd cfe6 3e3c 6f3e f9bc 8411 4cbb
00000360: 2489 0d3a c468 f83c 999a 2f3c 40ba 9c3a
00000370: 21ef 2034 56df 21bd d093 edb3 93aa 003d
00000380: b7a5 30bc 5796 04bd 323f 40bd 3bbd 08bc
00000390: 47e9 3d3c e491 ce3c 77d6 bfbb 9678 543d
000003a0: 4355 c9bc 3293 083d 08ba aabc 34bd 0cbd
000003b0: f5c7 2d39 f30b 71b4 b9cc 423d 7042 cb32
000003c0: 3fe7 bbb5 b528 a8b8 ab6c 213d 3ed8 2e3d
000003d0: 7409 26b4 61f2 3dbd 7f79 b5bc b1c8 32b4
000003e0: 0ae4 d6b4 7895 e333 a995 0a3b dcb5 c5bc
000003f0: 4baa f6bc 4470 31bd c088 e2ba e735 14b7

attention_layer.gate.bias f4 [128]
0.045358516 -0.017366253 -0.027739443 -0.023897506 0.047926817 0.0019183201 0.023261974 -0.007776645
-0.02115572 -0.038943596 -0.0003402864 0.002469161 -0.03163809 3.8446606e-06 0.04840651 0.008290431
-0.016211646 5.663182e-06 0.026055198 -0.0018359291 0.051380403 0.011686747 -0.00962138 8.796721e-05
-0.048933968 -0.02076001 0.007423869 -0.019079154 -0.038301803 -0.025083734 1.687852e-07 -0.028606158
-0.033737924 -0.01348181 0.0008754324 0.052152906 0.0156179685 0.0431071 -0.021294074 0.03678734
-0.041115787 0.023738593 0.0056815133 0.015130373 -0.04949254 -0.00022549563 5.4815147e-05 1.4614725e-05
0.015517203 -0.0022295031 -0.006215229 -0.02186033 -0.022047913 0.017919246 0.037157238 -0.0043303464
-0.04051819 -0.022755932 0.041719627 -0.051774442 0.00039016904 -0.044772007 0.04376528 -0.013980034
-0.036810145 0.016397718 0.039717164 -0.013503924 -0.000108018045 3.8067108e-06 3.5261124e-05 -0.049693055
0.0067100646 -0.01554823 0.008879856 0.008961039 -0.0011736724 -0.00020209451 0.048618846 2.6384556e-05
0.014668156 2.8920147e-06 0.0056777694 -0.00502874 -0.049936373 -0.0008958039 1.832851e-05 0.017772539
4.7850494e-07 -4.0719556e-06 -0.030231638 -0.0032880271 0.019420445 -0.04131966 0.0010737485 -0.0015403337
0.021369483 -5.7041966e-06 -0.0036808422 -0.046251547 0.019111393 0.01421787 0.026371306 0.028737256
0.016165985 0.02123249 3.738073e-05 -0.017863473 0.010743303 5.9721137e-06 -0.019412486 0.0074920766
-0.0045486377 -0.020815296 9.632664e-06 3.6009183e-06 -0.009672965 5.2151732e-05 0.04832788 0.017480258
0.051245265 0.012305165 0.00026478874 0.0012760089 0.005048063 0.00047614568 -0.017163726 -0.019919844
00000000: dac9 393d ac43 8ebc d43d e3bc b4c4 c3bc
00000010: e94e 443d 2470 fb3a e58f be3c 3ad3 febb
00000020: c34e adbc 5283 1fbd 7868 b2b9 a6d1 213b
00000030: f196 01bd 6201 8136 e845 463d 97d4 073c
00000040: 49ce 84bc 5d06 be36 b671 d53c 8fa3 f0ba
00000050: 4274 523d c579 3f3c fea2 1dbc 097b b838
00000060: fc6e 48bd e610 aabc ed43 f33b e34b 9cbc
00000070: 5ae2 1cbd 677c cdbc 533b 3534 7657 eabc
00000080: c730 0abd cfe2 5cbc 467d 653a 499e 553d
00000090: 82e2 7f3c 1291 303d e970 aebc 52ae 163d
000000a0: 0769 28bd 7077 c23c fd2b ba3b 62e5 773c
000000b0: b1b8 4abd 0673 6cb9 51e9 6538 c431 7537
000000c0: de3b 7e3c db1c 12bb 1fa9 cbbb 6f14 b3bc
000000d0: d39d b4bc 62cb 923c 3032 183d 94e5 8dbb
000000e0: 67f6 25bd a66a babc 33e2 2a3d 7011 54bd
000000f0: 9a8f cc39 da62 37bd 3943 333d 830c 65bc
00000100: 3cc6 16bd 8254 863c 77ae 223d 903f 5dbc
00000110: bf87 e2b8 cb76 7f36 58e5 1338 f28a 4bbd
00000120: 1ae0 db3b 01be 7ebc d17c 113c 52d1 123c
00000130: e9d5 99ba 55e9 53b9 8e24 473d 6754 dd37
00000140: b552 703c 6f14 4236 950c ba3b 21c8 a4bb
00000150: 158a 4cbd 62d4 6aba 2dc0 9937 b797 913c
00000160: 9c72 0035 d5a1 88b6 57a8 f7bc f17b 57bb
00000170: a017 9f3c ce3e 29bd 05bd 8c3a 06e5 c9ba
00000180: 0e0f af3c ad66 bfb6 493a 71bb 4372 3dbd
00000190: 7f8f 9c3c 12f2 683c a308 d83c 656a eb3c
000001a0: 876e 843c c2ef ad3c 41c9 1c38 6b56 92bc
000001b0: ae04 303c 1164 c836 ef06 9fbc 1880 f53b
000001c0: bd0c 95bb d784 aabc fa9b 2137 4ea7 7136
000001d0: 5b7b 1ebc 7fbd 5a38 75f3 453d c232 8f3c
000001e0: 8ee6 513d 9a9b 493c 58d3 8a39 c13f a73a
000001f0: 396a a53b 31a3 f939 f19a 8cbc f12e a3bc

attention_layer.w.weight f4 [1, 128]
0.011778068 -0.00069152424 -0.0025311187 0.036323518 -0.00029953045 -0.044669215 -0.018235656 0.031358443
-0.00090138573 -0.004694889 -0.0025448408 0.0031039098 0.015459752 -0.0017056384 0.0045584585 -0.044189636
0.049505413 -0.0049045333 -0.0031210508 -0.03684809 0.019194432 -0.025659336 0.021787066 0.023111453
-0.02416828 0.0052801413 -0.05032652 0.04626272 0.010863909 0.033038393 0.00027676404 0.034235816
-0.032221317 0.02696774 -0.005246852 0.018047778 0.005970664 0.023290135 -0.0485059 -0.010378869
0.04309837 0.0030125303 0.011181068 0.034784123 -6.0406e-05 -0.035492647 0.03379075 -0.006358519
-0.052119594 -0.016696274 0.0012602641 -0.05013516 -0.043586496 -0.029560585 0.011763481 0.0042906194
-0.007336623 0.02723479 -0.0021332118 0.024052067 0.0030123922 0.0104123335 0.028801879 -0.003225409
0.004407247 -0.010651544 -0.01370421 -0.0071390974 -0.032143176 -0.04041492 0.042258218 0.04028092
-0.00020687994 -0.0052915653 -0.021948183 -0.004310985 0.0048671123 -0.025716951 0.003866652 0.04714173
0.0021960647 -0.031765025 4.2277094e-05 -0.04430436 0.022911696 -0.017981252 -0.0025809014 -0.005976077
0.0007915575 0.025087284 -0.029292403 0.0079033375 0.014160213 -0.001460802 -0.04372065 -0.04787808
0.00080044736 0.011193014 -0.0020813537 -0.0066593545 -0.05092652 0.029019726 0.009406979 -0.0008833557
0.02099393 -0.048233304 -0.020138858 0.0013689566 -0.03243719 -0.003669422 -0.0010544792 0.009610989
-0.0024627573 0.03643484 0.008982814 0.0025687413 -0.0019435935 0.032724105 0.030198634 0.005861411
0.0015084649 -0.0012513682 0.027908403 -0.020444628 0.010617622 -0.032573 0.00026270509 0.04963007
00000000: ccf8 403c 6847 35ba 20e1 25bb f8c7 143d
00000010: 4c0a 9db9 11f7 36bd f162 95bc b671 003d
00000020: f94a 6cba 95d7 99bb 58c7 26bb f76a 4b3b
00000030: e64a 7d3c ba8f dfba 1f5f 953b 3100 35bd
00000040: 30c6 4a3d 35b6 a0bb 8b8a 4cbb 06ee 16bd
00000050: a43d 9d3c 8733 d2bc ca7a b23c 3b54 bd3c
00000060: 8ffc c5bc 0905 ad3b 2e23 4ebd fa7d 3d3d
00000070: 89fe 313c 4453 073d a41a 9139 db3a 0c3d
00000080: 80fa 03bd 73eb dc3c c9ed abbb efd8 933c
00000090: 8fa5 c33b f4ca be3c 1fae 46bd 220c 2abc
000000a0: eb87 303d df6d 453b cc30 373c cc79 0e3d
000000b0: 735c 7db8 bd60 11bd 2b68 0a3d 205b d0bb
000000c0: 5b7b 55bd a0c6 88bc 722f a53a 875a 4dbd
000000d0: c187 32bd 0a29 f2bc 9ebb 403c 5398 8c3b
000000e0: 0e68 f0bb 7f1b df3c 5bcd 0bbb d708 c53c
000000f0: 8e6b 453b 7e98 2a3c ebf1 eb3c 6261 53bb
00000100: ab6a 903b d083 2ebc 9f87 60bc 17ef e9bb
00000110: 90a8 03bd 1d8a 25bd f416 2d3d 9bfd 243d
00000120: e9ed 58b9 de64 adbb adcc b3bc 2a43 8dbb
00000130: 4c7c 9f3b 5bac d2bc a867 7d3b b017 413d
00000140: daeb 0f3b 0b1c 02bd af52 3138 7d78 35bd
00000150: 4fb1 bb3c 6b4d 93bc 5724 29bb f8d2 c3bb
00000160: 8680 4f3a d983 cd3c 9ff6 efbc 007d 013c
00000170: 3d00 683c 6278 bfba 6d14 33bd ce1b 44bd
00000180: 1dd5 513a e762 373c 5267 08bb b736 dabb
00000190: 5498 50bd c7ba ed3c bb1f 1a3c ff90 67ba
000001a0: 76fb ab3c 4990 45bd 3ffa a4bc 906e b33a
000001b0: dcdc 04bd af7a 70bb 7336 8aba 6977 1d3c
000001c0: 3666 21bb b33c 153d a72c 133c 5458 283b
000001d0: 2dc0 feba b609 063d 2063 f73c 1411 c03b
000001e0: afb7 c53a f304 a4ba 2aa0 e43c 7e7b a7bc
000001f0: 89f5 2d3c 446b 05bd aebb 8939 e648 4b3d

mlp.0.0.weight f4 [128, 128]
0.04441326 0.020886246 0.02414597 -0.0054801204 0.012380297 0.008724034 0.046590272 -0.028071163
-0.026141062 0.03500354 0.03261139 -0.04017068 0.0031811316 0.003672885 0.029204335 0.046077497
-0.006649821 -0.04752124 0.05827434 -0.046424586 0.00763209 0.05580944 -0.021574825 -0.04378164
0.028766695 0.0077396473 -0.0396072 0.04256545 0.027686737 -0.0032819647 0.024458239 0.016816698
0.030558718 0.03105958 0.0064697964 0.0074595674 -0.034646574 -0.0128602935 0.022648035 0.019039197
0.0088803945 -0.056002133 -0.043306727 -0.036054805 -0.02339084 -0.050740648 0.0041837646 0.000990428
0.01051823 0.021345204 0.020186348 0.0069245207 0.05015146 -0.017161451 -0.03644863 -0.032203414
0.041243188 -0.005206722 0.0019161336 0.0045125103 0.026727892 -0.008981233 0.03007016 0.007402534
0.000516984 -0.055846803 -0.0027953275 0.04667832 0.028249532 0.04697086 0.03541487 0.0076552466
-0.031001087 -0.033361044 -0.003727039 -0.010448053 0.019120565 0.010291049 -0.044594306 -0.055943806
0.009085922 -0.012036076 0.007963547 -0.02514189 0.048112676 0.03695194 -0.05130945 0.019781375
0.013952807 0.012330155 -0.031381164 -0.033931617 0.055202734 0.05225231 -0.012606845 -0.010198432
-0.012168331 0.023050193 -0.026574356 0.020162394 0.058956113 0.044264898 -0.012081806 -0.06554301
-0.032991614 -0.023745755 0.029662805 -0.037533637 -0.025765438 0.008513335 -0.010376158 -0.03849265
0.04028444 -0.053327393 -0.026340071 0.009606506 -0.01126048 0.040400982 -0.052044537 -0.028830394
0.004659558 0.04116285 0.025382701 -0.05148514 0.006724585 -0.033152025 0.0018527751 -0.057265695
0.00038850354 -2.5834165e-08 -0.010595135 0.042175215 2.0123452e-12 -8.6368857e-10 -0.02577862 -1.6798214e-09
1.3060675e-11 0.015445493 -0.04871353 0.037308592 0.04968563 -0.026332336 -0.0029027895 0.0008507724
0.029356461 0.040898815 -0.026012786 -0.040337708 0.0012699183 0.011723955 0.018697008 0.005419981
0.0004134968 0.0034719042 9.2095576e-10 9.804679e-09 -0.046398416 -0.014735062 0.010384848 0.03267326
0.0050790412 -0.030193057 0.029793516 0.007928426 -0.02343267 0.0002500556 0.01783364 -0.0244584
0.009775561 -0.006469614 0.0004891094 -8.692415e-05 -0.05257714 0.034142412 6.517135e-11 -0.030962013
-0.011332217 0.00025198815 0.006604056 0.044688355 0.028558007 0.0005188654 0.046046097 -1.3537128e-06
5.954135e-05 -0.021087095 -0.052419897 -0.04578118 0.051896878 -0.037783276 0.021204837 0.0036058512
0.029993704 -2.0373028e-10 0.046045188 0.02429796 -7.874307e-05 1.6016786e-05 0.0005212536 -0.03442236
-5.297682e-12 -0.022990769 -0.01488527 -0.0011852117 -0.012479298 -6.879542e-13 -0.008637019 -0.038365606
1.9118414e-05 0.0109833935 -0.0015063883 -0.025779476 0.04546175 0.04733479 0.0015777474 0.0018021143
-0.015432236 7.810123e-11 -0.033356708 -0.016970024 -0.02467678 -1.8703287e-05 0.0027918713 -2.5541146e-11
-0.0069005117 -0.029192515 -4.898582e-16 -0.021732409 -2.2167278e-10 0.015409545 -9.97767e-06 0.02955424
0.041992832 -0.030427698 -0.04719772 0.026695954 -0.000915772 8.2885684e-13 1.4821097e-11 0.005356599
-0.051523354 7.5618496e-05 0.028815435 0.04454554 -8.705547e-09 -0.049812023 -0.028370025 0.04690427
-1.183583e-11 -0.049311813 -0.035827 -0.033035133 -0.038989212 -0.025099833 0.0133734755 3.457441e-06
00000000: aeea 353d a219 ab3c c5cd c53c 9592 b3bb
00000010: bbd6 4a3c 40ef 0e3c 71d5 3e3d 7ff5 e5bc
00000020: c825 d6bc df5f 0f3d 8593 053d 038a 24bd
00000030: 887a 503b c9b4 703b ee3d ef3c c2bb 3c3d
00000040: bee6 d9bb a2a5 42bd 13b1 6e3d b527 3ebd
00000050: 9c16 fa3b 7098 643d b0bd b0bc 6054 33bd
00000060: 22a8 eb3c de9c fd3b 293b 22bd 1c59 2e3d
00000070: 4ccf e23c 3b16 57bb a55c c83c 2cc3 893c
00000080: 4756 fa3c a970 fe3c 9600 d43b 636f f43b
00000090: 91e9 0dbd fbb3 52bc 5f88 b93c 17f8 9b3c
000000a0: 137f 113c 7e62 65bd 6562 31bd 34ae 13bd
000000b0: 269e bfbc 6dd5 4fbd f617 893b 40d1 813a
000000c0: a754 2c3c 23dc ae3c d75d a53c 17e7 e23b
000000d0: 9e6b 4d3d 2c96 8cbc 294b 15bd bae7 03bd
000000e0: 9eee 283d 269d aabb c626 fb3a aedd 933b
000000f0: 74f4 da3c 0626 13bc b255 f63c f590 f23b
00000100: 3586 073a 9ebf 64bd d031 37bb c431 3f3d
00000110: 906b e73c 8464 403d 2f0f 113d ddd8 fa3b
00000120: fef5 fdbc 97a5 08bd 5741 74bb 4f2e 2bbc
00000130: bba2 9c3c ca9b 283c 85a8 36bd 5525 65bd
00000140: 1edd 143c f632 45bc 8979 023c 5df6 cdbc
00000150: cc11 453d eb5a 173d dc29 52bd 8d0c a23c
00000160: 509a 643c 6b04 4a3c 8989 00bd e1fb 0abd
00000170: 431c 623d 8506 563d f18c 4ebc 5317 27bc
00000180: ae5d 47bc c2d3 bc3c 77b2 d9bc 9b2b a53c
00000190: f77b 713d 1c4f 353d c4f2 45bc 6a3b 86bd
000001a0: 3722 07bd 7586 c2bc 69ff f23c dfbc 19bd
000001b0: 0a12 d3bc 847b 0b3c c300 2abc 78aa 1dbd
000001c0: 4c01 253d d36d 5abd 22c7 d7bc 9b64 1d3c
000001d0: e07d 38bc 807b 253d a72c 55bd b82d ecbc
000001e0: 35af 983b 609a 283d 62ef cf3c 15e2 52bd
000001f0: e859 dc3b 6bca 07bd d1d8 f23a 6f8f 6abd
00000200: 10b0 cb39 eee9 ddb2 3897 2dbc ebbf 2c3d
00000210: 309b 0d2c ae68 6db0 af2d d3bc 76df e6b0
00000220: 0dc4 652d 180f 7d3c d787 47bd e5d0 183d
00000230: 2983 4b3d e9b6 d7bc ba3c 3ebb 5f06 5f3a
00000240: f67c f03c 8485 273d c418 d5bc 2739 25bd
00000250: 6373 a63a d515 403c 782a 993c 199a b13b
00000260: 9aca d839 e388 633b 8026 7d30 6f71 2832
00000270: 440c 3ebd 546b 71bc 3625 2a3c 65d4 053d
00000280: 166e a63b 6e57 f7bc 8811 f43c 3be6 013c
00000290: dff5 bfbc e519 8339 db17 923c fc5c c8bc
000002a0: ad29 203c 0eff d3bb 9437 003a 0c4b b6b8
000002b0: 215b 57bd ead8 0b3d 3550 8f2e 0ca4 fdbc
000002c0: c3aa 39bc 471d 8439 d666 d83b 230b 373d
000002d0: 7bf2 e93c 7804 083a d59a 3c3d 38b1 b5b5
000002e0: 0abc 7938 d8be acbc 3fb6 56bd 0c85 3bbd
000002f0: d291 543d a3c2 1abd c4b5 ad3c 2550 6c3b
00000300: 5bb5 f53c fa00 60af e199 3c3d 840c c73c
00000310: dd22 a5b8 c95b 8637 bda4 083a 76fe 0cbd
00000320: 4765 baac 2357 bcbc 59e1 73bc 1b59 9bba
00000330: f875 4cbc 53a4 41ab 4982 0dbc 4125 1dbd
00000340: 7b60 a037 b1f3 333c 0172 c5ba 7b2f d3bc
00000350: 1a36 3a3d 20e2 413d 6bcc ce3a ec34 ec3a
00000360: 7dd7 7cbc 15bf ab2e 0ba1 08bd b804 8bbc
00000370: f526 cabc 01e5 9cb7 d4f7 363b 8ca9 e0ad
00000380: b01d e2bb 2425 efbc 2831 0da6 2a08 b2bc
00000390: 57bb 73af 5178 7c3c c465 27b7 bc1b f23c
000003a0: ad00 2c3d 8243 f9bc 6552 41bd 79b1 da3c
000003b0: 6b10 70ba 6e4d 692b 255e 822d 6986 af3b
000003c0: 270a 53bd 5f95 9e38 590e ec3c 6275 363d
000003d0: 678f 15b2 b107 4cbd 4168 e8bc b11e 403d
000003e0: d737 50ad 2ffb 49bd 55bf 12bd d94f 07bd
000003f0: 27b3 1fbd 2a9e cdbc 6c1c 5b3c 6206 6836
