dataset/models/PDAC_CSY20_Sig9/model.pth (torch, 696702 bytes, 14 tensors)

tiles_emb.hidden_layers.0.weight f4 [128, 768]
0	0xbbc2a5fc	-0.005940197
1	0xba59e219	-0.0008311584
2	0xb98a07f7	-0.00026327345
3	0x3af9b43c	0.0019050906
4	0xbaa10901	-0.0012286009
5	0xbb0a70e3	-0.0021124415
6	0x3bbdefb9	0.0057963994
7	0xb9f4d655	-0.00046698996
8	0xbb24a79c	-0.0025124317
9	0xbb3de2f5	-0.0028974388
10	0xbac33b8b	-0.0014895065
11	0xbb9657ef	-0.004588119
12	0xbafb0f5a	-0.0019154355
13	0xba75e3a8	-0.0009379932
14	0xba8168f0	-0.0009873193
15	0xba27fb11	-0.0006407956
16	0x391d4166	0.0001499705
17	0xbb4c8820	-0.0031209067
18	0xbb1c93af	-0.0023891737
19	0xb89c320b	-7.447981e-05
20	0xb98bac67	-0.00026640596
21	0x3b89b92c	0.0042029824
22	0xbbcbb465	-0.006216573
23	0xba76713f	-0.000940103
24	0x39d2fee7	0.00040244238
25	0x3b90a09d	0.004413678
26	0xba407b18	-0.0007342561
27	0xb9929d91	-0.00027964686
28	0xbb20cd6b	-0.00245365
29	0x3b767b3e	0.003761008
30	0x38253764	3.9390652e-05
31	0x398c48a5	0.00026757005
32	0xb95dcd34	-0.00021152647
33	0x3aa2012b	0.0012359967
34	0x3ba5fc00	0.005065441
35	0x3b6efc83	0.0036466427
36	0x3b176683	0.0023101873
37	0x369bf3c0	4.647736e-06
38	0x3b01506a	0.0019731768
39	0x3a0029df	0.0004889052
40	0x3bae7291	0.005323716
41	0xba5d02ed	-0.0008430917
42	0xb919fb71	-0.00014684886
43	0x3a251d83	0.0006298648
44	0xbb12a569	-0.0022376424
45	0x3b3e49b4	0.002903563
46	0x3a0db9d0	0.00054064114
47	0x3b32d366	0.0027286648
48	0x3a2b3079	0.00065303553
49	0x3a9a3d2f	0.0011767502
50	0x3be2f298	0.006925892
51	0xbbe2bc13	-0.006919393
52	0xba51bc6e	-0.00080007955
53	0x3bb74b27	0.0055936757
54	0x3af51dbe	0.001870088
55	0xbb826bb6	-0.0039801253
56	0x3887a22a	6.467507e-05
57	0x3984a7d5	0.00025302047
58	0x3af42d67	0.0018629254
59	0xbbf0f124	-0.007352965
60	0xba5764b6	-0.0008216606
61	0x3af53d29	0.0018710244
62	0xbaad40da	-0.001321818
63	0x3c1188b3	0.008882689
64	0xba35bd25	-0.0006932787
65	0xba258e64	-0.00063154683
66	0x39f2c63d	0.00046305536
67	0xba59b9cc	-0.0008305579
68	0xbaae628b	-0.0013304515
69	0x39399882	0.00017699788
70	0x3a969d31	0.0011490938
71	0xbb9a44ab	-0.004707893
72	0x3a3fcffd	0.00073170644
73	0xbab5af41	-0.0013861434
74	0x38dc9d9a	0.00010519773
75	0x38420975	4.6262012e-05
76	0xbad31a51	-0.0016105865
77	0x3b36ba9a	0.002788222
78	0x3a2c1e43	0.00065657886
79	0x3914a298	0.00014174951
80	0x385a14f4	5.1994764e-05
81	0xb9a30c4b	-0.00031098942
82	0xb8bd455f	-9.025144e-05
83	0x3b07030f	0.0020601188
84	0xba362612	-0.0006948422
85	0x38d2adff	0.000100459896
86	0x387f624f	6.0888295e-05
87	0x3affdf82	0.0019521567
88	0xb89d5fbf	-7.5041775e-05
89	0xb86066fc	-5.3501673e-05
90	0x3aed5a73	0.0018108621
91	0xbb2a549a	-0.0025990368
92	0x3b5538d2	0.0032535088
93	0xb9157adb	-0.00014255515
94	0x3b7cbf9e	0.0038566361
95	0x39c70891	0.0003796262
96	0x39eedc98	0.00045559253
97	0xbb78a785	-0.0037941646
98	0x3ae69157	0.0017590922
99	0x3a2f43e4	0.00066858367
100	0xba53384d	-0.00080574007
101	0xbbc80db6	-0.00610515
102	0xbb2cb80e	-0.0026354822
103	0xba2823b4	-0.00064140116
104	0x3a246427	0.00062710274
105	0x3afd35d6	0.0019318413
106	0x3b8a86c5	0.0042274916
107	0x3ba2c36b	0.0049671433
108	0xba80c281	-0.0009823592
109	0xb7e9e6c1	-2.7883218e-05
110	0xbb819d7a	-0.0039555402
111	0x3b560a8f	0.0032660102
112	0x3b57f783	0.0032953925
113	0xba7be719	-0.00096093264
114	0xbbd60463	-0.0065312847
115	0xbabd0a9d	-0.0014422719
116	0x392f4838	0.00016716204
117	0x3b8756d6	0.0041302247
118	0xbbc9385c	-0.0061407518
119	0x3abaeadf	0.0014260671
120	0xba9e1d23	-0.0012063127
121	0xba2f440d	-0.00066858606
122	0x39f2872d	0.0004625855
123	0x388cc43a	6.71227e-05
124	0xbbb44e77	-0.005502518
125	0xba5c81fe	-0.00084117043
126	0x3b1840cb	0.002323198
127	0x37f9e34b	2.9788955e-05
128	0xb8d6c060	-0.00010240148
129	0x3a0f6690	0.00054703
130	0x3a17d8af	0.0005792481
131	0xbb3b847e	-0.0028612907
132	0x3b312d00	0.0027034879
133	0xbb9b49a6	-0.004739004
134	0xbad548e9	-0.0016272339
135	0x3ae884e2	0.0017739797
136	0x3a2ea009	0.00066614203
137	0x3be984a5	0.007126408
138	0x39884822	0.00025993685
139	0x39d7c748	0.00041156472
140	0xbae1b4aa	-0.001721998
141	0xba017f4e	-0.00049399293
142	0xbb372ed5	-0.0027951498
143	0xbae6704e	-0.0017581077
144	0x399c3621	0.00029794968
145	0x3a1e896b	0.00060476986
146	0xb9af63b9	-0.000334529
147	0xba34352a	-0.0006874377
148	0xba0d35c1	-0.0005386733
149	0x3bf639a8	0.0075141974
150	0x3b31710a	0.0027075433
151	0x39e0a8a0	0.00042850245
152	0x3bc50b12	0.0060132826
153	0xbad05f2f	-0.0015897508
154	0x3a8d235e	0.0010767987
155	0xb7c9fb63	-2.4078128e-05
156	0x3a9863f4	0.0011626468
157	0x39b96094	0.00035357906
158	0xbbd43baf	-0.0064768414
159	0x3b0c2efa	0.0021390305
160	0xba744659	-0.0009318344
161	0x392a8cab	0.00016264866
162	0xba1f0a8d	-0.0006066941
163	0x3befba03	0.0073158755
164	0xbb240fa8	-0.0025033746
165	0x3bb3856e	0.0054785525
166	0x3bd7acee	0.006581894
167	0x3b4dc485	0.0031397652
168	0xbbac107b	-0.005250988
169	0xbb0eb483	-0.0021775074
170	0xbba64b1a	-0.005074871
171	0x38d8e79f	0.000103428254
172	0xbbde0ee4	-0.0067766774
173	0xbb70dbe3	-0.0036752156
174	0xb825a502	-3.949274e-05
175	0xba28a006	-0.0006432537
176	0x3a5bc2ee	0.0008383234
177	0xbad63d36	-0.0016345147
178	0x3bbb913d	0.005724101
179	0x39cecd6c	0.00039444433
180	0x3ab4446a	0.0013753299
181	0x3842c726	4.6438676e-05
182	0x3a406ede	0.0007340739
183	0xba00685c	-0.0004898363
184	0xba76634f	-0.00093989534
185	0xb9fc1d73	-0.00048087127
186	0x3b8f959c	0.0043818485
187	0xbba5e8ce	-0.005063153
188	0x398f68a0	0.00027353037
189	0xb999ca12	-0.00029332988
190	0xbbb459ae	-0.0055038547
191	0xb8e07251	-0.000107024454
192	0xbbaa25b8	-0.0051924847
193	0xba544065	-0.0008096754
194	0x3abd7826	0.0014455363
195	0x3b190dec	0.0023354245
196	0x3ba8e570	0.005154304
197	0xba77e6ef	-0.0009456714
198	0xba4ce315	-0.000781582
199	0x3895ccdf	7.143034e-05
200	0x3a8f7f43	0.0010947961
201	0x3af0cf3d	0.0018372309
202	0xbb8f9c20	-0.004382625
203	0x3abb387e	0.0014283804
204	0xb9bd9427	-0.0003615927
205	0x3a95d9cd	0.0011432708
206	0x3bc35fc1	0.0059623425
207	0x3a406fbd	0.0007340869
208	0x3b349ee5	0.0027560529
209	0x3a871c6d	0.0010308154
210	0x3affc4bc	0.0019513587
211	0xbbdcc637	-0.0067374962
212	0x3ac83ee4	0.0015277532
213	0xb9a24701	-0.0003095195
214	0xb9d07217	-0.00039757855
215	0xba4f65c9	-0.00079115905
216	0xbaa6568f	-0.0012690591
217	0xbab8df3b	-0.0014104614
218	0x39ed0999	0.00045211313
219	0xbacbc49a	-0.0015546263
220	0x3808942c	3.2562923e-05
221	0xbac32056	-0.0014886956
222	0xbb4b0577	-0.00309786
223	0x3b01ffce	0.001983631
224	0xbb92f117	-0.0044843066
225	0xba2e7e5b	-0.00066564017
226	0x3a93f467	0.0011288048
227	0xbb160764	-0.0022892589
228	0xbb012ddb	-0.001971117
229	0xbaa9b07e	-0.0012946276
230	0xb7c09482	-2.2957338e-05
231	0x3b4b2573	0.0030997663
232	0x3a45e20f	0.0007548639
233	0x3a615a64	0.0008596538
234	0xb990859d	-0.0002756537
235	0x398d7acb	0.00026985104
236	0xbb4ee48e	-0.0031569335
237	0x3a99bfbc	0.0011730115
238	0xbac7dbd1	-0.0015248006
239	0xbb0a1e6c	-0.0021075262
240	0xbb1e592b	-0.0024162035
241	0xba6373d1	-0.0008676621
242	0x386bd357	5.622519e-05
243	0xb74bceec	-1.2147921e-05
244	0x3b16e2a6	0.0023023277
245	0x3a0b7fe5	0.0005321487
246	0xbae421b8	-0.0017405069
247	0x3bc128a7	0.0058947387
248	0x396b95cd	0.00022467152
249	0xba1ba429	-0.00059372425
250	0xbaba2dd9	-0.0014204337
251	0x3b73635a	0.0037138076
252	0xbb02009d	-0.0019836791
253	0x38304b2f	4.203169e-05
254	0x3b0fa2fc	0.0021917215
255	0x3ba7b376	0.005117829

tiles_emb.hidden_layers.0.bias f4 [128]
0	0x3c3056a7	0.010762847
1	0xb93fcbfe	-0.00018291172
2	0x3ca2c27c	0.019868128
3	0x3aef2d02	0.0018247666
4	0x3c0eba7d	0.008711454
5	0x39c6d282	0.00037922343
6	0x3b697cca	0.0035627359
7	0x3b499fbb	0.0030765373
8	0x3b4818d4	0.0030532377
9	0x3c528ad0	0.012850478
10	0x3b1be174	0.0023785504
11	0x3ba653cd	0.005075908
12	0x3b41dfaf	0.0029582789
13	0xbae7425d	-0.0017643679
14	0x3c0e5f5d	0.008689729
15	0x3c57ea1a	0.013178373
16	0x3c9eea32	0.019398782
17	0x3c8cd818	0.017192885
18	0x3bc3037a	0.005951342
19	0xba823551	-0.0009934102
20	0xb9913101	-0.00027693066
21	0x3b83da6a	0.0040238397
22	0x39e79543	0.00044170962
23	0x3c840d94	0.016119756
24	0x3b89232a	0.0041851
25	0xbbb7b7c7	-0.0056066248
26	0xbb1cd851	-0.0023932646
27	0xbba848af	-0.0051356177
28	0xbba82a82	-0.0051320205
29	0xbaf09e08	-0.0018357644
30	0x3c152307	0.009102589
31	0xbbbb96dd	-0.0057247714
32	0xbb9f34b3	-0.004858577
33	0x3c37f41e	0.011227636
34	0xb9889b03	-0.00026055434
35	0x3b95e064	0.0045738686
36	0x3ca67481	0.020319225
37	0x3aad1ad9	0.0013206854
38	0x3bfae838	0.007657077
39	0xbb64bbb5	-0.0034901921
40	0xbc67cb10	-0.014147535
41	0xbc29b11f	-0.01035717
42	0x3cd5deea	0.02610727
43	0xbb3bdc3a	-0.00286652
44	0x38d123e2	9.97258e-05
45	0x3b911a9b	0.0044282204
46	0xba71caf2	-0.00092236616
47	0xbbde34c5	-0.006781193
48	0xbbc363a6	-0.0059628068
49	0xbc91deec	-0.017806493
50	0x3bfae078	0.0076561533
51	0x3be8ff9c	0.007110549
52	0xbbd5244a	-0.00650457
53	0x3c23d096	0.009998461
54	0x3b4aea4c	0.0030962406
55	0xb99e5229	-0.00030197322
56	0xbbf4c31d	-0.0074695484
57	0xbc961e5e	-0.018325027
58	0x3c242da5	0.010020648
59	0xbb9a1f53	-0.004703441
60	0xb9a6c29f	-0.0003180699
61	0xb97d1db7	-0.0002413903
62	0xbc129422	-0.00894645
63	0xbc31de91	-0.010856287
64	0x383fc6b5	4.572301e-05
65	0xbb3a518c	-0.0028429953
66	0x3be39e84	0.006946387
67	0xbbced036	-0.006311442
68	0xbabd92fe	-0.0014463363
69	0x3c4f893a	0.012666995
70	0x3b5610cd	0.0032663823
71	0xba9daf57	-0.0012030405
72	0x3c6878ba	0.01418894
73	0x3c96a125	0.018387387
74	0xbc5b4990	-0.013384238
75	0xbbf621fe	-0.0075113764
76	0x3b07a1ab	0.0020695727
77	0xbc9c7fe0	-0.019103944
78	0x3c201971	0.009771691
79	0xb956e597	-0.00020494159
80	0x3aabb216	0.0013099338
81	0xb88bf9e9	-6.674586e-05
82	0xbb3c9ef7	-0.0028781274
83	0x3b02e03b	0.0019970078
84	0x377b999d	1.4996532e-05
85	0x3c426298	0.011864327
86	0xbc961b62	-0.018323604
87	0x3b5c3995	0.0033603658
88	0xbc81e849	-0.015857833
89	0x3b739bb0	0.0037171654
90	0x3bdf28b7	0.0068102735
91	0x3c569e8b	0.013099323
92	0x3959dcfe	0.00020777059
93	0x3c012203	0.007881644
94	0x3adfa020	0.0017061271
95	0xbbcd179e	-0.006258919
96	0xba0fb23f	-0.0005481578
97	0x3741e193	1.1556217e-05
98	0x3b5bfe44	0.0033568302
99	0x3ba33a35	0.004981304
100	0xbbb7f6ba	-0.005614129
101	0xbbb170b0	-0.0054150447
102	0xb816a626	-3.5917525e-05
103	0x3ca6a906	0.020344269
104	0xbc58094f	-0.013185813
105	0x3c0e8030	0.0086975545
106	0x3ad00fd4	0.0015873858
107	0xbbd62130	-0.006534718
108	0xb771c9c5	-1.44116975e-05
109	0x3c8cc91d	0.017185742
110	0x3a35f8a1	0.00069416506
111	0x3bb04d62	0.0053803185
112	0x38c5c441	9.430247e-05
113	0x3b8efaf5	0.0043634125
114	0x3b5473c4	0.0032417635
115	0x3cb1a1d9	0.02168362
116	0xbbd21065	-0.006410646
117	0x3c98aa2b	0.01863583
118	0xbbff34be	-0.00778827
119	0x3b76380a	0.0037570023
120	0x38256683	3.9434537e-05
121	0x3ab0d3dc	0.0013490873
122	0x3ae8e925	0.0017769678
123	0xb5d98273	-1.6205726e-06
124	0x3c83ca45	0.01608766
125	0x38a02791	7.636764e-05
126	0xba0adbc1	-0.0005297028
127	0x3b929ea7	0.0044744792

tiles_emb.hidden_layers.2.weight f4 [128, 128]
0	0x3d0f7abe	0.035029165
1	0x39d1017d	0.00039864695
2	0xbc7a7629	-0.015286961
3	0x3bd34c6f	0.0064483206
4	0x3c390f4a	0.011295149
5	0x3a604d3e	0.0008556432
6	0xba5c7dea	-0.00084110966
7	0x3caa53a8	0.020791844
8	0x3d3e6f31	0.04649276
9	0x3ced959f	0.029002009
10	0xbb09a837	-0.0021004805
11	0xbd2077fd	-0.03917693
12	0xbc328c77	-0.010897747
13	0xbb9c9c74	-0.004779393
14	0x3ca09e8e	0.019606855
15	0xbb6544e1	-0.0034983682
16	0xbcfe694e	-0.031056073
17	0xbb8ec6ac	-0.0043571796
18	0x3cfa6718	0.030566737
19	0xbbe7177b	-0.0070523596
20	0x3cb50fbd	0.022102231
21	0x3b89c1f8	0.004204031
22	0x3cd2209d	0.025650317
23	0x3b9ff129	0.0048810435
24	0x3b9d1975	0.0047942945
25	0x3c243034	0.010021258
26	0xbc965692	-0.018351827
27	0xbcc66013	-0.024215734
28	0xbc1c13c3	-0.009526196
29	0xbcbf97b9	-0.023387777
30	0x3cb856fd	0.022502417
31	0xbb8de324	-0.004330056
32	0xbc2cddf0	-0.010550961
33	0xbc232d94	-0.009959597
34	0x3cef0edf	0.029181896
35	0x3d2be25c	0.04196392
36	0xbbfbf3c9	-0.0076889736
37	0x3c160c5d	0.009158221
38	0xbcdd03bc	-0.02697932
39	0x3d466c39	0.048443053
40	0x3bb15462	0.0054116705
41	0x3c472ba4	0.012156401
42	0xbc5b9e43	-0.013404432
43	0x3b427b87	0.0029675679
44	0x3be58836	0.007004763
45	0xbb0b4bc7	-0.0021254884
46	0x3d1a8592	0.03772504
47	0xbbf4ee45	-0.007474693
48	0xb9e1304d	-0.0004295133
49	0x3c30ac9e	0.010783343
50	0xbd361da7	-0.044461872
51	0x3cea738a	0.028619546
52	0x3cc81bd6	0.024427336
53	0xbbaf5c42	-0.005351574
54	0xbc79a067	-0.015235997
55	0x3b51996e	0.003198232
56	0xb85ccb82	-5.264162e-05
57	0x3d0a011c	0.033692464
58	0x3cd0de7f	0.02549672
59	0x3cedf6e9	0.0290484
60	0xbd031b89	-0.03200868
61	0x3d27c9ab	0.04096381
62	0x3b00a6e8	0.0019630734
63	0xbba09b2f	-0.004901312
64	0x3bda9266	0.006670284
65	0x3a790356	0.0009499093
66	0xbc04086d	-0.0080586495
67	0x3bdd0cab	0.006745895
68	0x3c42ff6a	0.011901716
69	0xbc65e4ad	-0.014031571
70	0xbc98e061	-0.01866168
71	0xb5a49001	-1.2260863e-06
72	0xbb036574	-0.0020049484
73	0x3ba6991d	0.0050841705
74	0xbb50f2f2	-0.0031883088
75	0xb90ae16f	-0.00013244686
76	0x3d498c47	0.049206045
77	0x3d2e901e	0.04261791
78	0xbd4bf8c8	-0.049797803
79	0xbc901dea	-0.01759239
80	0x3bc91c92	0.006137439
81	0x3c1d4f37	0.009601406
82	0x3cd84cd9	0.026403831
83	0xbba304f0	-0.004974954
84	0xbbbe412f	-0.0058061103
85	0xbd478ee9	-0.048720274
86	0x3ca97100	0.020683765
87	0x3c004e59	0.00783118
88	0xbbdd5ad3	-0.006755212
89	0x3b76f1fb	0.0037680853
90	0x3c9d71fa	0.019219387
91	0x3ce64033	0.028106784
92	0x3b7ddb85	0.003873558
93	0x3d354744	0.044257417
94	0x3d394050	0.04522735
95	0xbb581436	-0.003297103
96	0xb807f93f	-3.2418637e-05
97	0xbc93e6cb	-0.018054387
98	0x3cb1ed62	0.021719638
99	0xbc8628ef	-0.01637694
100	0xbb455aa6	-0.0030113845
101	0xbce9a605	-0.028521547
102	0x33d37dd0	9.848338e-08
103	0xbd249115	-0.040177424
104	0xbd36abaf	-0.044597324
105	0x3d01711c	0.03160201
106	0x3cbef850	0.023311764
107	0x35cc2d03	1.5212285e-06
108	0xb7e680b4	-2.7478069e-05
109	0xbba01007	-0.004884723
110	0xb914f6c6	-0.0001420631
111	0x3cf42695	0.029803554
112	0xbc0b6652	-0.008508282
113	0x3d046620	0.032323956
114	0xbae5e80f	-0.0017540472
115	0xbc7ddfd0	-0.015495256
116	0x37bcdf21	2.2515249e-05
117	0xbd3dcc5a	-0.046337463
118	0x3c8d0fae	0.01721939
119	0xbd07b886	-0.03313496
120	0xbd093ff7	-0.033508267
121	0xbc3a491c	-0.01136997
122	0x3d35ee8e	0.044416957
123	0x3d2695bc	0.04067014
124	0xbd1d3e3a	-0.038389422
125	0xbbb51a07	-0.0055267843
126	0xbd520447	-0.05127361
127	0xbb380658	-0.0028079953
128	0x3d3c72a7	0.04600778
129	0xbcc688cc	-0.024235152
130	0xbbbc4336	-0.005745317
131	0x3d19fe2a	0.037595905
132	0x3d41dc28	0.047329098
133	0xbc8fdfbe	-0.017562743
134	0xbc2560a2	-0.01009384
135	0x3d24e234	0.040254787
136	0x39a1af95	0.00030839132
137	0xb995b663	-0.00028555383
138	0xbc2876a6	-0.010282194
139	0x3c09a346	0.008400744
140	0xbce27d5e	-0.02764767
141	0x3c231377	0.009953371
142	0xbd417a89	-0.047236
143	0x3d095a56	0.033533417
144	0x3badb4dd	0.0053011016
145	0x3b1a99eb	0.0023590277
146	0xbb2cab4c	-0.0026347218
147	0x3d047efd	0.032347668
148	0x36ae9564	5.2029955e-06
149	0x3d26e2cc	0.040743634
150	0xbd288c85	-0.041149635
151	0xbadef005	-0.0017008787
152	0xbcb04b60	-0.021520317
153	0x3cc51d8f	0.024061946
154	0x3c82877a	0.01593374
155	0x3d37869b	0.044806104
156	0x395afbd6	0.00020883916
157	0x31499066	2.933143e-09
158	0x3bd68b99	0.006547403
159	0x3b4256a5	0.0029653695
160	0xbd17a5d5	-0.037023384
161	0xbd00aa1f	-0.03141224
162	0x394a0d13	0.00019269092
163	0xbc5fb1c9	-0.013653227
164	0x3b8305dd	0.0039985017
165	0xbac0e84c	-0.0014717667
166	0xbd000c13	-0.031261515
167	0x3690db71	4.3170808e-06
168	0xbc5d9679	-0.013524645
169	0xbd1699e2	-0.036767848
170	0x3b9e1fd8	0.0048255734
171	0x3d3d4b08	0.046214134
172	0x3d516454	0.05112107
173	0x3cef167d	0.029185528
174	0xbcad3769	-0.021144586
175	0xbd17ccc6	-0.03706052
176	0x3cd6b356	0.02620856
177	0x3ce9f51f	0.028559266
178	0x3b8fbb76	0.0043863608
179	0x3d378d08	0.044812232
180	0x3a6878d0	0.00088681
181	0x3d5b287c	0.053505406
182	0xbc287d00	-0.010283709
183	0x3b8800f9	0.0041505066
184	0x3c346342	0.011009993
185	0x3b04feba	0.002029343
186	0xbc4fe7e6	-0.012689566
187	0x3af167a5	0.0018417729
188	0xbc250dec	-0.01007412
189	0x3d2a61b9	0.0415971
190	0x3b8004c8	0.00390682
191	0x3b081f5d	0.0020770647
192	0x3cad801a	0.021179248
193	0xba9b71cb	-0.0011859474
194	0x3b259a2c	0.0025268896
195	0xbc9eba6a	-0.019375999
196	0xbbb5a139	-0.005542901
197	0x3b9e741f	0.00483562
198	0xb77dc51a	-1.5125866e-05
199	0xbcd2c8ac	-0.025730453
200	0x3ad1f692	0.0016018918
201	0xb9a01c07	-0.0003053846
202	0x39dd3032	0.00042188313
203	0xba819a43	-0.0009887893
204	0xbc421d74	-0.0118478425
205	0x3d56e4d4	0.05246432
206	0xbc83a9b7	-0.016072137
207	0xb9c6d9a4	-0.00037927658
208	0x3aadee6c	0.0013269908
209	0xbc2d3edc	-0.010574069
210	0x3b30baeb	0.002696688
211	0x3d1c35c0	0.038137197
212	0x3c3d195e	0.011541693
213	0xbd3a31b5	-0.04545756
214	0x3ca796fb	0.020457735
215	0x3af257d8	0.0018489314
216	0x3b604dcd	0.003422606
217	0xba4d83a1	-0.00078397436
218	0x3a76956a	0.00094064197
219	0xba9df12f	-0.0012050028
220	0x3b11d348	0.0022251178
221	0xbd3ba81c	-0.04581462
222	0xb9da6a82	-0.00041659555
223	0x38b41bd6	8.588254e-05
224	0x3757681a	1.2839237e-05
225	0xbd2798a3	-0.04091705
226	0x3a0fd6d1	0.0005487027
227	0x3c05cabb	0.0081660105
228	0xb9b2c2f8	-0.0003409607
229	0xbc7fd7cb	-0.015615414
230	0x3d27d39d	0.040973295
231	0x3ada6566	0.0016662299
232	0xbce32d42	-0.027731542
233	0xbaf94af8	-0.0019019535
234	0xbd13bd20	-0.036069036
235	0xbac081df	-0.0014687142
236	0x3d22f5cb	0.039785188
237	0xbc85186a	-0.016246993
238	0x3d3e78aa	0.046501793
239	0x3d4908f0	0.04908079
240	0x352fa0c5	6.542653e-07
241	0xbc43045d	-0.011902896
242	0x3d054ebe	0.032545798
243	0xbaddb072	-0.0016913547
244	0xb6e8d18a	-6.9385324e-06
245	0x3ac68775	0.001514657
246	0xb72d18f4	-1.0317413e-05
247	0x3b231ca1	0.002488889
248	0xbb3798c8	-0.0028014649
249	0xbbb62a3f	-0.0055592353
250	0x3a9db21e	0.0012031232
251	0xbd12f591	-0.03587872
252	0xbd37bd11	-0.044858042
253	0xbc9d9b60	-0.019239128
254	0xb5c7a847	-1.487563e-06
255	0x3c5eb219	0.0135922665

tiles_emb.hidden_layers.2.bias f4 [128]
0	0xbd5b6900	-0.053566933
1	0x3d60a2f2	0.054842897
2	0xbc26674f	-0.010156467
3	0xbc34a575	-0.011025776
4	0x3cc67518	0.024225757
5	0xbd3aaca7	-0.04557481
6	0x3d823c2a	0.06359132
7	0x3d9662f4	0.073430926
8	0x39c586bb	0.0003767515
9	0x3d5bb386	0.053638004
10	0x3c2171ef	0.009853824
11	0x3ce37c6a	0.027769286
12	0xbcd03131	-0.025414081
13	0xbd8ba8ee	-0.0681933
14	0xbcebadac	-0.028769337
15	0xbcf40752	-0.029788647
16	0x3d253c68	0.04034081
17	0xbc602b36	-0.013682177
18	0x3d6e88f1	0.058236066
19	0x3d7f2464	0.062290564
20	0x3c810775	0.015750626
21	0x3cf5ea66	0.030018996
22	0xbd6e41dd	-0.05816828
23	0x3c30d3d0	0.010792688
24	0x3d1391f1	0.036027852
25	0x3c0dde8f	0.008659019
26	0x3bf0ca1d	0.0073483125
27	0x3d521e44	0.051298395
28	0xbcc2a032	-0.023758028
29	0xbcf2c2b4	-0.029633857
30	0xbcc04a54	-0.023472942
31	0x3c7b9d68	0.015357353
32	0xbce81826	-0.028331827
33	0xbd8bf140	-0.06833124
34	0x3ad801f6	0.0016480077
35	0xbcab0123	-0.020874565
36	0x3d690567	0.056889918
37	0x3d30a5e0	0.04312694
38	0xbd2bf1bd	-0.041978586
39	0xbc28eb4e	-0.010310007
40	0xbd35eace	-0.04441338
41	0x3cb98643	0.022647029
42	0x3cd2fba6	0.025754761
43	0xbd46aa2b	-0.04850213
44	0xbd324043	-0.043518316
45	0xbd4afc3f	-0.049556967
46	0xbd615faf	-0.05502289
47	0xbd232378	-0.039828748
48	0x3d1dffc2	0.038573988
49	0xbd06b954	-0.032891586
50	0xbd1fa059	-0.03897128
51	0x3c8e4ef1	0.017371627
52	0xbd327c8a	-0.0435758
53	0xbd25c9dd	-0.040475715
54	0xbb7d205d	-0.0038624026
55	0x3ce7d538	0.028299913
56	0xbca81562	-0.020518009
57	0x3d91e2e8	0.07123357
58	0x3c981343	0.018563872
59	0x3c98b881	0.018642666
60	0xbcb5f35b	-0.022210767
61	0xbcef80fb	-0.029236307
62	0xbc9a88fe	-0.018864151
63	0xbd49e700	-0.049292564
64	0xbba06224	-0.004894512
65	0x3b95882a	0.004563351
66	0xbc7dd7ce	-0.015493346
67	0xbc3df78c	-0.011594664
68	0xbc5276fe	-0.012845753
69	0xbcd6632f	-0.026170341
70	0x3b7e4257	0.0038796866
71	0x3c1d08bf	0.009584605
72	0xbd76503e	-0.06013512
73	0xbd04403f	-0.032287832
74	0x3d69fe0f	0.057127055
75	0xb9d65cb2	-0.00040886324
76	0xbd13ca57	-0.03608164
77	0xbd3432a4	-0.043993607
78	0x3cf70631	0.03015432
79	0x3cb38c3b	0.021917453
80	0xbc24a111	-0.010048167
81	0x3ca996df	0.020701824
82	0x3d74c1c4	0.0597551
83	0x3d20c30e	0.03924852
84	0x3d84f877	0.064927034
85	0xbd39324f	-0.045213994
86	0xbd05c964	-0.032662764
87	0xbd50610d	-0.050873805
88	0x3d4868a5	0.04892792
89	0xbd3e4325	-0.046450753
90	0xbd816ae7	-0.06319218
91	0x3d717764	0.05895175
92	0xbd00fb2d	-0.03148954
93	0x3d21d0a8	0.03950563
94	0xbd61a313	-0.05508716
95	0x3d46fac3	0.04857899
96	0x3cce8421	0.025209488
97	0xbd5b9035	-0.053604323
98	0x3d7606a4	0.060064927
99	0x3d1aebe5	0.037822623
100	0x3d76c524	0.0602466
101	0xbd7d5361	-0.061847094
102	0xbc084653	-0.008317548
103	0xbbb03774	-0.0053777043
104	0x3c915395	0.01774005
105	0x3c83d816	0.016094249
106	0xbd04852c	-0.032353565
107	0xb9906c05	-0.000275463
108	0xbd12f173	-0.035874795
109	0x3d292f30	0.041304767
110	0x3d594783	0.053046715
111	0x3d8686f0	0.06568706
112	0xbd1e16f1	-0.038596097
113	0x3c8c75b2	0.017145965
114	0x3ce3e736	0.02782021
115	0xbd1c2574	-0.038121656
116	0xbcbc2c5c	-0.022970371
117	0xbd564f05	-0.052321453
118	0xbd68877d	-0.056769837
119	0xba4328b1	-0.0007444723
120	0xbcf1c813	-0.029514348
121	0x3cdd7cc4	0.027037032
122	0xbc9450c7	-0.018104924
123	0x3d19581f	0.037437554
124	0x3d806be0	0.062705755
125	0xbd520036	-0.051269732
126	0xbd325d92	-0.043546267
127	0xbcdcd112	-0.026955161

attention_layer.att.weight f4 [128, 128]
0	0xbb7ae9d9	-0.0038286357
1	0xbc06ee39	-0.008235508
2	0xbc37132f	-0.011174007
3	0x3b1b7b41	0.0023724588
4	0x32b0aa0a	2.0566421e-08
5	0xbb7afe25	-0.0038298455
6	0xb245ea8b	-1.1520238e-08
7	0xbd202bcc	-0.039104268
8	0x3c2d3ee3	0.010574075
9	0x3d20e3bd	0.03927969
10	0xbc1c0a10	-0.009523883
11	0x3cbabceb	0.022795161
12	0xbc4a3201	-0.012341023
13	0xbaedfca6	-0.001815696
14	0xbccb2ade	-0.024800714
15	0x3bce819d	0.006302072
16	0xbc1bac79	-0.00950157
17	0x3cfeece8	0.031118825
18	0x32d992e6	2.5328927e-08
19	0xbd101063	-0.035171878
20	0xbd3c1c79	-0.04592559
21	0xbbbf6d50	-0.0058418885
22	0xbc1e5c36	-0.0096655395
23	0x39693786	0.00022241296
24	0xba31fcbb	-0.0006789674
25	0x3c6bec76	0.014399638
26	0x3c3ce103	0.011528256
27	0xbb7931c6	-0.0038024052
28	0x3773f998	1.4542042e-05
29	0x3270e814	1.4022607e-08
30	0xb297f34c	-1.7689352e-08
31	0x3c2343f3	0.009964931
32	0x3bd43f3f	0.006477266
33	0xb33038fa	-4.1030013e-08
34	0x3ce080f5	0.027405242
35	0x3ccf535b	0.025308302
36	0x33963808	6.995111e-08
37	0x3c4f13a6	0.012638962
38	0xbd39f25c	-0.045397148
39	0xbccb924c	-0.024850033
40	0x332d3ee2	4.0336893e-08
41	0xbaf00006	-0.0018310554
42	0x3cb1b4d0	0.021692663
43	0xbd182411	-0.03714377
44	0xb0d7d667	-1.5704246e-09
45	0x3d1ccaaf	0.03827923
46	0x3d05460f	0.032537516
47	0xbd2054b5	-0.039143283
48	0x3bbfe01e	0.0058555743
49	0xbb0edd7b	-0.0021799493
50	0xb41d8104	-1.46687e-07
51	0xbc4f2976	-0.012644162
52	0x36fcd306	7.5347516e-06
53	0x3370a90a	5.6033095e-08
54	0xbcd720d5	-0.026260773
55	0xbd3740d2	-0.04473955
56	0x3ba1a32c	0.0049327817
57	0x3d06fd37	0.03295633
58	0xbbfb2ee6	-0.007665503
59	0xb5e6f56b	-1.7207761e-06
60	0x3d3205ef	0.04346269
61	0x3c04fdf4	0.008117188
62	0xbcdf3491	-0.027246745
63	0xb16cf4d8	-3.4481697e-09
64	0xb2e61ebd	-2.6789502e-08
65	0x3206e91b	7.852829e-09
66	0xbd1ffa3f	-0.039057013
67	0xbd56c574	-0.0524344
68	0xbc0fd9ef	-0.008779987
69	0x3ce33ae8	0.02773805
70	0xbd1999b2	-0.03750009
71	0xbd0dee6f	-0.034651216
72	0xbd0c2f19	-0.034224603
73	0xbba68131	-0.005081319
74	0x32ffae29	2.9765106e-08
75	0x3c30d34c	0.010792565
76	0x3cd65fb2	0.026168678
77	0x3332a6c7	4.1595538e-08
78	0x3302b8ba	3.043599e-08
79	0x30b612c3	1.3247575e-09
80	0x3caac1e6	0.020844411
81	0x3d2c0a37	0.04200193
82	0x32491411	1.1704302e-08
83	0xbbb831d4	-0.0056211744
84	0xbc2856b6	-0.01027458
85	0x3c985a9d	0.018597895
86	0x3c84c4f5	0.016207198
87	0x3b45fecb	0.0030211683
88	0x3cf4f378	0.029901251
89	0x3d086e95	0.033308584
90	0xb2914fbf	-1.6916486e-08
91	0xb9607ced	-0.00021408843
92	0x3cc4befe	0.024016853
93	0xbd0fd94c	-0.03511934
94	0x3d372488	0.044712573
95	0xbd4d663f	-0.050146338
96	0xbd129919	-0.035790537
97	0x3d303ddf	0.043027755
98	0x3a6afbd2	0.0008963916
99	0xbd0d310b	-0.0344706
100	0x3c505735	0.012716104
101	0x383757de	4.3712433e-05
102	0x32aafdac	1.9905961e-08
103	0x3616f560	2.2494569e-06
104	0x39f9eaa2	0.00047667796
105	0xbcc5cec2	-0.024146441
106	0x3c9bc64c	0.019015454
107	0xbc26825c	-0.010162916
108	0xb8cd9973	-9.803744e-05
109	0xbd2b0b72	-0.041758962
110	0xbcc47fb7	-0.02398668
111	0xbd25696c	-0.04038374
112	0xbd3fcc62	-0.046825774
113	0xbca93c80	-0.020658731
114	0xb3f25bce	-1.1285702e-07
115	0x3c030861	0.007997603
116	0x3c462f47	0.012096233
117	0xbd53772f	-0.051627334
118	0x3bbbda1b	0.0057327873
119	0xbb01bd79	-0.0019796772
120	0x3d355377	0.04426905
121	0xb73cb3b5	-1.12475145e-05
122	0x3c9dc6ce	0.019259837
123	0xb291761b	-1.693393e-08
124	0xb59bfa61	-1.162127e-06
125	0xbd14969f	-0.036276456
126	0x3ca4e80e	0.020130184
127	0xba8a6f2b	-0.0010561695
128	0xbd255f1d	-0.04037391
129	0xbd410abe	-0.047129385
130	0x30dce2d9	1.6071581e-09
131	0x3b60f2d0	0.0034324415
132	0xbccacf24	-0.024756975
133	0xbba2bf39	-0.004966643
134	0xba09b837	-0.00052535854
135	0xbbc3c336	-0.0059741987
136	0xbc5cdd92	-0.013480561
137	0x3c0e5b2b	0.008688728
138	0xbc8230db	-0.015892437
139	0xbb833347	-0.0040039155
140	0xb150b903	-3.037315e-09
141	0x35039cdd	4.902957e-07
142	0xbc2f9f32	-0.010719107
143	0xbd53f8d9	-0.05175099
144	0xbab8179b	-0.0014045121
145	0x3ce85dc0	0.028365016
146	0xbc0058ea	-0.007833699
147	0x3ba92763	0.005162166
148	0x3c3d22db	0.011543955
149	0xbcce351b	-0.025171807
150	0x3d1efbac	0.03881423
151	0xb84465b6	-4.6824767e-05
152	0xb8c3e41c	-9.340813e-05
153	0x38b6b3be	8.711916e-05
154	0xbd0c9fca	-0.034332074
155	0x3d1b0e9f	0.03785574
156	0xb3d881d2	-1.0081898e-07
157	0x3d329b31	0.043605033
158	0xb00e2014	-5.1704885e-10
159	0x3d2326b9	0.03983185
160	0xbd3e401e	-0.046447866
161	0x3bb6264d	0.005558765
162	0x3a90cb34	0.0011046887
163	0x3a7ae052	0.00095701695
164	0x3ca6b84f	0.020351557
165	0xbc7db01a	-0.01548388
166	0x304f13d4	7.533434e-10
167	0x3ced5534	0.028971292
168	0x3b7e1e2d	0.003877531
169	0xbcaa8cb6	-0.02081905
170	0x3d0ccac9	0.03437308
171	0xb67793f3	-3.6891986e-06
172	0xb65a348a	-3.2515113e-06
173	0x3bee29cc	0.007268166
174	0x3a7438c2	0.0009316319
175	0xbd0f32ea	-0.034960665
176	0x3ceda1fd	0.029007906
177	0xb9428668	-0.00018551352
178	0x3b69163a	0.0035566227
179	0xbd05001a	-0.0324708
180	0xbbbaccce	-0.005700684
181	0xbd10b6a5	-0.035330433
182	0xbb6adf21	-0.0035838562
183	0x3c56801d	0.013092068
184	0x3099e5c0	1.1197514e-09
185	0xbbc6f0ec	-0.0060712006
186	0xbcae3411	-0.021265062
187	0x3c67518c	0.014118563
188	0xbb9ca092	-0.0047798837
189	0x3caf2b38	0.021382913
190	0xbd3ae71a	-0.045630552
191	0x3d41bb2f	0.047297653
192	0xbd062fa6	-0.032760285
193	0xbd052c9c	-0.032513246
194	0xaea68314	-7.57209e-11
195	0x3d2940b0	0.041321456
196	0x3c975434	0.018472768
197	0xbd12ceaa	-0.03584162
198	0xbce93efd	-0.028472418
199	0xbd178081	-0.036987785
200	0x3a9159c0	0.001108937
201	0xaf44a5fd	-1.7885067e-10
202	0x3d051292	0.032488413
203	0xbbd714ab	-0.006563743
204	0x341b3754	1.4455628e-07
205	0x39c8e2ff	0.00038316098
206	0x3c934474	0.017976977
207	0x3d47b8b5	0.048760135
208	0x3d311157	0.043229427
209	0xbc6329ab	-0.013864915
210	0xbd3f6442	-0.046726473
211	0x3b6ef967	0.0036464573
212	0x3ccd0b5d	0.025029832
213	0x3c02ebd9	0.007990801
214	0xbd29842d	-0.04138582
215	0x3ce798c7	0.028271092
216	0x3cfa91d7	0.03058712
217	0x3c18b10b	0.009319554
218	0xb091f63f	-1.0620126e-09
219	0xbc43df57	-0.011955104
220	0xbc733f16	-0.014846584
221	0xba59bcca	-0.0008306025
222	0xba48bb1c	-0.0007657276
223	0x3060fabc	8.184704e-10
224	0x3ce89e1b	0.028395703
225	0xba6a2f7c	-0.00089334673
226	0x3cce936f	0.025216786
227	0x3c46f8c8	0.012144275
228	0xb8c8fa3b	-9.583352e-05
229	0xb172d2c9	-3.5335452e-09
230	0xbb50bea7	-0.003185192
231	0x3c8dba84	0.017300852
232	0x360d59ab	2.106283e-06
233	0x3cae3ee4	0.021270223
234	0xbba365e2	-0.0049865106
235	0x3d3191a4	0.043351784
236	0x3cff1941	0.031139972
237	0x316d4665	3.4528054e-09
238	0x3cb24fec	0.021766625
239	0x3d214f04	0.039381996
240	0x3875f218	5.863802e-05
241	0xbcc1b1a2	-0.023644272
242	0x3c2e9012	0.010654466
243	0x3d00f9ca	0.031488217
244	0x3945fbb0	0.00018881145
245	0x3c638515	0.01388671
246	0xbc9d5eab	-0.01921018
247	0x3b527f8f	0.0032119488
248	0x3d0d0c29	0.034435425
249	0x3d25b533	0.04045601
250	0xbb03d335	-0.0020114903
251	0xba994a28	-0.0011695074
252	0xbcb8f6b4	-0.022578575
253	0x3ccce510	0.02501157
254	0xb0d0b0f0	-1.518428e-09
255	0x316c8b53	3.4421717e-09

attention_layer.att.bias f4 [128]
0	0x3ce8d164	0.028420158
1	0xbcbb4c3f	-0.022863505
2	0xb95e76b1	-0.00021215786
3	0x3ceb24fc	0.028704159
4	0xbc82dd1a	-0.01597457
5	0xbd092961	-0.033486728
6	0x3d1b87c4	0.037971273
7	0x3d549ce2	0.051907428
8	0x3bb11586	0.005404177
9	0xbcb903e7	-0.022584869
10	0x3c6b4f94	0.014362235
11	0xbc117215	-0.008877297
12	0x3cfb1a6e	0.030652251
13	0x3d08d05d	0.033401836
14	0xb579d913	-9.3075613e-07
15	0xbd0c0565	-0.034184832
16	0xb9d71bbf	-0.00041028668
17	0x2e85c737	6.0835274e-11
18	0xbcc6e50b	-0.024279138
19	0xbd1c47e6	-0.038154505
20	0x36e3ca24	6.7886594e-06
21	0x3ca28a5a	0.019841362
22	0x3c29c1eb	0.010361175
23	0x3d0e31f0	0.034715593
24	0x3d20da41	0.039270643
25	0xba438700	-0.0007458776
26	0xbc6ae466	-0.014336681
27	0x3be009e7	0.006837118
28	0xbc50516d	-0.012714726
29	0x3be4cc9f	0.0069824005
30	0x3c6f8768	0.014619686
31	0xb9dd9cc6	-0.0004226921
32	0x3c8a337c	0.016870253
33	0xb9b13e2f	-0.000338064
34	0xbd329a5f	-0.04360425
35	0xbca47277	-0.020074112
36	0xbd43b02f	-0.047775444
37	0xbca02363	-0.019548124
38	0xbd4ae545	-0.049535055
39	0x3d403f84	0.046935573
40	0xbd04e531	-0.032445136
41	0xbbd43953	-0.00647656
42	0x3ccc2156	0.02491824
43	0xb3016902	-3.0130657e-08
44	0xbcd126aa	-0.025531132
45	0xb4690f27	-2.1705328e-07
46	0x350310d9	4.882582e-07
47	0xbc88d4bd	-0.016703004
48	0x3cba79ae	0.0227631
49	0xbab2fbbb	-0.0013655344
50	0xbaed71e7	-0.0018115611
51	0x3cb3cad6	0.021947306
52	0x3d574577	0.05255648
53	0x3bfc801b	0.007705701
54	0x3d2c9742	0.04213644
55	0xbcec11f7	-0.02881716
56	0x3c582040	0.013191283
57	0xbbe5eccb	-0.0070167533
58	0xbc4f251d	-0.012643126
59	0x3d470114	0.048585013
60	0xbbd1ca71	-0.0064023067
61	0x30fd1e28	1.8416744e-09
62	0xbd4a16ce	-0.049338154
63	0xbd269450	-0.040668786
64	0x300464ca	4.816455e-10
65	0x3d0ed899	0.034874532
66	0xb8fd69cc	-0.00012083686
67	0xbd444451	-0.047916714
68	0xba03d7e7	-0.00050294254
69	0xb7874726	-1.6126385e-05
70	0x3ad429ec	0.001618681
71	0xbd00d5ae	-0.03145378
72	0x3b5be618	0.0033553895
73	0xbd3251b7	-0.04353496
74	0x3d1eb98c	0.03875117
75	0xbc9b445c	-0.018953495
76	0x3d151873	0.03640027
77	0xbcb9809f	-0.02264434
78	0x3a3029da	0.00067201036
79	0x332d010f	4.0280664e-08
80	0xb8af4fee	-8.359538e-05
81	0x35b8c876	1.376741e-06
82	0xbbc140c8	-0.005897615
83	0xb9f37576	-0.00046436087
84	0x3187a06e	3.947256e-09
85	0xb3516581	-4.8753922e-08
86	0xbbcd4c3d	-0.006265192
87	0x3abfae81	0.001462415
88	0xbcdce0c8	-0.026962653
89	0xb66e79d6	-3.5535681e-06
90	0x3d1e34f3	0.038624715
91	0x3b2f1f7d	0.002672165
92	0xbac2c244	-0.0014858921
93	0x3a5bbc9f	0.0008382294
94	0xbd2ee92b	-0.042702835
95	0xbc6d553a	-0.014485652
96	0x3bd4377f	0.006476342
97	0x3bcc6177	0.0062372047
98	0x3cc12bf5	0.02358053
99	0xb9738195	-0.00023222559
100	0xb8ed2827	-0.000113085196
101	0xbd0f7f4e	-0.035033517
102	0xbd004acc	-0.03132133
103	0x3d2ecb0e	0.042674117
104	0xbc1df9f5	-0.009642114
105	0xbc895c42	-0.016767625
106	0x35979981	1.1295052e-06
107	0x3cb80d7d	0.02246737
108	0xbb829c69	-0.0039859307
109	0xb3a7dad6	-7.8163495e-08
110	0x33a2484e	7.556865e-08
111	0x3d550f6f	0.05201667
112	0x389f3e8c	7.593361e-05
113	0x30483566	7.283546e-10
114	0x3d035132	0.032059856
115	0x34a7ae84	3.123315e-07
116	0x3d5067bc	0.05088018
117	0xb4b22aa2	-3.3186103e-07
118	0xbbfec915	-0.0077754357
119	0x351b3fa8	5.783463e-07
120	0x3404860a	1.2342221e-07
121	0x3ccc78f9	0.024960028
122	0xbc1bf07b	-0.009517784
123	0x332a7830	3.969052e-08
124	0x354a57a1	7.537838e-07
125	0x3d3def93	0.046371054
126	0x313d3df8	2.7538345e-09
127	0xbd22b205	-0.039720554

attention_layer.gate.weight f4 [128, 128]
0	0x3b58d4cc	0.0033085821
1	0x3c847ced	0.01617285
2	0xbb53de84	-0.0032328675
3	0xbce89959	-0.028393434
4	0x34db8b3a	4.089323e-07
5	0xbd2a8c0f	-0.041637477
6	0xae9ffce7	-7.2754074e-11
7	0x2f214b47	1.4669609e-10
8	0x3cff5295	0.031167308
9	0x3d37115c	0.04469429
10	0x3ce85772	0.02836201
11	0xbc91ea8b	-0.017812034
12	0x3cc6764f	0.024226336
13	0xbd17903f	-0.0370028
14	0x3d271b95	0.04079779
15	0xbd089a4f	-0.033350285
16	0x3d12cd10	0.035840094
17	0x3c41069c	0.011781361
18	0x306dddd1	8.653532e-10
19	0xba51ad95	-0.0007998583
20	0x3cb7df1f	0.02244526
21	0x3d4de799	0.050269697
22	0x3ba6d716	0.005091558
23	0xbb7f27b3	-0.0038933575
24	0xbbfd4b04	-0.00772989
25	0x3d07886b	0.033089083
26	0xbc522572	-0.0128263105
27	0x3bab6c43	0.0052314117
28	0xbc4ced76	-0.012507787
29	0x3c05573d	0.008138475
30	0x3bc44a7a	0.0059903236
31	0xbbe5720d	-0.0070021213
32	0xbd3a9132	-0.045548625
33	0xbd2d7889	-0.04235128
34	0xbd47d691	-0.04878861
35	0x3cf755fe	0.030192371
36	0x3ce95401	0.028482439
37	0xbd47f7a7	-0.048820164
38	0xbc67d688	-0.014150269
39	0x3c7dc5b6	0.0154890325
40	0x3d12a465	0.03580131
41	0x36657226	3.4190102e-06
42	0x3ad46bc3	0.0016206432
43	0x3a5b1309	0.00083570235
44	0x3a332229	0.00068333984
45	0x3bdb4cc4	0.006692501
46	0x3c76310a	0.01502634
47	0xbaa6081e	-0.0012667214
48	0x3bcfb754	0.006338993
49	0x30cb9f6d	1.4815505e-09
50	0x3a3de3b0	0.0007243706
51	0x3d383ae0	0.044978023
52	0x397b216c	0.00023949676
53	0x3d52caeb	0.05146305
54	0x30364974	6.63156e-10
55	0x3b89bc1b	0.004203332
56	0xbd145549	-0.036214147
57	0xbc0d56a5	-0.008626615
58	0x3c47f6ba	0.01220482
59	0xbc83abdf	-0.016073165
60	0x3caabece	0.020842936
61	0xbccc08e2	-0.02490658
62	0xbc6432ab	-0.013928096
63	0xbd1f5f0f	-0.038909014
64	0xbcf9dbbd	-0.030500287
65	0xbcd8fbb5	-0.02648721
66	0xbc921593	-0.017832553
67	0x3bf21070	0.0073872134
68	0x3c79e553	0.015252429
69	0xbc30aa36	-0.010782769
70	0xb44a22c1	-1.882536e-07
71	0xbd4e414a	-0.050355233
72	0x3cfe812a	0.03106745
73	0xb19bd1a8	-4.534929e-09
74	0x3bab1068	0.0052204616
75	0xbbf628eb	-0.007512202
76	0xbc3282dd	-0.010895458
77	0x3b256c10	0.0025241412
78	0x3c1a7042	0.009426178
79	0x3d457f08	0.04821685
80	0x3d044dd2	0.032300778
81	0x3cd5d437	0.026102168
82	0xba90f391	-0.0011058917
83	0x3d3b4baa	0.045726456
84	0xae2876d6	-3.8304325e-11
85	0xbd5125c1	-0.051061396
86	0x3ce7d531	0.0282999
87	0xbb60c5ec	-0.0034297658
88	0x3a4acfaa	0.0007736633
89	0xbcf1861a	-0.02948289
90	0xb93319e6	-0.00017080418
91	0x3cc159af	0.023602335
92	0x3c904916	0.017612975
93	0xbd0751d3	-0.033037018
94	0xb6da6d58	-6.5096356e-06
95	0x3b8f23dc	0.0043682884
96	0x3d01903a	0.031631686
97	0x3d14e10a	0.036347426
98	0x3d4c9bc3	0.049953233
99	0xbcc3f38e	-0.023919847
100	0x3d564e41	0.052320722
101	0xbc7490a0	-0.014927059
102	0xbc4638bb	-0.012098487
103	0x3c6ba30d	0.014382136
104	0xbd4306bf	-0.047613855
105	0xb94dcf13	-0.00019627465
106	0xbd53a6ab	-0.05167262
107	0xbd37cb04	-0.044871345
108	0x3d329b77	0.043605294
109	0xbd367dab	-0.04455344
110	0xb15ee7ff	-3.2437126e-09
111	0xafa7ecb5	-3.0545314e-10
112	0x2f8c8cb8	2.5565838e-10
113	0x31b05afc	5.132618e-09
114	0x379b0457	1.847946e-05
115	0x322dea36	1.0123179e-08
116	0xaf0cce72	-1.280627e-10
117	0xbcfe2cce	-0.031027224
118	0xbcb26022	-0.021774355
119	0xbd1dcc07	-0.038524654
120	0xbd528e3f	-0.051405188
121	0xbcc62d66	-0.02419157
122	0xbc47a0f7	-0.012184373
123	0xbce3f225	-0.027825424
124	0xbbcfe741	-0.0063447063
125	0xbbcaaa3b	-0.006184844
126	0xbbedc4c5	-0.007256123
127	0x3d5157f7	0.05110928
128	0x3d159f1e	0.0365287
129	0xbcf67d5c	-0.030089073
130	0x3c8c8100	0.017151356
131	0x3a3a36cc	0.0007103502
132	0x3bc4abfc	0.0060019474
133	0x3b580309	0.0032960793
134	0x3c5c8a55	0.013460715
135	0xbd30c10a	-0.043152846
136	0x3b7a36dc	0.0038179671
137	0xbd36dfc4	-0.044646993
138	0x3cdb9ddc	0.026808672
139	0x3d201087	0.03907826
140	0x3d4d82e1	0.050173644
141	0x3d2b024a	0.04175023
142	0xbcdacdc9	-0.026709454
143	0x3b61eff1	0.0034475292
144	0x3c6b8fa3	0.014377507
145	0x3d036926	0.0320827
146	0xbd125e50	-0.035734475
147	0x3c1ba2f5	0.009499301
148	0x3cf92f19	0.030417966
149	0xae992152	-6.963553e-11
150	0xba6baac8	-0.0008989987
151	0xbb2bc490	-0.002620969
152	0x3c14e9ec	0.009088974
153	0x383c433d	4.4885313e-05
154	0xbd122c92	-0.035687037
155	0xbbea80d4	-0.007156471
156	0xbc531dac	-0.012885492
157	0xbd1f8f99	-0.038955305
158	0x3a13904a	0.0005629106
159	0xbb2c077c	-0.0026249578
160	0xbd340bb3	-0.04395647
161	0x3d54d8e3	0.05196465
162	0x3bbe2230	0.0058024153
163	0xbd27d12d	-0.04097097
164	0x3b072633	0.0020622134
165	0x3c2eca4c	0.0106683485
166	0x3b00e6e0	0.0019668862
167	0xbd506cb5	-0.05088492
168	0x39838bbe	0.00025090383
169	0x3ca798cc	0.020458601
170	0xbd207c41	-0.039180998
171	0x3d3c4fc2	0.0459745
172	0xbc6f7d69	-0.014617302
173	0x3c04933e	0.008091746
174	0xbc41db9d	-0.011832145
175	0xbb748867	-0.0037312747
176	0x3c22c179	0.009933823
177	0x3b706772	0.0036682752
178	0x3cd63e68	0.026152804
179	0xbd56bd49	-0.05242661
180	0x3cfd4b30	0.030919641
181	0xb0958127	-1.0877884e-09
182	0xbb8b5fe9	-0.0042533767
183	0xbb1394fe	-0.0022519226
184	0xbd57251d	-0.05252563
185	0x3bf1bb97	0.007377099
186	0x3c72a91c	0.014810827
187	0xbd3e2b48	-0.046427995
188	0x3a051ae2	0.0005077553
189	0x3cbb7a67	0.022885514
190	0x2fa8af8f	3.0683764e-10
191	0x3d3959c8	0.045251638
192	0xbb0f636b	-0.0021879326
193	0x3d2dbf67	0.042418864
194	0x3bdf2298	0.006809544
195	0x3b972bc4	0.0046133716
196	0xac00bf77	-1.8296178e-12
197	0x3bc36c35	0.005963827
198	0xbd26ecb0	-0.040753067
199	0x3d34cbaf	0.04413956
200	0x3c77f359	0.015133702
201	0xbc73bb16	-0.014876148
202	0xbaced512	-0.0015780053
203	0xbd492c91	-0.049114767
204	0xbd31ce99	-0.043409918
205	0x3d0abb3e	0.033869974
206	0x3b615470	0.0034382604
207	0x3ce0bbe1	0.027433338
208	0x3d4e76d3	0.05040629
209	0xb2107f78	-8.410886e-09
210	0x3a957947	0.0011403941
211	0xbc977ac7	-0.018491162
212	0x2e0375e3	2.9890656e-11
213	0xbc0696f1	-0.008214698
214	0xbd34b1a7	-0.044114735
215	0x3ca979e3	0.020688003
216	0x37c32996	2.3265176e-05
217	0xabddb1ac	-1.5752308e-12
218	0x3ca7da06	0.020489704
219	0x3c9c87e4	0.019107766
220	0x3cbc2756	0.022967976
221	0x3cf141ac	0.02945026
222	0xb2272c81	-9.730798e-09
223	0xbd1b9450	-0.03798324
224	0x3c4302d0	0.011902526
225	0x3d17d1db	0.03706537
226	0x3ce6a841	0.028156402
227	0x39ea69ee	0.00044710882
228	0x38b19ccb	8.469223e-05
229	0x3c9148ce	0.017734911
230	0x3cf13fb1	0.029449316
231	0xbb0f861a	-0.00219
232	0x3a002b57	0.00048892706
233	0x3ba6cdc9	0.0050904495
234	0x3ce9508c	0.02848079
235	0xbc1d0745	-0.009584253
236	0xbc1897db	-0.009313549
237	0xbccc5b05	-0.024945745
238	0xba1c2f63	-0.0005957989
239	0x3d27104f	0.040787037
240	0xbc9a9abd	-0.018872613
241	0x3d4b4153	0.049622845
242	0x3d2345e6	0.039861582
243	0xbd1892d8	-0.037249416
244	0xba0257a8	-0.0004972168
245	0xbc0824c3	-0.008309546
246	0x3cf415f6	0.029795628
247	0x3b21a7c3	0.0024666644
248	0x3bfedb6c	0.007777622
249	0x3ad2745d	0.0016056407
250	0xb46234a0	-2.1067035e-07
251	0x370af5be	8.282657e-06
252	0x39a47417	0.0003136701
253	0xbcec7082	-0.028862242
254	0x3c85b07f	0.016319511
255	0x3c238442	0.009980263

attention_layer.gate.bias f4 [128]
0	0xbd1efd8f	-0.03881603
1	0x3a5ed4a5	0.00085003144
2	0x3d20b09e	0.039230935
3	0xafa46efe	-2.991029e-10
4	0xb7f3db61	-2.9070014e-05
5	0xbb8921f7	-0.004184957
6	0x3c1cb6fa	0.009565109
7	0x34532160	1.9663048e-07
8	0x3d28808c	0.041138217
9	0xbd568541	-0.052373175
10	0xbbb68023	-0.0055694743
11	0x3b06bb3d	0.002055838
12	0x385917f0	5.1759125e-05
13	0xbd34f78f	-0.044181403
14	0xbb5d56cd	-0.003377366
15	0x350ea171	5.313405e-07
16	0xbcc3c67e	-0.02389836
17	0x2d5eaa6d	1.2657081e-11
18	0x35e9617b	1.7388223e-06
19	0x3d517db7	0.05114528
20	0xbb9e59fa	-0.0048325034
21	0x334bfad0	4.7492733e-08
22	0xbcaec07d	-0.02133202
23	0x3c7df950	0.015501335
24	0xbd3d7b65	-0.046260256
25	0x38c746ba	9.502233e-05
26	0xbc86004d	-0.016357565
27	0xbc09f557	-0.00842031
28	0x3cbae543	0.022814399
29	0xbcb1f194	-0.021721639
30	0x3c84dd63	0.016218847
31	0x3c83acbc	0.016073577
32	0xb4ba8015	-3.4738392e-07
33	0xbc8dbd33	-0.017302131
34	0x3a276b20	0.00063865073
35	0x3a0113be	0.0004923901
36	0xb2bb5f72	-2.1813069e-08
37	0xb9bd1d0f	-0.0003607054
38	0xbc677330	-0.014126584
39	0xbbbdccdb	-0.005792243
40	0xbc350bf9	-0.011050218
41	0x3ca6f988	0.020382658
42	0x3d4e88db	0.050423484
43	0xbc40d733	-0.0117700575
44	0xbd1d3377	-0.03837916
45	0xbd3dbe6b	-0.046324175
46	0xbad0da5d	-0.0015934218
47	0xbd326012	-0.04354865
48	0x3c4c9014	0.012485523
49	0x3ca0fdee	0.019652333
50	0x3d2b96a9	0.041891728
51	0xbd2f9189	-0.042863403
52	0x3b11659b	0.0022185806
53	0xbd1c7d7d	-0.038205612
54	0xbd37c8c0	-0.044869184
55	0x3c972bc0	0.018453479
56	0x3d4d3c75	0.050106484
57	0x3af7a1e5	0.0018892853
58	0xbd546022	-0.051849492
59	0xbd416db3	-0.047223758
60	0x35cb7d03	1.5161062e-06
61	0x3cc0dd9f	0.023543177
62	0xbd2675e8	-0.040639788
63	0x3500cd1d	4.7982195e-07
64	0xbcfad424	-0.030618735
65	0xbcfb9a1c	-0.030713134
66	0xbd39ce30	-0.04536265
67	0xbc8fabf6	-0.017538052
68	0x3d2716ae	0.040793113
69	0xbce515ec	-0.027964555
70	0xb505fb4d	-4.991205e-07
71	0x3d0b5c5f	0.03402364
72	0xbc7d0c87	-0.015444881
73	0x3af7acae	0.0018896067
74	0x3cae197f	0.021252392
75	0xbc284310	-0.010269895
76	0xbc198dc1	-0.009372176
77	0xbcefb2b0	-0.02926001
78	0xbd435694	-0.04768999
79	0xbd3a785e	-0.045524947
80	0x35834e38	9.783025e-07
81	0x378e713a	1.6980444e-05
82	0xbae32375	-0.0017329293
83	0x33c51bd1	9.178587e-08
84	0xbd0eb1cb	-0.034837525
85	0xba149814	-0.00056684134
86	0x3cacb212	0.021081004
87	0x35909f71	1.077524e-06
88	0xbbb9044b	-0.0056462637
89	0x339fcb78	7.441025e-08
90	0xbc192b5c	-0.009348717
91	0xbb2481af	-0.0025101712
92	0x34fb1365	4.6766505e-07
93	0xb6fc8880	-7.526076e-06
94	0x34ad8e79	3.2327424e-07
95	0x3c0d4db6	0.008624485
96	0xbcd1c21e	-0.025605258
97	0xbcffa11b	-0.03120475
98	0x3bc0ae18	0.0058801286
99	0x3d4daac0	0.050211668
100	0xbc972f16	-0.01845507
101	0x3d158aa6	0.03650918
102	0xbc9386b7	-0.018008573
103	0xbc8fbc80	-0.017545938
104	0xbaf2da78	-0.0018528244
105	0xbc87a8dd	-0.016560012
106	0xbc13109d	-0.008976129
107	0x34a71283	3.1119643e-07
108	0x394ec5e6	0.00019719414
109	0xb6601819	-3.3392628e-06
110	0x3c09dd53	0.008414584
111	0xbd4d0a87	-0.050058868
112	0x300ad3e3	5.0505217e-10
113	0xb90a1dee	-0.00013171855
114	0xbd0b787e	-0.034050457
115	0xbaf3dbf2	-0.0018604978
116	0xbd415c70	-0.047207296
117	0xb24ad358	-1.18060015e-08
118	0xb9c03d7e	-0.0003666691
119	0x3d1c9a6f	0.038233217
120	0xbc9a50aa	-0.018837292
121	0x3983ba3b	0.0002512502
122	0x3c2123cb	0.009835194
123	0xbcf2087c	-0.029545061
124	0xb9c19606	-0.00036923605
125	0x3b10653c	0.0022032997
126	0xb4cbb131	-3.794062e-07
127	0xbbb18407	-0.00541735

attention_layer.w.weight f4 [1, 128]
0	0xb91184c2	-0.00013877734
1	0xb76b7c92	-1.4036095e-05
2	0xb81e27fa	-3.7707367e-05
3	0x37ba36de	2.2198477e-05
4	0xbb42ee64	-0.0029744143
5	0x3c815e77	0.015792115
6	0xbcc16078	-0.02360557
7	0xbc5c36e9	-0.013440826
8	0xbd259322	-0.04042352
9	0x39fe683b	0.00048524313
10	0x3cd2a1e3	0.02571196
11	0xbcc333c7	-0.0238284
12	0x3d4f0f14	0.05055149
13	0x3cef7221	0.029229226
14	0x3ced0376	0.028932314
15	0xbccfae8f	-0.02535179
16	0xbcbe101c	-0.02320104
17	0x374a9ddb	1.2076892e-05
18	0x3a4a7d27	0.00077243376
19	0xb8329359	-4.2575735e-05
20	0xbc60bb82	-0.01371658
21	0x3d04e352	0.032443352
22	0x382a8a2a	4.0659834e-05
23	0xbc865a87	-0.016400589
24	0x386f428a	5.704401e-05
25	0x39106435	0.0001377024
26	0x3c1e591c	0.0096648
27	0x3ca2ccbe	0.01987302
28	0xb81afe83	-3.6953494e-05
29	0xbb02944f	-0.0019924825
30	0x3c265863	0.010152909
31	0x3d0d3f96	0.03448447
32	0x3d46d5ce	0.048543744
33	0xbd2a6816	-0.04160317
34	0xb7f2d853	-2.8949382e-05
35	0xbb02a743	-0.0019936122
36	0xbbcf7f8c	-0.0063323434
37	0x3d2fd777	0.042930093
38	0x3d4de805	0.0502701
39	0x3c6658b0	0.014059231
40	0x3d37c4e4	0.044865504
41	0xbb12dfe8	-0.002241129
42	0x3b89c9a7	0.004204947
43	0x3b3e6b76	0.002905575
44	0xbca53255	-0.020165602
45	0x3c5d05d8	0.013490163
46	0x3cdb490a	0.026768226
47	0xbc6d7868	-0.014494039
48	0x38b7d488	8.765707e-05
49	0xb831948b	-4.233843e-05
50	0x3d0a05a4	0.033696786
51	0x3ce436e4	0.027858205
52	0xbc9d27af	-0.019183962
53	0x3d154342	0.036441095
54	0xb9e3d09d	-0.00043452243
55	0x3d442787	0.04788926
56	0x3c909529	0.01764925
57	0xb754c642	-1.2682345e-05
58	0x3ce58e78	0.028022036
59	0xbc6eb914	-0.014570493
60	0x3d3e139e	0.046405427
61	0xb9a94930	-0.0003228872
62	0x3b00aae6	0.0019633113
63	0xbcb60aa3	-0.022221869
64	0x3a5f7b06	0.0008525107
65	0x3bc49c08	0.0060000457
66	0x3b63a896	0.0034737936
67	0xb7a8cb8f	-2.012195e-05
68	0xbd0a9c2e	-0.03384035
69	0x3c9df308	0.019280925
70	0x3cd7f106	0.026360046
71	0xbd3b3e2d	-0.045713592
72	0xbc644c33	-0.013934183
73	0x3b93bc19	0.004508507
74	0x3d48b896	0.04900416
75	0x3caaa96d	0.020832742
76	0x3d09d9f7	0.033655133
77	0xbd02fa62	-0.031977065
78	0x3acd4b7c	0.0015662755
79	0xbc0df022	-0.008663209
80	0xbc637701	-0.013883353
81	0xbd0b370b	-0.03398804
82	0x38266b9a	3.9677696e-05
83	0x3b307d20	0.002693005
84	0xb878800b	-5.9247057e-05
85	0xbc39511e	-0.011310844
86	0xbb2958e1	-0.002584033
87	0xbd2bcb33	-0.041941833
88	0xbc85ff9f	-0.016357241
89	0xbc05a625	-0.008157288
90	0x3bbb7ae7	0.005721438
91	0x3ccd8a16	0.025090259
92	0x3d336cbb	0.043804865
93	0xbb372978	-0.0027948301
94	0x3ca0e40f	0.019639997
95	0x3c64cf23	0.013965401
96	0xbbabc9e0	-0.0052425712
97	0xba80069e	-0.0009767597
98	0xb8885eb4	-6.502625e-05
99	0xb932ff26	-0.00017070453
100	0xbd0854fe	-0.03328418
101	0x3799f62d	1.8353656e-05
102	0x3cf07673	0.029353356
103	0xbcf848ef	-0.030308215
104	0xba96cad8	-0.0011504544
105	0x3b5f59b6	0.0034080571
106	0xbc868f67	-0.016425801
107	0x3c159704	0.009130243
108	0xbb18fc53	-0.0023343756
109	0xbce4778a	-0.027889032
110	0xbb274cd4	-0.002552797
111	0x3baa3ebb	0.0051954663
112	0x37fb655d	2.9968733e-05
113	0xb85e869f	-5.30543e-05
114	0x3c0ee923	0.008722576
115	0xbc4721b8	-0.012154035
116	0x3d10c1e1	0.035341147
117	0xbd228e95	-0.039686758
118	0x3d034238	0.032045573
119	0x3ce59806	0.028026592
120	0xbbb713d4	-0.0055870805
121	0xbd1d856a	-0.03845731
122	0x3805a99d	3.1867636e-05
123	0x3bac78ee	0.0052634394
124	0x3cb678e9	0.022274451
125	0xbbf5847c	-0.0074926
126	0xbd14e2a5	-0.036348958
127	0xb8a71ef3	-7.968945e-05
