dataset/models/CCCA_MetaProg_MP39.Metal.response/model.pth (torch, 696702 bytes, 14 tensors)

tiles_emb.hidden_layers.0.weight f4 [128, 768]
000000 31 62 ef b2 27 63 12 32 a8 63 ae b0 df b2 9d 38
       -2.7867914e-08 8.520863e-09 -1.268849e-09 7.519661e-05
000010 00 29 84 39 a3 e6 5e 35 d8 a4 3f b1 6e 1e e4 34
       0.0002520755 8.3037065e-07 -2.788786e-09 4.249045e-07
000020 7e 89 e6 30 69 a1 b6 b3 f9 e3 30 3b e7 85 37 30
       1.677378e-09 -8.504396e-08 0.002699135 6.67653e-10
000030 69 e6 ce af 4f f6 4e 31 1f 6e cf b1 38 c6 0a b1
       -3.7634898e-10 3.0116956e-09 -6.0370122e-09 -2.0194317e-09
000040 e7 a4 2e b4 ad e5 d1 35 98 6f ba 30 e9 2d 16 b1
       -1.6265004e-07 1.5638558e-06 1.3564998e-09 -2.185397e-09
000050 89 46 05 bc 88 16 91 b0 68 73 95 bb 04 19 3f b1
       -0.008134493 -1.0556542e-09 -0.0045608766 -2.7808378e-09
000060 6c e3 61 3b 5b 1e a6 b6 b1 9a 09 33 02 c4 e5 b3
       0.003446783 -4.9507194e-06 3.203849e-08 -1.0699297e-07
000070 8d d7 96 b1 46 7f 24 ba 62 36 3f b0 88 67 be 32
       -4.39008e-09 -0.0006275069 -6.956268e-10 2.2165992e-08
000080 1c 0e 3e b8 ef 64 0b bc 3f 9b be b7 cc 94 1b b7
       -4.531267e-05 -0.008507951 -2.2722057e-05 -9.273364e-06
000090 0d 07 7f b3 88 ad d4 30 83 98 fc b0 53 0e 6d 32
       -5.9378227e-08 1.5474351e-09 -1.837876e-09 1.3798473e-08
0000a0 c4 29 eb 38 c6 2e 0f b1 1c e7 4a b5 2b 75 87 32
       0.00011213453 -2.0835826e-09 -7.558717e-07 1.576935e-08
0000b0 1a c6 47 32 61 db 2a 33 2e 0b 55 b1 ef 21 c2 bd
       1.1628368e-08 3.9780733e-08 -3.1001934e-09 -0.094791286
0000c0 e8 d7 fa b2 c7 6d be 2e 6b 6a 77 3c ad eb c1 33
       -2.9202013e-08 8.6597e-11 0.015101056 9.030132e-08
0000d0 d2 10 69 b0 d4 c4 74 af 54 e1 11 32 a2 0b 90 ba
       -8.478881e-10 -2.2261598e-10 8.4913445e-09 -0.0010989795
0000e0 ac 2b e3 38 34 d8 af 31 6d e3 6d 30 77 79 b8 b9
       0.00010832338 5.11775e-09 8.654329e-10 -0.00035185713
0000f0 c9 d9 1c 30 a1 64 f3 39 da ea 45 2f b1 df cb b9
       5.706196e-10 0.00046423546 1.8000482e-10 -0.0003888584
000100 d7 1b 61 b0 c9 91 a4 b0 08 1d 19 30 7d 3a ba b1
       -8.1894086e-10 -1.1974005e-09 5.570233e-10 -5.419962e-09
000110 91 54 d3 b1 60 7b c1 b3 8c ce f7 34 5e 9a dd b1
       -6.1505223e-09 -9.0097046e-08 4.6157618e-07 -6.449496e-09
000120 16 08 4e 30 a5 c4 c5 af 4a 86 0d b0 83 21 f0 b2
       7.4953854e-10 -3.5973816e-10 -5.148634e-10 -2.7954917e-08
000130 94 2a cf b4 25 a3 6e bb 14 9a 27 bb b8 a8 ef 31
       -3.8587734e-07 -0.003641316 -0.0025574015 6.9749966e-09
000140 5a 40 46 32 05 d7 af 30 98 a9 94 33 d2 7a 26 30
       1.1539749e-08 1.2794038e-09 6.922636e-08 6.0564986e-10
000150 0a e0 82 30 3d c8 48 b0 48 ff af 32 bd 74 84 3b
       9.522421e-10 -7.304413e-10 2.048877e-08 0.0040422366
000160 28 f0 c0 b4 88 79 d7 31 ae f1 3d 31 e1 8c af 3b
       -3.5937524e-07 6.27114e-09 2.7640499e-09 0.0053573702
000170 d7 fe 0d bc 16 86 f3 33 87 ec a3 b1 88 b7 e8 bb
       -0.008666716 1.13399594e-07 -4.7708144e-09 -0.0071019568
000180 40 33 59 b1 3e bf 31 33 2d f4 42 b1 36 26 00 b1
       -3.1606788e-09 4.1384958e-08 -2.8369513e-09 -1.8648172e-09
000190 e5 79 13 b3 76 74 b4 31 e4 8f 26 30 f4 a2 0e 31
       -3.4336967e-08 5.2519296e-09 6.059493e-10 2.0756348e-09
0001a0 63 95 7d b3 bf 53 d2 2f 4f 3d 18 31 d8 50 65 b9
       -5.904202e-08 3.8258283e-10 2.215376e-09 -0.00021869258
0001b0 ad 86 33 30 0d d6 2a b5 c7 b9 94 b1 1a 06 93 b3
       6.5311206e-10 -6.364142e-07 -4.3284873e-09 -6.846331e-08
0001c0 99 6a 7e b2 b1 4c 89 36 35 4b 5f 38 86 06 f6 33
       -1.4808983e-08 4.091846e-06 5.3237385e-05 1.1456454e-07
0001d0 25 f3 63 ba 25 09 48 36 7b 12 00 b0 b6 c6 32 b1
       -0.0008695594 2.9807645e-06 -4.659239e-10 -2.6015363e-09
0001e0 b3 c1 0d 3b f2 98 ec b0 45 38 9e 32 fb c6 6d b1
       0.0021630346 -1.721473e-09 1.841921e-08 -3.4601146e-09
0001f0 40 98 9d 32 b2 65 d6 af 5c dd fd 2f e6 cc 9a 32
       1.834644e-08 -3.8998632e-10 4.6177717e-10 1.8021137e-08
000200 a3 24 28 38 dd 28 18 31 7f 72 da 30 43 a8 7f 38
       4.0088442e-05 2.214214e-09 1.5894129e-09 6.0953444e-05
000210 89 f5 99 b3 f5 99 3c ae f5 5b c1 37 42 d7 15 b1
       -7.16928e-08 -4.2882992e-11 2.3050214e-05 -2.1804714e-09
000220 5f 89 d6 b3 ca cc 2f 3a 2f 3d 59 30 59 b1 9a 31
       -9.990139e-08 0.0006706236 7.903109e-10 4.502152e-09
000230 46 af a6 b0 d5 b1 cc af d3 d1 fa b0 6f 96 03 30
       -1.2127905e-09 -3.723374e-10 -1.824953e-09 4.78713e-10
000240 61 cf 3c b5 04 86 0e 32 57 48 21 3a 04 b7 8b 3c
       -7.0337234e-07 8.2959595e-09 0.0006152442 0.017055042
000250 ce ea c7 af 47 c7 5d 3a 0b de 87 30 1e 00 08 b0
       -3.6364728e-10 0.00084601756 9.885651e-10 -4.947668e-10
000260 ce 3e 7b 31 a4 6e 8c 2f 78 0d aa ba 40 07 84 b2
       3.6561008e-09 2.5544467e-10 -0.0012973985 -1.537012e-08
000270 ad 33 a5 2f 27 2d 4f ba 8f f8 0c bc a6 f8 61 30
       3.0050043e-10 -0.00079031516 -0.008604183 8.2207874e-10
000280 cd 4e 04 31 02 27 cb b8 00 3a 60 39 c1 5c 3e 32
       1.9253321e-09 -9.68706e-05 0.00021383911 1.1080545e-08
000290 80 83 cf 2e 3b 4a 1e 30 12 4c 1b 32 a8 ba e1 bb
       9.436629e-11 5.7585553e-10 9.039484e-09 -0.0068887062
0002a0 0c f5 20 b0 ea fa 80 b0 e9 9a d2 2f 04 b1 5c 30
       -5.8555893e-10 -9.38454e-10 3.8308848e-10 8.028709e-10
0002b0 26 da 94 3a 54 05 dd 30 b0 1a 88 b3 c1 cc f3 38
       0.0011356517 1.6081381e-09 -6.337848e-08 0.00011625281
0002c0 23 ca 84 b9 98 c5 1e b3 89 d2 b1 30 ba ec 71 32
       -0.00025327606 -3.6966952e-08 1.2938283e-09 1.4081872e-08
0002d0 27 92 dd b1 57 11 0c b3 25 11 1e 31 64 54 09 b0
       -6.448562e-09 -3.261206e-08 2.3001772e-09 -4.9960236e-10
0002e0 35 91 d0 3a be eb 91 30 3b 52 f8 32 12 e8 87 37
       0.0015912416 1.061714e-09 2.8908394e-08 1.620132e-05
0002f0 7f 00 3a b2 ad 36 1d b0 ec 6e ee 30 d7 1a c6 b2
       -1.0826738e-08 -5.7193966e-10 1.7348305e-09 -2.3062439e-08
000300 d1 dd 3b 31 a4 f9 56 b8 f2 b8 15 31 c6 57 12 31
       2.733817e-09 -5.1254072e-05 2.1787483e-09 2.129569e-09
000310 72 7a 1d b0 78 9e e4 b1 c3 2b ba b1 5a f5 d5 36
       -5.729027e-10 -6.653689e-09 -5.4182876e-09 6.3764573e-06
000320 cc 3c f1 af 40 c1 51 31 ec b7 66 b0 50 5d 9c b2
       -4.3880843e-10 3.0523353e-09 -8.393488e-10 -1.8203224e-08
000330 de 4f 72 b1 7a af 0d 33 4c e4 6c b0 f9 b9 c1 2e
       -3.5261034e-09 3.2988716e-08 -8.618073e-10 8.809659e-11
000340 6a 20 1a 30 b8 55 79 37 92 33 c5 b2 8b 7d 9c b3
       5.6070937e-10 1.48615145e-05 -2.295727e-08 -7.287152e-08
000350 4c c4 2c 30 f4 a8 b3 b2 05 3d ac b2 f3 2a 4c b0
       6.285219e-10 -2.0915174e-08 -2.0051184e-08 -7.42758e-10
000360 7d 54 a6 3a 4c 68 a1 37 34 b2 15 bc 52 6a 44 b5
       0.0012689974 1.9241263e-05 -0.009136725 -7.3170406e-07
000370 ce 20 2c 33 c1 a0 6a b0 ff 76 a8 b2 4c e7 39 ba
       4.0076706e-08 -8.535715e-10 -1.9611887e-08 -0.0007091656
000380 24 61 85 b1 20 23 79 af a1 b2 4c 31 42 da 5d 3c
       -3.881853e-09 -2.2658897e-10 2.9787446e-09 0.013540806
000390 a2 de da b0 80 f0 3b b0 5f 05 7f 31 44 95 ca b1
       -1.5924864e-09 -6.8371975e-10 3.7110437e-09 -5.8959433e-09
0003a0 53 0e 1c b2 29 cd cf 30 ed 41 bc 33 5e df 64 2f
       -9.083652e-09 1.5119542e-09 8.766424e-08 2.0815835e-10
0003b0 66 fd 2a 3c 06 f4 22 2f 8b 16 02 32 8b cd 75 35
       0.010436391 1.4820509e-10 7.572122e-09 9.1568717e-07
0003c0 67 fd 33 b3 55 9e 97 31 82 15 21 b2 1d f7 37 af
       -4.1907153e-08 4.4126787e-09 -9.376324e-09 -1.6731545e-10
0003d0 e7 af 1d b1 4c ab 37 35 e9 50 12 30 fa d5 71 b0
       -2.2946496e-09 6.842208e-07 5.322947e-10 -8.797937e-10
0003e0 9f 8b 75 ba 8a 37 98 b0 17 b4 13 b7 bc 4a cf b1
       -0.00093668135 -1.1075241e-09 -8.803813e-06 -6.032989e-09
0003f0 17 07 3d ba 06 20 41 35 25 fb fb ba 06 6a 92 39
       -0.00072108343 7.1944703e-07 -0.0019224627 0.00027926284

tiles_emb.hidden_layers.0.bias f4 [128]
000000 41 b9 3a be 57 77 10 b7 2c 4d aa b3 26 f6 65 bf
       -0.18234731 -8.610855e-06 -7.9302794e-08 -0.8982872
000010 44 56 0c bf f9 98 01 be 98 9f 28 bf 7b 23 49 be
       -0.5481913 -0.1265601 -0.6586852 -0.19642441
000020 73 e4 df 3b 61 53 45 be 90 34 17 bf 9a cc d2 bd
       0.006832653 -0.19270088 -0.5906458 -0.10292931
000030 0e 51 fd be 89 4b 49 bd 2c 67 bb bd 2e 1f 01 bf
       -0.49475902 -0.0491443 -0.09150538 -0.504382
000040 78 38 dc be e1 35 9b bd 05 e5 c2 be ae 33 bb be
       -0.43011832 -0.07578636 -0.38065353 -0.36562866
000050 73 b2 60 be b5 0d e0 be dd 7d a8 be d2 b3 b8 be
       -0.21943073 -0.43760458 -0.32908526 -0.36074692
000060 84 b4 f5 be 23 11 d1 bc da 08 e5 be 0b 7e c4 be
       -0.47989285 -0.025520867 -0.44733316 -0.38377413
000070 18 dd 09 bf 7b e6 ec be 04 ae d5 be 2c 1d fb be
       -0.5385299 -0.46269593 -0.41734326 -0.49045694
000080 ad 2a ae be 44 c6 0e bf 5f 26 1e bd df eb df be
       -0.34016934 -0.5577128 -0.038610812 -0.43734643
000090 8d aa 31 be 3a 1a d6 bd 1d 62 4b be 7e ff 0a bf
       -0.17350216 -0.10454221 -0.19861646 -0.542961
0000a0 07 64 0b bf 68 90 3e be cd 9f 0a bf 00 c9 2c b9
       -0.54449505 -0.18609774 -0.54150087 -0.00016478077
0000b0 7c e2 d9 be 4d 13 f6 be 2b 60 15 bf d8 32 d7 be
       -0.42555606 -0.480616 -0.58349866 -0.42030978
0000c0 06 39 ed bc 8e 65 c4 be 84 8f 2a be c5 69 5a be
       -0.028957855 -0.3835873 -0.1665631 -0.2132941
0000d0 f5 8f bd b9 06 21 fe be 27 20 7f bc c9 bd 44 bd
       -0.00036156146 -0.4963457 -0.015571631 -0.048032556
0000e0 e1 49 d8 bb 84 ef bb bd 6e 68 bc 3b 5b 01 0e bc
       -0.006600604 -0.09176543 0.0057497537 -0.008667315
0000f0 e9 6f e4 bd 5a 79 03 bf 57 b5 10 bd ce d7 ce be
       -0.11154158 -0.5135704 -0.03532919 -0.4039902
000100 4c 20 49 be 14 a6 b2 bd 6d fe 9c be 0d 93 ed be
       -0.19641227 -0.08723083 -0.3066286 -0.46401253
000110 11 91 d1 bd 2f 0c 07 bf ac 56 ba be 3a 37 79 be
       -0.10232747 -0.52752966 -0.3639425 -0.24337474
000120 d5 a4 81 bc 2c ed 09 be 8f 54 22 bf f8 b3 e6 be
       -0.015825668 -0.1346938 -0.63410276 -0.4505918
000130 73 be 11 bf ae b4 72 be 83 f0 19 bf 1a ca a5 be
       -0.5693123 -0.23701736 -0.60132617 -0.32380754
000140 24 0f 34 3e 5f 48 d8 be 0f 31 94 bd ca a3 e9 be
       0.175839 -0.42242715 -0.0723592 -0.45632774
000150 3f 15 bf be 23 9d af ba 36 e3 49 bf 1c c9 0c bf
       -0.37320897 -0.0013398271 -0.7886232 -0.5499437
000160 f1 98 07 bf 12 9a 94 be 95 83 ad be 04 a6 b9 bd
       -0.52967745 -0.29023796 -0.33889452 -0.09064868
000170 d2 67 dd be a9 cf e7 be ed d6 18 bf 6e ec cd be
       -0.4324327 -0.4527562 -0.5970295 -0.40219444
000180 c8 bb 9a b8 02 4b f4 be 0e 4a 19 bd 9a 74 f1 be
       -7.378269e-05 -0.47713476 -0.03742414 -0.47159272
000190 b4 09 fb be ba 93 aa bd dd 1a 1c bf 89 d2 00 bf
       -0.4903084 -0.08328958 -0.6097849 -0.5032125
0001a0 4d c9 f0 be de 8e d8 be de 8c 06 bf 82 10 f1 bb
       -0.4702858 -0.422965 -0.52558696 -0.007356704
0001b0 e0 67 d5 be a1 99 cc be db 89 00 bf 66 a3 d1 b8
       -0.41680813 -0.3996096 -0.5021035 -9.996332e-05
0001c0 00 60 a5 be 6a 77 4c bd 49 b2 8b be ec 29 f2 be
       -0.32299805 -0.04991857 -0.27284458 -0.4729761
0001d0 99 c5 7c bd b3 2a a4 be 53 d7 da be 28 6a e5 be
       -0.06171188 -0.32063827 -0.42742404 -0.44807553
0001e0 60 d2 77 be f4 a4 a1 be 18 9f b8 be 4d d2 38 bf
       -0.24201345 -0.31571162 -0.3605888 -0.72195894
0001f0 19 7c ab bc e7 59 05 bf 2b d9 19 bf 61 15 a3 be
       -0.020933198 -0.52090305 -0.60097 -0.31852248

tiles_emb.hidden_layers.2.weight f4 [128, 128]
000000 74 a3 e9 3d d2 ff 7b 34 09 91 ac 30 58 6f 1b bd
       0.11408129 2.3469264e-07 1.2555869e-09 -0.037947983
000010 98 62 d1 3e 63 8f bb 3e 2e 61 13 3f cd 9a 34 ba
       0.40895534 0.36632833 0.5757016 -0.0006889522
000020 e2 43 1d 3d ea 53 80 3d ba a9 fe 3e 49 01 7d 3e
       0.038394816 0.06266005 0.49738866 0.24707521
000030 60 cb 0a bf db 27 d8 3e 4f 4b ca 3e 48 b8 29 3f
       -0.54216576 0.42217907 0.3951058 0.66296816
000040 a2 b4 d6 be 71 41 ee 3d 68 c1 ed 3e 68 7d 9a be
       -0.41934687 0.11633576 0.4643662 -0.30173802
000050 5f 86 ab 3e b0 55 d2 3e 71 0a cd be 86 b4 e1 3e
       0.33500955 0.41081 -0.4004703 0.4408304
000060 27 42 22 3f 3d a2 e1 3d 21 69 ca be 1c 19 ac be
       0.6338219 0.110172726 -0.39533332 -0.33612907
000070 30 0f 29 3f 9b d8 d0 be cb a0 92 be 08 45 d5 3e
       0.660388 -0.40790257 -0.286383 0.4165423
000080 18 e7 c8 3e 98 9c 18 3f 15 3d c1 30 0b b3 e3 be
       0.3923881 0.59613943 1.4059959e-09 -0.44472536
000090 73 d8 e8 3c c4 4b c5 3e 46 14 76 3e 9e 63 e3 3e
       0.028423524 0.38534367 0.24031171 0.4441194
0000a0 d4 52 e8 3e c5 a7 cd 3e 3a 7c f0 3e 66 42 b1 3b
       0.45375693 0.4016706 0.46969777 0.0054095266
0000b0 49 18 c8 3e 76 a4 1b 3f 0c 2d 6b be 34 37 ad be
       0.39081028 0.6079782 -0.22966403 -0.3383118
0000c0 6a ec cc 3b 27 a1 09 3f 4c ea 8c 3e 5c 08 c8 3e
       0.0062537687 0.53761524 0.27522504 0.39068878
0000d0 3c 0e 38 3d 7d 90 41 3f de 6f 63 3c d0 a7 a6 3e
       0.04493545 0.75611097 0.013881652 0.32549906
0000e0 f7 cd ad 3e 0a 9f be 3e cd 02 1f 3e 1d 37 cf 39
       0.339462 0.37230712 0.15528412 0.0003952318
0000f0 83 c0 16 3d c9 92 25 3f ca 3c b2 3d 9a 88 96 be
       0.036804687 0.646771 0.08703001 -0.29401094
000100 4d 12 aa 3e 69 82 89 3e 22 04 69 be 94 75 13 3f
       0.33217087 0.26857308 -0.22755483 0.57601285
000110 cc 66 bc 3e e3 9b d1 3e 1e 5c 15 3d e8 b8 cd 3e
       0.36797178 0.40939245 0.036464803 0.40180135
000120 5d b9 5a 3e 89 18 b9 3e c4 dc 8e be 15 05 c3 3e
       0.21359773 0.3615153 -0.27902806 0.38089815
000130 2f 9a 22 3f dc f6 28 3e 83 19 8c be 91 64 9b 3c
       0.63516515 0.1650042 -0.27363214 0.018968852
000140 38 4c 2c 3f 07 8a c9 3e 48 e0 94 3a 80 88 12 3f
       0.673038 0.3936312 0.0011358345 0.5723953
000150 25 b6 d0 3e ec 50 d0 3d 39 ec dd 3e 4b 01 eb 3e
       0.40763965 0.101716846 0.43344286 0.45899424
000160 44 ce f0 3e 3d ee bd af 7d 7d bf 3e b9 45 20 3e
       0.47032368 -3.4548178e-10 0.37400427 0.15651597
000170 6d c7 b8 be 58 02 e8 3e b7 cd a7 be db 16 c1 be
       -0.3608965 0.45314288 -0.32774135 -0.3771275
000180 4f a9 10 36 49 37 32 3f a2 d3 d3 3e 38 bd fb 3e
       2.1556223e-06 0.6961561 0.413724 0.491678
000190 ee 17 1b 3f 72 20 b9 3c 93 98 c5 be c5 66 e9 3e
       0.6058339 0.022598479 -0.38592967 0.4558622
0001a0 92 5c 3b 3f a6 0b d3 be 27 c4 ef 3e c0 6b f8 af
       0.73188126 -0.41219825 0.4682934 -4.5187498e-10
0001b0 ea f2 d4 be 0e dc 27 3f eb 53 1f 3f 14 19 97 3c
       -0.4159158 0.6557015 0.62237424 0.018444575
0001c0 9c 78 c8 3e 84 02 e6 3e 60 2c b0 3e 6e bf 0d bf
       0.39154518 0.44923794 0.34408855 -0.55370224
0001d0 36 41 a4 3c bc a6 e3 3e d2 97 d2 be 3c 5a 27 3f
       0.020050626 0.44463146 -0.41131455 0.6537206
0001e0 4b ce 85 3e 4f 78 a5 be f9 30 be 3e 50 c7 6d be
       0.26133952 -0.3231835 0.37146738 -0.23220563
0001f0 38 09 73 3b 4d 37 14 3f a9 62 94 bd 41 5f bf be
       0.0037084352 0.5789688 -0.072453804 -0.3737736
000200 c7 7e 39 3e bd 7e 6e b5 ee 27 84 b1 6a bc 12 3f
       0.18114768 -8.884634e-07 -3.846245e-09 0.5731875
000210 07 1c e0 be 50 49 d6 3e c6 0d f0 be 79 fd 3d 3c
       -0.43771383 0.41852808 -0.46885508 0.011596077
000220 ec 45 d8 3d c6 f6 0b 3e 9c 7c 0d bf 3c ac bb 3e
       0.105602115 0.13668355 -0.55268264 0.36654842
000230 f5 4a e3 3e 34 25 fb 3e 1b d4 dc 3e c4 1f 07 3e
       0.44393125 0.4905182 0.43130574 0.13195711
000240 3e 1a c1 3e b3 47 7b 3e fc 22 18 bf 2a 6f 07 3f
       0.37715334 0.2453907 -0.5942838 0.52904
000250 14 fc cd 3e 03 a0 14 bf 22 34 db 3e ea 3d f3 be
       0.40231383 -0.5805666 0.42813212 -0.47508174
000260 dc 6d cf 3e e9 8d 4e 3e 9f 26 8c 3e 42 3d 05 3f
       0.40513504 0.20171322 0.27373216 0.52046597
000270 ed 51 a4 3e 34 d2 dd 3e 2f 34 e8 3e 4e cf fa be
       0.32093754 0.43324435 0.45352313 -0.48986286
000280 4d 9d d7 be 49 b4 0a 3f a6 5d ac b1 d0 d7 c7 3e
       -0.42112198 0.54181343 -5.0165054e-09 0.3903184
000290 8c 61 95 3d 84 52 4d 3d 2d 7e a0 3e 41 4a ce be
       0.07293996 0.05012752 0.31346264 -0.40291026
0002a0 fc d1 da be 9b 23 05 3c 9d ff e2 be 72 89 e4 3c
       -0.4273833 0.008126165 -0.44335642 0.02789757
0002b0 72 0e c5 be 9e a6 b3 3e 8f e8 c3 3e d1 d8 c1 3e
       -0.38487583 0.35088056 0.38263366 0.3786073
0002c0 81 06 30 3d cd c0 c5 3e 33 02 e0 3e 7e e3 d0 3e
       0.042974953 0.38623658 0.43751678 0.40798563
0002d0 36 24 ec 3d 02 54 fe bc 4c f4 3b 3d 42 a0 00 3f
       0.11530344 -0.031045917 0.045887277 0.50244534
0002e0 44 72 c1 3e cb a9 c5 3e ad 4d 75 3e 51 37 1f 3c
       0.3778249 0.38606104 0.23955412 0.009717778
0002f0 1b ac c8 3d b5 43 59 bc ff d1 43 3e 1b 8e c1 3e
       0.097984515 -0.0132607715 0.19123076 0.3780373
000300 47 3d e0 3e c7 a7 bc 3e 6c d3 07 3f 86 7a b0 3e
       0.4379675 0.36846754 0.5305698 0.34468478
000310 89 83 02 3f 74 80 d7 be ce 67 af 31 3c dd 86 bd
       0.50981957 -0.4209019 5.1049716e-09 -0.06585166
000320 43 4b 99 3e 21 c4 0b 3d 06 a9 9e be b0 9e d0 be
       0.29940233 0.03412259 -0.3098833 -0.4074607
000330 0f d2 b2 3e c2 34 70 3e d9 58 80 3e 45 4d 81 3d
       0.34925887 0.23457626 0.25067785 0.06313566
000340 01 6f ec 3e fa fe f8 be 29 32 74 3c 98 1c bc 3e
       0.4617844 -0.48632032 0.014904537 0.36740565
000350 d1 4a fb be 55 63 70 3e eb b0 08 bf ba e1 1a bf
       -0.49080518 0.23475392 -0.53394955 -0.6050068
000360 15 ee e6 be 7a f4 ab 30 26 b6 9e be 2f 1d 91 3e
       -0.45103517 1.2511372e-09 -0.30998343 0.28342578
000370 b4 9e b2 3e 69 89 ea be 9b 9f 85 3e e2 d3 f8 3e
       0.34886706 -0.4580796 0.26098332 0.48599154
000380 68 8d 95 b6 34 76 8e 3e 9b fc 01 3f 34 14 f4 be
       -4.457008e-06 0.27824557 0.5077607 -0.47671664
000390 aa f8 c8 3e 6c 26 90 3d 97 a2 b3 3e 1b 26 e0 3e
       0.39252216 0.070385784 0.35084984 0.43779072
0003a0 e4 ab 61 bd fd 75 85 3e 49 f2 0c bf 7e 17 54 31
       -0.05509557 0.2606658 -0.550572 3.0863414e-09
0003b0 1a 25 0c 3f e0 8d f5 be 40 b2 7c 3e 01 91 87 3d
       0.5474411 -0.47959805 0.24677372 0.06619454
0003c0 81 98 c5 be 3c 0e 00 3f 80 70 05 3f 19 9f f0 3e
       -0.38592914 0.5002172 0.52124786 0.46996382
0003d0 c4 da ac 3d ea 05 bb be 4d 9c 12 3f fd e2 d5 3e
       0.08440164 -0.3652795 0.57269746 0.4177474
0003e0 62 0b a7 3e 66 35 cc 3e 4e 58 f9 3e e3 ed 8f 3e
       0.32625872 0.3988449 0.48700184 0.2811118
0003f0 dd 73 ca 3c 27 1e 92 3e 3a 40 ea be d1 b7 c9 3e
       0.024713451 0.2853863 -0.45752126 0.39398053

tiles_emb.hidden_layers.2.bias f4 [128]
000000 0c c4 80 be a7 b0 47 3f 01 86 1e bf 01 e2 36 bf
       -0.25149572 0.78003925 -0.61923224 -0.71438605
000010 67 ab 69 be df aa 73 3e 09 90 32 bf 77 bc ac be
       -0.22819291 0.23795651 -0.6975103 -0.33737537
000020 f6 74 43 be f0 97 45 bf f8 94 24 3f a6 01 86 be
       -0.19087586 -0.77184963 0.6428981 -0.26173133
000030 8f e8 0d bf 3f 56 84 be 4f 91 56 be 99 b6 1c bf
       -0.5543298 -0.2584705 -0.20953868 -0.6121612
000040 51 b5 6f 3e da e6 94 3e 03 13 74 3e 48 e8 1d 3f
       0.2340901 0.29082376 0.23835377 0.6168256
000050 d5 47 4b bf 57 24 4e 3f 99 29 4a bf 4a 4c 2e 3f
       -0.7940648 0.805242 -0.78969723 0.6808516
000060 2b 15 79 be ee 79 88 be 67 f2 87 be 05 d3 48 3f
       -0.24324481 -0.26655525 -0.26552126 0.7844699
000070 f0 32 4a 3f da eb 48 bf f2 59 73 be 3e 31 96 3e
       0.78983974 -0.7848488 -0.2376478 0.29334444
000080 09 e7 b7 3d 0d 29 93 be 5f 23 5a bf ca 1c 83 be
       0.08979613 -0.28742257 -0.8521022 -0.25607902
000090 7b 4b 45 3f 9f 79 13 be 70 9c 44 3f 11 50 28 3f
       0.770683 -0.14401864 0.76801205 0.6574717
0000a0 89 58 bf 3e 8a 17 a6 be 96 48 64 be 2a 98 40 bf
       0.37372234 -0.32439834 -0.22293314 -0.75232184
0000b0 a0 96 52 be 31 dd 7c 3e cf df 6d be b5 12 7c be
       -0.20565271 0.24693753 -0.23229907 -0.24616511
0000c0 e0 0d 39 3f b4 b5 4e bf 35 64 2b bf 24 e7 4f be
       0.72286797 -0.80746007 -0.6694978 -0.20303017
0000d0 7c 9f 87 3e 48 8b 6e 3e bd b9 45 be a3 97 2c bf
       0.26488864 0.23295319 -0.19309135 -0.6741888
0000e0 a0 b7 87 be c6 3a 31 3f 44 aa 5c 3f 2b 47 a2 be
       -0.26507282 0.69230306 0.86197305 -0.31694922
0000f0 65 0f 79 3e e0 d6 7c be 68 e0 37 bf 80 af 77 bd
       0.24322279 -0.24691343 -0.7182679 -0.060470104
000100 f1 de 40 ba b8 96 80 be f5 04 30 3f e7 5f 7f be
       -0.00073574396 -0.2511499 0.68757564 -0.24938928
000110 e1 9d 3a 3f 66 6c 69 be f2 93 92 be cf ca 44 bf
       0.72897154 -0.22795257 -0.28628498 -0.7687196
000120 9a ac 69 3e 09 9f 8b 3e 68 ad 34 be f5 17 91 be
       0.22819749 0.27269772 -0.17644274 -0.2833859
000130 12 41 6e 3e fd c6 8e be cd bb 3e 3f a9 4b 91 be
       0.2326701 -0.2788619 0.7450531 -0.28378037
000140 b8 a4 75 3e 10 ee 4f 3f 3d 4a 07 bf 18 c8 5c 3f
       0.23988616 0.8122263 -0.52847654 0.8624282
000150 2d 2d 81 3e 2b 2b 60 bf 72 2c 39 3f fc db 57 3e
       0.2522978 -0.8756587 0.72333443 0.21080011
000160 41 9b 53 3e 6f 7c 7f 3e 0f e2 81 3e 3e 75 35 3f
       0.20664693 0.24949811 0.25367782 0.7088202
000170 ed b5 58 bf dc 78 34 bf 28 c1 82 3e be fc 46 3f
       -0.84652597 -0.70496917 0.25537992 0.77729404
000180 d4 9a 51 3f 66 86 7b 3e 44 50 2c bf d6 52 44 3f
       0.81876874 0.24562988 -0.67309976 0.766889
000190 5e a9 8a 3e 49 1e 41 3f 11 81 42 bf c8 20 7d 3e
       0.27082342 0.75436836 -0.7597819 0.24719536
0001a0 24 91 9b be 0c 36 05 bf d9 de 92 be 54 04 41 bf
       -0.3038417 -0.52035594 -0.28685644 -0.7539723
0001b0 e8 92 52 3f 8d 02 84 3e 7e a9 49 3f 45 b3 0e bf
       0.8225541 0.25783196 0.7877425 -0.55742294
0001c0 54 d1 35 bf 68 22 7c be 47 04 53 bf 3a 39 85 be
       -0.71022534 -0.246225 -0.824284 -0.26020223
0001d0 86 69 95 3e b4 5a 86 be 8a 15 9f 3e 98 96 48 3f
       0.2918207 -0.26241076 0.3107112 0.7835479
0001e0 30 2c 3e bf ef 78 ee 3c 47 5a 85 3e ea 86 8c 3e
       -0.74286175 0.0291104 0.2604544 0.2744668
0001f0 fd 99 55 3f 94 73 80 3e ff b6 4b bf d5 2e 8c be
       0.8343809 0.2508818 -0.79576105 -0.2737948

attention_layer.att.weight f4 [128, 128]
000000 c1 5b 3c 2f 7d f0 96 ad 1e 0e 5f b0 ac 24 8e 2f
       1.7131098e-10 -1.7159824e-11 -8.114699e-10 2.5855706e-10
000010 6f ff 8f af 9f 83 01 30 bd 49 9f ae c3 10 cc 2f
       -2.6193045e-10 4.711697e-10 -7.2435814e-11 3.7119294e-10
000020 e5 c3 e6 2f a3 00 a8 af 1b 14 d0 af c9 3e 32 2f
       4.1975948e-10 -3.0559474e-10 -3.7849265e-10 1.6211311e-10
000030 b6 e0 3e 2e f1 21 02 30 ee 23 05 b0 39 23 0b 2f
       4.3400582e-11 4.734196e-10 -4.843618e-10 1.265449e-10
000040 66 ba d1 2e 22 c2 31 2f 3d d0 2e af e8 5c 8c 2f
       9.5373306e-11 1.6167026e-10 -1.5899189e-10 2.5531866e-10
000050 01 35 da 2e 43 48 bf ae 62 5a c3 af fd ad b1 af
       9.9229076e-11 -8.698511e-11 -3.5534514e-10 -3.2319739e-10
000060 58 a7 e2 af 7e e3 d6 2f 64 93 8d af 9c 86 9c ae
       -4.1228065e-10 3.9088016e-10 -2.5752478e-10 -7.11797e-11
000070 d7 75 be af 95 0a 1f 2f 00 90 93 ae cb 77 2e 2e
       -3.464453e-10 1.4464725e-10 -6.7103656e-11 3.9669417e-11
000080 16 32 c8 2f d5 5b cb af fb e3 4f af e4 36 4b 2f
       3.6415376e-10 -3.6990735e-10 -1.8907535e-10 1.8482244e-10
000090 fe d6 46 af e8 90 56 b0 81 f7 2a 30 ab f0 19 b0
       -1.8084376e-10 -7.805867e-10 6.2197364e-10 -5.6003086e-10
0000a0 f1 9f 2c b0 66 42 fd 2f 15 c4 95 af 2a c2 aa af
       -6.2800526e-10 4.606761e-10 -2.7242267e-10 -3.1060782e-10
0000b0 9f 0c d2 af d7 e1 d0 2e 29 fc 03 af 21 83 29 b0
       -3.8207745e-10 9.498862e-11 -1.2003966e-10 -6.1668187e-10
0000c0 55 a0 25 af 06 70 26 30 0e 82 b8 2f b3 19 25 30
       -1.5063624e-10 6.0549643e-10 3.3561814e-10 6.006317e-10
0000d0 dc 8a 67 2d 1c 7e 2d b0 50 19 5f 2c a7 72 40 2f
       1.3161663e-11 -6.3116246e-10 3.1704257e-12 1.7503031e-10
0000e0 4c 61 23 ae b9 d5 19 af 06 67 13 30 ad ec 09 30
       -3.7148326e-11 -1.3991198e-10 5.3624694e-10 5.0176646e-10
0000f0 f0 54 89 2e 51 76 df af d3 c5 55 2f 9c 85 98 af
       6.2451266e-11 -4.0647533e-10 1.9442518e-10 -2.7743574e-10
000100 87 ef 91 2f 5f 6f 8c 2e 1f 5d 35 b0 35 f2 91 af
       2.654554e-10 6.3862464e-11 -6.597975e-10 -2.6547445e-10
000110 da ac 00 b0 dd 53 3e 30 fa 6d 76 af 87 e1 c1 af
       -4.6811766e-10 6.9240774e-10 -2.2412641e-10 -3.5266742e-10
000120 92 36 d4 2f ac e4 5a 2e b3 a0 66 ae 0d bd 97 2f
       3.860135e-10 4.9770563e-11 -5.2438675e-11 2.760107e-10
000130 ec 76 d0 af b9 01 e4 af 73 bf 12 30 30 10 cb 2b
       -3.791948e-10 -4.1474182e-10 5.3386556e-10 1.442851e-12
000140 8d be 1f b0 be 33 d4 af 2f 99 47 af c2 cf c7 af
       -5.811465e-10 -3.859934e-10 -1.8153366e-10 -3.634551e-10
000150 1d 53 ec ae 48 32 09 2f 12 26 19 30 91 d3 47 af
       -1.07468014e-10 1.2477941e-10 5.5715177e-10 -1.8174108e-10
000160 c6 ee 3c 2f ae d6 50 2f 65 6b 02 b0 0a 92 a8 2e
       1.718333e-10 1.899376e-10 -4.744634e-10 7.665697e-11
000170 ee 44 29 b0 78 b0 93 af 66 90 66 2f e4 c1 65 30
       -6.1579797e-10 -2.6864533e-10 2.0969679e-10 8.358525e-10
000180 57 d6 0d 30 1d f5 59 2e 0b 86 a5 ad 37 4b b7 2f
       5.1600096e-10 4.9557792e-11 -1.8817855e-11 3.334095e-10
000190 2d 9b 34 b0 36 37 7d af d6 da 98 2f 48 9f 3f ae
       -6.5704137e-10 -2.3029831e-10 2.780413e-10 -4.3569842e-11
0001a0 b5 65 5b af 4b 71 46 af 1b 67 82 2f e1 14 05 ae
       -1.9954068e-10 -1.8048245e-10 2.3720123e-10 -3.0259243e-11
0001b0 9f ff 6f 2f 66 fe 59 2f 57 a9 9b 2f ae e0 1a 2f
       2.1827738e-10 1.9826416e-10 2.831466e-10 1.408604e-10
0001c0 e1 22 b9 2f ab 5a 11 b0 eb 6f c1 2d b0 c8 02 b0
       3.3676087e-10 -5.287954e-10 2.1991261e-11 -4.757892e-10
0001d0 12 a5 44 af 70 0c 52 2c d6 d6 e7 2f 8d 2c 87 af
       -1.7884741e-10 2.98497e-12 4.2171305e-10 -2.4588012e-10
0001e0 70 df 76 2f c2 f5 79 ad eb 30 c8 ae 61 2d 40 b0
       2.245295e-10 -1.42085805e-11 -9.1036366e-11 -6.991368e-10
0001f0 c9 d6 32 2f 91 dc ac af 6d 2e 8a 2f 26 c8 ee af
       1.6265313e-10 -3.144334e-10 2.513504e-10 -4.3434162e-10
000200 24 0a 71 b0 0f e6 01 af 72 c9 03 33 0a ff d9 af
       -8.76897e-10 -1.1814215e-10 3.0684028e-08 -3.9653286e-10
000210 8f d2 05 31 65 41 c6 32 3c b1 2a 30 e9 98 3e b0
       1.9473736e-09 2.3079972e-08 6.2097505e-10 -6.9338896e-10
000220 b3 90 f7 b0 ea 9f 53 b0 7d 58 35 31 11 9a c7 b0
       -1.8012741e-09 -7.6988604e-10 2.6389266e-09 -1.4522944e-09
000230 b3 17 0f b0 33 8c 1d 31 dc 98 16 b1 5e 5b bc 2f
       -5.2056776e-10 2.29262e-09 -2.1914763e-09 3.426192e-10
000240 f0 f0 0b 30 4d c3 af 2f b3 ed 45 b0 b1 8e 30 30
       5.09103e-10 3.1971084e-10 -7.2005973e-10 6.4231204e-10
000250 6a 72 d1 ae c3 c5 40 2f cc ec 5b b0 c9 80 c6 30
       -9.524544e-11 1.7532557e-10 -8.0008244e-10 1.4442999e-09
000260 a0 8f 48 af b6 a4 c0 2f 48 7b ea 30 4d e2 28 2f
       -1.824092e-10 3.504163e-10 1.706078e-09 1.5359909e-10
000270 fc c8 04 b2 73 3e a2 b0 5a 1b 16 31 d3 4d c0 30
       -7.72911e-09 -1.18048e-09 2.184342e-09 1.3991958e-09
000280 ed 7f b7 30 05 9c 9e 30 b5 77 05 b0 a1 39 84 b1
       1.3351361e-09 1.1540356e-09 -4.855523e-10 -3.8482573e-09
000290 9e dd 82 2f 86 a2 52 b5 55 d1 57 35 6d dd f4 30
       2.380433e-10 -7.84676e-07 8.039836e-07 1.781627e-09
0002a0 0c 91 53 b1 5a b8 6e 30 37 69 4b b0 e6 fc 32 b1
       -3.078699e-09 8.6845875e-10 -7.400049e-10 -2.6046165e-09
0002b0 ad 93 02 30 4f 5d 15 af 9a ec 87 b0 e2 20 26 b1
       4.7503584e-10 -1.3584621e-10 -9.889789e-10 -2.417487e-09
0002c0 e6 22 50 b0 b5 6a 52 b2 f0 0a a7 af f9 80 1c b1
       -7.5719553e-10 -1.2247871e-08 -3.0384895e-10 -2.27743e-09
0002d0 7b ef ee ad 69 ae ae 31 b8 ab e3 2f e2 29 31 af
       -2.7163818e-11 5.0838946e-09 4.1413073e-10 -1.6112936e-10
0002e0 dc 88 46 30 df af 45 31 ab 0c fc b0 61 2d e6 30
       7.222647e-10 2.8767244e-09 -1.8339014e-09 1.67476e-09
0002f0 ac be 2d b0 8b b9 38 b0 b9 f6 b2 b1 b6 8f 3f 30
       -6.3207994e-10 -6.720248e-10 -5.208531e-09 6.968962e-10
000300 5b 39 aa b0 b5 61 b4 af e9 a1 89 b1 a7 86 ef ae
       -1.2385429e-09 -3.2811234e-10 -4.005632e-09 -1.0892381e-10
000310 5b be 26 32 e4 02 16 32 ba 7a 0c 32 ed c5 1d 2e
       9.7057535e-09 8.731806e-09 8.176977e-09 3.587346e-11
000320 bf 1b 21 b1 59 db ab af df 75 61 30 a0 49 a1 30
       -2.3444355e-09 -3.1260575e-10 8.202203e-10 1.1735217e-09
000330 73 6b 2b 31 cd 8c b0 b0 52 48 4a b1 d1 4a de 31
       2.4944853e-09 -1.2845703e-09 -2.9435978e-09 6.469556e-09
000340 80 8d 29 30 31 93 ad 30 47 37 21 2f 13 c0 6a b0
       6.1682925e-10 1.2629241e-09 1.4662503e-10 -8.540166e-10
000350 85 30 ae 2f bf 2b ac af 69 68 5c b1 3d 74 98 b0
       3.168489e-10 -3.13177e-10 -3.2073564e-09 -1.1092492e-09
000360 47 bc ca b0 9b a3 b7 31 e0 c8 e2 2f 17 85 37 af
       -1.4750946e-09 5.3446008e-09 4.125189e-10 -1.6691036e-10
000370 95 da a1 b1 62 d2 f1 b1 51 99 15 b0 0f 25 4d 30
       -4.7105666e-09 -7.037941e-09 -5.442376e-10 7.463123e-10
000380 39 63 9e 2f ac a4 9b 2f 61 09 52 af 77 fc 35 30
       2.8810535e-10 2.8311342e-10 -1.9102721e-10 6.620619e-10
000390 6d 7e b1 32 d1 30 00 b2 09 91 c8 b0 43 48 09 30
       2.0663004e-08 -7.46168e-09 -1.4593137e-09 4.9943e-10
0003a0 32 aa 61 af 7b 1a 8c ac e2 29 c4 af 6c e7 40 30
       -2.0524096e-10 -3.9819792e-12 -3.5681952e-10 7.0178063e-10
0003b0 f5 a8 47 af 04 e7 4c 30 13 27 47 2f d6 61 69 af
       -1.815897e-10 7.454306e-10 1.8112827e-10 -2.1225985e-10
0003c0 7d f1 ae b0 60 d6 9c 30 0f e6 c1 af cc f8 05 31
       -1.2728801e-09 1.1411423e-09 -3.5269962e-10 1.9495472e-09
0003d0 be ce ad 2f 36 12 8e b0 96 56 ab 2f 7b 94 a4 2f
       3.1615416e-10 -1.0337036e-09 3.1166242e-10 2.9936928e-10
0003e0 2f 49 cd b0 cf 8c f1 af af 43 32 30 48 89 78 31
       -1.4936513e-09 -4.3937695e-10 6.4852207e-10 3.6166785e-09
0003f0 4c 91 74 b1 b3 dd 9a 2f c5 8c c6 30 0a de d6 2f
       -3.5589265e-09 2.8169964e-10 1.4446405e-09 3.9084141e-10

attention_layer.att.bias f4 [128]
000000 2a f1 27 2f 1e 35 0a b0 47 a0 4e 3d e5 03 09 bf
       1.527424e-10 -5.027959e-10 0.05044582 -0.5352157
000010 db 0c 06 30 55 60 07 bd 3c d5 a5 3e 04 ef 90 3c
       4.8767185e-10 -0.033050854 0.32389247 0.017692097
000020 73 61 86 38 ee 55 4e b7 72 bc 93 af 35 3e 31 bf
       6.407769e-05 -1.2298564e-05 -2.6873043e-10 -0.69235545
000030 19 0c c8 ba c1 60 80 bc a3 84 8c 3e da 63 b8 2e
       -0.0015262394 -0.015671136 0.27444944 8.3850885e-11
000040 14 c2 12 bf a1 06 74 b8 bb 2c 86 b1 eb a5 1a ba
       -0.5732739 -5.8180307e-05 -3.9049985e-09 -0.00058993575
000050 82 f0 c5 3d 0b 01 96 3d 35 be 08 3e f5 37 d3 bd
       0.09665014 0.07324418 0.13353808 -0.10313407
000060 97 76 c0 3e a3 44 27 2f da de 83 bb 54 64 48 3e
       0.37590477 1.5212946e-10 -0.0040243687 0.19569522
000070 0e 66 f2 be 0e 88 1d 3d 86 07 5a bf 88 58 81 be
       -0.47343487 0.03845983 -0.8516773 -0.25262856
000080 82 01 57 3d 3f 19 29 bb b7 72 87 ba 7c 43 ca b5
       0.052491672 -0.0025802401 -0.001033387 -1.5069813e-06
000090 9a 21 b3 ae b1 8c 26 2f c7 d3 35 be 1c ad 2e b0
       -8.1459464e-11 1.5147596e-10 -0.17756568 -6.3546834e-10
0000a0 48 f9 6e b8 a0 dc 68 bc 18 1a 9c be 6f f2 1a b0
       -5.6975783e-05 -0.014212757 -0.30488658 -5.636939e-10
0000b0 19 74 b5 ba e9 30 02 3d 15 d8 1b 3f 38 a8 b5 b3
       -0.0013843804 0.031784926 0.6087659 -8.459068e-08
0000c0 4a 72 38 30 ff e7 6c b7 46 b9 9a b2 e2 f7 f9 3d
       6.7101225e-10 -1.4120712e-05 -1.8012212e-08 0.12205483
0000d0 08 a3 99 b0 39 97 4c 3d 86 8f ab 31 81 49 fa 3e
       -1.1178551e-09 0.049948905 4.9930717e-09 0.48884204
0000e0 14 bd 1e 30 70 89 82 be 99 2f b8 be b5 95 cc be
       5.774876e-10 -0.25495481 -0.35973814 -0.39957967
0000f0 f2 de c2 b9 34 63 2f 3f 9f 73 c4 3e 35 f1 4a 3f
       -0.0003716867 0.68510747 0.38369462 0.792743
000100 ce 74 54 2f a2 05 37 b0 67 1c 94 be 41 98 77 af
       1.9322785e-10 -6.6583017e-10 -0.2892792 -2.251861e-10
000110 a2 de 12 b9 50 95 c6 39 bd e8 d9 3d 4e f8 17 b0
       -0.00014006582 0.0003787675 0.106400944 -5.528634e-10
000120 b9 1b f1 bb 4f 60 40 2f 51 8e c8 be 3b d9 89 3d
       -0.007358041 1.7496514e-10 -0.3917108 0.067308865
000130 c8 6c 85 be f3 a4 b6 af 3b 6b 97 3e b1 36 c6 2f
       -0.26059556 -3.322281e-10 0.29573998 3.605485e-10
000140 87 97 13 3e f5 96 4d b0 15 ce 17 bf a0 d3 10 3a
       0.14413272 -7.479309e-10 -0.5929883 0.00055246986
000150 c6 cb 91 3c 6c 26 05 bb ca 73 f3 3e 25 12 f9 2f
       0.017797362 -0.002031709 0.47549278 4.530573e-10
000160 14 8b 57 bb ce 27 32 b1 b7 88 5d be a4 69 a1 39
       -0.0032889294 -2.5925035e-09 -0.21634184 0.0003078702
000170 bd 70 59 39 be e4 1f bf 55 f6 6c 3e 32 0c f1 be
       0.00020736731 -0.6245841 0.23140843 -0.47079617
000180 95 14 01 34 93 74 64 bd 31 06 86 3d df 6c 72 b9
       1.2021549e-07 -0.055775236 0.0654415 -0.00023119476
000190 9d 12 f3 be 77 24 a0 3e eb 91 dd bd 8a 78 06 be
       -0.47475138 0.3127782 -0.10818847 -0.1313192
0001a0 02 2d 02 3b 5f 49 23 b0 8b de ef bd 9f ea f1 be
       0.0019863253 -5.940332e-10 -0.117123686 -0.47249314
0001b0 ce 27 9c b9 d8 91 53 b5 b2 55 18 bf fb 7f 40 3e
       -0.00029784295 -7.8815856e-07 -0.5950576 0.1879882
0001c0 a2 85 20 be a9 41 70 3d 21 e5 bd af b6 d8 a3 bd
       -0.15675977 0.05865637 -3.4541706e-10 -0.08000319
0001d0 93 60 9a 2f 1b 3c d6 3d 2c 9d e5 b7 a2 4d a4 39
       2.8081057e-10 0.10460683 -2.7372116e-05 0.00031338359
0001e0 cf b4 ef bb 4f 8c 22 bf 2b e7 18 39 e9 15 39 38
       -0.0073152552 -0.63495344 0.00014581966 4.4127843e-05
0001f0 2e cb 9f be 77 25 d7 3a 95 9e c0 ae 25 69 48 bc
       -0.312097 0.0016414364 -8.759319e-11 -0.0122321

attention_layer.gate.weight f4 [128, 128]
000000 03 08 20 bf fc f8 26 be 1b b8 7a 3e c2 de 71 3e
       -0.62512225 -0.16305918 0.24484293 0.23620132
000010 ef bf b3 be ec 4f eb 3e 70 e4 9e 3d a8 fe f4 be
       -0.3510737 0.45959413 0.07758415 -0.47850537
000020 43 63 d4 be 96 56 7e 3d a1 1c 50 be 1e bb 96 be
       -0.4148198 0.062094294 -0.20323421 -0.29439634
000030 94 2f 22 3e b0 0a d4 be 0f c2 b6 be 52 9e 37 3e
       0.15838462 -0.41414404 -0.3569493 0.17931488
000040 88 fb 6f 3e 44 21 05 3f 79 84 16 3f 5c aa 17 be
       0.23435795 0.52003884 0.5879589 -0.1481108
000050 45 8a 29 3e dc 2f 45 be 39 6b 59 3e 7d e1 34 bd
       0.16556652 -0.19256538 0.21232308 -0.044160355
000060 68 94 11 bf a1 cd 08 bf bd dc 0b bf f7 16 7b be
       -0.56867075 -0.53438765 -0.54633695 -0.24520479
000070 cb e5 7d be e4 02 59 3e 49 76 ca be 10 d3 06 3f
       -0.2479469 0.21192509 -0.3954337 0.52665806
000080 bc d4 5e 3e 14 e6 cf be ed 83 98 3e 3e e1 a6 be
       0.21760839 -0.40605223 0.2978815 -0.3259372
000090 81 ec cd bd aa 42 40 be 73 d3 78 be 74 e0 bf be
       -0.10054875 -0.1877543 -0.24299411 -0.37475932
0000a0 3d 7c da 3e 20 49 e8 be 2f 4d 15 be 2e fa 22 3e
       0.4267291 -0.4536829 -0.14580224 0.15915748
0000b0 ae e1 96 be 50 6f a2 3e 5b 9d 06 bf 53 60 01 bf
       -0.29469055 0.3172555 -0.52583855 -0.50537604
0000c0 66 62 cd bd e6 9d 64 3e 70 25 7f 3e a9 80 cd be
       -0.10028534 0.22325858 0.24916625 -0.40137222
0000d0 ae 13 e5 3e c7 b6 fe 3e 6d 8e 5c be 6b d7 5f 3e
       0.44741577 0.49748823 -0.21538706 0.21859519
0000e0 c7 aa 0a bf 5d 07 b8 bd a0 e4 59 be 98 5e c7 be
       -0.54166836 -0.089857794 -0.2127862 -0.38939357
0000f0 2b eb ad 3e 10 dc d1 be c1 35 65 3d d8 e4 3d be
       0.3396848 -0.40988207 0.055959467 -0.18544328
000100 9a 6e 83 3e f1 da c1 be 63 2d 42 be 84 5f b1 be
       0.2567032 -0.37862352 -0.18962626 -0.34643185
000110 36 b0 2e bd 65 f7 99 be f1 71 36 be 2f 93 3d 3e
       -0.042648517 -0.3007156 -0.17816903 0.18513177
000120 54 b0 0f 3f a8 32 aa 3e e5 c7 88 be 1f f7 cb be
       0.5612843 0.33241773 -0.26715007 -0.39836976
000130 af cc 02 3f 51 dd d0 be a3 fe 22 be b2 55 b7 be
       0.5109357 -0.4079385 -0.15917449 -0.35807568
000140 c1 9a e4 3e b1 9e 8a be 8a 0f c8 3d 05 cb 5d be
       0.44649318 -0.27074197 0.09768589 -0.21659477
000150 42 ff 0d 3f 8d 9e 56 3e e1 69 4e be f4 bf f0 3e
       0.5546762 0.2095892 -0.20157577 0.4702145
000160 0b 0d 40 3e da f4 02 3f f3 d2 48 3e 50 c7 65 bd
       0.18754975 0.51154864 0.1961172 -0.056098282
000170 9c bf 4c 3e 0e 82 6c 3d 2e 7c 11 3f e0 1f 29 be
       0.19994968 0.057741217 0.5683011 -0.16516066
000180 fb cb 7a be fe ad b1 3e 6f 1a 60 3e b8 e7 46 be
       -0.24491875 0.34703058 0.21885084 -0.19424331
000190 b0 f0 d1 3e 23 dc 9c be dc f0 05 3e 1d 62 a4 3e
       0.41003942 -0.306367 0.13080162 0.32106104
0001a0 e3 48 e2 be 8b c0 02 3e 69 08 f2 be ff 16 d9 3d
       -0.44196233 0.12768762 -0.4727204 0.10600089
0001b0 f6 e2 14 be 29 09 ec 3e 8f cd 86 be fa 63 35 3e
       -0.14539704 0.4610074 -0.26328704 0.1771392
0001c0 51 49 e0 3c 8d 89 e8 be 27 2b 55 3e f2 35 fd be
       0.02737871 -0.45417443 0.20817243 -0.4945522
0001d0 a3 f4 07 3f fd 79 0c bf d2 90 19 3f ba 81 8e be
       0.5310766 -0.5487364 0.59986603 -0.2783335
0001e0 45 96 46 3d 59 de 35 3e f3 74 16 3f 41 d9 fe 3e
       0.048483152 0.177606 0.587722 0.49775127
0001f0 8c ee 46 be 07 d7 e9 3e d0 3f 4e 3e e2 dc 0f bf
       -0.19426936 0.45671865 0.2014153 -0.56196415
000200 7a 17 75 32 de b9 96 be ad 8f 53 3e 8b 82 7b 3e
       1.4266215e-08 -0.2943868 0.20660277 0.24561517
000210 cd 71 36 b9 30 98 4b 3d 02 7e 38 3e 86 89 86 bc
       -0.00017399267 0.049705684 0.18016818 -0.016422998
000220 6d 5f b8 bb a1 90 86 3e 13 aa b4 bd 49 7c 89 b3
       -0.00562661 0.26282218 -0.088215016 -6.402167e-08
000230 a8 0f 86 3e 57 63 90 31 b6 97 85 b8 2a b7 96 3e
       0.2618382 4.202245e-09 -6.3701926e-05 0.29436618
000240 f7 c6 13 34 8b e4 6b b8 bc 50 89 3b 5f 85 58 be
       1.3762825e-07 -5.6241213e-05 0.0041905325 -0.21144627
000250 72 8f b1 3e c7 a2 68 be 82 8c 4a 3e ac 25 53 be
       0.34679753 -0.22718345 0.19780162 -0.2061984
000260 5e 4a b4 ba 76 58 70 b4 22 40 ca bd 26 d5 52 be
       -0.0013755073 -2.2383924e-07 -0.098755136 -0.20589122
000270 e4 09 1c be 39 32 3a 3e 74 2c 94 ba 82 03 55 30
       -0.15238148 0.18183221 -0.0011304752 7.7493933e-10
000280 16 c6 c9 31 d0 bf 8c b2 b4 e7 99 3e 38 39 8c b3
       5.8723897e-09 -1.6385371e-08 0.30059588 -6.529666e-08
000290 5a 55 6e be 35 93 86 be da b2 3f be 72 13 82 be
       -0.23274747 -0.26284185 -0.1872057 -0.2540546
0002a0 d2 57 8e 3c a5 a8 12 ba 75 0f 28 b4 b2 e0 63 3e
       0.01737586 -0.0005594588 -1.5651842e-07 0.22253683
0002b0 14 b9 b4 b0 8b 8a 9d 3a a3 fc c3 bd a6 93 a2 bc
       -1.3149326e-09 0.0012019438 -0.09569671 -0.019845795
0002c0 52 a7 80 be bf d9 3e 3e b5 11 95 3e ec 81 d9 35
       -0.25127655 0.18637751 0.29115072 1.6205572e-06
0002d0 8c 9b f1 b2 e2 fe 24 34 90 a9 d0 bb d2 64 8d 3e
       -2.8126827e-08 1.5366416e-07 -0.0063678697 0.27615982
0002e0 cc 5e 42 b7 10 95 57 be 6e d3 42 be 05 59 b8 2d
       -1.1585373e-05 -0.21052957 -0.19025967 2.095791e-11
0002f0 fb f3 c3 3d 1e b2 00 b2 16 22 5f 3e 25 aa a3 bc
       0.0956802 -7.49108e-09 0.21790347 -0.019978592
000300 5a 86 1b 3c 98 10 d6 39 d6 50 5f be 30 ee 53 b2
       0.009492481 0.00040829624 -0.2180818 -1.2335974e-08
000310 df f7 46 be 30 e2 c2 ba df 23 3e 31 9f c9 09 3e
       -0.19430493 -0.0014868435 2.766903e-09 0.13455819
000320 7a c6 39 3c f1 3f b3 31 41 18 00 b1 c1 2b d6 bd
       0.011338824 5.216855e-09 -1.8640238e-09 -0.10457564
000330 f2 ac 0d b3 57 5e 13 b1 50 4a 38 be 36 63 28 b3
       -3.2986414e-08 -2.1444941e-09 -0.17997098 -3.920578e-08
000340 2c ee 07 3b 81 bb 5f be 08 ff 87 3e 90 13 84 be
       0.0020741327 -0.21848871 0.2656176 -0.25796175
000350 ae 9f 12 31 ef 74 5b 3e 0c 00 31 be 59 b0 9e 3a
       2.1336564e-09 0.21431325 -0.17285174 0.0012106999
000360 82 a2 cf b0 96 8d 22 3a 44 c2 73 32 9e d9 6c be
       -1.510742e-09 0.00062009075 1.41886325e-08 -0.2312989
000370 1e ba 23 3e f8 34 4c 3e 76 ef 46 b0 7c 2f 1d be
       0.15988967 0.19942081 -7.2372275e-10 -0.15350145
000380 c9 57 8f be 0f bf e9 3a 47 ee 9c 3e 55 c4 87 be
       -0.27996662 0.0017833429 0.3065054 -0.26516977
000390 36 75 af 33 b5 30 7d be ed 41 5c 3e 0f 5e c6 b5
       8.170393e-08 -0.24725612 0.21509524 -1.4779524e-06
0003a0 a1 9c 8f bc e7 13 8a 3e f4 0c 3d b9 0e 76 32 3e
       -0.017530741 0.2696831 -0.0001802927 0.17427847
0003b0 90 a0 49 be 13 7d cd 3b 57 06 a6 b3 4e fa 96 3e
       -0.19690156 0.0062710135 -7.7311306e-08 0.29487842
0003c0 f1 fa 8d 3e 74 52 55 bd f1 77 6d 3e 18 e9 74 39
       0.27730516 -0.052080587 0.23190285 0.00023356488
0003d0 f3 08 e1 3a 89 96 6a bd 62 03 2d 3a ef 0d 84 be
       0.0017168805 -0.057272468 0.00065999303 -0.2579188
0003e0 5a b9 6d 3e 38 be 73 34 8d 2b 27 3a 34 27 81 38
       0.23215237 2.270034e-07 0.0006377034 6.1585015e-05
0003f0 c9 8a 57 be 18 17 06 33 35 f3 72 3e fe fb b5 33
       -0.21049036 3.122031e-08 0.23725589 8.4743064e-08

attention_layer.gate.bias f4 [128]
000000 6c be a8 be d2 46 16 bc dc b7 f0 b9 f4 7b 26 3b
       -0.3295778 -0.009172158 -0.00045913353 0.0025403472
000010 56 54 8a 3c a9 25 0e ba 59 a8 aa 3e 3b b7 96 3e
       0.016885918 -0.0005422482 0.33331564 0.2943667
000020 cb 65 93 bb 54 e1 27 36 bb 4a 84 be 9c 2a 02 bd
       -0.0044982187 2.5016097e-06 -0.25838265 -0.031778917
000030 1f f0 2f bf ac 4b f9 38 b1 7e 9c 3d 66 1e d0 3e
       -0.6872577 0.0001188734 0.07641352 0.40648192
000040 db 90 57 b9 d9 0f 05 3b 14 5f 18 3f 29 48 2c 3c
       -0.0002055796 0.0020303635 0.5952008 0.010515251
000050 ac ec 04 b9 a5 b9 ac b9 df 50 10 3f dc 76 f0 bd
       -0.00012676668 -0.00032944712 0.563734 -0.117414206
000060 f7 0d ab 3b 22 3e ab be 30 76 a1 bd 6b 65 a0 be
       0.0052201706 -0.3344584 -0.078838706 -0.31327376
000070 69 5d 0b bd 85 91 28 bf 3f 67 e5 3e b0 82 0e bf
       -0.03402463 -0.65847045 0.44805333 -0.55668163
000080 73 40 1a be 2b 2b 4a 3f 23 8a 24 3e dd e4 d8 3e
       -0.15063648 0.7897212 0.1606832 0.4236211
000090 69 06 d5 ba 1d 65 8d 3d ea b6 24 3e d8 3a 97 3d
       -0.0016252521 0.069040515 0.16085401 0.073842704
0000a0 c3 e5 92 ba 67 62 55 3e b4 e7 67 3c 96 af 0b bf
       -0.001120739 0.20838319 0.014154363 -0.545648
0000b0 71 74 77 3a 82 42 4b be 13 a6 71 bd b0 8d 6d 3b
       0.00094396534 -0.1984959 -0.05899627 0.0036247782
0000c0 cf 32 e0 bd 10 af b9 bd 27 29 38 b3 88 bb 65 bd
       -0.10947191 -0.09066594 -4.2878266e-08 -0.056087047
0000d0 1e 6b 94 be b3 81 30 bd 2a 06 ed be 6e 1d 24 3c
       -0.28987974 -0.04309244 -0.46293765 0.010016782
0000e0 89 28 db 3e 55 4e 6b be 5c 4b c8 3b c6 ea 58 bd
       0.42804363 -0.229791 0.006112499 -0.052958272
0000f0 c1 ae 8d 3c 6e ad 22 3f d7 42 01 be 74 19 d5 b5
       0.017295243 0.6354588 -0.12623154 -1.5877145e-06
000100 a7 fa 14 bc 0a 01 4d bd 6c 44 a2 3b 7c e8 85 b3
       -0.009092963 -0.05004982 0.004952004 -6.235584e-08
000110 83 69 81 b7 a0 28 4b be 79 0a 82 3c 79 5b 5c be
       -1.5427131e-05 -0.19839716 0.015874134 -0.21519269
000120 1c 0d 84 39 67 81 8d 3d 3a e3 1f bf 39 8c 01 bc
       0.0002518677 0.06909447 -0.62456095 -0.007906967
000130 03 3c ba 3e e6 26 9a be 95 1c 72 3c b2 3d d0 bd
       0.3637391 -0.30107802 0.014777322 -0.101680174
000140 16 87 80 3e c7 7e 5d bd 88 4e ab 3e 10 8c 88 bd
       0.25103062 -0.054075982 0.33458352 -0.0666734
000150 43 00 f1 3c 72 4a 84 be 24 38 91 3e a8 51 ab 3d
       0.02941907 -0.25838047 0.28363144 0.08365184
000160 a5 7a 96 39 13 c9 5b bf 23 dd 0a be 57 ef 0a ba
       0.00028701607 -0.8585369 -0.1356092 -0.00052999466
000170 3e 3c e5 bb 0c 32 f2 39 27 55 7a bb 9a 71 01 be
       -0.006995707 0.00046195125 -0.0038197727 -0.12640992
000180 1f 2a b4 38 39 5b b6 3c 23 5e 80 be 4d 8c bd 38
       8.5909145e-05 0.022260295 -0.2507182 9.038355e-05
000190 bc 6c cd 3c 69 06 67 3d b7 e1 e1 3e e8 0d 90 3b
       0.025076263 0.056402598 0.4411752 0.004396189
0001a0 57 e2 53 38 55 a1 9e be af a3 07 ba fe 30 52 3d
       5.0517116e-05 -0.30982462 -0.0005174232 0.051316254
0001b0 e6 22 c8 3e 39 69 49 38 28 b8 88 3a aa 09 de b9
       0.39089125 4.802013e-05 0.0010430859 -0.0004235034
0001c0 ef 42 ac 3c 47 4b 0c 3a b6 7c 07 bd 29 e9 d4 ba
       0.02102801 0.00053517934 -0.033077918 -0.0016243804
0001d0 22 cf c4 be 05 c8 83 be 6b 82 18 3f 34 9b 99 3a
       -0.3843928 -0.2573854 0.59574 0.0011719228
0001e0 dd 0f f2 b9 d2 df 46 ba 30 a8 b1 3e 62 10 30 bf
       -0.00046169656 -0.00075864524 0.3469863 -0.68775
0001f0 f0 84 44 3e df a0 23 3e 6d 9e 3b be db b9 bb 3e
       0.19191337 0.15979336 -0.18322153 0.36665234

attention_layer.w.weight f4 [1, 128]
000000 81 84 18 be 4d b1 bb 3f 43 0b 73 3e 9a cd 5a 3f
       -0.14894296 1.4663483 0.23734765 0.85469973
000010 4c 38 5e bf 99 df 00 bf a4 de 31 bf 46 9a fa 3e
       -0.8680465 -0.5034118 -0.6948035 0.48945826
000020 8c 32 b7 be 2c 29 00 3b 00 29 81 3e fc 45 af 3d
       -0.35780752 0.001955579 0.25226593 0.0855827
000030 24 6b 5c be bc 01 65 bf 87 6e cd 3f 3a dd 81 3f
       -0.21525246 -0.8945577 1.6049355 1.0145638
000040 12 d5 79 bf 1d 26 a9 3d eb c8 34 3e b9 f7 22 3d
       -0.97590744 0.08259223 0.17654769 0.039787028
000050 e0 70 6c bf d0 bd cd be f3 4c ac bf 45 34 06 3f
       -0.92359734 -0.40183878 -1.3460983 0.52423507
000060 ee 62 17 bf 9d 77 79 bf dc 45 90 bf 7d a5 1c bf
       -0.5913533 -0.9744814 -1.1271319 -0.61190015
000070 dc 0f 39 3e 1e 8d 30 3e 75 b9 7a bf 6b a1 35 3f
       0.18072456 0.17241332 -0.97939235 0.7094943
000080 13 ae 81 bf aa 5c a4 3f b2 93 9b 3f a9 f1 e1 be
       -1.0131248 1.2840779 1.2154448 -0.44129685
000090 0d 85 d3 be 52 55 81 3f 69 ac 35 bf 2a d5 87 3f
       -0.41312447 1.0104163 -0.709662 1.0611928
0000a0 bc 53 1a 3f a5 e6 0b bf 6c a9 95 bf 2b 62 72 3e
       0.6028402 -0.5464881 -1.1692328 0.2367026
0000b0 4b d5 31 3e eb 48 2d 3f 98 c5 47 be aa 11 93 bf
       0.17366521 0.6768939 -0.1950897 -1.1489766
0000c0 4d b7 f0 be 6a 28 24 3f bd 38 39 3e f5 e9 b2 bf
       -0.47014847 0.64124167 0.1808805 -1.3977648
0000d0 b8 91 20 3e e2 ec 8b bf 87 d9 9c 3e da 2b 84 be
       0.15680587 -1.0931666 0.3063471 -0.25814706
0000e0 33 18 1e 3f 65 51 be 3f 7d c3 a0 3f 92 10 85 be
       0.61755675 1.486859 1.2559658 -0.25989205
0000f0 08 21 a0 3e 6f de 3e 3f 66 21 89 3f 95 e5 de 3e
       0.312752 0.74558157 1.0713317 0.43534532
000100 62 ee 3f 3f e3 be b7 be 45 41 4b bf 87 b3 ef 3e
       0.7497312 -0.35887823 -0.7939647 0.46816656
000110 fd e9 07 3d f9 96 4f 3e 1c 23 a4 3f 92 41 84 3e
       0.033182133 0.20272435 1.2823215 0.25831276
000120 11 49 d0 3e 21 37 71 bf 63 07 af 3e e1 38 ca bd
       0.40680745 -0.94224745 0.34185323 -0.0987413
000130 b6 77 0d 3e 7c dd 46 be 7b ec d1 3e 50 8b b0 be
       0.13815197 -0.19420427 0.41000733 -0.34481287
000140 dd 3d 4d 3f 17 38 3d bf 14 15 46 bf 89 37 31 bf
       0.8017252 -0.7391371 -0.7737591 -0.69225365
000150 a2 9b f9 be 63 bb ed be 6b 8f 5b be 51 1d 88 bf
       -0.4875155 -0.46432027 -0.21441428 -1.0633947
000160 22 4a 49 3f 5e 5a 3a bb 6b 53 d6 bf 30 ac ec be
       0.7862874 -0.002843521 -1.6744207 -0.4622512
000170 fa a6 cd bd c5 69 84 3e ee 1c 35 3f 84 69 a3 bf
       -0.10041614 0.25861946 0.7074727 -1.2766576
000180 f6 86 93 bc 10 4e b1 bd 31 85 47 3f 55 44 28 3d
       -0.01800869 -0.08657467 0.7793761 0.04108079
000190 1f d6 35 bf e9 72 e6 be 51 0f 43 bf 80 38 55 3f
       -0.7102985 -0.45009544 -0.76195246 0.8328934
0001a0 19 b4 de bd 97 34 5b 3e f5 d5 e5 3e c8 f1 d7 be
       -0.10874195 0.2140678 0.448898 -0.42176652
0001b0 b5 20 23 3d 7d 73 02 3f fd 3a 6b bf 70 48 0a be
       0.039826114 0.5095747 -0.91886884 -0.13504195
0001c0 e7 85 a1 bf 36 0c 8c bf af 5e a0 3e 6f e5 bd be
       -1.2618989 -1.0941226 0.31322238 -0.37089106
0001d0 4b 1f a3 3e 52 e7 e2 3d c0 8d 27 bf fc d2 27 be
       0.31859812 0.11079277 -0.6545067 -0.16389078
0001e0 ab 6a 65 bf 48 54 3d be aa 6f 82 bf 8e 08 69 3d
       -0.8961589 -0.18489182 -1.0190327 0.056892924
0001f0 86 b5 ac 3f c4 e1 54 bf 6d c1 eb be 17 8d 0b bf
       1.3492897 -0.8315699 -0.4604601 -0.5451216
