dataset/models/CAF_FMG20_CAF.S1/model.pth (torch, 696702 bytes, 14 tensors)

tiles_emb.hidden_layers.0.weight f4 [128, 768]
00000000: cf99 fdbe a009 f33e fee9 acbe db9a 023f
00000010: 2439 043f 6c70 f5be d135 3dbf 1624 03bf
00000020: 98ef 00bf 665f 3abf cf3d 053f 3459 f43e
00000030: 2bf2 b0be 5494 fe3e 8d92 343f 971c 3b3f
00000040: 8a43 033f 79fc 043f 96ae 353f f786 0abf
00000050: e7ab 09bf 5814 abbe cef2 07bf 36c4 fabe
00000060: 88d4 083f 0f83 f8be 12a4 f43e 0f17 03bf
00000070: 7b21 393f 216a 06bf f3ff 31bf e565 3dbf
00000080: 68aa 04bf ce89 00bf 1783 2fbf 5f39 02bf
00000090: 72d3 f73e cd32 0a3f e29a 073f 6688 f6be
000000a0: e065 3e3f 3205 3a3f 7832 fe3e f94a 36bf
000000b0: fc42 0bbf 0ea2 013f b003 2dbf 4a98 0abf
000000c0: 5e1b 053f ba89 2e3f 0d3d fb3e 9ffc 093f
000000d0: 8261 383f 06d1 f2be b4d5 f73e 31bf 09bf
000000e0: 96ca 0a3f a790 f8be 0fe9 c6be 6075 f3be
000000f0: 33f4 f33e 24f4 003f a2ab 04bf 7a34 09bf
00000100: 9de2 06bf 8016 0bbf c886 2dbf 3fa8 383f
00000110: 6915 fd3e fc16 08bf 6ac6 04bf c1c8 c2be
00000120: dd98 adbe ad73 07bf b6b1 043f 64e9 063f
00000130: 39bf 00bf 29c4 08bf 6f2a f8be c3f7 f33e
00000140: 2072 0a3f 0661 fd3e 402e 0a3f 64e0 a73e
00000150: 6ecc f3be adb8 0a3f de9c 30bf ddf4 f73e
00000160: e69b f73e c364 3e3f b165 fc3e 4d4d 093f
00000170: a2ed fdbe 99ed 3e3f 0ef3 093f d7bb 08bf
00000180: 709a 02bf dbdd 2f3f f4c7 fb3e 2b07 c3be
00000190: 6f0e fabe 9397 06bf 31d6 2fbf 182a 2d3f
000001a0: ac3c ff3e 6f6d b53e d54c aebe 1bea 35bf
000001b0: d099 21bf b3cf 063f 6dca 2f3f f685 01bf
000001c0: b746 ff3e ecbe 363f 3746 373f 12ad 393f
000001d0: 52aa fbbe 7f78 f73e 3b38 a6be e708 38bf
000001e0: f076 fc3e ad3e 08bf 845d 06bf 2be7 ff3e
000001f0: f42e f3be a38b fa3e 2484 06bf 37b1 fbbe
00000200: 51f5 093f 2e7b f63e 0ca5 0a3f 2155 fb3e
00000210: a6d5 febe 5d28 2f3f 9c79 fa3e 3510 313f
00000220: 571d 01bf 34d3 053f 8e46 023f 864e c33e
00000230: 1c68 043f f6b7 01bf 4414 393f 8b12 08bf
00000240: 576e 0a3f ef68 fdbe b767 fe3e 21d0 f53e
00000250: 3f36 333f 1220 013f 8fa5 f7be 3ee2 fb3e
00000260: 1556 04bf 6f90 0c3f 936b f5be 7da4 383f
00000270: bcda 3ebf fbc1 04bf 0b9c 08bf b49b 35bf
00000280: 881d f93e c996 08bf e43d f63e 904c 033f
00000290: 097d 313f 4d73 fbbe 7402 0b3f 6be6 35bf
000002a0: 4a95 353f 47d8 01bf 12cf 093f 8174 ff3e
000002b0: c09b f33e 6dd4 09bf 0cb7 3a3f e07e f83e
000002c0: 79b8 f9be 7873 03bf 3e08 383f f40c 2fbf
000002d0: 169d 03bf 4193 38bf 2c57 3dbf 4151 073f
000002e0: ca1c 0b3f 6eb8 08bf 21de f9be 75c4 393f
000002f0: 5763 05bf 6329 bdbe fb47 303f 4922 f4be
00000300: a021 04bf 2adf f2be 0ee5 023f 3d22 073f
00000310: 73f1 043f d3e9 00bf 483a b6be 715b 003f
00000320: 8e9f 07bf 0eb0 083f f3d7 07bf cf23 053f
00000330: eb75 303f 2606 033f de3a 2ebf e1f6 b93e
00000340: e21f 06bf 6176 043f 2d09 063f 07d8 38bf
00000350: f3e7 043f 4aba 053f 1277 ff3e f230 073f
00000360: 21e6 fb3e fd09 373f 8d38 01bf cf10 073f
00000370: 9eb3 f73e d134 fe3e e748 073f 9ea2 06bf
00000380: 94d2 003f f1ed f4be cf44 033f 75a2 fd3e
00000390: 658d f9be 7c93 f3be 4b7b fabe 75f3 04bf
000003a0: eb70 013f 50db 0abf d847 033f bc17 bdbe
000003b0: d551 043f c360 f73e f82a 2e3f 7e18 06bf
000003c0: cdaa 07bf ee96 03bf 5b2c f53e bd32 093f
000003d0: 0a14 313f 7925 31bf 7c1a 3d3f 737f 0bbf
000003e0: fb3b 0bbf cc63 c5be 3372 fdbe ec43 353f
000003f0: 7dd1 07bf 3ca7 01bf 47d1 09bf a603 fc3e
-0.4953141 0.4746828 -0.33772272 0.5101754 0.5164969 -0.47937334 -0.7391024 -0.5122694
-0.5036559 -0.72801816 0.5204744 0.47724307 -0.3455976 0.4972254 0.7053612 0.730905
0.5127493 0.5194774 0.7096952 -0.5411219 -0.5377793 -0.3341396 -0.53104866 -0.48977822
0.53449297 -0.4853749 0.47781426 -0.5120706 0.7231671 -0.5250569 -0.6953117 -0.73983604
-0.5182252 -0.50210273 -0.685594 -0.5086879 0.48403507 0.53983766 0.5297071 -0.4815094
0.743742 0.7266418 0.4964788 -0.7120815 -0.54399085 0.506379 -0.6758375 -0.54138625
0.51994884 0.68178904 0.49070016 0.53901094 0.72023785 -0.47425097 0.4840523 -0.5380736
0.5421537 -0.4854786 -0.38849685 -0.47550488 0.47647247 0.5037253 -0.5182439 -0.535957
-0.52689534 -0.5433121 -0.67783785 0.72131723 0.49430397 -0.5316007 -0.51865256 -0.38043788
-0.33905688 -0.5291088 0.51833665 0.52699876 -0.5029178 -0.53424317 -0.48469874 0.47649965
0.5408039 0.49488086 0.5397682 0.32788384 -0.47616905 0.5418804 -0.6898936 0.48429003
0.4836113 0.743725 0.49296334 0.53633577 -0.49595362 0.74581295 0.538865 -0.5341162
-0.510169 0.686979 0.4917599 -0.38091406 -0.48839137 -0.52575034 -0.68686205 0.67642355
0.49850976 0.35435054 -0.34042993 -0.7106034 -0.63125324 0.52660674 0.6866825 -0.50595033
0.4985864 0.71385074 0.71591514 0.7252971 -0.49153382 0.4833412 -0.32464775 -0.71888584
0.49309492 -0.53220636 -0.52486444 0.49981055 -0.4749676 0.4893466 -0.5254538 -0.49158642
0.5388995 0.48140854 0.5415809 0.49088386 -0.49772376 0.68420964 0.48920906 0.69165355
-0.50435394 0.52275395 0.5088891 0.38145846 0.5172136 -0.5067133 0.7229655 -0.53153294
0.54074615 -0.4949412 0.49688503 0.48010352 0.7000465 0.5043956 -0.483685 0.49196047
-0.5169385 0.5490789 -0.47933635 0.7212599 -0.7455251 -0.5185849 -0.533631 -0.7094071
0.48655343 -0.5335508 0.48094094 0.512887 0.69331414 -0.49111405 0.5430062 -0.71054715
0.7093092 -0.5072064 0.5383159 0.49893573 0.47579765 -0.5383976 0.7293556 0.48534298
-0.48773554 -0.51348066 0.71887577 -0.6837914 -0.5141157 -0.7209969 -0.7396114 0.5285836
0.54340804 -0.5340642 -0.48802283 0.72565395 -0.52104706 -0.36945638 0.68859833 -0.47682407
-0.5161381 -0.47435886 0.5113076 0.5278662 0.5193092 -0.5035679 -0.3559134 0.5013953
-0.52977836 0.5339364 -0.5306389 0.52007765 0.6892993 0.51181257 -0.68058574 0.36321166
-0.523924 0.5174313 0.5235775 -0.7220463 0.51916426 0.5223738 0.4989553 0.5280906
0.49199012 0.71499616 -0.50476915 0.5276002 0.48379225 0.4964967 0.52845615 -0.52591884
0.50321317 -0.47837785 0.5127687 0.49538007 -0.48740688 -0.4757346 -0.4892219 -0.51933986
0.50562924 -0.54240894 0.512815 -0.3693217 0.51687366 0.4831601 0.68034315 -0.5238112
-0.52994996 -0.51402175 0.47885403 0.53593045 0.691712 -0.69197804 0.73868537 -0.5449135
-0.543884 -0.385527 -0.4950119 0.70806766 -0.5305403 -0.50645804 -0.53834957 0.49221534

tiles_emb.hidden_layers.0.bias f4 [128]
00000000: 8762 00bf 0426 0bbf 83be 16bf 7d7f 19bf
00000010: e90b 1ebf c51a 13bf b76f ebbe 6993 1bbf
00000020: 893a 24bf 7eaa 1abf ee5c edbe 0353 edbe
00000030: a456 f7be 122b 15bf 25da 20bf 40f9 f6be
00000040: dda5 0cbf f190 eabe 6e3f 24bf 2d59 70be
00000050: 5f3e 23bf 725f 1fbf 6119 0abf fc32 07bf
00000060: 086d 16bf 72ae f4be c1df 28bf d16f 08bf
00000070: 5d87 f4be 5d66 babe 9741 9cbe 3faa ddbe
00000080: 53a7 18bf 9e3b 07bf 107c 17bf 9c03 1dbf
00000090: 662f fabe 31c7 60bf a120 44bf 6323 08bf
000000a0: e16e 30bf 998f 00bf d6b4 2cbf 0a44 d3be
000000b0: b575 1bbf d337 2fbf 6ece febe 44e4 f7be
000000c0: 0d7e ffbe cc58 1fbf 53af 95be 5635 14bf
000000d0: 7744 15bf 2cfb 1cbf e2b0 27bf 5c51 11bf
000000e0: f20e 08bf c897 20bf 7639 debe 5739 8abe
000000f0: 0c2d 54be 5a3b 0bbf 3536 04bf 5b93 20bf
00000100: 9be4 05bf 2d2c 07bf a8f4 febe 9283 01bf
00000110: 419f 21bf 5018 04bf 158b 14bf 1388 1fbf
00000120: 61cf fcbe 0d8a d4bd c663 07bf 522e 03bf
00000130: 24f6 21bf 6287 4fbf 8e46 04bf 3d05 14bf
00000140: ff66 19bf 8edf 1fbf e335 e4be a0b9 e2be
00000150: dd99 16bf a7b5 17bf 50a5 febe 4b48 11bf
00000160: 5005 f6be 83bc 14bf 2077 88be c6e5 b6be
00000170: 6018 c6be 0be2 18bf 7b73 1bbf 6ccb 10bf
00000180: 37c4 1cbf 42b9 07bf 7e33 f8be b414 8ebd
00000190: 2cda f4be 8332 19bf ea72 12bf 87dc 1dbf
000001a0: e4ca 1dbf fb27 00bf 2b1c 24bf df7f 06bf
000001b0: d92a 1bbf be50 1bbf 6f6a cabe c2ed 04bf
000001c0: 082b 21bf 4c1a 11bf cdd7 19bf ffed f6be
000001d0: da6a c9be 2650 0bbf 85b9 1ebf 140f b4be
000001e0: 5790 fdbe 41cb 04bf 42cc 45bf edce f4be
000001f0: 5780 f6be 2851 1ebf 1cbc 08bf 7b75 20bf
-0.5015034 -0.5435488 -0.5888445 -0.59960157 -0.61736923 -0.5746272 -0.4598367 -0.60771805
-0.6415182 -0.604164 -0.46359962 -0.46352395 -0.4830829 -0.58268845 -0.6283286 -0.48237038
-0.5494059 -0.45813707 -0.64159286 -0.23471518 -0.63767046 -0.62255013 -0.53944975 -0.5281217
-0.5876012 -0.4778934 -0.6596642 -0.5329562 -0.47759524 -0.36406222 -0.3051879 -0.4329395
-0.59630316 -0.52825344 -0.5917368 -0.6133363 -0.48864287 -0.8780394 -0.7661229 -0.53178996
-0.6891919 -0.5021911 -0.67463434 -0.41262847 -0.6072648 -0.68444556 -0.49766868 -0.4841634
-0.49900857 -0.6224487 -0.29235324 -0.57893884 -0.58307594 -0.6132076 -0.65504277 -0.5676477
-0.53147805 -0.627316 -0.43403214 -0.26996872 -0.20720309 -0.5438744 -0.51645213 -0.62724847
-0.5230195 -0.5280178 -0.49796033 -0.50591385 -0.6313363 -0.515996 -0.5802472 -0.6231701
-0.49376968 -0.103778936 -0.5288662 -0.51242554 -0.63266206 -0.8106595 -0.5167016 -0.57820493
-0.59922785 -0.6245049 -0.44572362 -0.44282246 -0.58828527 -0.59261554 -0.49735498 -0.56750935
-0.48050928 -0.58100146 -0.26653385 -0.35722178 -0.38690472 -0.59719914 -0.60723084 -0.565604
-0.612369 -0.53017056 -0.48476785 -0.069375426 -0.47822702 -0.598427 -0.57206595 -0.61664623
-0.6163771 -0.50061005 -0.6410548 -0.52538866 -0.60612255 -0.6067008 -0.39534327 -0.5192529
-0.62956285 -0.5668075 -0.6009491 -0.48228452 -0.39339334 -0.5441917 -0.6200183 -0.35167754
-0.49524185 -0.5187264 -0.772648 -0.47814122 -0.4814479 -0.61842585 -0.5341203 -0.6267926

tiles_emb.hidden_layers.2.weight f4 [128, 128]
00000000: 7cf8 fa3e 7ac5 f73e c578 243f 9d91 2b3f
00000010: 807c 2bbf a1a1 14bf 7457 6dbe 02b3 bebe
00000020: 44d0 66be 9179 21bf 5474 cebe e51c 19bf
00000030: ba09 143f 1bc6 193f 6678 22bf c1af f7be
00000040: a0b5 263f 7803 e4be bf2c 223f 48b6 ce3e
00000050: 4e2b b0bc d25d 2b3f ff77 0a3f ad23 123f
00000060: c840 1a3f 824e 1b3f aba7 04bf 5bcf 1bbf
00000070: df7b 523f 342b fb3e c640 e83e 3179 dbbe
00000080: d5d0 09bf ea32 f83e 08fb 0ebf f97e 02bf
00000090: d255 0b3f d93d 09be 235f c33e be9d 0e3f
000000a0: 8128 1b3f 049d 12bf a3c7 0abf 2829 873e
000000b0: 9b1c 253f 8938 09bf 1912 f73e c70e 1a3f
000000c0: 72e5 37bf 4b80 15bf c5f2 403f f373 22bf
000000d0: 5e69 29bf b51b 0ebf e16a d4be 1806 093f
000000e0: 4a7d 22bf 0ab9 1e3f 5162 07bf d1bc f13e
000000f0: ef35 393f 4cc7 0c3f 4d20 90be 87cb 18bf
00000100: 1014 073f 7d04 25bf 9531 3dbf 9763 663e
00000110: 0ebf 7b3e 9346 40bf e18f 1bbf 0952 1d3f
00000120: df75 d23e 6432 e43e 4384 d9be e827 0b3f
00000130: 66b2 093f d1cf 43be 18e2 d13e 5746 2a3f
00000140: 6489 2f3f 01ee 253f c2c3 02bf 7ca1 c5be
00000150: ea2e 073f 687c 15bf ee0b 193f 4b53 1fbf
00000160: b156 20bf 1158 263f 60dc 123f d58b 413e
00000170: 2448 3f3e 7b09 2cbf 5793 173f 1523 23bf
00000180: bd74 0dbf c72a 153f 4c21 1d3f defd 103f
00000190: 71cd d6be 64e1 14bf feb1 2a3f e50e ec3d
000001a0: ad59 033f 193a d83d ea01 2abf 7bff 193f
000001b0: 0acb 203f 25be 2e3f ef7a 2a3f 7586 f13e
000001c0: 355a 19bf b2b5 03bf 8d7b 20bf d8d6 ef3e
000001d0: c497 aa3e da44 f33e ae68 0c3f e0df c33e
000001e0: bcbb f13e 287f f03e 6079 3d3e 9e15 0b3f
000001f0: 03de 183f 1d14 03bf 8566 f13e 9ee9 2c3f
00000200: 34b2 f4be 03c8 1abf 324a 203f f009 1abf
00000210: 08e2 2c3f 6254 133f 841d 883f fee3 9d3f
00000220: c87b a0be daaf 0a3f 5758 ecbe 8d3f 06bf
00000230: 1074 c8be 4de0 0dbf e3e1 083f bdfa d8be
00000240: 2d22 acbe 4bb8 cdbe bb03 eabe 6cb4 8dbe
00000250: d7a5 863f 0b8c 2dbf 2a75 40bf a391 2ebf
00000260: 1d96 123f f565 3bbf 01a7 1abf 3b3f 1fbf
00000270: 68c2 cbbe 3442 4b3e 0bc4 a5be c50c 0bbf
00000280: c74b 283f b426 cabe 2fff 233f c359 073f
00000290: dc30 40bf 95b3 4b3f 0c42 ecbe 4446 37bf
000002a0: a583 06bf a63d 35bf 20c9 00bf faff 343e
000002b0: 3063 1d3f 5ebc e5be 7542 3bbf dc3c 23bf
000002c0: fdb5 ecbe 7a38 f2be 22b8 0bbf 0c2e 093f
000002d0: 8f78 033f ae8a 263f fb5e 2bbf d3eb 9bbe
000002e0: 15ae e6be 5651 0c3f 0dd1 28bf a026 87be
000002f0: 8781 91be 4c8a 29bf eab5 843f c0a6 09bf
00000300: e0eb 2fbf 6709 31bf 726b 00bf 6392 06bf
00000310: 6fd7 013f 9738 1bbf 2c01 043f 30c4 0fbf
00000320: 56ef 04bf 4aa6 cabd 270e 1b3f bbc9 33bf
00000330: 1581 25bf dd50 4b3f 3b35 e4be 5fc6 283f
00000340: 9078 0c3f 78c8 0cbf 8884 1cbf 9a7c 21bf
00000350: 8a18 033f ed0f 053f ae57 e9be 3906 163f
00000360: 9a96 20bf af80 2a3f c86c 47be 969e 033f
00000370: d09d bf3e 9ea1 2b3f 73c4 b5be 8678 2c3f
00000380: 9b86 113f 0454 03bf 8401 f6be 0aa6 64be
00000390: b111 ffbe aa9c 273f a18f 0fbf 5c2c 8b3f
000003a0: 9e08 0ebf b56d 9f3e 4ba1 f0be 4f84 f3be
000003b0: 75be 0abf e3c9 0f3f a2c6 afbe b729 fabe
000003c0: d3df 183f ee5f 0b3f 744f 0e3f 5eaa 09bf
000003d0: 4994 d33e 0cad d9be 7064 243f 72c8 9f3e
000003e0: e907 ebbe edd4 4cbf 0f82 913f 6a01 0cbf
000003f0: e2d0 23bf c606 113f d245 3abf 6084 183f
0.49017704 0.4839285 0.6424678 0.67019063 -0.66986847 -0.58059126 -0.23177892 -0.37245947
-0.22540385 -0.6307612 -0.40323126 -0.59809715 0.5782734 0.6006791 -0.63464963 -0.48376277
0.6512089 -0.44533896 0.6334953 0.40373445 -0.021505024 0.66940033 0.5408935 0.57085687
0.602551 0.6066667 -0.5181834 -0.60863274 0.8222026 0.490564 0.45361918 -0.428659
-0.5383428 0.48476344 -0.55851793 -0.50974995 0.54427826 -0.134025 0.3815852 0.55709445
0.6060868 -0.57270837 -0.5421087 0.26398587 0.64496773 -0.5360189 0.48255995 0.601788
-0.7183448 -0.58398885 0.75370437 -0.63458174 -0.661764 -0.5551103 -0.41487792 0.53524923
-0.63472426 0.620011 -0.52884394 0.47214368 0.7234792 0.549916 -0.28149644 -0.5968556
0.5276499 -0.64459974 -0.7390378 0.22498928 0.245846 -0.7510769 -0.60766417 0.614533
0.41105554 0.44569695 -0.4248372 0.5435777 0.5378784 -0.19122244 0.40992808 0.6651358
0.68569016 0.6481629 -0.5107995 -0.38599765 0.5280596 -0.58392954 0.5978383 -0.6223647
-0.6263228 0.6497813 0.57367516 0.18900998 0.18679863 -0.67201966 0.592092 -0.63725406
-0.55256253 0.582684 0.6137893 0.5663737 -0.41953614 -0.5815642 0.66677845 0.115262784
0.5130871 0.10557956 -0.6640917 0.6015546 0.62809813 0.6825889 0.6659383 0.47172895
-0.5990327 -0.5144912 -0.62688524 0.468436 0.33318913 0.47513467 0.5484723 0.3825674
0.47213542 0.46972013 0.18503332 0.5432986 0.59713763 -0.51202565 0.4714853 0.6754397
-0.47792208 -0.60461444 0.62613213 -0.60171413 0.67532396 0.5755063 1.0634007 1.2335203
-0.31344438 0.5417458 -0.46161148 -0.5244072 -0.3915105 -0.5542038 0.53469676 -0.42378798
-0.33619824 -0.40179667 -0.4570597 -0.27676713 1.051936 -0.67791814 -0.7517878 -0.68190974
0.57260305 -0.7320245 -0.6041108 -0.6220586 -0.39796758 0.19849473 -0.3237613 -0.5431636
0.6574063 -0.39482653 0.64061254 0.5287134 -0.75074553 0.79570895 -0.4614414 -0.7159159
-0.52544624 -0.70797193 -0.5030689 0.17675772 0.61479473 -0.44870275 -0.7314828 -0.6376474
-0.46232596 -0.47308713 -0.5457784 0.53585887 0.5135583 0.6505536 -0.66941804 -0.30453357
-0.4505469 0.5481161 -0.65943986 -0.26396656 -0.28419134 -0.6622665 1.0368016 -0.53770065
-0.6871929 -0.6915497 -0.5016395 -0.5256712 0.5071935 -0.60633224 0.5156429 -0.56158733
-0.519277 -0.09894998 0.6056847 -0.7022969 -0.6465009 0.7942026 -0.44571862 0.6592769
0.54871464 -0.5499339 -0.61139727 -0.6308075 0.5120932 0.51977426 -0.45574707 0.58603245
-0.627298 0.66602606 -0.1947509 0.5141386 0.3742509 0.67043483 -0.3550144 0.67371404
0.56846017 -0.5130007 -0.4804803 -0.22328964 -0.49818185 0.65473425 -0.56078535 1.0872912
-0.554819 0.31138387 -0.46998057 -0.4756188 -0.54196864 0.5616743 -0.34331232 -0.4885995
0.5971653 0.5444325 0.55589986 -0.53775585 0.4132407 -0.42514837 0.64215755 0.31207615
-0.45904472 -0.800124 1.1367816 -0.5468966 -0.63990605 0.5665096 -0.7276279 0.5957699

tiles_emb.hidden_layers.2.bias f4 [128]
00000000: f580 c5bd e72a 083f 6aec 2bbe aa90 c4bd
00000010: 82b9 0fbf 303a 883f e9cb f43e f3ef 133c
00000020: aaa7 8ebe cb92 923d 1285 773d 6dcd 00be
00000030: d080 db3e 0602 383e d143 77bf 5e15 5ebf
00000040: afe1 273e a6f5 1bbe 803b bebd 4ca8 f63d
00000050: 7022 65bd e739 d0bd e7f3 953d 3df4 9a3d
00000060: b6f2 2cbf 03c7 a33e a8b0 253d 73df 91be
00000070: d1ef 213d 89ea 1bbe 6229 dbbc 708d 1cbf
00000080: 7e01 f3be d6a8 ad3d 4516 553f 493f f2be
00000090: 2441 6fbf 9493 bc3e 4be9 213e 3658 12be
000000a0: 532a 5dbe bee2 863c d433 343f 15b5 54bd
000000b0: b007 92be d31f 39bf 5a17 52bf 722c 83bf
000000c0: 7e5e 543f 092e f9be 178a 78bd ca2e ff3c
000000d0: df54 373e f7a4 b2bd b863 813e e0f8 d33e
000000e0: 0c45 85be 3297 54be 35dc 533f 719a 68bf
000000f0: c762 803e 61de f9bd ef6c a6be b5c6 8ebf
00000100: 49b6 bcbe 06d8 1e3e 1d31 b03e 04f6 003f
00000110: a4f1 623f f465 a53d cf62 5e3f c565 a2bd
00000120: 186b dbbe 4704 e0be 9e84 323f 078a 7abe
00000130: a6fd 123f a595 00bf 75b9 713e a0ac 6d3e
00000140: 6879 47bf 37f9 393e 3a7b 323f 686d c8be
00000150: 0fc9 833e de3c 27bf f557 db3e 3889 743f
00000160: b9a5 7bbe e3b6 25be c31e c1bc adcb 0d3f
00000170: 03b9 5fbd 7e40 4c3f f005 8d3d 7244 4cbe
00000180: 3231 683d 4120 16be d38d 5abf 9e4e 303f
00000190: 3fda f03b 892b 1e3e 4c50 0fbd 797b 5a3e
000001a0: 74a0 10be 816f 3e3c 64c3 823f 6404 053f
000001b0: fb48 10bf 5977 dc3d 2a5a d1bd c3dd 0cbd
000001c0: a270 833f 9976 39bf e23e 8c3e cc73 b5be
000001d0: a85f 723f 5a5a c7be 9bbe f13c 097b 643f
000001e0: 7b80 fcbd 952a 633f 7b8c c73d 9018 a6be
000001f0: d86d 903e ef5f c4be 977c 85bd 2bcc 70be
-0.09643737 0.53190464 -0.16789404 -0.09597905 -0.5614244 1.0642757 0.4781182 0.009029376
-0.27862293 0.07156905 0.06042964 -0.12578364 0.42871714 0.17969522 -0.96587855 -0.86751354
0.16394685 -0.15230426 -0.092886925 0.12043819 -0.055941045 -0.10167294 0.07321911 0.07566116
-0.6755785 0.3198777 0.040451676 -0.2849079 0.039535347 -0.15226187 -0.026753131 -0.61153316
-0.47462076 0.084794685 0.83237106 -0.47313908 -0.9345877 0.36831343 0.1581165 -0.14291462
-0.21598177 0.016465541 0.70391583 -0.051930506 -0.2852149 -0.72314185 -0.8206688 -1.0247939
0.82956684 -0.48667935 -0.060678568 0.03115024 0.1790347 -0.08722871 0.25271392 0.41400814
-0.2602924 -0.20760801 0.82757884 -0.9086066 0.2507536 -0.122006185 -0.32504985 -1.115439
-0.36857823 0.15512094 0.3441247 0.5037539 0.88649964 0.08076087 0.8686952 -0.07929567
-0.42855144 -0.43753263 0.6973361 -0.24466716 0.57418287 -0.5022834 0.23605902 0.23210382
-0.77919626 0.18161474 0.6971928 -0.3914597 0.25739333 -0.6532725 0.42840543 0.9552188
-0.24574937 -0.16183047 -0.023574239 0.5538891 -0.0546198 0.7978591 0.06885898 -0.19947985
0.05668754 -0.14660741 -0.85372657 0.6886996 0.0073502357 0.15446295 -0.034988686 0.21336164
-0.14123708 0.011623264 1.0215878 0.51959825 -0.5636136 0.10764951 -0.102222756 -0.034391176
1.0268748 -0.7244659 0.27391726 -0.35439909 0.9467721 -0.3893612 0.029509833 0.89250237
-0.12329193 0.8873685 0.097435914 -0.32440615 0.28208804 -0.38354442 -0.06517904 -0.23515384

attention_layer.att.weight f4 [128, 128]
00000000: 5fc8 d03e a04b 5c3f 42b7 e7be 95c4 76bf
00000010: 4fcb 9f3e 4534 913f f0f8 473f e5dd 873e
00000020: ea59 f53e ed33 4fbe 5fae 3fbf 2179 9fbe
00000030: 540b 8b3f 191c a43d 0e5c 80bf 396b 7dbe
00000040: e70e 70bf 545b 3fbf 3943 07be d930 7a3f
00000050: 6232 6d3f e7d9 f8be 761f 113f b7e3 653f
00000060: c2c4 523e a26b 943e 74ec 0e3f 56ca 0a3e
00000070: c51b 4e3f 5334 84bf 01c9 a6be 3aee a53e
00000080: 21b1 90bf 995e 443f 7f92 8d3f f4ff 633e
00000090: ca7a 77bf 481b 923f 605a 7dbf a85a 6dbe
000000a0: f258 9c3e 8688 e6be 8ad0 1dbe 694e 87bf
000000b0: 6eb3 93be 1c37 f4bd 5612 00bf c5cc 79bf
000000c0: cb10 7e3f 6b50 46bf f0e4 72bf 0db3 8a3f
000000d0: 00a9 623f 2903 87bf ec3b 863f ddf8 fc3d
000000e0: 07c3 2dbe dc95 63bf 4e5e 47be d461 47be
000000f0: 6b23 0c3f 56de 60bf 513c efbe 9802 77bf
00000100: a566 3a3d c401 913f 43fb 623f e931 d5bd
00000110: 704c 843f 6fea 3f3e 57f0 993f a27d 37be
00000120: 9ecc 57bd fee4 6bbf dd2f c0bd 64d7 6cbf
00000130: 30f8 a23d 8bf2 47bf 296f 8e3e e09a 423e
00000140: 00f3 ee3d 5b12 803f 4753 debb 11b0 18bf
00000150: 63a4 743f 0d2e 58bf 0d66 7b3f 5550 9d3f
00000160: 84fd 17bf f926 163e 4e71 cfbe 6991 5f3f
00000170: cb03 0cbe c945 703f 7087 0abf c4fb 90bf
00000180: 6ce1 ac3d ccd4 143e 5076 583e 446c 723f
00000190: 8ed0 92bf b11f a9be a1ac 5c3f 9c05 313d
000001a0: 3066 723f 1a56 59bf 14df 883f af14 a23f
000001b0: 3112 a63b 985f 433f 58d2 263f 6c5c 3d3f
000001c0: 08b1 5a3f b883 abbd 8751 b53e 5d1f 9e3e
000001d0: 4e3d 073f 316f 77bf 1f55 693f 9801 223f
000001e0: 67a4 8cbf 8edd 923f 7774 843e 8a72 b93d
000001f0: 9f7a 563e a096 b83e 2d60 49bf a962 8ebf
00000200: f6b9 033f 09bb 053f 394b 473f 84d6 e83e
00000210: ad13 ec3e d0dd f8be f681 393f 0ccf 073f
00000220: 8ebe 4bbf b7a2 03bf fffe 3bbf f56f f1be
00000230: 03eb f2be d1d7 053f aa0a b53e 95b1 1f3f
00000240: effb 14bf 8a9c 38bf 3e67 10bf 00b7 c5be
00000250: b2e4 293f f9cc 423f b963 8abe 1ee7 1ebf
00000260: 7762 cc3e 2b17 cb3e c1f3 34bf eaaa fe3e
00000270: 5a5f 253f b1a2 dc3e 2203 153f 8384 d43e
00000280: 5a5b 183f 4d3b 06bf fbf8 e9be 31ca e13e
00000290: 2f2f 31bf 38f2 ef3e f771 0ebf 46b3 413f
000002a0: ff2f ef3e 46c8 3b3f 5822 f3be 2221 aa3e
000002b0: 8e28 133f af32 043f 8a45 103f b5a2 923e
000002c0: fc83 c33e 5606 48bf 415f 063f 16f0 c7be
000002d0: dfac b8be 264e b33e 7efc d8be d921 0abf
000002e0: de62 9fbe 4414 2fbf 7053 093f ed24 063f
000002f0: d6b3 23bf 23fc 29bf 34b5 6b3f e9b4 c93e
00000300: 0638 1b3f 9492 2c3f 6695 c9be 1f85 01bf
00000310: e7e7 f5be 173a 27bf e9d2 10bf 88c7 293f
00000320: a290 003f 404e 18bf 4e1f f5be de65 a53e
00000330: 72a4 0ebf 5bca 3bbf d773 063f 7232 f33e
00000340: 1f08 d13e 6609 c5be c4e2 f3be 7bb7 22bf
00000350: 1fbd 223f f03e 043f 2e51 19bf 4ff5 1fbf
00000360: f8f4 293f d58d f53e 4662 1b3f 772b 2e3f
00000370: bb98 1bbf 1fa6 8fbe 323d 453f 6329 b03e
00000380: 91db 043f 6442 31bf dd27 0e3f cb47 02bf
00000390: d860 153f 990a 9ebe fe43 173f d960 e53e
000003a0: d6ec b33e b2f5 41bf d3fa dabe 7643 c0be
000003b0: a55c f43e 6e40 3d3f aecf 363f 6185 4a3f
000003c0: 7b35 93be f55b fd3e e6bd 0ebf eb75 ca3e
000003d0: 253f 1abf 27ea ebbe 773e 1e3f 2b8e b7be
000003e0: 73ab ff3e e1db 12bf 0220 3abf 923e 213f
000003f0: 5df3 cc3e b8ed a53e 0992 37bf c1c7 2bbf
0.4077787 0.86052895 -0.45257002 -0.9639371 0.312098 1.1344076 0.78114223 0.2653648
0.4792016 -0.20234652 -0.74875444 -0.31147102 1.0862832 0.08013172 -1.0028093 -0.24747933
-0.9377274 -0.7474873 -0.13209237 0.97730786 0.92655003 -0.48603746 0.5668863 0.8980059
0.2058287 0.28988367 0.5582955 0.13553748 0.8051112 -1.0328468 -0.3257523 0.32408315
-1.1304055 0.76706845 1.1060332 0.22265607 -0.96671736 1.1414576 -0.98966026 -0.23179114
0.3053661 -0.45026034 -0.15411583 -1.0570804 -0.2884783 -0.11924574 -0.5002798 -0.9757808
0.99244374 -0.7746646 -0.9488058 1.0835892 0.88539124 -1.0547839 1.0487037 0.123521544
-0.16968928 -0.8890054 -0.19469568 -0.19470912 0.54741544 -0.8783926 -0.46725705 -0.9648833
0.045508046 1.1328664 0.88664645 -0.1040991 1.0335827 0.18741773 1.2026471 -0.17919019
-0.052685373 -0.9214629 -0.09384129 -0.9251616 0.07957494 -0.78104466 0.27819183 0.19004393
0.11667442 1.0005602 -0.00678483 -0.59643656 0.95563334 -0.8444527 0.9820259 1.229014
-0.5937121 0.14663304 -0.40516132 0.87331253 -0.13673322 0.93856484 -0.5411291 -1.1326833
0.08441433 0.145343 0.21138883 0.9469645 -1.1469896 -0.3303199 0.8620091 0.04321824
0.94687176 -0.84897006 1.0693078 1.2662562 0.0050680866 0.7631774 0.6516471 0.7396915
0.8542638 -0.08374733 0.35413763 0.30883303 0.5282792 -0.9665404 0.9114551 0.6328368
-1.0987672 1.1473863 0.25870106 0.0905505 0.20945214 0.36052418 -0.7866238 -1.1123859
0.5145563 0.5223852 0.77849156 0.45476162 0.4610876 -0.4860673 0.7246393 0.53050303
-0.7958764 -0.5142016 -0.7343597 -0.4715573 -0.47444925 0.52282435 0.353597 0.62380344
-0.5819692 -0.7211386 -0.56407535 -0.3861618 0.66364586 0.76094013 -0.27029207 -0.62071407
0.39918873 0.39666113 -0.7068444 0.49739772 0.6459862 0.43092874 0.58207905 0.41507348
0.5951439 -0.52434236 -0.4569777 0.44099572 -0.6921262 0.46864486 -0.55642647 0.75664175
0.46716306 0.7335247 -0.4748714 0.33228403 0.57483757 0.5163984 0.5635611 0.2863976
0.38186634 -0.7813467 0.52489096 -0.3905036 -0.3606939 0.3502056 -0.42380136 -0.539579
-0.31130117 -0.683903 0.5364294 0.52400094 -0.6394628 -0.66400355 0.9207337 0.39395836
0.6063236 0.6741116 -0.39371794 -0.5059375 -0.4802849 -0.65323013 -0.56571823 0.66320086
0.5022069 -0.594944 -0.47875446 0.3230428 -0.55719674 -0.73355645 0.5252051 0.47499424
0.40826508 -0.38483733 -0.47633946 -0.6356122 0.63569826 0.51658535 -0.59889495 -0.62483686
0.6638942 0.47959772 0.6069683 0.6803507 -0.60779923 -0.28056428 0.770465 0.34406576
0.5189753 -0.6924193 0.55529577 -0.508908 0.58350897 -0.3086746 0.5908812 0.4480045
0.3514163 -0.75765526 -0.4276949 -0.3755147 0.47726932 0.73926437 0.71410644 0.7910977
-0.2875174 0.4948422 -0.5575851 0.3954309 -0.602526 -0.46077082 0.61814064 -0.35850653
0.49935493 -0.5736676 -0.7270509 0.629861 0.4002942 0.32407928 -0.71707207 -0.67101675

attention_layer.att.bias f4 [128]
00000000: 1930 743f dc91 2dbf 1acb 0abf 934a 86bf
00000010: af63 44bf dd5c 91be 400d f3be 6334 e83e
00000020: 2cbe 28bf db8a 27bf 86ac 83bf 68b7 5abf
00000030: 6062 1d3f a280 52bf 49ff 363f 0d43 2b3f
00000040: 178c 08bf 2a25 4bbf 6cb4 19bf acb6 b2be
00000050: cbe8 a03f f76d 3d3d 3f0a 18bf 7675 703f
00000060: afc5 4a3f 3219 00bf 79e9 67bf b4f3 5d3f
00000070: 2945 4abf 815e a8be 3351 60bf 6a43 503f
00000080: e3ab 863d c7d2 16bc b547 323f 18bb ecbe
00000090: 43ad 79bf a1e4 663f c58c e4bd 0ce6 57bf
000000a0: 1f32 293f 82fe 2c3f d13b 363f ab8b fc3e
000000b0: 7a86 adbd 39f4 043f 51a6 8f3f 4da4 5f3f
000000c0: 837d 8fbf 1bd5 1f3f 53f9 563e bb9d c0be
000000d0: e14e 33bf 862c 1bbf e8fa 0dbf 8bf6 8d3f
000000e0: 5391 bd3e 5726 4b3e 2a6e f73e 1ef5 05bf
000000f0: 320e 403f d8fc 083e 5ded c6be ddf1 4fbf
00000100: 9aca 7bbf 399a 643f addb 7bbf f380 db3e
00000110: 5aa1 e5be 427e c1be 31b6 013f 7c58 34bf
00000120: dbed 2fbf 1308 efbe 00d4 873f 4682 843c
00000130: c7d6 3fbf d48c 3a3f 661a 793f e806 50bf
00000140: 26e0 b1be 9477 343f 72c9 0c3f 0a91 4ebf
00000150: 735b 223f 25f2 f53e 4c83 29bf 7de1 8dbf
00000160: 8b27 213f aed0 20bf 7ae7 f2be 7981 493f
00000170: d311 3a3f b282 3a3f 0e45 7cbf 3013 6abf
00000180: d22e 723f 5cfb 06bf 919c 1bbf b228 03bf
00000190: be03 16bf dd21 8c3f f866 39bf 1bf7 48bf
000001a0: 77cc 0abf cfaa b4bf 01ad c23e 8d07 153f
000001b0: 412e 18be a5cd 75bf 4d60 6b3f 1975 b0be
000001c0: 895e 873f eda3 a1be 949e 54bf bc45 263f
000001d0: 0750 233f 830e 463f 3e76 efbe 68a1 a4bf
000001e0: 6f8d 123f f489 2fbf 9ed6 883f a13e f2be
000001f0: 786a 863f 46f8 433f c6d3 283f 137d 263f
0.9538589 -0.6780069 -0.5421616 -1.0491508 -0.76714605 -0.28391162 -0.47471046 0.45352468
-0.6591518 -0.6544625 -1.0287025 -0.85436106 0.61478233 -0.8222753 0.71483284 0.66899186
-0.5333876 -0.7935358 -0.60040927 -0.34904993 1.2571043 0.04624745 -0.59390634 0.9392923
0.7920789 -0.50038445 -0.90590626 0.86699986 -0.7901178 -0.328846 -0.876239 0.81352866
0.065757535 -0.009205527 0.69640666 -0.4623649 -0.9753 0.9019261 -0.11159662 -0.843354
0.66092104 0.6757585 0.7118502 0.49325308 -0.08472915 0.51935154 1.1222631 0.8736008
-1.1210178 0.6243455 0.20993547 -0.3762034 -0.70042235 -0.6061481 -0.5546098 1.1090864
0.37024936 0.19838844 0.48326236 -0.52327144 0.7502166 0.13377702 -0.3885297 -0.8122843
-0.9835602 0.89297825 -0.98382074 0.42871818 -0.44849664 -0.3779164 0.5066863 -0.70447516
-0.68722314 -0.46685848 1.0611572 0.0161754 -0.749371 0.72871137 0.97305906 -0.8126054
-0.34741324 0.7049496 0.5499488 -0.8069006 0.6342079 0.48036304 -0.6621597 -1.1084439
0.6295096 -0.6281842 -0.47442228 0.78713185 0.7268345 0.72855675 -0.9854287 -0.9143553
0.9460269 -0.52727294 -0.60785776 -0.5123397 -0.5859946 1.0947834 -0.7242274 -0.78502053
-0.5421824 -1.4114627 0.38022617 0.58214647 -0.14861394 -0.96016914 0.9194382 -0.34464338
1.0575725 -0.31570378 -0.8305447 0.64950156 0.6379399 0.77365893 -0.467699 -1.2861757
0.5724706 -0.68569875 1.0690496 -0.47313407 1.0501242 0.7655071 0.6594814 0.650346

attention_layer.gate.weight f4 [128, 128]
00000000: d73d 0e3f 6d43 633f 4eed 38bf 1f84 b7bd
00000010: cd78 e4bd 84a7 713f 702d 0d3f e003 273f
00000020: aa55 763f 1ebe 0bbf aa8f aebe 04cc 8b3e
00000030: a706 823f 732a 2e3f 45de 77bf db0e 3ebe
00000040: 6d20 c2bd 9422 66be bbb6 20bf 1c2e f33e
00000050: cc0e 8c3e b873 5ebf 4089 893f 9f57 ef3e
00000060: b234 ca3c 94e3 363f a1a8 343f c6dc ccbd
00000070: 77b5 223e a150 88bf 32b5 77bd 6fef e4bd
00000080: c2c9 8bbf 83e4 863e d85b 23be 15a4 5abc
00000090: 435c 6cbf 3558 f73e fc8f 6dbe 4fea 67bf
000000a0: 5065 f63e c0b4 09bf 5192 66be 07a9 90bf
000000b0: c127 32bf 9d66 0ebe 2bb8 3abe 41f1 80bf
000000c0: 8bee 4d3f 67bf 91be 0a0c e0be 46d1 843f
000000d0: 79db 823f 5d03 87bf 99d7 843f 4176 3abc
000000e0: a527 25bf 89d7 80be 0e61 9ebd 4895 52be
000000f0: 8420 2d3f 7eb4 d5be 040d 1bbf 2290 64bf
00000100: ef42 193f bf1a 013f 9fd3 753f f167 0dbd
00000110: 38ba 3b3f 2dd4 153f e286 8a3f 63d8 48bf
00000120: a76b 2f3e 287e 1fbf 8982 303e 0e7d 4dbe
00000130: 4f11 7f3d f55f 5dbf 138b 203f 75a2 1e3f
00000140: ca97 5fbe 2c7d 8d3f e697 cd3d acba 123f
00000150: db2a 163f 9a49 39bf 537d 3c3f 9de4 953f
00000160: cd4f 24bf 11a0 383f bd66 1ebf 4ce5 773f
00000170: bc3a 09be 1e61 803f d170 59bf e1c3 81bf
00000180: 5bae 323f 3c62 bf3e 2459 eebd 5753 8e3f
00000190: c2eb 2ebf adb1 e23e 3bea 4e3e 7f52 233f
000001a0: 6424 413f a926 5fbe d1af 7f3f dec4 8f3f
000001b0: 8eac f3bc 58f7 343e d171 da3c 7fd6 a63d
000001c0: 8e37 8f3f e091 c4bd 579f 2a3f ea49 ba3c
000001d0: 39b3 803e 8e97 12bf 0c9b e83e f13d a3be
000001e0: fcd1 78bf 1e9a 8d3f 66c4 613f 758d 973e
000001f0: 4ef0 373f a04d 423d 1e9f 8fbe 8575 14bf
00000200: 416e babe 361d 26bf 82e0 2abf f5b4 c0be
00000210: c2b1 ebbe e8b9 8a3e 3804 44bf a416 0abf
00000220: f0e5 323f 454c cd3e 2b01 433f 68c7 023f
00000230: afd0 b93e b35d c6be 960c d5be 803a 08bf
00000240: 59dc 2f3f b2e0 493f de00 ff3e 8046 533e
00000250: 96c5 48bf 3471 37bf 6e89 a03e 492c f93e
00000260: 3a47 0bbf f225 623e da84 183f a127 eebe
00000270: 62af 3dbf 2e05 c2be a7d8 ecbe 2630 15bf
00000280: 7eb6 20bf ea94 f53e 70d5 c33e f81a 03bf
00000290: 45ee 423f b336 2dbf 1eee 373f a3d0 48bf
000002a0: 0e6f fbbe 00bb 1dbf 1e08 e73e 1ebe 7cbe
000002b0: af84 1dbf 620d 04bf 8827 fdbe f4d7 b7be
000002c0: 0cb1 38bf c9de 293f 1c88 08bf 5295 563e
000002d0: 4496 bb3e 3e1f 63be 94b2 a53e 1e7f 123f
000002e0: bacb c23e 4ec0 243f cf7c 3fbf b41a dcbe
000002f0: fc85 033f 5cc2 3f3f 6500 ffbe 4519 87be
00000300: 7cd6 0dbf 6677 45bf 70e7 073e 732f 163f
00000310: 57f3 ba3e 2669 383f 8ddd fe3e 7168 35bf
00000320: 9465 04bf 376e 493f 62d5 013f 0111 8fbe
00000330: e19b e43e 14c4 3d3f d3cf f2be 55d4 08bf
00000340: 6327 f7be f49c 783e 1ab2 0b3f 12fb 3c3f
00000350: 6f1b 42bf 70ec e6be c27d 073f a51d 0e3f
00000360: 0e0f eabe 0f97 01bf d8aa fbbe 49ee 41bf
00000370: 1611 d73e be9c 563e e363 18bf 4d66 68be
00000380: 0e0d 01bf b449 4b3f 4461 02bf 7da2 093f
00000390: acf7 10bf e3b7 b13e db36 30bf b289 febe
000003a0: 874f 17bf 51a8 553f 2472 b53e 0e6a 8c3e
000003b0: c277 18bf 3792 3bbf 0b0d 31bf 57e1 23bf
000003c0: 675b b83e 3d83 15bf cda1 f03e eca2 f3be
000003d0: 43db 173f cad9 193f 6bf1 49bf ab67 e83e
000003e0: 1079 7fbe feaa e33e 182b 3c3f 00cf 03bf
000003f0: dbfb f7be bf7b babe a435 303f a658 563f
0.5556311 0.8877476 -0.722371 -0.08960747 -0.111558534 0.94396234 0.5514746 0.6524029
0.96224463 -0.5458697 -0.34093982 0.2730409 1.015828 0.6803352 -0.9682353 -0.18560354
-0.09478841 -0.22474128 -0.62778825 0.47496116 0.2735504 -0.8689532 1.074501 0.46746537
0.02468333 0.71441007 0.7056981 -0.10003047 0.15889536 -1.0649606 -0.060475536 -0.11178481
-1.0920947 0.26346216 -0.15953004 -0.013344784 -0.9232828 0.48309484 -0.23199457 -0.905919
0.4812417 -0.5379143 -0.22516753 -1.1301583 -0.6959191 -0.13906331 -0.18234317 -1.0073625
0.8044211 -0.2846634 -0.43759185 1.0376365 1.0223228 -1.0547901 1.0378295 -0.011380733
-0.6451362 -0.2516444 -0.077333555 -0.20564759 0.6762774 -0.41739267 -0.60566735 -0.8928243
0.5986776 0.50431436 0.96026033 -0.034522954 0.7333102 0.5852688 1.0822413 -0.7845518
0.1713091 -0.62301874 0.17237295 -0.20067236 0.062272366 -0.86474544 0.6271221 0.6196664
-0.21835247 1.1053824 0.10038738 0.5731609 0.5865914 -0.7237793 0.7362873 1.1710392
-0.64184266 0.7211924 -0.61875516 0.96834254 -0.13401312 1.0029638 -0.8493777 -1.0137902
0.69797295 0.37379634 -0.11638096 1.1119183 -0.6832849 0.4427618 0.2020654 0.63797754
0.7544615 -0.21792091 0.9987765 1.1231954 -0.029745366 0.17672479 0.0266656 0.08146381
1.1188829 -0.09598136 0.66649383 0.022740323 0.25136736 -0.57262504 0.4543079 -0.31883195
-0.9719541 1.1062658 0.88190305 0.2960011 0.7185105 0.04743731 -0.28051084 -0.5799182
-0.36412242 -0.6488832 -0.6674882 -0.3763806 -0.46034056 0.2709496 -0.7656894 -0.53940797
0.69882107 0.40097252 0.7617366 0.5108552 0.36292025 -0.38743362 -0.41611165 -0.53214264
0.686956 0.7885848 0.4980535 0.20632362 -0.7842649 -0.7165711 0.3135485 0.486666
-0.5440556 0.22084787 0.59577715 -0.4651461 -0.7409574 -0.37894577 -0.46259043 -0.58276594
-0.6277846 0.47965175 0.38248777 -0.51213026 0.7614482 -0.6766159 0.71847713 -0.78443354
-0.49108166 -0.61613464 0.4512338 -0.24681899 -0.61530584 -0.5158292 -0.49444222 -0.35906947
-0.7214515 0.6635557 -0.53332686 0.20955399 0.3663808 -0.22179887 0.32362807 0.57225215
0.38046056 0.64355934 -0.7479982 -0.42989123 0.5137632 0.74905944 -0.49804989 -0.26386467
-0.554054 -0.7713531 0.1327188 0.5866615 0.3651378 0.72035444 0.49778405 -0.7086249
-0.51717496 0.786838 0.5071622 -0.2794266 0.44650176 0.74127316 -0.47424182 -0.5344899
-0.48272237 0.24278623 0.54568636 0.738206 -0.7582311 -0.45102262 0.52926266 0.55513984
-0.4571461 -0.5062112 -0.4915378 -0.7575422 0.42005223 0.2095823 -0.59527415 -0.22695275
-0.50410545 0.7940934 -0.50929666 0.5376356 -0.5662792 0.34710607 -0.688337 -0.49714428
-0.59105724 0.83459955 0.35438645 0.27424663 -0.59557736 -0.7326998 -0.69160527 -0.64015716
0.36007234 -0.5840338 0.46998444 -0.47585237 0.5931894 0.60097945 -0.78884 0.45391592
-0.24948525 0.44466394 0.73503256 -0.5148773 -0.48434338 -0.36422536 0.6883185 0.83729017

attention_layer.gate.bias f4 [128]
00000000: ba50 6c3f 2576 dd3e 527b 993f d1f9 2f3f
00000010: 9ca7 443f e347 d1bd 0242 5d3e 8050 7bbf
00000020: f485 f93e cccd c63e 735b 9c3e 01b8 513c
00000030: c157 433e 3b8f 313f 259c bbbe 93d9 583f
00000040: 5594 14bf 1fcd e93e 5272 e73d 6a32 f53e
00000050: 25db 6c3f 2579 bf3e 113b 043f 5157 033f
00000060: 5adb 3a3f fdc7 3cbf f077 553d 8562 6d3f
00000070: 9182 d3be f18e 60bf d958 3dbf 1cb9 21bf
00000080: 2a5c 2d3f fde5 413e cf46 3d3f 94ec acbe
00000090: c5a6 023f 1439 933f acc3 2e3f df4a 7dbd
000000a0: a912 3a3f 57f5 f9be 12f2 06bf 0975 bf3e
000000b0: 37b3 f9be 677b 363f e641 1abf 7661 f43d
000000c0: 144a d33e e227 c03e 5c17 87be 16fd afbe
000000d0: 6ff7 8dbe 9ce4 4b3f e9f6 a33e cb8d 36bf
000000e0: 3e9c 4abf a872 3abf 600d 163f 5d64 40bf
000000f0: b0d2 113f 7432 f33e 76d4 09bf b727 1d3f
00000100: 1786 ebbe 4fff f43e 0c8d 853f 70a5 b23d
00000110: 224c 3ebf 6af7 043f a68f ffbc a3db 0dbf
00000120: 598b ddbe 8d8d 273e d3f1 07bf ecfa a03e
00000130: 86b7 673d e507 42bf eeff 633d 5dfc 05bf
00000140: fe5b c7bc 96bc 903f 3059 a1be 41f1 763b
00000150: 3ce1 b53e e770 533f e09b 463f 52f7 06bf
00000160: 4b20 4a3f 2092 de3e 69a4 633f d34c 083f
00000170: 5f62 103f 4706 123f d1c2 053f 01b6 823f
00000180: 6712 663f ce7b 35bf 6e2c 29bf 57ef d7be
00000190: 1775 8a3e 75e6 7a3f e9f2 383f 7267 5c3f
000001a0: 52af 7a3f ebdd 383f 3cba 09bf 073d 8d3f
000001b0: a0c5 07bf 88a1 873f 631e 833e 26d6 34bf
000001c0: c331 013f 295e 5c3f 8b1a 81be e80e 913f
000001d0: c535 9b3f 78cc 003f 76af 813f 7173 113f
000001e0: 616f e7be b5a0 183f 8048 483f 7f5e d9be
000001f0: 8fc7 65bf 5d63 e0bd a250 2b3f de75 e93e
0.9231068 0.432542 1.1990759 0.68740565 0.7681825 -0.102187894 0.21607211 -0.9816971
0.4873501 0.38828886 0.3053852 0.012800218 0.19076444 0.6935918 -0.36642566 0.8470699
-0.58038837 0.45664307 0.11301102 0.47890025 0.9252189 0.37397113 0.5165263 0.5130511
0.72990954 -0.7374266 0.052116334 0.92728454 -0.41310552 -0.8771811 -0.73963696 -0.6317308
0.67718756 0.1893539 0.7393617 -0.33774245 0.5103572 1.1501794 0.6826732 -0.06183898
0.72684723 -0.48819992 -0.5271312 0.37393978 -0.48769543 0.7128205 -0.60256803 0.11932652
0.41267455 0.37530428 -0.2638501 -0.34372777 -0.2772784 0.79645705 0.32024315 -0.7131011
-0.79144657 -0.728312 0.5861416 -0.7515314 0.5696211 0.4749943 -0.53839815 0.61388725
-0.4600074 0.47851035 1.0433669 0.08722961 -0.7433492 0.51940024 -0.031196427 -0.55413264
-0.43270376 0.16362591 -0.5310337 0.31441438 0.056571506 -0.75793296 0.055663995 -0.523382
-0.024335857 1.1307552 -0.31513357 0.003768042 0.35523403 0.8259415 0.77581596 -0.5272113
0.78955525 0.4347086 0.88922745 0.53242224 0.564001 0.5704083 0.5225039 1.0211793
0.8987183 -0.70892036 -0.6608342 -0.4217479 0.27042457 0.980079 0.7224565 0.86095345
0.9792377 0.7221362 -0.53799796 1.1034249 -0.53035927 1.059617 0.2560912 -0.70639265
0.50466555 0.86081177 -0.25215563 1.1332674 1.2125784 0.50311995 1.0131671 0.56816775
-0.45202163 0.5962022 0.78235626 -0.42454907 -0.8975763 -0.10956452 0.6691991 0.45597738

attention_layer.w.weight f4 [1, 128]
00000000: addf 20bf d6a6 933d 9384 8cbf ecf5 2abf
00000010: 8d43 b3be 09b4 b03e a1fb 00bf e558 50bf
00000020: f783 11bf b1de b03e 869c 513d 13d3 b7be
00000030: b1da 1fbf c0f1 7d3f 1bc8 f33e 4a79 183f
00000040: bc76 ebbe b6cf 3dbf c9b1 49be 7a3e 213f
00000050: 4f7d f23c 9cbf 813d c06b 15bf 9de6 1f3f
00000060: 2c9d cebe 94e1 6dbf 717b 1cbf 0154 633f
00000070: 9184 85bf c813 05bf 8fce 44bf 1ce3 593f
00000080: 7e19 583e 3627 ebbe fac8 463f cbc9 fdbe
00000090: 3860 1bbf 0e82 453f fc0f 78bf 9d36 053f
000000a0: edf4 c5be 031d 283f 8391 fabe 181f 133f
000000b0: 1221 04bf 1d09 5abf 3ed7 213f 2db0 b43e
000000c0: d72f 1bbf 6d45 ef3e f51a 113f b5d0 9e3e
000000d0: 872a bf3e 65cb 89bf ea1c debe 5c99 cd3e
000000e0: 3277 d4be 2c0e 19be b2af b2be a041 15bf
000000f0: 9d4d f73e 8a58 453f e618 a6bd ada3 10bf
00000100: 8079 80bf 755c 1d3f ba69 0dbf 9d1e 10bf
00000110: d6f6 c9be f106 20bf 0e40 06bf de83 24bf
00000120: 38fe e13e 5fe1 45bc 0c82 663f 6405 053f
00000130: f5c8 02bf 3881 fabe 50c0 1e3f 9da2 20bf
00000140: 18b8 053e 6a47 873f 1683 ac3e 4bcb 48bf
00000150: 33ea b0bd 26f8 1e3f 7c74 f83c 96e0 46bf
00000160: 82ef 323f c184 b53e 8c00 523d 62ed 333f
00000170: 32dc 323f fadd 4f3f 7035 1bbf 71d7 223f
00000180: b940 e9bd 02ee 25bf 9c19 173e 8c93 aebe
00000190: 8513 dfbe fda1 883f 87ab 3abf c08b 3dbf
000001a0: 01f8 43bf 0e18 16bf b8c3 e4bd e052 8b3f
000001b0: 2b70 a2be 923c 2ebf 3c57 1a3f 0109 f13e
000001c0: 3903 413f ebdc 653e 367c af3e 71ec 773f
000001d0: 84d7 823f 13ea 9b3e 9e32 80bf 0977 15bf
000001e0: 6b2f 823d f69d 47bf a41c 0b3f 4e5a e83e
000001f0: 0d58 c73e 6f69 d0be 98b4 0f3f ef6d 78be
-0.628413 0.07209556 -1.0977958 -0.66781497 -0.35012475 0.34512356 -0.50383955 -0.8138564
-0.5684199 0.345449 0.051174663 -0.35903224 -0.6244307 0.99197006 0.47613606 0.5956007
-0.45989025 -0.74145067 -0.19696726 0.62985957 0.029600767 0.06335375 -0.5836754 0.6246126
-0.40354288 -0.9292233 -0.61125857 0.88800055 -1.0431081 -0.5198331 -0.76877683 0.85112166
0.21103474 -0.45928353 0.77650416 -0.49568018 -0.60693693 0.7715157 -0.9689939 0.5203646
-0.38663426 0.6566927 -0.48939142 0.5746932 -0.5161296 -0.85170156 0.6321906 0.3529066
-0.6061987 0.46732655 0.5668176 0.31018606 0.37337133 -1.0765196 -0.43381435 0.40156066
-0.4149719 -0.14946812 -0.3489967 -0.5830326 0.48301402 0.77088225 -0.08110218 -0.5649975
-1.0037079 0.61469203 -0.5523945 -0.5629671 -0.39446133 -0.6251059 -0.5244149 -0.64263713
0.44139266 -0.012077658 0.90042186 0.5196135 -0.51087886 -0.4892671 0.62012196 -0.6274813
0.13058507 1.0568669 0.3369376 -0.784352 -0.0863842 0.62097394 0.030328982 -0.7768644
0.6989671 0.35452846 0.051270053 0.7028409 0.6986724 0.81198084 -0.60628414 0.6360999
-0.11389298 -0.64816296 0.14755863 -0.34096944 -0.4356958 1.0674435 -0.7291798 -0.74041367
-0.765503 -0.58630455 -0.11170143 1.0884666 -0.31726202 -0.6806117 0.6028936 0.47077182
0.7539554 0.22447555 0.34274453 0.96845156 1.022202 0.30452022 -1.0015447 -0.5838476
0.063567005 -0.77975404 0.5434058 0.45381397 0.38934365 -0.4070544 0.5613494 -0.24260686

mlp.0.0.weight f4 [128, 128]
00000000: 8a9f 353f 7cd9 5dbf 1af9 1cbe b940 9b3e
00000010: eec6 2c3f 2277 43bf ab42 3abf bea8 6fbc
00000020: a1dd cb3e 35c4 cbbe adaa 4d3f f8ae b4be
00000030: 36a9 8bbe 3de0 a83e 0d62 343f 2ca7 6d3e
00000040: 6e43 de3e a376 fd3e d146 80be 134b e9be
00000050: 8f30 f7be 2e67 bfbe 3005 acbe b615 c3be
00000060: 3baa 2d3f b6f5 14bd b0c1 273f f50a 263f
00000070: baa2 40bf f9a7 223f f86f 993e af05 2e3f
00000080: cb69 7dbe be4d e1be f4f4 21bf 6205 953d
00000090: 155e d23e 5c25 2fbf 7295 283f 42a4 ccbe
000000a0: 055e c13e e0ce b1be 5d54 91be ea1c e03e
000000b0: daac 48be 3508 223f 7bc0 823e 84f8 403f
000000c0: 9480 1abf 611e 4c3f 32cf d13e 275d 9abe
000000d0: e759 3bbf 7659 9c3e 0716 28bf caf0 a1be
000000e0: 516b 5abe d748 013f be30 1bbf ccaf 343f
000000f0: 7689 913d 7189 243f 31d3 eabc d533 443f
00000100: 5cba 8e3e e48e c3be 03a5 48bf 1b74 a2be
00000110: 17b2 82bf 4aca ce3e 8fcf 8fbe 2049 13be
00000120: 922b a7b9 d59d 2b3f 0cee 2bbf 8a5b cb3e
00000130: 1809 8fbe 342e 5c3f 5f8a 303f a498 753e
00000140: e51c 0f3f dda3 2abf 07d8 33bf be76 2d3f
00000150: 1551 5dbf 33c6 563f 2e75 8abe 4cc3 1ebf
00000160: 6738 78be 36fa ffbd ac55 d9be 3e1b e9be
00000170: 710d bcbe 8eaa 40bf 97d2 27bf 9378 a53e
00000180: 6855 803e d73e 143f 1b29 823e 6319 3cbf
00000190: 2421 1dbf 1a09 acbe 7857 10bf f09b 5d3e
000001a0: 83e8 8fbd 25e4 503f 3e1e 48bf 1c07 a0be
000001b0: 8937 563e 6ad6 52bf e29b e1be 1d62 49bf
000001c0: a252 40bf cb68 0f3f e1c3 ea39 eaef 243f
000001d0: 5115 6ebe b88a 613f 9ef3 a8be 6264 bbbe
000001e0: bcb8 c73e 8197 35bf c6be 933e d3f2 7e3e
000001f0: 6f3a c23e 3c15 bb3e d4cc 433f 0a29 e93e
00000200: d9b0 093f 5809 37bf b994 cfbe 86cf 093f
00000210: 9b93 153f d096 e1be bbdc 0cbf 0d9c 703e
00000220: 265e c53e 0ef7 f8be 5b9e 083f 2ca0 07bf
00000230: d599 0abf 5cb0 1a3f 5916 d63e fb77 043f
00000240: dea1 de3e e435 ff3e e635 18bf 9c45 d5be
00000250: 7afa 08bf b72f e5be 1bd8 fabe 22bf 2ebf
00000260: a966 103f a4a0 503e 0df5 013f 529a 233f
00000270: f711 0dbf b7ea f23e 1131 263f a61c 1e3f
00000280: 1c79 c0be d36c 11bf c32b e1be 6759 e73e
00000290: b7f5 133f 461a 0cbf 6694 443f a34a bbbe
000002a0: 2d8d f63e 5116 08bf b52a 89be b6cc 0a3f
000002b0: 6bd5 02bf e28f 083f 4348 023f 030f da3e
000002c0: beed 10bf bb51 1b3f 8339 053f 4af6 d6be
000002d0: 74ad efbe 3eec 053f aac6 e0be cc4f 05bf
000002e0: 0e13 f0be 127e 0a3f 1817 00bf c204 023f
000002f0: c72b 443e 1d0b d53e f4e4 1bbe e702 e93e
00000300: 6fb5 483e 2712 f8be 0a8f debe f25b 08bf
00000310: 651b 47bf eda0 e33e 7ddb 1abf 4937 c9be
00000320: b731 a73e a687 ee3e 9449 07bf cba0 073f
00000330: 03ab 04bf a9e4 1f3f 9caf 013f 0382 1a3f
00000340: ea6a 0e3f 720c f1be 8a78 0cbf 7c57 173f
00000350: 4054 08bf 1a62 413f b9ec 0abe 1486 1dbf
00000360: d655 e0be df56 25bd dabc 06bf 6092 0dbf
00000370: b6b8 27bf 195e f3be a816 e0be dfc3 f53e
00000380: d78a 163f e36e 173f 9f1f 0d3f 010c 31bf
00000390: 2f1e 84be f63a 09bf fc71 2cbf 5559 1a3f
000003a0: 5667 af3d 487a 043f a1f3 ddbe 2150 ffbe
000003b0: e429 003f 09cf 08bf 3fea d6be 24b2 0bbf
000003c0: b7c1 cbbe 3429 033f 9f53 843e 80bf f53e
000003d0: 3896 11bf bebe 3c3f 1eff 07bf fcaa f5be
000003e0: ea9f 013f 07a6 13bf 8eec ee3e e66a ff3e
000003f0: 989f 0a3f 8044 e73e 7358 283f c001 df3e
0.7094656 -0.8665998 -0.153294 0.30322817 0.6749104 -0.7635366 -0.7275798 -0.014627634
0.39817527 -0.39798132 0.80338556 -0.3528974 -0.27277535 0.3298358 0.70462114 0.23208302
0.4341082 0.49504575 -0.2505403 -0.4556509 -0.48279235 -0.37383407 -0.33597708 -0.38102502
0.67837876 -0.03636714 0.6552992 0.6486047 -0.752483 0.63537556 0.29968238 0.6797742
-0.24747388 -0.44004625 -0.63264394 0.07276417 0.41087404 -0.6841638 0.65853035 -0.3996907
0.37767044 -0.34728146 -0.28384677 0.4377206 -0.19597188 0.6329377 0.25537476 0.75379205
-0.60352445 0.79733855 0.4097839 -0.30149195 -0.73184055 0.30537003 -0.6565861 -0.3162902
-0.2133 0.5050177 -0.6062125 0.70580745 0.07106297 0.6427222 -0.028665157 0.7664159
0.27876556 -0.38194954 -0.7837679 -0.31729206 -1.0210599 0.4038871 -0.28088042 -0.14383364
-0.00031885185 0.6703771 -0.67160106 0.39718276 -0.27936625 0.86008 0.6896114 0.23984009
0.55903465 -0.66656286 -0.70251507 0.6775931 -0.86451846 0.8389618 -0.27042526 -0.6201675
-0.24240266 -0.12498896 -0.42448175 -0.45528597 -0.36729005 -0.75260246 -0.6555571 0.32318553
0.2506516 0.57908386 0.25421986 -0.7347624 -0.61378694 -0.33600694 -0.56383467 0.21641517
-0.0702677 0.8159812 -0.78171146 -0.31255424 0.20919622 -0.8235842 -0.44064242 -0.78665334
-0.7512609 0.56019276 0.000447779 0.6442858 -0.23250319 0.88102293 -0.32998365 -0.36600024
0.3900813 -0.709343 0.28856486 0.24897318 0.37935206 0.36539638 0.7648442 0.45539123
0.53785473 -0.7149863 -0.40543154 0.5383228 0.58428353 -0.44060373 -0.5502431 0.23497029
0.38548392 -0.48625988 0.5336663 -0.5297878 -0.5414098 0.60425353 0.41813925 0.51745576
0.4348287 0.49845803 -0.5945724 -0.4165467 -0.53507197 -0.44762966 -0.48993 -0.68260396
0.56406647 0.2037378 0.5076454 0.6390735 -0.5510554 0.47444698 0.6491862 0.61762464
-0.375924 -0.5680668 -0.439787 0.45185396 0.57796806 -0.5472759 0.7678894 -0.3658038
0.48154584 -0.5315905 -0.26790395 0.54218614 -0.511069 0.5334455 0.5089151 0.42589578
-0.56612766 0.60671586 0.5204088 -0.4198478 -0.46812022 0.523136 -0.4390157 -0.52074885
-0.46889538 0.5409862 -0.5003524 0.5078851 0.19157325 0.4161004 -0.15224057 0.45510027
0.19600461 -0.4845135 -0.43468505 -0.532653 -0.77776176 0.44458714 -0.6049116 -0.39299992
0.32655117 0.46587867 -0.52846646 0.52979726 -0.51823443 0.6245828 0.50658584 0.6035463
0.5563189 -0.47079808 -0.5487143 0.59117866 -0.53253555 0.75540316 -0.13566865 -0.6153271
-0.43815488 -0.04036605 -0.52631915 -0.55301476 -0.6551622 -0.47532728 -0.43767285 0.48001
0.588056 0.59153575 0.55126375 -0.6915894 -0.25804278 -0.5360559 -0.67361426 0.6029256
0.08564632 0.51749086 -0.43349937 -0.4986582 0.5006392 -0.5344091 -0.4197559 -0.54568696
-0.3979623 0.51234746 0.25845048 0.47997665 -0.5686984 0.7372855 -0.5312365 -0.47982013
0.50634634 -0.5767521 0.46664852 0.49886245 0.5414977 0.4516945 0.6575996 0.43556023

mlp.0.0.bias f4 [128]
00000000: deec 40bf 3d70 30bf d837 553e 96f9 50bf
00000010: 847d 69bf ecd6 b13d f79f 65be c54d edbe
00000020: 2f0b a2bc 9a38 58bf e8f7 f1be f7da 10bf
00000030: 00c5 79bf 9b95 6abf 96a8 7bbf 9b03 19bf
00000040: 8315 60bf e08a 6abf e555 d5be 58bc dcbe
00000050: feb1 be3c 41ad c93e 20f4 5fbf bbfc e9be
00000060: d64c 6dbf 5182 72bf 6e60 cf3e c9ff 703e
00000070: 3d64 163f 6c11 1fbd 9f91 15bf 3724 fa3e
00000080: eeb6 ad3e 46c0 cd3e ccab 11bf bc8d 9d3d
00000090: 9054 70bf 4b5f b23e 2984 7f3c 37fc 8a3e
000000a0: 2833 9abe 2e1f 5a3f 8025 3a3f 2ec9 f7be
000000b0: f8a2 bbbe 752b 06bd d536 1bbf 23b2 9ebe
000000c0: a58d 9fbf 78c9 6ebf d062 fdbe 9775 e3be
000000d0: e303 b73e 61b4 f8be 5eca 84bd 1f55 ca3d
000000e0: fa97 023e 8ab3 e2be 98cb 41bf ca16 ff3e
000000f0: f20f 1abf 605d 62bf 8abb 61bf fefe fb3e
00000100: 029b 55bf 699c 43be 983e 7abf 9c39 1cbf
00000110: 73b7 0abf 6f60 4ebf 0fe8 f03e 53ba 64bf
00000120: c4c6 233d 6184 7abf 65d1 84bf 7702 e6be
00000130: 46cc fabe bbe1 153f aa3d dabe ab7e 78bf
00000140: e4c2 523f 7ada 56bf 518c 31bf e1d0 28bf
00000150: a82d 5dbf 6171 3dbf 8cce 63bf f39b 19bf
00000160: cc3d 843e f38c e33e 6c8d 39bf 66d0 4abf
00000170: 1072 61bf 584d 09bf 6447 d6be 746a 72bf
00000180: 158f dabe 1aae d7be 1f60 b9be 40fd 8abf
00000190: 1a6b f0be ad44 27bf 1c05 06bf 25e3 13bf
000001a0: b87a fe3d 85fb 3abf 13a4 f23d 114f 15bf
000001b0: 1fd8 0ebf 7e26 84bf b04b e1be 8dbf dabe
000001c0: 7284 2f3e b3a5 1cbf 5318 e4be 6978 47bf
000001d0: 2faa 00bf b0f1 f7be 7212 ffbe f463 83bd
000001e0: 777e 6e3e 4a58 54bf b51a dfbe 22e4 cfbe
000001f0: e233 74bf f203 eabe d60f 4bbf 3d2c d1be
-0.7536143 -0.6892126 0.20822084 -0.8163084 -0.91207147 0.08683571 -0.22424303 -0.46348396
-0.019780723 -0.8446137 -0.4725945 -0.56584114 -0.97566223 -0.9163453 -0.98304117 -0.59771127
-0.87532824 -0.91618156 -0.41667095 -0.43112445 0.023278233 0.39389995 -0.8748188 -0.4570063
-0.9269537 -0.947301 0.40503258 0.23535074 0.587467 -0.038834974 -0.58425325 0.48855755
0.33928627 0.40185755 -0.56902766 0.07693049 -0.9387903 0.34838328 0.015595474 0.2714555
-0.30117154 0.85203826 0.7271347 -0.48395675 -0.36647773 -0.032756288 -0.6063054 -0.30995283
-1.2465101 -0.93276167 -0.4948945 -0.4442565 0.35745153 -0.48575118 -0.06483911 0.09879517
0.12753287 -0.44277602 -0.75701284 0.49822074 -0.6018058 -0.8842373 -0.88176787 0.4921798
-0.8343965 -0.19102634 -0.9775176 -0.61025405 -0.5418617 -0.80615896 0.47052047 -0.8934681
0.03998448 -0.97858244 -1.0376402 -0.44923756 -0.48983973 0.5854756 -0.4262517 -0.9706828
0.8232863 -0.8392712 -0.6935473 -0.65943724 -0.8639779 -0.7400113 -0.8898704 -0.60003585
0.25828397 0.44443473 -0.7248142 -0.7922424 -0.8806467 -0.5363364 -0.41851342 -0.94693685
-0.42687288 -0.42125016 -0.36206147 -1.0858536 -0.46956712 -0.65339166 -0.52351546 -0.5776847
0.124257505 -0.7304004 0.11847701 -0.5832377 -0.55798525 -1.0324247 -0.44003057 -0.42724267
0.17140368 -0.61190337 -0.44549808 -0.77918106 -0.5025968 -0.4842658 -0.4981876 -0.06415549
0.2329043 -0.8294722 -0.43575063 -0.4060374 -0.95391667 -0.45706135 -0.7932104 -0.40854064
