dataset/models/PDAC_Moffitt15_NormalStroma/model.pth (torch, 696702 bytes, 14 tensors)

tiles_emb.hidden_layers.0.weight f4 [128, 768]
000000 57 28 d0 bb 0c 0f 64 bc 75 1d a2 3c d3 89 48 bc
       -0.006352465 -0.013919603 0.019789437 -0.012239891
000010 f0 78 d7 3c 54 04 3c bc aa 38 c1 bc a9 4b e2 3c
       0.026302785 -0.011475641 -0.02358659 0.027623968
000020 07 cf 4b 3b d6 38 0f 3d a5 2e 53 3c 1a 4c b5 bc
       0.003109874 0.034966312 0.012889539 -0.022131015
000030 99 e6 8e 3c 43 24 4e ba 15 d8 0f bd 13 95 e7 ba
       0.017443942 -0.000786368 -0.03511818 -0.0017668329
000040 55 fd 63 3c 49 09 01 bc eb 22 c0 bc ea ca 0b bb
       0.0139153795 -0.007875749 -0.02345415 -0.0021330663
000050 8c 14 93 bc be 95 dc 3b f8 a6 91 bb ba 32 56 bc
       -0.017954133 0.006731718 -0.004444953 -0.013073618
000060 40 8b f8 bc 0c a1 df 3c e9 44 94 bb 8a d5 b6 3c
       -0.030339837 0.027298473 -0.0045248163 0.02231862
000070 93 0c ba 3b 79 44 e2 3c d8 4d 91 bc f5 a1 23 3d
       0.0056777685 0.027620541 -0.017737314 0.039949376
000080 98 bf 8b bc c5 79 71 bc 83 d2 16 bb 49 c5 83 3c
       -0.017059132 -0.014738505 -0.0023013658 0.016085284
000090 09 22 e1 3c 95 83 23 bd a0 f2 c1 39 f5 3e dc ba
       0.02748205 -0.03992041 0.00036992598 -0.0016803431
0000a0 a0 a2 06 3b 55 a0 10 bd f0 97 72 3c 3b de 2b bc
       0.002054371 -0.035309155 0.014806733 -0.010489996
0000b0 7c b5 b3 3c b9 f3 46 39 cd 8c 3a 3c 7a 92 f8 bb
       0.021937124 0.00018973545 0.011386109 -0.0075858207
0000c0 de f5 ec bc c0 a1 8b bc c6 86 a1 bc 44 a9 07 3b
       -0.028925832 -0.017044902 -0.019717585 0.0020700255
0000d0 30 e3 f2 3b 47 b8 e8 bc ec b3 0d bd ac 09 e7 39
       0.0074123368 -0.028408183 -0.034595415 0.0004406696
0000e0 15 e4 d1 bc 58 33 83 3a 4e 1c 32 3c 4c 55 56 3c
       -0.025621453 0.0010009808 0.010871006 0.01308186
0000f0 ab 37 3b 3a 9d 75 9f 3c ee 11 0e 3c 27 02 91 3c
       0.0007141779 0.019465262 0.008671267 0.017701222
000100 5c e4 e3 38 67 87 4d 3c bb d2 b3 bc 9b 59 3b 3c
       0.00010866739 0.012544489 -0.02195107 0.011434938
000110 69 e6 da 3b 11 7e aa 3c 4f e5 05 ba be 1a 25 bd
       0.006680299 0.020812066 -0.0005107717 -0.040308706
000120 d9 ef 99 bc 92 df 8c bc b8 6a b5 3c 0f b7 48 3b
       -0.018791126 -0.01719645 0.022145614 0.003062669
000130 b7 93 03 3d 9d 8a e9 bc f2 63 e8 3b 2d e1 a6 bb
       0.032123294 -0.028508479 0.0070919925 -0.005092761
000140 18 25 47 3c 3a 46 42 3c 4d dc 8c bc 4d 36 10 3d
       0.01215484 0.011857564 -0.017194891 0.035208035
000150 8c 37 6b bc 03 32 c8 bc 9b c2 92 bb 07 4b 5a bc
       -0.014356505 -0.02443791 -0.004478765 -0.013323552
000160 01 d1 e4 bc f2 54 49 bc b9 ea f6 3b 8c 0e 01 bd
       -0.027931692 -0.012288319 0.0075353053 -0.031508014
000170 36 ec 1f 3d dc 96 67 bc fa d3 20 bd 8f 9e 00 3c
       0.039043628 -0.014135089 -0.039264657 0.007850303
000180 3c e8 40 3c ec de 33 3c 4b 26 04 3d 8b 5b de bc
       0.011774119 0.010978442 0.03226308 -0.02714326
000190 bc 9c 69 ba 75 54 cd 3c 12 1c 19 3d 05 e7 4c 3c
       -0.00089116 0.025064686 0.037380286 0.012506251
0001a0 ed 65 90 3b fd fd 28 3c f8 89 03 3c 49 76 d9 bc
       0.0044066817 0.010314462 0.0080285 -0.02654566
0001b0 9b 0a 89 ba 4c d8 11 bd cb 77 98 3c 6c a4 1c 3c
       -0.0010455431 -0.035606667 0.01861181 0.009560686
0001c0 50 7c c3 bb a7 a1 ee bb ba c4 9f 39 bf 30 93 ba
       -0.005965747 -0.007282454 0.00030473416 -0.0011229737
0001d0 d5 8b bd bc b4 0d 3c bc 8d 38 e0 bc 69 a5 fd 3c
       -0.023137966 -0.011477876 -0.027370716 0.030962663
0001e0 3e 9b e1 bc f1 24 1b bc b7 db e8 bb d1 9e d2 3b
       -0.027539846 -0.009469257 -0.00710627 0.006427624
0001f0 ea 45 fd bb 2d c6 4a 3c 1b a0 90 3c eb 0e 20 3b
       -0.0077292817 0.01237635 0.01765447 0.0024422954
000200 2d ec 97 3b d0 04 db 3c 55 e4 c2 bc 40 09 d1 bc
       0.0046363086 0.026735693 -0.023790518 -0.025517106
000210 72 8e 96 bc 7d 06 ef 3c 5f 19 0e 3c bb fc 0e ba
       -0.01837847 0.029177899 0.008673041 -0.000545453
000220 0e 61 8e bc 59 25 9f bc 33 f1 a8 3c 88 5c 7e bc
       -0.017380264 -0.019426988 0.020622825 -0.015524991
000230 d5 43 c4 bb 2e 22 8e 3a 3b 92 2c 3c 4b 16 0a 3b
       -0.0059895315 0.0010843927 0.010532911 0.0021070417
000240 88 0a 23 bc 63 9c c8 bc e1 1f 5c bc d8 81 d6 bb
       -0.009951241 -0.024488633 -0.013435335 -0.0065462403
000250 46 9f 6c bc 53 71 4a 3b 8d e0 96 3a 83 eb dc bc
       -0.014442271 0.00308903 0.0011511013 -0.02696777
000260 d3 1d bc 3c 61 7f 20 3d ad 42 f3 3c bc af 14 3b
       0.02296344 0.039183978 0.02969488 0.0022687754
000270 5a 11 38 bc e8 fb 38 bc 49 57 e5 3a d5 5c c1 3c
       -0.011234606 -0.011290528 0.0017497326 0.023603836
000280 af 22 d6 3b 10 56 57 bb ab 60 8d 3c 21 d5 40 3c
       0.0065348963 -0.0032857694 0.017258009 0.011769564
000290 b7 e2 3f 3c 15 58 21 bc 8d b7 9a bc c0 1b 27 bc
       0.011711768 -0.009847661 -0.018886352 -0.010199487
0002a0 2c 96 1e 3d 28 26 1b bc 8b 0d f6 3b 53 af 70 3c
       0.038717434 -0.009469546 0.0075089387 0.014690238
0002b0 6b fd cb 3c 82 fc c7 bb b0 b3 85 3c e0 0d b9 bc
       0.024901113 -0.0061030993 0.016321033 -0.022589624
0002c0 cd ef 1b 3d 10 46 49 3c a0 37 17 bd 23 8b 04 3d
       0.03807049 0.012284771 -0.036918283 0.032359254
0002d0 75 f4 82 bc 8b 37 54 bc be f7 ad 3c 78 1c 2e bc
       -0.015985707 -0.012952696 0.021236297 -0.010626905
0002e0 23 60 07 bb e7 47 71 3b 4e b7 ac bc bc d6 e9 3c
       -0.0020656667 0.0036816539 -0.0210835 0.028544776
0002f0 20 6e 7b bc f8 49 56 3c b3 5e 96 3c 17 72 76 3c
       -0.01534608 0.013079159 0.018355703 0.01504185
000300 16 fa f8 3c 21 06 19 3d f6 6d 5b bb 24 27 04 bc
       0.030392688 0.03735936 -0.003348229 -0.0080659725
000310 e0 8e 12 3b 2c 03 4d 3d 4f 4e 1c 3d 59 7e 50 3c
       0.0022362992 0.050051853 0.03816062 0.012725436
000320 04 0a 20 3c 47 8d 18 bd 9a 4a 92 3c 26 d2 aa 3b
       0.009768013 -0.037244108 0.017857838 0.00521304
000330 5e 0a cc bc 64 0d a6 bc 9d f5 d2 bc 9a 8a ef bc
       -0.024907287 -0.020270057 -0.025751883 -0.029240895
000340 16 5b 01 bc 62 5a 92 3c 3f 10 3c bc 81 d1 fb 3c
       -0.007895252 0.017865364 -0.011478483 0.030739548
000350 b2 df ff bb 94 e5 56 bc 47 8c 05 bc e0 11 66 3b
       -0.007808649 -0.013116259 -0.0081511205 0.003510587
000360 b7 61 18 bd b5 4c 75 3c bf 0e 25 3d f9 3c ca 3c
       -0.037202563 0.014971902 0.040297266 0.024687277
000370 3d a0 ab 3c 86 06 d1 3b 56 1e 31 bc 00 96 2e bc
       0.020950431 0.0063789515 -0.010810455 -0.01065588
000380 e2 3e 0b bc f2 ea 8a 3c c9 90 a5 3c 27 70 08 bc
       -0.008498879 0.016957734 0.02021064 -0.00832752
000390 75 1d c7 3a 12 f1 0a 3d ed da 0c 3c a7 80 a5 3c
       0.0015191274 0.03392131 0.008597118 0.020202948
0003a0 d8 a7 cb bc cc d0 66 3d a5 9b 03 3c 57 03 3b bd
       -0.024860308 0.056351468 0.008032714 -0.045657482
0003b0 da 8c 7f 3c 19 46 bd 3b 20 e5 1e bd 06 ac 34 bc
       0.0155975465 0.0057761786 -0.03879273 -0.011027342
0003c0 58 8f ad 3b 20 9a ae 3c fc 6e 98 3b 03 87 06 3c
       0.005296629 0.021313727 0.0046519022 0.0082109
0003d0 23 a0 26 bd a5 54 3e 3c e3 c0 1e 3c 34 55 52 3c
       -0.040680062 0.0116168605 0.009689542 0.012837697
0003e0 07 7d 34 bc a7 47 06 3c 6f 76 1e bc 08 07 24 3b
       -0.011016137 0.008195794 -0.009671791 0.0025028605
0003f0 3c 11 28 bc 4d ac 6f bc 36 ee d9 3c 0a 8c e3 bc
       -0.010258015 -0.014628482 0.026602846 -0.027776737

tiles_emb.hidden_layers.0.bias f4 [128]
000000 af 39 ee 3b a4 94 87 3c 5c 23 7d 3c ac 3b 6a bc
       0.00727006 0.01655037 0.015450325 -0.014296453
000010 59 86 32 bc 9e 57 4a 3c 3d 79 db b9 ca a1 47 bc
       -0.010896289 0.012349991 -0.00041861265 -0.01218457
000020 48 8d 87 3c 07 5c dd bc d6 d8 20 3c 64 4c 36 3d
       0.01654686 -0.027021421 0.009817323 0.044506446
000030 86 37 17 3c 92 1f 9b bc 87 14 d2 bc c1 7e 50 bc
       0.009229546 -0.018935952 -0.025644554 -0.012725533
000040 5b 6b f6 bc 59 51 3a 3d 95 74 71 3b 22 18 26 3d
       -0.030080488 0.045487735 0.003684317 0.04055036
000050 af 6f 58 3c 4b 4a c1 bb 3d ec ef 3c 33 a0 b9 3b
       0.013210221 -0.005898749 0.029287452 0.005664849
000060 75 4c 6a 3c f2 da 3b bc 70 91 7b 3a 23 30 dd bc
       0.014300455 -0.011465775 0.0009596562 -0.027000492
000070 96 13 6f bc 0d 1f 31 3c 51 82 05 3d 2e b6 b2 bc
       -0.014592072 0.010810626 0.032594983 -0.021815386
000080 28 ba bb 3c 06 d2 b8 bc 03 5e 7d bc df 6a 14 3c
       0.022915915 -0.022561084 -0.015464309 0.009058683
000090 e9 2b da ba 3e 4d c6 3c 58 4f bb 3b 0c 87 5b 3c
       -0.0016645166 0.024206754 0.0057162456 0.013398897
0000a0 c5 12 01 bc 72 82 e4 bc 5e cf b5 bc 58 6d df 3b
       -0.00787801 -0.027894232 -0.022193607 0.0068184547
0000b0 90 a7 cf bc 28 64 ab bc 8f ef d9 3c b5 10 23 3c
       -0.025348455 -0.020921782 0.026603488 0.009952714
0000c0 e7 43 07 bc 0d 72 f8 3c 94 4d 90 bc 2f de aa 3c
       -0.008255935 0.030327821 -0.017615117 0.020857899
0000d0 6d 80 8d 3c 5d 6c 8b bc e6 c0 9a 3b 72 f2 9a 3c
       0.017273152 -0.017019445 0.0047227023 0.018914435
0000e0 76 9e eb 3b a2 50 0d 3d 22 91 c3 3b 4b dd 4a bb
       0.007190521 0.034500726 0.005968229 -0.0030954655
0000f0 4c 62 50 3b d0 d8 1d bc d1 22 ff bb dc 68 3b bc
       0.003179687 -0.009634212 -0.007786133 -0.011438575
000100 e4 dc ab bc 88 4a 27 3b 3e 12 fb 3c 92 c9 0f 3d
       -0.020979352 0.0025526602 0.030648347 0.03510434
000110 12 30 92 bc 0b ec aa ba 3b 5d 3a 3d 2e 0e 9c 3c
       -0.017845187 -0.0013040317 0.045499068 0.01904973
000120 ef 70 22 3d 01 2d 3d bb 3a 85 9e bc eb 2a c6 3c
       0.039658483 -0.0028865936 -0.019350637 0.024190387
000130 05 6f 59 bc d2 52 f6 3c fb 00 84 3b 10 5e 96 bc
       -0.013271098 0.030068789 0.004028437 -0.0183554
000140 51 00 80 3c 00 7d d3 bc fa ee 4a 3c a8 7d eb 3b
       0.01562515 -0.02581644 0.012386078 0.0071866103
000150 4e 2b 8d b9 c7 85 02 bd ec 8c 20 ba c3 e6 ba 3b
       -0.0002692588 -0.03186586 -0.00061245146 0.0057037785
000160 5a c5 65 ba 73 a9 ab 3c 71 81 b2 bc 06 0f 32 3c
       -0.00087650644 0.020954823 -0.021790238 0.01086784
000170 ba 92 1c 3b 35 99 dd 3c 48 94 b1 ba bc fa fc 39
       0.0023891167 0.027050594 -0.001354822 0.00048251997
000180 f8 0e eb bc 2a 0d 64 bb 9c 12 ac bc 2e 22 e5 3c
       -0.028693661 -0.0034797885 -0.021004967 0.0279704
000190 50 ca 09 3d 71 f3 28 3c 71 73 b2 bc c2 43 3b 3c
       0.033640206 0.010311947 -0.021783562 0.011429729
0001a0 5f ac f3 bc e9 eb e7 3b 16 c0 aa 3b 11 c8 1e bc
       -0.029745279 0.007077683 0.0052108867 -0.009691254
0001b0 26 f8 d5 3c 65 1e 22 3d 77 ce e8 3c 83 da 24 bc
       0.026119303 0.039579768 0.028418763 -0.010061863
0001c0 e6 2b b7 3c 29 22 2f bc 15 4c 2d 3d 17 43 07 3d
       0.0223598 -0.010689297 0.042308886 0.033022966
0001d0 2e d9 0a 3c 90 69 d4 bc 37 5d 9b bc 0c 23 8a 3c
       0.008474631 -0.025929242 -0.018965347 0.016862415
0001e0 f8 77 32 bc 0e da c9 bb c4 b2 2a 3d 29 79 dc 3c
       -0.010892861 -0.0061600273 0.04167439 0.026913242
0001f0 58 6b 0e 3c 2e e4 e8 3c 4c 05 6e 3c 39 1c ae ba
       0.008692585 0.028429117 0.01452763 -0.0013283557

tiles_emb.hidden_layers.2.weight f4 [128, 128]
000000 f3 0b b2 bc ce db 02 3d f9 a3 4f bd 94 75 68 bd
       -0.021734213 0.031947903 -0.050693486 -0.056752756
000010 74 aa 44 3a bc 7e 92 bc dc 47 05 3c 01 5c 8f 3d
       0.0007502206 -0.017882697 0.008134808 0.0699997
000020 2d 17 37 3b 7e 94 37 3d 9b cb e4 3c 34 09 b0 bd
       0.0027937398 0.044819348 0.027929118 -0.08595505
000030 9b 6a 60 bd f5 b5 2c 3a 4b be 99 bd 61 bf 5e 3d
       -0.054789167 0.0006588393 -0.07506999 0.054381732
000040 b9 f1 4a 3d 8e 20 8c 3d 1f 5b 5e 3d d0 71 71 bd
       0.04954693 0.06842147 0.05428612 -0.05894643
000050 4d 98 77 bd 48 a9 1d 3d 14 1c f2 3c 45 82 d5 bc
       -0.06044798 0.038491517 0.029554404 -0.026063094
000060 35 3a ce bc c3 f7 8f 3c 2c 65 96 bd 44 07 24 bd
       -0.02517424 0.017574197 -0.07343516 -0.04004599
000070 6d 72 9a 3d 60 a5 57 3d 3f 86 b3 bd 83 0d 09 3d
       0.07541356 0.05264795 -0.0876584 0.03346015
000080 df f2 64 3c 9d d3 65 ba 48 c1 79 bb 86 a4 98 ba
       0.013973921 -0.00087671896 -0.003810959 -0.0011645711
000090 29 4f ff bc c4 90 82 bd 52 aa 05 bd a0 de 03 bd
       -0.031165676 -0.06375268 -0.032633133 -0.032194734
0000a0 84 94 b8 3c 1c 7d db 3c 6e dc ce 3c f6 09 6a 3c
       0.022531755 0.026793055 0.025251593 0.014284601
0000b0 07 b5 66 bc 12 27 07 bd d5 b6 e0 bb 0a 9e c6 3c
       -0.014081246 -0.032996245 -0.006857733 0.02424528
0000c0 3e 51 b1 3b 99 28 9f 3d 03 f7 15 3d 60 f6 95 3d
       0.005411296 0.07771415 0.03661252 0.07322383
0000d0 0f 88 aa bd f5 f7 6d bc bb 96 94 bd d4 bc 08 3d
       -0.08326732 -0.01452445 -0.07255312 0.033383206
0000e0 af 38 9d 3c c5 c5 6e 3d 0d d0 e5 3a 5f 73 0a 3d
       0.019192068 0.058294076 0.0017533317 0.033801433
0000f0 a3 24 91 3d fa 9f 30 bd 82 f6 ad 3c 57 ef b2 bd
       0.07087066 -0.043121316 0.021235708 -0.08737057
000100 41 24 9f 3d 4f d6 9c bd be 9f 93 3c b0 a7 75 3d
       0.07770587 -0.076580636 0.018020507 0.059974372
000110 dd e8 b9 bd b3 b3 28 3d 84 69 74 3d 88 11 89 3d
       -0.09077618 0.041187 0.05967094 0.06692797
000120 af a5 94 bc 8b f2 8a 3d ba 5a 91 bd f3 09 b7 3d
       -0.01814541 0.06784543 -0.07097383 0.089374445
000130 81 9a 71 bd b2 e6 02 bb 21 25 01 bd d0 d3 1b 3c
       -0.058985237 -0.001997393 -0.03152955 0.009510949
000140 1a 3e 25 bb 52 4a 5c ba 19 35 71 bd dc ed 7b bd
       -0.0025214017 -0.00084034086 -0.05888853 -0.061506137
000150 41 b9 2d bd 05 09 87 bd 5b e0 07 3d b8 9e 4c 3d
       -0.042413 -0.06593517 0.033172946 0.049956053
000160 b1 55 53 bb e8 d7 a2 3d e4 71 35 3c 15 80 75 3b
       -0.003224712 0.07951337 0.011074517 0.0037460376
000170 7c 41 73 bc 8c 3a 83 3c d8 91 79 34 bc 2f 3e 3d
       -0.014847156 0.016019128 2.324299e-07 0.04643224
000180 78 a8 d8 3c b5 59 b4 bc 43 ea 8e bd 86 f3 1d bd
       0.02644752 -0.022015432 -0.069782756 -0.03856232
000190 c6 9f 92 3d fb 6e b4 bd bd af 4c 3b d2 f2 19 bc
       0.071593806 -0.0881023 0.0031232678 -0.009396272
0001a0 82 67 94 3d 49 29 27 3d 0f c4 34 3d 9b 3f 1b 3d
       0.07246305 0.040810857 0.04413229 0.037902456
0001b0 df 9f e9 bc 79 ca 4b bc 7a c3 29 bb 5f ec 0c bd
       -0.028518615 -0.01243841 -0.0025903867 -0.03440511
0001c0 56 39 7a 3d 89 89 4a 3d c9 0d 26 bd da 94 16 bd
       0.061089836 0.04944757 -0.04054049 -0.03676305
0001d0 50 b3 c0 3c 71 2f 0c bc bb 8d a6 3d 5b 27 93 bd
       0.023523003 -0.008556233 0.08132502 -0.07185241
0001e0 d3 af ac bd ae 67 d9 bc 35 49 19 3c 2d 11 02 3d
       -0.08431973 -0.026538696 0.009355833 0.03175466
0001f0 7f c7 48 bd ba c2 00 3d 68 1f 2c 3d de 03 24 bd
       -0.04901838 0.031435706 0.04202214 -0.04004275
000200 4c 40 96 3d ed 30 7c bd 62 67 2f 3d b2 43 93 bc
       0.073364824 -0.061570097 0.042823203 -0.017976616
000210 40 4f 0f bd 96 93 31 3d 3f 3e f7 bc e9 e6 5d 3c
       -0.034987688 0.04335364 -0.030181048 0.013543823
000220 b2 70 3b bd b5 fb 87 3c 5e 73 ce 3c 52 65 73 3b
       -0.04576177 0.016599515 0.025201496 0.003713925
000230 80 89 be 3c 1b b3 19 3d f5 f5 2b 3d e7 48 5f 3d
       0.023258924 0.037524324 0.04198261 0.054512884
000240 ed 5c 74 bc 8e b7 3d 3d 57 c5 55 3d 84 fa 87 3b
       -0.014914733 0.04631763 0.05219015 0.004149737
000250 a2 3e 51 3d 7d fa 37 3c 6e 53 bb bc d2 f1 7b 3d
       0.051085122 0.011229155 -0.02286693 0.061509915
000260 9c bf 5f bd b0 ab 28 bd a2 8d 0c 3d 35 5f 58 3d
       -0.054626092 -0.04117936 0.03431476 0.05282517
000270 9c a2 a2 bd 96 db c1 3c b8 00 25 3d 3e d4 85 3c
       -0.079411715 0.023664277 0.04028389 0.016336557
000280 b2 16 19 bd e1 3e 45 3d ee 17 53 ba 76 f6 a3 bd
       -0.03737516 0.04815567 -0.0008052577 -0.08005993
000290 72 6f 2d 3d df 75 9c 3d 86 ae 4f bd ef 60 af 3d
       0.04234261 0.076396696 -0.050703548 0.085634105
0002a0 69 34 46 ba c9 87 22 3d c9 f8 14 bd a5 54 96 bd
       -0.00075609103 0.039680276 -0.036370073 -0.073403634
0002b0 36 97 a3 bd be 11 eb bc 38 52 94 3d 4f 83 c2 bb
       -0.079878256 -0.028694984 0.072422445 -0.0059360634
0002c0 71 45 7d bd 96 34 39 3c a8 4c aa bd 4d 05 10 bd
       -0.061833803 0.011304041 -0.08315402 -0.035161305
0002d0 b4 9e e8 3c 17 e7 10 3c 39 07 c8 bb 13 84 f0 3c
       0.028395988 0.008844159 -0.0061043766 0.029359853
0002e0 19 ab f5 3c 97 a8 6a 3d ee a2 82 3c 2f 8a 81 3d
       0.029988812 0.057289686 0.015946832 0.063251846
0002f0 93 aa 58 3c cc 0d cf 3d af a5 02 bd 52 b9 92 bc
       0.013224262 0.101100534 -0.03189629 -0.017910633
000300 fc aa 77 bd 25 94 7f bd c9 dd ab 3d 50 30 0a bb
       -0.060465798 -0.06239714 0.083919115 -0.0021085925
000310 a0 d1 b6 3d bd 75 13 bd 90 4d 27 3d ae 09 ae bc
       0.089267015 -0.036000956 0.040845454 -0.02124485
000320 8b ec 01 bd ea fa 97 3d cd 4e 89 bd 87 86 a5 bd
       -0.031719726 0.07420905 -0.06704483 -0.080823
000330 0c fd e5 3c c2 20 0a bd e3 d7 c3 3c cb a0 7e 3c
       0.028074764 -0.033722647 0.023906654 0.015541266
000340 0d cc 4a 3d 36 bd f5 bc 98 ff ef 3c fc ec 9d 3d
       0.049511004 -0.02999745 0.029296681 0.07711217
000350 35 52 61 3d a2 17 a5 3b 7c 83 49 bd d8 ba 64 3d
       0.05501004 0.0050382176 -0.04919766 0.05584225
000360 42 e8 91 bd 92 6d ef 3b 54 5e a9 bc 21 37 8d 3b
       -0.07124378 0.007306763 -0.020674862 0.0043095504
000370 47 6e 82 bd b1 6f 14 3d 03 51 f0 3b 48 f6 92 3d
       -0.0636869 0.03623933 0.007333876 0.07175881
000380 bd a9 ae 3d 3d f2 92 3d 92 33 1b 3d 74 6a 3a bd
       0.08528469 0.071751095 0.03789098 -0.045511678
000390 1c df 14 bd ab b6 e0 bb e3 2d aa 39 54 4b e0 bc
       -0.036345586 -0.006857713 0.00032459115 -0.02737967
0003a0 5e 8a 53 bd ce c8 61 3d 8b ee 07 bd 03 23 ab 3d
       -0.05164563 0.055123143 -0.033186477 0.08356287
0003b0 c5 d2 82 3d 16 89 49 3d e9 c3 1f bc 9c 63 54 3d
       0.06387857 0.049203 -0.009751298 0.051852807
0003c0 4a 4a 32 3d fc 33 91 bd bb 8b d7 3d c3 7c 65 3d
       0.04352788 -0.07089993 0.10524698 0.056027185
0003d0 72 73 ba 3c 27 d1 02 3c 48 dc 8f 3d 44 bc 28 3c
       0.022760127 0.007984436 0.07024437 0.010298792
0003e0 14 ce 70 bd 60 91 1e 3d 2b 5c b8 3d 22 66 25 3d
       -0.05879028 0.03871286 0.09001955 0.040380605
0003f0 7c ca 6a 3d 28 a0 d3 bb d4 9e d0 3b d0 52 08 bc
       0.05732201 -0.006458301 0.00636659 -0.008320525

tiles_emb.hidden_layers.2.bias f4 [128]
000000 88 c2 16 3d 65 87 bd 3d 5c 22 82 3b 7d 49 47 3d
       0.036806613 0.0925434 0.003971381 0.04865407
000010 41 ac 5e 3d 61 05 95 3d 4e 78 af 3d 82 7b 6e 3d
       0.054363493 0.072764166 0.08567868 0.058223255
000020 ba 6d 3a bd 78 40 6b 3d 1e d4 7d 3d 41 36 5a bd
       -0.0455148 0.05743453 0.06196987 -0.053274397
000030 35 8a c2 3d e1 c2 e7 bb a4 35 23 3d f5 4d 0b 3d
       0.09499017 -0.007072792 0.039846078 0.034009892
000040 b4 e0 76 3d 22 80 dc bb 62 80 03 bd a0 ba 8e bd
       0.060272887 -0.006729142 -0.032104857 -0.0696919
000050 c5 87 e1 bc 4c 20 a1 bc e0 23 7f 3d 6a 66 27 3b
       -0.02753056 -0.01966872 0.062290072 0.0025543221
000060 f1 54 52 3d cc 0e 9b bd fc d2 46 3d 3d 3a 30 bd
       0.051350538 -0.07571182 0.048541054 -0.04302429
000070 b2 c1 70 3d bc 5d 30 3d de c2 87 bd 50 88 54 bd
       0.058778472 0.043058142 -0.06628965 -0.05188781
000080 b7 43 6f bc 3c 03 a4 bd e4 d5 3d bc 44 02 95 3d
       -0.014603547 -0.080084294 -0.01158664 0.07275823
000090 99 99 7f 3d 49 e4 cc bc 5c 05 31 bc 6a 7f bc 3d
       0.06240234 -0.025011199 -0.0108045 0.0920399
0000a0 da d2 a6 3d f8 10 7e 3d ed b2 94 3d 4e f6 0a bd
       0.081456855 0.0620279 0.0726069 -0.0339263
0000b0 f8 e3 0f 3d e8 94 48 3c d8 0b 15 bd 90 86 fb bc
       0.035129517 0.012242533 -0.03638825 -0.030703813
0000c0 12 b7 a9 bd e3 0b 68 3d 69 f1 9e 3d 41 da b0 bc
       -0.08286871 0.05665196 0.07760889 -0.021588447
0000d0 32 9e 9b 3d 59 6d 6d bd 12 e7 a4 bd 62 11 b0 bd
       0.07598533 -0.05796561 -0.08051886 -0.085970655
0000e0 b5 a0 d8 3c 74 a5 a5 bd b3 07 80 bd c3 fa 71 bc
       0.026443819 -0.08088198 -0.062514685 -0.014769259
0000f0 48 6f 05 3d a7 12 30 3c 08 fd bb 3c d8 01 aa b9
       0.03257683 0.010746635 0.022947803 -0.000324263
000100 4d e1 89 bd a7 e8 bb 3d a6 0b b7 3d ac 76 bd 3d
       -0.06732426 0.09175234 0.08937769 0.092511505
000110 c8 b8 ce bb fa 3f 47 bb e8 ee 45 3d 27 75 a5 3a
       -0.0063086487 -0.0030403123 0.048323542 0.0012623415
000120 52 c7 b5 3d 19 6a 3d bc 95 20 45 3d 2d 55 b8 3c
       0.08875908 -0.01156094 0.048126776 0.022501552
000130 39 a8 9f 3d 1a ce 22 bc b0 57 58 bd f6 61 f1 3c
       0.07795758 -0.009936834 -0.052818 0.029465657
000140 13 48 91 bb f2 29 b7 3d 62 95 fa 3c 42 73 1e bd
       -0.0044336407 0.08943547 0.03058881 -0.038684137
000150 10 2d 70 3d db 32 91 3d df f0 5b bd a9 d4 cb 3d
       0.058636725 0.07089778 -0.05369651 0.09952671
000160 4b b7 2c bd de 99 4d bd 66 94 96 bd 01 c2 9b bd
       -0.04216699 -0.050195567 -0.073525235 -0.07605363
000170 3c 13 28 bd 83 77 d2 3d 0c c3 5e 3d d2 18 96 3b
       -0.04103397 0.10276701 0.05438523 0.0045805955
000180 f8 9a 99 3d 58 2f 7c bd ae e2 92 3d 75 5e a4 3c
       0.07500261 -0.061568588 0.07172142 0.020064572
000190 d3 3f 7e 3d c0 af 5e bd e7 37 7b 3d 97 38 29 3b
       0.062072586 -0.054366827 0.06133261 0.0025821084
0001a0 12 af 9d bd 38 3b 8c bd 08 d3 80 3c 67 f9 9c ba
       -0.07699408 -0.068472326 0.015725628 -0.0011976183
0001b0 28 4c 8e 3c 3e 56 9e bd 4d ae 06 3d bb b2 c5 3c
       0.017370299 -0.07731293 0.03288107 0.024133077
0001c0 82 c2 bc 3c 20 4e 12 3d b1 15 3d bd eb 1e ad 3a
       0.023041967 0.035719037 -0.046163265 0.0013208067
0001d0 c7 ea f8 bc b5 62 65 bd be 05 84 3d 35 f6 a0 bc
       -0.030385388 -0.056002337 0.06446408 -0.01964865
0001e0 d9 25 2b 3d 06 ba 82 bd 46 69 4e bc 70 c5 a0 bd
       0.04178414 -0.063831374 -0.012598341 -0.07850158
0001f0 8f 02 b7 bd 5c 3e e8 3c 2b af ad bd 93 cd 46 3d
       -0.08936035 0.028350048 -0.08480676 0.048535895

attention_layer.att.weight f4 [128, 128]
000000 0e 51 f2 3c 93 47 7a bc 2e b8 6c 3c 49 7d 77 3c
       0.029579666 -0.015275854 0.014448209 0.015105554
000010 c6 9b 65 bc f7 2b a3 bc ce 90 7c bc 54 e2 39 bd
       -0.01401419 -0.019918425 -0.0154153835 -0.04538186
000020 65 3b d5 bb ab 95 1d bd 3a 30 90 3c e4 95 9d bb
       -0.0065073245 -0.038472813 0.017601121 -0.004809128
000030 ea 7c 7b 3b 7a c8 30 bd 72 b2 a2 3c 29 29 10 bd
       0.0038374015 -0.04315994 0.01986048 -0.035195503
000040 af 81 40 3b 76 d0 7e bd 08 e6 50 bd 81 c4 71 3c
       0.0029374172 -0.062210523 -0.051000625 0.014756323
000050 6e 3a 60 3c da e0 05 3d 3c 85 04 bd ea 64 1f 3c
       0.013685806 0.03268514 -0.032353625 0.00972865
000060 59 58 72 bc 2a cf 39 bd fe d1 67 3d 58 d8 2d 3d
       -0.014791572 -0.045363583 0.05659675 0.04244265
000070 e9 fa ef bc 8b f8 06 3c 2a 7f 07 bd 06 be 61 bc
       -0.029294448 0.008237968 -0.033080257 -0.013778215
000080 0e 7f 0e 3d c3 b4 53 bd e6 20 4a 3d 4f d3 b2 3b
       0.034789138 -0.05168606 0.04934778 0.005457319
000090 a9 ca 97 bc ed a4 00 3c 98 e5 fd 3c 2b ed d4 bc
       -0.018529253 0.007851821 0.030993268 -0.025991997
0000a0 51 88 4a bc c7 8c 6a bc e0 dd e8 bc f6 63 bf 3a
       -0.012361602 -0.0143157905 -0.02842611 0.0014601934
0000b0 32 b4 f2 bc 35 cc 7a bc 78 54 14 3c 46 9f 23 bd
       -0.02962694 -0.015307476 0.009053342 -0.039946817
0000c0 94 7c e0 3b d4 38 36 3d d4 dc 46 3c 97 e9 b9 bb
       0.0068507884 0.04448779 0.01213761 -0.005673598
0000d0 5c d0 75 bd 3d 11 32 bb f3 4d fc bc 03 c7 6b bd
       -0.06001316 -0.002717092 -0.030798888 -0.05756284
0000e0 6e 3b 37 3c c9 69 13 bd 83 4f 38 bd 33 fe a4 bc
       0.011183603 -0.035989556 -0.044997703 -0.020140743
0000f0 a4 aa e2 3c c7 d1 6e 3d 70 14 21 bd 62 79 65 bd
       0.027669258 0.058305528 -0.03932613 -0.056023963
000100 bc 0f 47 bd e9 3a f3 3c 65 3d 3d bc 47 35 47 3c
       -0.04859899 0.029691176 -0.011550282 0.012158698
000110 6c 2e 4d bc e7 8a 38 bd 2d d6 a2 bc f1 62 f3 bb
       -0.012523275 -0.045054343 -0.019877518 -0.007427566
000120 76 3c 50 bc 52 71 83 bc 52 79 1f bd a6 5c 58 bc
       -0.0127097275 -0.016045246 -0.03893406 -0.013205683
000130 3b 3e 50 3d d0 78 56 3d 6e d9 33 3d f3 95 5e 3c
       0.050840598 0.05236131 0.04390853 0.013585555
000140 38 fe 28 3d ca ee 7a 3b 21 81 ae 3b 5d 54 1a 3d
       0.041258067 0.0038289302 0.005325452 0.03767811
000150 fc 2f ba 3c 0a f7 4e bd 35 28 2c bd ea 34 84 bc
       0.022727959 -0.050528564 -0.042030532 -0.016138513
000160 05 91 5a bc 4b e9 f4 3c 3e d7 b0 bc 9d 0e 4c 3c
       -0.013340239 0.029896399 -0.02158701 0.012454656
000170 a0 63 18 bd 75 2f 10 3c 83 6a f2 3c 82 50 31 39
       -0.037204385 0.008800377 0.029591804 0.00016910027
000180 33 5a 21 3d 4d 56 3b 3b b7 31 19 bd a3 1e 29 bd
       0.03939266 0.0028585375 -0.037400927 -0.041288983
000190 2d 4d 36 3c 60 32 fb 3c be db 08 bb e7 5a 2e bd
       0.011126799 0.03066367 -0.002088293 -0.04256716
0001a0 7c 01 c7 3c 5d 1e 21 bd 1d ff c5 bc 6f b9 4d 3c
       0.0242927 -0.039335597 -0.024169499 0.012556418
0001b0 43 aa 1c bd 58 34 4a bc d9 5f 34 3d 08 4a a6 3c
       -0.03824831 -0.012341581 0.04403672 0.020298973
0001c0 37 d8 e9 bc 69 85 d9 bc d5 aa 5a 3c dd 7e 22 bc
       -0.028545482 -0.026552873 0.013346394 -0.009917942
0001d0 b6 0e 9f 3c a4 fd 39 bc 4e 61 e8 bc e4 9a 64 bc
       0.019416194 -0.011351977 -0.028366711 -0.013952944
0001e0 1a 0c 1c 3d ea 8e 05 3d 91 c3 ee 3c 6f aa 11 bc
       0.03809748 0.032606997 0.029145988 -0.008890732
0001f0 c3 36 5e bd ae 74 6b 3c e8 ab 99 bc 2e 45 54 3d
       -0.054251444 0.01437108 -0.01875873 0.051823787
000200 af db b2 3c f6 ce 83 bd b0 58 10 3d 25 8b 33 bc
       0.021833269 -0.06435959 0.03524083 -0.010958468
000210 8f f6 46 3d 69 ab a5 3c 7d 25 be 3b 91 63 fd bc
       0.04857498 0.020223336 0.005802809 -0.030931266
000220 0d d9 2f bd d2 03 29 3c 0d 2a a1 3c 27 85 2c bd
       -0.042931605 0.010315852 0.019673372 -0.04211917
000230 eb 2d a7 3c d1 4f 6f 3d 7a 83 43 bd 93 8b 05 b9
       0.020407638 0.05842573 -0.047732808 -0.00012735864
000240 f8 ca 77 bc 3e b9 29 bd cf 70 d1 3c 92 86 79 bc
       -0.015124075 -0.041436426 0.025566487 -0.015229838
000250 fd 96 6e bd 90 a4 1f bc d6 f1 29 bc ae 8b 38 3d
       -0.058249462 -0.009743825 -0.0103726 0.045055084
000260 d9 b4 1d 3d 3d 5c ee 3c ab 0e 42 bd fa c0 05 bd
       0.038502548 0.029096717 -0.04737727 -0.03265474
000270 4a ac 15 3d d7 8d 51 bd 87 17 c2 bc 7f 46 63 3d
       0.03654126 -0.05116066 -0.02369286 0.055487152
000280 93 21 94 3c e2 bf c1 3c 69 eb d6 bc 7c 00 d1 bb
       0.018082416 0.023651067 -0.0262353 -0.0063782316
000290 37 69 bd 3c 1f 48 82 3d 18 0d 09 3c a8 ce 96 bc
       0.02312146 0.06361412 0.008364938 -0.018409088
0002a0 1a f3 4e bc 49 df 02 bd 4e 31 55 3c 42 1a f3 bb
       -0.012631202 -0.031951223 0.013012243 -0.0074189017
0002b0 80 75 48 bd 0b 2c f4 bb f1 d8 56 bc 2b 26 2d bd
       -0.04894018 -0.0074515394 -0.013113246 -0.042272728
0002c0 1d 3b 86 bd 13 aa 84 bb 94 8b 3e 3d 10 1b 9f bc
       -0.06554244 -0.0040485947 0.04651983 -0.019422084
0002d0 55 01 39 3d 3d 75 dc bc 9c a9 c3 bc b5 d8 b0 3b
       0.045167286 -0.026911372 -0.023884587 0.0053969272
0002e0 c6 1b 59 bc 91 c5 42 bd 3b bd 57 bd 1d 14 8e 3c
       -0.013251251 -0.047551695 -0.0526707 0.017343575
0002f0 b9 06 bb 3c ce ed 46 3c ce 1e 96 3c 71 de 75 bc
       0.022830354 0.012141658 0.018325236 -0.015006647
000300 9a 44 31 3d 75 f0 32 3d e0 76 7b 3b 39 9c 0a bd
       0.043278314 0.04368635 0.0038370416 -0.03384039
000310 80 44 23 3d a4 cb 75 3d a9 bd 00 bd 45 8c 46 3d
       0.03986025 0.06000866 -0.031430874 0.048473615
000320 1e d2 a8 3c b9 00 d6 3c e9 69 e0 3c a2 ba 87 bc
       0.020608004 0.026123391 0.027394252 -0.016568486
000330 70 bb a4 bc b4 46 2f bb d3 ac 41 bc 17 e2 47 bd
       -0.020108908 -0.0026745023 -0.01182099 -0.0487996
000340 3a ad 41 3c 16 f3 ca bb 49 0b 03 bc 45 b6 a2 3b
       0.011821086 -0.006193529 -0.007998296 0.004965576
000350 5b c9 5a 3d a4 98 f1 bb 93 b9 d0 3c 69 19 22 bb
       0.053414684 -0.0073729325 0.025479114 -0.0024734384
000360 6e e3 59 3d 69 5e 70 3c b5 09 31 bd 40 2b 8b bc
       0.05319541 0.014670947 -0.043222148 -0.016988397
000370 64 58 c8 3c 42 46 94 bc 42 4d 49 3c 70 71 51 3c
       0.02445621 -0.018099908 0.012286486 0.012783393
000380 e7 b3 0c 3d c0 f2 37 bd b2 51 51 bd 2d e4 86 3c
       0.034351256 -0.04490924 -0.0511033 0.016466225
000390 a1 c5 4e bc 68 9f 88 3b ea d7 03 3c 68 e2 6f 3c
       -0.012620361 0.0041693933 0.008047083 0.014641382
0003a0 51 9b a7 bc d6 0b 30 3d b7 47 18 3d 70 5d 78 bd
       -0.020459803 0.042980038 0.037177768 -0.060635984
0003b0 4b 73 eb 3c a2 9a 8a bc f2 42 a8 3c 56 50 5a 3d
       0.0287415 -0.016919438 0.020539735 0.05329927
0003c0 bd 48 5e bc 89 e3 3d bd 31 f2 7d 3d d8 57 22 bd
       -0.013567147 -0.046359573 0.06199855 -0.039634556
0003d0 5f cd 23 3d 7e a2 ac bc 9c 01 91 3c ed 58 0a bc
       0.03999078 -0.021073576 0.017700963 -0.008444053
0003e0 9a 74 f3 bc 9b 47 9a 3c 69 0f 43 3d 53 81 0c 3d
       -0.029718686 0.018832972 0.04762212 0.03430302
0003f0 1e 56 aa 3c 6e c5 9c bc da 5f 37 3c 67 4e 2c bc
       0.020793017 -0.01913711 0.011192286 -0.010516739

attention_layer.att.bias f4 [128]
000000 3a 93 53 bd e0 42 f0 3b 29 4a d8 bc 94 c4 56 3a
       -0.051654078 0.007332191 -0.02640255 0.00081927446
000010 88 17 11 bc ec c3 da bc 9d a3 bd 3b 20 ad 2d bc
       -0.008855708 -0.026704751 0.0057873265 -0.010600358
000020 8d 3a e6 bc 81 bf 6f 3c 05 7b 15 3d 93 6b c5 3b
       -0.028104091 0.01463306 0.036494274 0.0060247867
000030 8f e0 a0 bc d5 26 1f bc 28 dc 86 bd b1 74 f2 3c
       -0.019638328 -0.009713848 -0.0658496 0.029596658
000040 96 60 0e 3b 62 6a 02 3d 06 5c a6 3c 24 55 63 bc
       0.002172505 0.031839736 0.020307552 -0.01387528
000050 46 27 d5 3c 09 8d 01 3d 97 8a 85 bb ec 9d aa 3a
       0.026019704 0.031628642 -0.004075359 0.0013017035
000060 d7 b3 bb bc 8d 4a e9 3c fb db 5d bc 8a 64 35 bd
       -0.022912903 0.028477931 -0.013541217 -0.044285335
000070 7e 45 9b 3b d0 c8 78 3c 05 38 9b 3c 38 8c 83 3b
       0.0047385087 0.015184596 0.01894761 0.004014518
000080 0a e9 7c 3d 95 1a 48 3d ca a1 4c bd 2c b1 2f 3c
       0.06174568 0.048853476 -0.04995898 0.010723393
000090 36 2f a0 bc 21 60 48 3d e8 f5 47 bd 48 af 6b 3c
       -0.019553762 0.0489198 -0.0488185 0.014385052
0000a0 b7 da 5b 3d 86 0e 3b 3c e0 59 e7 bc 7d 97 75 3d
       0.05367538 0.011417037 -0.028241098 0.059958924
0000b0 1b 5a 35 3c 02 8d 35 3d 1f 91 6d bc 88 39 a1 bc
       0.011068846 0.04432393 -0.014499932 -0.019680753
0000c0 f2 4e 49 3c 76 a0 f3 3c 32 72 89 bd 86 77 3b bd
       0.012286888 0.0297396 -0.06711234 -0.045768283
0000d0 89 d8 d4 bc b8 b5 cb bc 8a 85 2b 3d 6e 8e ee 3c
       -0.025982158 -0.024866924 0.0418754 0.02912065
0000e0 fd b1 1e 3d b2 7d aa bc 87 38 ed 3c 4a 5e 91 3c
       0.03874396 -0.02081189 0.028957618 0.017745156
0000f0 b4 51 49 bd 74 75 f0 3c 51 a0 b7 bb f2 f1 4e 3d
       -0.049150184 0.029352881 -0.005603828 0.050523706
000100 9d e6 7a 3c 80 06 19 bd 97 1c 21 3a db 5e 48 bd
       0.015313772 -0.037359715 0.0006145923 -0.048918586
000110 4c 91 35 bd 85 6f 2b 3c 5d 83 7d 3c b9 0d 24 3b
       -0.04432802 0.0104636 0.015473214 0.0025032593
000120 40 5b bd bc e3 fd 16 3d 55 63 ec bc 6b 8d 24 bb
       -0.0231148 0.03686322 -0.028855959 -0.0025108706
000130 83 79 86 bd dc d6 24 bc b7 83 0a 3d 81 68 d5 3b
       -0.06566145 -0.010060992 0.03381702 0.006512702
000140 9d 07 00 3a a4 2a e4 bc b7 01 93 3d 6d df 59 bd
       0.0004883947 -0.027852364 0.071780615 -0.05319159
000150 bb 8a 1a bc d0 28 a1 bd 61 5c 5b 3c 36 d4 ee 3c
       -0.00943249 -0.078691125 0.013388724 0.029153924
000160 b7 9a 8a bc 5e 12 87 3c 80 24 17 bd 83 d4 1a bc
       -0.016919477 0.01648825 -0.036900043 -0.009450081
000170 fd 8f 0d 3c 58 ad 97 3c bd ae c2 3c fa 48 fd 3c
       0.0086402865 0.018515274 0.023764962 0.030918587
000180 ca 13 2a bd b5 06 e3 3b a6 e7 07 3d 11 5e 78 bc
       -0.04152278 0.00692829 0.0331799 -0.015159146
000190 3e b4 06 3d b4 cf 4b bd 18 4e e9 bc af a3 36 bc
       0.032886736 -0.049758628 -0.02847962 -0.011147424
0001a0 75 e3 a8 3c c0 69 e8 3c f6 36 23 bc c9 00 16 3d
       0.020616272 0.028370738 -0.009961834 0.036621843
0001b0 01 00 6a bd 17 e7 11 3d 16 f8 7d 3c 0d 12 16 bd
       -0.05712891 0.035620775 0.015501043 -0.03663831
0001c0 36 a5 c3 3c 96 66 36 3c 3a ac 08 bc 58 82 96 bb
       0.02388249 0.011132857 -0.008341843 -0.004593175
0001d0 e4 b7 a0 bd eb a6 8f bc 49 eb c8 3b 48 3c 46 bc
       -0.07847574 -0.017535647 0.006131564 -0.012099333
0001e0 f5 ed 87 3b 34 e6 cb 3c 33 2b f6 3b e2 82 44 bd
       0.0041482397 0.024890043 0.007512474 -0.047976382
0001f0 3b ba 74 bd af 8e 37 3d 85 32 42 3d c6 7c 3a bc
       -0.059747916 0.044813808 0.04741146 -0.011382287

attention_layer.gate.weight f4 [128, 128]
000000 b3 13 84 bc f2 98 33 3c 90 e3 d6 bc ce 18 38 3c
       -0.016122675 0.010961758 -0.026231557 0.011236383
000010 87 8f 3f bc 6e ea 0a bb a5 37 55 bd b1 c1 46 bd
       -0.011691934 -0.002119686 -0.05205502 -0.048524562
000020 21 36 29 3d 6f 21 25 3d b1 56 51 bc ff 46 65 bd
       0.041311387 0.040315088 -0.0127770165 -0.05597591
000030 f4 db 41 bd 18 95 62 bc 69 f6 99 bc 1d 31 5e 3c
       -0.047328904 -0.013829492 -0.018794255 0.013561514
000040 7f 93 37 3d 34 9c 85 bc 41 72 08 bd 7b 76 18 bc
       0.044818398 -0.016309835 -0.033312086 -0.009305592
000050 54 99 9d bb 98 b0 39 3d 79 af 1f bd 3b ce 03 3d
       -0.004809538 0.04533443 -0.038985703 0.0321791
000060 20 02 de bc 0c 0d 7b bc 5d 59 8b 3c ff 70 ec bb
       -0.027100623 -0.015322935 0.017010385 -0.0072156186
000070 10 bf 13 bd ca 12 1f 3d d5 51 0d 3d f9 90 3c bd
       -0.036070883 0.038836278 0.03450187 -0.046036694
000080 1d bf 22 3c d6 af 02 bd 23 dc 38 3d 15 3e 13 bd
       0.00993326 -0.03190597 0.045131814 -0.035947878
000090 58 79 0c bd 42 0e 66 bc eb 45 3a bc 32 e1 a5 3c
       -0.03429541 -0.014041485 -0.011369209 0.020248983
0000a0 3f 7d c3 bc 1c 3f 81 bb 22 c9 e2 bc b5 e8 40 bd
       -0.023863433 -0.003944291 -0.027683798 -0.047096927
0000b0 06 7c 00 3c d2 e9 d8 bc a8 08 f8 bc c6 c0 c3 bc
       0.0078420695 -0.026478682 -0.030277565 -0.023895632
0000c0 26 2f 05 3b 80 22 ef bb 2b 63 01 bd e9 d6 e9 bb
       0.0020322292 -0.007297814 -0.031588715 -0.007136215
0000d0 2c 38 1f bc b9 85 9f 3c 7b b9 93 bb 07 54 55 bc
       -0.009717982 0.019472944 -0.004508195 -0.013020522
0000e0 b3 5a 1a bd 44 a6 0c bd 11 f6 bd 3b d4 6a 2e bb
       -0.037684154 -0.03433825 0.0057971557 -0.0026613967
0000f0 d2 a3 1e 3d 7a 5c 81 3c 1a 7d f1 bb 47 30 80 bc
       0.03873045 0.015791167 -0.0073696496 -0.01564802
000100 e0 18 43 bd ef 58 0c bc 1d 2a 1d bc 02 37 25 bc
       -0.047631145 -0.008566125 -0.00959256 -0.010083916
000110 6d 7d 37 bd 55 1d 6a bc 16 5d 9d 3c b1 70 00 3d
       -0.04479735 -0.01428922 0.019209426 0.03135747
000120 e8 ab 4a bc 7f 54 8b bc 88 6a b7 39 71 ab 76 3c
       -0.012370087 -0.017008064 0.00034983852 0.015055523
000130 04 14 0e 3d a8 6e 22 3c 63 b5 58 bb 1a db 46 3c
       0.034687057 0.009914078 -0.00330671 0.012137199
000140 dc d2 8d 3c c2 e2 21 bb fc ec 94 3c d1 cf 2b bd
       0.01731246 -0.0024701809 0.01817941 -0.041946236
000150 5f 09 ae 3c f5 1c 91 3c 64 e0 0c 3d ac af 52 3c
       0.021244703 0.017714003 0.034393683 0.012859266
000160 71 29 45 bc 1b b4 d8 bc 16 92 be 3c 97 8b d9 bb
       -0.012033806 -0.026453068 0.023263019 -0.006638955
000170 74 89 df 3c a3 a5 4d 3d 53 28 4a 3d 51 ed 50 bd
       0.027287222 0.05020679 0.049354862 -0.051007573
000180 61 3d 8c 3b 15 ff b0 3c fe e1 90 3c 40 9d 22 3d
       0.004279778 0.021606008 0.017685886 0.039700747
000190 4f 99 5f 3c b9 2c 8d 3b 0c df 87 3a 5b 04 55 3c
       0.013647391 0.00430831 0.0010366156 0.013001527
0001a0 98 89 de 3c a0 01 67 bd 0a db da bc 8a 54 ed b9
       0.02716522 -0.056398034 -0.026715774 -0.0004526715
0001b0 f3 45 e9 bb 09 3f 41 3d 34 5d 82 bb d2 58 88 bc
       -0.0071189343 0.047179256 -0.003978396 -0.016643915
0001c0 52 a4 5c bd fa 7e 38 3c 45 45 ef 3c 39 4d f3 bc
       -0.053867646 0.011260742 0.029207835 -0.029699909
0001d0 0a b1 8c 3b 0d 7e f6 3c 84 f7 96 ba 4f 37 ff bc
       0.0042935656 0.030089403 -0.0011517857 -0.031154303
0001e0 91 8e 88 3c 63 54 07 3d 3a 51 d4 bc 6b 91 cd 3c
       0.016669543 0.03303946 -0.025917638 0.025093755
0001f0 55 56 16 bd 59 80 0d bd 15 1d 48 bd 9a 3c 06 3d
       -0.036703426 -0.03454623 -0.04885586 0.032772638
000200 08 25 07 3b d5 02 44 3c d8 40 eb bc 8a 92 97 3c
       0.0020621438 0.011963566 -0.028717443 0.018502492
000210 e7 45 0e 3c f1 e6 56 3b 01 b8 8e 3b 44 7d b1 bc
       0.008683658 0.003279146 0.004355431 -0.021666177
000220 3e 5e 7d 3d 43 77 7f 3c 96 ed 0e bd c6 e0 2d bc
       0.061857454 0.015592399 -0.03489455 -0.010612672
000230 b2 e0 69 3d fc 19 fc bc bd ff 81 3c 30 6a 6f 3c
       0.05709905 -0.030774109 0.015869016 0.014612719
000240 9c 8e 11 3d 5b 20 19 3d cf ea 51 3d 1b 88 e9 3b
       0.035536394 0.037384372 0.05124932 0.0071268207
000250 91 94 f1 3c 8b b7 34 3c d8 c2 19 bd c3 d8 04 bd
       0.029489787 0.011030088 -0.037539333 -0.032433283
000260 9b 22 61 bd 35 58 0c bd da d4 8b 3c 51 4d 41 3d
       -0.054964643 -0.03426381 0.017069269 0.047192875
000270 f1 9a 8a 3a cc f4 2a bc ba 78 c1 bb cb b4 0f bd
       0.0010574741 -0.010434341 -0.0059042843 -0.035084527
000280 2d 66 6b 3d 90 19 91 bc 7c 5e fe bc 65 5f c9 3b
       0.05747049 -0.017712384 -0.031050913 0.006145405
000290 ea 77 70 bc 03 4e 0d bd 96 16 12 bd 81 f8 ea 3c
       -0.014677027 -0.034498226 -0.03566607 0.028682949
0002a0 8d 30 b4 3c a2 55 17 3d 2b 3e 4f bd a5 86 54 bc
       0.021995807 0.0369469 -0.050596397 -0.012971555
0002b0 4b 0f 05 39 26 7f 25 3c 0a 92 4b bd 6e 5b a3 3c
       0.00012689565 0.010101115 -0.04969982 0.019941058
0002c0 00 5a 1d 3d ab 2d 13 3a 9d 03 1b 3d fc cd 16 3d
       0.03841591 0.000561441 0.037845243 0.036817536
0002d0 38 24 16 3d 9f 97 26 bb a8 4d a7 bc 5d 06 91 3b
       0.036655635 -0.0025419963 -0.020422772 0.0044258074
0002e0 ff b5 08 3d b0 75 11 bc 1d 5a 51 3c fb 7b 3a bb
       0.03337669 -0.008878157 0.012777832 -0.0028455246
0002f0 97 df 61 3c 0c b0 5f 3c c6 5a af bb 40 8a 51 bc
       0.013786218 0.013652813 -0.005351397 -0.012789309
000300 82 d5 df 3c 4e 9a 64 3c f0 e2 b0 3a c9 e4 95 3c
       0.027323488 0.013952805 0.0013495367 0.01829757
000310 67 ed 85 bc 36 5c f8 3c 83 7b 6b 3c 6d cd 12 bc
       -0.016348554 0.030317407 0.014372709 -0.00896011
000320 cf 26 3e bd 6e 12 9c bc 16 25 a9 bc 5f 72 a3 bc
       -0.04642373 -0.019051757 -0.020647567 -0.019951997
000330 c2 3f 1d bd 28 c8 84 bc 7a d1 ff 3c ad 11 ed 3c
       -0.038390882 -0.016208723 0.031227816 0.028939093
000340 22 8b e1 3c 2e b9 a9 bb 66 15 91 3c e8 b2 73 bb
       0.027532164 -0.005179546 0.017710399 -0.0037185494
000350 d9 58 c0 3a 5a 3d c1 bc 02 6c 92 3c 24 7c fa 3c
       0.0014674916 -0.023588825 0.017873768 0.030576773
000360 df b5 fe 3c 85 83 9c bc f3 d7 55 3d 5d 78 50 bc
       0.031092582 -0.019105682 0.0522079 -0.012724009
000370 d3 9a 27 bd 4b 76 87 3c 33 f2 4e bc 9d a7 9f 3c
       -0.040919136 0.016535899 -0.012630987 0.019489104
000380 49 7a 50 3d f0 3a 05 bc b5 63 29 3c 43 c3 cf bc
       0.05089787 -0.008131728 0.010338713 -0.025361663
000390 31 c0 5a 3d dc 0a 9a 3c 32 e9 6b 3d 52 4e 93 bc
       0.053405944 0.018804006 0.05759544 -0.017981682
0003a0 2b b9 a9 3b 89 43 f8 bb 87 6a a3 bb ef f6 a6 3c
       0.0051795444 -0.00757641 -0.0049870643 0.020381419
0003b0 4b 49 b9 bc 0a 56 65 bb 6b a7 b1 bc 70 e8 36 bd
       -0.022617957 -0.003499391 -0.021686276 -0.044655263
0003c0 2a 38 7b bc 95 87 fd 3b 22 70 12 bd 7d 72 88 bc
       -0.015333215 0.00773711 -0.03575147 -0.016656155
0003d0 14 6f 3b 3b 4a 8e 73 3c da b6 1e bb f7 8b 20 bb
       0.0028600143 0.014865467 -0.0024217875 -0.0024497488
0003e0 e0 4a 64 3c 79 1f 80 bd 10 e7 6b 3c 37 87 4f bd
       0.013933867 -0.06256003 0.014398351 -0.05066606
0003f0 b9 27 05 bd 75 d8 6d 3c f0 40 2e bb 70 0b 92 3c
       -0.032508586 0.014516939 -0.0026588999 0.01782772

attention_layer.gate.bias f4 [128]
000000 7a c5 e7 bb ff 80 1d bd 55 3b 38 3d b2 50 35 bc
       -0.0070731016 -0.0384531 0.04497846 -0.011066603
000010 4a 64 f5 bc 15 de 38 3d 6f 09 86 3c 7b 42 0f bc
       -0.029955048 0.04513367 0.01636192 -0.0087438775
000020 dd 09 38 bc dc 54 3b 3d 79 49 a4 bc a4 17 ef 3c
       -0.01123282 0.045735225 -0.020054566 0.029186077
000030 44 67 19 3d 98 02 15 3c cf b3 72 3d 0c 4c 5f 3d
       0.037451997 0.009094857 0.05925351 0.054515883
000040 10 83 fd bc 94 29 20 bd 1e 19 13 3d ea 52 b2 3b
       -0.030946285 -0.039102152 0.035912625 0.005442013
000050 3f 23 83 3c c6 2d 74 bc f9 73 1a bd 7c cb d6 bc
       0.016008018 -0.014903491 -0.037708256 -0.026220076
000060 10 80 31 3c b4 d6 9d 3b 38 77 07 3d f7 66 67 3d
       0.010833755 0.0048168544 0.03307268 0.05649468
000070 3d 64 9d bc 55 de 12 3b af 62 59 3b 76 c6 60 3d
       -0.019212836 0.0022410352 0.0033170392 0.054876767
000080 fc f7 09 39 cd b3 3e 3d 8b fe 74 3d fb e3 9a 3c
       0.0001315772 0.04655819 0.059813064 0.018907538
000090 f9 66 4f 3c 4e 02 63 3d ff 6c 27 3a 92 b0 c1 3c
       0.012658828 0.05542212 0.0006386786 0.023643766
0000a0 b4 f4 4e 3c 90 7d 3b bc e8 da 79 3d 44 4f 73 3d
       0.012631584 -0.011443511 0.06099978 0.059401765
0000b0 76 29 d7 3b c6 21 7a 3d 29 71 55 3c d4 2e d0 39
       0.006566222 0.061067365 0.013027468 0.0003970774
0000c0 e1 5e 39 ba c5 32 b7 3c 53 04 8e 3c f9 58 aa 3b
       -0.0007071328 0.022363076 0.017336046 0.0051985946
0000d0 ed de 2d bd 1e 4a 5f 3c 5a de 3d 3d 03 35 45 3c
       -0.042448927 0.013628511 0.04635463 0.012036565
0000e0 4f 7c b6 3b 38 17 48 bd f3 ba 41 bc 92 45 7e 3d
       0.005569018 -0.048850268 -0.011824357 0.062078066
0000f0 ad ca f8 bc d2 9c 4b 3b 7e b6 67 3c f6 8b bd bc
       -0.03037008 0.0031068814 0.014142631 -0.023138028
000100 c9 0a 80 bb 34 49 2a bd 9b 94 5b 3d 2f d2 8b 3d
       -0.0039075357 -0.04157372 0.053608518 0.06827199
000110 33 9d 52 3c 59 97 a4 3c 69 4b 87 3d 07 55 af 3c
       0.012854862 0.0200917 0.0660618 0.021402849
000120 dd 21 b6 3c b0 a9 e0 bc 58 e2 a9 3c 30 47 cf 3b
       0.022232944 -0.027424663 0.020737812 0.006325625
000130 18 76 56 3c f5 8e 42 bc 86 08 3b bd a4 78 56 3d
       0.013089679 -0.011874904 -0.045662425 0.052361146
000140 18 55 0a bd 4c db f6 bc cd 88 af bb d7 da 27 3b
       -0.033772558 -0.030133866 -0.005356884 0.0025612616
000150 db 11 48 bc f4 78 34 3d 38 9e c7 bc e9 8a 91 3c
       -0.012211288 0.044060662 -0.024367437 0.017766433
000160 5b 17 4c bd 92 39 51 3d 78 45 c5 3c ee 40 e6 bb
       -0.04982696 0.051080294 0.024080977 -0.007026783
000170 e1 5f 59 3c 50 c4 52 3d f0 d8 03 bd 68 9b 40 3d
       0.013267488 0.05145675 -0.03218931 0.047023207
000180 d3 b3 3a bd 96 c2 af 3b bd 8c 3f 3c 4a 2f 45 3d
       -0.04558165 0.0053637726 0.011691269 0.0481408
000190 9a c0 5a 3c 3c 7f 3b bd 0c e5 86 3c 11 46 99 3c
       0.013351584 -0.045775637 0.01646664 0.018710168
0001a0 a8 df 7d bb 0b 2c 26 bc b7 ac 09 3d fa 3f e4 3c
       -0.0038738046 -0.010142337 0.03361198 0.027862538
0001b0 04 75 32 bd c2 eb 82 bc 90 74 56 3c 53 18 94 3d
       -0.043568626 -0.015981559 0.013089314 0.07231202
0001c0 f2 37 fe 3b e4 7d 59 bd d6 7c b9 3c d5 c0 db 39
       0.007758134 -0.053098574 0.022642534 0.00041914606
0001d0 08 a7 51 bd 51 eb 26 3c 25 eb a6 bb 72 c8 0f 3d
       -0.051184684 0.01018794 -0.0050939494 0.03510327
0001e0 b3 56 94 3c 4f 4d 3b 3c fb 55 18 bb 67 1b f3 bc
       0.018107748 0.011432006 -0.0023244608 -0.029676152
0001f0 12 d2 77 bc 45 4e 71 3c e8 c1 56 3d 6a 6d e9 3c
       -0.015125768 0.014728134 0.052431017 0.028494556

attention_layer.w.weight f4 [1, 128]
000000 d9 f4 a6 3c e2 e7 d6 bc cc d2 32 3c c5 1f 93 3d
       0.020380424 -0.026233617 0.010914516 0.07183794
000010 fe a3 8f 3c 59 d7 01 3d b7 45 07 bc e7 90 84 3d
       0.017534252 0.031699512 -0.008256367 0.064729504
000020 9d a0 8d 3c 1a 57 15 bd b7 1f 79 3d 8e f5 99 bd
       0.0172885 -0.03646002 0.06082126 -0.07517539
000030 83 50 b1 3d 33 5a c5 bc 23 2d be 3d ff 1d eb bc
       0.086579345 -0.024090862 0.09285953 -0.028700827
000040 eb c3 6c bd bd 9f aa bd 8c f5 fd bc 58 ed 74 3c
       -0.05780403 -0.08331249 -0.031000875 0.014949165
000050 64 d6 9f bd e7 87 94 bc d1 e1 99 3c 20 be fd 3c
       -0.07804564 -0.01813121 0.018784435 0.030974448
000060 e6 fe 0c 3d b0 5f 09 bd a8 9d 5b bd 35 84 4b bd
       0.034422778 -0.03353852 -0.05361715 -0.04968663
000070 de 83 63 bd ca 19 f9 bb 67 a2 4b 3c be 25 d5 bc
       -0.05554568 -0.0076019512 0.012428856 -0.026018973
000080 3b dc df bc 76 5e 4d 3d 69 71 88 3d 17 f9 c9 bd
       -0.027326694 0.050138913 0.06662256 -0.09861963
000090 13 0a 8f 3d 32 25 88 bd 18 62 25 3d 3d 03 cf bc
       0.069843434 -0.066477194 0.040376753 -0.025270099
0000a0 64 d1 80 bd cd 15 95 3d ea 26 6a 3d 00 76 65 bd
       -0.06289938 0.07279549 0.057166018 -0.056020737
0000b0 26 71 a3 bc ad 28 d2 bc 19 05 13 bd ae 6d a2 3c
       -0.019951414 -0.025654161 -0.035893533 0.01982769
0000c0 f5 13 90 bc 43 ba 19 bd 2a b4 cf 3d d2 fc ef 3c
       -0.017587641 -0.03753115 0.101417854 0.029295359
0000d0 df 72 22 3d c5 a3 18 3d 79 b7 5a bd b9 16 87 bd
       0.03966033 0.037265558 -0.05339763 -0.06596131
0000e0 a2 91 6c bc 94 8a 02 3d 66 ec a0 bd 1f e0 b6 bd
       -0.014439018 0.03187044 -0.078575894 -0.089294665
0000f0 35 7c bd 3d 4d 10 65 bd 16 de df 3c f6 7b 91 bd
       0.09252206 -0.05592375 0.027327579 -0.07103722
000100 6c 81 92 3d 9e aa a3 bd a1 99 cf bc db 37 a4 bd
       0.071535915 -0.07991527 -0.02534181 -0.08018466
000110 12 61 94 3d 44 17 d8 bb 33 78 2f 3d c9 17 33 3d
       0.07245077 -0.0065945704 0.04283924 0.043723855
000120 6f c3 32 3d 77 b8 c5 bd 18 56 92 bd e5 45 a8 3d
       0.04364341 -0.096543245 -0.07145327 0.08216456
000130 99 ed 7c 3d bf ed 92 bb 5d ab 1a 3b 98 2f 19 bd
       0.06175003 -0.004483908 0.0023600676 -0.037398905
000140 e9 6c c0 bc de df 9f 3d 41 15 a1 bd f1 d9 0d 3d
       -0.023489432 0.07806371 -0.07865382 0.034631673
000150 56 b7 2f bd 9f 72 a3 3d 34 0b 71 bd 06 e3 c6 3d
       -0.042899452 0.079808466 -0.058848575 0.0971127
000160 8c 6b 58 3d ab 62 57 bd 7f 54 b2 3d 32 35 8e 3d
       0.05283694 -0.05258433 0.087075226 0.0694374
000170 95 8c a2 3d fd dc 70 bd b7 36 20 bd 82 d0 52 3d
       0.0793697 -0.0588045 -0.03911468 0.05146838
000180 90 f7 a6 3d ac 49 6e 3d 7e 27 37 3d 3e d5 ad 3c
       0.081526875 0.058175728 0.044715397 0.021219846
000190 37 1f 07 bd 09 0e a1 3c 20 e3 9e bd 2a 16 b0 3d
       -0.032988753 0.019660013 -0.077581644 0.085979775
0001a0 e2 d7 a2 3d a4 1f 7f bd 25 2c 69 3d e4 98 5f 3d
       0.07951333 -0.062286034 0.056926865 0.054589167
0001b0 bc 4b 9c 3d 88 8d 89 bd 0e d5 ad 3d 62 2c aa 3d
       0.07631633 -0.06716448 0.084879026 0.083092466
0001c0 ed 66 91 3d 9b 83 38 3d bb 7e 79 bd c3 50 76 bb
       0.0709971 0.045047384 -0.060911875 -0.0037584759
0001d0 8f aa cb 3d 77 6b df 3c cb 7c 1e bd 1a 9a c4 3c
       0.09944641 0.027272923 -0.03869323 0.023999263
0001e0 aa 54 b8 bd ae 41 ab bd 66 ed 87 3d 98 9b 8f 3d
       -0.090005234 -0.08362137 0.06637077 0.07012099
0001f0 bb e3 a2 3c ec 85 12 3c 60 42 9f bd 53 53 84 bd
       0.019883981 0.008943062 -0.07776332 -0.06461205
