dataset/models/Classic/model.pth (torch, 696702 bytes, 14 tensors)

tiles_emb.hidden_layers.0.weight f4 [128, 768]
00000000: d020 56bc 5dd8 37bb 22af 613c fdef 9d3b
00000010: 0a5e 62bb a8b7 b6bc f4cf cfba cdc3 6d3c
00000020: bced 113b 3e5f 873c 28dc a239 326b 27bb
00000030: 01fd 9a3b e87f babb 75f4 7fbc f9e2 d4bc
00000040: 764f fb3a 2286 763c 953f 6a3c d69e 913c
00000050: 19e2 18bc 82d0 133b 9856 09bc fa4a 1c3c
00000060: 13cc 43bc 9d12 6c3c 5d51 ff3b 1abe 68bc
00000070: 5fcb 08bb 48d8 b2bc fd9a 20bd 4e1e 533b
00000080: e108 3539 bb9b 83bb 2376 52bb 5505 a6bc
00000090: f758 aa37 5a46 04bd fa20 a0ba eb0d bc3b
000000a0: 57dc 103c b70a 2d3c 022d 143c 5ddf cc3a
000000b0: 2c84 fdbb a2cd 7e3c 9f4e 07bb eab6 873c
000000c0: 638c 0cbc 4c14 dbbb e728 d33a b584 91bc
000000d0: c33d 333b 8ccc 8cbc b59b 7fbc c43b bebb
000000e0: a3c7 cf38 2da4 3e3c 80dc c63c b00f c7bb
000000f0: 74aa d9bc 4102 ffb9 cb3a 6e3c 067a f43b
00000100: 0bcd a43c 541e d93c 8980 32bc eff4 8c3c
00000110: a606 8b3b 9f1d 3dbb ac88 0ebc 1958 30bc
00000120: 4ed4 3f3b 64e6 023c 3aa9 f4bc e501 1dbc
00000130: 7555 4c3c 887c 8abc 6e06 26bc df64 bebc
00000140: 7de3 553b 2cc1 1c3b 0077 043c cbee 223d
00000150: 1430 eebc 8af3 3f3c 651c d5ba a732 1d3c
00000160: c009 cb3b d118 393c 9abb 46bc 77ae 143b
00000170: 1161 5b3c 2fa9 143a fe56 a8bb ffc5 ed3b
00000180: ef1a 683a b952 373b 212b 87bc 1246 7b38
00000190: c28c 6fb9 e03d 98bc bd71 97bc 1487 4e3b
000001a0: f568 0cbc f8a2 83ba 60bb 9c3b 419f 57bb
000001b0: 0493 b53c 4b4a 72bb 406a cabb 6c9b 6c3b
000001c0: 6e2c 9abb 5336 2c3b 08a1 df3a 1353 673c
000001d0: ed97 103c 372a aebc d5a1 ae3c a102 5fbc
000001e0: 3577 fc3c 6775 db3a 6432 d5bb 91f3 59bc
000001f0: 16ee 8bbc b46b f3b9 86cf 603b 5b61 183b
00000200: b38d 673c 3d8f af3c 1a60 a4bb 67a7 95bc
00000210: a98d 163c 99a9 d6bb 2124 753b 511f 143d
00000220: 035a a93b 5e4b 243c 7c82 36bc 2c71 463b
00000230: 24e8 f1bb 66ef 7838 c120 d3bb 5c68 47bd
00000240: 6562 a23b 601b 97bc 669d f9b7 8a14 433c
00000250: 6142 e33b b23c 70bc 19cc 7f3b 37f5 023c
00000260: aad4 793b fac9 4bbc 154f 16bc d601 8fbc
00000270: d739 d4bb c279 eebb 4185 fd3b a1d9 d2bc
00000280: a6e9 62bc 183d f93b 4b46 a3bb f1a1 99bc
00000290: 5705 82bc 3cb7 893b 3b3f 2dbb f225 153c
000002a0: c790 8e3c 2728 5bbc 9564 633b e63b 383c
000002b0: 31ca 8ebb ead9 253c 02fd 8a3b bace c5ba
000002c0: 053b ffba 3e32 eb3b 7bf1 01bb 5cda 14bd
000002d0: 0557 8bbc df60 883a 4ea0 89bc a484 65bb
000002e0: 127a 00bc deab f03b 0718 14bc ad84 ca3b
000002f0: 3932 5fbc 1861 00bc 7c4b ce3c 8334 113c
00000300: e0ff ab3b b302 32bb 35ad 27bd 2f6c 0abc
00000310: 2689 cd3b 5760 56ba 7d0f fb3b e593 6cbc
00000320: 5f1c 0d3c b9be 0dbb 4881 96ba a319 6bbb
00000330: 0e22 873b 0179 afba 8c03 28bc 5c5a 44bd
00000340: e2ca f3bc 47f3 eebb 1184 79bc 9f27 5bbb
00000350: a5b8 0d3b bd4c 70bc 48e1 6cbb 0dac 9d3c
00000360: bd3a afbb 412d fc3a cdb8 603b 4ba7 7fbb
00000370: 575b 87bb df66 313b 0715 b43b 61ad 55bc
00000380: 2d10 d13c 9436 73bc 03cd 023c 7b69 683c
00000390: 3401 eabb c06d 463c 0edd 77bc ee03 50bb
000003a0: f872 05ba 1bbf 00bc a4a3 e0bb 41f9 813c
000003b0: 1d6a 8ebb e958 88bc edf4 a53c 51b9 243c
000003c0: 72c9 483c 0f50 df3b e013 6b39 2164 89bc
000003d0: a159 6a3b 9c42 a7bb ba0b 4c3b b279 5e3c
000003e0: 8a0b 83ba 63dd 92ba 0836 4f3a 193b 7c3c
000003f0: cc69 a8bc 6baa 3c3c 2e8b 613c 736e 5e3c
-0.013069347 -0.0028052547 0.013774665 0.0048198686 -0.0034540915 -0.022304371 -0.0015854822 0.014512015
0.0022266945 0.016524907 0.00031063077 -0.002554607 0.0047298674 -0.005691517 -0.015622248 -0.025987135
0.0019173461 0.015046628 0.014297386 0.017775934 -0.00933125 0.00225547 -0.008382462 0.00953936
-0.011950511 0.014408735 0.0077916817 -0.01420548 -0.0020873172 -0.021831647 -0.03921031 0.0032214108
0.00017264813 -0.0040163673 -0.0032113872 -0.020266214 2.0307007e-05 -0.032293655 -0.0012216859 0.005738964
0.008841596 0.010561637 0.009043934 0.0015630532 -0.0077367034 0.015551956 -0.0020646227 0.016566712
-0.008578393 -0.006685769 0.0016110212 -0.017763475 0.0027350045 -0.01718738 -0.015601088 -0.0058054645
9.9077144e-05 0.011635822 0.024275064 -0.006074868 -0.026570536 -0.0004863907 0.0145403845 0.0074608354
0.020117303 0.02650372 -0.010894903 0.017206637 0.004242736 -0.0028856767 -0.008699577 -0.010763192
0.002927083 0.0079895 -0.02986585 -0.009582971 0.012471546 -0.016905084 -0.010133369 -0.023241458
0.0032636814 0.002391885 0.008085012 0.039778512 -0.02907566 0.011715779 -0.0016259073 0.009594596
0.0061962306 0.011297421 -0.012129689 0.0022686997 0.013389842 0.0005670962 -0.0051373234 0.007256269
0.0008854111 0.002797289 -0.016500058 5.990832e-05 -0.00022845253 -0.018584192 -0.018486852 0.0031513618
-0.008569946 -0.0010043075 0.004783079 -0.003290132 0.02216483 -0.0036970552 -0.006177217 0.003610338
-0.0047050035 0.0026277497 0.0017061541 0.0141189275 0.008825284 -0.021260364 0.021317402 -0.013611467
0.030818561 0.0016743363 -0.006506251 -0.0133027 -0.017081302 -0.00046428817 0.003430338 0.0023251388
0.014132905 0.021430606 -0.005016339 -0.0182683 0.009189048 -0.0065509793 0.0037405568 0.03616268
0.005168201 0.010027735 -0.011139508 0.0030279858 -0.0073824096 5.9350765e-05 -0.0064431136 -0.04868351
0.004955577 -0.01844567 -2.9756407e-05 0.011906752 0.006935403 -0.014662908 0.0039031564 0.007993034
0.0038121142 -0.012438292 -0.009174128 -0.01745693 -0.0064766216 -0.0072776983 0.0077368324 -0.02573854
-0.013849651 0.00760616 -0.004982745 -0.018753977 -0.015871687 0.0042027514 -0.0026435393 0.009103285
0.01740302 -0.013376272 0.0034697403 0.01124475 -0.004357599 0.010122756 0.0042415867 -0.0015091517
-0.0019472545 0.00717762 -0.0019827771 -0.036341056 -0.017009268 0.0010404846 -0.016800072 -0.0035021687
-0.007841604 0.007344707 -0.009038932 0.006180367 -0.013622814 -0.007835649 0.025182478 0.008862617
0.0052490085 -0.0027162253 -0.040936667 -0.008448645 0.006272453 -0.0008177808 0.0076617585 -0.014439558
0.008612721 -0.0021628572 -0.0011482621 -0.0035873435 0.0041239327 -0.0013387502 -0.010254752 -0.047937736
-0.029759828 -0.0072921845 -0.015229241 -0.0033440364 0.002162495 -0.014666733 -0.003614502 0.01924708
-0.0053475783 0.0019239561 0.0034289837 -0.0039009626 -0.0041307616 0.0027069373 0.0054956707 -0.013041825
0.025520409 -0.014844555 0.007983449 0.014185305 -0.0071412567 0.012111127 -0.015128387 -0.0031740624
-0.0005090679 -0.007858063 -0.006855445 0.015865924 -0.004346146 -0.016643958 0.020258391 0.0100539485
0.01225506 0.0068149636 0.0002241875 -0.016771378 0.003575899 -0.005104376 0.003113492 0.013578819
-0.0009997946 -0.0011204894 0.00079044746 0.015394949 -0.02055826 0.01151524 0.013766093 0.013576138

tiles_emb.hidden_layers.0.bias f4 [128]
00000000: b344 903c f9ad 99b9 bba8 873a 3fda 9a3c
00000010: 6cc4 d83b 4e3a 6bb9 269c 72ba e441 413a
00000020: 875e e7b5 9d89 9b3b 13de 7bb9 9a95 1fbb
00000030: fea4 33bc 3064 af3b 11da 52b8 ef13 cd39
00000040: 0a6d c03c 866c c439 1262 503c caa8 2f3c
00000050: 17f4 32b8 907c 82ba 0b93 6338 300e e5bb
00000060: f25e 9b3b 99d8 273c cfcd 9e3b fabd cb3b
00000070: d0e3 10bb 1f0b fd3b 7de2 91b9 191c 453b
00000080: e895 723c ee3f 84b6 7c11 bc3b 064f 9e39
00000090: f772 6eb8 3456 8c3b c786 523c adc4 c83c
000000a0: 29c4 a6bb 9bbf 91bc c6a6 ce3b 54ff f63b
000000b0: 5ad3 1bb7 bb90 813c 03d3 25b9 1059 ac3a
000000c0: de64 7f3b ab80 6cba 5360 183b ee03 80ba
000000d0: d9eb 95ba 3360 f9b8 ffa1 ff3b 3c49 783b
000000e0: 6c6f f1ba 6224 84ba 425f aa3b 31be 81ba
000000f0: b011 9fb7 7425 0a3c c09b 8d3c 83a1 e8b9
00000100: 8de8 4f3b 69db b3ba 8ab6 0c3b ac97 703b
00000110: 78f5 93ba 3725 79b9 83d1 57bb bf3f 043b
00000120: 91b7 61ba 7a36 013c 88dd 9e3a ba4d 7bb9
00000130: 5c93 66bc b61a 32b9 fed0 c33b 26fb 8e3c
00000140: 6ecf e03b 4fee f53b 1e49 c8ba 89d9 2bbb
00000150: 8d86 9139 1da3 81bb f8b7 5aba 5b0b 5a3a
00000160: 48f0 bfb9 1394 883c 4197 9e39 39ef 853c
00000170: 4df0 2b3c 631d 6bb9 d0b8 84b8 58f0 20bc
00000180: 3bc5 a23c 1108 113c da07 463c f1e0 423b
00000190: 852d 933c c3cb b53b 1340 24b6 dbb9 59bb
000001a0: 25f2 b33a 1128 9fbb f4cc c73b 56dc 46ba
000001b0: 4e33 75bb e3c3 4aba da71 923b dee4 b139
000001c0: 83ac 7a3c 6ca4 b2ba 52a9 03ba 781e 3e3b
000001d0: c997 a5bb e328 97b3 963d 3a39 1681 a43c
000001e0: 46c4 e13c a88a 9db8 9232 f3b6 af7b 6c3c
000001f0: 7027 c2b9 71d5 723c 422d 72b9 fd22 8e3b
0.017610883 -0.00029312054 0.0010349968 0.018902896 0.006615212 -0.00022433067 -0.00092548353 0.0007372184
-1.7238352e-06 0.0047466294 -0.00024019954 -0.0024350644 -0.01096463 0.0053525195 -5.027099e-05 0.000391155
0.023489494 0.0003746489 0.012718694 0.010721395 -4.2665833e-05 -0.0009955335 5.4257962e-05 -0.0069902167
0.004741543 0.010244512 0.0048463116 0.0062177153 -0.0022108443 0.007722273 -0.00027825302 0.0030076562
0.014806248 -3.941349e-06 0.005739389 0.00030194985 -5.685069e-05 0.004282737 0.012849516 0.024507845
-0.005089302 -0.01779156 0.006306502 0.0075377617 -9.287929e-06 0.015816083 -0.00015814234 0.0013149101
0.0038970034 -0.00090218586 0.0023250773 -0.0009766796 -0.0011438086 -0.00011891164 0.007801294 0.0037885448
-0.0018420047 -0.0010081644 0.005199344 -0.00098986 -1.8962513e-05 0.008431781 0.017286181 -0.00044370824
0.0031724304 -0.0013722006 0.0021471106 0.0036711497 -0.0011288365 -0.00023760354 -0.0032931275 0.0020179597
-0.00086104224 0.007886523 0.0012120465 -0.00023966181 -0.014073219 -0.00016985353 0.0059758415 0.017453741
0.006860665 0.0075052152 -0.001528058 -0.002622219 0.00027756803 -0.003956212 -0.00083434535 0.0008317732
-0.00036609382 0.01667217 0.000302488 0.016349422 0.010494304 -0.00022422294 -6.3286745e-05 -0.009822927
0.019869437 0.008852021 0.012086833 0.0029736126 0.017966041 0.005547972 -2.44752e-06 -0.003322235
0.0013728781 -0.004857071 0.0060974304 -0.0007585933 -0.0037414613 -0.0007734878 0.0044691386 0.0003393059
0.015299919 -0.0013629324 -0.0005022484 0.002900986 -0.0050534946 -7.038923e-08 0.00017761285 0.020081084
0.02755941 -7.51217e-05 -7.2478515e-06 0.014433785 -0.00037031947 0.014821396 -0.00023095778 0.004337667

tiles_emb.hidden_layers.2.weight f4 [128, 128]
00000000: 6ca6 95bc 54d6 0f31 8a0a 143c 7288 95bc
00000010: 40b2 7e3b f41b dc32 0db4 503b 38db 84bc
00000020: 8f7c 01b2 bdd3 373c a03c 5bb0 2106 82bc
00000030: 0b21 a0bc 298b 93bb 0e23 87b2 866a 983a
00000040: f663 cdbc 7f4f bc35 6bb9 84bc 5ddf 283c
00000050: a070 e0ae 8d9f 8a33 384a b636 c104 d53b
00000060: 68ae d93a dd97 bc3b 2f96 87bc 7501 f93b
00000070: 1900 d536 ff81 b43b 72f9 9431 9144 2f3c
00000080: 8cc8 5abc 886c b3af 061c d9bb a170 a536
00000090: d12d 31af 26a5 243c 939f ed3b 73b9 a1bc
000000a0: cc49 63bc 6890 5738 db2c 85bc ff9b 213c
000000b0: 5a88 b5af bbbe 9bbc 7bd1 4530 345e 1336
000000c0: 5731 7dbc f402 9334 aa08 b5bc b5b2 5533
000000d0: 403c a3bc c71e 08b1 889f aabc c7a7 9ebc
000000e0: f824 983b 2d49 09b1 babc 0d3c bcf3 3bb5
000000f0: a517 a52e 25b8 1fbc 59b5 64bc c311 7531
00000100: fcb8 a1bc c065 7a33 e4ae c13b e987 a3bc
00000110: 8ac1 0739 fbfc 1932 8c71 e1b3 7014 b0b7
00000120: dcd0 bf36 91e0 c8bb ff42 b0bc 895a 30b2
00000130: 0711 f6b8 684c e5b4 b8ef 1cbc a34e da3b
00000140: 831d d33b f483 92bc 9e75 0930 069a 0a35
00000150: 2fea 09b5 bb72 43b4 697a 4fbc 5540 86b9
00000160: 66cf ac33 ed8d c53b 2516 0334 af15 99bc
00000170: d550 99bc 00ab e82f 0f62 0831 ec76 d6b4
00000180: 5030 6dbc 2527 a8bc 5f19 6ebc 65e0 1ab9
00000190: 59da 97bc 5121 31bc 7be6 4eb0 7176 6334
000001a0: 4090 9836 f6fe db3b 4457 a4bc 6967 20bc
000001b0: 82ce b6bc deda 3432 73e5 8dbc 063e c835
000001c0: d9fe 9ebc e958 deb7 1fe3 f1b1 9a9f 0f34
000001d0: 7f59 99bc 6e31 38af 2c5f 2536 9855 8bbc
000001e0: ca2c 6ebc c09e a632 221e ddae d445 8dbc
000001f0: 3d51 f537 eb96 7cbc 4912 98b0 907e 0b3c
00000200: 2fb5 c33c 706f 8932 177e afbc 956b c13c
00000210: a019 8dbc d168 63b3 dfb1 8bbc 5dbe cb3c
00000220: a1cd 01b2 22c1 afbc 9d9b d32f 8d20 de3c
00000230: 9efc 8b3c 0a48 a03b 16e2 00b4 bc0f 19bb
00000240: d0ee df3c fb04 b0b5 15d6 ac3c e2de 97bc
00000250: e978 13b0 94c4 0d38 d652 20b8 6d5e d0bc
00000260: efab f3bc d2a7 9fbc 6129 b23c c3ac b3bc
00000270: 6438 5937 3a67 cbbc 13ed d1b2 6669 b7bc
00000280: 5ded 9e3c 3764 f3ae a01c 0a3c dfaa 1eb7
00000290: 5a2b bf30 a0fc afbc e232 3bbc 3738 d93c
000002a0: 4792 773c c6a5 1ab8 cbda a83c 5558 73bc
000002b0: 8f7b 5bb0 911b c73c 0a3d 0fb0 469d c4b7
000002c0: 792a 9b3c 89cd 57b5 15bd 183d 8aed acb7
000002d0: 99cf dc3c 4073 8faf a3c0 c23c c784 cd3c
000002e0: 2a40 9ebc 403f 36b1 aa89 66bc a2aa e933
000002f0: 53e1 d9ae 9e63 4f3c 4e35 793c 6203 e430
00000300: 5e62 d43c 7de8 00b9 6ed9 8ebc 432d c13c
00000310: fdd1 cbba 848f c6b0 b027 ffb3 42b4 c136
00000320: 04ca 8bb6 41a1 f93b 8b9b c23c a49f 1eb0
00000330: a9e0 d6ba 9d9b 2338 65bb 4d3c ade3 ddbc
00000340: 0ea5 cebc 34f4 c83c bcdd 6b31 2f6f 8fb7
00000350: 5560 51b3 abe2 ea34 c392 a63c c4e3 24ba
00000360: 4791 0834 bfc8 ccbc 4815 e9b5 8c24 be3c
00000370: 951c b73c 5944 0b30 e763 c134 d1f7 13b6
00000380: 3a14 973c 8039 d93c 3ae4 b93c 89b1 1939
00000390: 90a3 c23c 1316 523c d2ca 1431 787f 9435
000003a0: abda 0eb7 3544 90bc 6afc dc3c e474 483c
000003b0: 8e36 683c 2bc4 9a37 bd8f b33c 64cf 02b6
000003c0: 4e23 d33c 1053 11b8 a19e 6faf 2c8c 8837
000003d0: c29a f83c 7ca3 2b30 46ec 99b6 d79d ac3c
000003e0: 1101 a33c 3951 8133 8e94 21ae e4b0 a53c
000003f0: 558b 2eb8 6d5d c03c ba1f 49b2 19d8 8fbc
-0.018267833 2.093107e-09 0.009035716 -0.018253539 0.003886357 2.5624082e-08 0.00318456 -0.016217813
-7.53711e-09 0.011219916 -7.975789e-10 -0.015872063 -0.019547006 -0.004502673 -1.573201e-08 0.0011628426
-0.02507208 1.4030228e-06 -0.016201695 0.01030716 -1.0206347e-10 6.455148e-08 5.432663e-06 0.006500811
0.0016607763 0.005755408 -0.016551105 0.0075990506 6.347906e-06 0.005508661 4.3357256e-09 0.0106975
-0.013353478 -3.2637026e-10 -0.006625655 4.930495e-06 -1.6114333e-10 0.01004914 0.0072516887 -0.01974175
-0.013872575 5.1394483e-05 -0.01625674 0.0098638525 -3.3020592e-10 -0.019011846 7.196587e-10 2.195954e-06
-0.015453658 2.7383032e-07 -0.022098858 4.975546e-08 -0.01992619 -1.98081e-09 -0.020828024 -0.019367112
0.004643079 -1.997772e-09 0.008650953 -7.001761e-07 7.5075314e-11 -0.009748493 -0.013959252 3.5662289e-09
-0.019741528 5.8300202e-08 0.005910741 -0.019962268 0.00012946702 8.963293e-09 -1.0498033e-07 -2.0990352e-05
5.716558e-06 -0.006130286 -0.021516321 -1.0265134e-08 -0.00011733366 -4.2710167e-07 -0.009578638 0.0066622063
0.006442727 -0.017885186 5.0007454e-10 5.163314e-07 -5.137726e-07 -1.8202529e-07 -0.012663462 -0.00025606403
8.0471e-08 0.0060288818 1.2208382e-07 -0.018687097 -0.018715302 4.2322057e-10 1.9846345e-09 -3.9947133e-07
-0.014476851 -0.020526478 -0.014532416 -0.00014770178 -0.018536733 -0.010811166 -7.5269896e-10 2.1184111e-07
4.546746e-06 0.0067137433 -0.020061143 -0.00979028 -0.022315267 1.0527144e-08 -0.017321324 1.4919212e-06
-0.01940863 -2.6505864e-05 -7.039844e-09 1.3375976e-07 -0.018719433 -1.6752263e-10 2.4642313e-06 -0.017008588
-0.014537046 1.9397135e-08 -1.0055269e-10 -0.01724521 2.9244105e-05 -0.015416841 -1.1064653e-09 0.008514062
0.023890106 1.5999575e-08 -0.021422429 0.02361087 -0.017224133 -5.2947886e-08 -0.017052589 0.024871046
-7.555543e-09 -0.021454398 3.8491246e-10 0.02711513 0.01708823 0.0048914 -1.2003179e-07 -0.0023355326
0.027335554 -1.3114471e-06 0.021098176 -0.018538896 -5.365011e-10 3.3800097e-05 -3.822412e-05 -0.02543565
-0.02974507 -0.019489203 0.021748247 -0.021932965 1.2947337e-05 -0.024829496 -2.4438611e-08 -0.022389125
0.019400293 -1.10681624e-10 0.008429676 -9.457318e-06 1.39094e-09 -0.021482766 -0.011425706 0.026516063
0.015110559 -3.687085e-05 0.020612141 -0.014852603 -7.9847323e-10 0.024305137 -5.210984e-10 -2.3438257e-05
0.018941151 -8.0392834e-07 0.037289698 -2.061461e-05 0.026954459 -2.6093439e-10 0.023773497 0.025087727
-0.019317705 -2.652044e-09 -0.014070908 1.0880946e-07 -9.908043e-11 0.012658028 0.015210463 1.6590145e-09
0.025925811 -0.0001229364 -0.017437663 0.023581153 -0.0015550252 -1.4447186e-09 -1.1881582e-07 5.772833e-06
-4.1660405e-06 0.0076181 0.02375581 -5.770693e-10 -0.0016393858 3.9007155e-05 0.012556885 -0.027086103
-0.025225189 0.024530508 3.4323042e-09 -1.7098702e-05 -4.8749218e-08 4.375082e-07 0.020333653 -0.0006290043
1.2718839e-07 -0.024998067 -1.7366046e-06 0.023210786 0.022352496 5.0665033e-10 3.602174e-07 -2.2048955e-06
0.018442262 0.026516676 0.022691835 0.00014657354 0.023759633 0.012822646 2.1652125e-09 1.1063958e-06
-8.514772e-06 -0.017610649 0.02697583 0.0122349 0.014173163 1.8449578e-05 0.021919126 -1.9492227e-06
0.02577367 -3.4648052e-05 -2.179328e-10 1.6277736e-05 0.030347232 6.2441763e-10 -4.587261e-06 0.021071358
0.01989797 6.021805e-08 -3.6739105e-11 0.02022595 -4.1614596e-05 0.023482049 -1.1706954e-08 -0.017559098

tiles_emb.hidden_layers.2.bias f4 [128]
00000000: 3c3a f0bc fa91 e9bb 08ec 17bd 64ff 65bd
00000010: 6cab 0bbd 648c 223d 7c1a c1bc 0fb0 c9bc
00000020: ee39 43bc cef7 023b 87e7 0fbd 4fd6 563c
00000030: 2508 a03c 4c1b d93c 1f3b f73a 5a40 b63c
00000040: d1d7 03bc 7823 54bc e89e 6d3d d162 883c
00000050: 85e3 ad3c 7800 4a3d 2335 35bd 7dfb 993d
00000060: 4a87 a33c 7150 c0bc 497f b63c fcf1 0d3c
00000070: dceb 7b3d b9d7 64bd 8b38 ea3c f2ad 9dbd
00000080: b102 893c b718 30bd d718 89bd b176 9abc
00000090: 01a2 c13c 7fae 6439 9aae 1fbc 7f24 05bd
000000a0: 77b1 5dba 26c0 c6b9 4ecb 523c 656f 5cbd
000000b0: 2264 87bb 800e 753d 2450 253d 9985 fdba
000000c0: 0cad 2bbd 94a9 4b3b bbaf 8db9 df13 3f3c
000000d0: 3574 263d d66b 32ba 91ef 15bd 3e9d 8abd
000000e0: 617f bbbc de8e 173c 6108 153d d23d 293d
000000f0: 99f0 0b37 ad1b 0f3d 0315 7938 7866 3b3b
00000100: 26f3 6c3c b5e3 903c d3b4 31bd 932c d03c
00000110: 263d c8bc 5443 9b3c 3ffb 293c e7a7 17bb
00000120: bb78 71bd e9f3 d9bc 2e35 f33b 9a7d 433a
00000130: 07db f93c 2b12 273d 8e19 513d 70fb 503d
00000140: 6e14 93bb a8c2 f2bb c6cd 0bbc 71de 143d
00000150: ec2d 613d 9a55 523b 58f1 763c 3f9d 773c
00000160: cc35 803d b362 f4bc ce37 d93c faf3 5e3b
00000170: a03a febc e76d 4dbd 5a93 4e3c dcb8 cdbc
00000180: fa7b 993b 2b10 e6ba 8ffe e43c 7c8d f2ba
00000190: 11c4 493d 65e8 df3b 9270 9c3c c9c9 693c
000001a0: 6c40 623d 82b0 be3c 1f82 5d3c cb6e fcbc
000001b0: f3d4 14bd b25f ed3c 7e78 80bc a767 9a3b
000001c0: 493a 7f3c 42b3 e03c 3977 5bbc a788 b5bc
000001d0: bc43 82bc a90c a53b cde6 753d af50 403c
000001e0: 66b6 64b6 da08 82bd 8433 483d 3a66 c3bc
000001f0: ed5f 0abd cf25 873c ef92 39bd b10a 073c
-0.029324643 -0.0071279975 -0.03709033 -0.056151763 -0.034099028 0.03968467 -0.023572199 -0.024620084
-0.011915667 0.001998413 -0.03513291 0.013112619 0.019535134 0.026502274 0.0018862224 0.022247482
-0.00804706 -0.0129479095 0.058012873 0.016648682 0.021226654 0.049316853 -0.04424013 0.07518671
0.019961972 -0.023475857 0.022277491 0.008663651 0.06150423 -0.05586979 0.028591415 -0.07699193
0.016724916 -0.04299232 -0.06694191 -0.018855425 0.02363682 0.0002180878 -0.009746218 -0.03250551
-0.0008456925 -0.00037908665 0.012865854 -0.05381717 -0.00413181 0.05982828 0.04035963 -0.0019342183
-0.041913077 0.0031076418 -0.00027024545 0.0116624525 0.040638167 -0.000680623 -0.03660542 -0.06768273
-0.022887887 0.009250371 0.036384944 0.041318722 8.341064e-06 0.034938503 5.9385795e-05 0.0028595012
0.014462268 0.017686704 -0.043385338 0.02541188 -0.02444322 0.018953003 0.010374843 -0.002314085
-0.05895303 -0.026605563 0.007422111 0.0007457376 0.030499948 0.04078881 0.05104976 0.05102104
-0.0044885194 -0.0074084587 -0.008532947 0.03634495 0.054975435 0.003209448 0.015072189 0.015113174
0.06260261 -0.02983222 0.026515868 0.0034019933 -0.031033814 -0.05015364 0.012608374 -0.025112562
0.0046839686 -0.0017552426 0.027953414 -0.00185053 0.04925925 0.0068331235 0.019096646 0.014269301
0.05523722 0.023277525 0.013519793 -0.030814549 -0.036335897 0.028976295 -0.015682455 0.0047120634
0.015577861 0.027429227 -0.013395124 -0.022159887 -0.015901439 0.0050369096 0.060034562 0.0117379865
-3.4080817e-06 -0.063493446 0.048877254 -0.023852456 -0.03378289 0.01649752 -0.045306142 0.008242295

attention_layer.att.weight f4 [128, 128]
00000000: 6b59 9f3b 82d3 b2bb 5646 ed3a cf5c 0e3c
00000010: 81f3 a1ba 50e5 07ba f095 9c3a 8203 973b
00000020: b216 093c 53ca 24bc ac02 15bc 0eda abbb
00000030: 029a bcbb 9195 a3bb 06e5 1cbc 8ab7 fa39
00000040: 77b0 09bb c80d 5dbb a048 a4bb 4a72 133b
00000050: 0a27 d6ba e4af b8bb 8a53 8c3b a933 4ebc
00000060: 80a2 4f3b 5317 62bb 3393 22bc a10a 86bb
00000070: 534c 06bc a37d 153c 44b1 afbb 05a2 283c
00000080: e77b 073c 2a16 e93b 15c0 043c 319f dc39
00000090: 195f e13b f43b 5337 ef40 d9bb e834 b239
000000a0: d684 8cb7 9557 d937 6179 c8bb e7fd d63a
000000b0: 89a0 47b9 ee95 ba3b d637 393c aa48 cb3b
000000c0: 17e2 e5bb 45a4 f53b 7aab fcbb 9699 c63b
000000d0: d476 abbb d7f8 ffba 7e64 be3b a946 e339
000000e0: 1342 f7bb c496 07bc 315b b0bb 6b9d ecbb
000000f0: b15d f233 b5ad 14bc e562 d835 3176 4cbb
00000100: a61d 5eb8 ccba 1d3c d0ed 1b3c 1d15 11bb
00000110: 8974 79ba 0475 50bb bfd4 f9bb 3986 fabb
00000120: a1c8 353c e45c f73b fa18 5d3a 6fe3 1238
00000130: bb0c 98bb 9df1 0dbc b4e1 213b ac6a f1bb
00000140: 70af 99bb 3b30 da3b 6473 b8bb 7d15 0339
00000150: ca21 91bb d27b 093c 6617 093c 31e9 d23b
00000160: f3e3 8cbb b8be 7e3a ef00 12bc 8fd6 0c38
00000170: 0165 a2bb 807b d6bb 2905 33bb 5685 a3bb
00000180: a02b 25bc fd0b e237 6edb fc3b e9cb a23b
00000190: be3a 073c 371f da3b 117c 773b aa2e 06bc
000001a0: b123 5dba 3b29 9d3b d5e8 4bbb 5809 9cbb
000001b0: 058d 4ebb cffa 583b 63c5 67bb 65e0 5a38
000001c0: a174 973b 9b83 e0bb 03e0 edbb f55b c3b9
000001d0: 2493 f13b 18fd 9c3b ef9d d6bb bc4a eb3b
000001e0: 56d7 afb4 db6d 0f3c 1ef6 8dba e391 233c
000001f0: 860f b9bb d6ee 893a ccae c43b e4f7 89ba
00000200: 58d2 1d3b e33a 3abb a4b4 733a e5fd 8e3b
00000210: 1a07 2dba a23b bcb9 111d 223a 7d07 1c3b
00000220: 768b 8b3b 2dfc a6bb 781e 97bb e137 32bb
00000230: fb42 3fbb 20ff 21bb 9db2 9ebb b8b5 6d39
00000240: 4bf7 8cba ebe8 edba 8726 22bb bd54 a03a
00000250: 4e9f 53ba 7944 3cbb e3f8 0e3b 4114 cfbb
00000260: 3728 db3a a38c f0ba 9025 a4bb 50bf 0dbb
00000270: 721b 89bb 5a10 963b 6bb0 35bb c50c aa3b
00000280: b74d 8a3b b79b 6c3b 481d 863b 6fa9 6939
00000290: f2a2 673b 80fc f336 6a22 61bb 3e5f 5039
000002a0: c309 09b7 76e7 fb37 dcae 4abb 095b 5b3a
000002b0: 8a1c 0bb8 2f9e 403b 38a6 b93b 1208 503b
000002c0: 13c5 6abb 526e 7c3b 095d 81bb f411 4e3b
000002d0: 2397 29bb 1a7a 86ba 631f 463b 5421 8239
000002e0: 68aa 7dbb f824 8bbb c5f5 2fbb e2fd 6ebb
000002f0: 4ea4 0d33 d251 95bb a05d c935 1798 ceba
00000300: 25e6 eeb7 f246 a03b 4dfb 9d3b 4389 94ba
00000310: 2a63 f8b9 6df2 d4ba 0d94 80bb 54c5 80bb
00000320: 2059 b73b 010c 773b 75b7 e339 edde a936
00000330: bc31 16bb b8b1 8fbb 7c0f aa3a 3821 72bb
00000340: 7cc5 21bb ae67 633b 58bd 42bb b408 ad38
00000350: 3609 10bb 6abd 8c3b d5de 8b3b 91ea 593b
00000360: 2a65 0bbb 0ace f839 87d7 94bb 42fe b6b8
00000370: 9c9d 28bb 47b6 5dbb 43b0 b7ba 1239 2bbb
00000380: 3871 a7bb 1d8a 2ab8 a869 813b 6273 273b
00000390: 4863 893b 6b1b 5f3b cdb0 023b 24b9 89bb
000003a0: cbe3 ebb9 c986 253b 453d d1ba d272 25bb
000003b0: a425 e3ba cc02 e73a f3e7 eeba d64d 1838
000003c0: 669a 233b 6122 64bb 3857 74bb bf5d 22b9
000003d0: 3409 793b 6b20 213b dfbd 54bb 2ec2 713b
000003e0: 4352 f134 de56 8f3b d203 16ba 15a7 a43b
000003f0: 1b5f 40bb 41df 083a 159f 483b 5bf0 04ba
0.0048629544 -0.0054573426 0.0018102627 0.0086891195 -0.0012355895 -0.00051840115 0.001194654 0.0046085725
0.008367227 -0.0100580035 -0.009094875 -0.0052445 -0.005755664 -0.004992195 -0.009576088 0.00047820463
-0.0021009722 -0.0033730138 -0.0050135404 0.0022498542 -0.0016338539 -0.005636202 0.0042824196 -0.012585559
0.003168255 -0.0034498766 -0.00992279 -0.0040906225 -0.008196908 0.009124192 -0.005361708 0.010292535
0.008269287 0.007113238 0.008102437 0.00042080277 0.0068777916 1.2590539e-05 -0.006630055 0.00033990224
-1.6751157e-05 2.59092e-05 -0.006117985 0.0016402573 -0.00019037923 0.0056941425 0.011304816 0.0062037306
-0.0070154774 0.007496389 -0.0077108713 0.0060607893 -0.0052326713 -0.0019529116 0.0058103194 0.0004334946
-0.0075457185 -0.008275691 -0.0053819646 -0.007220914 1.12860455e-07 -0.009074618 1.6122036e-06 -0.0031198377
-5.2956537e-05 0.009627055 0.009517148 -0.0022137829 -0.0009515961 -0.0031808028 -0.0076242383 -0.007645395
0.011095197 0.007548915 0.0008434203 3.5020927e-05 -0.0046401895 -0.008663562 0.002470118 -0.0073674526
-0.0046901032 0.0066585816 -0.00562899 0.00012501139 -0.004429077 0.0083913375 0.008367395 0.00643649
-0.0042996346 0.00097177504 -0.008911355 3.3578424e-05 -0.0049558883 -0.006545484 -0.0027316308 -0.00499026
-0.010081202 2.6946882e-05 0.0077165877 0.0049681556 0.008253751 0.006656553 0.0037763158 -0.0081898365
-0.00084357994 0.004796175 -0.003111412 -0.004761856 -0.003151716 0.0033108478 -0.0035365454 5.2184234e-05
0.0046220575 -0.006851626 -0.0072593703 -0.00037261812 0.007372277 0.0047909133 -0.006549589 0.00718054
-3.2752968e-07 0.008754219 -0.0010830795 0.009983513 -0.0056476025 0.0010523449 0.0060022827 -0.0010526148
0.0024081673 -0.0028416447 0.0009296632 0.0043637627 -0.00066004845 -0.00035902584 0.0006184141 0.0023808174
0.0042585684 -0.0050959797 -0.0046117865 -0.002719395 -0.002918421 -0.0024718717 -0.0048430697 0.00022669777
-0.0010754851 -0.001815108 -0.0024742202 0.0012232285 -0.00080727495 -0.0028727336 0.0021815829 -0.006319553
0.0016720359 -0.001835246 -0.0050093606 -0.0021628924 -0.00418418 0.004579586 -0.0027723562 0.0051895105
0.00422069 0.0036103555 0.004092846 0.0002228373 0.0035344926 7.271359e-06 -0.0034352788 0.00019871906
-8.168109e-06 3.0029314e-05 -0.0030926978 0.00083677523 -3.316676e-05 0.002939116 0.005665567 0.0031743092
-0.0035823032 0.0038517904 -0.0039478582 0.0031443806 -0.0025877438 -0.0010259778 0.003023111 0.00024820364
-0.0038706306 -0.0042463504 -0.002684937 -0.0036467244 3.2978555e-08 -0.004556873 1.5002915e-06 -0.0015761879
-2.847898e-05 0.00489127 0.004821217 -0.0011332411 -0.0004737613 -0.0016246565 -0.003923899 -0.0039297733
0.0055953413 0.0037696364 0.000434335 5.0625445e-06 -0.0022917828 -0.0043851994 0.0012974585 -0.003694607
-0.002468436 0.003469925 -0.0029714908 8.250904e-05 -0.0021978146 0.004295041 0.004268507 0.0033251385
-0.0021270015 0.00047455757 -0.0045422944 -8.7257955e-05 -0.0025728708 -0.003383057 -0.0014014322 -0.0026126546
-0.0051099323 -4.0659786e-05 0.003949363 0.0025550951 0.0041927435 0.0034043442 0.0019941807 -0.0042029787
-0.00044992412 0.002525734 -0.0015963694 -0.002524544 -0.0017329943 0.0017624735 -0.0018227085 3.6312114e-05
0.0024963855 -0.003481053 -0.0037283432 -0.00015484447 0.003799987 0.0024585973 -0.0032461805 0.0036889422
4.49496e-07 0.004374369 -0.0005722615 0.0050248005 -0.0029353562 0.00052212557 0.0030612398 -0.0005071216

attention_layer.att.bias f4 [128]
00000000: 636c 243a defb b438 caa0 6039 4eb4 6838
00000010: 213a 8a39 c3fb edb9 73fd fa2d 2ec9 ebb9
00000020: 7db5 1b39 0a7a 8ead 745b 46b7 8808 0bb9
00000030: a323 a5b9 f3e5 bd37 3aef cdb9 4a5a 8238
00000040: 4850 c4b9 665f 29b9 3068 5038 bbef 8739
00000050: b280 b2b9 79dc 2eb9 f8da 7f39 8211 eab8
00000060: aca6 12b1 3d0a 0339 0c68 acb8 3040 a538
00000070: 1ff4 d4af 1af5 8c39 2c3c 60b9 9ebb f62c
00000080: 9cbf 7d39 92fd 8539 bb94 29b9 a352 6438
00000090: d73a 4db8 1c51 80b8 5555 0c3a dd3c 49b8
000000a0: e5fc 8239 b4d1 82ba 6961 15ba c375 183a
000000b0: 4297 1539 37e5 7b39 0751 6f39 9fea 5cba
000000c0: 2c02 c639 7b4c 7eb8 88c3 7eb7 5da2 eb38
000000d0: ccb4 0039 47f4 bd39 e388 3f39 a026 1739
000000e0: 9d7d f639 acb2 8bb9 db89 d439 4376 4839
000000f0: 9879 d037 bd2a 97b8 4b48 e839 316d fdb8
00000100: 3576 e0b9 509b 0eba 6a89 033a 7a42 9e39
00000110: 4592 e639 0712 9c39 b3d2 5cb9 9342 932b
00000120: df74 193a 4cb8 61b5 6a68 bcb9 9723 47b9
00000130: ec8f 18ba de8d 0bba c451 5f39 ee04 36b7
00000140: 3f29 502c dba8 90b9 701c 0c3a 62eb 7839
00000150: 1f8c bb39 b34a ed39 6ec9 b139 f547 f1b7
00000160: 5839 313a 9747 31b7 4a39 303a 9dd2 88b9
00000170: 3daa caaf c5f1 03b8 ad99 223a 9800 cc39
00000180: 2a31 e5b9 3b36 16ba fc2f aa36 a320 9e39
00000190: 9336 fe39 3a4e 3739 c4ec 8d39 3d77 2131
000001a0: c5c2 3732 02d3 7239 30a2 c638 295d e538
000001b0: 5b16 bc39 dbe1 cb38 e908 363a 54c6 bb39
000001c0: d575 2cba a98e dc39 57ce d7b9 01f2 dd39
000001d0: d4b0 1fba 6941 2b3a 7de7 4839 5285 063a
000001e0: e983 3139 cb99 8fb9 bf2d f839 03a2 c9b9
000001f0: 7407 ca39 7e34 ee35 9b59 0bba 5a41 3bb9
0.00062722544 8.629983e-05 0.00021422203 5.5481032e-05 0.0002636472 -0.0004539174 2.8534263e-11 -0.00044972583
0.00014849562 -1.6197727e-11 -1.1823013e-05 -0.00013259251 -0.00031497804 2.2637634e-05 -0.00039278885 6.215701e-05
-0.00037443847 -0.00016152635 4.9688097e-05 0.0002592782 -0.0003404669 -0.00016676066 0.00024400267 -0.000111612506
-2.1340538e-09 0.00012496948 -8.220979e-05 7.879769e-05 -3.8736034e-10 0.00026885496 -0.0002138472 7.01257e-12
0.0002419934 0.0002555666 -0.00016172502 5.4436397e-05 -4.8930608e-05 -6.1186234e-05 0.00053532916 -4.7978818e-05
0.00024983953 -0.0009980709 -0.0005698414 0.00058158877 0.00014266095 0.00024022615 0.00022823001 -0.0008427295
0.0003776712 -6.0629547e-05 -1.5185105e-05 0.00011235916 0.00012274383 0.0003623089 0.00018266174 0.00014414871
0.00047014366 -0.00026645267 0.000405385 0.00019117542 2.4852154e-05 -7.208202e-05 0.0004430435 -0.000120843186
-0.0004281268 -0.00054400135 0.00050177297 0.00030185637 0.00043977998 0.0002976807 -0.00021059327 1.0463456e-12
0.0005853902 -8.408722e-07 -0.0003593595 -0.00018991377 -0.0005819786 -0.0005323569 0.00021297397 -1.0849193e-05
2.9581474e-12 -0.00027591627 0.00053448137 0.0002373881 0.00035771818 0.00045259818 0.00033910148 -2.8762946e-05
0.0006760559 -1.056669e-05 0.0006722404 -0.0002609686 -3.6864548e-10 -3.1458e-05 0.0006202709 0.00038910354
-0.00043714914 -0.0005730127 5.071981e-06 0.00030160425 0.00048487316 0.00017481382 0.0002707002 2.3496363e-09
1.0696287e-08 0.00023157525 9.4715855e-05 0.00010936923 0.0003587481 9.721863e-05 0.0006944077 0.00035815185
-0.00065788376 0.0004206796 -0.0004116173 0.00042332712 -0.0006091718 0.0006532879 0.00019159722 0.00051315606
0.00016929176 -0.0002738967 0.0004733633 -0.00038458416 0.00038533995 1.7747659e-06 -0.00053157815 -0.00017858055

attention_layer.gate.weight f4 [128, 128]
00000000: 8617 f2b9 c892 e439 3f99 74b9 ea08 58ba
00000010: 65f0 a4b9 1e2d e338 78b7 0cb9 4cd8 f4b9
00000020: b38f 4cba f38b 743a ca8e 3b3a cf07 023a
00000030: 94f3 063a 24b4 ea39 5773 583a 3396 d3b6
00000040: 1d75 1c39 02e7 a139 3703 093a 9a03 6eb9
00000050: 17a3 6939 b781 223a 778f d9b9 6351 a33a
00000060: 319a 94b9 fe36 9939 1efc 6d3a 9fe2 e139
00000070: 7ba8 5b3a 7a2c 5eba 1440 143a 3599 86ba
00000080: baf0 2aba 60f8 3eba f976 5cba 5c6c 98b8
00000090: 7bfc 16ba 7ed2 42b4 17f6 1f3a a15d 98b8
000000a0: 63dd 7db6 f7ab a7b6 b670 0b3a 8b03 60b9
000000b0: 5749 2036 a84b abb9 da6c 60ba 39b1 06ba
000000c0: f10b c039 4c03 3aba 9c3c 073a ae10 0aba
000000d0: 0bdd fd39 358d 3a39 d59e 26ba bf4f 93b9
000000e0: f0ae 343a e5bd 463a 766e f139 ce22 3a3a
000000f0: 9b17 8332 ae72 553a 1afd 59b4 b0b9 9939
00000100: f69f 1439 e9df 59ba 05f4 72ba 51a3 8739
00000110: 902e 3237 a68a ac39 cb55 163a aef2 2e3a
00000120: 741b 8aba 0edf 1dba 5d98 6db8 295d 1b35
00000130: 21cd d539 476e 573a 64c9 48b9 ad6a 343a
00000140: e01c a839 639a 00ba 150f 0f3a 40d2 a937
00000150: 9828 ed39 ace5 2eba 273c 34ba f76b 0cba
00000160: d7d1 e439 e368 32b9 7335 5e3a fdab ba37
00000170: 3150 cf39 ea07 053a b10e 8239 bbcc da39
00000180: fd03 673a 7c62 ff34 05b1 2eba 289e f5b9
00000190: fc59 1eba 0e2c 17ba 1f05 a3b9 02c3 453a
000001a0: 3d1d 9139 b2e6 e2b9 167a b039 7d74 d739
000001b0: 0dba 9c39 4248 94b9 68d0 a739 4c25 e736
000001c0: 750d efb9 4348 263a 65bc 1e3a 20c3 feb8
000001d0: dcd6 29ba 3440 e0b9 a34f 213a b38f f4b9
000001e0: fd7a afb3 c415 5aba 1a6d 2c39 c4c2 5fba
000001f0: cdc4 8b39 1431 79b8 5d87 20ba bfe2 ae38
00000200: 2a5a f2b8 1aa2 bc39 42c9 75b8 1834 67b9
00000210: 5a8d 0cb8 a97f b437 5f66 0ab8 b4a0 ffb8
00000220: 1769 50b9 9821 7939 24be 3839 068c 0439
00000230: 5271 e238 8a0e e338 3e0e 5639 c029 75b6
00000240: de93 4e38 2fb5 a838 bbbd 0639 1378 6137
00000250: 313e 2439 33fb 0139 1f4e e2b8 4c9d a139
00000260: b272 95b8 2d11 3a38 e6ed 7739 e329 de38
00000270: 0569 5639 6f1f 6eb9 bb73 8a39 7874 88b9
00000280: 9fac e5b8 a3ab 3bb9 cf95 5fb9 0f56 98b7
00000290: ee0a 14b9 d02d d234 94fd df38 fd7c 92b7
000002a0: 683a 22b5 ba76 aab5 1a68 1539 b615 94b8
000002b0: 061b 39b6 dacf f9b8 f46d 35b9 51be 16b9
000002c0: e9a4 0f39 2688 43b9 d9b0 1739 3027 16b9
000002d0: 3fc5 2f39 c085 7838 014e 23b9 d6bd 9eb7
000002e0: 6f4f e338 9d39 5339 ac15 0339 1e3c 4139
000002f0: df09 84b0 5df7 5939 8a2e a7b1 ad6e a138
00000300: e392 1038 c2a2 1cb9 e9a7 7fb9 3641 8c38
00000310: d47f 8437 a724 9038 6250 3839 2d76 3d39
00000320: b971 72b9 68d3 36b9 bb61 80b7 6846 7cb3
00000330: baf5 d438 f09c 5439 5a61 09b6 b432 6039
00000340: cdfb f438 41aa 28b9 2388 e438 8c91 0938
00000350: 8498 f338 ed6b 48b9 5b4a 32b9 faf6 14b9
00000360: a50f e538 7ae2 2cb8 4f31 2d39 bc8d 7536
00000370: faec ed38 f8d0 a338 a278 a438 b496 e838
00000380: fea9 8039 3023 66b6 9292 2db9 e36f ffb8
00000390: 6fc1 2bb9 aed5 1eb9 2d4f b0b8 a6df 4839
000003a0: 3003 c338 ae56 88b8 bde3 8239 e7f3 ed38
000003b0: cc8c 4438 6a52 9ab8 f579 a038 dfe1 3735
000003c0: 7894 fbb8 26ba 3639 24d8 ed38 7937 2436
000003d0: 034f 0db9 8fd5 ddb8 e1f5 2739 66e5 2fb9
000003e0: 1ef9 d930 d02e 5cb9 54b8 2938 3825 73b9
000003f0: dafd 0639 620e 85b7 8fa2 21b9 f8c9 f837
-0.00046175363 0.0004359691 -0.00023326742 -0.00082410744 -0.00031459625 0.00010832607 -0.00013419788 -0.0004670046
-0.0007803395 0.00093287154 0.0007154761 0.000496027 0.00051479903 0.00044766173 0.0008256933 -6.3057755e-06
0.00014920947 0.00030880427 0.00052266143 -0.0002269879 0.00022281367 0.00061991386 -0.00041496355 0.0012460168
-0.0002834364 0.00029223406 0.0009078401 0.0004308419 0.00083792926 -0.00084752555 0.00056553003 -0.0010269048
-0.00065208564 -0.00072849356 -0.00084100623 -7.268108e-05 -0.00057596684 -1.8144235e-07 0.0006102039 -7.2653645e-05
-3.7828802e-06 -4.997007e-06 0.00053192244 -0.00021363625 2.3884547e-06 -0.0003267203 -0.0008561142 -0.00051381026
0.0003662999 -0.0007095828 0.0005158873 -0.00052667677 0.0004842061 0.00017790946 -0.0006356065 -0.0002809744
0.0006892523 0.0007581397 0.00046049402 0.0007100523 1.5261142e-08 0.0008142394 -2.0301778e-07 0.00029320782
0.0001417397 -0.0008311258 -0.0009267929 0.00025870887 1.0620468e-05 0.00032909698 0.000573483 0.00066737353
-0.0010536746 -0.00060223124 -5.6647103e-05 5.7877565e-07 0.0004077936 0.0008218032 -0.0001914851 0.0006882351
0.0003206497 -0.0004905818 0.00054572645 2.0244275e-05 0.00045234407 -0.0006671797 -0.00068754185 -0.0005356664
0.00043643892 -0.00017014476 0.00084765925 2.2253016e-05 0.00039541864 0.00050747267 0.00024806478 0.00041732736
0.0008812545 4.7569108e-07 -0.0006663951 -0.00046847877 -0.00060406304 -0.00057667575 -0.00031093598 0.0007544012
0.0002767834 -0.0004327796 0.00033660297 0.00041094786 0.00029893257 -0.00028282596 0.00032007997 6.8886784e-06
-0.0004559566 0.00063431653 0.00060552947 -0.00012148009 -0.0006478855 -0.00042772444 0.00061535294 -0.0004664637
-8.171444e-08 -0.00083192834 0.00016443842 -0.0008535797 0.00026658774 -5.9411934e-05 -0.00061236863 8.339201e-05
-0.000115562536 0.0003597893 -5.8599988e-05 -0.00022049283 -3.3510245e-05 2.1517119e-05 -3.2997104e-05 -0.00012189281
-0.00019875575 0.00023759005 0.0001761844 0.00012640664 0.00010797627 0.000108269116 0.00020413936 -3.6532147e-06
4.925194e-05 8.044612e-05 0.00012849916 1.3439002e-05 0.00015663427 0.00012395978 -0.00010791071 0.00030825508
-7.126237e-05 4.4361852e-05 0.0002364438 0.00010593587 0.00020447753 -0.00022709159 0.00026407637 -0.00026026717
-0.00010951724 -0.0001789765 -0.00021322745 -1.8159886e-05 -0.00014118452 3.914888e-07 0.00010680701 -1.7462758e-05
-6.0434695e-07 -1.2700541e-06 0.00014248528 -7.061234e-05 -2.7582878e-06 -0.000119119606 -0.00017302466 -0.00014376013
0.00013698977 -0.00018647368 0.00014466363 -0.00014319713 0.0001676278 5.9252372e-05 -0.0001557395 -1.8923467e-05
0.00010838999 0.0002014399 0.00012501207 0.0001842831 -9.60707e-10 0.00020786883 -4.8656306e-09 7.697693e-05
3.4469074e-05 -0.00014937951 -0.00024381246 6.687867e-05 1.579515e-05 6.873282e-05 0.00017577552 0.00018068468
-0.00023121283 -0.00017435628 -1.5304298e-05 -5.8737356e-08 0.00010154718 0.0002027636 -2.0471257e-06 0.00021381193
0.00011681728 -0.00016085153 0.00010897245 3.2798896e-05 0.00011615551 -0.00019113692 -0.00017003102 -0.00014206386
0.00010922485 -4.121892e-05 0.00016516935 3.6590345e-06 0.00011345181 7.811369e-05 7.842599e-05 0.00011090693
0.00024540717 -3.4293153e-06 -0.00016553167 -0.00012180188 -0.0001637989 -0.00015147656 -8.4070816e-05 0.00019156802
9.298918e-05 -6.501131e-05 0.0002496521 0.00011346471 4.686117e-05 -7.358643e-05 7.652111e-05 6.85015e-07
-0.00011996267 0.00017426218 0.000113413 2.4470194e-06 -0.00013476242 -0.000105778796 0.00016017958 -0.00016774758
1.5859631e-09 -0.00020998274 4.046441e-05 -0.00023188151 0.00012873803 -1.5861533e-05 -0.00015414714 2.9657953e-05

attention_layer.gate.bias f4 [128]
00000000: 320a 0a3b 8e34 0b3a 438a b33a b5b1 bd39
00000010: 54dc 923a 1e1a d73a 9425 492f c4df df3a
00000020: 5ffa 4f3a 45e6 412d a566 de39 df7e 513a
00000030: 5f23 ab3a f2dc 4a39 93bf c33a 21a7 a13a
00000040: 8c46 c33a 88b2 623a 965e b339 d642 d43a
00000050: 4559 b73a a59b 9d3a d3d5 bc3a 1116 3e3a
00000060: b34c 10ae 2f98 383a a2f2 a33a d4fa 6e3a
00000070: 2d94 8032 ee71 983a 7b01 7b3a 364c 8b2e
00000080: c0a8 a63a 2f90 c43a aa0d 863a 4605 b639
00000090: 1ad7 8139 2b1e f039 bcbf ef3a c083 d939
000000a0: 76ef 883a 9c2a 373b d56d 0a3b da23 023b
000000b0: ec47 453a 2070 903a 7d05 8d3a 50e8 243b
000000c0: 321b bb3a c552 233a 4caa 8b39 56d6 6a3a
000000d0: 47fb 2b3a f34c bb3a 77bf 763a 77d5 4d3a
000000e0: c5da db3a 0406 983a 8da6 cd3a d204 6d3a
000000f0: f8b4 9339 6602 ef39 3a00 da3a 1148 2e3a
00000100: bf76 d53a a868 fa3a 3997 023b 9f50 ca3a
00000110: 3b06 f93a 5414 ab3a 0706 9b3a 169f ba2c
00000120: 72a2 fa3a e842 c337 9d8d f63a d12e 733a
00000130: 30b3 1a3b 9a3f ef3a c5a5 883a b117 eb38
00000140: af2d 38b0 1aa4 d83a b91d f03a b096 8b3a
00000150: d45a c83a 89ee d13a 0f0c b13a c8f1 8839
00000160: 9add 103b 9332 3d39 f91e 0f3b 7599 9d3a
00000170: 2307 6531 3a53 7539 e281 063b 7887 c63a
00000180: 166b 093b 096a fc3a e087 9c38 8d1b a93a
00000190: 44b0 e13a 6fbf 683a 5513 983a 41b5 0cae
000001a0: 06af d335 a907 bf3a 7b00 2d3a 5366 553a
000001b0: bcd1 f33a 35bf 533a 3b98 0f3b 5689 f13a
000001c0: f1b6 113b 7dd8 d33a 9066 033b 056e d03a
000001d0: bdb4 023b d741 083b 2e2a 9d3a 85b7 ee3a
000001e0: 7d5e 5f3a af9a 4c3a 8132 1f3b d61e c23a
000001f0: 19cf c63a b93b 3e38 a816 ec3a d0ab 653a
0.0021063206 0.00053102605 0.0013697821 0.0003618129 0.0011204579 0.0016410982 1.8294194e-10 0.0017080237
0.00079337315 1.102191e-11 0.00042419616 0.00079916226 0.0013056806 0.0001934653 0.0014934413 0.0012333133
0.0014898344 0.0008647819 0.00034212013 0.0016194235 0.0013988396 0.0012024535 0.0014406986 0.0007251213
-3.2809932e-11 0.000704172 0.0012508223 0.0009116356 1.4968544e-08 0.0011630633 0.0009575111 6.334526e-11
0.0012715086 0.0014996583 0.0010227461 0.00034717674 0.0002476506 0.00045798844 0.0018291394 0.00041487627
0.0010447341 0.002794898 0.0021122594 0.0019857795 0.0007525671 0.0011019744 0.0010759082 0.0025162883
0.0014275073 0.000623029 0.00026639027 0.000895833 0.00065605756 0.00142899 0.0009412686 0.0007851938
0.0016773572 0.0011598472 0.0015689895 0.0009041551 0.00028172857 0.0004558742 0.0016632148 0.0006648312
0.0016286 0.0019104676 0.0019926562 0.0015435404 0.0018999049 0.0013052323 0.0011827358 5.3041e-12
0.0019121899 2.3276967e-05 0.0018810515 0.00092766905 0.002360534 0.0018253208 0.001042538 0.00011210086
-6.700373e-10 0.0016528398 0.0018319405 0.0010649767 0.0015285858 0.0016016524 0.0013507622 0.00026120082
0.002210474 0.00018043285 0.002183853 0.0012023883 3.3327943e-09 0.00023396025 0.0020524194 0.0015146574
0.002096837 0.0019257675 7.463968e-05 0.0012901888 0.0017218669 0.00088786235 0.0011602441 -3.19933e-11
1.5771664e-06 0.0014574426 0.0006599498 0.00081405527 0.0018601934 0.00080775033 0.0021910805 0.001842777
0.0022234286 0.0016162541 0.0020050146 0.0015901929 0.0019944154 0.0020791197 0.001199072 0.0018212652
0.0008520855 0.0007805032 0.0024291577 0.0014810215 0.0015167921 4.535515e-05 0.0018012123 0.0008761259

attention_layer.w.weight f4 [1, 128]
00000000: 7036 71bd 5ea0 f5bc 9ffb 43bd 8571 d1bc
00000010: b284 33bd 5af8 553d f93a 6d34 0c02 593d
00000020: 0ae3 18bd 4555 0cb1 20e5 e33c 2001 123d
00000030: cd6e 3d3d 6cfc 9bbc a604 4b3d c357 39bd
00000040: 0f7e 4a3d 52ae 183d 1658 cabc 5f7f 55bd
00000050: a532 453d 8b98 353d 7729 49bd 21fe 0d3d
00000060: 4817 13b0 d6c4 08bd 1e36 3e3d a5b4 1ebd
00000070: 2c91 1eb9 e873 34bd 64a9 273d 6cd2 0a31
00000080: 923e 3fbd 4ed6 4dbd 68c7 283d 880a cfbc
00000090: 72e8 ab3c 852f e03c 0169 61bd 2b9b c93c
000000a0: c4ab 2ebd 15ba 8a3d 469e 713d 48f4 6abd
000000b0: 7019 12bd c725 30bd b8cf 2bbd f1b2 833d
000000c0: fae8 47bd dd91 043d eae5 ac3c 6120 1dbd
000000d0: cf4e 09bd 3cc2 46bd 1167 20bd dd15 10bd
000000e0: d4b1 58bd bf32 363d dd26 51bd 5969 1dbd
000000f0: adec b5bc fcbe e63c 5d22 56bd 920b 0d3d
00000100: cdd5 533d a2a2 653d 1790 6cbd 97ed 4ebd
00000110: 0929 65bd 7966 3dbd 2184 353d a881 f2af
00000120: 304c 68bd bd65 d13b 6f3e 643d 2be4 1e3d
00000130: 03b1 7f3d 4b1f 613d 7c11 29bd b730 753c
00000140: 1e1e 6235 4a72 573d 4de6 61bd 54d0 2abd
00000150: 27c1 4dbd 49de 54bd e0c7 40bd b32e a73c
00000160: e0d1 77bd 983d 923c d2bb 75bd a73f 383d
00000170: 7d35 c6b6 cd38 ad3c 0789 6fbd 5323 4cbd
00000180: f99b 723d 948e 663d 6849 3ebc eeaf 3cbd
00000190: bde9 59bd 29ee 1bbd d948 34bd a956 98b3
000001a0: c8a9 eaba 64dd 48bd ab89 02bd c163 18bd
000001b0: 9dfd 64bd 4534 17bd 8084 76bd ffd9 61bd
000001c0: c9fb 773d f37b 54bd 474c 6d3d 8051 51bd
000001d0: 8a89 6b3d 17ea 71bd 05aa 39bd 9052 60bd
000001e0: b507 19bd da56 143d 7080 81bd d9db 493d
000001f0: c269 4cbd 9d0b 10bc 02de 603d 8f97 1b3d
-0.058889806 -0.029983696 -0.047847386 -0.025566826 -0.04382772 0.0522388 2.2093799e-07 0.052980468
-0.037325896 -2.0421151e-09 0.027819216 0.035645604 0.046248246 -0.019041263 0.04956498 -0.04524971
0.049436625 0.03727562 -0.024700206 -0.052123424 0.048144 0.04433493 -0.04911181 0.034666184
-5.3511373e-10 -0.033390842 0.04643833 -0.038746495 -0.00015122135 -0.04405585 0.040933028 2.0201254e-09
-0.04669053 -0.050253205 0.041205794 -0.025273576 0.020984862 0.02736641 -0.05503178 0.024610123
-0.042644277 0.067737736 0.058988832 -0.05736187 -0.03566879 -0.043004777 -0.041946143 0.06430615
-0.04880617 0.03236567 0.021105725 -0.038360957 -0.033522423 -0.04852508 -0.03916079 -0.0351771
-0.052903965 0.04448199 -0.051062454 -0.038430545 -0.022207582 0.02816724 -0.052278865 0.034434862
0.05171757 0.0560633 -0.057754602 -0.050519552 -0.055947337 -0.046240304 0.04431546 -4.411167e-10
-0.056713283 0.006390302 0.055723604 0.038791817 0.06242467 0.054961484 -0.04127644 0.014965228
8.4235387e-07 0.05259923 -0.055151273 -0.041702583 -0.050233033 -0.0519698 -0.047065616 0.02040801
-0.060502887 0.017851636 -0.059993573 0.04498258 -5.9070867e-06 0.021145249 -0.05848029 -0.049838375
0.05923078 0.056288317 -0.011614181 -0.046066217 -0.053201426 -0.038068924 -0.044014785 -7.093815e-08
-0.0017903382 -0.04903926 -0.03186957 -0.037204508 -0.055905927 -0.036915082 -0.060184956 -0.055139538
0.060542855 -0.05187602 0.057934072 -0.051103115 0.057504214 -0.059061136 -0.04532816 -0.054766238
-0.037360866 0.03621564 -0.06323326 0.04928193 -0.049905546 -0.008791831 0.054899223 0.037986334

mlp.0.0.weight f4 [128, 128]
00000000: 2a83 ac3a 3cd9 48bb 2c27 5439 69d9 3c3b
00000010: e5fe fdba a0ba 3f3a 94c8 5cb9 8aee 123b
00000020: 3b71 6d3b 940f b5bb a50c 97bb 1ec3 2cbb
00000030: 754c d9ba 42e3 95ba dc57 69bb 71dd 363a
00000040: 6c88 a4ba fe05 28bb 41dc 00ba 99a8 033b
00000050: 8b5a 10ba af4f fcba 6786 853a 4ff4 abbb
00000060: a14f 1b3b 761f 2abb d081 55bb ee5e 2ebb
00000070: 3f20 6abb 8a56 463b 1047 31bb a346 6a3b
00000080: 47c7 863b 68a6 2c3b e3a5 393b 3cce 00b9
00000090: 1b2d 7a3b 47d8 9c36 fed0 75bb e274 12ba
000000a0: 5a2c 6037 1c0c e237 a933 03bb 29c9 12ba
000000b0: 467b 1db9 7ec6 943b 216f bf3b 3ee8 203b
000000c0: 35c9 86bb 56aa 863b 0208 75bb 293e 583b
000000d0: a07c 9eba c01c f4ba cedb 303b 24e4 0abb
000000e0: e9bc 96bb bb18 86bb 4cd9 bbba 236e 1bbb
000000f0: 6ef1 9e34 8216 50bb 707f 2b36 df40 c4ba
00000100: 6850 2a39 ec71 a63b 7689 673b 31f9 d8b9
00000110: ffcd 8fba e1ca 9dba 59a1 76bb cc8a 86bb
00000120: b174 9d3b ee29 0d3b b5d3 f739 10ea eb37
00000130: 2548 66ba c68d 4dbb 088b 433b d16e 00bb
00000140: 75b4 43bb 947a 6a3b fe86 74bb bc2b 973a
00000150: 5133 86ba bb71 953b 737c 8c3b 69c6 6b3b
00000160: 77d1 40b9 0e34 6f39 b6ce 93bb c157 eb38
00000170: fea7 5cbb 0c05 99bb ac15 cfba 6b3a 60bb
00000180: 99d3 a5bb 7606 f6b7 149f 9d3b ced3 093b
00000190: be80 953b d146 4e3b e5bd 213b 6278 61bb
000001a0: e439 983a 7f2d 583b dc2d ddba a2d2 78bb
000001b0: b2e1 50bb f019 383b 10e5 20bb 846c a938
000001c0: a624 723b 0677 0fbb ad1f 7fbb 2cf3 3bba
000001d0: 25a1 7e3b 925a 143b 2af2 d3ba 136d 7b3b
000001e0: 303e 17b4 2ee5 2f3b 7c59 0f3a 2323 5b3b
000001f0: 9f61 7ebb 6a98 4b3a a5b0 0b3b fd03 92b9
00000200: f76a 9e33 2282 01b3 b123 0fb4 ef28 49b4
00000210: 17f9 27b3 d541 f7b3 046e edb2 b81f 6a33
00000220: 2daa 42b3 0a84 a5b3 eaf6 6533 554e 8bb3
00000230: 39f4 a2b3 df21 11b4 168d 6b33 43ea d5b3
00000240: 913e 48b2 492f 8f33 96ea 40b4 cbf4 8fb3
00000250: 0a36 0cb3 14e9 e1b3 7488 aeb2 1997 6ab4
00000260: 669f cfb3 7369 d3b3 9e17 cbb3 2f92 30b3
00000270: f870 dcb3 030e e833 094b 8233 03ae 2334
00000280: 680c 6933 a4ca d7b3 df2b 04b4 957d cb33
00000290: e139 fdb3 67fc b1b1 43ad 2532 ee2d 62b1
000002a0: a312 cab2 8391 00b2 c426 beb3 44a9 1134
000002b0: 8b70 a131 4328 cb32 c310 2232 ce60 36b3
000002c0: ca42 6333 67cd 7033 4f3d b5b3 f2e4 b231
000002d0: b4f3 55b3 882d 6132 97b4 a132 f6b8 fe33
000002e0: d476 9333 1fae 8233 9828 e8b3 4c11 b433
000002f0: 5370 7231 bb06 12b4 78b1 4d30 af23 8fb2
00000300: 817e 46b3 dab1 7233 286d 1d34 060c be32
00000310: 2f5b 5132 8de7 75b3 b500 8733 b202 7733
00000320: d229 3134 cf16 d5b3 5b33 dd33 07b4 a3b1
00000330: ec36 6633 d353 ee33 209a 64b0 d88b 9d33
00000340: 3ea4 ec31 c767 dfb2 eea8 e4b3 ec7c 2eb4
00000350: 5ad9 f433 edab 8c32 aef9 b1b3 25c2 3633
00000360: 89c3 83b3 abad e7b2 1ea8 cdb3 d9eb 67b3
00000370: 459b 05b2 4c81 0634 2a2b f0b2 c57a efb3
00000380: 071d bf32 0573 1eb3 dfd8 6032 d52a 1a33
00000390: 585b aa33 1582 0433 bb1a 1f33 9efb 8a33
000003a0: 5f7e 20b4 f6a5 89b3 4c5a 2333 de12 8133
000003b0: f2c2 a8b3 363f 7db3 3aa3 a733 05a9 3bb3
000003c0: 928b 32b3 f758 bab3 7390 b8b2 ab4a 9233
000003d0: 85b3 1732 6ae1 0a33 cacf e4b3 a8a0 8033
000003e0: 08db 9f30 0cbe 45b4 261c d8b2 d3fc 9233
000003f0: 652d 9db3 6876 0833 a5b3 bbb3 d7fc 29b3
0.0013161649 -0.003064706 0.00020232488 0.002881611 -0.0019378333 0.0007313881 -0.00021055556 0.0022420012
0.003623082 -0.0055255387 -0.0046096616 -0.0026361416 -0.0016578572 -0.0011435526 -0.0035605347 0.00069757464
-0.0012552864 -0.0025638337 -0.0004915633 0.0020089506 -0.0005506656 -0.0019249822 0.001018715 -0.0052476297
0.0023698586 -0.0025958694 -0.0032578595 -0.0026606875 -0.0035724787 0.0030263984 -0.0027050413 0.003574767
0.004113111 0.0026344303 0.0028327636 -0.0001228386 0.0038173858 4.6743403e-06 -0.0037508602 -0.0005586875
1.3361767e-05 2.6946938e-05 -0.0020019806 -0.0005599433 -0.0001501861 0.0045402637 0.005842105 0.002455249
-0.004113341 0.004109661 -0.0037388806 0.0032996035 -0.0012091585 -0.0018624291 0.0026986483 -0.0021193111
-0.0046001566 -0.0040923036 -0.0014331727 -0.002371677 2.9605457e-07 -0.0031751697 2.5555164e-06 -0.0014972946
0.00016242417 0.0050794985 0.0035329736 -0.00041384393 -0.0010971426 -0.0012038612 -0.0037632792 -0.0041059013
0.0048051705 0.0021539885 0.00047269245 2.8123177e-05 -0.0008784554 -0.003136502 0.0029837508 -0.0019597302
-0.00298622 0.0035778629 -0.0037311907 0.001153342 -0.0010238682 0.004560677 0.0042872964 0.0035976416
-0.00018388579 0.00022812208 -0.004510726 0.00011222019 -0.0033669467 -0.004669791 -0.0015799305 -0.0034214507
-0.005060625 -2.9328494e-05 0.0048102234 0.0021030786 0.0045624664 0.0031475315 0.0024679836 -0.003440403
0.0011613932 0.0032986102 -0.0016874629 -0.0037967344 -0.0031872806 0.0028091632 -0.0024550594 8.0787606e-05
0.0036948114 -0.0021891012 -0.0038928792 -0.00071697193 0.0038853374 0.0022636992 -0.0016170193 0.0038364574
-1.4085595e-07 0.0026839483 0.00054683513 0.003343769 -0.003881551 0.0007766547 0.0021315005 -0.00027850262
7.376905e-08 -3.0153508e-08 -1.3330897e-07 -1.8734475e-07 -3.9109263e-08 -1.15138086e-07 -2.764046e-08 5.451122e-08
-4.532392e-08 -7.707429e-08 5.3542784e-08 -6.4869404e-08 -7.588137e-08 -1.35165e-07 5.4843518e-08 -9.9611974e-08
-1.1655758e-08 6.6675575e-08 -1.7966735e-07 -6.703484e-08 -3.264544e-08 -1.05197756e-07 -2.0318318e-08 -2.1847917e-07
-9.668183e-08 -9.844634e-08 -9.45722e-08 -4.1111146e-08 -1.0265097e-07 1.08058906e-07 6.0672456e-08 1.5243863e-07
5.4260823e-08 -1.0048578e-07 -1.2309418e-07 9.4757674e-08 -1.1791759e-07 -5.180073e-09 9.643659e-09 -3.2913436e-09
-2.352437e-08 -7.483666e-09 -8.854616e-08 1.3565756e-07 4.6985114e-09 2.365062e-08 9.433452e-09 -4.246322e-08
5.29133e-08 5.6066167e-08 -8.439621e-08 5.20651e-09 -4.9814574e-08 1.3107076e-08 1.882499e-08 1.1861441e-07
6.8668356e-08 6.085269e-08 -1.0810726e-07 8.3850495e-08 3.5279484e-09 -1.3599758e-07 7.4830764e-10 -1.6663618e-08
-4.6215522e-08 5.650677e-08 1.4661475e-07 2.2124379e-08 1.2186134e-08 -5.7254102e-08 6.286556e-08 5.751162e-08
1.6499624e-07 -9.922734e-08 1.0300456e-07 -4.764391e-09 5.3601e-08 1.1097986e-07 -8.316494e-10 7.3363196e-08
6.887176e-09 -2.600781e-08 -1.06478055e-07 -1.6250459e-07 1.14016714e-07 1.6376328e-08 -8.287621e-08 4.255175e-08
-6.1357305e-08 -2.6970914e-08 -9.576637e-08 -5.399838e-08 -7.776923e-09 1.252676e-07 -2.7959306e-08 -1.11516364e-07
2.2248527e-08 -3.689185e-08 1.3087827e-08 3.5894875e-08 7.932857e-08 3.0851954e-08 3.7044384e-08 6.471895e-08
-1.4947135e-07 -6.409748e-08 3.803352e-08 6.0104625e-08 -7.85857e-08 -5.8963643e-08 7.806234e-08 -4.3693053e-08
-4.1570793e-08 -8.6774826e-08 -2.1486107e-08 6.812237e-08 8.830175e-09 3.233564e-08 -1.0654874e-07 5.989688e-08
1.1631025e-09 -1.8416193e-07 -2.515851e-08 6.844643e-08 -7.3191394e-08 3.1772657e-08 -8.740543e-08 -3.9578335e-08
