dataset/models/CCCA_MetaProg_MP30.PDAC.classical/model.pth (torch, 696702 bytes, 14 tensors)

tiles_emb.hidden_layers.0.weight f4 [128, 768]
0.008783834 -0.006297036 0.021466888 -0.0013747533 0.003982598 0.00928724 0.03894527 0.027052218
0.00434708 -0.003252056 -0.025589228 -0.00042443434 -0.013789925 -0.019492595 0.016486011 -0.030717181
-0.0012365622 -0.017785756 -0.01741981 -0.0059656543 0.017913949 0.017106099 -4.7623594e-06 0.014996946
0.028793393 0.0047907894 -0.013708594 0.018069418 -0.060664807 -0.018778473 -0.013797554 0.014309428
-0.0035992702 -0.012452382 0.018668385 0.010575485 0.024842666 -0.007994472 -0.018340988 0.0003364429
-0.014520915 -0.013752435 0.015813122 0.033194095 0.011822072 0.003338175 0.02810344 0.023164945
-0.010439787 -0.008680867 0.0003618141 0.0038770302 -0.007939031 -0.033152673 0.052469365 0.007698046
-0.012323436 -0.007952542 -0.022016415 0.02621077 0.0038588091 0.011820682 -0.069981456 -0.025406897
-0.05774722 -0.044071835 0.038830645 0.0072454577 -0.0055711227 -0.0164871 0.014168296 -0.008406481
-0.0067571173 -0.011218878 -0.033009574 -0.011305954 0.0015358011 -0.022237895 0.0017002022 -0.0021068032
-0.015983354 0.0051856935 0.014040945 0.028818352 -0.03090724 0.0017979261 0.0033927045 0.0032566579
-0.011103333 0.020948287 0.015220259 -0.01481354 0.025639303 -0.023526445 0.004951467 -0.0139178615
-0.0259371 -0.017407525 0.022337545 -0.008645456 -0.01563995 -0.01222317 -0.019511657 -0.01725523
-0.0031397368 0.031918198 0.008890597 0.029705001 -0.019388814 0.004800342 -0.02575347 0.023201613
0.015445163 0.0041698287 0.005060859 -0.015273942 0.0155622745 -0.01837063 0.045274783 0.00089581043
0.015341672 0.008308268 -0.0029208811 -0.019310527 -0.014201342 -0.0033465875 -0.015067524 0.008162027
-0.013399851 -0.0061165057 0.0017028723 -0.0076854955 -0.0044290633 0.011710336 -0.029383037 -0.012568956
0.0064216997 0.003516268 -0.0032588744 -0.0011074421 -0.0126765985 0.0026895967 -0.0366365 -0.017906806
0.022745797 -0.0051178173 0.006925366 -0.028155837 -0.03293765 0.004983416 0.04790156 0.037962873
0.009313708 -0.035043623 -0.020414356 -0.024167152 0.028491242 -0.019462591 0.014414952 -0.00020126939
-0.011987475 -0.008866813 -0.005023995 0.011522395 0.046139307 -0.0025226646 0.050461255 0.049389903
-0.06034492 0.021179061 0.00047238206 0.010117491 -0.021171847 -0.02350828 0.021787113 -0.017247915
0.027472408 0.01582125 -0.0069318037 -0.0037530453 0.035005007 0.022927145 0.0129200155 -0.018394964
0.005131086 -0.00647848 -0.012662374 -0.0033439852 0.00074482005 -0.037637293 -0.0025474532 0.00076593366
-0.017691351 -0.025844922 -0.026345668 0.03196529 0.034408085 -0.008036426 0.012024625 0.023864226
-0.01639984 0.01635292 -0.020259917 0.012232092 0.006219976 -0.028478835 0.02574111 0.022611154
-0.012020798 -0.0033341574 -0.016278177 0.0047285343 0.014756805 0.011526369 -0.01528788 -0.00716327
-0.029465673 0.0038520927 0.013416736 -0.0010740319 -0.012263828 0.003028776 0.0037678457 0.011620337
-0.010086834 -0.059974495 -0.0016683753 -0.0028788438 0.0060471343 -0.038095538 0.014959582 0.023882128
0.006652213 -0.025588987 -0.015245258 0.009889906 -0.01390541 0.032993037 -0.0010969746 0.006936766
-0.0062057967 0.019006811 -0.00035942145 -0.028891644 0.0014444873 0.021344135 -0.007364458 -0.046278663
0.013763414 -0.02195281 -0.022237916 0.015161826 0.01893809 0.0090583 0.0066180183 -0.029730149
00000000: 12ea 0f3c 5e57 cebb 54db af3c 1131 b4ba
00000010: 7480 823b 8229 183c 1385 1f3d 9d9c dd3c
00000020: f371 8e3b 7220 55bb 80a0 d1bc 9d86 deb9
00000030: 23ef 61bc efae 9fbc ac0d 873c 99a2 fbbc
00000040: 2414 a2ba 6fb3 91bc fdb3 8ebc 897b c3bb
00000050: 46c0 923c 1722 8c3c 5bcc 9fb6 c0b5 753c
00000060: 1fe0 eb3c 0efc 9c3b 039a 60bc 5106 943c
00000070: a97b 78bd 50d5 99bc 230f 62bc 1772 6a3c
00000080: bce1 6bbb 1305 4cbc 71ee 983c cd44 2d3c
00000090: d982 cb3c 3ffb 02bc d73f 96bc 9a64 b039
000000a0: 22e9 6dbc e551 61bc 858a 813c 88f6 073d
000000b0: 5db1 413c 48c5 5a3b 2f39 e63c 69c4 bd3c
000000c0: a40b 2bbc 323a 0ebc deb1 bd39 c615 7e3b
000000d0: b612 02bc 19cb 07bd 1eea 563d e43f fc3b
000000e0: 3de8 49bc 614b 02bc c55b b4bc f8b7 d63c
000000f0: 13e4 7c3b 89ab 413c 7052 8fbd 2022 d0bc
00000100: 5988 6cbd ab84 34bd e20c 1f3d 4e6b ed3b
00000110: f78d b6bb f40f 87bc 2422 683c 56bb 09bc
00000120: cf6a ddbb 63cf 37bc 0c35 07bd 9c3c 39bc
00000130: ef4c c93a 3f2c b6bc 52d9 de3a 4b12 0abb
00000140: 86ef 82bc c0ec a93b fe0b 663c 7714 ec3c
00000150: 2e31 fdbc 64a8 eb3a 2358 5e3b a76d 553b
00000160: c1ea 35bc be9b ab3c 655e 793c 7db4 72bc
00000170: 8409 d23c 88ba c0bc ea3f a23b be07 64bc
00000180: 0b7a d4bc 3a9a 8ebc 3afd b63c aca5 0dbc
00000190: 5a1f 80bc b143 48bc e9d6 9fbc d75a 8dbc
000001a0: 0bc4 4dbb a8bc 023d dea9 113c e757 f33c
000001b0: 4ad5 9ebc 304c 9d3b f1f8 d2bc 4f11 be3c
000001c0: b50d 7d3c 0fa3 883b 90d5 a53b 8e3f 7abc
000001d0: e9f8 7e3c 017e 96bc 0d72 393d d2d4 6a3a
000001e0: a35b 7b3c 671f 083c 416c 3fbb 1c31 9ebc
000001f0: bfac 68bc 6c52 5bbb c7dd 76bc 06ba 053c
00000200: 0c8b 5bbc f86c c8bb ea32 df3a 9cd6 fbbb
00000210: ad21 91bb b6dc 3f3c b2b4 f0bc 06ee 4dbc
00000220: 1f6d d23b 3071 663b d792 55bb 9727 91ba
00000230: 82b1 4fbc f243 303b 2810 16bd 4bb1 92bc
00000240: 6555 ba3c 5db3 a7bb 2eee e23b 12a7 e6bc
00000250: a1e9 06bd ec4b a33b 6d34 443d f57e 1b3d
00000260: 8698 183c e789 0fbd 023c a7bc 31fa c5bc
00000270: 7766 e93c 0370 9fbc b12c 6c3c d70b 53b9
00000280: 1d67 44bc 1c46 11bc 53a0 a4bb 6dc8 3c3c
00000290: 92fc 3c3d 4a53 25bb 76b0 4e3d 114d 4a3d
000002a0: 3c2c 77bd b67f ad3c 0caa f739 d5c3 253c
000002b0: 9570 adbc 7094 c0bc e37a b23c 804b 8dbc
000002c0: d10d e13c 919b 813c 2f24 e3bb a7f5 75bb
000002d0: 6961 0f3d b5d1 bb3c 79ae 533c 09b1 96bc
000002e0: ab22 a83b 6e49 d4bb d975 4fbc c326 5bbb
000002f0: 0740 433a 9029 1abd 2cf3 26bb f0c8 483a
00000300: 74ed 90bc bbb8 d3bc dfd2 d7bc 09ee 023d
00000310: 7eef 0c3d 37ab 03bc ef02 453c e97e c33c
00000320: f558 86bc 8ff6 853c 20f8 a5bc 1d69 483c
00000330: f1d0 cb3b 724c e9bc 05df d23c 073b b93c
00000340: e2f2 44bc e181 5abb d059 85bc d2f1 9a3b
00000350: 87c6 713c 18d9 3c3c 047a 7abc ddb9 eabb
00000360: ff61 f1bc 6473 7c3b dfd1 5b3c 88c6 8cba
00000370: 39ee 48bc 6e7e 463b f6ed 763b 3a63 3e3c
00000380: 4043 25bc d1a7 75bd 63ad daba fcaa 3cbb
00000390: 0a27 c63b 110a 1cbd 0919 753c 74a4 c33c
000003a0: cffa d93b ff9f d1bc 3fc7 79bc 4609 223c
000003b0: 84d3 63bc b523 073d 5cc8 8fba d04d e33b
000003c0: ff59 cbbb 2cb4 9b3c bb70 bcb9 2bae ecbc
000003d0: f354 bd3a e5d9 ae3c 8d51 f1bb b28e 3dbd
000003e0: f17f 613c 61d6 b3bc 4a2c b6bc 4f69 783c
000003f0: 0e24 9b3c 4469 143c f6db d83b a48c f3bc

tiles_emb.hidden_layers.0.bias f4 [128]
0.027320184 0.0072052814 -1.34092825e-05 0.002566825 0.038642295 -0.023477292 0.005295613 1.6934321e-07
-0.0016308952 -0.0011726066 -0.0011220513 -0.0005308132 -0.00069724204 -0.030966293 -0.016135626 0.0033511093
-0.021392385 -1.902033e-05 -0.009346604 -0.03175083 -0.0002871023 -0.002018557 0.00952126 -0.018845182
-5.0580344e-05 0.009663892 -0.005234331 0.008176433 0.021417312 0.0038504368 -0.002128598 -0.020503594
-0.008915009 -0.011487978 0.029165803 0.021971995 0.030613922 -0.0053934157 -5.7945476e-06 -0.0007054074
-0.01182595 0.014668405 0.034717176 -0.01671817 -0.01357776 0.0023737622 0.01672543 -0.02042175
-0.0066271354 7.9940844e-07 -0.0012641657 0.0059533003 -0.00021286569 -9.737841e-05 -8.317251e-05 -0.020607043
0.0056636096 0.0022804139 -0.018924618 -0.00023038618 -0.0087230215 0.016131938 -0.0006357024 -0.0002915045
0.019173097 0.008289351 -0.0008462437 -0.02072217 0.0033872293 7.337251e-05 0.0141541315 -0.019227615
-0.0053827055 -0.030576173 -0.0006036616 0.02870288 0.012908474 -0.0001000157 -5.532225e-05 -6.409428e-08
-0.00020366978 -0.0020726298 0.036282394 0.0011546396 -0.00016803197 -0.029120073 0.0068292846 -0.00044010667
-2.199162e-06 -0.012514399 -0.027534666 -0.0175215 0.0153123 0.029695915 0.0056615197 -0.0007385592
0.04253759 0.0059605986 -1.0839932e-06 -3.797901e-08 -5.541503e-07 -0.00037830303 0.016213955 0.0009209161
0.03699628 -6.931883e-06 -0.014296794 -4.6895585e-09 0.0350268 0.0329009 0.0006931634 -0.009082322
-0.00015876222 -0.012788119 -0.009468313 0.0024390866 0.031389393 -0.011283247 -0.013022556 -0.0026339819
-0.0029637108 -0.0024289214 -0.0052510975 0.0002767046 0.010190967 0.036507692 -0.0051325466 -0.025113147
00000000: 94ce df3c 481a ec3b 6ef8 60b7 2d38 283b
00000010: 6247 1e3d 7353 c0bc d286 ad3b b5d4 3534
00000020: c3c3 d5ba 26b2 99ba cb11 93ba 4526 0bba
00000030: 1fc7 36ba 06ad fdbc dc2e 84bc 499e 5b3b
00000040: 153f afbc d98d 9fb7 8022 19bc 290d 02bd
00000050: 3886 96b9 c449 04bb 0fff 1b3c 3661 9abc
00000060: 3b26 54b8 4d55 1e3c c084 abbb 72f6 053c
00000070: 5c73 af3c 9c57 7c3b f37f 0bbb 27f7 a7bc
00000080: 4210 12bc 1238 3cbc 1fed ee3c 9dfe b33c
00000090: 0cca fa3c 40bb b0bb c96e c2b6 17eb 38ba
000000a0: a1c1 41bc c053 703c 9933 0e3d 8bf4 88bc
000000b0: 4175 5ebc 1f91 1b3b c503 893c 844b a7bc
000000c0: 7128 d9bb ee96 5635 5db2 a5ba e713 c33b
000000d0: b334 5fb9 a337 ccb8 e76c aeb8 1ad0 a8bc
000000e0: cd95 b93b ff72 153b cd07 9bbc d293 71b9
000000f0: 01eb 0ebc 2027 843c 44a5 26ba 12d5 98b9
00000100: e610 9d3c 0fd0 073c 74d6 5dba 8ac1 a9bc
00000110: 47fc 5d3b 91df 9938 bbe6 673c 3b83 9dbc
00000120: 6861 b0bb e27a fabc 0b3f 1eba 4d22 eb3c
00000130: 107e 533c 85bf d1b8 d009 68b8 34a4 89b3
00000140: 3190 55b9 f5d4 07bb d99c 143d 4757 973a
00000150: bd31 30b9 388d eebc 31c8 df3b 1ebe e6b9
00000160: 5195 13b6 3209 4dbc 6190 e1bc 4089 8fbc
00000170: 71e0 7a3c d944 f33c 4584 b93b de9b 41ba
00000180: e53b 2e3d 2051 c33b b97d 91b5 5d1e 23b3
00000190: ebc0 14b5 f956 c6b9 21d3 843c a269 713a
000001a0: 6989 173d 6c98 e8b6 1a3d 6abc cb21 a1b1
000001b0: 4378 0f3d 18c3 063d 69b5 353a 05ce 14bc
000001c0: 6979 26b9 4285 51bc fc20 1bbc 15d9 1f3b
000001d0: 2a92 003d 5edd 38bc 8f5c 55bc e29e 2cbb
000001e0: d13a 42bb 8a2e 1fbb 6611 acbb aa12 9139
000001f0: 03f8 263c 1789 153d ec2e a8bb 16ba cdbc

tiles_emb.hidden_layers.2.weight f4 [128, 128]
-0.012809263 -0.036693867 -4.572899e-08 0.021744985 -0.023472155 0.042603314 0.013477184 2.0001389e-07
-0.0018623848 0.00038703825 -0.035484727 0.019930972 0.062336985 -0.025405442 0.0010141261 -0.05155225
-0.014389792 6.2064784e-11 0.008798709 0.021100981 -0.012246158 0.04466114 -0.064298585 0.079521194
1.5927581e-10 -0.038328346 -0.025485981 -0.016576866 -0.05001404 -3.9482156e-06 7.3528545e-06 -0.0066439565
-0.00942194 0.010226839 0.051060766 0.076870054 -0.011833481 -0.037614856 -1.711812e-10 0.008272352
0.047607888 -0.050439235 0.012636119 0.03662875 0.020950306 0.038881604 0.082258694 -0.056183808
0.043691486 -1.02712285e-07 -4.860955e-10 0.0036246418 2.327865e-07 -5.867392e-12 -0.0242776 -0.071428545
0.024034584 -0.06171051 -0.020800468 -1.930182e-11 -0.068880185 -0.04102587 9.016067e-11 -0.000117481875
-0.001168775 -0.007172797 -0.0006120329 0.015309088 -0.009495899 -1.1682466e-06 0.0034663694 0.06904674
0.0019329141 -0.008073369 -4.0728487e-10 0.048638903 0.057395894 5.96889e-08 1.2584391e-11 -2.2391056e-08
-7.050555e-10 0.05705419 -0.0036013185 0.070316 8.786537e-12 -0.022469426 0.00014572676 8.4662715e-06
7.7629336e-10 0.03300709 0.044569615 0.052686438 -0.04143222 0.05089685 0.056095686 -0.0021695711
-0.048907287 0.058471214 -2.6034753e-08 1.0813025e-05 -1.6976018e-10 -0.00011083595 0.06746731 8.150985e-07
-0.047725458 -2.162982e-10 -0.008372226 4.3837787e-07 -0.06810117 -0.04880127 0.04291042 -0.05794571
-0.00035281296 0.013199627 0.024410326 0.03429366 0.03135884 0.0499709 -0.07049544 -0.0019784633
0.077684805 -0.0015830247 0.0021816918 8.195503e-06 0.01413274 -0.013104244 -0.03989308 0.021148575
-0.042679586 -0.036903664 1.1812841e-09 0.037184075 -0.07507691 0.07338322 -0.0341632 3.1427018e-07
0.00012205363 0.00059003406 -0.009892063 -0.058091585 0.058173705 0.052544825 0.0012406295 -0.046861947
0.028380545 -1.1648155e-10 0.009258894 0.01403552 -0.0017494413 0.07663383 -0.03570538 0.067991205
-1.3824833e-11 -0.04313835 0.037100583 0.06483946 -0.0014632884 -1.2347656e-06 5.6880987e-07 -0.041301478
-0.009623039 0.010619538 0.0002415449 0.076108485 -0.03411582 -0.026299197 -2.2780484e-09 0.073616445
0.06157767 -0.020152183 0.071529806 -0.00068546337 0.056307454 0.02129947 -0.03570061 0.017090127
0.026922407 7.0589656e-10 3.6864513e-12 -0.074267715 8.765058e-10 -6.6155144e-11 -0.0012314175 -0.066106886
-0.0032800562 -0.06942689 -0.02018248 8.2066e-12 -0.051337413 0.021503942 -1.138093e-10 -0.000105209314
0.04068072 0.035623126 -0.00010168197 0.043537162 -0.019959375 1.907402e-09 0.0031528529 0.026160583
0.047280967 -0.05234999 -5.5643307e-10 -0.0004111966 -0.03534056 4.968096e-11 2.2547773e-10 -1.9699714e-08
1.7571322e-12 0.025212262 -0.007177468 0.052518774 -2.7782024e-12 0.016215716 0.07726233 -7.506993e-06
-7.593592e-10 0.028084233 0.008331967 -0.0221601 -0.02985897 0.057005316 0.014712585 -0.001631561
-0.044418212 0.06454762 -1.9627805e-08 7.5256085e-10 -1.6500093e-10 -0.00013627866 -0.0014511454 4.332681e-06
-0.057611648 2.3798073e-11 0.027127324 4.510759e-07 -0.019862749 -0.010536757 -0.010968562 -0.04731637
-0.0002362602 0.041483726 0.022567885 0.077529505 -0.015919724 0.022245249 -0.040604763 -0.0027341475
0.036692787 0.0011177215 0.0027735329 8.993497e-06 0.07987919 -0.049964912 -0.03597882 0.04568873
00000000: f1dd 51bc 4f4c 16bd 8e67 44b3 8a22 b23c
00000010: ad48 c0bc d080 2e3d 68cf 5c3c 66c3 5634
00000020: 441b f4ba 65eb ca39 6f58 11bd 4746 a33c
00000030: 1155 7f3d 131f d0bc 6dec 843a 7428 53bd
00000040: 2ac3 6bbc 5e7b 882e 7628 103c f7db ac3c
00000050: 1ca4 48bc 99ee 363d faae 83bd 02dc a23d
00000060: 2820 2f2f 2ffe 1cbd fac7 d0bc 35cc 87bc
00000070: 86db 4cbd ea7a 84b6 8ab8 f636 8cb5 d9bb
00000080: 7b5e 1abc 798e 273c 1825 513d 0c6e 9d3d
00000090: 37e1 41bc 0912 1abd 3937 3caf c288 073c
000000a0: 7d00 433d 5f99 4ebd b907 4f3c 0708 163d
000000b0: fa9f ab3c 5142 1f3d 3f77 a83d fe20 66bd
000000c0: d8f5 323d ad92 dcb3 ee9d 05b0 668b 6d3b
000000d0: def3 7934 c570 ceac d1e1 c6bc 2149 92bd
000000e0: 2de4 c43c 29c4 7cbd be65 aabc d6c7 a9ad
000000f0: 0e11 8dbd be0a 28bd f243 c62e 9a60 f6b8
00000100: 9531 99ba c809 ebbb d570 20ba f8d2 7a3c
00000110: b094 1bbc a6cc 9cb5 072c 633b 6168 8d3d
00000120: d659 fd3a 2a46 04bc 40e8 dfaf 9639 473d
00000130: f517 6b3d 522e 8033 0f63 5d2d 7456 c0b2
00000140: dfcd 41b0 a8b1 693d 1904 6cbb d601 903d
00000150: 0b93 1a2d cd11 b8bc 3bce 1839 5c0a 0e37
00000160: ca62 5530 7132 073d a18e 363d bccd 573d
00000170: d5b4 29bd 3779 503d 97c4 653d 5d2f 0ebb
00000180: 0253 48bd 837f 6f3d 07a3 dfb2 9769 3537
00000190: 3ea7 3aaf 9970 e8b8 4d2c 8a3d 24cd 5a35
000001a0: c57b 43bd 88d2 6daf a92b 09bc 325a eb34
000001b0: a078 8bbd d7e3 47bd d6c2 2f3d 7b58 6dbd
000001c0: c1f9 b8b9 4043 583c 2af8 c73c 8277 0c3d
000001d0: 2172 003d 49ae 4c3d ea5f 90bd 1ba9 01bb
000001e0: 3619 9f3d 7f7d cfba b7fa 0e3b 6b7f 0937
000001f0: 028d 673c 2fb3 56bc ed66 23bd c73f ad3c
00000200: cad0 2ebd 4c28 17bd bd5a a230 544e 183d
00000210: ecc1 99bd f149 963d b6ee 0bbd f7b8 a834
00000220: 0bf7 ff38 84ac 1a3a 5212 22bc 71f1 6dbd
00000230: 8d47 6e3d 3e39 573d 9e9c a23a 50f2 3fbd
00000240: 517e e83c a412 00af 9eb2 173c 3df5 653c
00000250: 824d e5ba 33f2 9c3d ce3f 12bd f93e 8b3d
00000260: 8335 73ad d7b1 30bd c8f6 173d 8dca 843d
00000270: d0cb bfba 39ba a5b5 51b0 1835 bd2b 29bd
00000280: f3a9 1dbc 92fd 2d3c 3747 7d39 c4de 9b3d
00000290: 08bd 0bbd 6a71 d7bc da8b 1cb1 38c4 963d
000002a0: de38 7c3d 3116 a5bc 387e 923d abb0 33ba
000002b0: a5a2 663d 3a7c ae3c ce3a 12bd 9800 8c3c
000002c0: 618c dc3c 0e09 4230 9ab4 812c ac19 98bd
000002d0: 9dee 7030 097a 91ae 8467 a1ba 0c63 87bd
000002e0: 36f6 56bb af2f 8ebd ba55 a5bc 3e5f 102d
000002f0: 2e47 52bd 0929 b03c f144 faae d2a3 dcb8
00000300: d4a0 263d 8ee9 113d 183e d5b8 0654 323d
00000310: d881 a3bc 5f13 0331 18a0 4e3b b84e d63c
00000320: b0a9 413d f16c 56bd 7ff3 18b0 e095 d7b9
00000330: 43c1 10bd ca7f 5a2e 57ea 772f 2138 a9b2
00000340: 5c4b f72b f289 ce3c f730 ebbb ed1d 573d
00000350: a57f 43ac d2d6 843c b63b 9e3d 94e4 fbb6
00000360: 27bb 50b0 e810 e63c cd82 083c 1989 b5bc
00000370: cc9a f4bc 687e 693d 0e0d 713c 1ada d5ba
00000380: dfef 35bd 8b31 843d 009a a8b2 c3dc 4e30
00000390: a26b 35af 06e6 0eb9 5c34 beba 7261 9136
000003a0: 31fa 6bbd 7f54 d12d 1f3a de3c 662b f234
000003b0: 34b7 a2bc 5da2 2cbc 7cb5 33bc cfce 41bd
000003c0: 9dbc 77b9 d7ea 293d 49e0 b83c cac7 9e3d
000003d0: 156a 82bc ab3b b63c 2e51 26bd 622f 33bb
000003e0: 2d4b 163d 8380 923a 29c4 353b c7e2 1637
000003f0: b397 a33d 02a8 4cbd 875e 13bd 1b24 3b3d

tiles_emb.hidden_layers.2.bias f4 [128]
-0.024298381 0.029053785 -0.031927995 -0.05968382 0.01757146 -0.0870709 -0.07980118 -0.053823434
-0.05821421 0.06533991 -0.07349345 0.06023014 0.06094565 -0.041877594 0.03306339 0.062565655
0.054421913 0.040620703 -0.031156681 0.030387623 0.0022788523 0.07343232 -0.04971189 -0.07339318
0.07423745 -0.0042406963 0.04451724 -0.072031915 0.06707001 0.06895515 0.010963116 0.08474118
0.010368037 -0.049425155 -0.06330966 -0.0935284 0.038828667 -0.061807446 -0.07828186 0.0013175774
-0.050827824 0.05370444 0.06575338 0.078161 -0.0201673 -0.019393034 -0.0046494096 0.00844564
0.036670573 0.029868225 -0.02447043 -0.049700588 0.08233461 -0.037184224 0.07098719 -0.04078005
-0.064903654 -0.01462039 0.008668856 0.05833392 0.005586343 0.03065301 -0.018393962 0.050274372
0.059127934 -0.013335829 0.05848413 -0.065392226 -0.015112961 0.023890577 -0.008653079 0.021838356
0.019755153 0.056714516 -0.060634747 0.08083057 0.088169515 0.06679334 0.06541924 -0.044028748
0.052290842 -0.012426063 0.006622789 -0.0048625204 -0.06582767 -0.009999051 0.020852959 0.0731305
0.04437679 0.06370088 -0.011098628 0.041114002 -0.041378118 -0.024608456 -0.05754133 -0.042925794
-0.0056603765 -0.025494883 0.00011295554 -0.077517025 0.06501121 0.0663224 0.05135617 0.064973354
-0.0131640695 -0.03193975 0.04553487 -0.070144504 -0.026214398 0.08158506 -0.0110906195 0.03737412
-0.011123063 -0.068471484 0.031331483 -0.017995335 0.031594615 -0.075980924 0.0067175296 -0.07310719
0.08011438 0.0010360144 -0.021400629 -0.01353412 0.08651794 -0.047959354 0.0063073016 0.05576751
00000000: 660d c7bc 3402 ee3c eec6 02bd 0577 74bd
00000010: 06f2 8f3c 3a52 b2bd cd6e a3bd f675 5cbd
00000020: 0672 6ebd eed0 853d bc83 96bd e1b3 763d
00000030: 25a2 793d d787 2bbd 7a6d 073d 6c22 803d
00000040: 83e9 5e3d e561 263d 4c3c ffbc 77ef f83c
00000050: cc58 153b af63 963d b29e 4bbd 2a4f 96bd
00000060: ce09 983d 8af5 8abb b657 363d 7885 93bd
00000070: 005c 893d 5c38 8d3d a49e 333c c98c ad3d
00000080: b3de 293c 0872 4abd 7fa8 81bd d18b bfbd
00000090: cf0a 1f3d ce29 7dbd 3d52 a0bd 90b2 ac3a
000000a0: d630 50bd 30f9 5b3d b5a9 863d e012 a03d
000000b0: e535 a5bc 24de 9ebc 135a 98bb 955f 0a3c
000000c0: e233 163d 35ae f43c 3676 c8bc d892 4bbd
000000d0: 0c9f a83d 7c4e 18bd bb61 913d fb08 27bd
000000e0: 35ec 84bd 5c8a 6fbc d107 0e3c 8cef 6e3d
000000f0: a40d b73b 051c fb3c efae 96bc 80ec 4d3d
00000100: 2230 723d 857e 5abc 0e8d 6f3d 5cec 85bd
00000110: 5a9c 77bc 2cb6 c33c a5c5 0dbc 5ae6 b23c
00000120: 8fd5 a13c 7b4d 683d 245c 78bd 7f8a a53d
00000130: 3892 b43d f2ca 883d 86fa 853d 7d57 34bd
00000140: ec2e 563d b096 4bbc fb03 d93b c755 9fbb
00000150: a8d0 86bd 0fd3 23bc d3d3 aa3c 72c5 953d
00000160: 70c4 353d 9b75 823d 05d7 35bc 2867 283d
00000170: 1a7c 29bd ac97 c9bc 75b0 6bbd f5d2 2fbd
00000180: ae7a b9bb a5da d0bc 8be2 ec38 3fc1 9ebd
00000190: 9924 853d 0ad4 873d d95a 523d c010 853d
000001a0: 1cae 57bc 41d3 02bd c682 3a3d eca7 8fbd
000001b0: 94bf d6bc 1116 a73d 6eb5 35bc 9b15 193d
000001c0: 823d 36bc c73a 8cbd 7155 003d f46a 93bc
000001d0: 5b69 013d e39b 9bbd b91e dc3b 39b9 95bd
000001e0: 0213 a43d e0ca 873a 5f50 afbc 37be 5dbc
000001f0: 5130 b13d 0771 44bd 7bad ce3b 796c 643d

attention_layer.att.weight f4 [128, 128]
-0.008923562 -0.012381613 -0.023045212 0.00710773 -0.011302972 -0.011712033 -0.011189174 -0.002750321
-0.015135373 0.009610151 -0.016862204 -0.015532337 0.01173844 0.008963327 -0.011787379 0.010188054
0.005648487 0.0021201011 0.009395528 -0.0014273605 0.0010563174 0.012884366 -0.011051105 -0.005245001
0.007912389 -0.0047352035 -0.0030036506 -0.0116398875 0.0019902259 0.00021123342 -0.0043182443 0.006701075
-0.015188102 0.010524042 -0.007151736 0.0033171736 0.008942767 -0.017335283 0.0050159157 0.0113268485
-0.0026705202 0.005149242 -0.0004628106 0.013023599 0.010709858 -0.007342041 -0.012108301 0.0050277463
-0.011358297 0.004981667 -0.012798703 -0.011369823 0.008064982 0.010663777 0.0073383455 -0.0005211514
-0.013926592 -0.005817672 -0.018506337 -0.0056662513 0.0066848397 0.012423126 -0.013062083 0.0111897895
-0.013811798 0.013927979 0.012337818 -0.010606364 -0.001438759 -0.011261851 -0.011038558 0.011019843
-0.011533603 -0.009636439 -0.012166552 -0.00986947 0.0032180184 -0.0065249302 0.011690706 -0.012626592
0.007869125 -0.010182047 0.009305524 -0.0048692753 0.016849922 0.0067469953 -0.010841179 0.012945419
0.013733473 -0.01312795 0.0033985723 -0.0079379575 -0.0012869645 -0.006817476 -0.006832245 -0.016175272
-0.014508055 0.0042442386 0.011388559 -0.010664761 -0.006857276 -0.009256291 0.0013228413 -0.009132481
0.010698032 -0.008129292 -0.017956411 -0.011638 0.016199755 0.010347256 -0.0093342755 -0.012940019
-0.0026810528 -0.025772924 -0.010165585 -0.0028122338 0.016065972 -0.011414561 -0.00053186144 -0.012080157
-0.010384652 0.0010247527 -0.013636577 0.0157096 0.014793318 0.011813888 -0.013138654 -0.005886305
-3.8824982e-07 -4.359494e-07 -3.918802e-07 5.643359e-07 -6.4957567e-07 -4.8318174e-07 -4.6895497e-07 -3.8747123e-07
-4.3809771e-07 5.962568e-07 -5.4521377e-07 -6.436142e-07 8.1816097e-07 6.759887e-07 -1.4282502e-07 3.8973255e-07
6.5986967e-07 3.5465698e-07 3.190246e-07 -8.1708485e-08 -4.881854e-07 7.074579e-07 -3.6209502e-07 -6.342124e-07
2.8142784e-07 -5.2427663e-07 -1.2983654e-07 -5.6130267e-07 -4.7657204e-07 -2.8718406e-07 -6.414166e-07 1.9073056e-07
-5.136994e-07 5.2617395e-07 -3.8283676e-07 -6.789266e-07 1.0681817e-06 -7.9767226e-08 5.1808746e-07 6.414834e-07
-7.043622e-07 4.3970908e-07 -5.150693e-07 4.9880566e-07 4.4384194e-07 -4.6818124e-07 -5.9010983e-07 5.442047e-07
-3.6031796e-07 1.3829027e-06 -3.611493e-07 -5.675003e-07 4.974634e-07 2.4558997e-07 5.808234e-07 -5.864466e-07
-3.558552e-07 -1.2990705e-07 -2.5973318e-07 -1.9137718e-07 5.3702576e-07 4.6569014e-07 -7.299442e-07 4.6340938e-07
-5.465089e-07 6.310214e-07 3.866178e-07 -6.6820365e-07 -3.4666857e-07 -3.3778895e-07 -5.465959e-07 4.1088222e-07
-8.412284e-07 -5.9717684e-07 -2.9801578e-07 -4.454122e-07 -4.3542195e-06 -1.3796671e-07 4.3471516e-07 -4.68006e-07
8.1320184e-07 -1.018758e-06 3.1436974e-07 -9.4346063e-07 7.673898e-07 -1.3567569e-06 -7.157645e-07 1.0628619e-06
2.6682096e-07 -3.4850729e-07 -1.0311036e-07 -5.9865687e-07 5.0618013e-07 -2.5544142e-07 -3.6813725e-07 -4.7507262e-07
-2.4377408e-07 2.1469619e-07 4.748095e-07 -6.071194e-07 -2.3686115e-07 -6.0086126e-07 -2.5776126e-07 -3.0404064e-07
6.2227446e-07 -5.914791e-09 -2.6886994e-07 -1.2736191e-07 1.4767298e-07 -1.598796e-08 -6.6453197e-07 -4.5846056e-07
-4.8102754e-07 -2.9540624e-07 -5.7436677e-07 -1.8464657e-07 5.341864e-07 -3.6111388e-07 4.8957395e-07 -4.3854536e-07
-5.320175e-07 4.2321986e-07 -8.822403e-08 4.8429445e-07 5.408524e-07 4.1590184e-07 -4.1693212e-07 -4.267567e-07
00000000: 2234 12bc 40dc 4abc 50c9 bcbc f6e7 e83b
00000010: 1a30 39bc d4e3 3fbc cc52 37bc bb3e 34bb
00000020: 5bfa 77bc e573 1d3c 9b22 8abc 587b 7ebc
00000030: 9652 403c ebda 123c da1f 41bc cceb 263c
00000040: f116 b93b 65f1 0a3b b3ef 193c 4516 bbba
00000050: 2174 8a3a f318 533c b20f 35bc 42de abbb
00000060: f7a2 013c c429 9bbb e5d8 44bb 3ab5 3ebc
00000070: 736e 023b 8a7e 5d39 0f80 8dbb b194 db3b
00000080: 84d7 78bc 086d 2c3c 1c59 eabb f064 593b
00000090: af84 123c b902 8ebc 8d5c a43b 3f94 393c
000000a0: e503 2fbb f9ba a83b 63a5 f2b9 ef60 553c
000000b0: 6678 2f3c 8195 f0bb e561 46bc cbbf a43b
000000c0: 2718 3abc 403d a33b a7b1 51bc 7e48 3abc
000000d0: fc22 043c 1fb7 2e3c 8176 f03b e19d 08ba
000000e0: 5c2c 64bc 2ba2 bebb 9a9a 97bc f6ab b9bb
000000f0: 800c db3b 5e8a 4b3c 5902 56bc 6155 373c
00000100: e14a 62bc 2e32 643c 8f24 4a3c 51c6 2dbc
00000110: be94 bcba a083 38bc 11db 34bc 928c 343c
00000120: 70f7 3cbc 28e2 1dbc 3856 47bc 8fb3 21bc
00000130: 64e5 523b 15cf d5bb 608a 3f3c c4df 4ebc
00000140: 81ed 003c 9ad2 26bc 3276 183c 718e 9fbb
00000150: d908 8a3c e615 dd3b 339f 31bc 0619 543c
00000160: 5c02 613c 9d16 57bc 95ba 5e3b 350e 02bc
00000170: 5daf a8ba 2265 dfbb 06e1 dfbb 0182 84bc
00000180: 31b3 6dbc 4113 8b3b 1497 3a3c 40bb 2ebc
00000190: 00b3 e0bb b3a7 17bc 3063 ad3a 67a0 15bc
000001a0: cc46 2f3c b930 05bc 5319 93bc 4fad 3ebc
000001b0: 59b5 843c 8a87 293c caee 18bc 6002 54bc
000001c0: 9ab4 2fbb bd21 d3bc 8e8d 26bc 744d 38bb
000001d0: c99c 833c 2404 3bbc 9e6c 0bba daeb 45bc
000001e0: 6324 2abc ff50 863a f36b 5fbc 6bb1 803c
000001f0: ac5f 723c 0a8f 413c 8243 57bc e8e1 c0bb
00000200: a670 d0b4 6e0c eab4 9b63 d2b4 de7c 1735
00000210: 805e 2eb5 ffb3 01b5 aec4 fbb4 a405 d0b4
00000220: b133 ebb4 750e 2035 ce5a 12b5 d5c4 2cb5
00000230: 989f 5b35 9775 3535 715b 19b4 6f3c d134
00000240: e621 3135 af67 be34 6846 ab34 b777 afb3
00000250: d80b 03b5 23e8 3d35 f665 c2b4 bf3e 2ab5
00000260: 2617 9734 04bc 0cb5 3269 0bb4 6dac 16b5
00000270: 90db ffb4 472e 9ab4 d02d 2cb5 9ecb 4c34
00000280: 27e5 09b5 663e 0d35 af88 cdb4 7b3f 36b5
00000290: 725e 8f35 7f4c abb3 b312 0b35 6732 2c35
000002a0: 6713 3db5 2811 ec34 4b43 0ab5 aae5 0535
000002b0: 2c49 ee34 575a fbb4 0a68 1eb5 7615 1235
000002c0: b971 c1b4 2d9c b935 fbe3 c1b4 5356 18b5
000002d0: 6d89 0535 a1d9 8334 e1e9 1b35 4e6c 1db5
000002e0: 5e0c bfb4 947c 0bb4 7571 8bb4 5c7d 4db4
000002f0: 2128 1035 f703 fa34 62f1 43b5 80ca f834
00000300: ceb3 12b5 7663 2935 5990 cf34 9b5e 33b5
00000310: c41d bab4 5c59 b5b4 c9b9 12b5 3997 dc34
00000320: c7d0 61b5 ae4d 20b5 fafe 9fb4 fd20 efb4
00000330: 761a 92b6 0024 14b4 cc62 e934 4142 fbb4
00000340: ce4a 5a35 42bc 88b5 a6c6 a834 1f42 7db5
00000350: a0fe 4d35 d019 b6b5 f622 40b5 a8a7 8e35
00000360: 983f 8f34 7a1a bbb4 856d ddb3 63b3 20b5
00000370: 6fe0 0735 9a23 89b4 66a4 c5b4 7c0d ffb4
00000380: 0ee0 82b4 3d87 6634 52e9 fe34 edf8 22b5
00000390: e653 7eb4 df4a 21b5 7062 8ab4 073b a3b4
000003a0: 600a 2735 0d3b cbb1 3459 90b4 fac0 08b4
000003b0: 0a90 1e34 e555 89b2 4a62 32b5 5722 f6b4
000003c0: f61f 01b5 5398 9eb4 2f2e 1ab5 4343 46b4
000003d0: 0365 0f35 1ddf c1b4 446b 0335 3771 ebb4
000003e0: f7cf 0eb5 e536 e334 ac75 bdb3 7600 0235
000003f0: 182f 1135 1d49 df34 b7d6 dfb4 ff1c e5b4

attention_layer.att.bias f4 [128]
-0.0010817543 4.825589e-10 2.3596134e-11 0.00023869175 1.0429887e-11 0.00083516206 -0.00042692304 0.00047942786
-0.0007374226 4.690865e-10 -7.1549217e-10 -3.4550732e-10 -0.00049285416 -5.4481263e-12 0.00023596764 8.370639e-11
0.00069744996 5.3898077e-11 -1.6461038e-10 -2.1448071e-10 0.0006692297 -4.7111925e-11 -1.2238117e-10 -3.1524018e-05
-4.8126014e-10 1.8787638e-09 -7.90268e-09 1.3491707e-09 -7.554792e-05 -0.00040346768 2.3490296e-10 1.1810182e-09
9.651642e-10 -0.0006906746 -4.2552558e-05 -0.0001462553 -0.00030074193 0.0007881957 -0.0006806455 -0.0005470713
8.0463797e-10 7.460503e-10 -7.591223e-11 -0.00023081341 -0.00092123856 -7.714082e-10 1.6075548e-09 -1.2355962e-11
-3.4335073e-11 -1.2330793e-12 0.00054328353 0.0007767169 -9.2984516e-11 0.0003353489 6.337171e-10 9.073619e-05
-1.965955e-09 -0.00083714584 0.0009415728 0.0009902125 -6.329558e-13 -0.000635934 0.00072795566 -1.259409e-10
-0.0010348709 -2.0696963e-11 -0.000571891 -0.0008720533 -5.9635666e-05 -3.0605452e-11 -0.0010597707 9.725207e-10
0.00066561904 2.9903125e-11 1.2478646e-09 -0.0012582195 -0.000704057 -8.5908125e-10 6.2146915e-10 0.00048283482
4.532125e-10 -0.00056497596 -0.0005649039 -2.4618918e-09 -0.0002448088 -1.914405e-10 -5.7996907e-08 -2.1002435e-10
3.1406336e-05 -3.4412742e-10 -4.916347e-10 -1.3909428e-10 -0.00030354282 7.277394e-05 -0.00038650798 1.4505401e-12
-2.5193606e-11 -3.8525265e-08 2.3910995e-10 -1.5011342e-10 -2.272967e-10 2.4880575e-09 -1.0007007e-11 0.0006619184
-2.4049551e-09 -0.0006551805 -0.0006343578 -4.3561935e-10 -3.0688698e-06 1.8757307e-12 -9.476422e-11 -0.0003207874
6.0315614e-11 -2.7198907e-10 -7.208761e-11 -0.00059546466 -2.5437253e-11 2.408416e-09 -0.00055634166 -5.5668927e-08
0.00033286004 -1.9994327e-10 -0.00061819004 2.1136157e-09 6.496025e-10 -0.00019734564 1.6841581e-10 -2.2122284e-09
00000000: a7c9 8dba 10a5 0430 c58d cf2d 5449 7a39
00000010: 097c 372d c7ee 5a3a a4d4 dfb9 b85b fb39
00000020: 984f 41ba 07f1 0030 49ac 44b0 d5f1 bdaf
00000030: e232 01ba 5cb0 bfac 156e 7739 8212 b82e
00000040: 13d5 363a d70b 6d2e b4fd 34af f4d2 6baf
00000050: 3f6f 2f3a 5033 4fae 3d8f 06af a838 04b8
00000060: ac49 04b0 901b 0131 5bc4 07b2 b96d b930
00000070: 7b6f 9eb8 8488 d3b9 a723 812f 6251 a230
00000080: b2a6 8430 630e 35ba 767a 32b8 1c5c 19b9
00000090: e6ac 9db9 eb9e 4e3a 596d 32ba 5569 0fba
000000a0: 5d2d 5d30 9f12 4d30 c9ee a6ae 8106 72b9
000000b0: 467f 71ba 070b 54b0 cef0 dc30 4e5e 59ad
000000c0: db01 17ae 5d8a adab 246b 0e3a 979c 4b3a
000000d0: a179 ccae c4d1 af39 e031 2e30 9f49 be38
000000e0: 7219 07b1 e873 5bba e2d3 763a 05ca 813a
000000f0: 4629 32ab cfb4 26ba 47d4 3e3a 3679 0aaf
00000100: 81a4 87ba 6b0d b6ad f5ea 15ba 829a 64ba
00000110: 4f21 7ab8 ad9a 06ae 01e8 8aba 88a9 8530
00000120: f07c 2e3a ed83 032e 5581 ab30 d7ea a4ba
00000130: 7790 38ba 7824 6cb0 01d4 2a30 fe24 fd39
00000140: fd27 f92f e51a 14ba 0f16 14ba 0f2e 29b1
00000150: ae59 80b9 b67d 52af 4618 79b3 99ec 66af
00000160: 4cba 0338 a12f bdaf b723 07b0 8fef 18af
00000170: d424 9fb9 369e 9838 39a4 cab9 3725 cc2b
00000180: f59a ddad fa76 25b3 bc73 832f 2c0d 25af
00000190: 55ea 79af 5ffa 2a31 8e0b 30ad 9884 2d3a
000001a0: 6b44 25b1 6bc0 2bba 084b 26ba f97b efaf
000001b0: c8f2 4db6 29fe 032c 8363 d0ae 5b2f a8b9
000001c0: aca2 842e 0f87 95af b785 9eae f518 1cba
000001d0: 9abf dfad 4d81 2531 75d7 11ba a218 6fb3
000001e0: b883 ae39 07d7 5baf 080e 22ba 1f3f 1131
000001f0: b68f 3230 91ee 4eb9 d62c 392f ef05 18b1

attention_layer.gate.weight f4 [128, 128]
0.00010470934 0.00028763438 -0.00046880872 -6.309922e-05 0.00029908854 4.3511376e-05 -0.0001119507 -0.000283375
-9.08154e-05 0.0010379398 0.00012763529 0.00097511784 0.00022057677 -0.0011185163 -4.0928415e-05 -1.5059202e-05
-8.744214e-05 0.00028378938 -0.0008043563 -0.0007538363 0.0003134336 -0.00029712467 0.0001494415 0.00054979825
0.0013584613 0.0005565609 0.00052896753 0.0001092757 0.00022954938 0.000845799 0.00059554644 0.00011478619
0.00028689715 0.00043477537 -0.0009634478 0.0004515136 0.00034220377 -0.00045463193 -0.001172064 -0.00059703126
-0.00042579146 0.00018180661 0.00093733246 0.00037719723 4.0474395e-05 0.00041847848 0.0010708891 0.0006380338
0.00011947547 0.00039092486 -0.0002699334 0.00019080318 0.00089318346 -0.00042835242 0.00014645723 -5.5535806e-05
-0.000453294 0.00035499973 6.4533706e-05 0.00023786958 -0.00039825123 -0.000578336 0.00061343174 -0.00045049837
0.0014993529 -0.00041800758 0.00011877611 0.00011612765 -0.0002922771 0.00014908452 0.00047806464 0.00019398598
8.3987885e-05 0.0002591627 -0.0006463326 0.0007968403 -7.177931e-05 0.0010936962 6.700284e-05 -0.00048558167
7.2488154e-05 -0.0002117896 -0.00020665453 0.00050438737 -0.0007386098 0.0006970022 -0.00010967536 0.00012701658
0.00040132678 7.825504e-05 0.0029257222 0.0008817698 0.0005926343 -0.00041101387 0.00038876163 -7.04062e-05
0.000866159 0.0005210518 -0.0009665587 -0.00023373919 0.0004007874 0.0004478864 0.0027963372 0.00073296466
-0.00023452174 -0.000548334 0.00067842397 -0.00052591047 -0.0007023437 0.00084639067 0.00076352473 0.00032573467
0.0003522178 -0.00065180036 -8.3107516e-05 -0.0011791033 -0.00044627322 0.0001323241 -0.00046198478 -0.0007589943
0.00039002398 5.643702e-05 -0.00040137125 -0.00056867383 2.6384321e-05 -0.00045468664 0.0007378365 0.00057990575
-6.997784e-10 -3.9165757e-10 -6.157486e-10 7.2485566e-11 -6.072743e-10 -1.4332099e-09 3.359321e-10 4.0882633e-10
1.0831412e-10 -3.2619793e-10 6.539835e-10 -5.2954235e-11 -6.645838e-10 -7.5553806e-11 2.2051718e-09 -1.6234904e-10
2.0913073e-10 7.5120393e-10 7.705475e-12 -1.363685e-11 -4.8604076e-09 3.4423664e-10 -2.398636e-10 5.575057e-10
-2.4315576e-09 -1.15119844e-10 2.9756705e-10 -3.09067e-11 -1.1176629e-11 -1.263539e-10 -2.7532673e-10 5.3545557e-10
-7.957606e-10 -3.6804787e-10 -5.2248392e-12 5.2450044e-11 -2.6649638e-09 3.1178168e-11 -1.7836174e-10 9.485439e-11
-1.00631024e-10 5.059177e-10 2.14642e-10 -1.7854097e-10 -2.9491834e-10 -1.5910491e-10 6.177639e-11 -1.3878804e-10
2.0644428e-09 7.476329e-10 -5.6027166e-10 6.4152805e-10 8.371871e-11 6.6992406e-10 -5.6561333e-10 -1.377801e-09
-1.4962902e-11 -5.2451393e-10 2.3566527e-09 -1.7500272e-09 8.148585e-11 2.0423753e-10 -2.813734e-10 3.943718e-10
4.6924004e-10 -1.3979418e-09 3.4999031e-10 -2.2941721e-11 -9.51399e-11 -1.6151368e-09 8.9300116e-11 -4.4439338e-10
3.3788333e-11 2.5612917e-10 5.1476273e-10 -5.077768e-10 1.3247138e-10 -4.0966813e-10 -3.615034e-11 -2.1949833e-09
-3.902369e-11 -4.4292298e-10 6.784544e-10 9.406036e-11 -7.116704e-10 5.9233146e-10 -5.6979256e-12 6.869949e-11
3.927742e-10 -3.0435218e-10 -3.1988398e-11 1.9563336e-10 6.622018e-10 -2.2489604e-09 7.237321e-11 7.152906e-11
1.2574815e-10 1.2377055e-09 8.575057e-11 3.9496117e-10 2.3851576e-09 4.215266e-10 9.935336e-10 8.394737e-11
-8.6040924e-11 1.0581991e-10 -3.1310368e-10 -2.1647596e-10 2.8776279e-10 -3.398764e-10 1.111328e-10 -3.4567814e-11
9.783143e-11 -2.0394282e-09 7.186783e-10 -6.1936356e-10 -2.4604085e-10 6.9009454e-10 1.6733272e-10 3.019001e-09
5.093504e-10 -7.852024e-11 3.6595325e-09 1.9628903e-09 -6.2494115e-10 -1.0046278e-09 8.1817886e-11 3.975027e-11
00000000: 6697 db38 a2cd 9639 71ca f5b9 2354 84b8
00000010: fcce 9c39 fc7f 3638 13c7 eab8 f391 94b9
00000020: 2674 beb8 7b0b 883a d6d5 0539 0d9f 7f3a
00000030: a04a 6739 2e9b 92ba 8daa 2bb8 c8a6 7cb7
00000040: 2461 b7b8 91c9 9439 70db 52ba 199d 45ba
00000050: 5854 a439 66c7 9bb9 66b3 1c39 5620 103a
00000060: 660e b23a 2be6 113a 69aa 0a3a f22a e538
00000070: 31b3 7039 9cb8 5d3a 721e 1c3a 5eb9 f038
00000080: af6a 9639 90f2 e339 e38f 7cba 21b9 ec39
00000090: d069 b339 aa5b eeb9 f19f 99ba 1782 1cba
000000a0: c33c dfb9 57a3 3e39 51b7 753a 8ec2 c539
000000b0: 0dc3 2938 3b67 db39 135d 8c3a b941 273a
000000c0: e88e fa38 0cf5 cc39 d985 8db9 5712 4839
000000d0: 8724 6a3a 7d94 e0b9 5092 1939 1eef 68b8
000000e0: 17a8 edb9 421f ba39 4556 8738 a16c 7939
000000f0: 60cc d0b9 799b 17ba b5ce 203a de30 ecb9
00000100: ef85 c43a 0728 dbb9 7017 f938 8f89 f338
00000110: c53c 99b9 9253 1c39 c0a4 fa39 b768 4b39
00000120: a722 b038 3be0 8739 a66e 29ba 0ce3 503a
00000130: 3988 96b8 5b5a 8f3a e083 8c38 ab95 feb9
00000140: c804 9838 d613 5eb9 67b1 58b9 dd38 043a
00000150: 449f 41ba 07b7 363a 8301 e6b8 c12f 0539
00000160: 2b69 d239 db1c a438 79bd 3f3b 9226 673a
00000170: 045b 1b3a 597d d7b9 b4d2 cb39 0aa7 93b8
00000180: f20e 633a 3297 083a a860 7dba e317 75b9
00000190: c620 d239 4cd2 ea39 c142 373b 6d24 403a
000001a0: f3e9 75b9 12be 0fba 43d8 313a 41dd 09ba
000001b0: 7d1d 38ba 51e0 5d3a 4727 483a 5ec7 aa39
000001c0: dfa9 b839 95dd 2aba 024a aeb8 248c 9aba
000001d0: c7f9 e9b9 7bc0 0a39 8c36 f2b9 3ff7 46ba
000001e0: 227c cc39 cab6 6c38 236f d2b9 0e13 15ba
000001f0: e653 dd37 0263 eeb9 5f6b 413a d104 183a
00000200: 875a 40b0 e750 d7af 7541 29b0 bf65 9f2e
00000210: 21ed 26b0 97fa c4b0 3dae b82f 31c1 e02f
00000220: 6e2f ee2e 4754 b3af ffc3 3330 2be5 68ae
00000230: edad 36b0 0325 a6ae cb89 1731 3181 32af
00000240: 11f1 652f 477d 4e30 608e 072d eae6 6fad
00000250: 9900 a7b1 003f bd2f cddd 83af fa3e 1930
00000260: 6a18 27b1 b626 fdae d796 a32f daed 07ae
00000270: 109f 44ad 76ed 0aaf cb5c 97af 562f 1330
00000280: adbc 5ab0 2256 caaf 2bd5 b7ac 80ad 662e
00000290: 8a22 37b1 7f1f 092e 5e1c 44af 4696 d02e
000002a0: 3b4a ddae cb10 0b30 5a00 6c2f d14e 44af
000002b0: 1122 a2af 0df0 2eaf 04d9 872e 5c99 18af
000002c0: 10de 0d31 fd81 4d30 9d01 1ab0 8657 3030
000002d0: 7219 b82e b725 3830 8079 1bb0 105d bdb0
000002e0: 769d 83ad 632d 10b0 acf2 2131 9c85 f0b0
000002f0: 7530 b32e c18f 602f c9af 9aaf e6ce d82f
00000300: d5fb 0030 b421 c0b0 c268 c02f 2acc c9ad
00000310: 0137 d1ae 93fb ddb0 7f5f c42e cf4e f4af
00000320: 489a 142e face 8c2f 357f 0d30 9e93 0bb0
00000330: 61a7 112f aa37 e1af aafd 1eae 8ed6 16b1
00000340: c5a0 2bae de7f f3af fc7d 3a30 46d7 ce2e
00000350: 5a9f 43b0 9fd1 2230 5a7a c8ac 6012 972e
00000360: 0eee d72f c351 a7af bcaf 0cae e519 572f
00000370: 4f06 3630 218c 1ab1 7f26 9f2e 484b 9d2e
00000380: f542 0a2f e41b aa30 4891 bc2e d821 d92f
00000390: 23e8 2331 98bc e72f db8c 8830 2b9a b82e
000003a0: bc34 bdae 50b3 e82e 6d21 acaf 9104 6eaf
000003b0: 0333 9e2f 5ad9 baaf 3462 f42e e607 18ae
000003c0: 3322 d72e 0026 0cb1 7d8c 4530 d63f 2ab0
000003d0: 2c43 87af 16b1 3d30 f9fb 372f d476 4f31
000003e0: 5902 0c30 f7aa acae 2d7b 7b31 88e3 0631
000003f0: 53c8 2bb0 3313 8ab0 60eb b32e d3d2 2e2e

attention_layer.gate.bias f4 [128]
0.002819898 -2.1437786e-10 -1.6172477e-09 -0.0002003986 -8.301298e-09 0.003496965 0.0008911001 0.0012149744
0.002486967 1.7779934e-08 7.6770526e-08 1.0487843e-07 0.004312483 -2.9174168e-09 0.00034235136 -8.716346e-09
0.0014111798 -1.0243133e-09 -5.6027133e-10 7.448482e-10 0.0013960135 2.2505752e-08 -8.985232e-09 0.00023605766
3.3325005e-08 -1.4733908e-07 -2.3822256e-06 -9.445281e-07 -0.00012695041 0.0059797033 -3.0436436e-09 -1.5890633e-08
-4.7414126e-09 0.0022423328 -0.00029264658 -0.00027148216 0.0023648767 0.003246726 0.0021529072 0.0008328202
7.8706375e-09 -5.1223076e-08 3.4583078e-08 -0.00024351805 0.004148757 -8.824289e-10 5.800409e-08 -1.8178147e-09
-1.6395537e-09 1.990937e-08 0.0044481293 0.0020867137 -1.4017203e-07 0.0067181094 -1.7723892e-09 -0.00023392832
8.794133e-09 0.003518194 0.002746447 0.002854868 -8.227784e-08 0.002461309 0.0025519494 2.1135001e-08
0.0034176575 4.6777926e-10 0.0029349152 0.002362933 -0.00027645295 2.484167e-08 0.0028184506 -2.7888893e-07
0.0034862068 -9.927476e-08 -1.7499535e-09 0.007704806 0.0011493715 2.1411532e-08 1.4492216e-09 0.0047210325
-1.6306501e-08 0.0015422027 0.0011076102 -3.061244e-08 -0.00020009911 -3.5124377e-09 3.064292e-06 5.267193e-08
-0.00030610253 -4.425903e-10 -7.385615e-08 3.9743672e-10 0.00032143688 -0.0003005641 0.00047423426 -7.35513e-08
-4.5407655e-09 -1.1248428e-06 5.867758e-08 -1.276751e-07 -9.545694e-10 -2.055723e-08 1.6401029e-09 0.0027454856
1.9084949e-08 0.0019012986 0.0020768193 -2.015405e-09 1.9876616e-05 -5.667915e-09 -5.287796e-08 0.00025338595
-1.2021638e-08 1.4359555e-08 1.0707223e-09 0.0022416622 -3.0931833e-08 -6.332859e-08 0.0026921525 -5.6950344e-06
0.006022988 1.2217795e-09 0.003402938 -3.9696808e-08 5.590151e-09 0.007574433 -6.782785e-08 4.9165685e-08
00000000: 0ace 383b 01b6 6baf d845 deb0 1722 52b9
00000010: 7f9d 0eb2 562d 653b b798 693a c73f 9f3a
00000020: 62fc 223b 7dba 9832 0bdd a433 8739 e133
00000030: bb4f 8d3b bd7b 48b1 9f7d b339 e5be 15b2
00000040: 56f7 b83a d2c7 8cb0 9701 1ab0 08be 4c30
00000050: 71fa b63a ac52 c132 785d 1ab2 3f86 7739
00000060: 3b21 0f33 4234 1eb4 53de 1fb6 7a8b 7db5
00000070: fe1d 05b9 63f1 c33b 5828 51b1 df7f 88b2
00000080: e8e9 a2b1 1af4 123b 5c6e 99b9 b855 8eb9
00000090: 0cfc 1a3b 06c7 543b ca17 0d3b 9e51 5a3a
000000a0: 6e37 0732 5e00 5cb3 7f88 1433 e158 7fb9
000000b0: 4cf2 873b 6a8f 72b0 2c20 7933 abd6 f9b0
000000c0: ab56 e1b0 2b05 ab32 9dc1 913b 3fc1 083b
000000d0: 3282 16b4 9623 dc3b 6798 f3b0 a84a 75b9
000000e0: 0215 1732 8091 663b bcfd 333b bd18 3b3b
000000f0: b9b0 b0b3 ea4d 213b 9b3e 273b 5c8c b532
00000100: c7fa 5f3b 0a95 0030 b557 403b 70db 1a3b
00000110: e3f0 90b9 6963 d532 c1b5 383b 34ba 95b4
00000120: d878 643b e030 d5b3 0483 f0b0 9978 fc3b
00000130: 82a6 963a 75ec b732 f42d c730 e4b2 9a3b
00000140: 6012 8cb2 bc23 ca3a 3b2d 913a bc7a 03b3
00000150: b2d1 51b9 755f 71b1 23a4 4d36 6639 6233
00000160: 637c a0b9 0c51 f3af d99a 9eb3 3f7e da2f
00000170: 8786 a839 0895 9db9 a5a2 f839 41f3 9db3
00000180: ff04 9cb1 4ef9 96b5 ae04 7c33 1017 09b4
00000190: ed31 83b0 d495 b0b2 fe69 e130 9bed 333b
000001a0: 3ff0 a332 ff34 f93a 3f1b 083b 617f 0ab1
000001b0: b5bc a637 82bf c2b1 ef1b 63b3 e3d8 8439
000001c0: b987 4eb2 feb1 7632 b128 9330 dae8 123b
000001d0: e9d9 04b3 43ff 87b3 d36e 303b f917 bfb6
000001e0: 7c5c c53b 8beb a730 d303 5f3b 1a7f 2ab3
000001f0: 7d13 c031 f332 f83b c1a8 91b3 3e2a 5333

attention_layer.w.weight f4 [1, 128]
0.0350551 8.947e-07 -9.509038e-07 0.010986469 2.8802458e-07 -0.03356421 0.018809687 -0.020709744
0.028539622 6.03804e-06 2.416948e-06 5.5799992e-05 0.034342058 -9.504918e-07 -0.016043337 -8.002259e-07
-0.023049723 -2.9579348e-07 1.7943598e-06 3.088406e-06 -0.022340512 -1.02219865e-05 1.8038278e-06 0.015439732
-1.354111e-06 3.8815856e-06 -3.367833e-05 9.026869e-06 0.012201434 -0.04408567 -5.558267e-07 9.916974e-06
8.007682e-06 0.024264302 -0.008237381 -0.009632914 0.043127708 -0.033123046 0.025227904 0.020477572
-7.276063e-06 3.541739e-05 2.563119e-06 0.0068037966 0.045129832 5.8497295e-07 9.967233e-06 6.813397e-08
1.6480327e-06 1.9394192e-06 -0.035235006 -0.02610225 -9.733967e-07 0.05208308 8.821823e-07 -0.007197136
1.4183079e-06 0.03831761 -0.030603092 -0.035068493 -2.7348676e-06 0.025654884 -0.028690228 3.013837e-06
0.042478025 2.272362e-06 0.027547324 0.02696162 0.0079769725 -3.8275075e-06 0.03847864 -4.541451e-05
-0.031602375 -3.4533573e-06 1.0877958e-06 -0.055638906 0.02086259 -5.162395e-06 -1.9682075e-07 -0.03680417
6.942619e-06 0.023349185 0.021382624 -3.866525e-06 -0.011233522 -1.0457012e-06 0.00031252444 9.1138196e-07
-0.009468352 -7.2685776e-07 1.5200781e-07 -1.0937044e-06 0.016039833 -0.008022884 0.017638808 -3.1222912e-06
-8.483782e-07 -0.00022873489 9.943368e-06 -5.1210316e-07 -1.0887686e-07 8.338352e-06 2.6415928e-06 -0.02760356
4.8866973e-06 0.032715473 0.027153416 1.1193242e-06 -0.0031894506 -3.85882e-06 -2.2020713e-06 0.01581542
-3.8150304e-07 3.432897e-06 7.320175e-07 0.02504063 -2.0688267e-06 2.5911668e-06 0.024507118 0.0003112432
0.042582724 6.5210355e-07 0.031840548 3.695009e-06 -2.5265713e-06 -0.05228834 -4.2228376e-06 -1.5422399e-06
00000000: f095 0f3d 512b 7035 9d41 7fb5 9700 343c
00000010: cca1 9a34 a07a 09bd c616 9a3c 7ba7 a9bc
00000020: edcb e93c 5e9a ca36 da32 2236 c90a 6a38
00000030: 42aa 0c3d 4d25 7fb5 516d 83bc 1bcf 56b5
00000040: c6d2 bcbc 8ccd 9eb4 bcd5 f035 6942 4f36
00000050: 7303 b7bc 197f 2bb7 0d1b f235 eef6 7c3c
00000060: e6be b5b5 913e 8236 d541 0db8 1b72 1737
00000070: 86e8 473c 2d93 34bd 1f34 15b5 1461 2637
00000080: bb58 0637 eec5 c63c 14f6 06bc 5fd3 1dbc
00000090: aea6 303d 08ac 07bd c0aa ce3c 95c0 a73c
000000a0: e824 f4b6 228d 1438 0d02 2c36 62f2 de3b
000000b0: 0fda 383d 0907 1d35 f138 2737 0c51 9233
000000c0: f931 dd35 f826 0236 9552 10bd 63d4 d5bc
000000d0: a8a5 82b5 1155 553d 1bcf 6c35 f4d5 ebbb
000000e0: b05c be35 edf2 1c3d 56b3 fabc fba3 0fbd
000000f0: ab88 37b6 312a d23c c507 ebbc 5341 4a36
00000100: 70fd 2d3d e27e 1836 edaa e13c 9ede dc3c
00000110: d9b1 023c 0a6e 80b6 c79b 1d3d 757b 3eb8
00000120: 7e71 01bd 3ac0 67b6 6100 9235 9fe5 63bd
00000130: 06e8 aa3c a338 adb6 ad55 53b4 f8bf 16bd
00000140: a5f4 e836 ca46 bf3c 9d2a af3c 32bd 81b6
00000150: ce0c 38bc 055a 8cb5 52da a339 b1a5 7435
00000160: 2621 1bbc 491d 43b5 9737 2334 66cb 92b5
00000170: f865 833c 6a72 03bc 437f 903c 8e88 51b6
00000180: 1bbc 63b5 8ed8 6fb9 71d2 2637 7677 09b5
00000190: b0cf e9b3 f3e4 0b37 3846 3136 dc20 e2bc
000001a0: 69f8 a336 a900 063d d770 de3c b03b 9635
000001b0: 1a06 51bb 037b 81b6 4cc7 13b6 578f 813c
000001c0: 61d1 ccb4 b960 6636 dc7f 4435 0222 cd3c
000001d0: 2cd6 0ab6 e8e3 2d36 27c3 c83c 5b2e a339
000001e0: 396b 2e3d 370c 2f35 3c6b 023d c5f7 7736
000001f0: 2a8e 29b6 4c2c 56bd e6b1 8db6 f6fe ceb5

mlp.0.0.weight f4 [128, 128]
0.06096464 -0.005822426 -0.047162123 -0.046737753 0.024249095 0.0081681805 0.027513634 -0.0032817088
0.019731997 -0.046852987 -0.02199002 0.01324748 -0.014083167 -0.0047410196 0.010454897 -0.013650905
-0.019551987 0.04420961 -0.009976795 0.014615186 0.06339942 -0.07415248 0.020672003 0.017564584
0.029307034 -0.030338345 0.028887486 0.0110079255 0.08130619 0.017141808 0.06307365 0.024541205
0.009753504 0.008681182 0.062339388 -0.0055395304 0.053055316 -0.01970931 -0.0075508845 -0.04866384
0.047780458 0.057970077 0.033526413 0.012831288 -0.046251353 -0.0006289418 0.03754599 -0.069567464
0.02520775 -0.04169216 -0.0008104481 0.066031985 -0.05064597 0.013597513 -0.033345122 -0.03359038
0.0135391895 0.009395298 0.0031816992 -0.0069683087 -0.08407859 -0.008958125 0.026264573 0.021434013
-0.0048450297 0.006604831 0.0071523855 0.06395636 -0.090716235 0.019223839 -0.022625161 -0.056284767
0.0019645826 0.041048054 0.029413018 0.06869175 0.0013899446 0.06102513 -0.06145445 0.049701832
-0.064679004 -0.075236924 -0.049117584 -0.069940485 -0.064374745 0.073812015 0.07059311 0.005913657
-0.05453797 0.011273664 -0.0012100391 -0.031158824 -0.034983557 0.042412512 -0.040574696 -0.011905166
0.0076059448 0.06472122 0.015619908 0.064548746 -0.020829901 0.065842 -0.013603071 -0.026117766
-0.027321884 0.034638282 -0.021727497 0.052719705 0.04300025 0.019526325 -0.009131189 0.009018838
0.021856185 0.04238291 0.038848903 0.03783548 -0.007331547 -0.023443898 0.042254303 0.061709035
-0.0062036226 -0.04467302 0.029674515 0.010389226 -0.054656785 0.04127509 -0.0024558834 0.029029028
5.400065e-10 1.3633608e-10 3.4395757e-08 5.3950092e-08 1.6765516e-11 2.4295588e-10 1.7290326e-09 -1.2038983e-11
-5.8066777e-11 -4.0787776e-11 -4.01049e-11 -3.5948092e-10 3.8112014e-10 5.1616232e-11 3.7085765e-10 9.320162e-10
7.183241e-11 1.707017e-10 8.103689e-11 -5.898875e-11 1.9569554e-12 -1.3961737e-10 8.1888185e-09 -7.731633e-09
-9.251377e-09 -8.382375e-11 4.3758085e-08 2.835342e-10 4.8827973e-11 -6.523301e-09 1.33318825e-11 -2.1581911e-10
5.774481e-11 -4.7073847e-12 1.837615e-11 -1.33432e-10 1.236535e-09 8.3377877e-10 1.0033881e-10 2.0772384e-09
4.1400355e-11 2.8236148e-08 -7.2688133e-10 -1.5276147e-08 2.1531246e-11 5.0439142e-11 5.7080087e-09 3.2333615e-11
-1.8568018e-10 1.1674065e-08 -1.5369404e-11 -5.9829817e-09 2.0756068e-09 6.974074e-11 -1.6724114e-10 -3.370763e-10
3.5452652e-10 -2.3932897e-10 6.6024686e-10 8.7635377e-10 -3.8807304e-09 -2.404124e-11 8.6563096e-10 3.7117132e-09
-1.1893111e-10 7.5471594e-11 5.3915397e-09 -2.3073474e-09 -4.1922426e-09 2.8576883e-10 -1.13883646e-10 -4.6240416e-08
2.3575752e-09 -5.703357e-10 2.3661677e-09 -1.2056767e-10 7.9226896e-11 1.1372121e-09 6.27223e-11 2.829539e-09
-1.2005905e-10 2.6040411e-10 9.431259e-10 1.379137e-10 -2.1171623e-11 6.4009944e-09 8.059269e-11 2.7618702e-10
-6.4795875e-09 -6.3981815e-09 9.537185e-11 -7.69489e-11 2.408243e-10 2.5326614e-11 6.118968e-09 3.307811e-10
1.2148449e-10 4.7434284e-10 2.6524913e-10 4.611316e-10 2.1504695e-10 1.0175176e-11 1.9926793e-11 1.05446894e-10
4.158863e-11 3.258085e-08 -1.6022397e-11 5.6656575e-08 -1.0374379e-08 9.683819e-10 3.7085054e-10 -5.2925754e-11
2.1300888e-08 -1.6767887e-08 5.5196243e-12 -9.887126e-11 1.5129646e-11 -8.649761e-09 4.76534e-10 -6.948001e-09
-7.637507e-09 -7.1123246e-11 -9.839005e-10 -9.877962e-11 -2.5685941e-11 3.95077e-09 -1.7824016e-09 -7.056106e-11
00000000: 0fb6 793d 0dca bebb 122d 41bd 1670 3fbd
00000010: 0aa6 c63c d5d3 053c 4664 e13c f011 57bb
00000020: ffa4 a13c ebe8 3fbd 6a24 b4bc f50b 593c
00000030: 15bd 66bc 8e5a 9bbb 044b 2b3c 0ca8 5fbc
00000040: 7d2b a0bc 2315 353d b675 23bc 8874 6f3c
00000050: 8ed7 813d 41dd 97bd 5558 a93c 9ae3 8f3c
00000060: 4e15 f03c 1f88 f8bc 73a5 ec3c 965a 343c
00000070: dc83 a63d fa6c 8c3c c22c 813d a30a c93c
00000080: 29cd 1f3c 843b 0e3c 9657 7f3d f384 b5bb
00000090: 8850 593d 6b75 a1bc 696d f7bb bc53 47bd
000000a0: 71b5 433d 0872 6d3d fe52 093d 533a 523c
000000b0: 0f72 3dbd 92df 24ba d3c9 193d 6379 8ebd
000000c0: 7c80 ce3c 66c5 2abd 4074 54ba c73b 873d
000000d0: 2672 4fbd 1ac8 5e3c e594 08bd 1196 09bd
000000e0: 7ad3 5d3c bcee 193c 0e84 503b 6956 e4bb
000000f0: 6531 acbd 19c5 12bc cd28 d73c 6296 af3c
00000100: 0ec3 9ebb 576d d83b 8f5e ea3b 8dfb 823d
00000110: 6fc9 b9bd 507b 9d3c 6758 b9bc db8a 66bd
00000120: 3ac0 003b 0122 283d 92f3 f03c 43ae 8c3d
00000130: cd2e b63a 7df5 793d a9b7 7bbd 2694 4b3d
00000140: 6d76 84bd d115 9abd 852f 49bd f53c 8fbd
00000150: e8d6 83bd c12a 973d 1f93 903d 5ac7 c13b
00000160: 3563 5fbd 2db5 383c 2d9a 9eba ca40 ffbc
00000170: eb4a 0fbd beb8 2d3d a731 26bd e30d 43bc
00000180: 4a3b f93b 8f8c 843d a5ea 7f3c 2232 843d
00000190: 78a3 aabc 2cd8 863d 6adf 5ebc edf4 d5bc
000001a0: 25d2 dfbc dfe0 0d3d ddfd b1bc 9ef0 573d
000001b0: 0821 303d acf5 9f3c fc9a 15bc c0c3 133c
000001c0: be0b b33c b499 2d3d 0720 1f3d 60f9 1a3d
000001d0: 793d f0bb 6b0d c0bc d912 2d3d 9dc2 7c3d
000001e0: c247 cbbb 0efb 36bd f817 f33c 9237 2a3c
000001f0: cbdf 5fbd 1210 293d e3f2 20bb 49ce ed3c
00000200: 946f 1430 32e7 152f 89ba 1333 c1b6 6733
00000210: 9678 932d 0091 852f eda2 ed30 c2ca 53ad
00000220: 6161 7fae f462 33ae 1a62 30ae 71a0 c5af
00000230: e485 d12f b602 632e 93e1 cb2f 6818 8030
00000240: 0df6 9d2e 42b0 3b2f b733 b22e b7b7 81ae
00000250: 60b5 092c cc82 19af ceae 0c32 15d4 04b2
00000260: fdef 1eb2 9354 b8ae 86f0 3b33 e4df 9b2f
00000270: 69bf 562e 9023 e0b1 7689 6a2d ae4b 6daf
00000280: e0f6 7d2e 5aa0 a5ac 69a3 a12d c5b5 12af
00000290: b5f2 a930 f72f 6530 baa5 dc2e 2abf 0e31
000002a0: a814 362e f28b f232 bacd 47b0 9a38 83b2
000002b0: 0e64 bd2d 6dd5 5d2e 2d20 c431 6a34 0e2e
000002c0: 5328 4caf 158f 4832 d230 87ad dd92 cdb1
000002d0: 76a2 0e31 8c5c 992e 32e2 37af 464f b9af
000002e0: 2ce7 c22f 8f92 83af be7c 3530 eae3 7030
000002f0: 4457 85b1 0f78 d3ad 5df1 6d30 2611 7f31
00000300: 22c4 02af bbf6 a52e 7c40 b931 498f 1eb1
00000310: 5b0b 90b1 631a 9d2f cb6e faae e099 46b3
00000320: e702 2231 cfc5 1cb0 109a 2231 c890 04af
00000330: c738 ae2e 184c 9c30 84ed 892e c771 4231
00000340: 9e01 04af 9f28 8f2f 4b9f 8130 41a3 172f
00000350: 423a baad beef db31 a739 b12e ded5 972f
00000360: 0ea3 deb1 00d7 dbb1 94b9 d12e 6136 a9ae
00000370: 0265 842f 77c6 de2d 033f d231 4dd9 b52f
00000380: d892 052f e962 0230 7fd2 912f 8182 fd2f
00000390: 5672 6c2f eb00 332d 2647 af2d 53e1 e72e
000003a0: a2e8 362e 06ef 0b33 3bef 8cad 9056 7333
000003b0: 003b 32b2 e917 8530 93e0 cb2f 1ac5 68ae
000003c0: 26f9 b632 f908 90b2 5b34 c22c 926b d9ae
000003d0: ef14 852d 0d9a 14b2 19fd 0230 43bb eeb1
000003e0: 1c36 03b2 d466 9cae ec39 87b0 fc37 d9ae
000003f0: 99ef e1ad 57bf 8731 aef8 f4b0 582a 9bae
