dataset/models/PDAC_PDXph1_classical/model.pth (torch, 696702 bytes, 14 tensors)

tiles_emb.hidden_layers.0.weight f4 [128, 768]
-0.0029815338 0.00610467 0.00073362084 0.0033407623 -5.9612566e-06 -0.0021660323 0.002644619 -5.153286e-06
8.958795e-06 0.00019003422 -0.00010947179 8.1900376e-05 -4.6019254e-06 -5.4341337e-05 -0.0028429204 0.0056553604
-5.2171717e-06 9.511534e-07 3.70371e-06 1.7972977e-06 2.02922e-05 -0.0037551667 -0.001877434 -0.00056680245
8.707626e-05 -0.0011793544 8.486987e-05 -1.8954992e-06 1.2325316e-05 0.00062101736 0.0073464774 -0.001182849
1.2015842e-06 -0.00018224036 -0.0018791995 -0.0003918399 0.00041616845 -0.00018025302 -0.0054671094 -0.0002127113
-6.373835e-06 -0.00016291783 0.003601883 -0.0007503844 0.0024403313 -0.0054867817 3.7661173e-06 8.5627935e-06
-7.946385e-06 -0.0010749401 -0.001619925 -2.6368477e-06 0.0011804726 0.00014633058 0.007260302 -0.0034738951
-0.00076539785 0.0021951632 -0.00046037958 -1.9074092e-05 2.2791316e-06 0.0012026061 -1.4005951e-05 -0.0046275374
7.277195e-06 4.259681e-06 0.0015242826 -0.0009899178 0.0011519986 0.0012151626 -1.040403e-05 -0.00645755
-5.917295e-06 0.0063544624 -1.661422e-06 -3.4594166e-06 0.0026041982 -0.001792302 -0.000977347 -0.004099238
-0.001824374 -0.0059821727 -0.004465252 0.005058861 8.383033e-06 0.0029855557 0.00049395347 -0.00038539738
-0.00045865442 -0.0054860227 -5.4391658e-06 -5.2958358e-06 1.0101427e-05 -0.0001981264 -5.3886374e-06 -0.0018119229
2.4620647e-06 0.006099334 -0.0054249065 4.4687868e-06 8.187554e-06 0.005107372 0.0054581966 -0.0057587675
-0.00082209846 -9.3018345e-05 9.325076e-07 -6.1952264e-06 8.887876e-07 0.00067745714 3.9309416e-06 0.00405846
-0.0031479276 -0.004444256 -6.0099287e-06 0.0010336898 3.180305e-05 1.1097002e-05 0.004711316 0.0021371108
-9.236561e-06 -0.006653626 0.004851281 -4.3659875e-06 6.6685307e-06 0.0018476921 3.846006e-06 -3.2515381e-06
-9.3371064e-08 -0.0021014865 0.0052884985 0.0012628796 9.236907e-06 -0.0033905827 8.676145e-06 -7.833729e-08
-0.0001675111 0.0038502037 0.00750801 0.0047312123 -0.0034683559 9.867763e-05 6.3998655e-06 -0.004040442
-0.007203101 0.0035752188 -0.0072884127 0.00032702985 -9.308369e-05 9.72968e-06 -0.005936409 1.8722109e-05
0.0011860554 0.0013233653 0.0016265425 -0.004062753 -0.0019589574 0.0018197322 0.0069781593 -4.5445004e-06
4.74329e-06 1.0690907e-05 -0.00044282028 -0.004678363 9.529097e-08 0.001498041 0.00013355333 3.8588398e-05
1.1288186e-05 0.0050502606 -1.7570108e-06 -0.0047797486 -1.00460065e-05 1.5892962e-05 -1.39342e-05 -1.0386173e-06
-0.004007128 -0.007060975 0.0025385434 1.0840663e-05 -0.0023261697 5.302082e-06 -0.0001863721 6.632087e-06
5.4817287e-06 2.2129288e-05 -9.799523e-08 0.006009064 -0.0012016515 -0.0005682284 0.0004321973 -0.0005106061
0.006975238 0.0054585873 0.002280979 -0.0043689837 -5.9161844e-06 0.00033021683 1.1139789e-06 -0.0035864112
-1.0074408e-06 0.0021186327 0.006888938 -6.509851e-06 -2.5759734e-06 -0.000288784 -4.0161785e-06 -0.004401478
-0.0023419745 -0.0029146913 -1.0138893e-05 0.0008316137 -6.1602723e-06 4.586799e-06 -5.207363e-06 1.7605024e-06
-0.0040559606 0.00031688696 0.0075960574 4.162904e-06 -0.007356446 8.997921e-05 0.006365681 0.0049901414
0.00040223444 6.188202e-05 -0.00032040765 -0.006755344 0.00044995468 0.0026324422 -0.00032285278 0.000741867
-4.9976265e-06 1.3980366e-05 -6.6669554e-06 0.0033918903 2.3302318e-05 -0.00494963 2.7097943e-07 1.5993509e-06
-5.116799e-05 4.872901e-05 0.006062033 0.0014393873 -4.573685e-06 -2.198547e-06 1.4748352e-06 0.00012483574
-9.256981e-06 -3.0311191e-06 -0.004012506 -5.1661154e-06 -1.2678113e-05 0.004660462 0.00024454706 2.6713874e-07
00000000: d665 43bb af09 c83b 7650 403a b1f0 5a3b
00000010: ce06 c8b6 fef3 0dbb 5851 2d3b 64ea acb6
00000020: bb4d 1637 ec43 4739 3894 e5b8 eec1 ab38
00000030: 3d6a 9ab6 91ec 63b8 4a50 3abb 9a50 b93b
00000040: 2a0f afb6 c452 7f35 418d 7836 ae3a f135
00000050: 2b39 aa37 3e19 76bb 3b14 f6ba 7895 14ba
00000060: b69c b638 9194 9aba 2afc b138 db68 feb5
00000070: d4c8 4e37 c5cb 223a b8ba f03b d409 9bba
00000080: 1e46 a135 c617 3fb9 794f f6ba dc6f cdb9
00000090: 2f31 da39 4d02 3db9 7025 b3bb 410b 5fb9
000000a0: d3de d5b6 ecd4 2ab9 920d 6c3b 72b5 44ba
000000b0: f7ed 1f3b 76ca b3bb 67bd 7c36 eba8 0f37
000000c0: 7751 05b7 01e5 8cba aa53 d4ba b3f4 30b6
000000d0: 16ba 9a3a 5170 1939 d4e7 ed3b 4aaa 63bb
000000e0: fba4 48ba badc 0f3b 1a5f f1b9 4d01 a0b7
000000f0: 2ff3 1836 c4a0 9d3a 1afb 6ab7 99a2 97bb
00000100: a12e f436 62ee 8e36 70ca c73a 21c0 81ba
00000110: a9fe 963a 1746 9f3a f88c 2eb7 db99 d3bb
00000120: 2d8d c6b6 1839 d03b 06fe deb5 5328 68b6
00000130: 32ab 2a3b adeb eaba 531a 80ba e752 86bb
00000140: d51f efba 1a06 c4bb 4051 92bb cdc4 a53b
00000150: daa4 0c37 50a9 433b a87c 013a 290f cab9
00000160: 8e77 f0b9 18c4 b3bb 1482 b6b6 e2b2 b1b6
00000170: 4c79 2937 27c0 4fb9 0bd0 b4b6 0b7e edba
00000180: f339 2536 ecdc c73b 6ac3 b1bb 96f2 9536
00000190: 475d 0937 be5b a73b acda b23b 0bb4 bcbb
000001a0: 1882 57ba d812 c3b8 6f51 7a35 97e0 cfb6
000001b0: 0595 6e35 6197 313a 88e6 8336 d4fc 843b
000001c0: 764d 4ebb 1fa1 91bb e5a8 c9b6 e07c 873a
000001d0: 4464 0538 432d 3a37 6261 9a3b c50e 0c3b
000001e0: baf6 1ab7 a906 dabb 7ff7 9e3b 8c7f 92b6
000001f0: 3ec2 df36 422e f23a f10c 8136 0035 5ab6
00000200: 4983 c8b3 18b9 09bb 244b ad3b 3587 a53a
00000210: 37f8 1a37 8a34 5ebb c28f 1137 613a a8b3
00000220: eba5 2fb9 b353 7c3b c105 f63b 4908 9b3b
00000230: 5b4d 63bb 26f1 ce38 6dbe d636 af65 84bb
00000240: fe07 ecbb 384e 6a3b a3d3 eebb 3475 ab39
00000250: ed35 c3b8 a83c 2337 3586 c2bb 6c0d 9d37
00000260: 6a75 9b3a c574 ad3a b631 d53a d820 85bb
00000270: da61 00bb 1584 ee3a 0ba9 e43b f67c 98b6
00000280: 8d28 9f36 195d 3337 552a e8b9 f44c 99bb
00000290: c4a2 cc33 ea59 c43a 730a 0c39 fad9 2138
000002a0: 6462 3d37 a87c a53b 6ed2 ebb5 709f 9cbb
000002b0: 458b 28b7 e051 8537 efc6 69b7 9e66 8bb5
000002c0: 3a4e 83bb c05f e7bb b15d 263b 4be0 3537
000002d0: a772 18bb 8ae8 b136 e16c 43b9 3289 de36
000002e0: b1ef b736 49a2 b937 7371 d2b3 afe7 c43b
000002f0: bc80 9dba 2af5 14ba 8a98 e239 32da 05ba
00000300: 8a90 e43b f3dd b23b 7a7c 153b b129 8fbb
00000310: a383 c6b6 f420 ad39 0684 9535 ff09 6bbb
00000320: 6737 87b5 c2d8 0a3b 9abc e13b 326f dab6
00000330: e3de 2cb6 ef67 97b9 b6c2 86b6 463a 90bb
00000340: d07b 19bb 6804 3fbb 371a 2ab7 a700 5a3a
00000350: 56b4 ceb6 4ee8 9936 e8ba aeb6 674a ec35
00000360: dde7 84bb d923 a639 59e8 f83b 13af 8b36
00000370: 570e f1bb 38b3 bc38 3497 d03b 5784 a33b
00000380: fee2 d239 a8c6 8138 63fc a7b9 ef5b ddbb
00000390: e5e7 eb39 0d85 2c3b 9144 a9b9 da79 423a
000003a0: 49b1 a7b6 378d 6a37 b6b4 dfb6 7a4a 5e3b
000003b0: 5979 c337 8130 a2bb 217b 9134 47a9 d635
000003c0: 369d 56b8 6062 4c38 05a4 c63b d3a9 bc3a
000003d0: a877 99b6 c08a 13b6 f4f2 c535 57e6 0239
000003e0: 6e4e 1bb7 3b6a 4bb6 577b 83bb 9858 adb6
000003f0: 15b4 54b7 cab6 983b 8d36 8039 456b 8f34

tiles_emb.hidden_layers.0.bias f4 [128]
2.1661062e-05 0.0014813663 0.0051969606 0.003277587 -0.0062371995 0.0017025217 0.0060012005 -0.002226149
9.7157106e-05 0.0012129182 0.0057486286 2.930028e-05 2.900206e-05 -0.00011313104 -1.6262913e-05 -0.0006860355
0.0023131315 0.0021689811 -0.00010418757 6.304677e-05 -0.0063379183 -0.0016134443 0.00033500523 -0.00095039373
0.00039865816 0.00023537144 -0.0075097075 -0.00014992892 1.004151e-06 -0.00010080255 -0.00014915632 0.0049155657
0.0025737467 -0.0020538226 0.0048189 -0.00036204656 -0.0069186757 -0.0018476564 -0.0039539225 0.0006359828
0.005592834 -0.0033803405 0.007560518 0.00409864 -0.00029097236 -0.0038496172 0.0056055477 0.0013095888
8.40577e-05 0.0005800721 -1.0987768e-05 0.00028042248 -0.00041879824 -0.0032171344 2.7079559e-05 -3.2165448e-05
-0.00028304657 0.00069401436 0.0024679904 -0.00011630356 -0.00015405887 0.00015657405 -0.00083726953 -8.456871e-05
-0.0038314075 5.9861868e-05 -2.038816e-06 0.00096375094 -0.0004188114 -0.006888981 -0.00044928698 0.005300729
0.0013351459 0.00063404377 -0.0070913397 -0.0012496292 -0.00071925396 0.0058628195 -0.0004119106 -0.0049272534
0.0062954635 -1.2115878e-06 0.0015852257 -8.644463e-05 -3.390188e-05 0.0012553997 0.000500817 -0.0007587081
0.0076966467 -0.004912717 0.0070589245 0.0020386295 -0.00542244 0.0028477528 -0.0035068076 0.0056114346
-0.0055476762 1.3525689e-05 0.0024197274 0.00025844792 -0.00061940914 -7.976946e-06 0.0035972574 -0.0060590953
0.0024625247 0.0012612942 -0.00018262683 -6.415826e-05 -0.0054134205 0.008041758 0.000510354 -0.0009274146
0.0043136054 -0.002521106 0.0007013538 -0.00057326705 0.00055515143 -7.168384e-05 -0.00699834 -0.003524405
0.0008528122 -0.0012241207 0.00018067665 0.0022160439 -0.0007232053 -2.8603274e-05 -0.00016250451 6.701861e-05
00000000: c7b4 b537 682a c23a 444b aa3b c9cc 563b
00000010: 6c61 ccbb 2627 df3a b8a5 c43b 95e4 11bb
00000020: d3c0 cb38 c8fa 9e3a fe5e bc3b dfc9 f537
00000030: 7349 f337 c440 edb8 576c 88b7 10d7 33ba
00000040: e897 173b 7725 0e3b 477f dab8 fa37 8438
00000050: 50ae cfbb 357a d3ba a4a3 af39 d823 79ba
00000060: fe02 d139 0ace 7639 fe13 f6bb 3d36 1db9
00000070: 5ec6 8635 f565 d3b8 d866 1cb9 c112 a13b
00000080: 4eac 283b 6d99 06bb dde7 9d3b 11d1 bdb9
00000090: 0fb6 e2bb 102d f2ba e88f 81bb 15b8 263a
000000a0: 1844 b73b b488 5dbb 39be f73b e24d 863b
000000b0: a68d 98b9 dc49 7cbb beae b73b 82a6 ab3a
000000c0: 2248 b038 fb0f 183a 1b58 38b7 ab05 9339
000000d0: 2692 dbb9 8fd6 52bb e928 e337 63e9 06b8
000000e0: de65 94b9 84ee 353a 02be 213b 00e8 f3b8
000000f0: dd8a 21b9 072e 2439 357c 5bba 7b5a b1b8
00000100: 5a18 7bbb 3114 7b38 98d2 08b6 3ba4 7c3a
00000110: ea93 dbb9 f6bc e1bb 478e ebb9 bdb1 ad3b
00000120: 1000 af3a f535 263a 785e e8bb 99ca a3ba
00000130: 518c 3cba e51c c03b b4f5 d7b9 cc74 a1bb
00000140: 2d4a ce3b d79d a2b5 59c7 cf3a 9b49 b5b8
00000150: de31 0eb8 398c a43a 4349 033a 0ae4 46ba
00000160: 2734 fc3b dbfa a0bb 8d4e e73b 879a 053b
00000170: b9ae b1bb 5da1 3a3b 78d2 65bb 20e0 b73b
00000180: 48c9 b5bb 64ec 6237 4a94 1e3b 4b80 8739
00000190: d85f 22ba b9d4 05b7 f7bf 6b3b 608b c6bb
000001a0: 4f62 213b 0352 a53a 847f 3fb9 b48c 86b8
000001b0: 1063 b1bb 94c1 033c 47c9 053a be1d 73ba
000001c0: 2559 8d3b 2439 25bb 0fdb 373a 4d47 16ba
000001d0: 9587 113a f854 96b8 5552 e5bb b4f9 66bb
000001e0: 428f 5f3a ad72 a0ba 0574 3d39 0c3b 113b
000001f0: 7c95 3dba 10f1 efb7 f965 2ab9 588c 8c38

tiles_emb.hidden_layers.2.weight f4 [128, 128]
-0.042826377 0.041107513 0.038733095 -0.01865332 -0.019381106 -0.00024657577 -0.028285012 -0.04020428
-9.524933e-05 3.8649046e-05 -0.011829997 -0.004645458 -0.031919897 0.05233089 -0.021645296 -8.28566e-06
-0.032121852 0.0001685023 0.0031805385 0.020706575 0.026389295 -0.0037228926 0.017432807 -0.024583088
-0.02477143 -0.046855543 -0.004661947 7.6402436e-08 0.017256398 -8.767172e-06 -1.9745826e-06 -0.028499128
-0.03471872 0.00715543 0.011053002 -0.007352536 -0.008962817 0.049660385 -0.0065958276 -0.0005330584
0.004659909 -1.7542517e-06 -0.03485744 0.020573305 -0.03551885 0.009848368 -1.6705126e-05 0.03361873
-0.04341162 0.010916266 0.020556314 0.017857324 0.014412255 -0.041087706 0.014613444 0.030440718
-0.028532928 -0.03559154 0.045873128 -0.03147321 -8.8029e-05 -0.029916968 -9.89118e-06 -0.044008125
0.04759176 0.022618234 -4.971454e-08 -0.031661596 1.33698395e-05 0.01144844 2.3130884e-05 0.027340097
0.047183655 0.00026664225 0.0004547768 0.011348568 -0.00022439835 -0.008370451 0.014587567 0.034906767
-0.048506416 -0.049572535 0.039841805 3.354697e-05 -0.021229273 -0.04704787 -0.045402963 -0.0005121962
-0.02848485 0.015852962 0.04934618 -3.2314995e-07 0.04957688 1.124392e-05 4.1680673e-06 0.003033704
0.04392613 0.028387193 0.052260812 0.052058507 -1.5537249e-06 0.03397487 -0.031242644 0.04416929
7.3182323e-06 -1.7913695e-06 -0.00072144874 0.009224898 -0.00244543 -0.016289897 -0.028082855 -0.009305277
-0.034514815 7.149822e-06 0.0100557525 9.873153e-06 -0.0079646595 -0.027933385 -0.018154304 -0.0018353577
-0.003901049 -4.5666866e-06 1.3800555e-05 1.2432017e-05 0.042947985 0.00017433106 0.014565646 -0.015193822
-0.00018112961 -0.041440103 4.8818642e-06 -6.0492737e-05 2.1101969e-06 0.025818631 0.010540268 -0.0062984494
0.039629407 -0.03751956 0.0091763325 0.011342819 -2.2944381e-05 0.007423019 -0.00014078041 0.022636244
-0.019496515 0.0046240087 -0.04415637 5.5732444e-06 0.000404501 0.023387015 0.018807251 -0.030667597
0.012690802 0.017211188 4.6341125e-07 -0.016422795 -0.0033749 0.0057621854 0.027014056 -0.0027696078
-1.1792345e-06 -1.1205177e-05 0.047431286 -0.017820928 -5.3190846e-08 -0.00011668373 0.005815754 -0.030625971
0.00075920706 0.0070323665 -0.025092667 0.024985287 -0.0036822956 0.011385813 -0.0024740885 7.6327416e-07
-0.00010565922 0.04728203 -0.030211192 0.016791215 -0.0075716246 0.031177362 -0.019359656 -0.021115126
0.0018598338 0.050097417 0.052038204 0.014799627 -0.0021147388 -0.03483528 -0.026851784 0.03685625
-1.1161619e-05 -0.005034828 0.00014726666 -0.020776747 0.02277684 -0.035068374 -1.4980059e-05 -0.007123525
2.0084713e-07 -2.8287042e-05 -5.1354725e-08 0.050269444 0.020442536 -0.00026487248 -0.02215926 -0.020472959
0.00070147996 0.052026514 -0.017333223 -0.011894539 -0.038417175 -0.0028810045 -0.006789075 -0.027415019
-0.005951336 0.038729817 -0.02778581 1.3943468e-07 -0.029489998 -5.4866364e-06 -2.6957737e-06 -0.00073730055
0.0002983056 0.03992397 0.0362486 -0.03653087 1.1090219e-05 0.016414003 0.0011414894 0.0054766904
0.028813861 -0.04477646 0.037551355 0.03661868 0.02783112 0.000121875266 4.8340935e-05 -0.0018356998
0.007958627 -0.030959535 0.02430311 -0.0036339604 0.033043906 0.0009282063 0.032608967 7.821957e-08
0.009710248 0.01486094 0.032954305 -5.025772e-06 0.030953944 0.03545169 0.030291421 -1.1469948e-06
00000000: b66a 2fbd 5a60 283d 98a6 1e3d d9ce 98bc
00000010: 20c5 9ebc d746 81b9 f8b5 e7bc 3ead 24bd
00000020: 98c0 c7b8 191b 2238 9bd2 41bc ed38 98bb
00000030: 70be 02bd ea58 563d 7a51 b1bc a402 0bb7
00000040: 3492 03bd feaf 3039 9570 503b d6a0 a93c
00000050: 5d2e d83c c6fb 73bb 3fcf 8e3c 7962 c9bc
00000060: 74ed cabc 99eb 3fbd 3fc3 98bb af12 a433
00000070: 4a5d 8d3c b816 13b7 1283 04b6 0177 e9bc
00000080: 3735 0ebd 1978 ea3b a717 353c 8bed f0bb
00000090: c7d8 12bc b068 4b3d d021 d8bb f2bc 0bba
000000a0: 26b2 983b a173 ebb5 adc6 0ebd 5989 a83c
000000b0: 377c 11bd 0d5b 213c fc21 8cb7 cbb3 093d
000000c0: 62d0 31bd 23da 323c b765 a83c 8649 923c
000000d0: 6121 6c3c 954b 28bd 3a6d 6f3c d05e f93c
000000e0: e3bd e9bc 6fc8 11bd 76e5 3b3d 0dea 00bd
000000f0: 369c b8b8 6e14 f5bc 4bf2 25b7 dd41 34bd
00000100: 94ef 423d e049 b93c b785 55b3 97af 01bd
00000110: 064f 6037 3d92 3b3c 3209 c237 57f8 df3c
00000120: a643 413d 1ecc 8b39 1c6f ee39 58ef 393c
00000130: 794c 6bb9 3724 09bc b100 6f3c 66fa 0e3d
00000140: aaae 46bd 920c 4bbd 2931 233d c9b4 0c38
00000150: 03e9 adbc 44b5 40bd 75f8 39bd e844 06ba
00000160: 0f59 e9bc 12de 813c 381f 4a3d 647d adb4
00000170: 2011 4b3d 45a4 3c37 6ddb 8b36 1bd1 463b
00000180: e3eb 333d 428c e83c 6f0f 563d 4d3b 553d
00000190: 9589 d0b5 3c29 0b3d 93f0 ffbc dcea 343d
000001a0: 238f f536 fd6e f0b5 9b1f 3dba 0724 173c
000001b0: 8243 20bb 6472 85bc 040e e6bc 2975 18bc
000001c0: 685f 0dbd 81e8 ef36 e2c0 243c dfa4 2537
000001d0: 347e 02bc 8ed4 e4bc 56b8 94bc 6390 f0ba
000001e0: bea8 7fbb 8a3b 99b6 ef88 6737 1b93 5037
000001f0: 3aea 2f3d a3cc 3639 bfa4 6e3c 82ef 78bc
00000200: 9ced 3db9 19bd 29bd e5ce a336 95b9 7db8
00000210: e89c 0d36 9881 d33c 17b1 2c3c 3963 cebb
00000220: 7252 223d 1cae 19bd 5458 163c 3bd7 393c
00000230: af78 c0b7 cc3c f33b 749e 13b9 a56f b93c
00000240: 28b7 9fbc ff84 973b 4fdd 34bd ce01 bb36
00000250: 3513 d439 2096 bf3c aa11 9a3c 9d3a fbbc
00000260: 15ed 4f3c 7afe 8c3c c2ca f834 1989 86bc
00000270: 6d2d 5dbb b7d0 bc3b 954c dd3c 4f82 35bb
00000280: 3046 9eb5 defd 3bb7 4f47 423d 32fd 91bc
00000290: f473 64b3 1ab4 f4b8 1592 be3b 51e3 fabc
000002a0: 8605 473a c46f e63b 238f cdbc f2ad cc3c
000002b0: ab52 71bb 908b 3a3c 5124 22bb cde3 4c35
000002c0: 5d95 ddb8 cdaa 413d 767d f7bc bb8d 893c
000002d0: 641b f8bb ab67 ff3c 2498 9ebc a1f9 acbc
000002e0: abc5 f33a f332 4d3d 0326 553d 227a 723c
000002f0: 6e97 0abb 70af 0ebd 46f8 dbbc 94f6 163d
00000300: ca42 3bb7 33fb a4bb 986b 1a39 ff33 aabc
00000310: 7f96 ba3c dba3 0fbd dd52 7bb7 756c e9bb
00000320: 70a8 5734 f649 edb7 1e91 5cb3 55e7 4d3d
00000330: 1b77 a73c 95de 8ab9 5687 b5bc e8b6 a7bc
00000340: 86e3 373a c119 553d 67fe 8dbc 50e1 42bc
00000350: 545b 1dbd 3ccf 3cbb e476 debb 7695 e0bc
00000360: 6d03 c3bb 28a3 1e3d 119f e3bc 83b7 1534
00000370: 0295 f1bc d919 b8b6 0ae9 34b6 6747 41ba
00000380: e665 9c39 5187 233d 6979 143d 65a1 15bd
00000390: 2110 3a37 a976 863c 079e 953a cf75 b33b
000003a0: 0c0b ec3c 8567 37bd 73cf 193d 78fd 153d
000003b0: 17fe e33c 4997 ff38 afc1 4a38 dd9b f0ba
000003c0: e764 023c da9e fdbc 5117 c73c bd27 6ebb
000003d0: 0c59 073d df52 733a fb90 053d aaf9 a733
000003e0: bb17 1f3c 4d7b 733c 18fb 063d 0ea3 a8b6
000003f0: 2093 fd3c cb35 113d b725 f83c 71f2 99b5

tiles_emb.hidden_layers.2.bias f4 [128]
-0.01928046 -0.0010901244 0.04524342 -0.03297676 -0.0021661879 0.036763318 -0.04369905 0.017477043
-0.0065200715 0.021470487 0.03820209 0.03956491 -0.028504642 7.741928e-05 -0.0009651042 0.009710601
-0.014421509 0.042352088 -0.040384922 0.04698757 -0.00036077743 0.005323893 0.025523826 0.030586097
0.052547146 -0.0074760704 -0.0075151646 0.020429842 -0.032668702 -5.5880122e-05 0.006623552 0.03186314
-0.0008399124 -0.00011579405 0.016017945 -0.050160505 -0.03443484 -0.00044947688 -0.001821642 -0.044319578
0.022118492 0.0027218224 0.00821145 -0.020604325 0.04972921 -0.00026319022 0.03982852 -0.051108047
-0.001952978 -0.010524414 -0.0013202417 -0.02347007 -0.0011170333 0.019264048 0.019099206 -0.041153118
0.017917167 0.00080904056 0.009102507 -0.008375001 -0.0040988014 0.010241939 -0.045603886 -0.013951888
0.028578969 0.0004801656 -0.037041984 -0.02560959 0.0058393897 0.00035825194 -0.00018768289 -0.0051142117
-0.0014685807 0.012993723 0.00069498183 0.0006097317 -0.046934757 0.03705988 0.00074006076 -0.0320655
-0.050561164 -0.032450426 -6.415243e-05 0.0017503917 -0.045410447 -0.013738936 0.0022781314 0.034858838
0.04192613 -0.00663361 -0.00044496724 -0.00053602224 0.0015550483 0.003247159 -0.014648261 0.008525774
-0.0020615747 -0.0018857194 -0.017516097 -0.030456876 -0.018558707 -0.00011330975 -0.0017730285 0.025564274
0.009622071 -0.0067660185 -0.048208933 0.01846498 0.04501064 0.020212479 0.0001886547 0.015417853
0.045718256 -0.035780884 -0.01229539 0.027167602 -0.042451788 -0.001542556 0.012482326 -0.04848159
-0.0060303803 -0.035864685 0.021023706 -0.00027958833 -0.006400686 -0.00072276394 0.0006378749 -0.029000448
00000000: 0ef2 9dbc 81e2 8eba 2a51 393d a412 07bd
00000010: 9af6 0dbb 2295 163d c6fd 32bd 042c 8f3c
00000020: 53a6 d5bb e0e2 af3c cb79 1c3d d10e 223d
00000030: 9182 e9bc 295c a238 0cff 7cba 3619 1f3c
00000040: 3148 6cbc 6279 2d3d a96a 25bd 0a76 403d
00000050: ba26 bdb9 0d74 ae3b 5817 d13c b28f fa3c
00000060: ad3b 573d d3f9 f4bb c541 f6bb 7c5c a73c
00000070: 9ecf 05bd d360 6ab8 620a d93b ed82 023d
00000080: 912d 5cba 75d6 f2b8 1138 833c 1a75 4dbd
00000090: 8c0b 0dbd c4a7 ebb9 2ac4 eeba 7288 35bd
000000a0: d731 b53c 9a60 323b 5189 063c 67ca a8bc
000000b0: dbb0 4b3d cbfc 89b9 3b23 233d ac56 51bd
000000c0: 11fb ffba 976e 2cbc f60b adba 4e44 c0bc
000000d0: 6b69 92ba a3cf 9d3c f075 9c3c 2c90 28bd
000000e0: 06c7 923c cb15 543a ae22 153c 4d37 09bc
000000f0: 3d4f 86bb cecd 273c 24cb 3abd 7696 64bc
00000100: 711e ea3c bcbe fb39 56b9 17bd 34cb d1bc
00000110: 5a58 bf3b c3d3 bb39 becc 44b9 1e95 a7bb
00000120: 647d c0ba a0e3 543c 712f 363a 67d6 1f3a
00000130: a93e 40bd 1acc 173d a300 423a 1d57 03bd
00000140: 3919 4fbd bdea 04bd 9389 86b8 666d e53a
00000150: 4e00 3abd 4619 61bc b44c 153b 24c8 0e3d
00000160: bcba 2b3d c15e d9bb 7e4a e9b9 d883 0cba
00000170: c3d2 cb3a 4ace 543b 42ff 6fbc b0af 0b3c
00000180: 7c1b 07bb 3e2a f7ba eb7d 8fbc b380 f9bc
00000190: 6e08 98bc b5a0 edb8 f764 e8ba 2b6c d13c
000001a0: e4a5 1d3c 7ab5 ddbb bb76 45bd df43 973c
000001b0: 145d 383d a494 a53c 9cd1 4539 2a9b 7c3c
000001c0: 1143 3b3d fa8e 12bd 9a72 49bc 978e de3c
000001d0: ede1 2dbd 972f caba ab82 4c3c a294 46bd
000001e0: 7f9a c5bb d9e6 12bd e839 ac3c b695 92b9
000001f0: d9bc d1bb de77 3dba 0f37 273a 5992 edbc

attention_layer.att.weight f4 [128, 128]
0.0018542868 -1.5070468e-10 0.009977971 0.034708142 -0.040839624 -0.00969425 -0.03172922 0.008967094
0.009504974 0.010668028 0.015075684 -0.001604074 0.039189342 0.051255487 0.044221114 -0.032988943
0.027072435 -3.0018954e-10 2.7754943e-10 -0.005121862 0.029475993 -1.370894e-10 0.00086413714 0.030979292
-0.0028065487 0.011292304 -4.706101e-05 -0.012216517 0.025238672 0.00032861118 -0.00014982425 -2.0522829e-10
0.041178994 5.7057883e-11 0.022446083 -0.02939287 -0.0029798793 -0.018007288 -6.855556e-07 -0.051044375
-9.951141e-11 -0.03903456 0.0020207951 -7.0185954e-11 -0.005353318 -0.011581169 -9.939496e-06 -0.032069933
0.019297935 -0.0069103264 0.007653654 0.009487375 -2.2057436e-10 -1.2037081e-10 -1.39146294e-08 -1.907264e-11
-0.012898057 0.0012395334 4.6273705e-12 -0.021536836 0.00018288333 2.291083e-10 -0.00011825011 0.043023985
-0.014717026 0.016523749 0.033078853 -4.0200832e-10 -0.052167483 -0.005448188 -0.034419693 -0.005607181
-0.045895908 0.028799666 -0.045030836 4.627939e-07 -0.0017902124 -0.038114313 -6.917489e-11 3.0321373e-10
-0.00014297584 4.8848273e-11 -0.017234266 -0.043236267 8.506588e-06 -0.0028119495 0.03520885 0.016913535
3.3874664e-10 0.039812926 -4.9455444e-12 0.03615304 -0.011043461 -6.924617e-05 3.065917e-06 -0.04182276
0.051159974 0.018849272 0.04542921 0.00040313406 -0.022683468 -0.0012649866 0.02286964 0.032778893
-2.7920887e-08 -0.013246093 -0.00033798514 -0.03019308 0.03435281 0.008224917 -5.0457253e-08 0.026846532
-0.04195803 0.026032621 -0.024882449 0.00024552408 0.00043044926 -0.041129924 0.0076732817 0.041099824
0.051151715 0.023816682 -0.006240977 0.004767768 -3.2866796e-11 0.0018396619 -0.039384857 -0.015174766
0.04020178 -3.9622722e-05 0.020157933 -0.01316836 1.428326e-10 0.049860213 7.6528326e-05 -0.023864409
9.866295e-09 -0.022296611 0.050683472 -0.044484112 0.039449938 -2.6251675e-07 -0.012177526 -1.1564312e-09
0.015029687 0.00967674 -5.1529475e-11 -0.050286558 -0.0047684764 -3.69131e-10 0.05118464 -2.1081441e-10
-0.019638572 0.0077163884 0.009906313 0.041707393 0.025951032 0.050590687 0.0326416 0.03506123
0.003330254 -0.00905081 -0.0063875034 0.018315714 -0.020138424 -1.3845121e-09 -0.024872448 2.3560056e-06
-4.635032e-07 9.494576e-11 0.044288855 0.037413917 -0.00013037873 0.004803569 0.028159166 -0.016510962
-0.029238364 0.049583293 -0.047100388 0.022245511 -0.03449886 3.8574555e-05 0.03764233 -0.048838448
-0.00119725 0.004683422 -0.026938953 0.009016105 -0.027608063 -0.05186872 0.009185574 -5.097133e-10
0.014634386 1.736416e-10 -8.877996e-10 0.039937634 0.034485236 0.01297348 0.027808238 -0.0009351844
0.013226349 0.0041626114 0.01960684 0.011792987 0.052541904 -0.0021925936 -0.021213185 0.04867251
-0.04785785 0.008923239 -0.023063248 -0.008724633 -0.0131862 -0.012287687 -0.004485745 0.023447474
-1.726135e-07 0.018696198 -3.0495978e-10 -0.008601377 -0.0042859837 -0.0013426784 0.03923229 1.7665867e-10
0.030274726 0.03831419 0.021383885 0.04737421 -0.05112007 0.026986176 -0.01182827 -0.011207009
1.41048495e-05 0.010158197 -0.0025205351 -0.029322982 -0.042754788 0.012889082 0.03350578 -0.044982303
0.03286069 0.00089305954 -0.034607332 0.03591874 -3.8133732e-07 -0.018971715 -0.041867085 3.4970065e-11
-0.01839094 -0.04525334 0.04033753 0.03180099 -4.4471926e-05 -1.5282933e-12 -0.0037397058 -0.00824037
00000000: 8a0b f33a 99b3 25af a57a 233c 202a 0e3d
00000010: 7347 27bd a2d4 1ebc 80f6 01bd b8ea 123c
00000020: c0ba 1b3c f4c8 2e3c 0000 773c cb3f d2ba
00000030: 0185 203d 46f1 513d 3321 353d 6a1f 07bd
00000040: 03c7 dd3c ec07 a5af 9c95 982f 4bd5 a7bb
00000050: a377 f13c 3cbb 16af 4387 623a 49c8 fd3c
00000060: 13ee 37bb 5b03 393c 6063 45b8 c927 48bc
00000070: 55c1 ce3c 7249 ac39 241a 1db9 a1a6 61af
00000080: 4eab 283d 77f1 7a2e d9e0 b73c 51c9 f0bc
00000090: 144a 43bb 0584 93bc 0607 38b5 e813 51bd
000000a0: f2d3 daae b4e2 1fbd 516f 043b 2e57 9aae
000000b0: e36a afbb f2be 3dbc cfc1 26b7 c35b 03bd
000000c0: b416 9e3c 0570 e2bb 81cb fa3b ef70 1b3c
000000d0: 2a86 72af 5f59 04af 300d 6fb2 c4c3 a7ad
000000e0: 5f52 53bc d777 a23a a6cf a22c 056e b0bc
000000f0: 5fc4 3f39 41e8 7b2f 0bfd f7b8 eb39 303d
00000100: ae1f 71bc d05c 873c b17d 073d a401 ddaf
00000110: 92ad 55bd b786 b2bb aafb 0cbd 72bc b7bb
00000120: 59fd 3bbd 47ed eb3c 4172 38bd e975 f834
00000130: 8fa5 eaba c11d 1cbd 001e 98ae 8ab1 a62f
00000140: c9eb 15b9 44d6 562e e02e 8dbc 8318 31bd
00000150: 84b7 0e37 af48 38bb 2837 103d 418e 8a3c
00000160: 5a3a ba2f e112 233d 8101 aeac 3615 143d
00000170: a2ef 34bc 4138 91b8 0ec0 4d36 584e 2bbd
00000180: 1f8d 513d ca69 9a3c fb13 3a3d bd5b d339
00000190: aed2 b9bc e8cd a5ba 1c59 bb3c 2943 063d
000001a0: aed6 efb2 2406 59bc 9933 b1b9 7a57 f7bc
000001b0: 88b5 0c3d cdc1 063c 56b6 58b3 42ed db3c
000001c0: 2fdc 2bbd 5d42 d53c 47d6 cbbc afb9 8039
000001d0: ecad e139 da77 28bd 2770 fb3b 4a58 283d
000001e0: 7684 513d 341b c33c 1c81 ccbb f03a 9c3b
000001f0: b98c 10ae cf20 f13a 0452 21bd 959f 78bc
00000200: 9faa 243d 9330 26b8 4022 a53c 1bc0 57bc
00000210: ce0b 1d2f 393a 4c3d d57d a038 4b7f c3bc
00000220: 6d80 2932 62a7 b6bc 7999 4f3d f934 36bd
00000230: 4296 213d 07f0 8cb4 3f84 47bc 4ef0 9eb0
00000240: 143f 763c 308b 1e3c 08a1 62ae 47f9 4dbd
00000250: e140 9cbb 92ee caaf fca6 513d fbca 67af
00000260: 12e1 a0bc c2d9 fc3b 174e 223c 5fd5 2a3d
00000270: 4297 d43c 2e38 4f3d 33b3 053d 5d9c 0f3d
00000280: 6440 5a3b d949 14bc 434e d1bb d60a 963c
00000290: 56f9 a4bc 3049 beb0 4ec1 cbbc de1b 1e36
000002a0: 65d7 f8b4 b6c9 d02e 3b68 353d 563f 193d
000002b0: 46b6 08b9 4267 9d3b 0dae e63c ff41 87bc
000002c0: 4b85 efbc da17 4b3d 56ec 40bd 383c b63c
000002d0: ad4e 0dbd 1dcb 2138 d82e 1a3d d30a 48bd
000002e0: 0bed 9cba 6477 993b 14af dcbc 49b8 133c
000002f0: 4e2a e2bc 4c74 54bd 177f 163c e31b 0cb0
00000300: 10c5 6f3c c4eb 3e2f 5809 74b0 a595 233d
00000310: 6440 0d3d b88e 543c 1ace e33c 2a27 75ba
00000320: 54b3 583c 8466 883b 869e a03c 5f37 413c
00000330: 2e36 573d 9eb1 0fbb 46c7 adbc d35c 473d
00000340: 9806 44bd c732 123c 23ef bcbc c3f1 0ebc
00000350: ee0a 58bc 4b52 49bc 28fd 92bb eb14 c03c
00000360: a357 39b4 c528 993c 46a7 a7af caec 0cbc
00000370: 7071 8cbb d0fc afba 0ab2 203d ff3c 422f
00000380: b402 f83c 57ef 1c3d 422d af3c 760b 423d
00000390: 4763 51bd 1d12 dd3c 5ccb 41bc 9a9d 37bc
000003a0: dea3 6c37 916e 263c 902f 25bb c036 f0bc
000003b0: a51f 2fbd ba2c 533c 5b3d 093d 5d3f 38bd
000003c0: ee98 063d 361c 6a3a 6bc0 0dbd 871f 133d
000003d0: 9aba ccb4 926a 9bbc d27c 2bbd cbcc 192e
000003e0: 99a8 96bc 915b 39bd f738 253d c141 023d
000003f0: 5e87 3ab8 9216 d7ab da15 75bb 9e02 07bc

attention_layer.att.bias f4 [128]
2.6270796e-05 0.0018886526 0.031698443 0.023741618 -0.018106582 -2.9581153e-12 0.0036580423 0.017868426
-0.036081567 -0.023003792 0.049201496 -0.046731114 -0.03551963 0.027363067 0.0002979572 5.567455e-09
2.1215703e-11 -0.026350262 -0.015957767 0.001276377 -1.5061953e-12 -0.020217853 0.034894627 -6.97326e-05
0.009424895 -0.041973557 -0.019856514 -1.8700096e-08 0.00065362867 -1.6940638e-10 0.03047717 1.4046421e-11
0.0496319 0.050256226 -0.01785034 -0.018897707 -4.107615e-13 0.007506999 -0.04850537 -0.018077841
0.046200763 -0.008124117 -0.035086982 0.002634897 0.00020519533 4.258727e-10 -0.0058423327 -0.0060009896
-1.4961476e-13 0.013179429 -0.035320286 0.008871349 -0.020976882 -5.041344e-11 -0.026198577 0.027803661
-0.042485304 -0.010525675 -2.2278551e-10 -7.3047384e-05 0.032122035 1.0471014e-05 -0.052146304 0.016067436
0.0023484938 0.014944605 -0.012774752 7.89663e-07 -0.046896476 -0.052047886 5.0741574e-11 -0.011704328
0.008148718 1.3763019e-05 -0.00035307583 0.0028331499 -0.0241299 0.021668116 0.011668674 0.015781516
-0.039556377 0.027623357 0.0020609766 -2.124326e-10 2.6522114e-11 5.1900173e-12 0.0104953265 0.038766555
0.0014826085 0.019525418 0.02068692 3.2255717e-12 0.020793755 0.050721224 0.00021690475 0.026803013
-0.031486273 4.1759644e-11 0.045206062 0.04601612 0.0014763082 3.1552122e-06 6.283653e-14 -0.0006239431
0.0105503015 -0.0064724972 -0.050829954 -0.032177918 -0.025273401 0.025639309 6.228534e-11 0.020091113
-0.0049977684 0.0022986622 0.043381114 7.904107e-06 -0.03286394 0.025123173 3.588032e-13 0.017698012
-0.00016532358 -0.0042181467 -0.011842658 5.8102247e-05 0.0011500032 -0.04001272 0.042778168 0.05210118
00000000: 1b60 dc37 aa8c f73a 3ad6 013d c87d c23c
00000010: 4154 94bc ab28 50ac c4bb 6f3b ce60 923c
00000020: 44ca 13bd 7372 bcbc 8287 493d 2069 3fbd
00000030: 087d 11bd 8328 e03c 2337 9c39 da4b bf31
00000040: 849d ba2d 81dc d7bc ddb9 82bc 1b4c a73a
00000050: 68fa d3ab e99f a5bc abed 0e3d 683d 92b8
00000060: e06a 1a3c 77ec 2bbd 21aa a2bc f2a1 a0b2
00000070: 4758 2b3a a843 3aaf 42ab f93c 751b 772d
00000080: d24a 4b3d 79d9 4d3d e03a 92bc 5dcf 9abc
00000090: f93c e7aa 46fd f53b 91ad 46bd fb17 94bc
000000a0: 033d 3d3d 041b 05bc 5eb7 0fbd 3cae 2c3b
000000b0: b429 5739 4120 ea2f 0a71 bfbb f3a3 c4bb
000000c0: 8573 28aa 88ee 573c 01ac 10bd 2259 113c
000000d0: b6d7 abbc 7db8 5dae 669e d6bc 81c4 e33c
000000e0: 1205 2ebd e173 2cbc 8cf4 74af 0431 99b8
000000f0: 6592 033d aaac 2f37 5d97 55bd db9f 833c
00000100: 30e9 193b 37da 743c 324d 51bc 3af9 5335
00000110: 8516 40bd 2a30 55bd ef29 5f2e 82c3 3fbc
00000120: 3382 053c b7e7 6637 091d b9b9 5eac 393b
00000130: 11ac c5bc 5581 b13c f72d 3f3c 3d48 813c
00000140: de05 22bd 614a e23c 7311 073b 7692 69af
00000150: 7e4a e92d 859b b62c 97f4 2b3c aec9 1e3d
00000160: 1654 c23a c5f3 9f3c 9e77 a93c bcfa 622c
00000170: aa57 aa3c 0fc1 4f3d ed70 6339 fe91 db3c
00000180: c0f7 00bd 2ea9 372e fe29 393d 667b 3c3d
00000190: af80 c13a 22be 5336 cb7e 8d29 1d90 23ba
000001a0: 2cdb 2c3c 3e17 d4bb 1233 50bd fecc 03bd
000001b0: 2a0a cfbc 8709 d23c 87f7 882e 1e96 a43c
000001c0: 52c4 a3bb 27a5 163b 65b0 313d e29b 0437
000001d0: 579c 06bd 1dcf cd3c fefc c92a 6cfb 903c
000001e0: b65a 2db9 6138 8abb b507 42bc d0b2 7338
000001f0: b4bb 963a 61e4 23bd 2938 2f3d 0c68 553d

attention_layer.gate.weight f4 [128, 128]
0.023009503 -0.009624588 -0.010617989 7.379306e-06 -0.0029608877 0.0005681301 -3.9478902e-05 -0.040390365
-0.039895315 0.0047961515 -0.015364514 0.0014916008 0.0018158541 1.2910451e-12 0.050650552 -0.0016182931
-1.0142421e-12 0.038488954 0.000110241985 0.04814081 -4.1409414e-05 -5.5387363e-07 -0.03990971 -0.026747037
0.0011770031 -2.7193605e-12 -6.898175e-10 -5.885086e-11 0.04056168 -0.034386616 -0.03764169 0.009250006
0.039564747 -0.013133611 -0.031763226 -0.036576223 -0.047390502 0.006131509 -0.0037201662 0.030018935
0.00015834792 0.011668862 0.037645947 0.04887403 0.047202207 -0.02283426 -0.031991195 -0.02644248
0.0010405052 -9.930485e-09 4.3397347e-12 0.022305807 -0.008941762 0.00013274112 -1.9118016e-09 0.011171311
-0.047671467 -2.3991968e-05 0.050418776 0.043829907 0.016384587 0.05118698 -0.03952433 0.033190668
-1.0792492e-05 -0.023901332 0.00092338613 -0.0248179 0.03620549 5.436795e-13 0.006177885 1.0658539e-12
-0.04668811 1.16356e-12 -0.01632001 -0.017525395 1.8812145e-11 -0.035597734 0.0075538605 -0.009056073
6.863767e-11 -0.00036826014 -0.008248004 -0.019549383 9.84114e-11 -0.021185199 0.035318457 8.588286e-06
0.042099167 -0.0005311543 0.00024411059 0.0071618026 -0.017439684 -3.200047e-05 -0.030602712 -0.021238215
-0.0009547168 -0.016781434 0.01893508 6.3695174e-09 -0.007702662 0.04842854 1.4482101e-06 -0.0017497847
-0.02891487 -0.03116947 -0.038398612 0.0032167695 -0.012916452 -5.3917e-06 8.260591e-05 0.002648954
0.0148775475 -0.0034141634 -0.030693911 -0.00083502295 0.014642689 -0.023846066 -5.9648382e-06 0.015790783
-0.034270808 1.0046327e-09 -0.016103689 -1.05565305e-05 -0.04558194 0.00014643003 -4.667182e-12 2.7046055e-05
-0.045844827 -0.009458109 0.027043363 0.01673191 0.04438657 -0.04694166 -0.03463509 0.04504855
-0.011043111 -0.020467903 -0.04280636 0.009544725 0.011522392 -0.052336793 -1.6915612e-05 0.018873176
0.021775562 -0.0021266239 0.049318343 -0.0005199428 -0.0003966997 0.014380209 -0.046537783 0.051858455
-0.02284764 -4.9277685e-05 0.044850934 -8.430694e-09 0.024555326 1.1411971e-05 -0.03203172 9.394948e-09
0.019795336 3.1811754e-07 0.007865929 0.0018380794 0.0029153398 1.1248691e-11 0.0516389 -0.010890934
-0.022295028 -0.039183497 -0.014038828 0.051041078 0.012011675 0.008290692 -0.049981896 0.013296804
0.038354546 -0.043163344 0.012580801 -6.243884e-13 -0.0049694087 0.015069699 -0.050696883 0.027014762
4.532305e-11 -0.02427783 -0.048513822 -0.0072705303 0.030011639 0.002748207 -0.035711497 2.3613288e-06
-0.0029897827 -6.230206e-05 -0.03315054 -0.037675153 -2.4897738e-13 -0.04857353 -0.04378479 0.0025386834
0.042017113 0.037737306 -0.013237034 -0.051134523 0.0011792396 -0.03114975 0.016348073 -0.03375992
-0.0025264283 -0.048546318 0.029167643 -0.0058237463 0.009707882 -0.0066721295 -0.0012491767 -2.2377284e-12
1.1195434e-12 -1.7385613e-05 -0.016530339 -0.011535569 -0.0496609 -3.6489986e-05 8.6283113e-13 0.026457129
-0.01871977 -0.047142398 -5.302418e-14 -0.017308664 0.0137050655 1.6550838e-12 0.037916094 0.024310801
2.7372457e-06 1.1600628e-07 -0.05189922 4.6477386e-10 0.04610265 -0.005958408 -0.011726533 0.0016769175
6.235713e-08 -0.012834258 -8.730601e-12 -0.013124184 -0.047891367 0.016507044 -0.04719289 0.023005107
-0.04697319 -9.509128e-05 -0.041247696 -0.02615986 -0.024315435 0.029905785 0.00017332494 4.1869636e-05
00000000: 6d7e bc3c 73b0 1dbc 13f7 2dbc c29b f736
00000010: 740b 42bb 91ee 143a 2696 25b8 5e70 25bd
00000020: 4569 23bd 0929 9d3b 71bb 7bbc d181 c33a
00000030: f401 ee3a cdb2 b52b f476 4f3d e81c d4ba
00000040: ecbd 8eab 98a6 1d3d b731 e738 4c2f 453d
00000050: 05af 2db8 e8ad 14b5 5d78 23bd 9a1c dbbc
00000060: ac45 9a3a a55b 3fac 979d 3db0 176a 81ae
00000070: 0124 263d fbd8 0cbd 2c2e 1abd 568d 173c
00000080: a50e 223d 5b2e 57bc 281a 02bd f3d0 15bd
00000090: 8b1c 42bd d3ea c83b 08ce 73bb 45ea f53c
000000a0: 320a 2639 c12e 3f3c a332 1a3d 2330 483d
000000b0: 1a57 413d ea0e bbbc 3309 03bd e69d d8bc
000000c0: 9061 883a bc9a 2ab2 dbb0 982c abba b63c
000000d0: 7880 12bc 6c30 0b39 c560 03b1 e007 373c
000000e0: 2843 43bd 5c42 c9b7 eb83 4e3d fd86 333d
000000f0: f838 863c 70a9 513d 44e4 21bd f0f2 073d
00000100: 6611 35b7 bacc c3bc 650f 723a e94e cbbc
00000110: 354c 143d 3d08 192b db6f ca3b 6f01 962b
00000120: 083c 3fbd abc1 a32b 8bb1 85bc 6b91 8fbc
00000130: 2f79 a52d eece 11bd 6086 f73b ec5f 14bc
00000140: 93ef 962e 0a13 c1b9 a322 07bc 0726 a0bc
00000150: b168 d82e 958c adbc 16aa 103d 6816 1037
00000160: 2d70 2c3d 293d 0bba f0f7 7f39 8ead ea3b
00000170: abdd 8ebc 3e38 06b8 8ab2 fabc c4fb adbc
00000180: f645 7aba 3879 89bc be1d 9b3c deda da31
00000190: 9d66 fcbb 015d 463d 1f60 c235 0859 e5ba
000001a0: e1de ecbc 1e57 ffbc dd47 1dbd 70d0 523b
000001b0: 879f 53bc 5aea b4b6 b63c ad38 139a 2d3b
000001c0: f5c0 733c 28c0 5fbb cc71 fbbc 71e5 5aba
000001d0: e4e7 6f3c d358 c3bc 9225 c8b6 ac5b 813c
000001e0: 8c5f 0cbd 5f13 8a30 e2eb 83bc f41b 31b7
000001f0: 21b4 3abd 038b 1939 3d36 a4ac f6e0 e237
00000200: c9c7 3bbd 2ff6 1abc 0b8a dd3c 5c11 893c
00000210: b1ce 353d e645 40bd 86dd 0dbd d484 383d
00000220: 2aee 34bc 4eac a7bc b955 2fbd 7a61 1c3c
00000230: 6ac8 3c3c 1b5f 56bd 00e6 8db7 eb9b 9a3c
00000240: aa62 b23c d45e 0bbb 0802 4a3d c54c 08ba
00000250: 22fc cfb9 f89a 6b3c 679e 3ebd 8869 543d
00000260: f92a bbbc 83af 4eb8 9db5 373d 96d6 10b2
00000270: 4028 c93c 0b76 3f37 b133 03bd 6b67 2132
00000280: d429 a23c bec9 aa34 19e0 003c b6eb f03a
00000290: 490f 3f3b 9ae3 452d 5083 533d e36f 32bc
000002a0: 10a4 b6bc e07e 20bd 1d03 66bc 7310 513d
000002b0: 9ecc 443c afd5 073c d1b9 4cbd d7da 593c
000002c0: a819 1d3d 0ccc 30bd b41f 4e3c edbf 2fab
000002d0: 6cd6 a2bb e6e6 763c 89a7 4fbd 104e dd3c
000002e0: 3855 472e 4de2 c6bc 6eb6 46bd a13d eebb
000002f0: f8da f53c 431b 343b 3846 12bd 5277 1e36
00000300: 3bf0 43bb 2aa8 82b8 dcc8 07bd 4351 1abd
00000310: 6c29 8caa 0af5 46bd ae57 33bd 0a60 263b
00000320: 231a 2c3d 6f92 1a3d 25e0 58bc 6f72 51bd
00000330: b790 9a3a c32d ffbc 65ec 853c d847 0abd
00000340: 6f92 25bb 81d8 46bd fbf0 ee3c 20d5 bebb
00000350: cf0d 1f3c e1a1 dabb 6abb a3ba 5577 1dac
00000360: cd8f 9d2b 52d7 91b7 a26a 87bc afff 3cbc
00000370: 3a69 4bbd d30c 19b8 89dd 722b 9fbc d83c
00000380: 345a 99bc 6318 41bd b8cc 6ea9 e6ca 8dbc
00000390: 368b 603c aeee e82b e84d 1b3d 7227 c73c
000003a0: 86b1 3736 201f f933 4794 54bd 1b83 ff2f
000003b0: 22d6 3c3d c03e c3bb a520 40bc 04cc db3a
000003c0: 32e9 8533 c846 52bc 2297 19ad d106 57bc
000003d0: bd29 44bd c839 873c 554d 41bd 3575 bc3c
000003e0: f666 40bd be6b c7b8 58f3 28bd 344d d6bc
000003f0: 2a31 c7bc fafc f43c 8fbe 3539 2e9d 2f38

attention_layer.gate.bias f4 [128]
-0.03799264 -0.0051188683 0.0003198672 0.023838833 -0.045072686 0.02143158 -4.032881e-05 -0.009310243
0.020389391 -0.00026999647 0.032548957 0.029697571 -0.0008582878 -8.453268e-05 -0.019460028 3.893902e-05
-0.0109806005 -7.2053504e-06 -0.03025265 0.03527945 0.016822198 0.036375813 -0.026910707 -0.021883544
-0.04960712 0.050085153 -0.038235698 -6.1057674e-12 0.041636918 -0.040902887 -0.018841345 0.0049684537
-0.0473119 0.0010404311 -0.0070631825 -0.043166615 -0.043165572 0.010231641 -1.07918945e-08 -7.0980814e-06
0.01738589 -0.024804354 0.02577206 0.008723737 -0.04096394 0.047429893 3.810659e-11 -0.041860815
0.00023853777 -1.0214027e-11 -0.038225446 0.0206194 7.449037e-11 0.036032353 -0.019930126 0.044547807
0.029229624 -0.009707208 -0.024531435 -0.021564195 -0.0001544255 -0.02034158 0.04557698 -0.0438566
-0.00019386467 -0.012358321 -0.02110035 -0.0040633115 -2.5232105e-06 5.8716253e-13 -0.03570029 -0.025316212
0.042213902 -0.043749023 -0.0020868785 0.0006099892 0.02194178 -8.982343e-10 9.894754e-10 -0.0042965394
2.7592191e-06 0.041961536 0.0012368143 0.026125053 0.007110007 0.049144916 3.0574148e-09 0.016168239
0.041317254 0.023455057 -9.291649e-05 -0.043549202 -0.0016040871 8.818062e-08 0.015255247 -0.035304453
0.014145942 -0.011007091 -0.0059838262 0.022871345 0.03313952 0.0040252106 -0.031912666 4.933629e-12
0.009727411 0.0012869567 0.021875756 -2.6145393e-11 0.017846381 -0.006610969 0.027592262 -0.025053425
1.5358971e-11 0.008932643 -0.02545948 0.04547323 0.00026663902 -3.6290191e-07 0.00033443965 -0.0022004656
1.4262923e-10 -0.031386822 -0.024593988 0.01198162 0.045774527 0.04416865 -3.5723599e-12 -0.033988714
00000000: 2c9e 1bbd 2ebc a7bb d9b3 a739 a849 c33c
00000010: 239e 38bd 4891 af3c bb26 29b8 fd89 18bc
00000020: a707 a73c 508e 8db9 0e52 053d 5248 f33c
00000030: b8fe 60ba 2347 b1b8 a36a 9fbc 7452 2338
00000040: fae7 33bc 7dc5 f1b6 68d4 f7bc 2f81 103d
00000050: b5ce 893c cefe 143d d873 dcbc 1e45 b3bc
00000060: d630 4bbd 1726 4d3d 099d 1cbd ddd3 d6ac
00000070: 798b 2a3d c989 27bd 2a59 9abc 69ce a23b
00000080: 1fca 41bd 135f 883a 4572 e7bb 7acf 30bd
00000090: 62ce 30bd 9da2 273c 4167 39b2 0e2c eeb6
000000a0: db6c 8e3c 8032 cbbc ed1f d33c 01ee 0e3c
000000b0: cec9 27bd d945 423d 3598 272e 3f76 2bbd
000000c0: ff1f 7a39 e3af 33ad 4992 1cbd 04ea a83c
000000d0: 5ace a32e a996 133d 8144 a3bc c377 363d
000000e0: f772 ef3c fb0a 1fbc 26f6 c8bc 65a7 b0bc
000000f0: 48ed 21b9 63a3 a6bc edae 3a3d faa2 33bd
00000100: 2748 4bb9 8e7a 4abc a4da acbc 8725 85bb
00000110: 6d54 29b6 8545 252b 783a 12bd f263 cfbc
00000120: 7ce8 2c3d 2d32 33bd 03c4 08bb afe7 1f3a
00000130: 3fbf b33c 9fe7 76b0 12fe 8730 fcc9 8cbb
00000140: 062b 3936 dcdf 2b3d 9a1c a23a 3504 d63c
00000150: 10fb e83b 2e4c 493d 9c1a 5231 4173 843c
00000160: 483c 293d d224 c03c 29dc c2b8 a660 32bd
00000170: 3b40 d2ba cf5d bd33 25f1 793c 679b 10bd
00000180: 62c4 673c 1657 34bc f913 c4bb b05c bb3c
00000190: 4ebd 073d eae5 833b dbb6 02bd 2e96 ad2c
000001a0: b85f 1f3c 1aaf a83a c934 b33c 31fa e5ad
000001b0: 9332 923c d4a0 d8bb 2b09 e23c d73c cdbc
000001c0: 5419 872d 385a 123c 6690 d0bc 2342 3a3d
000001d0: afcb 8b39 dcd4 c2b4 bb57 af39 b035 10bb
000001e0: 8fd2 1c2f 788f 00bd 5579 c9bc 8f4e 443c
000001f0: 127e 3b3d 30ea 343d ea61 7bac c037 0bbd

attention_layer.w.weight f4 [1, 128]
0.015373469 0.04679414 0.023741584 -0.008746594 0.00015935414 -0.0020011438 -7.209032e-10 -0.01205175
-7.443705e-05 0.042995654 0.00067373115 -0.025058916 0.022943905 -3.0140682e-05 0.042481776 -0.011912059
0.025929887 -0.035377294 -0.047937717 -0.04513864 -0.026162082 -0.023813222 -0.03575122 0.042155895
0.02623323 -4.487716e-09 0.00018891232 0.027392713 -0.000906388 0.013161725 0.03186458 -0.012386955
-0.0026365225 0.040462203 -1.0487579e-05 -0.044870026 -0.0033400634 -7.7743223e-10 -0.026458928 0.050814804
0.006587123 -1.8399343e-05 -0.017752826 0.042134628 -0.026331892 0.020374348 -0.020090811 0.03500866
-0.000350349 -0.04810133 0.039846655 -0.01527101 -0.008927294 0.040115323 0.024559438 -0.010260377
-0.005330038 0.042658918 -0.005912073 0.019024003 -0.01697071 -0.031334464 -4.0878704e-06 -0.009822089
0.017723972 5.13341e-09 -0.014648673 2.4496123e-05 0.02182952 3.8072428e-06 0.017394448 -0.017615749
0.022833431 2.832481e-05 0.026090996 0.0046980646 -0.005920906 0.0064594583 1.9899395e-09 -2.9346652e-09
-0.019851955 -0.023584224 3.9038306e-09 0.00024081128 -0.033547986 -0.020858383 -0.051466394 0.003760083
6.389128e-10 -0.026264854 -0.025017282 -0.00027159497 -0.0026539671 1.713623e-05 -0.040352043 -0.03635331
0.004267579 -0.004206155 -0.0064352085 -0.0253639 0.00017301776 0.022503471 -1.3389374e-10 1.9061368e-09
-0.011519593 0.01787963 6.428217e-10 0.039218012 -0.03069508 0.0064109266 0.028564202 0.035119426
-5.7858557e-05 0.018237462 -0.008871005 -0.006334302 -0.0063183317 -0.044922106 0.0005122002 0.030500479
-2.9328213e-09 0.015698716 0.021474896 -0.0034222575 -0.0077538094 0.04975427 0.0055987355 -0.022282213
00000000: 01e1 7b3c 36ab 3f3d b67d c23c e04d 0fbc
00000010: 4d18 2739 9f25 03bb 0e29 46b0 b474 45bc
00000020: 161b 9cb8 361c 303d 559d 303a 5b48 cdbc
00000030: dbf4 bb3c 9fd6 fcb7 5f01 2e3d cc2a 43bc
00000040: ea6a d43c c8e7 10bd 575a 44bd 4be3 38bd
00000050: dd51 d6bc f213 c3bc df6f 12bd a9ab 2c3d
00000060: 12e7 d63c 5e32 9ab1 c416 4639 af66 e03c
00000070: ab9a 6dba 47a4 573c 6f84 023d a8f2 4abc
00000080: 82c9 2cbb b2bb 253d cff3 2fb7 a2c9 37bd
00000090: f7e4 5abb eeb2 55b0 65c0 d8bc 2f23 503d
000000a0: cbd8 d73b 4a58 9ab7 606e 91bc 5c95 2c3d
000000b0: fbb5 d7bc 1be8 a63c 7c95 a4bc 3e65 0f3d
000000c0: 0caf b7b9 e605 45bd 3f36 233d 4233 7abc
000000d0: c943 12bc f74f 243d e030 c93c 241b 28bc
000000e0: 99a7 aebb 1ebb 2e3d 10ba c1bb 3ad8 9b3c
000000f0: 2906 8bbc 9158 00bd 8a2a 89b6 d4ec 20bc
00000100: dd31 913c f461 b031 fd00 70bc 067d cd37
00000110: d2d3 b23c ef7f 7f36 cd7e 8e3c e74e 90bc
00000120: 2d0d bb3c 119b ed37 c9bc d53c 39f2 993b
00000130: 2904 c2bb dda9 d33b 63bf 0831 2dab 49b1
00000140: 91a0 a2bc b433 c1bc 7522 8631 4982 7c39
00000150: 9d69 09bd 33df aabc 6dce 52bd ba6b 763b
00000160: 7e9f 2f30 6429 d7bc 0bf1 ccbc dc64 8eb9
00000170: 2eee 2dbb c6bf 8f37 2f48 25bd 35e7 14bd
00000180: 0cd7 8b3b c9d3 89bb 71de d2bb f4c7 cfbc
00000190: 1a6c 3539 3359 b83c bd37 13af 1dfd 0231
000001a0: adbc 3cbc 4d78 923c 8eb2 3030 11a3 203d
000001b0: 4074 fbbc c012 d23b 79ff e93c 63d9 0f3d
000001c0: 27ad 72b8 bb66 953c b157 11bc fa8f cfbb
000001d0: 020a cfbb 3e00 38bd 2c45 063a 24dc f93c
000001e0: bd8a 49b1 989a 803c 1fec af3c f447 60bb
000001f0: ab13 febb 22cb 4b3d 9975 b73b 3089 b6bc

mlp.0.0.weight f4 [128, 128]
-0.026240958 -0.009630219 0.0037410902 0.047474317 -0.028072987 -1.5773375e-06 0.03597667 0.012371722
-0.048304915 0.04856093 0.021888467 0.0038202622 -0.03393577 0.0040410706 -7.719534e-07 0.045068514
0.045422282 5.1745906e-06 -1.6043585e-05 0.04197537 -0.016941035 -0.017905256 -0.051323775 -0.025993159
-0.03609433 -0.045881532 0.0039956286 0.035873104 1.4993794e-06 0.046326976 -0.016459847 0.0014205987
0.0360221 1.2556731e-07 3.8997214e-06 -2.6927787e-06 -0.013643737 0.008260747 -0.012149235 -0.013867556
3.3245738e-06 -0.00025209118 1.1009128e-06 -0.0051635033 -0.0313267 -0.027322514 0.048866473 0.024408983
-0.002851752 -7.518042e-07 0.050225094 -0.017650474 0.0044142604 1.8707115e-06 0.0074729756 0.023104316
0.017985204 0.0013097647 -0.013557127 -0.012989034 -0.051365767 0.00021898375 0.0006769925 -0.0050792135
-0.010187111 0.034899265 -0.039624892 -0.00437043 -1.0885846e-07 2.6389722e-05 0.0058119544 -0.051044732
-0.049532253 0.020120254 0.034598764 -0.046541046 0.0007184024 -0.00941487 0.034751743 -0.013336
-5.2643454e-06 -0.011954618 -2.1502142e-08 -7.860715e-06 -0.041086514 -1.587596e-06 0.0041182996 2.1015512e-06
5.23856e-06 0.02682072 7.475743e-05 -0.046951402 -0.014845551 -0.01868211 0.040966652 -0.02076309
0.007513605 -0.001940979 0.039740734 0.012441252 0.00017455939 -0.02648726 0.0025015932 0.028097298
1.2441739e-06 0.00024040621 0.003322715 0.030279068 -0.043129195 -0.012728093 -0.010592321 -0.007205274
0.00053598813 0.0039252187 -0.029036291 -0.0246513 0.00029179433 0.0011394033 5.41957e-07 -1.0419246e-05
-5.6215135e-06 -0.047739703 0.05237901 -0.028623898 -0.027300939 1.4322279e-06 0.03385366 7.699193e-07
0.0009728678 0.026312962 0.01032472 -0.044056527 -2.80758e-05 -0.022062521 -0.00010348852 0.018616484
0.0129299555 4.0567422e-05 -0.031861156 -0.0067612412 -0.015634973 -3.5372235e-05 0.0063764197 0.026749743
0.009304265 -0.047593474 -0.012274726 0.00011886438 0.005253731 0.04819153 8.1813414e-05 0.0022693775
0.03714846 -0.0036679076 0.00558856 -3.5411224e-06 0.052257724 -0.029269444 0.031206379 -0.0039919526
0.05204744 0.018332297 -0.0022817194 -0.04181907 0.0042931456 -0.04199801 0.03579819 -0.022999702
-0.010437932 -0.027525755 -0.021552581 0.046924908 0.039669655 0.028926902 0.013232094 -0.007810574
-0.028673625 -0.008935333 -0.01797494 0.03633175 1.0859756e-05 0.0066213612 0.00535107 -0.00018093469
1.6282362e-05 0.00010046739 4.1354713e-05 0.000115203 0.011052598 0.024059856 -0.000112922586 -0.02490644
7.6815464e-05 -0.036940824 0.051481918 -0.010035408 -0.00042493935 0.00021236247 0.019833751 0.034458715
0.05264523 3.5254987e-05 -0.046168614 0.010077846 -0.00012760055 0.016277049 8.3623604e-07 0.00027009324
0.027056016 0.033262435 0.04935654 0.039194416 -0.009517033 -0.005496336 -0.0021391958 -0.0030762018
-0.018493367 8.630169e-05 -0.009463578 -4.5396087e-06 0.00030352513 0.00026447716 -6.065406e-05 0.021393554
7.0223285e-07 -4.1977665e-07 0.0030810246 0.036131293 -0.015579243 0.030981634 1.150036e-05 6.354442e-05
4.6765443e-05 0.0101144165 -0.00014320295 0.04534953 -0.007194375 -0.019803109 -0.04420177 4.555167e-05
-3.2392467e-07 -0.0071616825 0.00223976 0.009768325 0.004023754 0.012955693 -0.026814923 -0.03731181
0.016451305 -0.000103238366 -0.011616903 -1.0222685e-05 -2.1796925e-05 -0.0011937321 7.695457e-06 -0.049994197
00000000: 47f7 d6bc 11c8 1dbc 142d 753b 6e74 423d
00000010: 52f9 e5bc e7b4 d3b5 465c 133d c3b2 4a3c
00000020: 60db 45bd d3e7 463d 714f b33c 5d5d 7a3b
00000030: 3c00 0bbd f56a 843b 3c38 4fb5 c399 383d
00000040: b70c 3a3d 65a1 ad36 5695 86b7 5eee 2b3d
00000050: edc7 8abc 0bae 92bc e138 52bd 9bef d4bc
00000060: a6d7 13bd 46ee 3bbd c3ed 823b adef 123d
00000070: 493e c935 5bc1 3d3d cdd6 86bc 6233 ba3a
00000080: e98b 133d aed3 0634 5ada 8236 96b5 34b6
00000090: fb89 5fbc 1658 073c 960d 47bc bf34 63bc
000000a0: be1b 5f36 1b2b 84b9 13c3 9335 9b32 a9bb
000000b0: 6d50 00bd 77d3 dfbc 3628 483d 59f5 c73c
000000c0: 76e4 3abb 97cf 49b5 d4b8 4d3d ba97 90bc
000000d0: 80a5 903b 2815 fb35 dddf f43b 4345 bd3c
000000e0: b555 933c 69ac ab3a b61e 5ebc f5cf 54bc
000000f0: e964 52bd 019f 6539 3378 313a 886f a6bb
00000100: d7e7 26bc 88f2 0e3d b64d 22bd d335 8fbb
00000110: 92c5 e9b3 7f5f dd37 3572 be3b 4814 51bd
00000120: 55e2 4abd 3bd3 a43c 6fb7 0d3d d3a1 3ebd
00000130: 2b53 3c3a d440 1abc d857 0e3d 3d7f 5abc
00000140: 62a4 b0b6 4ddd 43bc b6b3 b8b2 84e1 03b7
00000150: 554a 28bd 6215 d5b5 cdf2 863b 6008 0d36
00000160: e3c6 af36 20b7 db3c 17c7 9c38 1d50 40bd
00000170: c13a 73bc 390b 99bc a6cc 273d 5b17 aabc
00000180: b034 f63b 7368 feba 2ec7 223d 65d6 4b3c
00000190: ee09 3739 cffb d8bc c5f1 233b 4e2c e63c
000001a0: 7dfd a635 8d15 7c39 e8c1 593b cf0b f83c
000001b0: 3da8 30bd 7e89 50bc 6a8b 2dbc 381a ecbb
000001c0: 8e81 0c3a 1f9f 803b 84dd edbc 86f1 c9bc
000001d0: f9fb 9839 0858 953a 007b 1135 52ce 2eb7
000001e0: 6fa0 bcb6 b58a 43bd 5f8b 563d aa7c eabc
000001f0: 38a6 dfbc fa3a c035 23aa 0a3d 74ac 4e35
00000200: 0e08 7f3a 488e d73c 0429 293c 9e74 34bd
00000210: 5284 ebb7 76bc b4bc fa07 d9b8 9981 983c
00000220: 2ad8 533c f026 2a38 d880 02bd 678d ddbb
00000230: ea14 80bc a65c 14b8 49f1 d03b 4722 db3c
00000240: ea70 183c 60f1 42bd ef1b 49bc d446 f938
00000250: 7d27 ac3b 7b64 453d 3e93 ab38 d6b9 143b
00000260: fc28 183d 4761 70bb 3d20 b73b 05a4 6db6
00000270: 320c 563d 79c6 efbc 85a4 ff3c edce 82bb
00000280: b22f 553d 9d2d 963c e688 15bb 794a 2bbd
00000290: 84ad 8c3b 1b06 2cbd 1fa1 123d df69 bcbc
000002a0: dc03 2bbc b17d e1bc 0a8f b0bc 5534 403d
000002b0: a67c 223d 1cf8 ec3c 6dcb 583c d8ef ffbb
000002c0: f3e4 eabc 8165 12bc 2e40 93bc 9ad0 143d
000002d0: 4c32 3637 01f8 d83b 0758 af3b 49b9 3db9
000002e0: 1b96 8837 05b2 d238 4974 2d38 2499 f138
000002f0: f515 353c 2d19 c53c dad0 ecb8 9708 ccbc
00000300: fd17 a138 434f 17bd b4de 523d 8d6b 24bc
00000310: 65ca deb9 9ead 5e39 647a a23c 9524 0d3d
00000320: 86a2 573d c1de 1338 4d1b 3dbd 8d1d 253c
00000330: 83cc 05b9 7257 853c b479 6035 4d9b 8d39
00000340: 94a4 dd3c 313e 083d 152a 4a3d 538a 203d
00000350: 54ed 1bbc 9c1a b4bb c031 0cbb 1a9a 49bb
00000360: 677f 97bc defc b438 200d 1bbc f152 98b6
00000370: 7422 9f39 86a9 8a39 cd66 7eb8 8941 af3c
00000380: 1381 3c35 aa5d e1b4 04eb 493b 68fe 133d
00000390: 1540 7fbc 32cd fd3c acf1 4037 2743 8538
000003a0: 0326 4438 f0b6 253c c028 16b9 6ec0 393d
000003b0: cbbe ebbb 213a a2bc ea0c 35bd bc0e 3f38
000003c0: dee7 adb4 8cac eabb f0c8 123b 530b 203c
000003d0: b2d9 833b 1d44 543c f8aa dbbc 45d4 18bd
000003e0: e3c4 863c ad81 d8b8 d354 3ebc 1982 2bb7
000003f0: 8ad8 b6b7 0177 9cba bc1b 0137 b7c6 4cbd
