dataset/models/PDAC_Hwang22_Malignlineage.Neuroendocrinelike/model.pth (torch, 696702 bytes, 14 tensors)

tiles_emb.hidden_layers.0.weight f4 [128, 768]
-0.41651344 0.39503366 0.12745172 0.47818905 0.46481547 -0.47006798 -0.3658698 -0.50062096
-0.38821092 -0.46976557 0.50073063 0.39734182 0.2041891 0.34978172 0.22924608 0.083988294
0.45513883 0.45938274 0.5131707 -0.4761209 -0.48217356 0.25889325 -0.48219892 -0.450065
0.49279782 -0.4873595 0.5696104 -0.46277705 0.5372079 -0.45400506 -0.1565041 -0.5076002
-0.46294922 -0.47128454 -0.44592106 -0.47551063 0.45344877 -0.00022670718 0.34668848 -0.45884785
0.45993122 0.323052 0.43929848 -0.58700716 -0.5571898 0.5327436 -0.31903094 -0.5436353
0.4278952 0.592691 0.52119416 0.5755567 0.3861576 -0.4160229 0.39545667 -0.4835205
0.46076724 -0.3732507 0.13204424 -0.46110082 -8.508163e-09 0.47434062 -0.3784502 -0.4879749
0.09386772 -0.55019885 -0.3218893 0.47101843 0.39880532 -0.57161295 -0.47377133 0.3906383
0.05524256 -0.47803578 -0.26775295 0.42143434 -0.5984197 -0.48341477 -0.45999226 0.42542458
0.45211732 0.31819278 0.4953631 -6.476746e-07 -0.41529635 0.36497062 -0.3921316 0.47477704
0.44118613 0.56268543 0.5886111 0.46009552 -0.4747884 0.42140797 0.5495246 -0.48003972
-0.46687758 0.41512236 0.1276811 -0.04965125 -0.57831264 -0.43691486 -0.35888377 0.5666867
0.5344799 -0.00023030717 -0.061859783 -0.443601 0.016268237 0.4405283 0.35751483 -0.59031606
0.4098275 0.44996428 0.4436503 0.42378187 -0.5051433 0.458383 -0.34555927 -0.4058507
0.4777376 -0.5114086 -0.44002792 0.45733365 -0.32021844 -0.2712136 -0.3556782 -0.44564056
0.4427447 0.5011046 -2.5410594e-07 0.4629898 -0.35221812 0.36873388 0.4537027 0.46959704
-0.56685174 0.44592604 0.20777802 0.002191854 0.4458411 -0.3851219 0.32832834 -0.3799618
0.45653647 -0.440072 0.4963809 0.4731712 7.197574e-10 0.47498846 -0.1730028 0.3062343
-0.41039488 -0.027602337 -0.46962819 0.45134816 -0.03311702 -0.4575553 -0.47277692 -0.41223288
0.5520071 -0.46684372 0.49369213 0.43929085 0.3047012 -0.4485108 0.4237819 -0.5106568
-0.018515307 -0.40818992 0.03791793 0.30650693 0.46167085 -0.5437303 0.42551523 0.47079465
-0.43992913 -0.5652099 0.44414884 -0.28212115 -0.4341832 -0.58091784 -0.4373413 -0.32337916
0.5080797 -0.3836007 -0.47395778 0.45987338 -0.43181026 -0.21832454 0.56048816 -0.43970367
-0.4129164 -0.4931264 0.43271452 0.17792735 0.1372662 -0.55723625 -0.00087013707 0.61042774
-0.14429006 0.3848973 -0.30763713 0.46228474 0.4307425 0.47775787 -0.034397762 -0.14514646
5.6624873e-07 0.4628431 0.58001655 -0.4236861 0.005265673 0.39735582 0.4445699 -3.682102e-05
0.48809594 0.4521076 -0.47155425 0.4152134 0.5722265 0.091551065 0.4285413 -0.45183554
0.38149637 -0.30876288 0.4093786 0.46462214 -0.43135387 -0.27347216 -0.3804702 -0.44462115
0.42749643 -0.4028993 0.4637768 0.0020990302 0.49211892 0.30263558 0.50902605 -0.44784698
-0.45559034 -0.53468776 0.56995773 0.30744058 0.31494352 -0.54842806 0.33720002 -0.33591825
-0.46855894 0.3400713 -0.49589247 0.42622256 -0.5045284 -0.4663604 -0.5186249 0.462902
00000000: 4041 d5be da41 ca3e b482 023e 32d5 f43e
00000010: 4bfc ed3e c0ac f0be 4953 bbbe b228 00bf
00000020: 95c3 c6be 1d85 f0be e22f 003f 6370 cb3e
00000030: f316 513e 9716 b33e 7cbf 6a3e 0e02 ac3d
00000040: f507 e93e 3734 eb3e 285f 033f 1ec6 f3be
00000050: 74df f6be a88d 843e c7e2 f6be eb6e e6be
00000060: ff4f fc3e 2f87 f9be fdd1 113f 1df1 ecbe
00000070: 7586 093f 5a73 e8be 9c42 20be 16f2 01bf
00000080: ae07 edbe 354c f1be c44f e4be 2176 f3be
00000090: 702a e83e 3fb8 6db9 2781 b13e 1bee eabe
000000a0: 1b7c eb3e 1267 a53e bbeb e03e 1a46 16bf
000000b0: fea3 0ebf e261 083f 0658 a3be af2b 0bbf
000000c0: 1415 db3e 99ba 173f fb6c 053f af57 133f
000000d0: 73b6 c53e f400 d5be 4c79 ca3e 0090 f7be
000000e0: afe9 eb3e b71a bfbe 9b36 073e 6815 ecbe
000000f0: 4c2b 12b2 c6dc f23e 3ac4 c1be d9d7 f9be
00000100: b83d c03d d5d9 0cbf adce a4be 5429 f13e
00000110: 3630 cc3e 3a55 12bf 2892 f2be be01 c83e
00000120: 0646 623d 1bc1 f4be ea16 89be 3ec6 d73e
00000130: 0932 19bf 2482 f7be 1b84 ebbe 40d1 d93e
00000140: ec7b e73e 2aea a23e 3ba0 fd3e dcdb 2db5
00000150: b9a1 d4be 6edd ba3e 79c5 c8be fa15 f33e
00000160: 26e3 e13e 270c 103f 38af 163f a491 eb3e
00000170: 7717 f3be c9c2 d73e a5ad 0c3f c4c7 f5be
00000180: 940a efbe eb8a d43e d6be 023e 1c5f 4bbd
00000190: 4c0c 14bf 4eb3 dfbe 9dbf b7be 6112 113f
000001a0: add3 083f 9c7e 71b9 af60 7dbd ac1f e3be
000001b0: f744 853c ed8c e13e 2f0c b73e f41e 17bf
000001c0: e9d4 d13e b861 e63e 2226 e33e f0f9 d83e
000001d0: 1251 01bf 2db1 ea3e 25ed b0be aacb cfbe
000001e0: 069a f43e adeb 02bf 574b e1be a327 ea3e
000001f0: acf3 a3be 82dc 8abe 741b b6be 002b e4be
00000200: 6faf e23e 6448 003f 0e6c 88b4 000d ed3e
00000210: ef55 b4be b0ca bc3e b84b e83e 066f f03e
00000220: 321d 11bf 6b50 e43e c3c3 543e 35a5 0f3b
00000230: 4945 e43e b32e c5be a71a a83e 5a8a c2be
00000240: 26bf e93e 1e51 e1be a325 fe3e 7f43 f23e
00000250: 6dd8 4530 b031 f33e a527 31be beca 9c3e
00000260: 471f d2be 4c1e e2bc 1b73 f0be 1b17 e73e
00000270: b6a5 07bd b044 eabe d10f f2be 3010 d3be
00000280: 5650 0d3f 2406 efbe 37c5 fc3e bbea e03e
00000290: cc01 9c3e 35a3 e5be f1f9 d83e 67ba 02bf
000002a0: 6aad 97bc 45fe d0be d54f 1b3d 7aee 9c3e
000002b0: 1f60 ec3e e931 0bbf 22dd d93e ff0b f13e
000002c0: 643e e1be 99b1 10bf 7a67 e33e 2f72 90be
000002d0: 434d debe 08b7 14bf 33eb dfbe f491 a5be
000002e0: 8311 023f 5067 c4be 98aa f2be 8674 eb3e
000002f0: 3c16 ddbe 7890 5fbe 277c 0f3f d720 e1be
00000300: c769 d3be 107b fcbe c28c dd3e 9632 363e
00000310: 838f 0c3e 09a7 0ebf e919 64ba fe44 1c3f
00000320: c6c0 13be 4211 c53e 9d82 9dbe 96b0 ec3e
00000330: 488a dc3e ae9c f43e abe4 0cbd 46a1 14be
00000340: 5100 1835 c5f9 ec3e f77b 143f 62ed d8be
00000350: ab8b ac3b 3972 cb3e aa9e e33e 4570 1ab8
00000360: b6e7 f93e a67a e73e 8f6f f1be da96 d43e
00000370: 707d 123f 207f bb3d c469 db3e fd56 e7be
00000380: 7e53 c33e 2b16 9ebe 129a d13e f4e2 ed3e
00000390: 6ada dcbe 8b04 8cbe fdcc c2be 62a5 e3be
000003a0: d0e0 da3e d148 cebe 2774 ed3e e28f 093b
000003b0: 03f7 fb3e 0df3 9a3e 884f 023f 334c e5be
000003c0: 2343 e9be 4ce1 08bf c0e8 113f da68 9d3e
000003d0: 4740 a13e c865 0cbf 7ba5 ac3e 7afd abbe
000003e0: f5e6 efbe d31d ae3e 9ee5 fdbe d839 da3e
000003f0: c628 01bf cac6 eebe 9ac4 04bf 7e01 ed3e

tiles_emb.hidden_layers.0.bias f4 [128]
-0.52426726 -0.51301676 -0.9173178 -0.003781511 -0.10375816 -1.6541183 -0.48463935 -0.20411138
-0.3864525 -0.48741877 -0.55206406 -0.7136704 -1.4485362 -0.6748015 -0.60634625 -0.5794773
-0.48312652 -0.47134492 -0.46936092 -0.5020652 -0.0022291536 -0.5426953 -0.4470524 -4.9010276e-05
-0.5346414 -0.55053437 -0.80483353 -0.4507677 -0.05552031 -0.5490091 -0.6492747 -0.5385968
-0.9832665 -0.55315036 -0.64645875 -0.47398856 -0.5265858 -0.52295023 -0.49388003 -0.7284897
-0.5286168 -0.56241506 -0.6215167 -0.39412212 -0.5755324 -0.3152834 -0.69025767 -0.564573
-0.11534786 -0.9907679 -0.57370526 -0.4515989 -0.24416827 -0.14117578 -0.020593137 -0.55815506
-0.51399475 -0.0027172023 -0.6269413 -0.64016515 -0.16723922 -0.57065374 -0.5141016 -0.50002915
-0.49035046 -0.10986416 -0.07061825 -0.53219587 -0.7499135 -0.013341318 -0.0002062815 -0.027314734
-0.5633136 -0.15054515 -0.75126946 -0.46943706 -0.5098726 -0.049896892 -0.54156417 -0.47770968
-0.5005322 -0.53940934 -0.5303172 -0.17872137 -0.39120406 -0.685735 -0.99421245 -0.07401792
-0.532629 -0.50216305 -0.5205615 -0.4829259 -0.7097683 -0.44815388 -0.5372068 -0.52605087
-0.38311696 -0.52525145 -0.5969457 -0.62777454 -0.57194245 -0.49075982 -0.45709124 -0.06395475
-0.4913501 -1.1547753 -0.5360671 -0.1541722 -0.49354243 -0.49353814 -0.08476355 -1.7349143e-05
-0.0007673501 -0.47445214 -0.62795234 -0.58612114 -0.47657365 -0.621448 -0.91883427 -0.63195235
-0.4935268 -0.27159816 -0.45195395 -0.054135777 -0.3558642 -0.5694537 -0.55883944 -0.0014387678
00000000: 6136 06bf 1155 03bf 57d5 6abf 3ad3 77bb
00000010: 287f d4bd 26ba d3bf a622 f8be 9302 51be
00000020: 1add c5be f48e f9be 1254 0dbf 1ab3 36bf
00000030: a269 b9bf cbbf 2cbf 8239 1bbf a058 14bf
00000040: 5c5c f7be 1f54 f1be 1350 f0be 5887 00bf
00000050: fe16 12bb 14ee 0abf 0de4 e4be 6290 4db8
00000060: 42de 08bf d2ef 0cbf 9209 4ebf 06cb e6be
00000070: 4469 63bd dc8b 0cbf de36 26bf 7be1 09bf
00000080: 5ab7 7bbf 439b 0dbf 527e 25bf a1ae f2be
00000090: 54ce 06bf 11e0 05bf d8dd fcbe 4d7e 3abf
000000a0: 6e53 07bf 6ffa 0fbf b81b 1fbf 60ca c9be
000000b0: 1756 13bf d36c a1be bab4 30bf db87 10bf
000000c0: 803b ecbd f7a2 7dbf 59de 12bf f937 e7be
000000d0: 3f07 7abe 6290 10be f0b2 a8bc 40e3 0ebf
000000e0: 2995 03bf 1713 32bb 3a7f 20bf dde1 23bf
000000f0: c240 2bbe 5d16 12bf 2a9c 03bf e901 00bf
00000100: 370f fbbe 7600 e1bd 4da0 90bd fd3d 08bf
00000110: 55fa 3fbf 8b95 5abc 454d 58b9 26c3 dfbc
00000120: 5235 10bf 8228 1abe 3253 40bf 0e5a f0be
00000130: 0387 02bf af60 4cbd f3a3 0abf 5d96 f4be
00000140: e122 00bf bb16 0abf dec2 07bf bc02 37be
00000150: e64b c8be 548c 2fbf b584 7ebf b596 97bd
00000160: 605a 08bf c28d 00bf 8543 05bf 1042 f7be
00000170: 60b3 35bf 6d74 e5be 6386 09bf 45ab 06bf
00000180: e827 c4be e176 06bf 6fd1 18bf d5b5 20bf
00000190: d26a 12bf df44 fbbe dd07 eabe b5fa 82bd
000001a0: 3e92 fbbe adcf 93bf b23b 09bf 51df 1dbe
000001b0: 98b1 fcbe 08b1 fcbe 8398 adbd 0089 91b7
000001c0: fe27 49ba 64eb f2be 7cc1 20bf 090c 16bf
000001d0: 7601 f4be 3717 1fbf b938 6bbf a1c7 21bf
000001e0: 8baf fcbe ea0e 8bbe 8266 e7be 7abd 5dbd
000001f0: d533 b6be b8c7 11bf 1a10 0fbf 0995 bcba

tiles_emb.hidden_layers.2.weight f4 [128, 128]
-0.020379124 0.030739373 0.18768206 -0.00020670699 -0.008716094 -0.17093913 0.18767098 -0.037844338
0.3191421 0.41255987 0.4815281 0.35706446 -0.7634868 0.3621606 -0.38437575 -0.543447
0.47473773 0.45461047 0.3904331 0.19521306 -0.019680493 -0.40089512 0.46643704 -2.1489028e-09
0.39337537 0.34030038 0.15097168 0.32819685 -0.1758636 0.39740843 0.35639268 0.30840805
0.03218682 -0.39857635 0.37922752 0.2844639 0.30016518 0.3521904 -0.29884222 0.4893926
-0.3931839 0.4529289 0.01662164 0.49332663 0.42089477 -0.0035602958 0.3583033 0.5241035
6.961818e-10 -5.1565426e-08 0.35339263 -0.4205979 0.41294286 -0.21112554 3.765216e-10 0.39485884
-0.3881633 -1.5682099e-09 0.24646898 0.41316748 -3.6149705e-09 0.48726377 -0.33627585 0.2591199
0.51706135 -0.27260646 -0.09202141 0.41428247 -0.849828 -0.04931974 -0.00015900786 -0.004231473
0.48132738 -0.025585791 0.4895104 0.46170625 0.33370483 -0.00052054605 0.43160692 0.37136966
0.4440468 0.38237143 0.3359054 -0.0566034 0.42206872 0.46972936 0.00052556285 1.3518266e-07
0.5242876 0.40582153 0.32660487 0.35943928 0.39792514 0.42972758 -0.105306335 0.41823554
-0.52742 0.48797756 0.35800818 0.5014904 0.36314368 0.049080912 0.39215612 -7.3912454e-09
0.38825837 0.6933874 0.48940325 -0.17441757 -0.37917158 -0.4178158 -0.50602514 -0.0025547228
-0.009438429 0.40994248 0.42123792 0.529963 0.34864146 0.4706198 0.10737413 0.42724675
-0.07594852 -0.28882673 0.37598702 -0.0045624613 0.50624555 0.3758749 0.49065715 -5.3149685e-10
-0.03337641 -0.26929322 0.08545831 -0.04334278 -0.109094955 -0.4158169 0.24031313 -0.17308995
-0.3481214 -0.42355272 -0.49488965 0.5229005 1.0291834 -0.4620747 0.29334405 0.32061982
-0.46704584 -0.47419563 -0.4141589 0.07959401 -0.13764584 0.31412116 -0.43859282 -5.5692695e-08
-0.40586632 -0.3509382 0.16095988 -0.34159756 -0.3210212 -0.4984905 0.3345831 0.14367312
-0.2294139 0.34686354 -0.39954528 0.49017897 0.34451908 0.44082743 -0.04621688 0.5407335
0.33299506 0.7121807 -0.18879154 0.4888078 0.6299859 -0.077644415 0.47003442 0.6290674
0.00011846443 -0.00050538377 0.58730924 0.3190835 -0.45502824 -0.39490995 -1.549599e-09 -0.41769552
0.38986987 -1.1124454e-08 -0.47320226 -0.49584842 2.7341494e-07 0.7076155 0.26517233 0.28719512
0.58885294 -0.30607927 -0.3052137 0.45892695 -0.15290642 -0.1743752 -0.031164525 -0.08218496
-0.5397957 -0.18190508 0.53468233 0.5613612 0.46532425 -0.056326404 0.44942325 0.44253972
0.6830934 0.52269363 0.5686317 -0.24976183 -0.3995129 0.31090084 -0.027294364 -0.013519892
0.6790931 -0.49154553 0.4658272 -0.37336928 0.5600908 -0.3802178 -0.0831597 -0.41324824
0.16329224 -0.52560276 0.5700054 -0.5345617 0.6290685 0.076926276 -0.4302817 -0.00016631883
0.34667122 -0.012406516 0.39001533 -0.33908042 0.2777655 0.35591304 -0.604802 -0.09064179
-0.112598725 0.33688703 -0.45770016 0.48477846 0.40232462 -0.56112736 -1.2454531 -0.4868901
4.8408637e-09 -0.43181428 -0.4121624 -0.1033568 -0.32795036 0.5601918 0.5593706 -3.322154e-09
00000000: 1ff2 a6bc 23d1 fb3c ba2f 403e 7cbf 58b9
00000010: f3cd 0ebc ab0a 2fbe d22c 403e aa02 1bbd
00000020: 9866 a33e 0c3b d33e da8a f63e 27d1 b63e
00000030: df73 43bf 1d6d b93e e6cc c4be 581f 0bbf
00000040: d310 f33e b4c2 e83e d9e6 c73e efe5 473e
00000050: fc38 a1bc 2042 cdbe d6d0 ee3e e6ab 13b1
00000060: 7f68 c93e da3b ae3e 5298 1a3e 6b09 a83e
00000070: 9615 34be 1e79 cb3e 1a79 b63e a9e7 9d3e
00000080: 54d6 033d 3312 ccbe 1c2a c23e 41a5 913e
00000090: 40af 993e 4d52 b43e d901 99be ab91 fa3e
000000a0: 664f c9be 4ce6 e73e 1b2a 883c 4f95 fc3e
000000b0: 857f d73e da53 69bb 8873 b73e a62b 063f
000000c0: 705d 3f30 c978 5db3 e1ef b43e 9c58 d7be
000000d0: 3f6d d33e 4b31 58be b4fe ce2f f02a ca3e
000000e0: 57bd c6be 7b88 d7b0 5d62 7c3e b08a d33e
000000f0: 3c6b 78b1 a37a f93e 592c acbe 5dab 843e
00000100: 225e 043f 1393 8bbe b975 bcbd d51c d43e
00000110: 548e 59bf 7f03 4abd 59bb 26b9 2ba8 8abb
00000120: 8b70 f63e 4b99 d1bc 1ba1 fa3e c364 ec3e
00000130: 5cdb aa3e 4175 08ba 95fb dc3e 2a24 be3e
00000140: 1a5a e33e 30c6 c33e cbfb ab3e f7d8 67bd
00000150: 6419 d83e 5e80 f03e edc5 093a ba26 1134
00000160: b637 063f d7c7 cf3e c138 a73e 6d08 b83e
00000170: d8bc cb3e 4105 dc3e d9aa d7bd f822 d63e
00000180: ff04 07bf 32d8 f93e d94c b73e ad61 003f
00000190: f8ed b93e 1109 493d b0c8 c83e 15f6 fdb1
000001a0: cdc9 c63e d681 313f 1093 fa3e 859a 32be
000001b0: c722 c2be f4eb d5be dd8a 01bf 236d 27bb
000001c0: a4a3 1abc fbe3 d13e 7fac d73e a8ab 073f
000001d0: 2281 b23e 14f5 f03e f8e6 db3d 16c0 da3e
000001e0: e68a 9bbd 19e1 93be 5f81 c03e b380 95bb
000001f0: 4f99 013f ad72 c03e 6a37 fb3e c418 12b0
00000200: b4b5 08bd cde0 89be c404 af3d 3388 31bd
00000210: 2d6d dfbd f4e5 d4be a514 763e 7e3e 31be
00000220: f83c b2be e7db d8be 2d62 fdbe cfdc 053f
00000230: 48bc 833f 0e95 ecbe 3131 963e 4828 a43e
00000240: a220 efbe c5c9 f2be a30c d4be 2f02 a33d
00000250: 08f3 0cbe 7dd4 a03e 3d8f e0be c432 6fb3
00000260: b6cd cfbe 2cae b3be abd2 243e e0e5 aebe
00000270: e45c a4be 263a ffbe 7a4e ab3e 0c1f 133e
00000280: 7aeb 6abe 1998 b13e 3391 ccbe bdf8 fa3e
00000290: ce64 b03e 22b4 e13e e94d 3dbd 836d 0a3f
000002a0: 547e aa3e 7951 363f 9252 41be 0445 fa3e
000002b0: c246 213f 0904 9fbd 5aa8 f03e 900a 213f
000002c0: 1b70 f838 bb7b 04ba e659 163f ea5e a33e
000002d0: 76f9 e8be a331 cabe abf9 d4b0 30dc d5be
000002e0: 069d c73e de1d 3fb2 9147 f2be d8df fdbe
000002f0: ddc9 9234 4a26 353f abc4 873e 3d0b 933e
00000300: 11bf 163f 6cb6 9cbe f844 9cbe 79f8 ea3e
00000310: 8093 1cbe 6a8f 32be bf4c ffbc 9750 a8bd
00000320: 0d30 0abf 5345 3abe f1e0 083f 5eb5 0f3f
00000330: fb3e ee3e 84b6 66bd ce1a e63e 9194 e23e
00000340: 36df 2e3f 40cf 053f d991 113f 91c1 7fbe
00000350: f48c ccbe 652e 9f3e 6e98 dfbc 8982 5dbc
00000360: 0cd9 2d3f dbab fbbe e780 ee3e 422a bfbe
00000370: 1c62 0f3f e8ab c2be a24f aabd 4695 d3be
00000380: 1536 273e e78d 06bf e0eb 113f 09d9 08bf
00000390: a20a 213f 868b 9d3d e24d dcbe df65 2eb9
000003a0: e47e b13e b344 4bbc 17b0 c73e f39b adbe
000003b0: 4837 8e3e 3c3a b63e 4ed4 1abf 67a2 b9bd
000003c0: 299a e6bd 757c ac3e ad57 eabe e234 f83e
000003d0: 7efd cd3e 0ba6 0fbf 026b 9fbf a949 f9be
000003e0: b054 a631 c316 ddbe f306 d3be bbac d3bd
000003f0: 1ce9 a7be bb68 0f3f e932 0f3f f44b 64b1

tiles_emb.hidden_layers.2.bias f4 [128]
0.05191025 0.64277655 0.4638015 0.4456944 0.2583742 -0.61281085 0.5702713 0.06179169
-0.60298336 0.11630164 0.6179395 0.5253466 0.46738428 0.024093265 0.7707497 0.69193524
-0.7728229 0.8522988 0.69870174 0.7682934 0.50091374 -0.55614936 -0.19505505 0.6726919
0.4711909 0.60065556 -1.2599076 0.79903144 0.86592835 -0.70916 -1.1022427 0.6487241
0.016263286 0.61482155 0.75062716 0.33564878 0.02745559 0.6426808 1.0282303 0.6846283
1.0110292 0.96105975 -0.38726452 -0.5782498 -0.59008944 0.45096904 -0.693863 -1.0786713
1.1568612 -0.18007654 -0.65812784 -0.4631371 -0.28798193 -0.6964769 0.3179119 -0.8231303
-0.921967 -1.050006 0.928517 -0.07384642 0.21602458 -0.08258976 0.66713566 0.56313497
-1.1658688 -0.28661406 -0.69568455 0.62364817 0.3190457 0.649071 -0.663603 0.71554554
-0.71364415 -0.76274776 0.6090301 -0.14290151 0.010728637 0.8923707 -0.79367864 -0.22498405
0.8899533 0.72651666 -0.70923924 0.56174636 1.3736075 0.9060307 -0.69841677 0.6450072
0.0774154 -0.9297875 -1.0857856 0.56417674 -0.312206 -0.56281304 0.61390316 -0.30785182
0.33013356 0.03184902 0.17445947 0.3009486 -0.6166507 -1.2839977 -0.5502658 -0.56365824
-0.3098556 -0.14808336 -0.14687176 -0.7881117 -1.4852623 -0.7267336 0.59553635 -0.26902515
-0.4744292 -0.29938418 -1.0083746 -0.7476204 -0.2374525 -0.7276109 0.96333635 0.72820854
-0.87567866 0.8492693 0.013063429 0.34049127 0.138516 0.42126927 -0.7481585 0.46272305
00000000: d89f 543d 018d 243f 6477 ed3e 0e32 e43e
00000010: a049 843e 2ce1 1cbf 4dfd 113f 4819 7d3d
00000020: 1e5d 1abf 8e2f ee3d 4831 1e3f 1d7d 063f
00000030: fe4c ef3e 3d5f c53c da4f 453f ab22 313f
00000040: b9d7 45bf 4130 5a3f 1ede 323f e0ae 443f
00000050: e23b 003f ce5f 0ebf 83bc 47be 8935 2c3f
00000060: ef3f f13e 90c4 193f a744 a1bf 538d 4c3f
00000070: 7bad 5d3f 828b 35bf 4a16 8dbf c812 263f
00000080: 953a 853c f264 1d3f 1a29 403f 28da ab3e
00000090: 8cea e03c bb86 243f 0d9d 833f cd43 2f3f
000000a0: 6869 813f 0308 763f 8947 c6be 2e08 14bf
000000b0: 1a10 17bf 6ae5 e63e 01a1 31bf e711 8abf
000000c0: 0714 943f fc65 38be 117b 28bf 4e20 edbe
000000d0: 5e72 93be 4f4c 32bf 59c5 a23e abb8 52bf
000000e0: 0806 6cbf 9966 86bf 4ab3 6d3f cb3c 97bd
000000f0: 8c35 5d3e d224 a9bd 67c9 2a3f 9d29 103f
00000100: 303b 95bf 14bf 92be 6218 32bf 68a7 1f3f
00000110: f559 a33e 8429 263f e3e1 29bf fe2d 373f
00000120: 62b1 36bf 7043 43bf 66e9 1b3f c654 12be
00000130: 2ac7 2f3c 6872 643f 862e 4bbf 3862 66be
00000140: fbd3 633f fffc 393f b490 35bf 9cce 0f3f
00000150: 5fd2 af3f a1f1 673f 71cb 32bf 311f 253f
00000160: f78b 9e3d 8e06 6ebf 06fb 8abf e36d 103f
00000170: 77d9 9fbe 8414 10bf c228 1d3f c19e 9dbe
00000180: 4407 a93e 1e74 023d 81a5 323e ef15 9a3e
00000190: d2dc 1dbf 095a a4bf 38de 0cbf e84b 10bf
000001a0: 65a5 9ebe 2aa3 17be 8d65 16be b0c1 49bf
000001b0: 131d bebf 370b 3abf 1275 183f aabd 89be
000001c0: 62e8 f2be e248 99be 6b12 81bf 0d64 3fbf
000001d0: c026 73be b544 3abf 369d 763f e06b 3a3f
000001e0: 7a2c 60bf b669 593f fe07 563c df54 ae3e
000001f0: 23d7 0d3e 9bb0 d73e 5187 3fbf 09ea ec3e

attention_layer.att.weight f4 [128, 128]
-0.13541935 0.18281241 -0.47815394 -0.46778044 0.75454634 0.05602739 -0.42669573 1.0671022
-0.78535163 -1.0007968 -0.31266385 0.8272915 -0.4517642 0.7222437 0.9175801 -0.01848786
-0.76492757 0.09922606 -0.23401399 0.3830835 -0.4899183 0.33606032 -0.54866856 -0.07231127
-0.45626333 0.8621025 -1.2775757 0.87057996 0.4035772 0.2676064 -1.1698334 -0.33332413
-0.093417 -0.24459127 0.6239635 -0.46266502 0.64814174 0.15106799 1.3330973 -0.119920984
0.65466243 0.92574453 -0.73879915 -0.14429568 0.22482674 -0.46168688 -0.0790046 -1.4183034
1.0813977 -1.1939986 0.36589965 0.4173169 -1.142326 -0.10429467 0.19956388 -1.010563
-0.5532825 -0.9532334 1.2076601 -0.69913965 0.466779 0.17539029 -0.19358884 -0.26204768
-1.2739693 -0.65194887 0.17745583 0.6812462 -0.4084161 0.5196986 0.06652806 -0.24688739
0.08195999 -0.039803095 -0.36332527 -0.03206609 -0.13908911 0.871289 -0.793985 -0.4938828
0.22866245 -0.23340634 -0.24398933 0.7302618 1.2852945 0.8928471 0.037257344 -0.40004268
0.17536613 -0.95520663 -1.2539916 -0.4198118 -0.6048641 0.34569907 0.43698245 0.41532066
0.7003579 -0.4602603 0.89023 -0.12301943 0.29360077 -1.441067 0.42887482 0.36359987
0.45145175 0.068627834 -0.39324152 -0.8133005 -1.4396675 -0.2141862 -0.5863655 -1.2541049
0.34156635 -1.3200542 -1.053743 -0.35631952 -0.47805703 -0.081564695 0.38879767 0.6862806
-0.108381666 0.86514163 -0.5540185 0.6915641 1.3345282 -0.4192738 -0.9732075 -0.43006235
-0.017173527 0.017207805 0.028717857 0.023499938 0.020028342 -0.015302527 0.011922893 0.011122287
-0.035854746 -0.0040707616 0.01674387 0.031239066 0.010189823 0.009687838 0.0039556813 0.013245987
-0.019987866 0.0049448013 0.016581094 0.021153187 0.010182756 -0.019306278 0.009809631 0.013471192
0.040676832 0.037002154 -0.029311705 0.006346968 0.0055268435 -0.026197283 -0.012217292 0.017427577
0.0053316406 0.015973656 0.02179278 0.002832624 0.011394021 0.015200923 0.029331742 0.016460912
0.024194308 0.026222406 -0.028957527 -0.023807585 -0.014887845 0.022185564 -0.017768811 -0.034123316
0.031466447 0.008846116 -0.015174023 -0.012063965 9.827769e-05 -0.018957177 0.031795215 -0.0059595155
-0.010720976 -0.029256463 0.015960988 -0.01474871 -0.001420983 0.0062926854 0.05495471 0.015918437
-0.024361016 0.011083449 -0.018617677 0.028043302 0.0084427735 0.013051157 -0.027876718 0.016086038
-0.018228985 -0.019648721 0.016611781 -0.008205538 -0.006723854 0.008576602 -0.015708204 0.002237922
0.009522122 0.015603441 -0.023515075 0.029559564 0.034375697 0.008985967 -0.020382887 0.0142128905
0.00878122 -0.0111798765 -0.01496947 0.0064337463 -0.0011907328 -0.064039685 0.01252235 -0.0036252728
0.021589903 0.008188162 -0.0011805925 0.0055697 -0.012371809 -0.04614797 -0.016912013 -0.021888996
-0.019795377 0.012588081 0.006096536 -0.0056917984 -0.056444183 -0.018439973 0.017826255 0.0064178873
-0.017806534 -0.0019590037 -0.028937975 -0.012562604 -0.0012732976 -0.013078722 0.04710467 0.004549943
-0.0053411447 0.02926218 -0.0030078199 0.02727322 -0.0076496312 0.01822185 -0.0031426637 0.0066834623
00000000: 5fab 0abe 2d33 3b3e 98d0 f4be eb80 efbe
00000010: f329 413f fa7c 653d dd77 dabe ce96 883f
00000020: ce0c 49bf 1c1a 80bf 7a15 a0be 60c9 533f
00000030: a34d e7be f7e4 383f 88e6 6a3f da73 97bc
00000040: 4bd2 43bf 0837 cb3d 5da1 6fbe 8523 c43e
00000050: 92d6 fabe 1910 ac3e 8b75 0cbf ee17 94bd
00000060: 599b e9be c0b2 5c3f 9a87 a3bf 54de 5e3f
00000070: aca1 ce3e b503 893e 1abd 95bf 76a9 aabe
00000080: 6951 bfbd 2276 7abe 12bc 1f3f 6ee2 ecbe
00000090: 9eec 253f 91b1 1a3e efa2 aa3f 2299 f5bd
000000a0: f597 273f 98fd 6c3f f121 3dbf 3fc2 13be
000000b0: fb38 663e 3962 ecbe 2acd a1bd f78a b5bf
000000c0: 3d6b 8a3f f2d4 98bf 3357 bb3e 90aa d53e
000000d0: bd37 92bf 7298 d5bd 795a 4c3e 215a 81bf
000000e0: eca3 0dbf 1b07 74bf 9b94 9a3f d1fa 32bf
000000f0: a8fd ee3e 8399 333e 273c 46be 1d2b 86be
00000100: 6d11 a3bf 1fe6 26bf fbb6 353e 2766 2e3f
00000110: ea1b d1be f80a 053f dd3f 883d 0cd0 7cbe
00000120: a4da a73d 9208 23bd c505 babe bb57 03bd
00000130: 606d 0ebe cc0c 5f3f 9a42 4bbf 35de fcbe
00000140: 7d26 6a3e 1202 6fbe 57d8 79be 70f2 3a3f
00000150: 8884 a43f a191 643f 289b 183d 65d2 ccbe
00000160: 2e93 333e 6c88 74bf cc82 a0bf 92f1 d6be
00000170: 60d8 1abf 78ff b03e 2abc df3e e9a4 d43e
00000180: a84a 333f 3da7 ebbe 1de6 633f 9cf1 fbbd
00000190: d752 963e e274 b8bf 7b95 db3e c329 ba3e
000001a0: af24 e73e c08c 8c3d f456 c9be 7634 50bf
000001b0: 0647 b8bf a153 5bbe 0d1c 16bf 8286 a0bf
000001c0: c9e1 ae3e 89f7 a8bf 0de1 86bf 836f b6be
000001d0: e4c3 f4be 640b a7bd 7d10 c73e 16b0 2f3f
000001e0: 35f7 ddbd ec79 5d3f 28d4 0dbf 580a 313f
000001f0: d2d1 aa3f 0eab d6be 2024 79bf 2231 dcbe
00000200: 7faf 8cbc 62f7 8c3c b641 eb3c f182 c03c
00000210: 7a12 a43c 73b7 7abc 3d58 433c 413a 363c
00000220: 6ddc 12bd 0664 85bb 712a 893c 12e9 ff3c
00000230: 37f3 263c bdb9 1e3c a99e 813b b205 593c
00000240: 98bd a3bc 0008 a23b 13d5 873c 7349 ad3c
00000250: 93d5 263c 3328 9ebc 93b8 203c 46b6 5c3c
00000260: c09c 263d 928f 173d 1a1f f0bc 3afa cf3b
00000270: 861a b53b af9b d6bc 092b 48bc 47c4 8e3c
00000280: 0bb5 ae3b 2fdb 823c c686 b23c 8ba3 393b
00000290: fdad 3a3c 4b0d 793c 1f49 f03c 09d9 863c
000002a0: 2433 c63c 5fd0 d63c 5638 edbc 2008 c3bc
000002b0: 26ec 73bc 80be b53c e68f 91bc e4c4 0bbd
000002c0: f6e2 003d 4def 103c 779c 78bc f0a7 45bc
000002d0: 6f1a ce38 154c 9bbc b33b 023d 0a48 c3bb
000002e0: 08a7 2fbc 40ab efbc 9ec0 823c 93a4 71bc
000002f0: 4740 baba df32 ce3b 3118 613d 6267 823c
00000300: c190 c7bc 5b97 353c 1984 98bc 11bb e53c
00000310: 8f53 0a3c 85d4 553c b75d e4bc dec6 833c
00000320: f454 95bc 5bf6 a0bc 6e15 883c 8570 06bc
00000330: c753 dcbb e084 0c3c 7eae 80bc 1aaa 123b
00000340: ad02 1c3c 93a5 7f3c b0a2 c0bc e626 f23c
00000350: 88cd 0c3d e139 133c 03fa a6bc 2fdd 683c
00000360: 1bdf 0f3c cd2b 37bc 8242 75bc 2dd2 d23b
00000370: 5d12 9cba 3d27 83bd 8b2a 4d3c fc95 6dbb
00000380: 4fdd b03c a427 063c 1cbe 9aba 0882 b63b
00000390: 21b3 4abc a705 3dbd 108b 8abc 8d50 b3bc
000003a0: ea29 a2bc 3d3e 4e3c 73c5 c73b 4482 babb
000003b0: 0432 67bd 6d0f 97bc 5e08 923c 244d d23b
000003c0: 02df 91bc a162 00bb 550f edbc 61d3 4dbc
000003d0: c7e4 a6ba 2348 56bc d4f0 403d b017 953b
000003e0: c504 afbb 3db7 ef3c d81e 45bb 166c df3c
000003f0: c2a9 fabb fd45 953c 26f5 4dbb f200 db3b

attention_layer.att.bias f4 [128]
1.3005632 0.018383661 0.05507254 0.098404385 0.026535995 0.5030613 -0.571926 -0.3634648
-0.01432811 -0.007873243 0.35889253 -1.1089818 -0.04192202 -0.02357528 -1.6032481 -0.14149415
-0.8550084 -1.3010203 -0.41920584 -1.0995921 0.14207424 -0.14826356 0.012355575 0.6560819
-0.5839584 -0.52770454 -0.05468561 0.0021702717 0.12845665 0.32671663 0.25503102 -0.052342087
-0.74112064 0.31104654 1.054903 -0.8788978 -0.8620924 -0.00217009 0.82621145 -0.75614995
-0.02985808 -1.119825 -0.31589594 -0.11649845 0.3189554 -0.8000306 -0.030161295 -0.6121862
1.228709 1.0684083 -4.195621e-06 0.09319546 -0.6384609 0.2512392 0.77627116 1.9612558
-0.39712617 0.49554852 -0.8627339 -0.17602733 0.034256656 0.00585689 -0.35883754 0.04665419
0.00371726 -0.0023445503 -1.1805348 0.21492648 0.06761174 -0.83310425 0.93403727 -1.0847511e-09
-0.383447 -0.38803264 -0.65352106 -0.87451255 -0.24490428 -0.45327824 -0.15059151 -0.4591392
0.86332875 0.46143118 -0.98921955 -0.08395896 1.0630109 -7.2242574e-06 1.6367302 0.01937107
0.005185893 -0.14790514 -0.26508147 -0.13516636 0.44752312 0.11819353 0.18839012 -0.779432
-0.8801268 0.2664962 -0.70844245 1.1846861 -1.8324162e-09 -0.4486682 0.5607138 0.16979991
-0.0014578073 -1.1703185 0.36862347 -0.8993717 0.018033544 -0.023625372 -0.7817319 -0.45274186
0.2634591 -0.16475217 0.87229323 -0.06890709 0.6907738 -0.1767467 1.0122552 -0.70839113
-0.42098907 -0.59631294 -0.44054016 0.67959297 -0.29784188 0.13338111 -0.669228 -0.04428517
00000000: db78 a63f 5599 963c be93 613d 3d88 c93d
00000010: 0462 d93c a0c8 003f be69 12bf 0f18 babe
00000020: 73c0 6abc c6fe 00bc c3c0 b73e 1ef3 8dbf
00000030: 6db6 2bbd f220 c1bc 3c37 cdbf d8e3 10be
00000040: d5e1 5abf d587 a6bf 26a2 d6be 6fbf 8cbf
00000050: e97b 113e 67d2 17be 0a6f 4a3c fcf4 273f
00000060: 4c7e 15bf a517 07bf 05fe 5fbd 1e3b 0e3b
00000070: 248a 033e 6747 a73e 6d93 823e a864 56bd
00000080: 15ba 3dbf 7e41 9f3e 1007 873f 72ff 60bf
00000090: 16b2 5cbf 1238 0ebb 9882 533f 0b93 41bf
000000a0: ef98 f4bc 6d56 8fbf 1dbd a1be bd96 eebd
000000b0: 1f4e a33e cece 4cbf d214 f7bc 3cb8 1cbf
000000c0: 5646 9d3f 9ac1 883f 1cc8 8cb6 43dd be3d
000000d0: 2c72 23bf 6da2 803e b5b9 463f 6e0a fb3f
000000e0: 1f54 cbbe 89b8 fd3e 21dc 5cbf 8240 34be
000000f0: b550 0c3d 28eb bf3b 8eb9 b7be 7718 3f3d
00000100: 469d 733b 07a7 19bb c41b 97bf b015 5c3e
00000110: 0678 8a3d 5246 55bf 111d 6f3f 4916 95b0
00000120: 2a53 c4be 37ac c6be 284d 27bf 0ee0 5fbf
00000130: 30c8 7abe 1614 e8be a934 1abe 4b14 ebbe
00000140: 1d03 5d3f b540 ec3e 7e3d 7dbf adf2 abbd
00000150: be10 883f e667 f2b6 6080 d13f 14b0 9e3c
00000160: 6cee a93b 7274 17be c2b8 87be 0d69 0abe
00000170: c021 e53e 730f f23d 57e9 403e db88 47bf
00000180: fd4f 61bf 3172 883e 7c5c 35bf cba3 973f
00000190: 6ad8 fbb0 d7b7 e5be f18a 0f3f 07e0 2d3e
000001a0: e513 bfba ffcc 95bf 37bc bc3e 393d 66bf
000001b0: 15bb 933c ff89 c1bc 951f 48bf c8cd e7be
000001c0: 1ce4 863e cbb4 28be 9c4e 5f3f 291f 8dbd
000001d0: 8dd6 303f 16fd 34be 9491 813f 1f59 35bf
000001e0: e18b d7be f7a7 18bf 7b8e e1be cef9 2d3f
000001f0: bb7e 98be 0f95 083e 8752 2bbf 5e64 35bd

attention_layer.gate.weight f4 [128, 128]
1.3911915 -0.54062885 -0.5740068 -0.42860377 0.57559526 0.5761451 -0.41551974 -1.4093995
-0.6044377 1.5210439 -0.6348347 0.60202587 -0.62815213 0.6595102 0.14748764 -0.1020052
-1.0839196 -0.2865708 -0.51807946 0.9576007 -0.44553924 0.56071055 -0.27200252 0.340933
-0.49115697 0.51818275 -1.377616 0.70824784 -0.29194346 0.44103482 -0.15265217 -0.43381155
0.3562073 -0.5402273 -0.7205834 -0.47372255 0.6694539 -0.59617656 -0.27205607 -0.11700323
1.3491857 -0.20962924 -0.47846502 0.5918333 0.3414361 -0.56274104 -0.048176743 0.15371335
0.01854238 -1.4746854 0.63932365 0.44606704 -1.4012733 -0.6966485 1.433511 -0.1413969
0.23671521 0.5071881 1.1069765 -0.56027967 1.351223 -1.3814734 -0.6224138 -0.589106
-1.3439473 -1.5579684 0.6652082 0.4504988 -0.42480934 -0.52465314 0.60553616 -0.51043534
0.5755328 -0.28692898 -0.5218175 -1.4811621 1.493232 0.3038331 -0.41118357 -1.4402782
-0.37109885 -0.51031935 0.51600987 0.5857833 1.3014797 0.58556217 0.54498625 -0.5837842
-1.3875415 -0.9326893 -0.90787727 -0.38492492 -1.38275 0.4609387 -0.16789626 0.55264336
0.59967965 -1.4923202 1.3893383 1.3576348 0.82409704 -0.0025866556 0.4939348 0.6471048
0.41523513 -1.446693 -1.5125586 -0.752662 -0.011969283 0.50508 -1.2671185 -1.4285202
0.4891515 -1.4790503 0.03556778 -0.12911904 -1.4524238 -0.32170787 1.2284575 -0.0063093663
0.37074187 0.8799505 -0.21516475 0.5050753 1.3580552 -0.5308415 -0.5248064 -0.4460298
-0.7203048 -0.07811517 -0.042449653 -0.2676163 0.114810154 -0.09757319 -0.29072857 0.7155003
-0.45097885 -0.6861351 -0.016591815 0.41483143 -0.24906681 -0.04591401 -0.4684902 0.1273096
-0.20240754 -0.5071612 -0.037317395 0.1525648 -0.21227318 0.033800006 -0.6452486 0.06480541
-0.016193746 0.54621 0.7062008 -0.51820445 -0.18021293 0.19870006 0.24780843 0.007357682
0.61192054 -0.029277252 0.7997107 -0.35145637 0.23325822 -0.11902866 0.94966763 -0.004654973
-0.8166732 0.9343226 -0.2767397 0.036924094 -0.039634265 -0.113477565 0.009293586 -0.88787377
1.0122678 0.66936624 -0.16182856 0.06318442 0.66985416 -0.016542597 -0.6567631 0.51681566
0.49843264 -0.9411955 -0.45092338 -0.11646558 -0.7305828 0.6657762 -0.046872 -0.037770815
0.6404116 0.77988166 0.06534004 0.5016316 -0.149549 -0.34890294 0.17965168 -0.06650665
0.14150776 -0.033394918 -0.0543613 0.7737576 -0.7157941 -0.3467165 -0.1866989 0.6754288
-0.41227242 -0.029838793 0.13631393 0.3710805 -0.55640936 -0.45311177 0.097681664 -0.15963423
0.8612954 0.18015477 0.35585696 -0.19300781 0.8022836 0.017951624 0.009116963 0.23940685
0.37535655 0.7067023 -0.6963702 -0.5328553 -0.6846662 -0.8308692 0.2566597 0.0201332
0.44818756 0.69784313 0.8109911 0.47145388 -0.91198605 0.19982088 0.975346 0.806513
0.16530289 0.76680773 -0.84902865 -0.08561116 0.71487474 -0.17747165 -0.1684046 -0.6232612
0.30419463 0.21531637 -0.49065307 0.5795977 -0.81582177 -0.29754877 0.51867133 -0.293824
00000000: 9012 b23f a766 0abf 1cf2 12bf f471 dbbe
00000010: 365a 133f 3f7e 133f 01bf d4be 3467 b4bf
00000020: 6ebc 1abf 91b1 c23f 8784 22bf 5e1e 1a3f
00000030: 94ce 20bf a9d5 283f 0007 173e 1ae8 d0bd
00000040: e1bd 8abf 68b9 92be dba0 04bf 5225 753f
00000050: b81d e4be ba8a 0f3f ea43 8bbe c58e ae3e
00000060: ed78 fbbe a0a7 043f b955 b0bf bb4f 353f
00000070: 9d79 95be 51cf e13e da50 1cbe 8c1c debe
00000080: ce60 b63e 564c 0abf 2778 38bf c38b f2be
00000090: 5561 2b3f 079f 18bf ef4a 8bbe 649f efbd
000000a0: 1eb2 ac3f 0ca9 56be 5ef9 f4be 6382 173f
000000b0: b6d0 ae3e cc0f 10bf fa54 45bd 0867 1d3e
000000c0: 30e6 973c 7ec2 bcbf b7aa 233f e662 e43e
000000d0: ec5c b3bf 8e57 32bf 4a7d b73f 59ca 10be
000000e0: 7965 723e 14d7 013f 68b1 8d3f 7d6e 0fbf
000000f0: e0f4 ac3f 1fd4 b0bf 8356 1fbf a7cf 16bf
00000100: 7706 acbf 826b c7bf 164b 2a3f c7a7 e63e
00000110: 9c80 d9be ab4f 06bf 6b04 1b3f e4ab 02bf
00000120: 1e56 133f 5be8 92be d595 05bf b896 bdbf
00000130: 3a22 bf3f 0390 9b3e a786 d2be 095b b8bf
00000140: ab00 bebe 4aa4 02bf 3919 043f e5f5 153f
00000150: e396 a63f 67e7 153f 3884 0b3f e272 15bf
00000160: f69a b1bf bac4 6ebf a56a 68bf e114 c5be
00000170: f4fd b0bf 2800 ec3e ffec 2bbe 097a 0d3f
00000180: 9b84 193f 5904 bfbf d6d5 b13f fac6 ad3f
00000190: 06f8 523f e184 29bb 06e5 fc3e a9a8 253f
000001a0: b399 d43e 3c2d b9bf 859b c1bf 75ae 40bf
000001b0: d01a 44bc ec4c 013f f030 a2bf c0d9 b6bf
000001c0: 1172 fa3e 8551 bdbf 85af 113d c837 04be
000001d0: 06e9 b9bf e5b6 a4be 183e 9d3f cdbe cebb
000001e0: e1d1 bd3e 7044 613f 2654 5cbe 9d4c 013f
000001f0: c1d4 ad3f 3be5 07bf b659 06bf 055e e4be
00000200: e565 38bf d9fa 9fbd b0df 2dbd 0105 89be
00000210: 9621 eb3d 74d4 c7bd 60da 94be 072b 373f
00000220: b3e6 e6be 8da6 2fbf 8feb 87bc c964 d43e
00000230: 5f0b 7fbe 5410 3cbd f3dd efbe 735d 023e
00000240: ec43 4fbe 51d5 01bf 20da 18bd f239 1c3e
00000250: 245e 59be e071 0a3d 032f 25bf b3b8 843d
00000260: bfa8 84bc 6bd4 0b3f 93c9 343f 0ca9 04bf
00000270: bd89 38be 0778 4b3e 7ec1 7d3e b618 f13b
00000280: d3a6 1c3f d9d6 efbc d7b9 4c3f 17f2 b3be
00000290: 3edb 6e3e 4cc5 f3bd 6b1d 733f be88 98bb
000002a0: 7f11 51bf c42f 6f3f d3b0 8dbe b83d 173d
000002b0: 8a57 22bd ed66 e8bd 2044 183c b24b 63bf
000002c0: fe91 813f 965b 2b3f 63b6 25be d566 813d
000002d0: 907b 2b3f 5784 87bc a021 28bf 084e 043f
000002e0: 9032 ff3e 30f2 70bf 6edf e6be 8285 eebd
000002f0: 7907 3bbf 4f70 2a3f dbfc 3fbd 92b5 1abd
00000300: 04f2 233f 53a6 473f 00d1 853d ee6a 003f
00000310: 6023 19be 68a3 b2be 9cf6 373e a334 88bd
00000320: 69e7 103e 1cc9 08bd f4a9 5ebd fa14 463f
00000330: 483e 37bf d384 b1be ff2d 3fbe e7e8 2c3f
00000340: 5f15 d3be 7c70 f4bc e195 0b3e 43fe bd3e
00000350: d870 0ebf 44fe e7be 530d c83d 2877 23be
00000360: db7d 5c3f 7e7a 383e e232 b63e d7a3 45be
00000370: 7562 4d3f 490f 933c 505f 153c 1227 753e
00000380: bc2e c03e 71ea 343f 5145 32bf 3469 08bf
00000390: 4946 2fbf d8b3 54bf e668 833e 61ee a43c
000003a0: d778 e53e d9a5 323f 1d9d 4f3f 6762 f13e
000003b0: eb77 69bf d89d 4c3e 47b0 793f a377 4e3f
000003c0: 2945 293e 834d 443f f159 59bf e754 afbd
000003d0: 0802 373f 21bb 35be 4172 2cbe 0c8e 1fbf
000003e0: 66bf 9b3e e57b 5c3e e136 fbbe 8460 143f
000003f0: b2d9 50bf 5058 98be a5c7 043f 1970 96be

attention_layer.gate.bias f4 [128]
1.066016 0.456416 0.12638849 1.1697122 1.2808601 -0.24503508 -0.54673654 -0.015242375
-0.115066394 0.5061325 1.1614712 0.79534733 -0.9182666 0.7127262 0.0019250484 -0.08341733
0.22694445 0.91376036 -0.2779914 0.09232935 -0.05892255 0.9289598 1.5808038 -0.008437947
-0.08319944 -0.76583976 0.1562737 -0.18243964 0.6040824 0.23474567 1.575726 0.85782415
0.18933715 -1.1406637 1.6445562 0.5335382 0.014565715 -0.21795432 -0.21641044 0.18627751
0.19561647 1.5746427 0.8827142 1.1331728 0.35634232 -1.4920952 -0.71057373 0.32879603
0.71935195 -0.5353264 0.4505345 0.9692387 -0.2612703 -0.06852724 1.3539175 1.0182557
-0.743819 -0.63092476 0.3689016 0.28265202 0.90247554 -0.8523933 -0.9927431 -0.27169997
0.8317438 0.12475405 -0.000728054 0.7655126 -0.70025843 1.4047557 0.18032143 -0.5406572
0.5173098 -1.2204267 1.1240125 1.3923455 -1.113961 0.10794298 -0.55144864 -1.2418963
1.0182109 0.28000697 0.30653995 0.2430959 -0.87207305 0.27961954 -0.6243763 0.37241727
0.587657 0.40865004 -0.26046765 0.20163503 0.095141366 -1.609005 -0.101972446 -0.027621925
0.19063018 -1.3158495 0.3686585 0.33984137 -0.91948956 0.98225695 0.13993576 0.0621654
-0.36283293 -0.27279642 0.38957953 0.3523118 0.38889134 0.49953178 0.09025162 0.102643356
-0.05658575 0.30014223 1.2127538 -0.5823003 0.5835321 -0.9239418 -0.42939675 0.47033167
1.2372661 0.9056177 0.6866368 1.3411885 -0.1360505 0.02098549 -0.17764136 0.936219
00000000: 3673 883f 5caf e93e fc6b 013e 21b9 953f
00000010: 39f3 a33f 7aea 7abe edf6 0bbf 28bb 79bc
00000020: eea7 ebbd e691 013f 17ab 943f e29b 4b3f
00000030: 8513 6bbf 3975 363f e851 fc3a b5d6 aabd
00000040: 2064 683e 33ec 693f e454 8ebe 2c17 bd3d
00000050: c658 71bd 4fd0 6d3f c757 ca3f 513f 0abc
00000060: 7864 aabd 130e 44bf 3606 203e 75d1 3abe
00000070: 25a5 1a3f 2b61 703e 64b1 c93f 5d9a 5b3f
00000080: 99e1 413e 4501 92bf d180 d23f f695 083f
00000090: 09a5 6e3c 6b2f 5fbe b39a 5dbe 88bf 3e3e
000000a0: af4f 483e e48d c93f 8ff9 613f ce0b 913f
000000b0: 8072 b63e fafc bebf 29e8 35bf f457 a83e
000000c0: 7327 383f 270b 09bf 75ac e63e 0720 783f
000000d0: 39c5 85be 0258 8cbd 2b4d ad3f 3456 823f
000000e0: ec6a 3ebf 4984 21bf ace0 bc3e c4b7 903e
000000f0: a308 673f 7336 5abf 6924 7ebf 421c 8bbe
00000100: 29ed 543f 0d7f ff3d e0da 3eba a2f8 433f
00000110: 2344 33bf 09cf b33f 2ea6 383e 8368 0abf
00000120: 6a6e 043f f136 9cbf a4df 8f3f 6138 b23f
00000130: 4696 8ebf 3611 dd3d bd2b 0dbf 75f6 9ebf
00000140: bc54 823f 135d 8f3e cef2 9c3e 22ee 783e
00000150: 2e40 5fbf 4b2a 8f3e 20d7 1fbf 7aad be3e
00000160: b070 163f 943a d13e 045c 85be 6a79 4e3e
00000170: 7ad9 c23d e0f3 cdbf eed6 d0bd 6047 e2bc
00000180: 8f34 433e c26d a8bf cfc0 bc3e b0ff ad3e
00000190: ab63 6bbf 3175 7b3f 524b 0f3e 25a1 7e3d
000001a0: 3dc5 b9be f9ab 8bbe f876 c73e 3662 b43e
000001b0: c41c c73e a1c2 ff3e d7d5 b83d ae36 d23d
000001c0: 76c6 67bd 3eac 993e 843b 9b3f a211 15bf
000001d0: 5c62 153f 7387 6cbf e4d9 dbbe 50cf f03e
000001e0: bc5e 9e3f 90d6 673f 6ec7 2f3f 11ac ab3f
000001f0: d350 0bbe c3e9 ab3c 9ee7 35be 0cac 6f3f

attention_layer.w.weight f4 [1, 128]
1.6443805 -0.8677327 -0.44262287 1.135908 -0.72115934 1.5193641 -0.2728434 0.31394672
0.39550215 -0.47598532 -0.441144 0.32488427 -0.07975554 1.3500936 -1.1209561 -0.29283455
0.019754946 1.1588538 -0.81764966 -0.92610425 0.45678017 0.02495612 1.1063925 -0.001295004
-0.475048 0.8154073 0.6394809 0.6959871 1.0647535 0.0398338 -0.15774219 -0.98166776
-0.9074358 -1.791329 0.946862 0.030629933 -0.82676685 -0.06524374 0.608278 -0.93119025
-1.4773682 1.7749655 -0.017136278 -0.14711504 -0.39134237 0.195177 -1.4321291 -0.9092128
-1.5612385 -0.78660417 0.8780002 -1.5317602 -1.4002285 1.292852 0.5829478 1.219119
-1.4069957 -0.778393 0.5103971 -0.4312136 0.063364685 0.5142941 1.0948141 -0.72341526
0.5284763 -0.38710678 -1.047507 1.4430443 1.5724977 -0.3391647 -0.994605 -1.1284789
-1.6222342 1.6452094 -1.0200014 -1.4279454 2.2670705 -0.088968694 -1.7332252 -1.3103174
-0.46404514 1.5841322 1.043342 1.1013848 1.2955118 -0.6325862 0.7952858 1.7717217
-1.0470744 0.68933153 -0.820236 -1.7835376 -0.38239154 0.8631002 0.47589925 0.59770244
0.15993117 0.24793562 0.6622438 -1.0436819 1.1308768 1.1439102 -0.19931811 1.2411637
0.3635534 0.13328828 1.2021537 -0.58889586 -1.3922946 -0.1969329 -1.1039464 0.33876872
1.9168316 -0.15184942 0.9973232 0.28004017 1.1999079 0.21923088 0.7027581 -1.1725013
1.4521195 1.8119147 0.40847388 1.0472974 -0.26794356 0.4835845 -0.9249141 -1.7592407
00000000: 0f7b d23f bb23 5ebf 779f e2be 6f65 913f
00000010: e69d 38bf 867a c23f 21b2 8bbe a0bd a03e
00000020: 427f ca3e 59b4 f3be a0dd e1be 3b57 a63e
00000030: df56 a3bd decf ac3f 7d7b 8fbf 69ee 95be
00000040: 20d5 a13c 5255 943f 7d51 51bf 2b15 6dbf
00000050: 17df e93e c770 cc3c 459e 8d3f 20bd a9ba
00000060: 7e39 f3be 88be 503f 05b5 233f 362c 323f
00000070: d849 883f c428 233d 2b87 21be 944e 7bbf
00000080: b64d 68bf 454a e5bf 8c65 723f a0eb fa3c
00000090: fea6 53bf 839e 85bd 1bb8 1b3f 7c62 6ebf
000000a0: 671a bdbf 1232 e33f 6161 8cbc 53a5 16be
000000b0: 075e c8be 7bdc 473e 0250 b7bf 2cc2 68bf
000000c0: aad6 c7bf e45e 49bf 9fc4 603f b810 c4bf
000000d0: b03a b3bf 2d7c a53f 113c 153f 170c 9c3f
000000e0: 6f18 b4bf c344 47bf 62a9 023f 07c8 dcbe
000000f0: 58c5 813d c7a8 033f de22 8c3f be31 39bf
00000100: 394a 073f dc32 c6be b614 86bf adb5 b83f
00000110: 9b47 c93f ffa6 adbe 6f9e 7ebf ff71 90bf
00000120: 5fa5 cfbf 3996 d23f 688f 82bf eac6 b6bf
00000130: af17 1140 3835 b6bd 53da ddbf 7bb8 a7bf
00000140: 5397 edbe d8c4 ca3f 3b8c 853f 2dfa 8c3f
00000150: 55d3 a53f 2bf1 21bf da97 4b3f c7c7 e23f
00000160: 8906 86bf 0878 303f fdfa 51bf f64a e4bf
00000170: d3c8 c3be 22f4 5c3f 11a9 f33e 0703 193f
00000180: ffc4 233e d6e2 7d3e cf88 293f 5e97 85bf
00000190: 92c0 903f a66b 923f 0c1a 4cbe 74de 9e3f
000001a0: ac23 ba3e b97c 083e 2ce0 993f e1c1 16bf
000001b0: b636 b2bf c7a8 49be 1e4e 8dbf 1873 ad3e
000001c0: bd5a f53f 6a7e 1bbe 9350 7f3f 6d61 8f3e
000001d0: 9596 993f 0f7e 603e f4e7 333f 8614 96bf
000001e0: 0ddf b93f d2ec e73f 7d23 d13e d70d 863f
000001f0: e62f 89be 6398 f73e 2cc7 6cbf cd2e e1bf

mlp.0.0.weight f4 [128, 128]
-0.21696742 0.2643702 0.3043588 0.42175755 -0.13888824 -0.25511998 0.31909415 0.23326677
0.17000486 -0.2387382 0.27900043 -0.188706 0.22109793 -0.29684755 -0.6556437 0.25654143
-0.35870817 -0.50508785 0.3812982 0.36589217 0.27263275 -0.29571092 0.22506969 0.30327922
0.30225325 -0.19941872 0.20054013 -0.62906647 -0.5935933 -0.41900805 0.5063696 0.28064218
-0.3220713 0.34723985 -0.5804414 0.26678154 -0.22206953 0.3397318 -0.6856045 0.2977472
0.63023114 -0.6587961 0.15968241 -0.2405263 -0.21146469 0.29748157 -0.31508845 0.63135993
-0.5684478 0.1820444 -0.34092122 -0.24944343 0.20622097 -0.26505706 -0.21603313 0.5916908
0.51235884 0.58064175 -0.6317191 0.35072342 -0.31946412 0.24857716 0.28503755 0.23247325
0.20238338 0.15942195 -0.34912896 -0.33271417 0.28041276 0.35091773 -0.34539473 0.38513985
-0.39487898 -0.35833046 0.26466337 0.3313237 -0.24157746 -0.5283356 -0.3741327 0.23991837
-0.58889157 0.40894446 -0.30619943 -0.29920405 -0.19257264 -0.46392506 -0.42013606 0.35338482
0.21708229 0.54441255 0.5455448 0.29017895 0.06465169 -0.35503152 0.22037837 -0.3188123
-0.26403666 0.25149727 -0.16264333 -0.2346431 0.64449817 0.60143536 -0.3875819 -0.31906456
-0.29253 0.21209589 0.27696696 0.6118058 0.63881445 -0.39470738 -0.7136331 0.17271349
-0.2854201 0.2058032 0.5971505 -0.3638337 0.18158162 -0.3887343 0.106607825 -0.6037368
0.53673714 0.37106925 0.24929282 -0.35730347 -0.29078984 0.21449101 0.56857336 0.40026045
-0.758519 0.2574895 0.46746647 0.5752227 -0.67650735 -0.13577609 0.37832454 0.5462835
0.7296483 -0.5576258 0.2916015 -0.86694956 0.21053477 -0.48734608 -0.35619465 0.2214986
-0.06629011 -0.71670604 0.093575016 0.1957812 0.29066238 -0.25984317 0.7308919 0.23764051
0.6417246 -0.96222335 1.150827 -0.34891102 0.03804733 -0.37091333 0.1592798 0.09311442
-0.07836574 0.11896907 0.33240172 0.26513714 -0.67347544 0.04534501 0.109683216 -0.025041653
-0.5848932 -0.034348413 0.7089815 -0.4022815 -0.06998789 0.33945784 -0.051453397 -0.09814779
-0.10242989 0.9267739 -0.40151784 -0.18976621 0.9091847 -0.061777573 -1.0478855 0.39849174
0.64626855 -0.16280445 -0.66228646 0.7091505 -0.6976074 0.5139471 0.40887663 0.17247531
1.1203485 0.94173515 -0.15012695 -0.63803303 0.26647693 0.13985667 -0.2736733 0.04467044
-0.07882222 -0.1898795 0.32857364 0.96529436 -0.6627404 -0.3991427 -0.24522243 0.7909139
-0.19638494 0.075509615 -0.21743895 -0.84308296 -1.1837746 -0.35049385 -0.27914628 0.3408913
0.7403095 0.3229593 0.461996 0.33264452 0.89624584 -0.5836727 0.06776228 -0.24320534
-0.36163 0.75257266 -0.81141543 -1.0392203 0.43556327 -0.06235142 -0.7243697 -0.22052675
-0.49962342 0.9381664 0.85923755 0.6290908 0.05020841 -0.19747 0.43557492 0.88304716
-0.24016502 0.94548357 -0.02578962 -0.20737988 0.73220384 -0.09422223 -0.20177142 -0.6115509
-0.05285078 0.13110311 0.2742075 -0.90350527 -0.79937387 0.38018942 0.61327165 0.38587824
00000000: b52c 5ebe 885b 873e ebd4 9b3e 9bf0 d73e
00000010: b838 0ebe 169f 82be 4f60 a33e 7cdd 6e3e
00000020: c115 2e3e c977 74be 25d9 8e3e 253c 41be
00000030: 7f67 623e 67fc 97be 44d8 27bf 6659 833e
00000040: 99a8 b7be 704d 01bf 8539 c33e 3856 bb3e
00000050: 8596 8b3e 6c67 97be ab78 663e 6a47 9b3e
00000060: f0c0 9a3e 6c34 4cbe 645a 4d3e 800a 21bf
00000070: bbf5 17bf 3988 d6be 70a1 013f 55b0 8f3e
00000080: 88e6 a4be 6cc9 b13e cf97 14bf 9797 883e
00000090: 3266 63be 54f1 ad3e c783 2fbf 5272 983e
000000a0: d456 213f dca6 28bf c983 233e 874c 76be
000000b0: 338a 58be 814f 983e 4653 a1be cea0 213f
000000c0: cc85 11bf d969 3a3e 3a8d aebe 196e 7fbe
000000d0: 972b 533e 8fb5 87be ca37 5dbe 0c79 173f
000000e0: f329 033f f0a4 143f 58b8 21bf 0592 b33e
000000f0: cd90 a3be 038b 7e3e 71f0 913e 780d 6e3e
00000100: 973d 4f3e 823f 233e 08c1 b2be 8359 aabe
00000110: 4392 8f3e 7dab b33e 94d7 b0be 0d31 c53e
00000120: 942d cabe 1777 b7be f581 873e 43a3 a93e
00000130: 1560 77be 0041 07bf 528e bfbe 29ad 753e
00000140: 99c1 16bf 2b61 d13e 2cc6 9cbe 4631 99be
00000150: c331 45be 9687 edbe 131c d7be dbee b43e
00000160: d24a 5e3e 9f5e 0b3f d3a8 0b3f 5692 943e
00000170: 1b68 843d b1c6 b5be deaa 613e 5e3b a3be
00000180: d02f 87be 40c4 803e f98b 26be 4846 70be
00000190: d5fd 243f abf7 193f 2371 c6be 6e5c a3be
000001a0: 7ec6 95be aa2f 593e 9dce 8d3e 4e9f 1c3f
000001b0: 5889 233f 1617 cabe a9b0 36bf cedb 303e
000001c0: 9522 92be 13be 523e dbde 183f 6948 babe
000001d0: 88f0 393e 2f08 c7be 3455 da3d 7f8e 1abf
000001e0: 9b67 093f cafc bd3e 9e46 7f3e 7bf0 b6be
000001f0: 68e2 94be 88a3 5b3e 068e 113f f0ee cc3e
00000200: 4d2e 42bf aad5 833e c457 ef3e cb41 133f
00000210: 962f 2dbf e308 0bbe c1b3 c13e 3cd9 0b3f
00000220: 3bca 3a3f 90c0 0ebf cb4c 953e 68f0 5dbf
00000230: 6d96 573e 6d85 f9be 255f b6be 87d0 623e
00000240: 1cc3 87bd 0c7a 37bf 42a4 bf3d de7a 483e
00000250: b3d1 943e 2a0a 85be bb1b 3b3f 0958 733e
00000260: 1048 243f 4554 76bf 4d4e 933f 77a4 b2be
00000270: 84d7 1b3d 5ae8 bdbe 3e1a 233e c6b2 be3d
00000280: 387e a0bd 0ea6 f33d 8f30 aa3e 0ec0 873e
00000290: e368 2cbf b0bb 393d 98a1 e03d 2724 cdbc
000002a0: 90bb 15bf ecb0 0cbd d07f 353f d7f7 cdbe
000002b0: d055 8fbd 6bcd ad3e ccc0 52bd b501 c9bd
000002c0: c3c6 d1bd 0e41 6d3f bf93 cdbe 1352 42be
000002d0: 54c0 683f 7b0a 7dbd 1d21 86bf 1c07 cc3e
000002e0: db71 253f 36b6 26be 9b8b 29bf e38a 353f
000002f0: 6696 32bf 0a92 033f 4758 d13e 5e9d 303e
00000300: 9467 8f3f 8e15 713f e1ba 19be 2256 23bf
00000310: aa6f 883e 9636 0f3e e81e 8cbe 5af8 363d
00000320: 8b6d a1bd c66f 42be ce3a a83e 881d 773f
00000330: 5ba9 29bf 6f5c ccbe 971b 7bbe 5579 4a3f
00000340: 2219 49be c9a4 9a3d 51a8 5ebe 49d4 57bf
00000350: ed85 97bf ee73 b3be 43ec 8ebe 4e89 ae3e
00000360: ec84 3d3f ec5a a53e bd8a ec3e 6250 aa3e
00000370: 5e70 653f 936b 15bf f3c6 8a3d d20a 79be
00000380: 9127 b9be 9aa8 403f ecb8 4fbf 2c05 85bf
00000390: 2602 df3e 3464 7fbd 4b70 39bf c4d1 61be
000003a0: a4ce ffbe ac2b 703f fef6 5b3f 180c 213f
000003b0: 55a7 4d3d 9335 4abe ad03 df3e 610f 623f
000003c0: d2ed 75be 360b 723f c144 d3bc 645b 54be
000003d0: b671 3b3f 96f7 c0bd 2b9d 4ebe 9a8e 1cbf
000003e0: 0f7a 58bd e53f 063e ed64 8c3e 1f4c 67bf
000003f0: c4a3 4cbf 30a8 c23e 5fff 1c3f d591 c53e

mlp.0.0.bias f4 [128]
-0.46411666 -0.47371042 -1.1282811 -1.0255238 -0.17382985 -1.6348239 -0.56769 -1.0795704
-0.68086374 -0.6836585 -1.0800347 -1.264737 -0.6326225 -0.7625019 -0.69039947 -1.0949792
-0.32373983 -0.9245283 -0.8320733 -0.77155995 -0.48989823 -1.9202819 -0.76004285 -0.78519684
-0.84440154 -0.98708326 -0.7217701 -1.0707359 -0.08988419 -0.847965 -0.9380939 -0.89329
-0.71482223 -0.54854167 -0.51552385 -0.269513 -1.004761 -0.40223128 -0.71862006 -1.1714574
-0.69814205 -0.7046764 -0.77618885 -0.1932207 -0.75678235 -0.73209715 -0.8454249 -0.122809656
0.53997326 -0.7174664 -0.702062 -0.49536714 -0.65006125 -0.050600495 -0.69591886 -0.67926705
-1.1595557 -0.2823114 0.19698152 -0.6382289 -0.87135726 -0.61901534 -0.6387314 -1.059823
-0.8456781 -0.6160527 -0.8771485 -1.0052266 -0.7353623 0.63697535 0.2167645 -0.68115795
-0.0044553485 -0.6733136 -0.7634798 0.18846841 -0.52488196 -0.85965306 -0.46199214 -0.4484774
-0.5851579 -1.5983932 -0.73479337 -0.557363 -0.94158024 0.47715262 -0.6082879 -1.6063864
-0.61295617 -0.48613036 -0.43375686 -0.76234424 -0.42874664 -1.1980014 -0.4383234 -0.65139145
-0.5598519 -0.57255614 -0.31981602 -1.1729609 -0.79457515 0.15845312 -0.34173664 -1.0281191
-1.5714378 -0.7005556 -0.47256213 -0.61452425 -1.0764682 -0.58193344 -1.2737325 -0.5448676
-0.5702463 -0.55563825 -0.53152555 -1.5486437 -0.5433402 -0.7823837 -1.2589731 -0.7016786
-0.35635403 -0.71001405 -0.7464344 -0.76602525 -0.52353317 -1.5689161 -1.5290091 -1.676346
00000000: b3a0 edbe 2c8a f2be 846b 90bf 5d44 83bf
00000010: 7400 32be e941 d1bf 2254 11bf 5d2f 8abf
00000020: 164d 2ebf 3e04 2fbf 943e 8abf e7e2 a1bf
00000030: 8cf3 21bf 5333 43bf 05be 30bf 4728 8cbf
00000040: 3ac1 a5be e3ad 6cbf c102 55bf f484 45bf
00000050: f1d3 fabe cccb f5bf 2b92 42bf a902 49bf
00000060: b32a 58bf 7db1 7cbf edc5 38bf e00d 89bf
00000070: 3415 b8bd 3c14 59bf ec26 70bf a7ae 64bf
00000080: 97fe 36bf 3a6d 0cbf 5ff9 03bf 9cfd 89be
00000090: 029c 80bf 42f1 cdbe 7cf7 37bf 51f2 95bf
000000a0: 70b9 32bf ac65 34bf 50b4 46bf a6db 45be
000000b0: 7dbc 41bf b86a 3bbf c46d 58bf a183 fbbd
000000c0: b03b 0a3f e1ab 37bf 56ba 33bf c3a0 fdbe
000000d0: 6a6a 26bf 7742 4fbd bd27 32bf 72e4 2dbf
000000e0: 526c 94bf 1f8b 90be 86b5 493e f862 23bf
000000f0: 4511 5fbf ca77 1ebf e783 23bf 48a8 87bf
00000100: 5c7e 58bf a1b5 1dbf ce8c 60bf 44ab 80bf
00000110: b440 3cbf d110 233f 83f7 5d3e 5e60 2ebf
00000120: 2cfe 91bb 485e 2cbf 6a73 43bf ddfd 403e
00000130: aa5e 06bf 3912 5cbf 3c8a ecbe d49e e5be
00000140: e8cc 15bf 2698 ccbf 6b1b 3cbf 57af 0ebf
00000150: 670b 71bf 594d f43e c1b8 1bbf 129e cdbf
00000160: b2ea 1cbf 14e6 f8be 6115 debe fe28 43bf
00000170: ae84 dbbe 1c58 99bf ed6b e0be 97c1 26bf
00000180: 7452 0fbf 0a93 12bf edbe a3be 9523 96bf
00000190: 4769 4bbf 8941 223e 1bf8 aebe 6899 83bf
000001a0: e024 c9bf 9d57 33bf aaf3 f1be 7651 1dbf
000001b0: b6c9 89bf 97f9 14bf ab09 a3bf 717c 0bbf
000001c0: a9fb 11bf 4f3e 0ebf 0f12 08bf f539 c6bf
000001d0: 5818 0bbf 4c4a 48bf 0826 a1bf 35a1 33bf
000001e0: 0974 b6be 7bc3 35bf 5316 3fbf 3b1a 44bf
000001f0: 4506 06bf 3ed2 c8bf 92b6 c3bf 8192 d6bf
