dataset/models/IMMU_Tcellatlas_CD4_c0_Tcm/model.pth (torch, 696702 bytes, 14 tensors)

tiles_emb.hidden_layers.0.weight f4 [128, 768]
00000000: 431f 37bf 754c 313f e98d 493f 78f3 283f
00000010: 77cb 5c3f 159d 2ebf 622c 54bf aecf 60bf
00000020: f8ce 1e3e 2c53 5bbf 3e53 5c3f 59f7 273f
00000030: aef0 1e3f a8ab 233f d272 363f a2fd 3f3f
00000040: aab8 2d3f 2535 343f 57b3 5a3f 1abd 823e
00000050: 29a8 2abf 9da2 db3e 9262 59bf e34c 2bbf
00000060: a459 253f 8f97 34bf cc89 293f 6b71 31bf
00000070: d9e0 2f3f ffe7 2abf 8822 4abf be40 1cbf
00000080: 6dc8 37bf bd94 32bf 17fd 34bf 74c6 61bf
00000090: 754f 2a3f e2f1 1d3f 0cd0 5a3f 7525 4ebf
000000a0: 4a01 2c3f ced8 1a3f 4057 293f 72a1 34bf
000000b0: ba6d 32bf c23d 333f 450f 61bf 9c6e 23bf
000000c0: 4f1b 573f 1daa 4f3f 0e64 2b3f 6f15 273f
000000d0: 00d2 533f 69dd 65bf 2278 323f 2c19 2abf
000000e0: 0a95 1f3f d866 33bf 5766 0b3e 7367 38bf
000000f0: 33cd 143f ad45 583f 42a0 26bf 10d6 07bf
00000100: 4f4c 27bf f109 ce3e f22f 0cbf d095 573f
00000110: 49b3 e03e fa8d 5dbf 84fd 31bf 54b1 453f
00000120: f0ef 163f a097 b03e 6b62 e8be f473 193f
00000130: 6b5a 25bf 9b42 61bf 39a3 2ebf 9fc7 573f
00000140: 5513 d83e 7cdc 483f d5e4 2d3f f479 02bf
00000150: 3bca 893e f4df 58bf 1a8e 32bf a310 333f
00000160: fa7f 383f 9e1a 2c3f 0099 c43e 6201 353f
00000170: 5739 39bf ac11 2d3f 5d0a 253f 0530 2dbf
00000180: ace9 0bbf a8c5 233f 5bf0 4d3f a491 2f3f
00000190: 0172 2dbf cfa1 2dbf 0e92 2ebf d5e2 2b3f
000001a0: acde 583f affc 3ebf 223b 533f 5092 2dbf
000001b0: 3e60 933e 83fe 2e3f 5472 ea3e 383c 0bbf
000001c0: 3dc5 293f 7d23 2e3f c369 2f3f 862f 243f
000001d0: 855a 26bf 0c57 2f3f 9938 543f 7ca8 5fbf
000001e0: 50dc 503f 6d00 ebbd adc6 38bf f345 d93e
000001f0: fb8b 57bf 1a9d 013f 6c60 2cbf 27fe 5bbf
00000200: 2aee 313f 407f 343f d1c4 293f 730e 2a3f
00000210: 31ba 2cbf d5b1 243f 3d0d 2c3f 9043 6a3f
00000220: 4342 2ebf 56b8 373f 12f6 263f 52a2 1abf
00000230: c6db 273f e21b 33bf adb7 4a3f c307 28be
00000240: f6e2 2e3f 0afc 2abf ace7 373f 9280 2e3f
00000250: 6f6d 163f 3360 343f 8f85 32bf e13b 98be
00000260: cc9b 27bf f476 0abf ea4c 5bbf 75aa 263f
00000270: 2957 0fbf 7895 30bf 9a0c 2bbf 0856 03be
00000280: 1589 2e3f 8834 37bf 0cbc 263f 26bf 613f
00000290: bca6 0f3f 8216 13bf 9f6b 693e 6a41 31bf
000002a0: 2ccf 9dbe 949d 1c3d b156 5c3f 1654 343f
000002b0: a07e 1c3f 2737 33bf 0725 2f3f 9840 5e3f
000002c0: 334b 34bf b636 33bf cea9 563f ed69 5ebf
000002d0: bf39 28bf bbec 28bf 7aa6 a33e 0f49 0bbf
000002e0: 9272 333f a9ae 50bf e865 d6be 1f40 4f3e
000002f0: d747 45be 559b 0d3f b474 433f 6f1e 51bf
00000300: 5993 2cbf 78f9 32bf 74d1 213f c2c6 303f
00000310: 8f54 a6be 0a09 39bf f0e6 1b3f 4083 323f
00000320: 501b 2abf 0991 333f a41f 54bf a97b 503f
00000330: 794e 4a3f f0db 283f 3e1e 28bf 7aa7 03bf
00000340: eebb 10bf aafa 2c3f 173d 2f3f f977 27bf
00000350: 6004 213f 6829 313f 6123 293f a31f 5c3f
00000360: cbf8 563f 5981 353f 7338 37bf 7ed0 393f
00000370: 114f 573f 6782 c1be 64c2 1c3f 4468 32bf
00000380: fd95 5d3f 0465 21bf 9dde 293f 02aa 323f
00000390: 86ff 2dbf fc12 19bf fcd8 59bf 44ae 0dbf
000003a0: 8e6c 293f 04c4 22bf 85cb 2a3f a428 b5be
000003b0: e722 273f de5e 28be e3eb 2b3f 63e4 2fbf
000003c0: 8083 38bf 53b7 55bf 4879 603f 47fc 573f
000003d0: 06b9 243f 41aa 22bf ea65 1a3f 55de 49bf
000003e0: 8356 2ebf 4da8 5b3f fcc9 31bf 877d 5c3f
000003f0: 202f 33bf 38d4 32bf 247c 28bf dfcf 2e3f
-0.71532077 0.6925729 0.7873216 0.65996504 0.8624796 -0.6820844 -0.8288022 -0.87816894
0.1550864 -0.85673785 0.8606452 0.656118 0.62086 0.639338 0.7126895 0.7499639
0.678599 0.7039359 0.854299 0.25534898 -0.6666284 0.42897502 -0.8491603 -0.66914195
0.64589906 -0.7054376 0.66225886 -0.6931369 0.68702465 -0.6676025 -0.7895894 -0.6103629
-0.717902 -0.69758207 -0.70698684 -0.8819344 0.6652749 0.6169721 0.85473704 -0.80525905
0.67189467 0.6048707 0.6614876 -0.70558846 -0.6969868 0.7001611 -0.87913924 -0.6384065
0.84026045 0.8111895 0.66949546 0.6526708 0.8274231 -0.8979097 0.6971456 -0.6644466
0.6233679 -0.700788 0.13613258 -0.7203285 0.5812561 0.84481317 -0.65088284 -0.5306101
-0.6535081 0.4024196 -0.5476066 0.8421297 0.43886784 -0.86544764 -0.6952746 0.77223706
0.58959866 0.3449068 -0.45387587 0.59942555 -0.6459109 -0.87992257 -0.6821781 0.8428897
0.4220225 0.7846143 0.67927295 -0.50967336 0.26912102 -0.84716725 -0.6974808 0.6994726
0.72070277 0.67228115 0.3839798 0.70705235 -0.7235312 0.6760509 0.6446894 -0.67651397
-0.5465343 0.63973475 0.8044488 0.68581605 -0.6775208 -0.67825025 -0.6819161 0.67142993
0.8471477 -0.74604315 0.82512105 -0.6780138 0.28784364 0.68357104 0.4579035 -0.5438876
0.66316587 0.680229 0.68520755 0.64135015 -0.6498187 0.684922 0.8289886 -0.8736646
0.8158617 -0.114746906 -0.72178155 0.4243618 -0.8419797 0.5063034 -0.6733463 -0.8593468
0.69504035 0.7050667 0.66315943 0.664283 -0.67471606 0.6433385 0.672077 0.9150934
-0.6806986 0.7176565 0.65219223 -0.6040393 0.6556972 -0.6996442 0.79186517 -0.16409211
0.68315065 -0.6679083 0.7183788 0.6816493 0.5876073 0.7045929 -0.69735044 -0.29733184
-0.654721 -0.5408776 -0.85664237 0.65103847 -0.5599237 -0.6897807 -0.66816103 -0.12825787
0.6817792 -0.7156453 0.65130687 0.88182294 0.5611379 -0.5745622 0.2279496 -0.6924044
-0.30822122 0.038236216 0.8606978 0.70440805 0.61130714 -0.7000603 0.68415874 0.8681731
-0.70427245 -0.7000536 0.8385285 -0.8688038 -0.65713114 -0.6598622 0.3196295 -0.54408354
0.70096695 -0.8151651 -0.41874623 0.20239304 -0.19265686 0.5531514 0.7634995 -0.8168706
-0.67412335 -0.6991191 0.63210225 0.6905328 -0.32486388 -0.7227942 0.6089926 0.6973152
-0.66447926 0.7014318 -0.8286078 0.8143869 0.7902599 0.659606 -0.65671146 -0.51427424
-0.5653676 0.67569983 0.6845259 -0.6541744 0.628973 0.69203806 0.6606961 0.85985774
0.8397338 0.70900494 -0.7157051 0.7258376 0.8410502 -0.37794802 0.61234117 -0.69690347
0.8655699 -0.6304476 0.66355306 0.6979066 -0.6796802 -0.5979459 -0.85096717 -0.55344033
0.66181266 -0.63580346 0.66716796 -0.3538257 0.6528763 -0.16442439 0.6715681 -0.68707865
-0.72075653 -0.83482856 0.8768506 0.8436932 0.64344823 -0.63541037 0.6031176 -0.78854877
-0.68100756 0.8580368 -0.6944883 0.8612904 -0.6999378 -0.6985507 -0.65814424 0.68285936

tiles_emb.hidden_layers.0.bias f4 [128]
00000000: ad97 31bf d408 cabe 267e c3be 61ba 16bf
00000010: f573 05bf a9d1 14bf fc06 12bf 86b0 20bf
00000020: cd8b eabe 185b 02bf 9139 03bf 5289 05bf
00000030: a6d6 0fbf a079 2dbf e8e6 22bf 0e75 18bf
00000040: eebd 37bf 1fa8 26bf 7ce3 59bf b5f6 0cbf
00000050: 57e7 0ebf 5eb9 24bf 9e92 d8be 41ff 0fbf
00000060: d81a f8be e399 b8be 1e1f 4bbf 5578 00bf
00000070: fbfe 2dbf 8449 39bf 4b80 78bf a1f7 13bf
00000080: 36bf 25bf 7fe0 71bf 567a 12bf e04c eabe
00000090: 0e4a d8be 4d73 1bbf 116f e1be 5f53 3abf
000000a0: 2c5f fabe d8da 23bf df24 64bf f7ec 09bf
000000b0: 9b23 57bf b6bd 28bf bf55 0bbf f530 63bf
000000c0: 58f2 efbe 8359 04bf f901 37bf fb63 1bbf
000000d0: a0fb 43bf 3bc2 fabe 01e4 f3be 46ff 1bbf
000000e0: 1d0c 79bf c026 98be b3d4 1cbf e27d 05bf
000000f0: 481b cfbe d4bd e2be 2f94 0ebf 5a0b 08bf
00000100: 25fe 0ebf 1758 02bf b963 28bf 1ca5 e4be
00000110: 48da 07bf cc23 23bf 69de 67bf f514 75bf
00000120: f752 76bf 7fb6 28bf fc2b 7cbf 95a0 60bf
00000130: 0e0b 12bf e9c4 09bf 36c2 ccbe 4253 60bf
00000140: f97f c4be 6a25 09bf c20b e1be d319 00bf
00000150: 48af 02bf 4be5 08bf 4010 36bf f6d5 20bf
00000160: 66f7 f0be b738 03bf 98cb e0be c3e0 e4be
00000170: f40a 5abf f5bc f9be 0eab d5be bf94 60bf
00000180: 76db 32bf e37e 0abf 6c5a 20bf 00f3 63bf
00000190: e1e8 22bf dd22 2abf c833 2dbf 324e 1dbf
000001a0: 045e 5bbf 4439 f7be c932 27bf a8e4 22bf
000001b0: 2761 b4be d54f 6cbf 1f14 d5be d63b 60bf
000001c0: 0c79 20bf ad87 e6be f676 00bf 80a0 04bf
000001d0: 6d3f 2bbf e685 4fbf 6af7 6dbf 9d7a 18bf
000001e0: 613c 00bf 00cf 08bf fccb 10bf 9f63 0bbf
000001f0: b985 2cbf f4b7 05bf 56b4 5fbf 50c7 06bf
-0.69372064 -0.3945986 -0.3818218 -0.5887814 -0.5213006 -0.58132416 -0.5704191 -0.62769353
-0.45809785 -0.5092025 -0.51259714 -0.5216266 -0.561869 -0.6776371 -0.63633585 -0.5955361
-0.71774185 -0.6510028 -0.8511274 -0.55063945 -0.55821747 -0.6434535 -0.4229936 -0.5624886
-0.4845798 -0.36054906 -0.79344356 -0.5018361 -0.67967194 -0.723778 -0.9707076 -0.57799727
-0.6474489 -0.9448318 -0.5721792 -0.45761776 -0.42244 -0.6072281 -0.4403005 -0.72783464
-0.48900735 -0.64005804 -0.8911876 -0.53877205 -0.84038705 -0.65914476 -0.54427713 -0.8874658
-0.4686458 -0.51699084 -0.71487385 -0.60699433 -0.76555824 -0.4897631 -0.4763489 -0.6093639
-0.9728411 -0.29717064 -0.61262053 -0.52145207 -0.404505 -0.44285452 -0.5569486 -0.5314232
-0.55856544 -0.50915664 -0.65777165 -0.44657218 -0.53067446 -0.63726497 -0.90573746 -0.957351
-0.96220344 -0.65903467 -0.98504615 -0.8774503 -0.5704812 -0.53816086 -0.3999192 -0.8762704
-0.38378885 -0.53572714 -0.43954283 -0.50039405 -0.5104871 -0.53474873 -0.71118546 -0.6282648
-0.4706375 -0.51258415 -0.4390533 -0.4470273 -0.85172963 -0.48776975 -0.41732067 -0.8772697
-0.6986612 -0.54099864 -0.6263797 -0.89042664 -0.63636595 -0.6645945 -0.67657137 -0.6144744
-0.8569033 -0.48285878 -0.65311867 -0.6363015 -0.3523037 -0.92309314 -0.41616914 -0.875913
-0.626847 -0.45025387 -0.5018152 -0.51807404 -0.66893655 -0.8106369 -0.9295565 -0.59562093
-0.5009213 -0.53440857 -0.56561255 -0.54448885 -0.67391545 -0.52233815 -0.87384546 -0.52647877

tiles_emb.hidden_layers.2.weight f4 [128, 128]
00000000: ba69 00bf c813 0c3f 391b fe3e 541d ddbe
00000010: a3c4 663e bd0a 8bbe a41b 80bd 0195 6ebe
00000020: ccb8 e43e 6544 1bbd 5dd4 9ebc bb01 a53d
00000030: a4e7 0cbf 1d82 1631 9cc9 02bb 8466 b33e
00000040: 36b3 dc3e 77f8 e1be 91d9 eb3e 9488 043e
00000050: b51f b7be d64a e3be 0a44 d6be 5e9c ee3d
00000060: ca9a a63e 2e6d bcaf 5fa2 eebe 1432 ed3e
00000070: 5cbb edbe 9fa4 ef3e 7142 073f 7f15 09be
00000080: 97c8 00bf a718 6ebb e5cb c5be fcc9 023f
00000090: 1c1b cd31 8305 e2be 61f8 213f 56de 0bbf
000000a0: a948 adbe 2e7e fabe 5d46 093f 1b84 a23e
000000b0: 48e9 b53e 5781 0c3f 8636 46be 5bda 073f
000000c0: 164b 20bf 59f7 b83e b2ca e4be 16af dbbe
000000d0: b27d 26be e945 a13e b1a1 913e 456b e8be
000000e0: e2ef 8a31 1682 173f 05cd cebe 9af6 b13e
000000f0: d479 b53e 6b8b 1bbf 42c1 f3be 4f5f 653e
00000100: ec3b 603e 34e4 493d 1b51 c0be d640 a3bd
00000110: 0d60 6ebd b3af c3be 5b49 173f 8fb2 233f
00000120: 9f7f fe3e effb 37be 5b57 973e fed2 90bd
00000130: eecd ee3e 9e15 2c3e b501 7cbe a261 233a
00000140: 81cf 0e3f 31e6 143e db15 ed3e 3a4a 1b3f
00000150: 3d1c 8b3e 0c0c 81bd b6ca 07bf b01d baba
00000160: 9309 f7be 2ef0 bdbe cbcb e73e 5102 f13d
00000170: a3c9 1dbf b15c adbe 4d9b f93e 17da 073f
00000180: 4b20 e0be 5e91 ab3e 57b0 763e 12d5 123f
00000190: 20e0 cebe 0009 8cbc ccb5 16bf 9ff4 73be
000001a0: d68d 16bf b2af bd3e f4c5 d6be 961b e9be
000001b0: 4783 1b3f 1765 293f c056 e93e e0b3 30be
000001c0: 9d59 f83e 4d36 c2be aeb2 5c3e 6e22 cf3e
000001d0: 6830 03bf 77a2 eb3e face 3b3e 1f7d c13d
000001e0: 835d 9b3e 49da 773e c567 bf3e b4f2 ec3d
000001f0: 3602 0abf 07b5 213f b84b 36bf 21bc 553e
00000200: 6b07 1a3f 080b 29bf 324e 09bf 4dab d73e
00000210: 0fbf 75be 464b e73e 9172 ce3d f32e 9a3e
00000220: da5e 13bf 4056 173e 7f5e 343c 92eb 1c3e
00000230: 7ede e23e a87d 0333 25eb bfbd 23a4 01bf
00000240: 66d0 02bf 47f6 dd3e c669 cbbe 96a9 3b3e
00000250: 3f03 bf3e 0068 da3e c455 013f 6f5f eabe
00000260: ea74 b7be c3a3 c72f a4b4 093f c724 81be
00000270: 3824 093f adea bdbe a718 10bf f003 7c3e
00000280: df19 253f 1d71 e2ae 35b6 09bf ba93 31bf
00000290: 7ed5 7a33 f50c 0f3f 15c4 fdbe f057 db3e
000002a0: ca2e bf3e 39c9 ec3e 8fdd 00bf b2cd 9bbe
000002b0: 3e7a e9be fbb2 07bf 0a1f b93e da0a 0cbf
000002c0: ebd2 ee3e 5fe7 23bf 7e97 0f3f aa57 3bbf
000002d0: 8f1b a33e 13f7 ffbd 1444 bfbe d5bd 15bf
000002e0: 94f7 7ab2 16a0 dcbe e623 e73e fd65 6abe
000002f0: 88de 1dbf d9d7 f23e ce70 f83e 23f6 afbe
00000300: 5a5f 06be b268 453e 497b c03e 748c 2c3e
00000310: 6c60 753e 0d5d 093f 8730 05bf 0ce2 efbe
00000320: 9a4d 20bf 8fab b13e a65e fbbe a77d 9c3e
00000330: 2091 06bf 366b babd 7f01 543c 26fa 7dbe
00000340: 6af6 08bf 5589 9abe e2dd 1bbf 3d9e 1ebf
00000350: 2b45 27be 54c6 893e befd cd3e 5d49 563d
00000360: 3752 223f 488d ad3e 0f29 16bf fb84 fcbe
00000370: 3851 e1be 44c0 153f 11a3 eabe 5a4f 27bf
00000380: ac1c 033f 4413 2ebe 3bbe c2be 7b93 2ebf
00000390: e866 f03e f915 9a3d 74d6 db3e 07e3 a73e
000003a0: 5035 15bf 1917 babe 521f e03e 2733 cb3e
000003b0: f324 ebbe 0f68 0ebf 63a1 11bf 884c a2be
000003c0: c09c 01bf 2d18 d23e a440 6ebe ba1a 4ebe
000003d0: f095 bc3e 5980 e7be 67ae c1be f9fa eb3c
000003e0: fc38 99be 7793 62bd a025 e6be 3371 40bd
000003f0: b5da cf3e a905 15bf 214c e1be 2c47 babe
-0.50161326 0.54717684 0.49630144 -0.43186438 0.22535948 -0.2715663 -0.06255272 -0.23299028
0.4467224 -0.037907023 -0.019388372 0.08056971 -0.55040956 2.1901834e-09 -0.0019956594 0.3503915
0.43105477 -0.44134876 0.46064427 0.12942725 -0.35766378 -0.44393033 -0.41848785 0.116509184
0.3253997 -3.4274578e-10 -0.46608254 0.4632727 -0.46432006 0.46805283 0.52835757 -0.13387106
-0.50306076 -0.0036330612 -0.38632122 0.51089454 5.9693672e-09 -0.4414483 0.6326962 -0.5463613
-0.33844498 -0.48924392 0.5362299 0.31741413 0.35529542 0.54884857 -0.19356737 0.5306756
-0.6261457 0.3612621 -0.44685894 -0.42907017 -0.16258886 0.3149865 0.28443673 -0.4539434
4.0436e-09 0.5918287 -0.40390792 0.34758455 0.3544451 -0.6075961 -0.47608382 0.22399639
0.21897858 0.049289897 -0.3756188 -0.07971351 -0.05819707 -0.38219985 0.59096307 0.63944334
0.49706742 -0.17967199 0.29558834 -0.070714936 0.46641487 0.16805121 -0.24610026 0.0006232505
0.55785376 0.14540936 0.46305737 0.60660136 0.27169982 -0.06301126 -0.5304369 -0.0014199521
-0.48249492 -0.37097305 0.4527267 0.1176802 -0.616358 -0.3385978 0.48751298 0.53067154
-0.43774638 0.33509344 0.24090706 0.5735637 -0.4040537 -0.017094135 -0.5887115 -0.23823784
-0.58810174 0.37048107 -0.419479 -0.4552886 0.6074719 0.66169876 0.45573997 -0.17256117
0.4850587 -0.37932053 0.21552536 0.40455955 -0.5124574 0.46022388 0.18340674 0.09447693
0.3034478 0.24204363 0.37383857 0.115697294 -0.53909624 0.6316685 -0.7120929 0.20872547
0.6016757 -0.6603246 -0.5363494 0.4212288 -0.23998664 0.45174617 0.100804456 0.30113944
-0.57566607 0.14778996 0.011008858 0.15324238 0.44310373 3.0615098e-08 -0.09371022 -0.5064108
-0.5109924 0.43351957 -0.39729136 0.1832641 0.37307164 0.4265747 0.5052149 -0.45775935
-0.35831386 3.631425e-10 0.5379126 -0.2522337 0.5357089 -0.37093106 -0.56287616 0.24610877
0.644926 -1.0297383e-10 -0.5379365 -0.6936604 5.840183e-08 0.55879146 -0.4956366 0.42840528
0.37340385 0.4624727 -0.5033807 -0.3043037 -0.45601076 -0.5300748 0.36156493 -0.5470406
0.46645293 -0.6402492 0.56090534 -0.7318064 0.31856963 -0.124982975 -0.37356627 -0.58492786
-1.4608208e-08 -0.43090886 0.45144576 -0.22890468 -0.6166768 0.47430304 0.48523563 -0.34367475
-0.13122311 0.1927822 0.3759406 0.16850454 0.23962563 0.5365761 -0.5202717 -0.46852148
-0.6261841 0.347012 -0.4909565 0.30564615 -0.52565193 -0.0910248 0.01293981 -0.24802455
-0.53501 -0.301829 -0.6088544 -0.619602 -0.16334979 0.26909125 0.40232652 0.05231606
0.634067 0.33896852 -0.586564 -0.49320206 -0.44007277 0.584965 -0.45827535 -0.65355456
0.51215625 -0.16999537 -0.3803576 -0.6819379 0.4695351 0.07523722 0.42937052 0.32790396
-0.58284473 -0.36345747 0.43773896 0.39687464 -0.45926628 -0.5562753 -0.5688688 -0.31699014
-0.50629807 0.4103407 -0.23266846 -0.20127383 0.36833143 -0.4521511 -0.3782837 0.028806197
-0.29926288 -0.055316415 -0.4495058 -0.046982955 0.40596548 -0.5821176 -0.44003394 -0.36382425

tiles_emb.hidden_layers.2.bias f4 [128]
00000000: ce84 7d3f 83b4 acbf f7fb 8fbe 01c8 21bf
00000010: 18ae 78be a7bc 15bf bc1c cbbe 19c5 d93e
00000020: 9dd8 253f d87d 653e 6612 183f 25f6 6bbf
00000030: 0f2a 253f 456a 2abf badc 663f 072b 6dbd
00000040: 97a3 293f d05f 3ebf f7c2 97bf db2d 3f3f
00000050: e0c3 213f 38a0 2d3f 98bc b5bd 18b9 b83e
00000060: 0e93 7ebe fc65 ac3f a1b4 d7be 3d2e 0ebf
00000070: 9ade d63e 14f9 4c3e dbe5 823f 84f5 6c3f
00000080: 8c08 cb3e 837a 2a3f a7ba 8f3e ab83 723f
00000090: 509f 13bf 238d 2a3e 2f68 1a3f ebd7 bcbe
000000a0: f745 34bf c1aa 573f fa21 063f e7e5 ed3e
000000b0: f4a2 003f fdcf 12bf c970 a8be cfad dd3d
000000c0: 9507 f03e 7260 eb3e 4e1c 9e3e b75d 55be
000000d0: 2144 a23e 38cd c1be 2433 a43f 1e91 ce3e
000000e0: 5acc 59bf 272f 703f 26bf cfbe 2be2 d2be
000000f0: cd39 fd3e 5c31 eebe 340c fc3e 33eb 6a3e
00000100: 9c0c 163f 30d9 8bbf 190d f33e ad5d 003f
00000110: 214a 213f 6981 9fbe 554d d73e 2859 ec3e
00000120: ee69 973f 69bd 123f 69d7 29bf 1e4d b4be
00000130: c118 0fbf 1854 bf3e 0aa4 023f f3c7 6e3f
00000140: 34a9 92be b147 acbf f627 683f 0a7f 50bf
00000150: 7313 0ebf 245f af3d fa72 d7be 888e bcbe
00000160: c06b b43e 8ec5 17bf 253a 89bf 1a87 093f
00000170: 2ac4 2a3e 7b21 07bf 0e59 a1be 783b bfbe
00000180: 5f1f aabf 30ff c63e d1ad b03e a0c1 a23e
00000190: e540 3f3f 6d5a ccbe 86f3 c0be c9ff 013f
000001a0: aee5 b23e bdf1 eabe a10e d9be cb8a 06bf
000001b0: 3c97 a3bf 4ee3 e2be 0d4d 043f e9ae d43e
000001c0: 0b2b 0cbf c33f 7ebf 38c8 bc3e 8ffc 1d3f
000001d0: b5d7 893e e5b0 21bf 8dbe b73e b050 0ebf
000001e0: 7a4d c13e 0b67 babf 6f3b 0f3f bd6a 543f
000001f0: 756e f33e f279 a2be 3ca2 203f eb42 c73e
0.9903077 -1.3492588 -0.2812192 -0.63195807 -0.24285161 -0.58490986 -0.3967036 0.42533186
0.6478365 0.22411287 0.59403074 -0.9217246 0.645173 -0.66568404 0.9018055 -0.057902362
0.66265243 -0.7436495 -1.1856374 0.74679345 0.63189507 0.678226 -0.08873862 0.36078715
-0.24860784 1.3468623 -0.42129996 -0.55539304 0.41966707 0.20016891 1.0226396 0.9256213
0.39654958 0.6659319 0.28072092 0.9473216 -0.57664967 0.16655402 0.6031522 -0.36883482
-0.7041926 0.84244925 0.52395594 0.46464464 0.50248647 -0.57348615 -0.32898548 0.10824167
0.46880785 0.4597202 0.3088097 -0.2083653 0.31692603 -0.37851882 1.2828107 0.4034509
-0.8507744 0.9382195 -0.40575522 -0.41188177 0.4945816 -0.46522033 0.4922806 0.22941284
0.5861299 -1.0925655 0.4747093 0.5014294 0.63003737 -0.3115342 0.42051187 0.4616177
1.1829202 0.57320267 -0.66344315 -0.35215086 -0.55897146 0.37368846 0.51031554 0.9327385
-0.28644717 -1.3459378 0.90685976 -0.81443846 -0.5549843 0.085630685 -0.42079908 -0.36827493
0.35238457 -0.5928582 -1.0720869 0.53721774 0.16676393 -0.5278546 -0.31513256 -0.3735006
-1.3290824 0.38866568 0.3450761 0.3178835 0.74708396 -0.3991274 -0.37685794 0.5078092
0.34940857 -0.45887557 -0.42393973 -0.5255553 -1.2780528 -0.44314045 0.5168007 0.41539696
-0.5475318 -0.9931604 0.36871505 0.617135 0.26922384 -0.63160545 0.35887566 -0.5559187
0.37754422 -1.4562696 0.55950063 0.8297537 0.4754521 -0.31733662 0.6274755 0.38918242

attention_layer.att.weight f4 [128, 128]
00000000: 2d12 cabe b736 a13e 70ef af3e 01c6 0d3f
00000010: 1b39 083f c2c8 333f c835 163f 581e 2abf
00000020: 4e52 13bf 02ad b3be f993 3bbf f04b c73e
00000030: 1fbd c4be 81a1 c33e 7eb6 e5be 6d8c 0b3f
00000040: 7348 fcbe 3cc5 073f 00f5 c93e 8c0a 12bf
00000050: 0dfe 28bf afee 2bbf 1bd9 f63e 8a16 17bf
00000060: 5b77 333f d9d5 c93e 3020 323f 0f63 163f
00000070: 0fec 31bf f1d1 173f 3a07 cebe 6108 0fbf
00000080: d43c 14bf 41e6 0ebf 0263 e6be 8e43 c6be
00000090: 633a b03e f00b d8be c7fd 27bf d09b cb3e
000000a0: da59 be3e de20 0cbf 6b02 13bf 2b9a ebbe
000000b0: 3f83 2fbf 9f2b 353f d262 f33e c327 0abf
000000c0: ee32 2bbf f33a 06bf 4f83 c3be 1b59 0a3f
000000d0: 4ce7 2cbf 1b21 053f 94c3 d5be e96c 3bbf
000000e0: 15c4 223f cce9 babe 088d 2c3f c6e0 bd3e
000000f0: 9974 37bf e98d 093f 138f 2fbf 7236 d5be
00000100: d33a 2cbf 6d83 d73e 0323 bcbe 7801 32bf
00000110: 3f71 36bf 1c22 cabe f2e9 1bbf 4ad9 f9be
00000120: a3fd bdbe be2b 27bf 78e9 0a3f 2917 2f3f
00000130: c3c6 353f 6ea2 c7be a6b0 34bf b42f bfbe
00000140: c08d 123f fc5b db3e 11ea bdbe e1df 0a3f
00000150: ae52 c03e bbdd 25bf 36d3 233f 83f9 053f
00000160: 7f4c 08bf 6606 e13e 2303 fe3e 63d8 33bf
00000170: 416a e3be d946 293f 474a 293f 8a98 fa3e
00000180: d76b 2e3e 41f4 07bf d55b 0dbf ee2c cebe
00000190: 92ed d5be 5e34 3e3f d5bf f43e dc42 22bf
000001a0: 7e85 d4be d69d 0b3f e38b d73e 72af 383f
000001b0: 3c26 e73e 110f 373f 4ca3 08bf 773c 35bf
000001c0: 393f a2be e00a 023f dbdf 31bf a38c 15bf
000001d0: 9fc5 03bf 64f7 313f b912 28bf 7c13 333f
000001e0: 6bfa efbe 82a3 06bf dbbf 0dbf dc6f 05bf
000001f0: 9679 c2be 43e8 b63e f853 1cbf c218 06bf
00000200: 3a60 17bf e1b6 0c3f ce60 2e3f a220 be3e
00000210: 1f28 0c3f 5673 cc3e f7ef 033f 1764 c2be
00000220: d478 bcbe dc80 0cbf 1d76 c4be 1af6 343f
00000230: e474 09bf d6d4 0a3f 356b 0bbf 2ca9 283f
00000240: 690e 30bf 8171 cf3e bb3b 053f feb5 06bf
00000250: d3cc f3be 783c 0dbf 1563 2b3f 6df8 04bf
00000260: fd5f 033f 556c 063f 6ae2 dc3e b6c9 c93e
00000270: 3a44 cdbe 087c 033f 090a 14bf 30f8 d0be
00000280: f2ff 0abf 4e58 02bf d7f1 30bf c0e4 15bf
00000290: da01 083f b596 28bf d5c5 d8be c300 073f
000002a0: 5d91 343f bcfa 26bf 1221 01bf 6264 26bf
000002b0: 5a74 bebe 6174 cf3e 2d03 263f 4b5d 06bf
000002c0: 94c5 00bf 039f 08bf 8795 06bf fc89 073f
000002d0: cf4d babe 47d7 233f ba74 0abf c987 e1be
000002e0: 5197 0d3f a61e 2bbf 9bf7 cd3e 492d 243f
000002f0: 2d7f d6be e384 fc3e ea41 01bf 162e 2bbf
00000300: 9cd2 05bf fd00 293f fffd 0bbf ed95 dfbe
00000310: 79da f8be 0cea 34bf e39a bbbe 3a4a 2abf
00000320: 9c18 22bf d8ef 2fbf 9f94 0a3f 6207 073f
00000330: 7d26 d53e e071 34bf b4e5 f6be 8c34 bcbe
00000340: e514 f43e 6210 353f 7a8d 0fbf f444 183f
00000350: 06df 343f 96b4 03bf 6e2d fb3e 4dd3 0d3f
00000360: ffab 17bf 42ab 133f 9c09 223f 3871 06bf
00000370: 5e84 09bf bfb8 e23e 4d88 c83e 35fc 103f
00000380: 0208 343f 35fb 11bf f320 febe f859 19bf
00000390: 5aa9 2bbf c963 df3e a8da 0d3f 8432 c3be
000003a0: 5520 15bf c715 f33e 3152 0d3f 111c 023f
000003b0: ddfe 123f bf8f bf3e 8bf5 d3be 0824 c7be
000003c0: f4f6 0bbf fd27 163f 9ceb cebe 9e4f 0cbf
000003d0: a1dc 23bf db5b d73e bcfb babe 968c bc3e
000003e0: edc7 17bf b4fe 05bf ff7f f3be 19b3 17bf
000003f0: f58a 09bf 0f0b 343f 9e06 d1be 7923 04bf
-0.39466992 0.31487057 0.34362364 0.55380255 0.53212136 0.7022821 0.58675814 -0.6645255
-0.5754746 -0.35092932 -0.73272663 0.38925123 -0.38425538 0.38209155 -0.44865793 0.5451115
-0.49274024 0.5303533 0.39444733 -0.57047343 -0.6601265 -0.6716108 0.48212513 -0.59018767
0.70103997 0.39420965 0.69580364 0.587449 -0.6950082 0.5930472 -0.40239888 -0.5587216
-0.57905316 -0.5582009 -0.44997412 -0.38723415 0.34419546 -0.42196608 -0.6562161 0.39767313
0.37177926 -0.5473765 -0.57425565 -0.46016058 -0.6855964 0.70769686 0.4753633 -0.5396692
-0.6687459 -0.524337 -0.38186118 0.54042214 -0.6754043 0.5200364 -0.41750777 -0.7321306
0.6358045 -0.36506498 0.67402697 0.3708555 -0.7166229 0.5373216 -0.6857769 -0.416431
-0.6727726 0.42092457 -0.36745462 -0.6953349 -0.7126655 -0.39479148 -0.6090385 -0.4879859
-0.37107572 -0.6530112 0.54262495 0.68394715 0.7100641 -0.38991112 -0.70582044 -0.37341082
0.57247543 0.42843616 -0.3709264 0.5424786 0.3756308 -0.6479146 0.6399416 0.5233385
-0.53241724 0.43950194 0.49611768 -0.70252055 -0.44417003 0.6612373 0.66128963 0.48944503
0.17033325 -0.53107077 -0.5521825 -0.40268654 -0.41782814 0.74298656 0.47802606 -0.6338327
-0.41508096 0.54537714 0.42098913 0.7214271 0.45146358 0.71507365 -0.5337417 -0.7079539
-0.3168886 0.50797844 -0.694822 -0.5841772 -0.5147342 0.69518113 -0.6565357 0.69951606
-0.4687074 -0.52593243 -0.55370873 -0.5212381 -0.37983388 0.35724077 -0.61065626 -0.5238153
-0.59131205 0.5496655 0.6811646 0.37134272 0.5474872 0.39931744 0.5153803 -0.37966987
-0.36810935 -0.54884124 -0.38371363 0.7068802 -0.53693986 0.5423101 -0.5446046 0.65883136
-0.6877199 0.40516284 0.52044266 -0.5262145 -0.47617206 -0.55170393 0.6694806 -0.5194157
0.5131834 0.5250905 0.4314149 0.39411706 -0.40091115 0.5136113 -0.5782781 -0.40814352
-0.5429679 -0.5091599 -0.6911902 -0.5855217 0.53127825 -0.6585496 -0.42338434 0.5273554
0.70534307 -0.6522634 -0.50441086 -0.6499692 -0.37198144 0.40518478 0.64848596 -0.52486104
-0.5030148 -0.5336763 -0.5257191 0.5294492 -0.36387488 0.6400036 -0.5408436 -0.44048908
0.55309016 -0.6684364 0.4022797 0.641316 -0.41893902 0.49320135 -0.504912 -0.66867197
-0.5227449 0.66017133 -0.5468444 -0.43669072 -0.4860418 -0.7066963 -0.36641607 -0.6651951
-0.633188 -0.6872535 0.5413303 0.5274564 0.41630927 -0.7048626 -0.48222125 -0.3675884
0.4767219 0.70728123 -0.5607525 0.59480214 0.70652807 -0.5144743 0.49058098 0.55400544
-0.5924682 0.57683194 0.6329591 -0.5251651 -0.537176 0.44281575 0.3916649 0.5663484
0.7032472 -0.57023937 -0.49634513 -0.59902906 -0.67055285 0.43630818 0.5541177 -0.38124478
-0.5825246 0.47477552 0.5520354 0.50824076 0.5742014 0.37414357 -0.41398272 -0.38894677
-0.54673696 0.5865477 -0.4041413 -0.54808986 -0.6400853 0.42062268 -0.36520183 0.3682601
-0.5928944 -0.5234177 -0.4755859 -0.59257656 -0.53727657 0.70329374 -0.4082536 -0.51616627

attention_layer.att.bias f4 [128]
00000000: d452 023f a7d5 153f 9574 efbe 1928 9fbe
00000010: 9a08 743e 6657 313f 827d af3f 25d0 99bd
00000020: 9a93 13be eb26 153f 0602 1cbf a0a6 883f
00000030: e5f6 283f c00c b5bd 8b4b 7e3f 870f c13e
00000040: 3c34 e53e 03bb 12be 1ac9 293f a457 9ebf
00000050: a31f f43e 16e4 c4be 9c1e 0dbe ac9d 583d
00000060: a857 77bf 2cfb cb3e 21fb 1bbd 0946 1c3f
00000070: aca2 2fbf 13a8 ff3e e425 b53e ce9b 163f
00000080: ec3c 0a3f c71e 9a3f fb3a c7be 077a 9dbf
00000090: 8a2d d8be 0faf 13bf cd1c 153f f9a3 bfbb
000000a0: ce2f c3bd 9fea 493f 25f8 38bf a413 a3be
000000b0: e556 f4be eca1 ecbd 026e 883f 246d 4f3f
000000c0: e626 e5be bcd1 25bf 46bc 893e e360 aebe
000000d0: 4ab9 08bf 1335 9abe 5a18 40bf 62cf 51bf
000000e0: 953a ac3d b631 f93e 48ed 0b3f 96ec 1a3f
000000f0: c0d7 bb3f 4569 8d3d 705c 26bf c1bd c23e
00000100: a322 39bf 34bc 89bd 0e1c 68bf 0c00 d4be
00000110: 2dd6 6ebf ee8b da3e 0627 3abf e7bf 3b3e
00000120: 499c 233f 0722 303f 1712 82bf 8220 9c3f
00000130: 6e63 123f 587e 96bf 5cbe 8cbf 30e9 053f
00000140: 6718 c03e 39f8 9abf cdd5 6e3f 4e6f 1bbf
00000150: 4add 1f3d 9f97 8c3f 7bfe ed3e a468 553f
00000160: c266 713f fc32 99bf 16f6 5ebe 82b3 b2be
00000170: d282 ef3e 6f58 1cbf e8d9 163d b4c9 863d
00000180: cdc0 b33e f0ef 753f f7f4 93bf 3796 a3bf
00000190: 7cca 5a3d 2a69 a93e 2ac2 8a3e ba00 b53f
000001a0: 9ca4 703f 885f 81be e314 803e 13d4 6a3f
000001b0: eeee 253f c90b 69bf 455b 64be e2b8 c23e
000001c0: 3fb7 1f3f 9785 103f a18a 453e 9d1e 003f
000001d0: 6538 8abf f879 2e3d eea2 8dbf a84f 90be
000001e0: e4b1 853d 5624 173e eeba 1d3f c2f3 6fbe
000001f0: 3d28 8c3f b2f7 3bbe 0e1d b13f bc58 3a3f
0.50907636 0.5852913 -0.46768633 -0.3108528 0.23831406 0.69273984 1.3710177 -0.075104035
-0.14411774 0.5826251 -0.6094059 1.067585 0.6600173 -0.088403225 0.9933402 0.3770716
0.44766414 -0.14329152 0.6632248 -1.2370496 0.47680387 -0.38455266 -0.13781208 0.052884743
-0.9661813 0.39840066 -0.038081292 0.61044365 -0.6860759 0.49932918 0.3538047 0.5883149
0.5399921 1.2040642 -0.38912186 -1.2302865 -0.42222244 -0.57688993 0.5824707 -0.0058484045
-0.095306024 0.7887363 -0.7225364 -0.31850922 -0.47722545 -0.11554322 1.0658572 0.8102591
-0.4475624 -0.64773154 0.26901454 -0.34058294 -0.5340773 -0.30118617 -0.7503716 -0.81957066
0.08409611 0.4867074 0.5465894 0.6051725 1.4675217 0.06904844 -0.649848 0.38035396
-0.72318476 -0.0672535 -0.9066781 -0.41406286 -0.93295556 0.42684883 -0.72715795 0.18334924
0.6391035 0.6880192 -1.016177 1.2197421 0.5718297 -1.1757307 -1.0995593 0.5230894
0.37518618 -1.2107002 0.93294984 -0.6071671 0.039029397 1.0983771 0.46483216 0.83362794
0.9429742 -1.1968684 -0.21773562 -0.3490258 0.46779495 -0.6107244 0.036828905 0.065814406
0.35108033 0.9606924 -1.1559132 -1.2780217 0.05341576 0.33088046 0.2710126 1.4140847
0.94001174 -0.25268197 0.25015935 0.9172985 0.648177 -0.9103361 -0.22300442 0.3803168
0.62388986 0.5645384 0.19291164 0.5004671 -1.079846 0.042596787 -1.1065347 -0.28185773
0.065280706 0.14759955 0.6161336 -0.2343283 1.094978 -0.18356207 1.3836992 0.7279165

attention_layer.gate.weight f4 [128, 128]
00000000: 98f1 10bf d6e4 f83e ca24 303f 3396 db3e
00000010: 5079 213f 9db1 0e3f 88e9 ee3e eb4a bebe
00000020: 7b24 ccbe 7851 25bf ce98 04bf 6337 273f
00000030: 13e2 25bf be88 223f 511b 27bf 387f 083f
00000040: 8dd6 06bf 263d 093f 1235 133f fa59 0bbf
00000050: 8d1e 03bf 83c8 0abf 8764 093f 8085 0bbf
00000060: c320 033f f6d9 2d3f 90f4 023f 7ec9 093f
00000070: 1ab5 0abf 5e4c fa3e 601e 27bf bbc7 f6be
00000080: 6b44 10bf a889 0bbf ed8f 28bf eccf 12bf
00000090: e67c 003f 8a0a 06bf 43e1 01bf 85ea 1e3f
000000a0: bb55 2a3f 589e e3be 9302 e3be 4de7 14bf
000000b0: 053c c8be de49 d83e a79f 233f c174 c2be
000000c0: 58c3 d1be 5b09 2fbf d985 0bbf cc33 b83e
000000d0: 4a57 10bf c90a 2c3f 0f41 09bf 4b21 d4be
000000e0: 5387 d33e 3af2 34bf 5761 033f 1c0e 143f
000000f0: 4b71 03bf 583c 163f 3643 bebe e7b7 2cbf
00000100: 7261 10bf 1217 143f be96 01bf 8f64 c6be
00000110: 0a20 f0be 0245 1bbf 369e 0bbf b2cd 27bf
00000120: 0be6 c8be cef7 d0be 8b99 d13e 2d89 b73e
00000130: f2e2 ca3e d2a5 02bf adff fabe f631 21bf
00000140: 3da4 cc3e 002b 113f ef50 10bf 0d36 1a3f
00000150: 0ec8 003f 75d4 c0be b3e0 ea3e 40fe 233f
00000160: d9c9 0fbf 2eef 0d3f f623 013f 333f d2be
00000170: 6fe3 2fbf 5cf3 fe3e f702 ff3e 5a40 0e3f
00000180: ca5c 403f d973 2fbf 7289 d2be efb6 22bf
00000190: 673e 04bf d839 063f e74b 0b3f b78d fcbe
000001a0: b353 0fbf 94ab dc3e e76f 2b3f 37d9 043f
000001b0: 490e 343f a936 113f 54bd c1be 219f c8be
000001c0: abc7 00bf 18ae c93e 7554 0bbf 29e3 d8be
000001d0: c8e4 12bf a68d dc3e 15ce fdbe 4b31 0e3f
000001e0: 24ac 0abf 3a1a 06bf a425 bdbe 83f9 fdbe
000001f0: 5a9b 2ebf d66e 2f3f 0d4b 0dbf 7d26 13bf
00000200: 38c4 08bf dd05 0e3f 9460 283f 844b c73e
00000210: 645f 3c3f 0a75 d43e 30f0 003f 0d6d c9be
00000220: 3770 eabe 0482 2dbf 4da3 c5be ada9 053f
00000230: 77ec 22bf 15c8 003f d3d4 33bf 2467 233f
00000240: f31c 38bf a93b d53e 69c1 063f 7563 dcbe
00000250: 9d45 07bf b3c4 d3be ad20 273f 2734 fabe
00000260: 3df7 123f 006b 143f d84e 043f 157b 013f
00000270: 349f 04bf 335d cf3e 9886 08bf 2b1f fabe
00000280: 3a78 fcbe 59c0 febe 72b3 34bf ae3f ebbe
00000290: 2e41 0f3f 28d8 31bf 761f 0ebf a927 133f
000002a0: 3912 233f 4f85 14bf f823 bebe 3d1e 09bf
000002b0: b201 0dbf aa21 fc3e e451 3f3f 14d1 e3be
000002c0: 7d1d 0cbf 8d94 32bf 60c8 26bf 1408 f43e
000002d0: 36b9 e7be 733c 2f3f a642 0cbf a13e c4be
000002e0: 7a22 f93e 8032 0fbf 8cb8 eb3e 1aba 1a3f
000002f0: 1844 c7be ea03 fe3e 4d34 cabe 2f4b fcbe
00000300: 8b7a 09bf 1bc9 fe3e 9136 19bf 439f 03bf
00000310: d15b e3be d921 34bf b5aa 0dbf 5ee9 15bf
00000320: e0c0 20bf 3f90 b9be c041 cb3e 72cb 0b3f
00000330: 4c64 c83e 9694 3bbf 355d ffbe 66c5 bcbe
00000340: ed32 053f 1657 ed3e 1385 1abf 6b90 2d3f
00000350: 6357 383f 9f6d ddbe f002 0d3f 566b 143f
00000360: ce39 29bf bc70 3b3f 5ef8 1f3f c0b5 c9be
00000370: 8e0e 3abf 0f05 eb3e b1ec 103f 4eed 0d3f
00000380: 3c65 d3bd a98f 2bbf 8adc b8be 0f6a 3abf
00000390: 785e 03bf c328 fd3e 841d 1b3f 8ef1 02bf
000003a0: 1349 2cbf 4807 0f3f 5f5f 373f 4608 eb3e
000003b0: 0b28 153f 5806 f43e 6f0e 0ebf 128a e7be
000003c0: 8110 24bf 54f0 1d3f 8441 b8be 6669 b6be
000003d0: dc5c 37bf 97df fc3e 243b 0cbf aaa5 d63e
000003e0: 366f 30bf adc3 31bf 7ad1 0ebf 3cee 1fbf
000003f0: 9767 2bbf 5d40 2d3f 585f cabe beff 0cbf
-0.5661864 0.48612088 0.68806136 0.4288803 0.63075733 0.55739766 0.46662545 -0.37166533
-0.39871582 -0.64577436 -0.5179566 0.6531889 -0.64798087 0.634899 -0.65276057 0.5331912
-0.5267113 0.5360893 0.57502854 -0.5443417 -0.5121849 -0.54212207 0.5366902 -0.5450058
0.51221865 0.67910707 0.5115442 0.5382308 -0.5418259 0.4888639 -0.65280724 -0.48199257
-0.563544 -0.5450692 -0.65844613 -0.57348514 0.5019058 -0.5235983 -0.5073435 0.620766
0.66537064 -0.44456744 -0.443379 -0.58165437 -0.3910829 0.42243856 0.63915485 -0.379797
-0.40969348 -0.6837365 -0.5450111 0.35977018 -0.5638319 0.67203957 -0.53614897 -0.4143165
0.41314182 -0.7068211 0.51320404 0.5783403 -0.51344746 0.5868583 -0.37160653 -0.6746811
-0.5639869 0.578477 -0.5062064 -0.38748595 -0.46899444 -0.6065217 -0.54538286 -0.6554824
-0.3923801 -0.4081406 0.40937456 0.35846844 0.3962627 -0.5103427 -0.4902319 -0.6296686
0.39969054 0.5670624 -0.56373495 0.60238725 0.5030526 -0.37662092 0.45874557 0.6405983
-0.5616737 0.55443084 0.504455 -0.41063842 -0.6870641 0.49795043 0.4980695 0.5556694
0.75141585 -0.68536144 -0.41120487 -0.63560385 -0.5165772 0.5243201 0.5441269 -0.4932687
-0.5598709 0.43099654 0.66967624 0.51893944 0.703343 0.5672403 -0.37839758 -0.39183906
-0.5030467 0.39390635 -0.54425746 -0.4236081 -0.5738034 0.4307682 -0.4957129 0.55543965
-0.54168916 -0.5238377 -0.3694278 -0.49604425 -0.682058 0.685285 -0.55192643 -0.57480603
-0.53424406 0.55477697 0.65772367 0.389248 0.73583055 0.41495544 0.503665 -0.39341012
-0.45788738 -0.67776513 -0.3860115 0.5221203 -0.63642067 0.503053 -0.7024662 0.63829255
-0.71919173 0.4164708 0.5263887 -0.4304463 -0.52840596 -0.41361007 0.65284234 -0.48867914
0.57408506 0.5797577 0.51682806 0.50578433 -0.51805425 0.40500793 -0.53330374 -0.48851904
-0.49310476 -0.49756125 -0.7058631 -0.4594702 0.5595883 -0.69470453 -0.55516756 0.5748239
0.6369968 -0.5801591 -0.37136817 -0.53561765 -0.5508071 0.49244434 0.7473433 -0.4449545
-0.54732496 -0.6975792 -0.651495 0.47662413 -0.45258492 0.68451613 -0.547892 -0.38329032
0.48659116 -0.5593643 0.46039236 0.6044022 -0.3891914 0.4961236 -0.39493027 -0.4927611
-0.5370261 0.49762806 -0.59848887 -0.5141489 -0.44405988 -0.7036415 -0.55338603 -0.58559215
-0.62794304 -0.36242864 0.396986 0.5460731 0.3913902 -0.732736 -0.498758 -0.36869353
0.5203083 0.46355504 -0.60359305 0.6779849 0.7200834 -0.43247697 0.5508261 0.5797628
-0.6610383 0.73218894 0.62488353 -0.39396477 -0.7267846 0.45902297 0.5661116 0.55440223
-0.10322043 -0.67016083 -0.36105758 -0.7281808 -0.5131602 0.4944516 0.6059191 -0.51149833
-0.67299 0.55870485 0.716299 0.4590475 0.58264226 0.4766109 -0.55490774 -0.45222527
-0.6408768 0.61694837 -0.35987484 -0.35627288 -0.7162607 0.49389336 -0.5477774 0.41923267
-0.68919694 -0.694392 -0.55788386 -0.6247289 -0.6695494 0.67676336 -0.39525867 -0.5507773

attention_layer.gate.bias f4 [128]
00000000: 49db a03e 4ac3 133f 2dd7 8f3e 2f62 51bf
00000010: fb70 90bf 30c0 5c3e eeaa 653f 68bb 953f
00000020: 662b 32bf 80f1 b3bc 4405 363f d746 b43d
00000030: d3df f4bd ac1f 82be c41a 363e 7d25 82bf
00000040: f668 b2be 78c9 eebd f40b 103e f36f 923f
00000050: 1a15 37bd 7b8c ac3e e95a 8f3f 9533 333e
00000060: fd1a a6bf 59a4 85be 7887 a6be 41ea 90be
00000070: e401 663f fd4d 803d 7a0c 873f 7499 883f
00000080: 5195 6e3f 341f 1e3f ef18 9f3e 5953 213f
00000090: 2673 28bf 0014 8abe 3d56 853f d199 463e
000000a0: 27cb 40bc 027f 2d3f 6999 acbe 0af1 013e
000000b0: b2d1 143f df10 ca3e f5b3 aabe 0ebd 673f
000000c0: 9b95 46bf cf47 56be be63 4ebf bd9d 07bf
000000d0: ccaa 823f 0c3b a6bc f549 293f d780 3ebf
000000e0: 3bbb 86be 532c 20bf 0f87 71bf 93bb fb3e
000000f0: 8f3f 77bf 9c2a 0d3e 12fd 80be 36b6 31bd
00000100: 822e 613f e30a 8a3f af47 5d3f 0fbe 06bf
00000110: 9884 cfbe 42c7 fb3c 2709 743e d97a 0f3e
00000120: 7b9d 753f cc65 333f 5d73 c2be 2d54 51bc
00000130: ca02 1bbf 3dc4 ff3e 0834 933e b95b ec3b
00000140: 7990 953f 17a5 8f3f d3d9 823f 42de c8bd
00000150: 7a75 8abf 498d 2dbf ee6a 2b3f bc2a 8dbf
00000160: 46a1 803f 6f66 773f faab 17bf 47ef d3be
00000170: df8d 62bf ae51 7cbe 7d56 90bf 65fd 5f3b
00000180: 6982 a2bd 51ee 803f e3df 14bf 7435 e43e
00000190: 4937 c6be da71 a3bc 48d6 a9bd a2da 063e
000001a0: 92f6 703f d8f3 8dbf 9565 86bd f2cd e33e
000001b0: 9906 553f 9259 2e3f 3e97 933e c4c0 2e3f
000001c0: 3d8d 82bd e14b bf3f 6845 283f 832f 123d
000001d0: c92b 8c3f 5a4f 07be db57 6cbe 325b 74bf
000001e0: 7651 333d 1bf3 ad3e f060 373f d77c 1e3f
000001f0: f66d 9e3f 39fa 5f3d 3cd8 893f e1d4 8f3f
0.314173 0.5771986 0.28093854 -0.8179044 -1.1284479 0.21557689 0.89713943 1.1697817
-0.6959747 -0.021965742 0.71101785 0.08802574 -0.119567536 -0.2541479 0.17783648 -1.016769
-0.34845704 -0.11659521 0.1406706 1.1440414 -0.04469786 0.33700928 1.1199619 0.17500146
-1.2976986 -0.2610195 -0.3252523 -0.28303722 0.89846635 0.06264875 1.0550683 1.067183
0.9319659 0.6176636 0.3107371 0.63017803 -0.658007 -0.26968384 1.0416943 0.19394614
-0.011767185 0.67771924 -0.33710793 0.12689605 0.5813247 0.39465997 -0.3334042 0.9052285
-0.7757203 -0.2092583 -0.80620944 -0.52975065 1.0208373 -0.020291828 0.66128474 -0.74415344
-0.2631472 -0.62567633 -0.9434671 0.49166545 -0.9658136 0.13785785 -0.25193077 -0.04338666
0.8796159 1.0784572 0.86437505 -0.52633756 -0.40530849 0.030734662 0.23831616 0.14011706
0.9594342 0.70077205 -0.3797864 -0.012776417 -0.6055113 0.49954405 0.28750634 0.0072130826
1.1684715 1.1222256 1.0222725 -0.09808017 -1.0817101 -0.6779371 0.66960037 -1.1028666
1.0049217 0.96640676 -0.5924679 -0.41393492 -0.8849773 -0.24640533 -1.1276394 0.0034178135
-0.0793503 1.0072728 -0.58154124 0.44572031 -0.38714054 -0.01995175 -0.08292824 0.1316934
0.94126236 -1.109004 -0.06562344 0.4449306 0.8321319 0.68105423 0.28826326 0.68262887
-0.06374595 1.4945031 0.65730906 0.035689842 1.0950862 -0.13213864 -0.23080389 -0.95451653
0.04377886 0.33974537 0.7163229 0.6190924 1.2377307 0.05468199 1.0769114 1.123684

attention_layer.w.weight f4 [1, 128]
00000000: 05e6 95bf 869a b23e 2f4a 363f 2351 d93e
00000010: c71f 173f c10a 0b3f e27f 043f b75b 82bf
00000020: 5988 113f a686 303f 8e34 2bbf d94d fc3e
00000030: 3a71 183f 4278 8cbf 92b8 413f 216c febe
00000040: 3077 15bf 9ca8 183f a42e 223f 6971 1bbf
00000050: 4177 5abf 7cac 383f cb11 2dbf e78c 753f
00000060: 3e69 0dbf 59fa 9dbe 429d c1be 0fdd 213f
00000070: 321a 15bf 1970 263f 6824 f93e ed52 143f
00000080: 71b4 3a3f 1756 213f 7389 3b3f 1938 1dbf
00000090: 2aaa bc3e 0053 0dbf 8512 1e3f 1bcb 38bf
000000a0: 9e26 adbf dd45 de3e 853a 25bf 4b1e 02bf
000000b0: a4b3 c2be 0b10 8a3f a348 d33e e20b 203f
000000c0: bb3d fdbe 3b6a 1dbf 3df6 643d 34c9 833f
000000d0: f41c 2cbf f0cb 0a3f d8ed 29bf 7d1a cfbe
000000e0: 1943 0cbf c8c3 d0be 5445 0a3f 0796 b9be
000000f0: 844f 133f 6cd3 02bf 83ed 3f3e 4888 133e
00000100: f050 34bf 13ba d6bd 890c 29bf decb c8be
00000110: 6c6a 2abf 4dbd 1a3f 529c 9ebf 81db 033f
00000120: 2e69 f2be 65ef ac3e 8aa4 0ebf f0d9 d73e
00000130: 892c ce3e 3ca2 b8be c419 2abf a9ee 0c3f
00000140: e6ad 1f3f 2bd9 08bf e8ad 323f 25de fcbe
00000150: 04aa 303f d374 3d3f e590 ca3e 7d5f 4ebf
00000160: 5a85 2c3f 5b43 f5be db54 103f 732c f9be
00000170: 4f12 c13d 82c8 34bf 53d8 053f bd4c ab3f
00000180: 74a3 05bf e03b f4bc d9b0 f4be 2deb 45be
00000190: 168e 26bf 073b 083f dbdb 14bf d26a eb3e
000001a0: 64d7 213f 119a fdbe ce18 05bf 2b4d 083f
000001b0: 3ce0 313f bc80 19bf 4502 353f 4b22 f53e
000001c0: 77dd f83e c9c5 4e3f adbc 12bf 1b48 3a3f
000001d0: 7487 08bf 7354 183f a236 d6be c87a f63e
000001e0: 4813 26bf eb89 373f 0924 2d3f c822 383f
000001f0: 4d43 003f a0c3 fbbe fe9e 8f3f 351f 2d3f
-1.1710821 0.34883517 0.71206945 0.42444715 0.59032863 0.54313284 0.51757634 -1.0184239
0.56848675 0.6895546 -0.6687707 0.49278143 0.5954777 -1.09742 0.75672257 -0.4969187
-0.5838499 0.5963228 0.6335242 -0.60719925 -0.8533822 0.7213819 -0.67605275 0.95918125
-0.5523871 -0.30855063 -0.3781529 0.63227934 -0.58243096 0.650148 0.48660588 0.57939035
0.7293158 0.6302199 0.73256606 -0.61413723 0.36848575 -0.5520477 0.6174701 -0.72184914
-1.352741 0.43412676 -0.6454242 -0.50827473 -0.3802768 1.0786146 0.41266355 0.6251813
-0.4946116 -0.6149022 0.055898894 1.0295777 -0.6723168 0.54217434 -0.66378546 -0.40449896
-0.5478988 -0.4077437 0.54012036 -0.36247274 0.57543206 -0.51103854 0.18742947 0.14407456
-0.70436 -0.104847096 -0.6603475 -0.39218038 -0.66568637 0.604451 -1.2391455 0.5150681
-0.4734587 0.33776394 -0.55719817 0.4215846 0.40268353 -0.36061275 -0.66445565 0.55051666
0.6237472 -0.5345637 0.6979661 -0.49388233 0.69009423 0.74006385 0.3956367 -0.80614454
0.6739098 -0.4790295 0.5637948 -0.48666725 0.0942732 -0.7061845 0.5228321 1.3382794
-0.52202535 -0.029813707 -0.47791174 -0.19327994 -0.65060556 0.5321507 -0.5814797 0.45979935
0.63219285 -0.49531606 -0.51990974 0.5324275 0.6948278 -0.5996206 0.7070659 0.47877726
0.48606464 0.80770546 -0.57319146 0.72766274 -0.53331685 0.5950386 -0.41838557 0.4814055
-0.6487317 0.7169482 0.6763311 0.7192807 0.5010269 -0.49172688 1.1220396 0.67625743

mlp.0.0.weight f4 [128, 128]
00000000: 4641 d33e 56e5 e5be 515a fdbe 4cc2 89be
00000010: 6790 dbbe f52c dabe 85e9 a5be 5334 de3e
00000020: 5706 723e 1ba9 f73e 97ad 8a3e 3100 c1be
00000030: 8a08 c43e a486 c1be f7b1 fc3e 2e6f c8be
00000040: 31b4 e43e 05a1 9ebe 8dce b0be ba90 c73e
00000050: f4a5 943e 039f d53e dc18 d8be c8f5 a73e
00000060: 7701 0ebf 1123 05bf 1eb2 c9be 2848 cabe
00000070: 9d65 643e c403 f3be 1433 c83e dcf8 ab3e
00000080: 1071 a83e 1801 943e c01c f73e 0cc2 d73e
00000090: a955 cebe 66a9 ff3e 18e6 773d ef1e fbbe
000000a0: bb14 ecbe eeff ad3e c33a 8c3e 54d1 f43e
000000b0: 9eaf a33e 9556 c8be d546 05bf 8795 df3e
000000c0: 07d6 c73e 5934 cc3e 830b d73e 08a2 ddbe
000000d0: 367e 9b3e 55bc dcbe 4cea ba3e 4832 aa3e
000000e0: 0ed4 f5be 02ab cb3e f1b6 afbe 6239 c4be
000000f0: bf21 903e a04f d1be 0f27 dc3e bf2d d03e
00000100: cb3c db3e 089b e7be 70eb 003f cf49 b83e
00000110: 32d6 d23e f08a 093f e38e e23e 12e4 003f
00000120: 4a70 883e 4fae 9d3e 87eb b4be 6958 dabe
00000130: 414f a2be 380d d23e b5b0 b03e 8ec0 ae3e
00000140: f661 c5be 5b9b abbe 7132 b83e dd23 a9be
00000150: 1238 e1be 342b e33e 9731 c9be ab9f cbbe
00000160: 69a2 e73e 559f c6be d137 e3be 5186 903e
00000170: ad10 003f d981 6abe 3773 bdbe a91d f6be
00000180: d758 73be 3454 da3e aa4f 6a3e 13d0 f03e
00000190: 0aeb f13e 91d8 acbe f585 04bf 0dd9 b43e
000001a0: 376a ca3e 5c1a 96be fcda ebbe 0432 a9be
000001b0: 9c25 dfbe 51c0 91be ed60 a53e 2764 e83e
000001c0: d743 0b3f 6a8d c4be cfa3 ad3e 9460 9d3e
000001d0: 0269 c83e bc95 c6be b7bc d93e f2bb 8abe
000001e0: d1f9 033f 6bbf 2a3f 5b95 b03e c328 e73e
000001f0: f65d cb3e 2007 c0be 1f61 a63e 1c2a dd3e
00000200: af1f c63e 060f aebe 3b08 fcbe e405 b8be
00000210: aa15 bbbe f3f0 9fbe 914e b9be 52c7 a03e
00000220: 6f54 893e cf6e c13e a749 5e3e 1e82 febe
00000230: a760 d33e 6347 a5be bde7 c93e a23f c5be
00000240: 1d93 c03e 0f3a 79be faf8 ebbe e9cf a93e
00000250: e4b3 683e 1b60 8e3e 9af9 97be 66f4 c43e
00000260: c6e9 0dbf 45ea 36bf 1a38 c2be abe8 b2be
00000270: ca2e b23e 7690 05bf 4fba e83e 8e8b 913e
00000280: 4c8f 9a3e ad1b 843e 237a ef3e 1b33 8b3e
00000290: ee23 cabe afd1 da3e 2b7a 133e 174e dbbe
000002a0: 5f56 dabe 274d ac3e e928 a23e 6e62 bb3e
000002b0: fef6 c83e 32e3 8abe 99fc eebe e4de ba3e
000002c0: d03e ac3e 7137 d03e 432b de3e 4adb bbbe
000002d0: c8a7 a23e 7c6c d2be e299 a73e b481 823e
000002e0: ea86 b4be 6c74 cf3e 219e bbbe 3495 d3be
000002f0: b09f ad3e f224 ddbe c1d6 ce3e d7b8 f33e
00000300: f354 ae3e 4841 cbbe bc68 d73e 77ca 8e3e
00000310: 72f6 b83e 347e 293f 0a9d c23e ae51 da3e
00000320: 344c a53e ab6b 873e 34fc a4be 2ae6 c3be
00000330: 6361 90be c3ad c53e a12d a03e 82a2 8d3e
00000340: 6880 9dbe 9146 89be eff6 a13e 1d83 9fbe
00000350: 5a5a ffbe f62a d93e 6699 a9be b81c 9ebe
00000360: 3164 ab3e 38e2 ebbe 0c9e c0be 1f9f 7d3e
00000370: 6ccb d83e 7b30 65be 6756 83be 11df c4be
00000380: ce35 d5bd 2a0c 033f f09e 8f3e 3399 d33e
00000390: 80bb ef3e e166 88be 15e0 b8be 8f7d 8b3e
000003a0: 19cf fc3e f1b4 c0be e708 9ebe 9b69 a3be
000003b0: 33ee cebe 8058 82be 3952 873e 01ed 153f
000003c0: 9b83 183f 2ed1 d0be 9fc6 a33e 4196 203e
000003d0: 68aa f43e 9387 d4be 6c99 e73e e9a4 7bbe
000003e0: 849c bf3e 3c96 3c3f 3a98 883e 1fe7 bc3e
000003f0: a7f9 c83e 2a2d ccbe 9367 ca3e c445 8a3e
0.41260737 -0.44901532 -0.49482968 -0.2690605 -0.42883608 -0.42612424 -0.32404724 0.43399295
0.23635231 0.48371205 0.27085564 -0.3769546 0.38287765 -0.37798035 0.49354526 -0.39147323
0.44668725 -0.30982223 -0.34532586 0.38977605 0.29032862 0.4172288 -0.42206466 0.32804704
-0.55470985 -0.5200663 -0.39393705 -0.39508176 0.22304387 -0.4746381 0.3910147 0.33588302
0.3289876 0.28907084 0.48264122 0.42140234 -0.4029973 0.49933928 0.06052217 -0.49047038
-0.46109566 0.3398432 0.27388582 0.47815955 0.31969923 -0.39128557 -0.52061206 0.43668768
0.39030477 0.39883688 0.4200097 -0.43287683 0.3036973 -0.43112436 0.3650688 0.33241487
-0.48013347 0.39778906 -0.3431926 -0.3832503 0.28150746 -0.40881062 0.4299855 0.40659901
0.4281982 -0.45235467 0.5035925 0.3599381 0.41179043 0.53727627 0.4424964 0.5034801
0.2664817 0.3079705 -0.35335943 -0.42645577 -0.3170109 0.4102571 0.34509817 0.34131283
-0.385513 -0.33516964 0.35975984 -0.33035174 -0.4398809 0.443689 -0.39295647 -0.39770254
0.45241097 -0.38793436 -0.44378522 0.28227475 0.50025445 -0.22901095 -0.37001964 -0.48069504
-0.23764358 0.42642367 0.22881952 0.47033748 0.47249633 -0.33758977 -0.517669 0.35321847
0.3953416 -0.29316986 -0.4606551 -0.3304597 -0.4358338 -0.28467038 0.3230051 0.4538891
0.5440039 -0.3838914 0.3391404 0.30737746 0.39142615 -0.38786113 0.4252679 -0.27096516
0.51553065 0.6669833 0.3448895 0.45148286 0.39720124 -0.37505436 0.32495973 0.4319619
0.38696048 -0.33995837 -0.4922503 -0.35941994 -0.36539966 -0.31238517 -0.36192754 0.3140207
0.2682223 0.37779853 0.21707784 -0.49708647 0.41284677 -0.32281026 0.39434615 -0.3852511
0.3761224 -0.24338554 -0.46088392 0.33166435 0.22724873 0.27807698 -0.29682618 0.3846771
-0.55434835 -0.71451217 -0.37933427 -0.34943137 0.34801322 -0.52173555 0.45454642 0.28426784
0.30187452 0.25802365 0.4677287 0.27187428 -0.39480537 0.427381 0.14402072 -0.42833015
-0.4264402 0.33652613 0.31671837 0.36598533 0.3925094 -0.2712646 -0.46677092 0.36498177
0.33641672 0.40667298 0.4339238 -0.36690742 0.31768632 -0.41098392 0.3273459 0.2548958
-0.3525918 0.4051851 -0.3664408 -0.4132477 0.33910894 -0.4319225 0.4039822 0.4760196
0.34049186 -0.39698243 0.42072093 0.27888843 0.36125523 0.66208196 0.38010436 0.42640442
0.322847 0.26449332 -0.32223666 -0.3826154 -0.281993 0.38609132 0.31284812 0.27663046
-0.3076203 -0.2681165 0.31633708 -0.3115472 -0.4987362 0.4241559 -0.33124846 -0.30881286
0.33474877 -0.4607103 -0.3762058 0.24767731 0.423427 -0.22381775 -0.25651857 -0.38451436
-0.10410653 0.51190436 0.28050947 0.4132782 0.4682274 -0.2664099 -0.3610846 0.2724423
0.49376753 -0.37638047 -0.30866167 -0.31916508 -0.40416107 -0.25458145 0.26429918 0.58564764
0.59575814 -0.4078459 0.31987473 0.15682317 0.4778626 -0.41509685 0.4523424 -0.24574627
0.374241 0.7366674 0.2667864 0.3689508 0.3925297 -0.39878207 0.39532146 0.27006352

mlp.0.0.bias f4 [128]
00000000: e875 19bf 0864 2dbf 03fe 2abf efd4 cbbf
00000010: f3bc 87bf c121 8e3e 44fd 99bf a77a 41bf
00000020: a0f3 1cbf 41b4 37bf f3ad 2fbf 5e35 07bf
00000030: dc12 503f ac5a a13e 7ed7 123f 8da1 79bf
00000040: 3606 963e 3529 19bf c9a1 efbd e31a e8bf
00000050: 95e3 47bf 7633 813e 2b61 8fbf 0533 9dbf
00000060: 4381 a43e 63d6 28bf 7c61 9b3e db05 b5bf
00000070: af0a f43e 7da1 c2be 6614 9fbf d726 5d3e
00000080: 6315 5dbf 17ba cf3d 0661 34bf 4c74 48bf
00000090: 4c4b 3b3f 8fb7 1fbf 0f47 11bf 9e8f 0bbf
000000a0: 43b1 00bf ddd0 a4bf e376 acbf 1a2a f63e
000000b0: 912a 2d3e a9a2 6dbf c053 81bf 825f 35bf
000000c0: 651e 1c3f c072 1f3f 9cc8 8e3e b623 f7be
000000d0: a298 413f 0b17 04bf f6f0 66bf 6c9a 8abf
000000e0: 9dfb 1ebf 1e58 34bf 7686 71bf 3419 87bf
000000f0: 4dae b0bf e3b2 59bf 3aa6 e13e ca34 653e
00000100: 41ba 973e c281 293e bff4 3fbf 056c efbe
00000110: c500 95bf 3dc5 00bf 9b06 92bf cabf bfbf
00000120: e357 99bf 4eb6 19bf 0eba e0be d5be 193e
00000130: ec9e fcbe e80c cdbe 0bb5 62bf ac85 00bf
00000140: 775d f63e 0afd 1bbf 9412 0bbf a238 39bf
00000150: 5b9a fabe 3112 3bbf 3451 14be c6bb 58bf
00000160: c194 13bf e6d5 45bf 3145 1fbf 914f 32bf
00000170: dabd d1be af67 9abf f223 4dbf 2f54 31bf
00000180: a67b 7dbf 1c76 593f 2ccf 9fbf 6228 b03c
00000190: c41e 2fbf a109 5ebf dc6b 3dbe 4295 e0bf
000001a0: c343 39bf e56d 08bf 9cd1 b0bf 55b3 85bf
000001b0: fb21 92bf 5794 08bf 0d8a 67bf 9a2a 1dbf
000001c0: f1b9 cabf d8a2 1a3f 8499 e43d 9149 34bf
000001d0: afc4 863f 21e1 89bf a6c3 69bf 7ce1 16bf
000001e0: 38fe 01bf a2c2 0cbf b075 19bf c0a9 88bf
000001f0: 1c40 dcbe 3739 e6be bf93 96bf fe87 4c3d
-0.59945536 -0.6773076 -0.6679384 -1.5924357 -1.0604538 0.27760127 -1.2030416 -0.7557778
-0.6130924 -0.7175942 -0.686248 -0.52815807 0.8127878 0.3151449 0.57360065 -0.9751213
0.29301614 -0.598285 -0.1170078 -1.8133205 -0.7808164 0.25234574 -1.1201528 -1.2281195
0.3212987 -0.6595213 0.30347812 -1.4142412 0.476644 -0.3801383 -1.24281 0.21596847
-0.8636076 0.10142916 -0.70460546 -0.78302455 0.7316177 -0.62389463 -0.5674905 -0.5451602
-0.5027048 -1.287624 -1.3473781 0.48078996 0.16910769 -0.92826325 -1.0103683 -0.7084886
0.6098388 0.6228447 0.27887428 -0.48269433 0.75623524 -0.5159766 -0.9021143 -1.0828376
-0.6210268 -0.70446956 -0.94345796 -1.0554566 -1.3803192 -0.85038584 0.44072133 0.22383419
0.29634288 0.16553405 -0.7498283 -0.467621 -1.164086 -0.5030096 -1.1408266 -1.4980404
-1.1979946 -0.600438 -0.43891948 0.15014203 -0.49339998 -0.4004891 -0.885575 -0.5020397
0.48118183 -0.6093298 -0.5432522 -0.7235204 -0.4894589 -0.7307463 -0.14484102 -0.8466152
-0.57648855 -0.7727951 -0.6221495 -0.6965266 -0.40965158 -1.2062892 -0.80132973 -0.6926908
-0.990168 0.84945846 -1.2485099 0.021503631 -0.6840632 -0.8673344 -0.18498176 -1.754555
-0.7236902 -0.53292686 -1.3813968 -1.0445353 -1.141662 -0.5335135 -0.90445024 -0.6139313
-1.5837995 0.6040473 0.11162093 -0.70424753 1.0528773 -1.0771829 -0.9131416 -0.5893781
-0.5077853 -0.54984486 -0.599452 -1.0676804 -0.43017662 -0.44965526 -1.1763839 0.04993438
