dataset/models/IMMU_MCPcounter_Mono.lineage/model.pth (torch, 696702 bytes, 14 tensors)

tiles_emb.hidden_layers.0.weight f4 [128, 768]
0.0115739275 0.039077893 0.015521105 -0.020075789 -0.0015787715 -0.03206462 -0.03144909 -0.008108231
-0.03168718 -0.0030190628 0.029029492 0.0142766405 -0.007930551 0.029817656 -0.015796471 0.011875668
0.005601173 0.002512832 -0.029513111 0.020571541 0.015373536 -0.04092299 0.02907886 0.022564184
0.009339615 -0.00096335134 -0.019709429 0.007168723 -0.008054099 -0.03174659 -0.019766632 0.023967756
0.012600531 -0.005431895 -0.009784193 -0.005640983 -0.023161 0.04139788 -0.015382081 0.024969509
0.030759066 -0.028543327 0.035043053 -0.017155495 -0.006900156 0.0036109197 0.013876958 -6.599303e-05
0.009921299 0.031822376 -0.013973022 0.042385045 0.0048430883 0.002962634 0.015401194 -0.0023296375
-0.026651453 0.017016876 -0.031078946 -0.041754086 -0.002794415 -0.013907369 -0.01847257 0.008724338
-0.012076827 -0.03714214 -0.0036133567 -0.028920656 0.014097721 -0.024191981 0.015178572 0.029067341
0.01449249 -0.01630943 -0.010053076 0.010858781 -0.037216883 -0.011889257 -0.041883938 0.036472883
0.032086764 0.031348664 -0.01146531 0.025077244 -0.027089814 -0.0074087265 -0.033057522 -0.021175401
-0.01961068 -0.009346499 -0.0006628485 -0.02962548 0.024207732 0.02311324 0.039265033 -0.030336447
-0.014059586 0.01529016 0.0082181655 -0.0027402646 0.016048994 0.005373915 -0.0138306245 -0.009397308
-0.0068399445 -0.006626381 0.002036847 0.020376282 -0.013104379 0.0022523254 0.01952439 0.009244619
0.008356317 0.018265724 0.03833035 -0.013495884 -0.01337428 -0.007633016 -0.025259335 -0.01489598
-0.023789665 0.024520496 0.02297115 0.02224482 -0.026841449 0.0034987165 0.028252998 -0.037107248
-0.025314784 -0.015640017 0.03003721 0.039353874 -0.0060617155 -0.02906282 -0.015338821 -0.0070757656
0.018653287 -0.021330833 0.037698697 0.025120214 0.032644868 0.026827388 -0.027245242 -0.014222791
0.011845008 0.011983757 0.018755551 0.024694394 0.011975924 -0.009037886 -0.008537682 0.021832844
0.0038003789 -0.009681354 0.022350144 0.012415488 -0.03374992 -0.024122592 -0.01224421 0.016992705
-0.009101886 -0.008536084 0.014773014 0.021095162 -0.03556995 0.023659393 -0.0336926 0.027691634
0.0199588 0.024146046 -0.0299795 0.017246276 -0.01722039 0.028507706 0.001244772 0.01445501
-0.020738294 0.027263159 0.011213884 0.010350842 0.013450516 -0.025766404 -0.004703661 0.023986014
0.032197595 -0.005686487 -0.009734362 -0.0013693209 -0.0072769937 0.043845654 -0.0032291436 0.028790979
0.008069194 0.014005255 -0.02125263 0.02730383 0.0064803045 0.009125402 0.016584467 -0.011572503
-0.021472888 -0.02498637 0.025432697 -0.022338212 -0.022711698 -0.007435462 -0.0031311426 -0.017556375
-0.0031034313 -0.010039399 0.022613764 -0.028100036 0.002794457 0.013067103 0.021180872 -0.015198838
-0.027767748 0.03902568 0.014378182 0.02637413 -0.0237118 -0.00014901256 -0.008810479 0.029818075
-0.029406805 -0.031376913 0.008520344 -0.022224167 -0.030832054 -0.013909952 -0.019035101 -0.022927055
0.03189393 0.02765731 -0.027652666 -0.015188287 -0.0023374083 7.573513e-05 0.028734531 -0.026821183
-0.0073629143 0.005546337 -0.012435937 0.0090853805 -0.016355935 0.022991106 -0.008135686 -0.035176978
-0.0143719865 -0.015671054 0.025678603 0.0074627595 -0.0025128042 -0.0022103898 0.014204369 -0.027369678
00000000: 92a0 3d3c 2410 203d 3c4c 7e3c fb75 a4bc
00000010: c8ee ceba 3156 03bd c3d0 00bd 63d8 04bc
00000020: 6bca 01bd 78db 45bb 42cf ed3c 92e8 693c
00000030: 24ef 01bc 2844 f43c 9a67 81bc 2992 423c
00000040: 0b8a b73b 53ae 243b 7bc5 f1bc a685 a83c
00000050: 49e1 7b3c dd9e 27bd ca36 ee3c 86d8 b83c
00000060: 2f05 193c 6a89 7cba ab75 a1bc 9be7 ea3b
00000070: 57f5 03bc b608 02bd a2ed a1bc 0758 c43c
00000080: 7572 4e3c 0afe b1bb e14d 20bc ffd7 b8bb
00000090: 23bc bdbc d390 293d 2005 7cbc db8c cc3c
000000a0: 70fa fb3c b2d3 e9bc 4e89 0f3d ae89 8cbc
000000b0: b41a e2bb 2ea5 6c3b 2e5c 633c bd65 8ab8
000000c0: f28c 223c 2e58 023d 1aef 64bc f19b 2d3d
000000d0: c5b2 9e3b c028 423b 4a55 7c3c d5ac 18bb
000000e0: 2654 dabc fa66 8b3c 4699 febc 5506 2bbd
000000f0: 8122 37bb bcdb 63bc ca53 97bc 87f0 0e3c
00000100: e2dd 45bc 5b22 18bd 11ce 6cbb 03eb ecbc
00000110: 21fa 663c 432e c6bc 8caf 783c a21e ee3c
00000120: e971 6d3c 5b9b 85bc a8b5 24bc 07e9 313c
00000130: bb70 18bd 28cb 42bc 7e8e 2bbd 9764 153d
00000140: 696d 033d 7567 003d ffd8 3bbc cb6e cd3c
00000150: 75eb ddbc e7c4 f2bb 5367 07bd 0978 adbc
00000160: 94a6 a0bc 0f22 19bc 03c3 2dba 22b1 f2bc
00000170: 4b4f c63c fa57 bd3c 5fd4 203d 2484 f8bc
00000180: 2e5a 66bc 9483 7a3c 7ca5 063c 0396 33bb
00000190: 2e79 833c ab17 b03b d899 62bc 2bf7 19bc
000001a0: 9d21 e0bb 1d22 d9bb 9f7c 053b 29ec a63c
000001b0: c0b3 56bc c09b 133b 9df1 9f3c be76 173c
000001c0: efe8 083c 00a2 953c 4900 1d3d d71d 5dbc
000001d0: cc1f 5bbc 611e fabb aaec cebc 450e 74bc
000001e0: 8be2 c2bc 35df c83c fe2d bc3c c53a b63c
000001f0: 99e2 dbbc b94a 653b d572 e73c c5fd 17bd
00000200: f360 cfbc 7e1f 80bc 9810 f63c 8731 213d
00000210: 5ba1 c6bb 2715 eebc ae4f 7bbc d3db e7bb
00000220: c7ce 983c 00be aebc f369 1a3d e8c8 cd3c
00000230: a0b6 053d 1cc5 db3c 6a31 dfbc b606 69bc
00000240: 9011 423c 8557 443c 3ea5 993c e64b ca3c
00000250: aa36 443c a413 14bc a2e1 0bbc cbda b23c
00000260: c70f 793b 8b9e 1ebc a617 b73c 556a 4b3c
00000270: 5b3d 0abd be9c c5bc f09b 48bc 4934 8b3c
00000280: 1420 15bc eeda 0bbc 830a 723c c3cf ac3c
00000290: ccb1 11bd 58d1 c13c 4001 0abd 91d9 e23c
000002a0: a380 a33c eecd c53c 9297 f5bc 1048 8d3c
000002b0: c611 8dbc fe88 e93c 9e27 a33a b5d4 6c3c
000002c0: 5be3 a9bc fd56 df3c 70ba 373c 9496 293c
000002d0: 8e5f 5c3c 1114 d3bc 2b21 9abb 517e c43c
000002e0: a0e1 033d b655 babb e07c 1fbc c97a b3ba
000002f0: d973 eebb 8097 333d 0aa0 53bb 0fdb eb3c
00000300: a734 043c 4c76 653c ff19 aebc 48ac df3c
00000310: bc58 d43b b682 153c 26dc 873c 989a 3dbc
00000320: e9e7 afbc 37b0 ccbc 3b58 d03c a0fe b6bc
00000330: e20d babc 2da5 f3bb db33 4dbb 63d2 8fbc
00000340: f062 4bbb 4b7c 24bc 8040 b93c 0c32 e6bc
00000350: 3523 373b 6717 563c 8283 ad3c 8c04 79bc
00000360: 3079 e3bc 64d9 1f3d 7792 6b3c 8f0e d83c
00000370: 403f c2bc 4140 1cb9 d459 10bc 0945 f43c
00000380: 8ae6 f0bc 1485 00bd ea98 0b3c 750f b6bc
00000390: 8193 fcbc 91e6 63bc 80ef 9bbc 85d1 bbbc
000003a0: 36a3 023d 9591 e23c d887 e2bc 4bd8 78bc
000003b0: 342f 19bb fdd3 9e38 ae64 eb3c 19b8 dbbc
000003c0: 9a44 f1bb 0cbe b53b 1ac0 4bbc d9da 143c
000003d0: e2fc 85bc d857 bc3c 8a4b 05bc bc15 10bd
000003e0: 7b78 6bbc 9560 80bc ef5b d23c 2a8a f43b
000003f0: dcad 24bb 30dc 10bb 71b9 683c 6036 e0bc

tiles_emb.hidden_layers.0.bias f4 [128]
-0.036600344 -0.03722665 0.006850018 -0.013159182 -0.014654251 0.023090307 -0.037350204 0.011566838
0.022482956 0.035790067 0.009945466 -0.020630017 -0.028836273 -0.016123077 -0.013747192 0.008179457
-0.036363408 -0.010522209 -0.009173284 0.049516886 -0.008017761 0.03326342 -0.033243258 0.03248948
-0.009851559 0.016071869 0.023806768 -0.018679762 -0.0059972936 -0.035689097 0.008235525 -0.002567857
-0.009391235 -0.018593064 -0.00825035 -0.0142200515 -0.03553309 0.023761483 0.06590007 0.045447633
0.02298911 0.0060674823 -0.006855593 0.00967231 0.007860737 0.028102178 -0.013282831 0.034860283
0.008779862 0.04053848 -0.016718175 0.009535742 -0.0182116 0.008946108 0.01816077 -0.027165417
0.016960634 -0.027317371 0.0039809616 0.00906663 0.01319354 0.0057086674 0.034361627 -0.01674211
0.012584429 0.01783536 -0.033229064 -0.040947 -0.027553942 0.007649424 -0.013155126 0.0013091913
0.02170627 -0.032400414 -0.024686683 0.003285451 0.027547792 0.014593159 -0.013332553 -0.025062386
0.006369846 -0.0043122047 -0.009529791 -0.015906831 -0.04214747 -0.023795968 0.016341312 0.043418795
-0.0019369056 0.029093957 0.014767962 0.012961988 0.081092164 0.019968651 -0.014591056 -0.027030397
-0.03575754 0.009888435 0.005256132 -0.02555804 0.030036382 0.006428165 0.011954175 -0.01518374
0.043829087 -0.013225418 -0.018640857 0.0038667559 0.0144986175 0.034440607 0.0038667435 -0.009267552
-0.0083628455 0.025119098 -0.020962948 0.020633083 0.033678852 0.026933162 0.028735615 0.0020407636
-0.040181413 -0.018308384 0.014444444 0.0064710355 0.029850377 0.016354116 0.02926232 0.028924884
00000000: 3eea 15bd f97a 18bd 1e76 e03b 9c99 57bc
00000010: 6218 70bc e227 bd3c 87fc 18bd d682 3d3c
00000020: 2d2e b83c 9b98 123d 4ff2 223c 4800 a9bc
00000030: 0c3a ecbc 8b14 84bc e73b 61bc 2103 063c
00000040: ccf1 14bd 5865 2cbc 8b4b 16bc 38d2 4a3d
00000050: ed5c 03bc 393f 083d 152a 08bd b013 053d
00000060: 6f68 21bc 27a9 833c 6906 c33c 4d06 99bc
00000070: f284 c4bb bb2e 12bd 4cee 063c 7e49 28bb
00000080: b2dd 19bc 7b50 98bc 7a2c 07bc 38fb 68bc
00000090: 258b 11bd 71a7 c23c 9ef6 863d 4c27 3a3d
000000a0: a853 bc3c bbd1 c63b e2a4 e0bb 9c78 1e3c
000000b0: 52ca 003c 8a36 e63c 3ba0 59bc a8c9 0e3d
000000c0: 69d9 0f3c ad0b 263d 8ef4 88bc cd3b 1c3c
000000d0: 7e30 95bc b292 123c e5c5 943c 028a debc
000000e0: 07f1 8a3c aec8 dfbc ba72 823b 348c 143c
000000f0: b829 583c c60f bb3b c7be 0c3d c026 89bc
00000100: ec2e 4e3c 761b 923c 331b 08bd 0bb8 27bd
00000110: ceb8 e1bc 05a8 fa3b 9988 57bc 2c99 ab3a
00000120: 59d1 b13c 4cb6 04bd ba3b cabc b950 573b
00000130: e8ab e13c 2518 6f3c c870 5abc a24f cdbc
00000140: 24ba d03b 654d 8dbb d722 1cbc 0b4f 82bc
00000150: d3a2 2cbd c3ef c2bc 37de 853c e8d7 313d
00000160: c4df fdba 7356 ee3c 52f5 713c 855e 543c
00000170: a613 a63d 4c95 a33c 530f 6fbc da6e ddbc
00000180: 8076 12bd 1a03 223c a23b ac3b 185f d1bc
00000190: dc0e f63c 5ba3 d23b 72db 433c 39c5 78bc
000001a0: 2186 333d 6caf 58bc b6b4 98bc 6669 7d3b
000001b0: 9c8b 6d3c 9811 0d3d 3169 7d3b eed6 17bc
000001c0: 5104 09bc 91c6 cd3c 7dba abbc b606 a93c
000001d0: d6f2 093d efa2 dc3c f466 eb3c 55be 053b
000001e0: 4495 24bd 77fb 95bc 64a8 6c3c fb0a d43b
000001f0: c788 f43c 11f9 853c 88b7 ef3c e1f3 ec3c

tiles_emb.hidden_layers.2.weight f4 [128, 128]
0.06298616 -0.053115234 -0.04747676 -0.07811807 -0.042866044 -0.010159865 -0.068171464 -0.06961399
-0.04976803 -0.017833494 -0.00838083 0.105724506 -0.070662975 0.06632561 -0.07384008 0.08382347
0.082437195 -0.022146476 0.022984512 -0.021342628 0.074080355 0.016886154 -0.07735007 0.077464096
-0.058473144 0.05355984 0.090073936 -0.037770532 0.03291975 -0.00606464 -0.07290707 0.08263197
-0.038483907 0.036184087 0.071785875 0.0706264 -0.04989196 -0.017226601 -0.06468115 -0.0329388
0.014475453 -0.056951843 -0.041911505 0.09761718 -0.035055637 -0.07477191 0.04629798 0.06468985
-0.00015985889 0.04297319 0.12625723 0.077902324 -0.057076782 0.035512693 -0.077808075 0.051931318
0.079135515 0.02767543 0.0033229731 0.013146552 0.0152433105 -0.070059374 0.008698643 0.008538555
-0.07936322 0.025598938 0.080619045 -0.006445134 0.061135557 0.053112812 0.02566446 -0.051525485
0.10786465 0.064405 -0.064560585 0.042338043 0.0022071528 -0.093237996 0.016756464 -0.06419608
0.10827103 0.056767013 -0.043376658 -0.007685502 0.015668757 0.031218003 0.0073939743 -0.05656643
-0.049916897 0.07828592 0.030039487 -0.04517492 -0.03805608 -0.026903534 0.1032058 0.09703851
-0.024895886 -0.026662886 0.061188992 -0.011158026 0.051538054 -0.021201631 -0.111136675 0.035342306
-0.05463429 0.029507544 0.07547461 0.0533862 0.018580843 0.021565793 0.052625667 0.07945884
-0.049617443 -0.059724234 0.23389608 0.0546696 0.017341495 0.07608742 0.00090485427 -0.034789734
0.01864552 0.018019617 -0.053014953 0.11256234 0.04066007 -0.038758595 -0.062590644 -0.06337278
-0.06677142 0.07126923 -0.016562862 -0.09051112 -0.07759958 0.07586469 -0.040132627 -0.032662988
-0.027628196 -0.22033247 0.04045534 -0.06584347 0.070836656 -0.03622034 -0.031469952 0.009568654
0.013535972 0.05161962 -0.026767807 0.0025147614 0.053180378 -0.11323805 -0.046627343 -0.097214386
0.05486239 -0.020260707 0.058692638 0.06429994 -0.055156693 0.062969774 0.073136985 0.015643649
0.018437734 -0.06956533 -0.0316295 0.0014348992 -0.088646844 -0.031480357 0.0014905303 -0.0851302
0.07598687 -0.009703883 -0.0035129439 -0.010052382 -0.20258969 -0.053230405 -0.05746097 -0.09586383
0.061163686 -0.00571241 0.061097182 0.02940529 -0.0648243 0.05401049 3.2433763e-05 -0.08741249
-0.061888143 0.0758294 -0.08774225 -0.09019867 -0.041741483 0.021552015 0.0450594 0.0584944
0.048763257 -0.01702274 0.03652853 -0.0019070265 0.03802083 0.030068012 -0.09634097 0.026960699
-0.014619306 0.055201847 -0.087889686 0.054599814 0.07968117 -0.124071695 -0.056112964 0.01719012
-0.061292827 0.065597504 -0.06202847 0.014227543 -0.013468187 0.05889618 -0.06947254 0.010135135
-0.043409046 0.09759552 -0.09614731 -0.03212888 -0.13494015 0.0015913725 0.03167457 0.020294653
0.07339112 0.09063416 0.04130895 -0.010117424 -0.048770726 0.07494614 -0.21508789 0.074923806
-0.05973022 -0.09728924 -0.0204548 -0.08170649 -0.11996183 0.010850514 -0.044613417 0.022209283
-0.0726562 0.007508028 0.2311037 -0.048871703 0.042255845 0.027700668 0.06311482 0.089907564
-0.019555021 -0.018725283 -0.022280108 0.01742254 -0.120445795 -0.0646838 -0.070304565 -0.060453128
00000000: e3fe 803d 5c8f 59bd fe76 42bd 5efc 9fbd
00000010: 4e94 2fbd 9075 26bc 7b9d 8bbd c891 8ebd
00000020: 90d9 4bbd 8c17 92bc c04f 09bc 1786 d83d
00000030: c0b7 90bd b9d5 873d 7839 97bd a4ab ab3d
00000040: d5d4 a83d 876c b5bc 044a bc3c bcd6 aebc
00000050: 71b7 973d d554 8a3c b769 9ebd 7fa5 9e3d
00000060: 8981 6fbd 9061 5b3d af78 b83d 46b5 1abd
00000070: dcd6 063d e3b9 c6bb 4d50 95bd f33a a93d
00000080: 4da1 1dbd c435 143d 7904 933d 93a4 903d
00000090: 835b 4cbd cd1e 8dbc 8d77 84bd d6ea 06bd
000000a0: 732a 6d3c 5646 69bd 66ab 2bbd 84eb c73d
000000b0: 8096 0fbd 0422 99bd f3a2 3d3d 1d7c 843d
000000c0: cb9f 27b9 a804 303d 9349 013e 418b 9f3d
000000d0: 58c9 69bd c275 113d d759 9fbd efb5 543d
000000e0: cd11 a23d 95b7 e23c 3dc6 593b a364 573c
000000f0: 14bf 793c 4a7b 8fbd c184 0e3c 4ce5 0b3c
00000100: 2f89 a2bd ddb4 d13c 991b a53d b431 d3bb
00000110: 4769 7a3d d28c 593d 463e d23c 630c 53bd
00000120: 24e8 dc3d c5e6 833d 5738 84bd a86a 2d3d
00000130: e1a5 103b 90f3 bebd da44 893c 3c79 83bd
00000140: 34bd dd3d 8784 683d b9ab 31bd aad6 fbbb
00000150: c45b 803c e6bc ff3c 2749 f23b 33b2 67bd
00000160: a975 4cbd 5e54 a03d 5f15 f63c 5609 39bd
00000170: b1e0 1bbd cd64 dcbc 905d d33d 20bc c63d
00000180: 75f2 cbbc 206c dabc 4fa1 7a3d 27d0 36bc
00000190: 9119 533d 0baf adbc a09b e3bd 18c3 103d
000001a0: 35c8 5fbd ceb9 f13c 6f92 9a3d 7dab 5a3d
000001b0: da36 983c bfaa b03c 038e 573d 51bb a23d
000001c0: a93b 4bbd 66a1 74bd 7482 6f3e 3bed 5f3d
000001d0: c00f 8e3c b9d3 9b3d be33 6d3a ae7f 0ebd
000001e0: 7dbe 983c e09d 933c 3526 59bd 1687 e63d
000001f0: 2c8b 263d 55c1 1ebd 862f 80bd 97c9 81bd
00000200: 74bf 88bd 9af5 913d d7ae 87bc e55d b9bd
00000210: 87ec 9ebd f25e 9b3d 1c62 24bd a0c9 05bd
00000220: 8754 e2bc d69e 61be 80b4 253d f1d8 86bd
00000230: cf12 913d c75b 14bd a3e6 00bd d8c5 1c3c
00000240: fbc5 5d3c 186f 533d 2948 dbbc b2ce 243b
00000250: abd3 593d 5ae9 e7bd 50fc 3ebd 5618 c7bd
00000260: 63b7 603d c8f9 a5bc b167 703d b0af 833d
00000270: fceb 61bd 4cf6 803d d8c8 953d 1c27 803c
00000280: bb0a 973c 4578 8ebd ef8d 01bd 3a13 bc3a
00000290: 7a8c b5bd 8cf1 00bd e65d c33a be58 aebd
000002a0: 019f 9b3d 09fd 1ebc 6b39 66bb bfb2 24bc
000002b0: ac73 4fbe 2008 5abd 325c 6bbd 4154 c4bd
000002c0: c686 7a3d 2b2f bbbb 0a41 7a3d 5de3 f03c
000002d0: 9ac2 84bd 1b3a 5d3d 7d09 0838 5205 b3bd
000002e0: 6c7e 7dbd 724c 9b3d 35b2 b3bd 15ba b8bd
000002f0: 1ef9 2abd da8d b03c 3590 383d d397 6f3d
00000300: fbbb 473d 4673 8bbc f19e 153d 31f5 f9ba
00000310: bbbb 1b3d 3151 f63c 6a4e c5bd afdc dc3c
00000320: d085 6fbc 551b 623d 82ff b3bd 0ea4 5f3d
00000330: e22f a33d 4d19 febd b5d6 65bd 4bd2 8c3c
00000340: 300e 7bbd fc57 863d 9111 7ebd a41a 693c
00000350: aca9 5cbc 1f3d 713d 9e47 8ebd d60d 263c
00000360: afcd 31bd 29e0 c73d e2e8 c4bd 9399 03bd
00000370: c02d 0abe 9a95 d03a 32bd 013d f940 a63c
00000380: 154e 963d 679e b93d 9333 293d 8dc3 25bc
00000390: d0c3 47bd 5d7d 993d 0040 5cbe a771 993d
000003a0: ada7 74bd 953f c7bd d390 a7bc bb55 a7bd
000003b0: 8cae f5bd 5bc6 313c 8fbc 36bd 3ef0 b53c
000003c0: c6cc 94bd e705 f63b 73a6 6c3e b22d 48bd
000003d0: 7714 2d3d 83ec e23c 5842 813d 7521 b83d
000003e0: da31 a0bc c465 99bc c684 b6bc b7b9 8e3c
000003f0: 49ac f6bd f178 84bd d7fb 8fbd b39d 77bd

tiles_emb.hidden_layers.2.bias f4 [128]
-0.06380178 -0.054692134 -0.042690936 -0.046149265 0.032202385 0.009719582 0.025129687 0.06343696
0.07059779 -0.010517651 -0.119635254 0.037644442 -0.06164462 -0.07056654 -0.08574108 0.076915346
0.04397732 0.006437404 -0.02124612 0.073886804 0.051360283 0.07817209 -0.05749023 -0.05285184
0.0029983798 -0.06978315 0.006926194 -0.035193577 0.086300716 0.07452314 -0.050136037 0.02287206
0.079192996 0.07954593 -0.045771852 -0.028108796 -0.020351417 0.00642044 0.070686646 0.001669575
-0.03513712 -0.07954721 -0.04931101 -0.07231467 0.032497708 0.070899196 -0.041536365 0.064389035
-0.018039634 -0.054805752 0.03928728 0.09587043 0.019962544 -0.03591738 0.016362103 -0.03867256
0.09138242 -0.029356718 0.0186404 0.06704776 0.030681543 0.039365746 -0.015979325 -0.0009961347
0.037803832 0.02484272 -0.003923237 -0.012067289 -0.028269177 -0.09842187 -0.05605401 0.052827198
-0.09472675 -0.06118482 -0.00665082 -0.039876733 0.07294112 -0.038591236 -0.047751512 0.07740434
-0.023043774 -0.013230812 -0.021129012 -0.0099114785 -0.09194302 0.08543526 -0.06209085 -0.042573705
-0.01248438 -0.081550725 0.035135347 0.037143968 -0.065971315 0.026545305 0.0037715307 -0.08261093
0.091128275 -0.03790589 0.08869909 0.09282741 0.05302439 0.033223134 -0.07856431 0.081834584
-0.10570854 -0.047349755 -0.067908324 -0.07373636 0.020579575 -0.023165558 -0.075455196 0.05920492
-0.04433069 -0.07342928 0.063929476 0.022211693 -0.11810024 0.03680908 -0.04218581 -0.0667055
0.015174717 -0.08172811 -0.019411108 -0.044223815 0.12329788 -0.07892664 0.06333199 -0.005300744
00000000: 82aa 82bd dc04 60bd b1dc 2ebd 0307 3dbd
00000010: a6e6 033d e23e 1f3c c6dc cd3c 3deb 813d
00000020: 9395 903d 3a52 2cbc 5403 f5bd 0f31 1a3d
00000030: 127f 7cbd 3185 90bd 0599 afbd cb85 9d3d
00000040: 9021 343d dcf0 d23b 580c aebc f751 973d
00000050: 295f 523d b018 a03d e07a 6bbd 2c7b 58bd
00000060: 7780 443b 78ea 8ebd 20f5 e23b 2427 10bd
00000070: 6ebe b03d 979f 983d 725b 4dbd 305e bb3c
00000080: f02f a23d fae8 a23d 447b 3bbd 6b44 e6bc
00000090: 04b8 a6bc 8e62 d23b 29c4 903d a4d5 da3a
000000a0: f1eb 0fbd a6e9 a2bd 57fa 49bd b719 94bd
000000b0: 511c 053d 9933 913d 0922 2abd 66de 833d
000000c0: dbc7 93bc ff7b 60bd b3eb 203d b757 c43d
000000d0: 7d88 a33c 1a1e 13bd d109 863c 1e67 1ebd
000000e0: b526 bb3d 807d f0bc c1b3 983c 5650 893d
000000f0: dc57 fb3c fa3d 213d 13e7 82bc bc90 82ba
00000100: 31d8 1a3d f682 cb3c 7f8e 80bb e1b5 45bc
00000110: c394 e7bc 6891 c9bd e498 65bd 5561 583d
00000120: 1900 c2bd ef9c 7abd 1fef d9bb c955 23bd
00000130: 2762 953d d811 1ebd 1797 43bd 2b86 9e3d
00000140: 4cc6 bcbc 0cc6 58bc c016 adbc c163 22bc
00000150: 9f4c bcbd aef8 ae3d fa52 7ebd c461 2ebd
00000160: 498b 4cbc 1104 a7bd 15ea 0f3d 4624 183d
00000170: f81b 87bd 8a75 d93c c92b 773b eb2f a9bd
00000180: 76a1 ba3d 3543 1bbd dea7 b53d 4c1c be3d
00000190: 1a30 593d fb14 083d 53e6 a0bd e498 a73d
000001a0: b87d d8bd d1f1 41bd 8513 8bbd 1703 97bd
000001b0: 7f96 a83c b2c5 bdbc 4188 9abd dc80 723d
000001c0: 1994 35bd 1762 96bd 75ed 823d 4cf5 b53c
000001d0: 8ade f1bd 1ec5 163d 07cb 2cbd e59c 88bd
000001e0: 609f 783c 1161 a7bd 0b04 9fbc 0824 35bd
000001f0: 9983 fc3d 4aa4 a1bd 34b4 813d ddb1 adbb

attention_layer.att.weight f4 [128, 128]
0.054527823 -0.107688054 0.0031673256 -0.0016098658 -0.06667698 -0.06263286 0.052605588 -0.019621193
-0.0019150611 -0.021018423 -0.036138017 -0.104582004 -0.0385545 0.003499982 0.05627305 -0.047226846
0.04150183 0.016134989 0.06423893 -0.012572726 0.00800408 -0.060545575 0.05041461 -0.049771894
0.07375399 -0.029927365 -0.017542347 -0.035443533 0.01038582 -0.009592572 -0.010438717 -0.0633414
0.061610386 -0.07070544 0.05120232 0.079981506 -0.08579373 -0.017253498 -0.014442371 0.09302653
0.02820374 0.006512061 0.032983877 0.06812937 0.0041813003 -0.035865076 0.038558677 -0.02196517
-0.018049095 0.061809257 0.05050596 -0.07772259 -0.038122166 0.019459836 -0.010995086 -0.074510604
0.070521235 -0.051418755 0.030689193 0.031044163 0.059460647 -0.016258072 -0.110451795 -0.06455675
0.032200154 0.09003488 0.030218132 0.060022887 0.009390954 0.043234095 -0.08183177 -0.09915694
0.044311028 0.053267736 0.064873114 0.07717392 0.06847591 -0.072781675 -0.040938973 -0.0011941468
0.084566064 -0.012613335 0.04414027 -0.03300874 -0.065489605 -0.018942613 -0.16883677 0.123176865
0.05832317 -0.05967773 0.0635238 0.018588882 0.055718582 -0.100612685 -0.08330821 0.0603473
-0.0149844345 -0.046819586 0.021469597 -0.01797133 -0.044634815 -0.022477116 0.022352304 0.00757094
-0.00924573 -0.050173644 -0.0057326 0.00047820687 -0.15899317 0.005451058 -0.012519372 0.03320819
-0.026274843 0.07603659 0.0926675 0.029029872 -0.035200577 -0.02476832 -0.016279496 0.09628561
-0.09276533 0.100858964 0.051032525 -0.069856554 0.05311109 0.1070654 0.0027808968 0.047227714
-0.08725441 0.051792298 -0.079930566 -0.10186387 0.046500795 -0.056539617 0.020391585 0.058699157
-0.055618785 -0.00497097 -0.046402954 0.08571874 0.025487749 0.02545032 0.02493282 -0.0916866
0.039363097 -0.026782725 0.05324618 0.042483605 -0.08378282 0.02802751 0.0019147234 0.05622152
-0.04039415 -0.07453639 -0.049422745 0.06758624 0.07174159 0.0027856603 -0.077070296 0.011156296
0.057754993 -0.007949524 -0.079999164 0.0073936484 -0.052976113 0.004756797 0.04835878 -0.11451689
-0.016733069 -0.019037837 -0.05777692 -0.06828698 -0.031822037 -0.005665997 -0.087915346 0.020074122
0.04261296 -0.010686294 0.11028523 -0.06706731 0.07332937 0.064070106 0.05988555 0.07088004
-0.14453627 0.06520517 0.09532363 -0.05935557 -0.033573564 -0.052442174 -0.0143635925 0.04975565
0.096829586 -0.037507735 -0.009992639 -0.081588306 -0.015268342 -0.10087202 0.11442994 0.058184743
0.073406026 0.008807273 0.03187956 0.031066496 -0.03762797 -0.042832855 0.0025570118 -0.035154466
-0.05786698 0.03699197 0.0024299757 0.07512252 -0.046784382 -0.06386817 0.05369054 -0.07977483
-0.02060959 -0.070734315 0.067116275 -0.08499356 0.031577174 0.030388948 0.053536247 0.026018474
-0.026534904 -0.10324693 -0.058634747 -0.11106802 -0.03256502 0.023172518 0.013352501 0.07334946
-0.048784576 -0.0423051 0.058403984 0.07564751 -0.0010886629 0.04422577 0.008401944 -0.02680489
-0.0019595297 0.03978389 -0.069632225 -0.06044584 -0.057294164 0.08603377 0.025042342 -0.11358847
0.07597044 0.050025005 -0.082022995 0.002227778 0.008823281 0.026572589 0.06587046 0.041051332
00000000: 9158 5f3d 8e8b dcbd e892 4f3b 2202 d3ba
00000010: f18d 88bd a845 80bd f578 573d a0bc a0bc
00000020: ca02 fbba d42e acbc 7505 14bd 172f d6bd
00000030: 53eb 1dbd f45f 653b 927e 663d f070 41bd
00000040: d3fd 293d 862d 843c b38f 833d d6fd 4dbc
00000050: 8b23 033c a3fe 77bd 8d7f 4e3d 9ddd 4bbd
00000060: 550c 973d 3c2a f5bc f8b4 8fbc 3d2d 11bd
00000070: 4929 2a3c 2a2a 1dbc 2707 2bbc 23b9 81bd
00000080: 2c5b 7c3d 04ce 90bd 86b9 513d 58cd a33d
00000090: a0b4 afbd 3557 8dbc b29f 6cbc b284 be3d
000000a0: 880b e73c 2163 d53b 1a1a 073d 6987 8b3d
000000b0: 4a03 893b 42e7 12bd b4ef 1d3d 4df0 b3bc
000000c0: b2db 93bc b42b 7d3d 56df 4e3d 052d 9fbd
000000d0: fd25 1cbd 3c6a 9f3c bc24 34bc 0499 98bd
000000e0: 706d 903d 799c 52bd e767 fb3c 5450 fe3c
000000f0: 028d 733d a62f 85bc 8d34 e2bd 5436 84bd
00000100: 4fe4 033d 3564 b83d 048c f73c 8fda 753d
00000110: 84dc 193c 3c16 313d 6a97 a7bd cb12 cbbd
00000120: 7b7f 353d 452f 5a3d 32dc 843d 5c0d 9e3d
00000130: 193d 8c3d 8f0e 95bd a0af 27bd eb84 9cba
00000140: f930 ad3d 29a8 4ebc 6ecc 343d 2c34 07bd
00000150: 6a1f 86bd 8a2d 9bbc 8ce3 2cbe 2744 fc3d
00000160: 47e4 6e3d a370 74bd c418 823d b647 983c
00000170: 2b39 643d 060e cebd 7f9d aabd bb2e 773d
00000180: 4681 75bc e5c5 3fbd 02e1 af3c 9c38 93bc
00000190: ffd2 36bd ee21 b8bc 2e1c b73c a615 f83b
000001a0: 677b 17bc e182 4dbd 89d8 bbbb d7b7 fa39
000001b0: 1bcf 22be ca9e b23b 0d1e 4dbc 5005 083d
000001c0: 573e d7bc 12b9 9b3d 75c8 bd3d 0ed0 ed3c
000001d0: 7b2e 10bd efe6 cabc 945c 85bc 6431 c53d
000001e0: c0fb bdbd 258f ce3d 7b07 513d f410 8fbd
000001f0: 048b 593d 1b45 db3d b53f 363b d971 413d
00000200: 71b2 b2bd 2924 543d a3b2 a3bd 019e d0bd
00000210: 9e77 3e3d 1696 67bd 410c a73c 876e 703d
00000220: 86d0 63bd 85e3 a2bb 0611 3ebd 4f8d af3d
00000230: afcb d03c 317d d03c ea3f cc3c 2fc6 bbbd
00000240: 333b 213d 7267 dbbc ab18 5a3d 4a03 2e3d
00000250: 5496 abbd f399 e53c 75f7 fa3a 8948 663d
00000260: 5674 25bd 89a6 98bd 816f 4abd a86a 8a3d
00000270: 41ed 923d a08f 363b 08d7 9dbd e6c8 363c
00000280: 8090 6c3d b83e 02bc 9ad6 a3bd 6b46 f23b
00000290: 7bfd 58bd e8de 9b3b db13 463d d587 eabd
000002a0: ca13 89bc 3df5 9bbc 7ea7 6cbd 0bda 8bbd
000002b0: d357 02bd d4a9 b9bb f60c b4bd 7c72 a43c
000002c0: ed8a 2e3d 9115 2fbc 39dd e13d 965a 89bd
000002d0: b52d 963d 3037 833d 8d4a 753d 8e29 913d
000002e0: 5101 14be 4a8a 853d 0939 c33d d31e 73bd
000002f0: 6f84 09bd 9bcd 56bd 4655 6bbc 95cc 4b3d
00000300: 974e c63d b6a1 19bd 2ab8 23bc c517 a7bd
00000310: 1128 7abc fd95 cebd 3f5a ea3d 2053 6e3d
00000320: e655 963d 614c 103c 2494 023d 2a7f fe3c
00000330: c91f 1abd 8171 2fbd 8a93 273b 21fe 0fbd
00000340: ed05 6dbd e484 173d 3a40 1f3b d6d9 993d
00000350: fba0 3fbd 51cd 82bd 9dea 5b3d fc60 a3bd
00000360: 71d5 a8bc 27dd 90bd 4274 893d 1b11 aebd
00000370: 1157 013d 3ef2 f83c d348 5b3d b224 d53c
00000380: ba5f d9bc 2073 d3bd fd2a 70bd a177 e3bd
00000390: e662 05bd 4bd4 bd3c 73c4 5a3c 3e38 963d
000003a0: 56d2 47bd 1d48 2dbd 0439 6f3d 15ed 9a3d
000003b0: 77b1 8eba 1526 353d 4fa8 093c ee95 dbbc
000003c0: 746b 00bb 6ff4 223d 579b 8ebd 0f96 77bd
000003d0: 49ad 6abd 7932 b03d 9925 cd3c 12a1 e8bd
000003e0: 6496 9b3d 05e7 4c3d acfb a7bd eaff 113b
000003f0: 868f 103c c2ae d93c 17e7 863d 7125 283d

attention_layer.att.bias f4 [128]
0.079394855 -0.090018205 -0.06450043 -0.0075774705 -0.103647254 0.07246243 -0.0037857925 -0.03266837
-0.00777518 0.0907124 0.07627855 -0.05785485 0.017613968 -0.09257843 0.0594689 -0.011470254
-0.05802056 0.010322022 0.056561776 -0.08144131 0.04630228 0.0312024 0.028673539 -0.008353142
0.041345403 -0.024274353 0.037861045 0.03697127 -0.009599062 0.0448381 -0.07243868 -0.061103888
0.04030481 -0.031045666 0.044221383 0.0642937 0.0059597967 -0.030203998 0.07966465 -0.07001247
0.02806789 -0.053874034 0.019051729 -0.031550974 0.0042636674 -0.06498767 0.07335877 -0.07718429
0.05375366 -0.025680875 0.023890983 0.031381767 0.006839039 0.0117511265 -0.041756738 -0.043550663
-0.062372938 0.06354599 0.040413473 0.096858926 0.056435145 0.033922423 0.07568901 -0.05563133
0.04472587 -0.05534991 -0.035998248 0.07695545 0.008603353 -0.061637163 0.058400158 0.013612528
0.056358647 -0.0029218087 0.019316807 -0.0067907386 -0.10585019 -0.066516526 0.06291617 -0.080781944
0.0058707264 -0.060239468 0.051505852 -0.011203911 0.08243228 -0.06408684 0.017176965 0.05439284
0.08635296 -0.03772893 -0.022612484 -0.078870475 0.03286479 0.014136321 0.008872446 0.060699996
0.0812195 0.01874606 -0.09751339 0.018360531 0.07253266 -0.062398735 -0.07570517 -0.04997826
0.071734235 -0.06635269 -0.06436799 0.021143429 -0.034115307 0.05911689 -0.04376924 0.0017229392
-0.0074520973 -0.013609242 0.07663526 0.044453014 -0.053572655 -0.08393071 -0.0047041373 -0.04966114
0.0067211734 0.03184236 0.04942501 -0.08686241 -0.057846744 -0.0065590944 -0.022500947 -0.051250454
00000000: c599 a23d 775b b8bd cd18 84bd 6e4c f8bb
00000010: 0345 d4bd 2f67 943d 0f1b 78bb 45cf 05bd
00000020: f0c6 febb 6cc7 b93d ee37 9c3d 35f9 6cbd
00000030: 2b4b 903c c399 bdbd a995 733d bbed 3bbc
00000040: f7a6 6dbd b31d 293c 52ad 673d b4ca a6bd
00000050: 76a7 3d3d 2d9c ff3c c5e4 ea3c 9edb 08bc
00000060: cc59 293d 02db c6bc 2f14 1b3d 306f 173d
00000070: 6245 1dbc 28a8 373d bb5a 94bd 1248 7abd
00000080: a816 253d 7b53 febc 7b21 353d 6aac 833d
00000090: 664a c33b 606e f7bc 3827 a33d b362 8fbd
000000a0: a2ee e53c 05ab 5cbd 5f12 9c3c 983b 01bd
000000b0: 3cb6 8b3b 4118 85bd 1f3d 963d cc12 9ebd
000000c0: cc2c 5c3d b360 d2bc 06b7 c33c 2b8a 003d
000000d0: 041a e03b cc87 403c 1d09 2bbd 2e62 32bd
000000e0: c47a 7fbd 6624 823d 9988 253d f95d c63d
000000f0: 8a28 673d 3df2 0a3d d702 9b3d addd 63bd
00000100: 7932 373d 96b6 62bd e672 13bd d29a 9d3d
00000110: 14f5 0c3c 4077 7cbd 0135 6f3d 1507 5f3c
00000120: 53d8 663d d17b 3fbb 483e 9e3c d884 debb
00000130: fcc7 d8bd d139 88bd 31da 803d 0171 a5bd
00000140: 395f c03b a9bd 76bd cdf7 523d 9c90 37bc
00000150: 41d2 a83d f63f 83bd b5b6 8c3c 07cb 5e3d
00000160: d2d9 b03d a789 1abd d13d b9bc d886 a1bd
00000170: 3b9d 063d 079c 673c bc5d 113c 8fa0 783d
00000180: 6956 a63d 5691 993c 1ab5 c7bd d368 963c
00000190: 018c 943d d195 7fbd 500b 9bbd 01b6 4cbd
000001a0: 66e9 923d ebe3 87bd 5dd3 83bd fc34 ad3c
000001b0: 7ebc 0bbd 8d24 723d 6047 33bd 3fd4 e13a
000001c0: b930 f4bb 4cf9 5ebc f2f2 9c3d 5d14 363d
000001d0: 006f 5bbd dde3 abbd 2a25 9abb 7b69 4bbd
000001e0: 4a3d dc3b 226d 023d e171 4a3d ebe4 b1bd
000001f0: b5f0 6cbd aced d6bb e853 b8bc ffeb 51bd

attention_layer.gate.weight f4 [128, 128]
-0.04743457 -0.0011342731 -0.020746587 -0.115203574 0.021930253 0.035828017 0.117175706 -0.057588663
-0.059402157 -0.09021503 0.042741805 0.06448886 -0.09088042 0.061753247 -0.101472184 -0.055497974
-0.09536708 -0.05876111 -0.065133475 0.026396677 0.0269085 0.0014958475 0.008362639 -0.011749989
0.021939319 0.030968342 -0.050420992 -0.04600553 -0.0038164032 0.02587398 -0.086960465 0.00543397
-0.047653902 0.073122054 0.026613852 -0.06137109 0.02894748 -0.10678068 -0.04107903 0.06882791
-0.030200982 -0.08149415 -0.09610843 0.047899943 0.02708557 0.016399607 -0.09634606 0.10078939
-0.08346707 0.05563353 0.054066338 -0.016188897 0.11177108 -0.02791341 0.033245005 0.007981663
0.03155615 0.05154492 0.017245825 0.09993364 -0.05759903 -0.07999313 0.050082345 0.082757846
0.11133949 0.07969852 -0.08238405 -0.08844485 0.056721386 -0.07932874 -0.028450696 0.11146636
-0.07304259 0.12639268 0.051828153 0.049679197 -0.08634154 -0.06541767 0.020184848 -0.008464406
-0.03981275 0.07137026 0.0990854 0.0073200134 -0.04401152 0.01432944 0.061746996 0.024338592
-0.018598085 0.053903617 0.014506303 0.006865603 0.0137457475 0.11595796 0.095045194 -0.038300622
0.05236203 0.053252 0.12192199 -0.08821834 0.013322839 -0.09100122 -0.07086873 -0.04017672
0.0033705754 0.027012492 0.023293942 -0.011419837 -0.006868558 -0.05743463 -0.052625436 -0.04300136
0.03691538 0.04834185 -0.05594396 -0.017403634 0.026216106 0.032989837 -0.10720307 0.048683655
0.08151009 0.007131066 -0.05504644 -0.020736631 -0.035627365 -0.012833041 0.09485505 0.11187534
-0.018328771 -0.010034262 0.031037256 -0.048301794 0.120528765 -0.022858584 0.007988079 -0.0083158845
-0.029373566 -0.12242516 0.06516746 -0.084223054 -0.027966097 -0.083919175 0.14649963 0.09647105
0.049861666 0.10751663 -0.048673015 -0.08516221 0.13050276 -0.08404026 -0.087890595 0.030473033
0.07498478 -0.04686802 -0.066327766 -0.106404066 -0.058232125 -0.03437127 0.03706717 -0.022691673
-0.0933701 -0.12591232 0.12335548 0.09004017 -0.18652597 0.18357286 0.073110215 0.04086213
0.13538453 0.0064116903 -0.008164502 0.018222658 0.13441812 0.19642487 0.029805917 -0.06432952
-0.02250235 0.17116824 0.06712075 -0.026737556 0.06733257 -0.03597814 0.14990832 0.03088415
0.004395404 0.062308524 0.0034137773 -0.13485336 0.033187486 0.08710169 0.015579745 -0.18159372
0.019378658 -0.006184802 0.016249724 -0.026971597 0.022783771 0.15297796 -0.04978402 -0.14159502
0.07695068 -0.09635504 -0.028110998 -0.13658944 0.13713887 0.081308715 -0.037641842 -0.10242739
0.04458567 -0.101042934 -0.059299167 -0.07938498 0.13768913 -0.18973275 0.15713958 -0.06039879
-0.008632687 0.1092391 0.14212345 -0.17637484 -0.066122524 -0.09841754 0.021671455 0.013549434
-0.010254281 -0.09476942 -0.058058996 0.088615246 -0.004408599 0.18206194 0.04141363 0.015457558
0.006467582 -0.034802884 -0.012981164 -0.11279916 0.033755828 0.107177064 -0.009315818 -0.08979537
0.042674765 0.028473327 -0.08347222 0.045689773 0.21830463 0.04238657 0.03560665 0.033002425
-0.074243605 -0.0009096179 -0.14700834 -0.10950775 -0.059721623 0.050219905 -0.12962653 -0.055342156
00000000: c04a 42bd e4ab 94ba bff4 a9bc daef ebbd
00000010: 13a7 b33c 66c0 123d d1f9 ef3d 17e2 6bbd
00000020: ad4f 73bd a8c2 b8bd 0812 2f3d bc12 843d
00000030: 831f babd f9f0 7c3d a6d0 cfbd d851 63bd
00000040: d14f c3bd 7daf 70bd b364 85bd d83d d83c
00000050: 376f dc3c 5010 c43a 7303 093c 0783 40bc
00000060: 16ba b33c 52b1 fd3c 3e86 4ebd 4b70 3cbd
00000070: 9f1c 7abb abf5 d33c 5418 b2bd 720f b23b
00000080: bd30 43bd 04c1 953d 4b05 da3c 4160 7bbd
00000090: 4423 ed3c d4af dabd 7c42 28bd a6f5 8c3d
000000a0: 0d68 f7bc 68e6 a6bd 7fd4 c4bd bb32 443d
000000b0: 8fe2 dd3c 7858 863c 1551 c5bd ab6a ce3d
000000c0: c8f0 aabd fcdf 633d aa74 5d3d 949e 84bc
000000d0: 3ce8 e43d aaaa e4bc ea2b 083d 85c5 023c
000000e0: 0641 013d c420 533d 1e47 8d3c 02aa cc3d
000000f0: f6ec 6bbd 70d3 a3bd 2523 4d3d f27c a93d
00000100: f505 e43d fa38 a33d f8b8 a8bd 9322 b5bd
00000110: af54 683d 1b77 a2bd 6f11 e9bc 7a48 e43d
00000120: 5a97 95bd 156d 013e c249 543d 6a7c 4b3d
00000130: d5d3 b0bd b3f9 85bd b25a a53c 4bae 0abc
00000140: b212 23bd 922a 923d 49ed ca3d b9dc ef3b
00000150: 6c45 34bd 07c6 6a3c 6bea 7c3d ba61 c73c
00000160: 035b 98bc 0aca 5c3d d8ab 6d3c daf8 e03b
00000170: d835 613c 5e7b ed3d 0ea7 c23d 1de1 1cbd
00000180: 9179 563d c51e 5a3d 3cb2 f93d d1ab b4bd
00000190: 0948 5a3c d95e babd a023 91bd 5890 24bd
000001a0: dfe4 5c3b 4d49 dd3c f0d2 be3c 451a 3bbc
000001b0: a411 e1bb 9340 6bbd c58d 57bd 3222 30bd
000001c0: 9534 173d 1b02 463d 7e25 65bd 1192 8ebc
000001d0: 29c3 d63c 5a20 073d 488d dbbd 8368 473d
000001e0: c3ee a63d b8ab e93b 6078 61bd dedf a9bc
000001f0: 00ee 11bd ad41 52bc 5d43 c23d e61e e53d
00000200: 3826 96bc bf66 24bc d841 fe3c 1ad8 45bd
00000210: c9d7 f63d ed41 bbbc 6fe0 023c 593f 08bc
00000220: d5a0 f0bc 0bba fabd 8476 853d 237d acbd
00000230: 2819 e5bc d1dd abbd 0004 163e 9d92 c53d
00000240: bf3b 4c3d ae31 dc3d 5b5d 47bd 8669 aebd
00000250: 84a2 053e 4d1d acbd fcff b3bd 95a2 f93c
00000260: 9f91 993d aef8 3fbd dad6 87bd 60ea d9bd
00000270: cf84 6ebd e4c8 0cbd bfd3 173d e3e3 b9bc
00000280: d338 bfbd 29ef 00be cca1 fc3d fb66 b83d
00000290: aa00 3fbe 86fa 3b3e cfba 953d 0c5f 273d
000002a0: 3ea2 0a3e 2819 d23b 67c4 05bc af47 953c
000002b0: e7a4 093e 9a23 493e 8a2b f43c 32bf 83bd
000002c0: d956 b8bc ba46 2f3e 9b76 893d b808 dbbc
000002d0: a9e5 893d d05d 13bd 9181 193e c200 fd3c
000002e0: 5207 903b 3937 7f3d aeb9 5f3b 0017 0abe
000002f0: 9aef 073d 5f62 b23d 3042 7f3c b4f3 39be
00000300: febf 9e3c e1a9 cabb 241e 853c 8af3 dcbc
00000310: 08a5 ba3c 41a6 1c3e 54ea 4bbd 49fe 10be
00000320: 5198 9d3d cb55 c5bd 0949 e6bc 1ade 0bbe
00000330: 226e 0c3e 2f85 a63d 552e 1abd 74c5 d1bd
00000340: 779f 363d 99ef cebd afe3 72bd 9894 a2bd
00000350: 61fe 0c3e 4d49 42be 33e9 203e b964 77bd
00000360: 1d70 0dbc c0b8 df3d cf88 113e 9b9b 34be
00000370: 3f6b 87bd 238f c9bd 5688 b13c 72fe 5d3c
00000380: 9201 28bc 7816 c2bd 45cf 6dbd e97b b53d
00000390: 0276 90bb 726e 3a3e 57a1 293d b341 7d3c
000003a0: 03ee d33b 788d 0ebd f3ae 54bc 3f03 e7bd
000003b0: 8d43 0a3d a67f db3d 5fa1 18bc a3e6 b7bd
000003c0: bccb 2e3d e540 e93c 7cf3 aabd 3325 3b3d
000003d0: 408b 5f3e 8a9d 2d3d 47d8 113d 8d2d 073d
000003e0: 080d 98bd 6d73 6eba 5b89 16be 9945 e0bd
000003f0: a99e 74bd 63b3 4d3d d1bc 04be 75ae 62bd

attention_layer.gate.bias f4 [128]
-0.019665139 -0.06838791 -0.03856032 0.0574361 -0.1023051 0.043782797 -0.078643896 -0.03494868
-0.028598828 -0.0762538 0.06770127 0.012265223 0.006190598 0.050031435 0.07917657 -0.06617255
0.0853387 -0.048682705 0.06458858 0.056583885 -0.0072982414 0.003513564 -0.060654465 0.025841206
-0.039701555 0.0607316 0.05319548 -0.07375468 0.0142624015 -0.07929115 0.08538662 -0.018170951
0.07273567 -0.06777792 -0.023351679 -0.055319775 -0.018604483 0.02593046 -0.055622786 -0.065555796
0.08349956 -0.0238791 0.03968785 0.082646124 0.028562993 -0.014184401 0.07576083 0.02112876
0.048878342 -0.06638135 0.057549562 0.06605453 -0.047989238 0.08232066 0.059102256 -0.005608619
0.0025667325 0.017914772 0.0040518646 -0.028831327 0.1030845 -0.02774135 -0.00964729 -0.018463388
0.034716535 0.026978865 -0.074187964 0.033920385 0.04540648 0.09060238 0.016583346 0.040461954
0.082853876 0.091653645 0.061734222 0.089975536 0.015213947 -0.031443987 0.011927415 0.08280159
0.1014518 0.03746546 0.047669955 0.040971283 0.02852649 -0.0068751886 0.06970438 -0.0020881055
0.0012461069 -0.012190355 0.046241123 0.08320618 0.006626831 -0.02099145 -0.036465086 -0.025070477
0.032048017 -0.05811005 0.07286321 -0.06986266 -0.0031483336 0.08866216 -0.025625343 -0.047818657
0.014213399 0.05300406 -0.046345174 0.0821511 0.02543112 -0.0053428533 -0.07408381 0.009924251
0.063469596 0.08209626 -0.058151934 -0.016228274 0.020431794 -0.040784195 -0.018054686 0.05482087
-0.027928082 -0.012847766 0.010602218 0.054316137 0.06359484 -0.03790393 0.01185043 -0.010500479
00000000: c918 a1bc f60e 8cbd 6df1 1dbd 1e42 6b3d
00000010: 5685 d1bd 9755 333d 0d10 a1bd 5926 0fbd
00000020: 1748 eabc f42a 9cbd f7a6 8a3d 13f4 483c
00000030: 80da ca3b c3ed 4c3d 5327 a23d 7985 87bd
00000040: 0ec6 ae3d 8467 47bd 0447 843d 81c4 673d
00000050: 1626 efbb d243 663b d170 78bd f0b0 d33c
00000060: 199e 22bd b3c1 783d 81e3 593d b20c 97bd
00000070: d9ac 693c 6663 a2bd 2edf ae3d 3fdb 94bc
00000080: 70f6 943d 26cf 8abd 054c bfbc fd96 62bd
00000090: 6e68 98bc 1e6c d43c b8d4 63bd 1e42 86bd
000000a0: d101 ab3d 1a9e c3bc ba8f 223d 5f42 a93d
000000b0: f0fc e93c b165 68bc 7e28 9b3d 3916 ad3c
000000c0: a834 483d f2f2 87bd 17b9 6b3d 9947 873d
000000d0: 5d90 44bd bc97 a83d 3515 723d 82c8 b7bb
000000e0: a036 283b 00c2 923c 81c5 843b ad2f ecbc
000000f0: f71d d33d d441 e3bc ab0f 1ebc 8840 97bc
00000100: ed32 0e3d c802 dd3c dcef 97bd 1af0 0a3d
00000110: 25fc 393d be8d b93d ccd9 873c 6fbb 253d
00000120: 4baf a93d e8b4 bb3d 06dd 7c3d 1845 b83d
00000130: eb43 793c 69cb 00bd 346b 433c e193 a93d
00000140: f6c5 cf3d 6275 193d 9241 433d 81d1 273d
00000150: 63b0 e93c 4349 e1bb 2cc1 8e3d 99d8 08bb
00000160: 6954 a33a 0eba 47bc 5567 3d3d 0068 aa3d
00000170: e325 d93b 43f6 abbc 6a5c 15bd 9a60 cdbc
00000180: c844 033d ce04 6ebd 4f39 953d 2714 8fbd
00000190: 4654 4ebb 8294 b53d 3dec d1bc 7fdd 43bd
000001a0: 51df 683c c91a 593d 70d4 3dbd d63e a83d
000001b0: ed54 d03c 1a13 afbb 41b9 97bd 5399 223c
000001c0: 59fc 813d 1522 a83d b930 6ebd 28f1 84bc
000001d0: 9460 a73c 540d 27bd 6ce7 93bc d98b 603d
000001e0: 6fc9 e4bc 707f 52bc edb4 2d3c 997a 5e3d
000001f0: 033e 823d 2741 1bbd 4e28 423c 330a 2cbc

attention_layer.w.weight f4 [1, 128]
0.062813 -0.08306468 0.08787686 0.06747133 0.036770184 -0.13568164 -0.076157875 0.07218054
-0.073407024 0.019837355 0.07505147 0.04948983 0.06640072 0.06277103 0.034258593 -0.08150631
0.019058242 -0.11720746 -0.08110471 -0.07020859 -0.0697494 -0.075881906 0.033454634 0.05531926
0.051057357 0.051263962 -0.02328468 -0.08334437 -0.04097808 -0.06165443 0.04071635 -0.10238474
-0.05053042 0.06673794 0.066826195 0.015137438 0.08861102 0.04327108 0.053208407 -0.11822082
-0.033684682 -0.04863825 -0.09312613 -0.07723236 -0.030277057 0.07370946 0.100837216 -0.09550893
0.1028253 -0.0708489 -0.04233242 0.062114883 -0.04733068 0.109025225 -0.055678867 0.07604097
-0.038450368 0.073386736 -0.023673534 0.06735725 0.09485292 0.08637587 -0.03643518 0.11562992
0.046643514 0.030258175 -0.067689076 0.025292335 -0.072165325 -0.06145169 -0.06674014 -0.03278474
-0.06601897 0.04557941 0.09854709 -0.061641697 -0.086589694 -0.101733506 0.0750997 0.052117497
0.085308254 -0.15558095 0.0853308 0.058922514 0.06301763 0.10111919 0.05739749 -0.1346266
0.06981828 0.045428336 -0.073208965 -0.010128915 0.055305526 -0.15115495 0.027585503 -0.057017125
-0.023548054 0.06873416 -0.236911 0.1085524 -0.04996831 -0.044227187 0.04689509 0.043789845
0.09554985 0.073970616 0.051552452 0.079982 -0.069712736 -0.061433878 0.050710186 0.07958389
-0.06669457 -0.038181644 -0.15153733 -0.039287936 -0.024035854 0.118710555 -0.027174238 -0.04805798
0.066211835 -0.10290173 -0.05605162 0.10793307 0.07552267 0.06954145 -0.055112418 0.10322962
00000000: 1aa4 803d d11d aabd c8f8 b33d 692e 8a3d
00000010: 559c 163d 21f0 0abe a9f8 9bbd 64d3 933d
00000020: 6c56 96bd f381 a23c 96b4 993d d9b5 4a3d
00000030: 1afd 873d 198e 803d bd52 0c3d c8ec a6bd
00000040: 0820 9c3c 770a f0bd 3a1a a6bd 85c9 8fbd
00000050: c6d8 8ebd f967 9bbd ba07 093d 7396 623d
00000060: 8521 513d 29fa 513d 83bf bebc 74b0 aabd
00000070: a2d8 27bd 5b89 7cbd 30c6 263d 17af d1bd
00000080: fcf8 4ebd e7ad 883d 2cdc 883d 0403 783c
00000090: b279 b53d 043d 313d 0ff1 593d c21d f2bd
000000a0: f3f8 09bd e738 47bd eab8 bebd 002c 9ebd
000000b0: 9707 f8bc fcf4 963d be83 ce3d 309a c3bd
000000c0: 1296 d23d 3a19 91bd c264 2dbd 2d6c 7e3d
000000d0: d1dd 41bd 9e48 df3d 860f 64bd 5ebb 9b3d
000000e0: 227e 1dbd c94b 963d 00ef c1bc 99f2 893d
000000f0: 3f42 c23d d5e5 b03d 0e3d 15bd 61cf ec3d
00000100: 450d 3f3d fedf f73c 92a0 8abd df31 cf3c
00000110: 6acb 93bd c4b4 7bbd 0eaf 88bd 4b49 06bd
00000120: f434 87bd 7ab1 3a3d 0fd3 c93d 017c 7cbd
00000130: f055 b1bd a859 d0bd dfcd 993d 2879 553d
00000140: 18b6 ae3d 9d50 1fbe eac1 ae3d bc58 713d
00000150: 630f 813d 9417 cf3d a119 6b3d 8edb 09be
00000160: e3fc 8e3d 1013 3a3d 95ee 95bd c0f3 25bc
00000170: 0c88 623d 5dc8 1abe fefa e13c ca8a 69bd
00000180: d9e7 c0bc 7fc4 8c3d cc98 72be b850 de3d
00000190: 92ab 4cbd 9127 35bd 1115 403d fb5c 333d
000001a0: a4af c33d e87d 973d aa28 533d 9acd a33d
000001b0: 8dc5 8ebd 17a2 7bbd 7cb5 4f3d e1fc a23d
000001c0: 2a97 88bd 5b64 1cbd 9a2c 1bbe 63ec 20bd
000001d0: d7e6 c4bc 851e f33d 829c debc 72d8 44bd
000001e0: 129a 873d 24be d2bd 6296 65bd 030c dd3d
000001f0: a1ab 9a3d bf6b 8e3d 8fbd 61bd 0d6a d33d

mlp.0.0.weight f4 [128, 128]
-0.05757698 0.003123942 -0.030308109 -0.036559444 -0.029586677 -0.05549794 -0.07419209 -0.065079324
-0.06261045 -0.072122455 0.0026715752 -0.06480083 0.065273255 -3.5527653e-05 -0.030283352 -0.023107711
0.008961997 -0.062705204 0.047671724 -0.06198094 0.100329444 0.035283763 -0.076320395 0.03748798
-0.090699375 0.024044432 0.059599895 -0.0215054 -0.006006601 -0.018649092 0.07433769 0.08738626
-0.02285659 0.06166635 0.0014916642 -0.017159214 0.08326855 0.03621122 -0.058652382 -0.039077684
0.04140026 0.074397616 -0.042977348 0.04888875 -0.09791871 -0.08781856 0.09510176 -0.056677792
-0.0162323 0.0665302 -0.01779698 0.0329533 0.043639403 -0.050312538 -0.03882975 -0.04951397
-0.038507033 0.0621357 -0.01996749 -0.0025034002 -0.0429239 -0.036668397 0.0067947395 -0.015477478
0.008535253 0.035614334 0.018594814 0.004099632 0.018591285 -0.054499634 0.07174851 0.06531726
0.04745798 0.015967311 0.044484746 0.041075263 -0.07361051 0.05783128 -0.03527959 0.030583695
0.017765477 -0.06309946 0.062175088 0.08304015 -0.059731513 -0.022333208 0.014730159 0.052348718
-0.07352231 0.044067267 0.003209308 -0.024108397 -0.0076975254 0.019019008 -0.08511999 -0.004622882
0.04476328 0.057246108 -0.002729664 0.032797676 -0.050479308 -0.0012132084 -0.072137326 0.023430536
-0.0012678624 -0.07395027 -0.07077665 0.080693334 0.070220806 0.06333241 0.019534884 -0.06426653
-0.06035433 -0.03360656 -0.047705635 0.023680117 -0.033222344 -0.06580729 -0.06587664 -0.04625646
-0.085302345 0.043081306 0.003632982 0.03353725 -0.098353975 -0.02041131 -0.06892648 0.08078799
0.038781445 0.060483076 -0.053785313 -0.013671064 0.05913575 -0.03126295 0.0437497 0.016343636
-0.06401115 0.066571124 0.0042174472 -0.011160791 -0.0018790936 -0.051872995 0.01136207 -0.052196354
0.017048938 -0.09804811 -0.030089071 -0.09774001 0.025841605 -0.0038076926 0.09653134 0.039139308
0.06334819 0.014899541 -0.011510539 0.0077904593 -0.011645624 0.07888083 0.06460498 0.058624722
-0.0117470445 -0.0114219375 -0.08684219 0.0042932928 0.045382995 -0.09028675 -0.038266186 0.00016279751
-0.05507144 -0.06342848 0.030594256 -0.07246109 -0.04116097 0.08525638 -0.093966834 0.107463986
-0.037084203 -0.1183661 0.03738822 0.058365505 0.048276022 0.026685918 -0.063655205 -0.0716987
0.075059965 0.09940147 0.0068286867 0.07880736 -0.035400156 0.05665418 0.06748551 0.107925646
0.106623136 -0.00036093642 0.044893682 -0.09350987 -0.044560336 0.03171151 0.01182236 -0.0133911725
0.02431139 0.015789185 -0.06288105 -0.042615466 -0.03696916 -0.07868194 -0.0072574667 -0.033185072
0.0016020513 0.08777749 0.08343564 -0.05429749 0.06881419 -0.010155314 0.009100592 -0.10378175
0.07430453 0.06711723 -0.064853996 0.011102259 0.032989 -0.037346 0.07352081 -0.04646073
0.08884415 -0.0642973 -0.038171835 -9.129933e-05 -0.051913843 0.0027593311 -0.023685113 -0.0137183685
0.015886262 0.014948316 -0.05465171 -0.004000663 -0.09776155 -0.07638769 0.098793276 0.09531175
-0.041368783 -0.018803004 0.0061645233 0.046673506 0.059173208 0.11135682 -0.06101048 -0.052529853
0.032054655 -0.021354122 0.0347822 -0.009598502 -0.0032590858 -0.10992555 0.022761777 0.052240204
00000000: d7d5 6bbd 0dbb 4c3b b648 f8bc 5bbf 15bd
00000010: c25f f2bc cf51 63bd 06f2 97bd 4f48 85bd
00000020: e839 80bd f0b4 93bd 9815 2f3b 4cb6 84bd
00000030: fcad 853d 8703 15b8 cb14 f8bc 624c bdbc
00000040: 57d5 123c 966b 80bd 6d43 433d badf 7dbd
00000050: 8679 cd3d b585 103d de4d 9cbd ff8c 193d
00000060: 98c0 b9bd d4f8 c43c 051f 743d 182c b0bc
00000070: 05d3 c4bb fbc5 98bc 5c3e 983d 91f7 b23d
00000080: be3d bbbc db95 7c3d f283 c33a 7b91 8cbc
00000090: b488 aa3d 3752 143d 7b3d 70bd ec0f 20bd
000000a0: 5293 293d c75d 983d 0409 30bd 923f 483d
000000b0: 9b89 c8bd 38da b3bd b6c4 c23d f926 68bd
000000c0: 9af9 84bc fc40 883d f9ca 91bc 0afa 063d
000000d0: 3bbf 323d 8514 4ebd f20b 1fbd 29cf 4abd
000000e0: 8db9 1dbd 0182 7e3d dd92 a3bc 1610 24bb
000000f0: f9d0 2fbd 9a31 16bd 68a6 de3b 3f95 7dbc
00000100: 72d7 0b3c 56e0 113d 2754 983c 3556 863b
00000110: c04c 983c 023b 5fbd e2f0 923d 0ec5 853d
00000120: 4d63 423d e1cd 823c a335 363d 893e 283d
00000130: 1bc1 96bd 7ee0 6c3d 5581 10bd a88a fa3c
00000140: e888 913c 4a3a 81bd 4eab 7e3d f410 aa3d
00000150: 08a9 74bd 22f4 b6bc c456 713c 9c6b 563d
00000160: dd92 96bd e17f 343d 4153 523b f97e c5bc
00000170: 863b fcbb c0cd 9b3c 6453 aebd 8c7b 97bb
00000180: b359 373d e57a 6a3d 2ae4 32bb db56 063d
00000190: 64c3 4ebd 8504 9fba bcbc 93bd 65f1 bf3c
000001a0: 672e a6ba 3d73 97bd 59f3 90bd 8c42 a53d
000001b0: edcf 8f3d 6cb4 813d 9f07 a03c 2c9e 83bd
000001c0: 1a36 77bd 08a7 09bd fc66 43bd cefc c13c
000001d0: 2714 08bd f9c5 86bd 55ea 86bd 6a77 3dbd
000001e0: ffb2 aebd 0676 303d 5317 6e3b 5b5e 093d
000001f0: cf6d c9bd 9f35 a7bc 5429 8dbd 2c74 a53d
00000200: 4bd9 1e3d 1abd 773d fd4d 5cbd 99fc 5fbc
00000210: 5438 723d 940d 00bd e332 333d 17e3 853c
00000220: 4718 83bd 7156 883d 8332 8a3b c0db 36bc
00000230: eb4b f6ba c778 54bd fa27 3a3c d8cb 55bd
00000240: 37aa 8b3c 73cd c8bd 5b7d f6bc ea2b c8bd
00000250: c6b1 d33c 7b8a 79bb 39b2 c53d 8a50 203d
00000260: b2bc 813d 341d 743c b396 3cbc 1c47 ff3b
00000270: 4acd 3ebc 468c a13d 9e4f 843d 7a20 703d
00000280: ad76 40bc 1423 3bbc 51da b1bd c0ae 8c3b
00000290: 85e3 393d 42e8 b8bd 01bd 1cbd a0b4 2a39
000002a0: 9792 61bd cae6 81bd cea0 fa3c 7b66 94bd
000002b0: 6898 28bd e69a ae3d af71 c0bd 1416 dc3d
000002c0: 9be5 17bd ed69 f2bd 6424 193d ab10 6f3d
000002d0: 14bd 453d 6d9c da3c a95d 82bd c5d6 92bd
000002e0: 0ab9 993d ff92 cb3d 2dc3 df3b c165 a13d
000002f0: c1ff 10bd 370e 683d d835 8a3d 1f08 dd3d
00000300: 3b5d da3d 113c bdb9 70e2 373d 1a82 bfbd
00000310: e684 36bd eee3 013d 92b2 413c a666 5bbc
00000320: ae28 c73c 5258 813c c8c7 80bd 8e8d 2ebd
00000330: f96c 17bd ff23 a1bd 0bd0 edbb 12ed 07bd
00000340: ecfb d13a afc4 b33d 4ee0 aa3d 0b67 5ebd
00000350: 74ee 8c3d 7962 26bc a61a 153c 878b d4bd
00000360: f92c 983d c274 893d 2cd2 84bd 40e6 353c
00000370: 791f 073d 1ff8 18bd 1492 963d 9b4d 3ebd
00000380: ecf3 b53d 4eae 83bd 125a 1cbd f477 bfb8
00000390: 9ca3 54bd e5d5 343b 4807 c2bc 02c3 60bc
000003a0: e823 823c c8e9 743c 79da 5fbd fe17 83bb
000003b0: 3537 c8bd 2671 9cbd 2154 ca3d cf32 c33d
000003c0: 5072 29bd c208 9abc c5ff c93b b82c 3f3d
000003d0: 9b5f 723d 0b0f e43d 20e6 79bd 8b29 57bd
000003e0: be4b 033d d7ee aebc c877 0e3d 0943 1dbc
000003f0: 6396 55bb a620 e1bd e876 ba3c d3f9 553d
