dataset/models/CAF_Tuveson19_iCAF/model.pth (torch, 696702 bytes, 14 tensors)

tiles_emb.hidden_layers.0.weight f4 [128, 768]
00000000: 5c9e d1ba c648 2e36 ffca 1735 3470 04bb
00000010: fffa 6936 95b1 c4bb 2eac 1ab8 523d bf3b
00000020: 9d78 5eb6 4cfe c239 dc7c 83bb f2d4 2436
00000030: c5fc d138 8cb5 e435 d9d0 f234 815a 2d36
00000040: a998 4db9 2874 9735 a6c8 f6b9 0666 963b
00000050: c43a 09b8 b3fc 10b6 78c6 9bb6 d8be da3b
00000060: 7f7b ebba c5bd 4939 af70 feba 408f 91b6
00000070: 9546 96ba 7dfd 7cba 1789 05b5 0217 c834
00000080: 41dd 84b6 881f 63bb 8879 03b7 8480 3cb6
00000090: 24b2 4836 0c28 0b36 6f97 17ba c0c5 3f37
000000a0: ac31 643b 1950 b13b 9ee3 86b8 4479 d6b8
000000b0: f38d 9c39 500a 9f3b 5021 c53b a140 afb7
000000c0: ae09 7236 fd2f 4036 6984 f736 59bb 3438
000000d0: dad8 3ebb 959e 1cb6 3258 81bb 3ca2 bc36
000000e0: 1fbb 0d3b 025d 24bb f6c2 2635 7c59 5338
000000f0: c2d6 23ba 57f8 b538 1e83 afbb d2c4 acb6
00000100: 73e9 1c3a ad8d 8eb5 60ef ef32 2e9f fe39
00000110: b0a1 a63b 2653 68b6 70a6 7eb6 e402 a236
00000120: d717 1a36 457d 933a d075 883b 056d 0a3b
00000130: f9cc e1b8 1e3a ef3b a601 88b6 81d1 f8bb
00000140: 7282 a63b 5533 56bb 5cb3 893b 3f2f dbb5
00000150: 4f48 9739 3aa2 163b 9021 0fbb dc16 19ba
00000160: 9e53 b136 9a37 f2bb 7e8e e936 63a5 ce3b
00000170: 8dbe 35b7 c6e5 c33b fa41 75b8 1794 e5b6
00000180: af9a cbb5 532a 01ba 856a beb9 82ef 8035
00000190: 9665 e5b5 cca3 e138 7aec 60b7 53cb 7dbb
000001a0: 292c b9b9 176d b9b5 d9d0 6fbb 3c21 3bb8
000001b0: 3cd0 ac3b 7a5e 9536 e8a7 c5bb 38b1 77b4
000001c0: 6f11 fc35 8bb7 07bb 4afe ba36 e12c 6c36
000001d0: 20dc 80bb eb02 11bb 052e ac3a ab88 2bb6
000001e0: 21ed 603b 7d9f c4b5 4671 dab5 bf7b 2c35
000001f0: 5ec7 39b5 c8b6 5cba 3728 c9b5 1b70 ddba
00000200: 766d a33a 56c1 aa35 bc0a b335 664d ba36
00000210: 4bac c2bb 6db2 8d35 bb29 ed36 9dd6 5236
00000220: 9dfc ef3a 1c1e 9b36 0db8 8535 a72f 23b6
00000230: 6bdc 48ba 05a9 433a 9d09 d3b8 6a5c b5b5
00000240: b521 38ba ceff e139 3b05 9036 5171 3037
00000250: dd13 b83a b14d b2bb b1b9 3c35 83b9 acb9
00000260: a1a5 2e37 0bb2 2238 a3ef a43b 8b42 7238
00000270: 931e e9b6 b150 34b9 4845 2db7 d691 3ab4
00000280: c1b7 5c36 ae44 e0b6 9893 6aba 7892 e936
00000290: d93f 3636 5af8 b0b7 5069 643b b056 85b6
000002a0: a65c aa3b 3b3a 00bb df59 be35 b157 65b7
000002b0: a6d6 8d36 afcf b538 96a2 a135 4260 9d36
000002c0: 06e2 af3a 7722 dfb4 b2f1 8c3a 603a bbbb
000002d0: 3502 923b b3a1 84bb 4d3e 9036 86bd 76b7
000002e0: 11f3 1337 1cad b73b 06be 9238 e173 a136
000002f0: d74c c037 2576 5cbb 580c 1f3b fb12 bfb5
00000300: 1cf5 6e39 48f2 abb8 80f7 a2ba 7336 cd35
00000310: d89e 5f38 ec23 48b9 e93a 4bb5 6be3 1b39
00000320: 885f 973b 4afc 1635 c22e 1cb5 4208 2e36
00000330: 561a e43b d2fc c9b8 96e3 18bb 66bd b8b5
00000340: 9995 86b7 02cb f3bb a123 e8bb a780 c53b
00000350: 77ba acb5 e8e8 8a3b db0c db3b dca1 6c35
00000360: a517 dc38 afa5 a83a 29f5 08b7 920e 7836
00000370: 2fb9 0436 4839 953b a718 b0bb 25ed 81b6
00000380: 9acc d83b c303 723a da82 f43b fbf8 d4b9
00000390: 85c2 18b9 a49d 24b6 32b8 b634 b1d8 c2b6
000003a0: fa8f 8137 c65d f53a 95e7 7a36 5235 b5bb
000003b0: 3946 e1bb 5aff aab4 7497 8abb e361 cbb5
000003c0: a867 d7b5 12dd 92b6 81ba ad36 87fe c83a
000003d0: cd67 0b38 9d1a 8cb8 d5ed ec35 dcad 22bb
000003e0: c824 d2bb b7d9 4abb 917f 91b6 2da1 fd35
000003f0: c127 513b 7cd4 98bb 409c d73b a6ad 5c39
-0.0015992629 2.597038e-06 5.654728e-07 -0.002020848 3.4865805e-06 -0.0060026147 -3.6876816e-05 0.0058361674
-3.3150784e-06 0.0003719203 -0.004012687 2.4561855e-06 0.000100129786 1.7040161e-06 4.522797e-07 2.583169e-06
-0.00019607194 1.1284183e-06 -0.0004707027 0.004589799 -3.2718075e-05 -2.1604762e-06 -4.642465e-06 0.0066755824
-0.0017965882 0.00019239548 -0.0019412244 -4.3380132e-06 -0.0011465127 -0.000965081 -4.9745853e-07 3.7269643e-07
-3.959664e-06 -0.0034656245 -7.836505e-06 -2.808899e-06 2.9906014e-06 2.0735924e-06 -0.0005782758 1.1430529e-05
0.0034819646 0.0054111597 -6.432015e-05 -0.00010226903 0.000298604 0.0048535243 0.006015934 -2.089172e-05
3.6066444e-06 2.8638162e-06 7.376588e-06 4.3089825e-05 -0.0029120953 -2.3338118e-06 -0.0039472813 5.621723e-06
0.0021626425 -0.002507985 6.2123524e-07 5.038966e-05 -0.0006249958 8.6770095e-05 -0.0053562066 -5.1489124e-06
0.00059857144 -1.0621058e-06 2.7932117e-08 0.00048565253 0.0050851926 -3.4619093e-06 -3.7945829e-06 4.8283127e-06
2.2961665e-06 0.0011252543 0.004164435 0.002112211 -0.00010767015 0.0073006293 -4.0533077e-06 -0.007593334
0.0050814683 -0.0032684405 0.0042022895 -1.6330522e-06 0.00028854838 0.0022984878 -0.0021840073 -0.0005839893
5.2847454e-06 -0.007391882 6.9605294e-06 0.0063063367 -1.0832807e-05 0.005978319 -5.8473997e-05 -6.8419718e-06
-1.5169697e-06 -0.0004927266 -0.00036318987 9.606449e-07 -1.7091395e-06 0.000107593456 -1.3406499e-05 -0.0038725927
-0.00035318852 -1.3815323e-06 -0.0036592989 -4.4615226e-05 0.005273847 4.4515446e-06 -0.006031979 -2.306814e-07
1.8780537e-06 -0.0020708765 5.572835e-06 3.5192863e-06 -0.003932491 -0.0022126983 0.0013136273 -2.5560537e-06
0.0034321027 -1.4649555e-06 -1.6275233e-06 6.425507e-07 -6.920799e-07 -0.00084195705 -1.4987371e-06 -0.0016894372
0.0012468535 1.2722255e-06 1.3339663e-06 5.5522423e-06 -0.005940949 1.0557247e-06 7.0680085e-06 3.141736e-06
0.0018309538 4.622865e-06 9.962838e-07 -2.431663e-06 -0.00076622394 0.00074638455 -0.00010063055 -1.3512447e-06
-0.00070240657 0.00043105934 4.2921433e-06 1.0516801e-05 0.0014044006 -0.0054413904 7.0305674e-07 -0.00032944613
1.0409772e-05 3.8789625e-05 0.0050334497 5.775927e-05 -6.9475004e-06 -0.00017196198 -1.0327734e-05 -1.7375655e-07
3.2889513e-06 -6.6837156e-06 -0.0008948385 6.9609923e-06 2.7157278e-06 -2.1096483e-05 0.003485281 -3.9738006e-06
0.005199033 -0.0019565958 1.4182259e-06 -1.3669881e-05 4.227116e-06 8.669437e-05 1.2042753e-06 4.6901705e-06
0.0013418801 -4.1562063e-07 0.0010753183 -0.005713746 0.0044558295 -0.0040475964 4.298787e-06 -1.47068695e-05
8.818476e-06 0.005605353 6.997217e-05 4.811664e-06 2.2923965e-05 -0.0033639756 0.0024268832 -1.4236133e-06
0.00022788759 -8.199044e-05 -0.001243338 1.5289537e-06 5.3315278e-05 -0.00019086868 -7.570912e-07 0.00014866672
0.0046195425 5.6246483e-07 -5.818257e-07 2.5932827e-06 0.0069611473 -9.631518e-05 -0.0023329011 -1.376419e-06
-1.6043707e-05 -0.007439972 -0.0070843254 0.0060272994 -1.2869267e-06 0.0042391904 0.006684882 8.815239e-07
0.000104948216 0.001286676 -8.1633125e-06 3.696336e-06 1.9777324e-06 0.0045539476 -0.0053740325 -3.872107e-06
0.0066161873 0.0009232128 0.007461888 -0.00040621296 -0.00014568314 -2.4529663e-06 3.4034161e-07 -5.8068767e-06
1.5445043e-05 0.0018719963 3.7387701e-06 -0.005530038 -0.0068748263 -3.185076e-07 -0.0042294804 -1.5153167e-06
-1.6048916e-06 -4.376875e-06 5.1775137e-06 0.0015334644 3.3236855e-05 -6.680677e-05 1.7652588e-06 -0.0024822867
-0.006413076 -0.0030952522 -4.3361874e-06 1.8896877e-06 0.0031914564 -0.004664002 0.0065799057 0.00021045524

tiles_emb.hidden_layers.0.bias f4 [128]
00000000: c3ee adba cb72 25bb e41a 9438 a4c3 83b9
00000010: a2d3 f3bb 75bd b8ba 0855 c639 6498 cabb
00000020: 5606 9036 036d f837 bbe7 dd3b fc3f fd38
00000030: cc7d 8f3b 9417 07ba 551c eb3b ff72 51b8
00000040: f757 adbb 38a2 853b bfdd fa37 5d50 2fb7
00000050: 9a9d 7637 4956 37b5 1585 84b8 fa34 433b
00000060: 3678 f3bb a425 b239 03a0 f0bb c070 91bb
00000070: cf30 beb9 abd1 3cbb 67c4 13b8 0115 273b
00000080: 1cff 9c3b 89e3 75b6 9de6 0b3a 6f91 af3b
00000090: 7943 ae37 91b3 bfbb 330f 71b8 7454 4138
000000a0: 2082 fcbb 6b2c 61bb e9fd ac38 7cb9 9fbb
000000b0: 48de aab8 4682 0b38 b27e 1cbb d77c 0337
000000c0: cde7 81b8 7c53 81bb ffd5 ba34 0d43 7637
000000d0: e1f9 2338 7fd1 2738 2513 8bb7 ad6f bb38
000000e0: 76e2 c836 a15d 1638 3b30 4db6 813e d23b
000000f0: b786 dc3b 1aec 7db5 1750 363a 9440 cdbb
00000100: 1ce9 6638 7a1e 19b7 2e61 1c39 7c60 a3b8
00000110: 0165 11bb 73c0 a53b 9056 b53b ba1d 6a3b
00000120: e226 583a eebf 923b 1a82 fc3a cc69 403b
00000130: 4f93 1839 779d fd38 3d17 e538 d982 8138
00000140: f11b f1b5 3ace 5139 0504 2cb8 b54e 10b8
00000150: e671 5bb8 2254 6035 b555 37b8 adbd cc38
00000160: 7ff2 6ab8 2802 11ba 72c1 b73b 7d3b bf37
00000170: 6a90 2c3b 7d03 47b6 dd00 403b 5b9f f2ba
00000180: a103 de3a 13d7 7738 a82a 0db8 9227 9b39
00000190: 8911 c63b c57b 8f3b 33dd 27ba 1c0e 54b8
000001a0: 65b6 83b6 d68a 2ab5 f739 e4b5 8806 b4ba
000001b0: f38d d5b8 be96 f0bb 190f 1a38 df5f 4037
000001c0: 1ae1 f33b 1869 b638 a981 133b f7c1 68ba
000001d0: 79e8 b238 d2dd 51b9 431d a2b7 541a 2bb9
000001e0: a8cc 0ab6 351f 923a 6980 28ba 2924 94b8
000001f0: 5cc5 b7b8 8e93 d3bb f18d bb37 aa4f ebb8
-0.0013270009 -0.0025245424 7.062199e-05 -0.0002513203 -0.007441 -0.0014094549 0.00037828856 -0.006182717
4.292272e-06 2.9614666e-05 0.006772009 0.00012075898 0.00437901 -0.0005153355 0.0071750083 -4.993658e-05
-0.0052900272 0.004078176 2.9905581e-05 -1.0449524e-05 1.4699437e-05 -6.8298374e-07 -6.319039e-05 0.0029786215
-0.0074301017 0.0003397885 -0.0073432936 -0.0044384897 -0.0003627599 -0.0028811495 -3.5230445e-05 0.0025494697
0.0047911536 -3.6640288e-06 0.0005336793 0.005357913 2.0773836e-05 -0.0058502634 -5.7473033e-05 4.609344e-05
-0.007705942 -0.003435875 8.2488936e-05 -0.0048744064 -8.147635e-05 3.326151e-05 -0.0023879227 7.837275e-06
-6.1943756e-05 -0.0039467197 3.4800902e-07 1.4678354e-05 3.9094946e-05 4.001101e-05 -1.6579006e-05 8.937656e-05
5.986828e-06 3.5849986e-05 -3.0575454e-06 0.0064161425 0.0067299264 -9.459342e-07 0.00069546833 -0.006263802
5.5053373e-05 -9.1266065e-06 0.00014913522 -7.790417e-05 -0.0022185447 0.005058342 0.0055340007 0.0035723285
0.000824554 0.004478446 0.0019264848 0.0029359935 0.00014550726 0.0001209331 0.000109238994 6.1755716e-05
-1.7964031e-06 0.00020008619 -4.101174e-05 -3.4405577e-05 -5.2319745e-05 8.356893e-07 -4.371042e-05 9.762808e-05
-5.601579e-05 -0.00055316323 0.0056077773 2.2796676e-05 0.0026331195 -2.9655341e-06 0.002929739 -0.0018510626
0.0016938337 5.9089693e-05 -3.3656746e-05 0.00029593386 0.006044571 0.004378768 -0.00064035057 -5.055788e-05
-3.9253378e-06 -6.353197e-07 -1.7004194e-06 -0.0013734857 -0.000101830716 -0.0073421886 3.6730522e-05 1.14664135e-05
0.0074426057 8.6980115e-05 0.0022507703 -0.00088790007 8.531003e-05 -0.00020014428 -1.9325531e-05 -0.00016317639
-2.0682728e-06 0.0011148216 -0.0006427826 -7.063925e-05 -8.762881e-05 -0.006456799 2.2358234e-05 -0.00011220512

tiles_emb.hidden_layers.2.weight f4 [128, 128]
00000000: 5dd6 e0bc 3d25 8cbc cf6d cd3a 1663 0f37
00000010: 3a0a 1cbc 3c69 a73a bf51 1dba 63ff 81bc
00000020: d2c2 f73c c6d7 123d 2930 203a 9376 b93c
00000030: c054 443a 229f 1fbb 5810 d737 b468 b73c
00000040: 0313 9fbc f693 833c 8769 afbc edf1 c534
00000050: 8f56 e1b5 1b2d 01bd ad75 ebbc 2da1 14bc
00000060: e1e5 0bbd e639 cb3b e3c9 8ebc db80 8d34
00000070: 204b ee35 c89e 8ab9 c996 53bb d63a 223d
00000080: 681d 1fbd 095e e63b 6a2a b5b3 fbbf 28bd
00000090: 39be cb38 9c53 453a 0769 3c3c c566 bbba
000000a0: 90fc 41b9 c12a 8334 4cff 1036 2b4c 383d
000000b0: ce5a 883c 8060 ea3c 6432 123b 3ce9 c43c
000000c0: 37e3 a1bc f38d 3ebd 87d3 eebc 8ad4 b2bc
000000d0: 622d 813b 87fa 47bd d108 eabc dc10 c33c
000000e0: 4eca d73c 4070 253d 5b1c 3e3c aa4f 09bc
000000f0: 9344 44bd d6c6 1c3a 24a5 eebc 690a 4635
00000100: 4576 d33b 7b7b 183d 56ae 7738 522d f23c
00000110: f9a4 f7bb 9c66 0e3b 563c 2436 e92a e23c
00000120: 0215 1f39 0edf 78b9 e6a5 b33c 77b3 0abc
00000130: 2c9c 96bb 01f1 093d ceb6 1a3d 6568 8e36
00000140: a556 f03b 77e4 b535 1335 f0bc 3125 7739
00000150: a422 e93c b4b9 1eb4 fcd1 d93c 96f4 fdb9
00000160: 1913 493d f364 44bd c391 74bc b91e a3bc
00000170: 87fb 25bd 62e0 453a fbba 63bc 52fa 0abd
00000180: 6879 22bd 354c 303d 88bd c5b1 9f00 afbb
00000190: 99f8 c8bc ae1b 6b35 cce1 ff33 aa82 b8bc
000001a0: 6499 243d c53e b832 8613 e234 23a8 00b5
000001b0: 2273 04bd acae ad3b f2c1 3d3d fad1 fb3a
000001c0: f866 c0bc c29a 1e3d 1adb 05bd d5c8 873b
000001d0: f5ec d0bc 6fbf 523c bf29 adbc 36ef efba
000001e0: 705e 92bc 2527 a2bc 188f 56bc d1b1 9f3c
000001f0: 47fc 6ebc 5438 833c cb37 f63b aa41 19bd
00000200: f44d db3c 1295 4fbb 8c06 2bbd 2862 f1bc
00000210: 5dce 383d 68e5 34bd 8405 1fbb 6722 8b3c
00000220: b90b b9bb 702a 493b ee13 193a dabc 3cbd
00000230: d26f 163c 8f86 9e3a 61aa 73b6 a70f 2abd
00000240: 699b 1d3d b948 013d 9de4 6abb 5132 00ba
00000250: b523 b8b4 5105 87bb e5f1 573b 44f1 0b3d
00000260: 3834 2cb8 d706 a23c b180 9f3c 2029 46bd
00000270: b1bf a9b4 1f5b 3dbd 98b5 2c3d 7273 2c3d
00000280: 5e00 d5b5 13e8 1cbc b149 61bb 9fa4 2f3d
00000290: bc1e 52bd cd40 9cb2 09ac 1ebd b283 013b
000002a0: e073 04bd 6bf3 113d 074a 61bc eeff f2bc
000002b0: 288d 523d 7356 00bd 798f 91ba b3b0 f0bc
000002c0: 1238 43bb 5445 35bc 941f 2c3a 653d f83c
000002d0: 53c1 093d ad62 2ab9 badf a3bb 4833 ecbc
000002e0: a8a7 c8bc 7887 f8bc 25e5 2238 80af 2cbd
000002f0: 60f9 0839 d27e f8bc 6ab6 c6bc 2ece 8dbc
00000300: d2a0 4ebc 6d40 ca34 8c9c 5db6 2212 50bc
00000310: 182d 023c 2bb7 e6bc 47f5 81bc d71e dc3b
00000320: d479 16bd 275f 8c3b d5af 7abc b947 eeba
00000330: 7bfb 2cbd 4b8c 9fbb a3f0 c53c 3118 aa3c
00000340: 25e4 3bbd 221d ed3b 2ea0 21bd 3ff0 3f3d
00000350: 03e8 05b5 bb94 c7bb 75d6 0334 8405 a83c
00000360: b485 123d 4f22 5537 a074 363c 9826 c6bc
00000370: 1040 24bc d655 b2b5 da36 e93c b4e5 ad37
00000380: 95b7 3d3d 8839 043d f9ed 91bc a184 2bbc
00000390: de5e 8fb5 846e 173d 01ca a4bc 6ad5 043d
000003a0: fbb1 363d 9f01 74bc 0cba b8bc 3648 303d
000003b0: c532 56b5 f33e 543d 07b3 ee3a 306d d534
000003c0: f085 03b6 dbba 53bd ef47 18b5 c4c4 5abc
000003d0: 6fe6 16bc 34ef 6cbc 52e4 55bc 06f1 063d
000003e0: 5e5e 1c3d 85f6 2fbd b7df 8ebc da0c 2ebc
000003f0: 80a8 5cbc 60c3 6cb8 f743 4f3d 2955 d3bc
-0.027445966 -0.0171076 0.0015672984 8.546534e-06 -0.009523923 0.0012772451 -0.0006001256 -0.015868848
0.030244265 0.03585031 0.0006110692 0.022639548 0.00074894354 -0.0024356325 2.5637608e-05 0.022388794
-0.019418245 0.016061764 -0.021412624 3.6870134e-07 -1.6788998e-06 -0.031537157 -0.028742636 -0.00907163
-0.034154776 0.0062019704 -0.017430251 2.635705e-07 1.7754246e-06 -0.00026439712 -0.003228592 0.03960689
-0.038846403 0.007030253 -8.4361844e-08 -0.04119871 9.715226e-05 0.00075274124 0.01149965 -0.0014297595
-0.00018500001 2.443176e-07 2.1606274e-06 0.044994514 0.016644862 0.028610468 0.0022307867 0.024036996
-0.019761665 -0.046522092 -0.029153598 -0.021829862 0.0039421776 -0.048822906 -0.028568657 0.02381175
0.026341584 0.040390253 0.01160344 -0.00838081 -0.04791696 0.00059805566 -0.02913148 7.3775897e-07
0.006453308 0.037227135 5.9051752e-05 0.029562626 -0.007557508 0.002172864 2.4473024e-06 0.027608352
0.00015171248 -0.00023734217 0.021929692 -0.008465639 -0.004596254 0.033677105 0.037771992 4.244083e-06
0.0073345476 1.3552043e-06 -0.029322183 0.0002356961 0.0284589 -1.4782455e-07 0.026589386 -0.0004843815
0.04909048 -0.047947835 -0.01492733 -0.01991211 -0.04052308 0.0007548389 -0.01389956 -0.03393013
-0.039666563 0.043041427 -5.755002e-09 -0.00534065 -0.024532603 8.75846e-07 1.1915435e-07 -0.022523243
0.040185347 2.1448963e-08 4.2109986e-07 -4.7928387e-07 -0.03233636 0.0053003635 0.04632754 0.0019212358
-0.0234866 0.038721807 -0.032679655 0.004143814 -0.025503615 0.012863024 -0.02113807 -0.0018305543
-0.017867297 -0.019794056 -0.01309564 0.01949397 -0.014586515 0.01601807 0.0075139753 -0.037416138
0.02677057 -0.0031674546 -0.04175429 -0.02946575 0.04511868 -0.04416409 -0.0024264762 0.016984178
-0.0056471494 0.003069546 0.00058394566 -0.04607854 0.0091819335 0.0012094545 -3.6308995e-06 -0.041518833
0.03847829 0.031563494 -0.003584183 -0.000489031 -3.429865e-07 -0.004120507 0.0032950577 0.034165636
-4.1056628e-05 0.019778652 0.019470545 -0.048379064 -3.1618177e-07 -0.046229478 0.04216537 0.042102285
-1.5869844e-06 -0.009576815 -0.00343762 0.042881604 -0.05129884 -1.8190258e-08 -0.038738284 0.0019762334
-0.03233707 0.035632532 -0.01375056 -0.029663052 0.05140415 -0.031332444 -0.001110538 -0.029381132
-0.002978806 -0.011063892 0.0006565985 0.030302713 0.033631634 -0.00016249223 -0.0050010355 -0.028833047
-0.024494007 -0.030338034 3.8837217e-05 -0.042159557 0.0001306287 -0.03033391 -0.024256904 -0.017310228
-0.012611585 3.7672308e-07 -3.3022689e-06 -0.012699636 0.0079453215 -0.028163513 -0.015864028 0.0067175436
-0.036737278 0.004283804 -0.015300711 -0.0018179334 -0.042232018 -0.004869019 0.024162596 0.020763488
-0.045871872 0.007236139 -0.0394594 0.046859976 -4.988398e-07 -0.006090728 1.2278345e-07 0.020510443
0.03577204 1.2703777e-05 0.011136204 -0.024188325 -0.010025039 -1.3287015e-06 0.028468538 2.0730171e-05
0.046317656 0.03228143 -0.01781367 -0.010468633 -1.068194e-06 0.03697063 -0.020115854 0.03243009
0.04460333 -0.014892965 -0.022549652 0.043037616 -7.979509e-07 0.051817846 0.0018211313 3.9753786e-07
-1.9598483e-06 -0.05169187 -5.672909e-07 -0.013352577 -0.009210213 -0.014461327 -0.013054924 0.0329447
0.038175933 -0.04295971 -0.01744066 -0.010623181 -0.013467908 -5.644874e-05 0.050601926 -0.025797443

tiles_emb.hidden_layers.2.bias f4 [128]
00000000: 1a1a 9fb8 3e2c 1db9 5f7e 18bd bde9 c73b
00000010: ba82 e9bc fac8 d6b9 726a 153c 62ac 72b8
00000020: f54e 3a3b f1f3 56bd b7ed 1fb9 bb09 083d
00000030: 97c2 5e39 7484 5fbc 33ae ad3c d08c e23c
00000040: f7f1 ecb8 8b31 82bc c090 36ba 58c6 223d
00000050: fc6d f1bb 951c e53c 75c9 b339 8637 c5bc
00000060: 623d 113d 11bb 4d3d 2cd2 1fbd f42d 4a3d
00000070: ce1e 72bb 8028 bfbc 5f90 8b39 9aaa 953b
00000080: ceaf aabc 9edd 37bb ae38 7439 07fe 14bd
00000090: d302 0dbd 9aa3 8abb 4c05 3bb8 2b09 343d
000000a0: 9491 303d 8992 2f3c 5a29 28bc 33d3 a1bc
000000b0: c9eb 973c 1b4a 4cbd 59b3 9c3b 8005 97bb
000000c0: bbe3 fcbc e4c6 f53c 1356 b0bb 8d8e 323d
000000d0: 1c41 043d 8d12 8abc 6802 e13a e2eb cabc
000000e0: 60af 3f38 a209 05bd 2863 943c 09be d0ba
000000f0: b7c0 f1b9 7989 e939 6acd 2cbd 0697 5e3c
00000100: 524c a7bc 297e f7bb 20d7 b4bc a9f1 d5bc
00000110: db05 d3b9 f2bd a23c 5702 15bd e276 43bd
00000120: 86f0 a7bc 1957 a53b e98b 4139 44a5 69bb
00000130: 0f97 46b9 877a f6b6 8d02 e6bc 7eba 4eb9
00000140: 6720 3d3d ade1 17bd de7d 89b9 098c 26ba
00000150: de5b 9238 029f 00bc 7dd9 193b 7e0a 513b
00000160: 0dbe 9cba 3730 24bc 9e71 babc 9c67 29bd
00000170: bd8e 243c 54e6 513d c30a 04bd 9ede 8639
00000180: 3890 eeb9 ca87 56bc 7c10 d4b9 7463 4c3d
00000190: c286 edbc a0d5 f1b8 a982 07bd 44dd 53bc
000001a0: 6b1c d838 c711 ffbc 2b5b 283a 5524 203b
000001b0: b90f 213d e203 013c 7d48 39bc ace5 17b9
000001c0: c689 d23c 6859 30bd 84ef 02bb 9064 fc3c
000001d0: f414 d5bb 664f cbbc 2197 503c ca42 343c
000001e0: 1573 50b9 a2ef 2b3a 16b8 cbbc 661a 8ab9
000001f0: 1d69 4cbd ae9d 353d a568 9bb7 0c8b 4cb9
-7.5865726e-05 -0.00014989168 -0.037229892 0.006100862 -0.028504718 -0.00040967 0.009119617 -5.785784e-05
0.002842841 -0.052478734 -0.00015251977 0.033212405 0.0002124406 -0.013642419 0.021201229 0.027655035
-0.000112984264 -0.015892765 -0.00069643185 0.039739937 -0.0073678475 0.02796773 0.00034291638 -0.024074327
0.03545893 0.05022723 -0.039018795 0.04936023 -0.003694463 -0.023334742 0.0002661971 0.0045674564
-0.020835783 -0.0028055678 0.00023290768 -0.03637507 -0.03442652 -0.0042309286 -4.4589207e-05 0.043954056
0.043107584 0.010716089 -0.010263765 -0.019754028 0.018545048 -0.04987536 0.004782122 -0.00460881
-0.03087031 0.030002065 -0.0053813546 0.04359298 0.032288656 -0.016854549 0.0017166855 -0.02477068
4.570128e-05 -0.03247989 0.018113688 -0.0015925776 -0.00046110686 0.00044543648 -0.042188086 0.0135858115
-0.020422135 -0.0075528813 -0.022075236 -0.02611621 -0.0004024942 0.019865964 -0.036379185 -0.047720797
-0.020500433 0.0050457832 0.00018458035 -0.0035651485 -0.00018939025 -7.3456354e-06 -0.028077388 -0.00019715165
0.04617348 -0.037080456 -0.00026224455 -0.00063532643 6.978934e-05 -0.00785041 0.002347558 0.0031897123
-0.0011958495 -0.010021261 -0.022759255 -0.041358575 0.010043797 0.05124505 -0.032236826 0.00025724334
-0.0004550235 -0.013093898 -0.00040448073 0.049899533 -0.028994922 -0.00011531566 -0.03308359 -0.012931172
0.00010304976 -0.031136407 0.00064222765 0.0024435718 0.039321635 0.007874461 -0.011308786 -0.00014486042
0.025700461 -0.043054014 -0.0019979188 0.03080967 -0.006502742 -0.024818134 0.012731344 0.011002252
-0.00019879297 0.00065588404 -0.024868052 -0.0002634108 -0.04990493 0.04433983 -1.8526169e-05 -0.00019506755

attention_layer.att.weight f4 [128, 128]
00000000: 37bf 8b36 1723 093d d048 b13c 5a00 da3c
00000010: 2e14 cfbc 04aa 2a32 5129 3cbd 31d0 23b0
00000020: fecb 0abd 4b91 463d d712 81bc 0432 30bc
00000030: bf42 1ebd a3ca 553d 505c 2c3b f2c7 b2bb
00000040: 8973 5dae d5b2 1e3c ad32 5d3a a58c e23b
00000050: 93ea 1cbb 01cf ef3c d568 a2ba 7b09 c43b
00000060: 100c 45bd 6e57 542e a6c9 5d2c d5aa d13b
00000070: 0723 3fbd c278 38bd 8380 c1bc a808 3c3b
00000080: 6412 ddbc 9380 7cae 584e dcae 88cd 573d
00000090: 76e9 e8bc e9a5 63bb 149f 933a e316 463d
000000a0: 9722 523d 723d dc3c 5521 19bb a8ab d6bb
000000b0: 31e1 cd3c 3ef4 063d 280e b03c e31c f0bc
000000c0: 72ae bbbc 1934 ff3c 5f32 143d ca18 8d3c
000000d0: a535 ecbc e876 44af f94f 3ebc 1c33 8eae
000000e0: b090 fc3b 32d2 c9bc 993a debb 3291 56bd
000000f0: a0eb 9b3a 7ad3 b2bc 55b1 2bba a818 2b3d
00000100: 53eb d0bc db2f b9ba e4c8 a23c 4d5b eeae
00000110: d6d5 8e39 3661 4fbd 2ba9 31bd 66fc 49bc
00000120: deb2 28b6 c295 203b 19c7 1ebd 32dc 93bc
00000130: 0734 ce3b 0aac 3cbd 7000 c5bc 4d54 6e39
00000140: 160e dfbc 23bf a0ba bdbc 0d39 e4ce 84bb
00000150: 1aa4 2f32 a013 a0bc 73fa cf34 0504 deae
00000160: 7c48 c2bb 8c7f 89bc fac1 3f2f cded 2039
00000170: cf93 41bd 71cc 3c3d 9437 41bd 10bc a03c
00000180: 5695 af3c 00fb 043d 9e28 7d3a a74b 9fb6
00000190: 50a6 573c 1bce 593c df00 ad3c c6cc dcbb
000001a0: 935b 172f 2fec 073d 9d8f c23c e1f1 1e3d
000001b0: 09b0 3dbb 12dc debc a14e 75ba c625 14bd
000001c0: 1057 343c b52a 4b3d 011e 4e3d c737 3ebd
000001d0: 398d 383a e57e b438 0dda dbbc b83e 89bc
000001e0: fc76 3dbd 3733 ccb8 0915 bc3c cf7b e3bc
000001f0: 4d91 13af 1d9f 09b6 fc3a 443a 4c9d 9f3c
00000200: bfad 16bd f5b4 063d 0c2e 603b d75a 4d3d
00000210: 449a 0f3d 702b b438 336b 24bd 0bd5 a53c
00000220: 40a2 19bd cae8 babc f6cb fb3c e0b2 293d
00000230: 3fb7 623c af61 a6bb 5844 2bbd a6dc 423d
00000240: 5d90 de3c b7c7 eb3c 5a28 9d3c 5b06 2a3d
00000250: 5618 0abd 9069 f73b 8378 d42d bb8d 4d3d
00000260: 6c69 0b3b bd0b 0cbd c3d6 e23c 298c 8f36
00000270: abec 8e3b 94e7 853c c11a dabb 09b7 2bbd
00000280: 39e0 633b e463 65b6 fad7 49ad 4008 4fbc
00000290: ab7e 1fbd 456b 65bc 45d1 342f d868 37bd
000002a0: fbb7 c13c 4380 ab3c 886a 4dbd 82f7 47b5
000002b0: df8e cf2d b87a 52ad 5dd6 b93c 8c0f 2fbd
000002c0: 337a 8433 8f0f 19bd 9aa6 533d ddbb d03b
000002d0: bf65 4fbd be0b c1b6 ab90 6d39 fd8f 37bd
000002e0: 9f18 ebbc fcc9 99b7 5875 873c 8407 1e3d
000002f0: 48e4 3d3b 0f53 193b cb57 7439 75a0 4f3c
00000300: de5c 8eb8 0511 b93c ada0 c5bc 5788 0bb9
00000310: da44 a7b9 515c 4f3c 5f75 493c 1961 aa3c
00000320: 6469 043d 4356 f43c 9abf 13bd 479a 5535
00000330: 32e0 3cbd fe1a a1bc 2dde 00bb dfff 173b
00000340: f9b9 ce3c f720 2bb7 0117 05bd 0cf6 ecbc
00000350: 5ed4 143d 8dba 4abc 7055 0337 e7cc 46bd
00000360: 212c 9fb8 1eb6 a8b7 a805 953c 2f2e 463d
00000370: 29de 093c ab45 8bbc 06e0 39bd bc14 8db8
00000380: 77d9 29bc 9a68 12bd a66b 83ac be78 62ba
00000390: fbd6 7cb0 ee0e b13a e1c4 ec3c 0fb8 383a
000003a0: fda8 12ba 5444 0e32 5ccb db3b 967f 9cbc
000003b0: f9f6 7e3a 15b5 413d bb2b f2ba 8faa 1dbd
000003c0: 0e37 e5bc 3fcb 9f3c 82cc 2937 4617 3e3d
000003d0: a948 943c 14b0 1034 ce08 48bd 9b87 523d
000003e0: 59c0 a1bc e315 f93b 458a 03bd ad09 17bd
000003f0: d26e 5f31 b1e6 133d d512 1bbd 4145 a5bb
4.164783e-06 0.03348073 0.021641165 0.026611496 -0.025278177 9.933959e-09 -0.04593784 -5.959491e-10
-0.03388595 0.048478406 -0.015756054 -0.010754112 -0.038637873 0.052195203 0.002630014 -0.0054559642
-5.0352198e-11 0.009686192 0.0008438032 0.006913739 -0.0023943528 0.029273512 -0.0012390862 0.0059825755
-0.048107207 4.8280872e-11 3.1517926e-12 0.0063985386 -0.046664264 -0.04503704 -0.02362085 0.0028691683
-0.026986308 -5.7412363e-11 -1.00183584e-10 0.052686244 -0.028431635 -0.0034736341 0.0011262619 0.04836167
0.05130252 0.026884768 -0.0023365815 -0.0065512247 0.025131794 0.03294777 0.021491125 -0.02931065
-0.02291033 0.031152772 0.03618085 0.017223734 -0.028834173 -1.786834e-10 -0.011615747 -6.466491e-11
0.007707678 -0.024636362 -0.0067818877 -0.052384563 0.0011895783 -0.021829356 -0.0006549557 0.04177156
-0.025502836 -0.0014128642 0.019871183 -1.0839205e-10 0.0002724367 -0.050629817 -0.04337422 -0.012328243
-2.5138065e-06 0.0024503325 -0.038764093 -0.018049333 0.0062928232 -0.046062507 -0.02404806 0.00022728853
-0.027228396 -0.0012263994 0.00013517118 -0.0040529836 1.0223653e-08 -0.019540608 3.873898e-07 -1.0096105e-10
-0.005929051 -0.016784452 1.7440263e-10 0.00015347377 -0.047260102 0.046093408 -0.047172144 0.019620925
0.021433514 0.032465935 0.00096572365 -4.7473764e-06 0.013162211 0.013293768 0.02111858 -0.006738278
1.3765904e-10 0.033184227 0.02375012 0.038804892 -0.0028944036 -0.027204547 -0.0009357725 -0.036168836
0.011007085 0.049601275 0.050321583 -0.046439912 0.0007040087 8.606705e-05 -0.026837373 -0.01675354
-0.04625605 -9.7370175e-05 0.02295925 -0.027768997 -1.3421193e-10 -2.0507207e-06 0.0007485596 0.019484185
-0.03678679 0.032887418 0.0034207134 0.05013546 0.03505923 8.59116e-05 -0.040141296 0.020243188
-0.03750825 -0.02281608 0.030736905 0.041430354 0.013837635 -0.0050775628 -0.041813225 0.047573708
0.027168447 0.028781755 0.01918428 0.041509967 -0.033714615 0.007550426 2.4155128e-11 0.050183993
0.0021272553 -0.034190882 0.027690297 4.278049e-06 0.004361709 0.016345777 -0.0066560213 -0.041922603
0.0034771098 -3.4181803e-06 -1.1473484e-11 -0.012636244 -0.03893916 -0.014002626 1.6445252e-10 -0.04477772
0.023647299 0.020935183 -0.050150424 -7.449345e-07 2.3596623e-11 -1.1964367e-11 0.022685224 -0.042739436
6.168957e-08 -0.037368353 0.051672556 0.0063700513 -0.050634142 -5.753215e-06 0.00022655974 -0.044815052
-0.028698264 -1.8333078e-05 0.016535446 0.038581386 0.0028975178 0.0023395454 0.00023302359 0.012672533
-6.7883855e-05 0.022591123 -0.024124468 -0.00013306864 -0.0003190402 0.012656287 0.01229605 0.020798253
0.03232707 0.029826289 -0.036071397 7.9573186e-07 -0.046112247 -0.019666191 -0.0019663677 0.0023193283
0.025235163 -1.02000695e-05 -0.03249264 -0.028925918 0.03633534 -0.012373579 7.828101e-06 -0.048535254
-7.5899305e-05 -2.0111966e-05 0.018191174 0.048383888 0.0084147835 -0.017000994 -0.04537966 -6.727266e-05
-0.010366789 -0.035744287 -3.7351953e-12 -0.0008639208 -9.198257e-10 0.0013508478 0.028902473 0.000704647
-0.0005594639 8.281024e-09 0.006707592 -0.019103806 0.0009726133 0.047291834 -0.0018476167 -0.038492735
-0.027980354 0.019506095 1.0120801e-05 0.046408914 0.018101053 1.3475102e-07 -0.04883652 0.051398855
-0.019745039 0.007601486 -0.032114286 -0.036874462 3.2513765e-09 0.036108676 -0.037859756 -0.005043656

attention_layer.att.bias f4 [128]
00000000: ee2e b33b 8d45 313d d7b8 20bd 0673 8d3b
00000010: 9fcf 303c 3fc9 dabc ff6f e8bc f41f 10bd
00000020: 2703 aebc 7157 bc3c 3387 fe3c 3fef 813c
00000030: af32 4e3c 38c3 3cbd 0e58 0b3c 3474 8f3c
00000040: 794c b3bb 2b18 cfba 3874 a43c 326c ed38
00000050: 43cf d1bc 499b 002c a89b d6b9 001a b2bb
00000060: 8de5 3ebd 124e fa3a 60cb 4d3d 8558 183d
00000070: f9e9 7dbb 0b34 a4bb 3ea9 523c e5c3 03bd
00000080: 1625 26ad db68 40bd 9f5d f1bc 43af 58bc
00000090: 250c d9bc 211e d93c b9a7 78ba 2eba 203c
000000a0: 6371 0ebd 7972 10bd 558c 253c b86d b0bb
000000b0: 0b48 403d 75f3 6b3a 992c 3cbc 8f0f f6bc
000000c0: 2c64 f1ac d32e 553c 93bf 64b3 d99f 843b
000000d0: 102f 92b1 da75 ec3c fe5c cfbb 2bec 083b
000000e0: 5d39 19bd 2e0d ffbc 7e6a e738 1833 813c
000000f0: 46e0 df31 a3c0 bf3b 8db5 b82c 7251 c438
00000100: 11b3 e030 f9ae 9536 51a8 333a 76ee a03a
00000110: 1053 a6bc dd97 c4bc f540 f93a 877a 8ebc
00000120: 4bc7 0f30 685c 953c 1c4a 09bb 3830 4c3d
00000130: 688e df36 3558 fe3c 33da 483c 730f 5d3c
00000140: 7c9c aab9 9923 9aba 1661 0c3d 623d 6bbb
00000150: 5432 4abd 7211 353c a4f4 c9bc 9c39 693b
00000160: 4280 3c3c f1d6 2dbd 706b 3e3d 873a 3bbc
00000170: 8368 3bbd 6d6d c8bc 1de6 0bb8 cf7e aeba
00000180: ac88 a73c 4563 c9bc 6851 40bd 253c 523d
00000190: 4686 0bbc e3e2 d1bc f192 0dbd e4fd 423d
000001a0: 8016 263d 6920 36bd ed9c 63bc f640 0abd
000001b0: 5774 1cbb 766c 133d 050f 912c 493e 133d
000001c0: fa6d 3cbd 4bc4 a2bb 2afe e93b ca4e 413d
000001d0: abb9 ce3c 49c3 9ebc cdb4 9d3c 2aee 21bd
000001e0: 9fa1 19bd be94 b3ae d62d 2ab2 ab7f faad
000001f0: 083d a73c f993 89bb 4b79 173b 120f 153b
0.005468241 0.04327922 -0.039238777 0.0043166904 0.010791688 -0.02670729 -0.028373716 -0.035186723
-0.021241738 0.022990914 0.031070327 0.015861152 0.012585326 -0.046084613 0.008504881 0.017511465
-0.0054717627 -0.0015800049 0.020074949 0.000113211936 -0.025611525 1.8276095e-12 -0.00040933234 -0.0054352283
-0.046605635 0.0019096753 0.05024278 0.037193794 -0.0038744195 -0.005011087 0.012857733 -0.03216924
-9.444242e-12 -0.046974998 -0.029463587 -0.013225379 -0.026495049 0.026503624 -0.0009485442 0.009810014
-0.034776103 -0.03526542 0.010104259 -0.0053841732 0.046943706 0.00090008165 -0.011485242 -0.030036716
-6.8607533e-12 0.013011652 -5.3259622e-08 0.0040473756 -4.2545096e-09 0.02886479 -0.006328224 0.002089272
-0.03740822 -0.031134214 0.00011034774 0.015771434 6.515651e-09 0.0058518215 5.2497507e-12 9.361179e-05
1.6349039e-09 4.4609155e-06 0.0006853389 0.0012278098 -0.02030328 -0.023998195 0.0019016551 -0.01739241
5.230631e-10 0.01823254 -0.0020948714 0.049850672 6.662496e-06 0.03104792 0.012259054 0.013492453
-0.00032541517 -0.0011759877 0.034272276 -0.0035894741 -0.049364403 0.011051523 -0.024652787 0.0035587316
0.011505188 -0.042441312 0.04648918 -0.011427528 -0.045753967 -0.02446624 -3.3354492e-05 -0.0013312938
0.020450912 -0.024583468 -0.046952635 0.05132689 -0.0085159 -0.025620883 -0.034563962 0.04760541
0.0405488 -0.044464502 -0.0138923945 -0.033753358 -0.0023873055 0.03599211 4.1228154e-12 0.03594807
-0.04600332 -0.0049672476 0.0071408944 0.04719428 0.025235018 -0.019380229 0.019251252 -0.03953377
-0.03750765 -8.1663995e-11 -9.905724e-09 -2.8478405e-11 0.020414844 -0.004198548 0.0023113068 0.0022744578

attention_layer.gate.weight f4 [128, 128]
00000000: dede 19bd dd06 29bd 9cdd 213d fd6c 10bd
00000010: 832b 41bb 2c4c 03bb c115 3f3c e0e0 76ac
00000020: 35de 583c 6565 1fbd 4964 18bd c412 0abd
00000030: 795a c3ba 692f e83b a18c 1b3d 2924 6fbb
00000040: d46a b0bc a241 eab8 eab5 80b0 a210 353d
00000050: 776c a42d 891f 45bd e0db 07bd 6512 833c
00000060: 5767 2433 3ec0 5dbc 1caa e5ba 8420 243d
00000070: 5503 303c 4db6 a53c 1618 933b 01f3 253d
00000080: 4d46 d32c 633c ff3c fef1 75bc 2bf0 be3a
00000090: 596f bd3c 7814 503d 7d52 2fbc 2228 b13c
000000a0: e089 d5bc 1b2a f13a b9cd babb 35bf e02b
000000b0: ad8c 90b9 c5b4 1436 b5c0 f33b 0a22 baba
000000c0: 0810 ebb7 09c7 07bd c5bd 8bb9 9ed1 6439
000000d0: 9f51 8a3c bcfa 27bd 0512 a9bc f970 41bd
000000e0: 22e1 b53a 5d66 7ebb ece2 02bc eb02 b53c
000000f0: 6f56 353c a858 b639 f958 5d3b 1fc9 51bd
00000100: 2439 d837 0021 4937 4d36 042d ef69 ecae
00000110: a977 fb3c bda1 9bbc a5e0 603a f634 20b9
00000120: 70c1 27bd bdd1 63b1 59a7 fdb9 95e8 d939
00000130: 624a 543d 7114 a43b 6914 80ab 01cc 51bd
00000140: 3247 343c 74d8 113d 07b9 edbb 3eb3 07bb
00000150: 91e3 2cbd d6ab 13b9 305b e63c a40c a23c
00000160: d719 44bc 0b6e 3ebc 7e71 133d 23b1 303c
00000170: 821a 533c 6e98 053d 4ac1 da3b 6220 16bd
00000180: 2e25 c7bc d440 bfbb 959e 4539 f293 cfbc
00000190: eaff cfbc 7968 a3bc 032e 433d 40c7 0cbc
000001a0: 75e6 833b 80a7 b835 36e7 452b 94b7 3bbd
000001b0: bdd7 4cbc 8053 193d b6f3 7f3c 3b95 4fbd
000001c0: 5faf b43c 5860 0f3a e5d8 39bc 179c b6bc
000001d0: 168d 063b cd3e ec39 6001 8831 f743 07bd
000001e0: acc9 3032 dbce b2bc 3d85 b1bc 1040 3abd
000001f0: ee18 beba 3d90 f33b 536d 543a c696 2fb2
00000200: b9c1 6ebc ec91 b3ad 0d76 ab2d 2541 34bb
00000210: 862b 88bb 5bde 8aba 4280 b4bc ad26 5a36
00000220: ce2f a4b5 81ce a93c 6c06 08bb 204d f5bc
00000230: 751f a23c 09bf a5bb 36d7 223b 4dbb 323d
00000240: 7331 f3bb 242c 2db2 0d48 e93c e87c b93c
00000250: 2330 48bd 9ebe 89b8 8568 863c b20d 57bd
00000260: 8640 dd3c f3f2 21ab 382f 803c b098 49bd
00000270: 6bd6 43b9 17af 63bc 7bb7 8bb7 732b 39bc
00000280: 2391 08bd 86fd 313d 3f8a 17bd 1e31 beb9
00000290: 8dd6 032d bb18 9e2b 76ec 18ad 996c b2ba
000002a0: 5665 6c3a e890 d3bc 64f0 8439 024b ed3c
000002b0: 8525 46ac 3fb6 083c 6d41 00bd d049 37bd
000002c0: 5d6c 4e3b 3544 323d 4337 f83b eef7 46bc
000002d0: e148 10bb 3431 4c3d e1ae 00ae a2a7 253b
000002e0: 24d7 a22b 775c e13b e756 0f3c 9068 a8ba
000002f0: 6ef0 023d 548f 233d abf5 213d f9c2 4aad
00000300: a2ad e73b b9cb 9cb4 f226 bd3c 7202 173d
00000310: d616 1a2e 8c86 293d 3a6b 90b7 1c2f 51bb
00000320: d402 acbb ef2d fbbc 64da 493a f0f2 fe3c
00000330: a7c5 da3b f364 ca32 7405 05bd 1ec3 25b2
00000340: de58 ddbb f4e6 54b9 0b24 37bd ebb1 9c2d
00000350: d907 733a e9fe b7bc eb3b 0a2c 3bde 33bd
00000360: 34bb c2bc 42a4 532f eadc 06bd b879 60bb
00000370: 4e96 0abd 5019 a33a 5d4c b2bc f03c babc
00000380: 86a7 96bc 2272 633c 74ee 2eaa 8342 d73c
00000390: 4b30 13bd ad04 b33c 6868 3c3d 9026 81bc
000003a0: eab0 1f3a b819 b4bc 5d8e a6bc d805 a3b5
000003b0: 6f94 d73c 12b9 c5bc 4780 5eba 0e37 0b3c
000003c0: 1590 ae3b a916 ea3c b12f 1bbd 6eac 25bd
000003d0: 5b86 702b 0a7d f23c b2dc 0c3c edb6 0c3d
000003e0: 3c79 2a3d c54a fb2b 2f16 1839 a580 8d3c
000003f0: d408 9eb9 0a32 553c b7bd f4bc ff4c a83c
-0.03756606 -0.04126631 0.039517984 -0.03526019 -0.0029475398 -0.0020034416 0.011662901 -3.5083533e-12
0.013236572 -0.038915057 -0.037205014 -0.033709303 -0.0014904282 0.00708573 0.03797591 -0.003649006
-0.021535315 -0.000111702146 -9.364929e-10 0.044205315 1.869281e-11 -0.048125777 -0.033168674 0.015999982
3.8278213e-08 -0.013534604 -0.001752201 0.04007007 0.010742982 0.02022853 0.0044889553 0.04051495
6.0047856e-12 0.031156724 -0.015011309 0.0014567425 0.023124384 0.05080077 -0.010700819 0.021625582
-0.02606672 0.0018399389 -0.0057007936 1.5969228e-12 -0.00027570632 2.215894e-06 0.007438744 -0.0014200818
-2.8021648e-05 -0.0331488 -0.00026653535 0.00021821863 0.016884623 -0.041010603 -0.020638475 -0.04722688
0.0013876299 -0.0038818337 -0.007988673 0.022096118 0.011067971 0.000347798 0.0033774956 -0.051217195
2.5775815e-05 1.1988217e-05 7.5153885e-12 -1.0750855e-10 0.030696707 -0.018998021 0.00085783965 -0.00015278519
-0.04095596 -3.315207e-09 -0.00048380604 0.00041562752 0.05182875 0.0050073196 -9.100612e-13 -0.051219944
0.011003302 0.035606816 -0.007254723 -0.0020706202 -0.04220921 -0.00014083026 0.028119653 0.019781418
-0.011969051 -0.011622916 0.035996906 0.01078442 0.012884738 0.03261607 0.006675874 -0.036651976
-0.02430972 -0.0058365855 0.0001884646 -0.0253391 -0.025390584 -0.019947277 0.047651302 -0.008592427
0.0040252754 1.3757817e-06 7.030933e-13 -0.04582937 -0.012502608 0.037433147 0.01562207 -0.050679427
0.02205628 0.00054693734 -0.011343216 -0.022291226 0.002053087 0.00045060218 3.9582773e-09 -0.0330238
1.0290403e-08 -0.021827152 -0.021669978 -0.04547125 -0.0014503279 0.007432966 0.0008103449 -1.0220623e-08
-0.014572554 -2.0414746e-11 1.9492874e-11 -0.002750465 -0.004155579 -0.0010594832 -0.022033814 3.2507044e-06
-1.2232865e-06 0.020728352 -0.002075578 -0.029944003 0.01979039 -0.0050581736 0.0024847514 0.043635655
-0.0074216663 -1.0079962e-08 0.02847674 0.022642568 -0.04887403 -6.568174e-05 0.01640726 -0.052503295
0.027008306 -5.753585e-13 0.015647516 -0.04921788 -0.00018676526 -0.013896725 -1.6655531e-05 -0.011301863
-0.03334154 0.04345467 -0.036997076 -0.0003627622 7.494128e-12 1.1233439e-12 -8.6927045e-12 -0.0013612687
0.0009017786 -0.025825933 0.00025356107 0.02896643 -2.815832e-12 0.008344232 -0.031312395 -0.044748127
0.0031497695 0.04352208 0.007574947 -0.012144072 -0.0022016095 0.04985161 -2.9259154e-11 0.002527692
1.1570506e-12 0.0068774777 0.0087487465 -0.0012848545 0.031967573 0.03993161 0.039540928 -1.1525663e-11
0.007070259 -2.9205492e-07 0.02308986 0.036867566 3.503583e-11 0.04138808 -1.7216069e-05 -0.0031918949
-0.0052493606 -0.030661551 0.0007700084 0.031121701 0.006676394 2.3561801e-08 -0.032475904 -9.648629e-09
-0.0067549786 -0.00020303932 -0.044712108 1.7814158e-11 0.0009270884 -0.022460418 1.964424e-12 -0.043913107
-0.023770906 1.9248694e-10 -0.032925524 -0.0034252238 -0.033834748 0.0012443457 -0.021764928 -0.022734135
-0.018390428 0.013882192 -1.5537035e-13 0.026276832 -0.035934728 0.021852816 0.045998007 -0.015765458
0.0006091731 -0.02198492 -0.020331556 -1.2146147e-06 0.026315896 -0.0241361 -0.0008487743 0.008497013
0.0053272345 0.028575258 -0.03788728 -0.040447645 8.5451584e-13 0.029600639 0.00859754 0.03435414
0.041619524 1.7855375e-12 0.00014504114 0.017273257 -0.00030142686 0.0130124185 -0.02987562 0.020544527

attention_layer.gate.bias f4 [128]
00000000: a215 3c3d 3afb 043d 3af4 653b f34a 94bc
00000010: 8e94 5ebc 5b6f b92d 3390 74ba 58b3 183d
00000020: 8954 88ba 8e6e 49bd dd62 84bb 6ae6 1cbc
00000030: 0164 54af ed82 93bc ea30 3cab 5c0e f63b
00000040: 4073 9b3a d133 803c 3ce0 c23c e7f6 303d
00000050: 39d6 d33b 6593 abbc 531a 013b d78f 2d36
00000060: af5d 812d 0ebe ba3a c85f 5c3c 926b 46bd
00000070: 5c14 33bd 5a7b 383d 82f4 51bd 5495 dc3c
00000080: 660e da3c b53c 1e3d 20ce 1b3d c2a8 90bc
00000090: 9bfa cc3b 43ab e02d 3a98 553b cf8f 2dbd
000000a0: 91ab 273a 4658 903a 50fb 23bd a39b 8abb
000000b0: 45dd 30bd 5c5b 9a3a beb6 4935 03be 8c2d
000000c0: 9198 213d 7819 d8bc 55b9 b63c 25d4 acba
000000d0: 507e a83c 5834 da39 cb8a 033c fce2 d43a
000000e0: bfd8 3f3c 097f 833c 9e8b 443c 5fe3 4e3d
000000f0: acc7 f63c b845 b4ac c1e7 eabc 13ef 15bb
00000100: d042 76b8 686f dbbb 0c9e b5bc e1e6 21bd
00000110: 9563 f93c dbee f8b7 1028 23bc 88a6 a73c
00000120: 0b48 0fb9 e32d 3abd 83ff 04bd a681 14ad
00000130: 5690 483d 1512 a2ae f7f3 fdbb 30f9 a53b
00000140: c2c2 59bc 105a 773c cd87 10bd e2d0 0d3a
00000150: 1844 1bba b13b 38bd 1449 f63c 58c5 873c
00000160: 76a5 6d3c bed2 2c3d bb76 18bd 3c65 c03c
00000170: 6ef2 543d e60f 393d b1bb fcab 286c 0ebd
00000180: 8f51 043d 3a6b 853c 9c8e 2bbd ead6 273d
00000190: cba9 d4ba 7f29 143d 543d 9f39 ee0c 8ebc
000001a0: 1005 433d ca80 cebc ed99 eabb d470 843c
000001b0: af9d cc3c a53a 13b9 a8d8 843c 9adb 66ac
000001c0: 1039 a13a 6e8e 83b8 3b06 1cbd 78f2 44bd
000001d0: a548 473c 2adc e53c 6041 b8a9 c2cf 4d2e
000001e0: e348 afbc 2f74 21bd ddea 95ab ccda a5bc
000001f0: 0e77 7fac 60fe d2bc 14bf 21ac fbd6 45bd
0.04591907 0.03246615 0.0035088197 -0.018102145 -0.013585223 2.1081517e-11 -0.00093293487 0.03728041
-0.001040117 -0.0491777 -0.0040401057 -0.009576419 -1.9316816e-10 -0.018006766 -6.68589e-13 0.007509036
0.0011859909 0.015649708 0.023788564 0.043204214 0.0064647463 -0.020944307 0.0019699528 2.5862735e-06
1.4707206e-11 0.0014247315 0.01345057 -0.04844243 -0.043720588 0.045039512 -0.05125857 0.026926674
0.026618194 0.038632113 0.038038373 -0.017658595 0.0062554604 2.5541907e-11 0.0032591955 -0.042373475
0.000639611 0.0011012636 -0.040034592 -0.004229979 -0.04317977 0.0011776495 7.514426e-07 1.600054e-11
0.03945214 -0.026379332 0.02230517 -0.0013185783 0.020568043 0.000416192 0.008028696 0.0016241963
0.011709391 0.016051786 0.011996178 0.050509807 0.030124508 -5.123648e-12 -0.028674962 -0.0022878095
-5.8713194e-05 -0.0066966303 -0.02217009 -0.039526824 0.030442992 -2.967513e-05 -0.009958282 0.02046515
-0.00013664381 -0.045453917 -0.032470237 -8.441614e-12 0.048965774 -7.370119e-11 -0.00775003 0.005065106
-0.013291063 0.015097156 -0.03528576 0.0005409849 -0.00059229275 -0.0449788 0.030064143 0.016573593
0.014504781 0.042193167 -0.037222605 0.023485772 0.05198901 0.045181178 -1.7957772e-12 -0.034771115
0.032304343 0.016286481 -0.04188405 0.040976442 -0.0016224919 0.036172386 0.00030372536 -0.01734015
0.04761225 -0.025207896 -0.0071594627 0.016167082 0.024977533 -0.00014040859 0.016216591 -3.280687e-12
0.0012300331 -6.2730964e-05 -0.03809188 -0.0480828 0.012163316 0.028059084 -8.182582e-14 4.679613e-11
-0.02139706 -0.039417442 -1.0652274e-12 -0.020245932 -3.6303768e-12 -0.025756061 -2.2985546e-12 -0.048300724

attention_layer.w.weight f4 [1, 128]
00000000: bf2b 28bd 51a3 063c f881 273b fd86 6dbc
00000010: ed74 37bd 4722 46bd 0b23 b9bc 5cd0 093c
00000020: b9ce 27bd 327a 62bc 0b40 a336 bb94 8bb9
00000030: 2fb7 73bc 1be1 e3bc d263 dabb 3e52 222f
00000040: 9a4f 35bd 17ac e23c 4663 983c 1367 123d
00000050: faaf 15bd 976c aeae ce06 6dba 5f0e d4ac
00000060: f1f4 f5bc 9f2c e8b8 45bd f7ba 2d49 273d
00000070: a77b 423d ca1c 963b 30b5 2fb2 63d9 dc2e
00000080: e07b 44bd 0f85 013d 68f1 6f3c b8e2 20bd
00000090: b07f d1bc 83e5 48bd 4ad1 47bc c53e 8232
000000a0: 5733 08bc 9b55 22b8 f612 103c a05e 6e3c
000000b0: 9d15 e0ba 65e6 0d3b e3b7 3f3d 5a90 34bd
000000c0: d223 3cbd 7f8e ca3b 8d89 49bd 9f6b 95bc
000000d0: 8d05 35bd 1bb9 07bd e0b2 a439 3b15 3fbd
000000e0: 35f7 72bc 7e43 24bb 2719 db2f 058e b6bc
000000f0: 06ed 8039 6a0d 3e3d 5b25 2a3b 447f 9a3c
00000100: 1939 28bb bf9a 7aaf 0d0b 05ba 8e3d 8b2f
00000110: 94b5 383d ebf5 2dbd 8443 333c a31a 21bd
00000120: 14c0 0fbd 0ea1 1cbd 6521 193d ecc4 2abd
00000130: 0f27 76bc 0ddd 993c b146 4ebc 9139 84ba
00000140: 52c9 1d3d 34c0 2d3d efa6 05bc fa50 d03c
00000150: 5d31 373b 7559 f2b8 145c 1ebd 6d93 0130
00000160: a913 a839 d52a 80bc 2193 a2ad acef f13a
00000170: 9941 4cbd f5d0 cc2f c836 b3bc 9ee3 6e3c
00000180: a7e8 163b 9e87 f13c 49aa f5bc 883f 37b2
00000190: e515 0ab6 06f3 40bc b626 4dbd 05bb 92bc
000001a0: aa8f 59b3 1d51 00b0 5dde 93af bcf8 2abd
000001b0: 8bc2 853b 67ef 01bd 6a11 f13b 82b4 9bbc
000001c0: 8556 eb3c d994 1a3d b805 053d 3715 a43b
000001d0: 877a c3bc 7473 fc30 0acb 20b7 1ba9 66bc
000001e0: 49ec b2b8 41b8 933c 9bb6 bf38 eebd a23c
000001f0: 6487 0f3c d5a3 d7b9 1184 51ba 7b3c 16bd
-0.041057345 0.008217649 0.0025559645 -0.014497516 -0.044789243 -0.048372533 -0.022599718 0.008411493
-0.04096863 -0.013823079 4.865234e-06 -0.0002662296 -0.014875217 -0.0278173 -0.0066647315 1.4763032e-10
-0.044265367 0.02766995 0.018602025 0.03574283 -0.036544777 -7.931893e-11 -0.00090418465 -6.026998e-12
-0.030024024 -0.000110709334 -0.0018901011 0.04084127 0.047481205 0.0045810686 -1.0227538e-08 1.00430574e-10
-0.0479697 0.031621035 0.014644958 -0.039278716 -0.025573581 -0.049047004 -0.0121958945 1.5162536e-08
-0.008313022 -3.8703536e-05 0.008793583 0.014548928 -0.0017096285 0.0021652218 0.046806227 -0.044082977
-0.0459326 0.0061815376 -0.049203444 -0.018239794 -0.044194747 -0.033135515 0.0003141379 -0.046651106
-0.014829447 -0.0025064643 3.985374e-10 -0.022284517 0.0002459066 0.04639951 0.0025962207 0.018859513
-0.0025668798 -2.2792344e-10 -0.0005075194 2.532769e-10 0.04509504 -0.042470854 0.01094139 -0.039332043
-0.03509529 -0.03823953 0.037385363 -0.041691706 -0.015023961 0.018782163 -0.012590096 -0.0010087957
0.038522072 0.042419627 -0.008157476 0.025429238 0.0027953007 -0.00011556122 -0.03866203 4.713943e-10
0.00032058105 -0.015645424 -1.8482606e-11 0.0018458269 -0.049867246 3.7255857e-10 -0.021876708 0.014580635
0.0023026855 0.029483613 -0.029988425 -1.0666447e-08 -2.0576347e-06 -0.011776691 -0.050085746 -0.017911443
-5.065491e-08 -4.66814e-10 -2.6897143e-10 -0.041741118 0.004082029 -0.031722452 0.0073568122 -0.019006971
0.02872778 0.03773961 0.032476157 0.005007412 -0.023862137 1.8368227e-09 -9.584017e-06 -0.014078404
-8.531713e-05 0.018032195 9.141603e-05 0.019865956 0.008760307 -0.0004113006 -0.0007992397 -0.036678772

mlp.0.0.weight f4 [128, 128]
00000000: 8730 7e36 468d 8bbb 9740 19ba 8cfc 11b9
00000010: d378 5d36 4d46 952b 752b ddbc fc2c 0e38
00000020: af30 0cad ae6c ddac f7d3 622c bcd9 a9bc
00000030: 3114 043d a4e1 13ae 661c 1e3c 4597 07bd
00000040: e1ed 8cba a468 c33c b64a 62b3 af9d 4229
00000050: 1356 073d 8056 e12b 10ce 5aad 9f6b 113c
00000060: 8db1 e2bc e849 1caf 2a58 853c 6bb8 89ae
00000070: d0da 2d2f e7b1 003d 9f0d f13b f560 1b2e
00000080: c6a4 e9bc 850c 91bc 37fc f03c 797d 96ba
00000090: 5c4b 083c ec47 00bd 72f6 27bc 75f6 3cbd
000000a0: 4fd4 013d 38d5 52b9 6374 a8bc 43d7 2132
000000b0: f5a2 853c 4e99 083d 5198 74bb ca73 523d
000000c0: d841 e12d 8c48 7639 acca 1abd 943a c639
000000d0: 2a80 34bb d58a 3ebd 798e 433d c0ff 36bd
000000e0: 2d64 05bd 598b f73b 8d41 d7ad 1f7a 9138
000000f0: 48f8 18bd df1e 36bc 7254 45bd e72a 043c
00000100: 7a49 53bc 9085 8ab9 6645 aaae 6620 11bc
00000110: 872f 39b2 7125 3a3d 3763 bcbb 0617 e0bc
00000120: b8eb 7abb 7c3e b035 adad 36bd 7cce 48bd
00000130: d3bd 1cbb 4ea3 2e3c 7f87 e237 1996 37bd
00000140: 51d1 abbc 77df 32bc e952 273d 5f6d 10bb
00000150: 8a06 17bd bc94 253c 5887 d9bb 784b 2c3d
00000160: df2b 55bc 336a 46bd f7e8 07bc 4290 1c3c
00000170: 1900 0230 4c3c e9bc f0d1 b63c e7a5 af3c
00000180: d212 93bc 7eee 8e3c 4bca 233d 64a2 4dbd
00000190: 1770 192b f273 1e3d 9512 bf3b 8942 ff3c
000001a0: 96b1 313c bd78 48bd 7603 923a c97b 13bd
000001b0: d99e 2ab8 e0a1 1abb 8f6d 8e3c 14f6 a2b4
000001c0: 7771 20bd f26a 2abd b55f 5bad d610 43b9
000001d0: 6463 aba8 041b 4a3d bc6f 31bd 0530 c1b7
000001e0: 9e28 c3bc b162 bf3b 59e1 212c 76cb db3c
000001f0: 0e5f d23b facb 2ebd 69d7 a62d db76 8d39
00000200: a276 52bd c875 063d 8f86 1c3d 0fe7 e73c
00000210: aad2 cebc 33d1 cabc ff43 1d3b c80a 053d
00000220: b400 0cbd 2048 18bc d912 eeb4 76b7 46b8
00000230: 85bd 273d 2df2 913a 954f 593c d27d 60bc
00000240: 6c38 7d3b ef15 11bd a863 12bc a270 2f3d
00000250: b423 423d 665e 1432 866a 243b 7959 4e36
00000260: 155e 6d3c 2aa9 b9bc 2925 bb2d bf55 8dbc
00000270: 51dd fcbb 7f4f bb3c 0b6b c63c ee2f 72ac
00000280: 863d 5b2b 5b89 56bd dce7 873c ae8a 1ebc
00000290: da4c 0c3c 38f8 f8bc d921 c8bc a918 1dbd
000002a0: ab61 313d 91a0 5239 ad9d ca3b 5666 cda8
000002b0: 2e33 58aa 0e15 b2b9 cf1c df3c b1ba ec3c
000002c0: 3b28 283d 4fbf d0bc d3b5 573d faba 53bd
000002d0: e253 39bd 51ae bebc d75e 93bb abe8 893c
000002e0: 15a7 373c fced d0bc 908d 2f3d aa29 1a3d
000002f0: 9bbf b63b 67fe e73c 5924 2aba 70de 043c
00000300: 54ad cebc cbe1 3e3d c136 4c3d 2e19 8dbc
00000310: 8573 83bc 1a8d 89bc a714 4dbd aa95 d1ba
00000320: 5a4f a83c c5aa 743b 9665 33bd 5179 b63c
00000330: cbf8 0bbc f56f 2fbd f5e5 493c adb3 c6bc
00000340: ef1c 953a 264b 363c f29d 263d f2a3 9a3b
00000350: 516e 2dbb 76fd 463d 7a6a 49bd 0d06 a33c
00000360: d508 01bd c6ee 16bd f5a1 2a2d 79b6 543d
00000370: 18d4 34af 7407 10bd fabe b9ab 498d 1b3d
00000380: 7999 112c 9841 3fbc 911a 44bc ca87 f9bc
00000390: 6597 19bc 1978 7a3c 3fad 433d 864a 2a3d
000003a0: 9b24 0a3c cd7d e4bc 7ea4 3cbd 3eab 253d
000003b0: a919 d138 15ee 4bbd 14fe 233d 6822 cfba
000003c0: 8bc9 1bbd fca5 043d 539d e331 2907 bba9
000003d0: e243 cebb 98f1 c6bc 55ce 7e3b 1ea9 3e3d
000003e0: 0320 b7bc fbd5 50bd f625 c43a 23cb 6d3c
000003f0: deb2 163d 3319 652f d0ae 11bc 1847 c4bb
3.7877196e-06 -0.0042587845 -0.00058461115 -0.00013922359 3.3001895e-06 1.0606599e-12 -0.026998261 3.3897333e-05
-7.968889e-12 -6.2932637e-12 3.2234196e-12 -0.020733707 0.03224582 -3.362434e-11 0.009650325 -0.033103246
-0.0010752046 0.023853607 -5.2687675e-08 4.3213422e-14 0.03304107 1.601122e-12 -1.243762e-11 0.0088757565
-0.027672553 -1.4214374e-10 0.016277391 -6.262798e-11 1.5811996e-10 0.03141966 0.00735636 3.5329035e-11
-0.028520953 -0.017706165 0.02941714 -0.0011481486 0.008318748 -0.03131859 -0.010251628 -0.046133477
0.031696614 -0.00020106591 -0.02056331 9.420378e-09 0.016313056 0.033349328 -0.0037322233 0.051379956
2.5608779e-11 0.00023487414 -0.03779094 0.00037809147 -0.0027542212 -0.04651912 0.047743294 -0.044677496
-0.03256624 0.0075544533 -2.447178e-11 6.9368856e-05 -0.037346154 -0.011115759 -0.048176236 0.008066869
-0.012895936 -0.00026420923 -7.7430326e-11 -0.008857822 -1.0779224e-08 0.045445863 -0.005749132 -0.027354728
-0.0038287472 1.3131207e-06 -0.044599224 -0.049025044 -0.0023916855 0.010659052 2.7004395e-05 -0.04482088
-0.020973833 -0.010917536 0.040850554 -0.0022037847 -0.03687147 0.010106262 -0.0066384487 0.04206416
-0.013010948 -0.048441123 -0.008295289 0.009555878 4.7293863e-10 -0.028471135 0.022316903 0.021441413
-0.01795331 0.017447706 0.039987843 -0.050203696 5.4512075e-13 0.038684793 0.0058310726 0.031159656
0.010845562 -0.04894327 0.0011139947 -0.036006723 -4.0679097e-05 -0.002359502 0.017386226 -3.0353897e-07
-0.03917071 -0.041605897 -1.246996e-11 -0.00018602921 -1.9027918e-14 0.04934217 -0.04331945 -2.3029754e-05
-0.023823079 0.0058406224 2.300457e-12 0.026830416 0.006420023 -0.042674996 1.8967676e-11 0.0002698217
-0.05138267 0.03282717 0.038214263 0.02830842 -0.025246937 -0.024757957 0.0023996828 0.032480985
-0.034180358 -0.00929454 -4.4344668e-07 -4.737774e-05 0.040952224 0.0011134796 0.013263603 -0.013701873
0.0038638366 -0.035421308 -0.008934893 0.042832024 0.04739733 8.6361975e-09 0.0025087907 3.0748472e-06
0.014487763 -0.022663672 2.1275941e-11 -0.017252801 -0.0077168127 0.022865055 0.024220964 -3.4416875e-12
7.788981e-13 -0.052377086 0.016590051 -0.0096766185 0.008563245 -0.030391797 -0.024430202 -0.038353596
0.043306034 0.00020086976 0.006183347 -2.2803953e-14 -1.920241e-13 -0.00033966493 0.027235417 0.028897615
0.04105399 -0.025481848 0.052663635 -0.051691987 -0.045246013 -0.02327648 -0.00449739 0.016834578
0.011209269 -0.025504105 0.042859614 0.03763739 0.0055770404 0.02831955 -0.00064904016 0.008109674
-0.025229134 0.04660205 0.049856905 -0.01722392 -0.016046295 -0.016790915 -0.050068524 -0.0015990038
0.02054565 0.0037333232 -0.04379805 0.022274645 -0.008543204 -0.04283138 0.012322892 -0.024255598
0.0011376421 0.011126315 0.040677972 0.004719251 -0.0026463459 0.048581563 -0.04917381 0.019900346
-0.031502564 -0.036848806 9.699343e-12 0.051931832 -1.6446255e-10 -0.035163358 -1.3198047e-12 0.037976537
2.0690934e-12 -0.011673354 -0.011969225 -0.030460257 -0.009374474 0.015287423 0.047772642 0.041574977
0.008431579 -0.027892018 -0.04605531 0.040446512 9.970676e-05 -0.0497876 0.04003723 -0.00158031
-0.038034003 0.032384858 6.624455e-09 -8.30571e-14 -0.0062947134 -0.024285123 0.0038880308 0.046548
-0.022354132 -0.050985318 0.0014964927 0.014513764 0.036791675 2.0836381e-10 -0.008891776 -0.0059899203
