dataset/models/PDAC_Moffitt15_ActivatedStroma/model.pth (torch, 696702 bytes, 14 tensors)

tiles_emb.hidden_layers.0.weight f4 [128, 768]
00000000: 584f 09b0 0df9 95af e572 32af 0908 3430
00000010: c1d6 b42e afa0 852f 7617 922f 45a7 3730
00000020: 0903 c8af 3ff9 f0ae 54b4 502f 784b 21b0
00000030: 495c cfae 7122 762f b08a 1b2f 812d fd2e
00000040: 4c72 43b0 03b0 ebaf 2cea f82e f6fb 652d
00000050: 7a4c 3c2d 28d3 f42e 76e3 dfae e38d 89af
00000060: de06 5330 30e9 6bb0 b8a5 0530 b323 4db0
00000070: 7abf f6af 6305 0cb0 1a58 852f b29a b22f
00000080: ec41 35b0 cdec 39b0 eaff 11af 00f7 1c30
00000090: 7458 5db0 af82 932f 2d14 84af e219 c32f
000000a0: a3ec 0730 0678 b9ad 9156 6f30 dc90 50b0
000000b0: 2b8b 2130 a2d3 992e 3c7c ed2e 8a97 5831
000000c0: ed14 5db0 2d04 1f30 ab86 91b0 ebb4 acaf
000000d0: c29b 492f a252 20b0 f3cd 69ae 5647 56af
000000e0: 3f1b 6a30 2e27 e7af 208f 902d afbd fe2f
000000f0: 12fb 44af 7bc7 36b0 d43d be2f bcc3 b1ad
00000100: db74 ccaf 9949 af2f 2d8e 4f2f fc73 97ae
00000110: b771 7baf e2ee 62b0 e590 f0ae e95d 0c30
00000120: aeb8 5aaf 8de9 bb2e 5515 4f2f 8961 3e2e
00000130: 931f 3030 ace3 22b0 addd 0ab0 a518 64af
00000140: a17c 57b0 1cc6 e22f a731 f6af 0053 8f2f
00000150: 28f6 54ad 0104 79af 3e44 cc2f ab0d 5630
00000160: 46c0 2030 9303 1130 7ea8 b8af 4318 652f
00000170: 74ef 6fb0 617c 1bb0 affc 9faf 7dbf 61b0
00000180: 116e 00b0 e839 1e30 1efd 842f e42d aa2f
00000190: 5401 65b0 5df4 1c30 fe25 f22b 2b51 aeaf
000001a0: ea3d 972f da7c faae 0aa9 98af c8b1 3a30
000001b0: 0843 702e 756b 42b0 4e20 55af 83bd 0630
000001c0: 748d 4fb0 a16f 5130 49db 5930 7828 48b0
000001d0: 6800 7330 02e5 35b0 894a a3ab 48e0 102f
000001e0: 32f1 2730 1708 f72c 4bfa 2330 1837 eeae
000001f0: 554e d42f 565a 24af 8609 3c2f 5145 d72f
00000200: adf6 6b2e 5c11 0baf a7ed 052f a8f8 59b0
00000210: 782d 3fb0 6de9 c9af 3674 10b0 2da2 542f
00000220: 12ba 47b0 1f4d 2aaf dd40 e62e c37b caaf
00000230: c3e7 b6af 8154 b22f 4ac4 0daf e28e b42f
00000240: 5c1b 262f 4398 55af f822 722f 2405 8d30
00000250: ae49 8faf 83c5 36b0 907a f4ae ad1f f3ad
00000260: 89c7 6aad 84d9 8fae 6d69 da2f e5c9 c8af
00000270: a9ff 882a 2ad2 32af 8e2b 37b0 0578 2830
00000280: 828f 12b0 5cab 39b0 4db3 4730 2b0b ed2f
00000290: 131b 7ead 7120 31af 0efc fd2f addf 0930
000002a0: 6624 b8ae 6087 0930 2550 c2ae 6b0b 812f
000002b0: d4dc 46b0 f292 c7af 72d2 0630 1937 bf2f
000002c0: b640 0330 b9f6 59b0 7a36 ce2f ce09 27b0
000002d0: 53f6 3f2f 1d4e 4a30 1c83 8baf 4b5d bc2f
000002e0: f12e 3e2f 3d70 f9af feb3 962f 4690 f02e
000002f0: 4cb1 baaf 8098 0b2f de85 34af 9afe 592f
00000300: 3493 d12e 4abe 2db0 7a6e e8af f28c b22e
00000310: c7e6 52af fdfc 39b0 5daa b32f 78d7 08b0
00000320: 47dd ed2e c004 de2f 5288 682f 5f94 3aaf
00000330: e58b 32ae 7928 7630 584f 892e 09e9 642f
00000340: 2cc6 86ae eb10 5530 338f 9dae 4e7d 2eb0
00000350: f77f 3faf 12dd 1030 c595 43af 03c3 3baf
00000360: 3be9 faaf 9f16 6430 a47f 0ab0 dbb5 48b0
00000370: e177 4130 4338 adaf e54c 3e30 49d3 4d30
00000380: 06b3 12b0 58b9 982e cc16 0eb0 aaeb 71b0
00000390: 4a30 41b0 419f 4aae 2567 9c2e ee9c 3e30
000003a0: e67f e22f 8883 e82f 75c7 9c2e 5c75 fcae
000003b0: 25c7 efaf b7e0 d1ad eed9 24b0 3567 6ab0
000003c0: c69f 1e30 297c 942f 50b8 abaf d48a 4bae
000003d0: 1dde ad2f d5b9 1eb0 a848 112f 1daf 6aaf
000003e0: e009 3cb0 68d8 cc2f 264d 1e30 4b67 6caf
000003f0: 7a21 d22e ca26 73b0 ceb8 c02f 6dec d22e
-4.9953064e-10 -2.7279903e-10 -1.6229824e-10 6.5495037e-10 8.2236e-11 2.4306732e-10 2.6573915e-10 6.6812716e-10
-3.6381945e-10 -1.09582114e-10 1.8981555e-10 -5.8678706e-10 -9.429663e-11 2.2385806e-10 1.414644e-10 1.1513191e-10
-7.110301e-10 -4.2871315e-10 1.13193316e-10 1.30730895e-11 1.0703544e-11 1.1133344e-10 -1.0181271e-10 -2.5020971e-10
7.677111e-10 -8.582388e-10 4.862062e-10 -7.4629297e-10 -4.4883192e-10 -5.093936e-10 2.425516e-10 3.248793e-10
-6.5941097e-10 -6.763912e-10 -1.3278592e-10 5.710348e-10 -8.052503e-10 2.6832e-10 -2.4024996e-10 3.5488684e-10
4.9448995e-10 -2.1085366e-11 8.707071e-10 -7.5875817e-10 5.876923e-10 6.995228e-11 1.0799581e-10 3.1518277e-09
-8.042907e-10 5.7849797e-10 -1.0588413e-09 -3.1415168e-10 1.833618e-10 -5.832509e-10 -5.3160986e-11 -1.948853e-10
8.5167423e-10 -4.2046494e-10 1.6434465e-11 4.633711e-10 -1.7915294e-10 -6.6494693e-10 3.460473e-10 -2.0209494e-11
-3.7190415e-10 3.188461e-10 1.8877051e-10 -6.887288e-11 -2.2868717e-10 -8.2557794e-10 -1.0939675e-10 5.106516e-10
-1.9892596e-10 8.5452624e-11 1.8834119e-10 4.3287627e-11 6.4073297e-10 -5.92588e-10 -5.051913e-10 -2.0745235e-10
-7.839365e-10 4.1249926e-10 -4.478242e-10 2.6070524e-10 -1.21054625e-11 -2.264784e-10 3.7155873e-10 7.787217e-10
5.84809e-10 5.275577e-10 -3.3589126e-10 2.0836048e-10 -8.7287977e-10 -5.6565425e-10 -2.9101474e-10 -8.2126644e-10
-4.672254e-10 5.7562355e-10 2.419051e-10 3.0955427e-10 -8.33116e-10 5.709973e-10 1.7205679e-12 -3.170809e-10
2.7510733e-10 -1.1390862e-10 -2.7768748e-10 6.791905e-10 5.4629218e-11 -7.0729494e-10 -1.9383714e-10 4.901823e-10
-7.550718e-10 7.619239e-10 7.9255763e-10 -7.2817086e-10 8.840346e-10 -6.6172856e-10 -1.1602534e-12 1.3176404e-10
6.1097005e-10 7.0210604e-12 5.965474e-10 -1.08327736e-10 3.8618234e-10 -1.4947807e-10 1.7101884e-10 3.9157524e-10
5.3651906e-11 -1.2648144e-10 1.218071e-10 -7.92975e-10 -6.955001e-10 -3.6727546e-10 -5.255204e-10 1.9338904e-10
-7.26602e-10 -1.5488809e-10 1.0470711e-10 -3.6831524e-10 -3.3270284e-10 3.2438055e-10 -1.2893611e-10 3.2843334e-10
1.5107332e-10 -1.9426331e-10 2.2022195e-10 1.0260561e-09 -2.60639e-10 -6.6491895e-10 -1.1117607e-10 -2.7639968e-11
-1.3345666e-11 -6.541526e-11 3.9728879e-10 -3.6523243e-10 2.4335853e-13 -1.6263671e-10 -6.6636907e-10 6.12886e-10
-5.331843e-10 -6.7546124e-10 7.265058e-10 4.3117984e-10 -1.444424e-11 -1.6109582e-10 4.6199528e-10 5.015817e-10
-8.373817e-11 5.003269e-10 -8.836335e-11 2.3473076e-10 -7.2345796e-10 -3.63023e-10 4.9047977e-10 3.4781847e-10
4.774948e-10 -7.9294754e-10 3.750989e-10 -6.076818e-10 1.7458861e-10 7.359818e-10 -2.5377112e-10 3.426329e-10
1.7297076e-10 -4.5372586e-10 2.7412733e-10 1.09395645e-10 -3.395918e-10 1.2696155e-10 -1.6418464e-10 1.9826488e-10
9.530368e-11 -6.320745e-10 -4.2279052e-10 8.11954e-11 -1.9181377e-10 -6.7662126e-10 3.268096e-10 -4.978271e-10
1.0816819e-10 4.038494e-10 2.1148708e-10 -1.6969313e-10 -4.0596766e-11 8.9551794e-10 6.244133e-11 2.081927e-10
-6.128817e-11 7.751299e-10 -7.164971e-11 -6.34789e-10 -1.7416811e-10 5.2701055e-10 -1.7788356e-10 -1.7076833e-10
-4.5640455e-10 8.2978063e-10 -5.0385496e-10 -7.301801e-10 7.038335e-10 -3.1508493e-10 6.923087e-10 7.487882e-10
-5.33689e-10 6.9450834e-11 -5.1691695e-10 -8.801019e-10 -7.0281614e-10 -4.607093e-11 7.112381e-11 6.934461e-10
4.1200038e-10 4.2294013e-10 7.1294894e-11 -1.14804805e-10 -4.3615347e-10 -2.3860343e-11 -5.997255e-10 -8.527537e-10
5.7707117e-10 2.7009264e-10 -3.123568e-10 -4.628016e-11 3.1626338e-10 -5.774415e-10 1.3213486e-10 -2.1344389e-10
-6.8408035e-10 3.726115e-10 5.75897e-10 -2.1500772e-10 9.555641e-11 -8.845801e-10 3.5055908e-10 9.591692e-11

tiles_emb.hidden_layers.0.bias f4 [128]
00000000: 4147 f1b0 f173 62bd b48d ef3d c45a 2aba
00000010: f1ab 7c34 e0c0 96b1 b50a 96b1 50e7 a1b9
00000020: fb2e 55b3 d365 36b1 f807 4bb5 f890 9f34
00000030: 8ce6 47bb 257c a5bb c5aa 4cba ba77 0932
00000040: e366 51bb 9bfa 2eb2 38cb 92bb 96ec acbb
00000050: 0ea4 31bb 038e 07b9 14c4 8431 07f3 2c34
00000060: a36b 88bd fa78 9b33 9c6e 99bb 7a15 d139
00000070: 735c baba 2efb 38b6 7ff5 82bc a16e c5b8
00000080: f508 8bb6 6149 1834 2da2 ebaf 3b1b 8fb3
00000090: f86a 08b7 c839 3ab1 4718 87b2 dc20 21b2
000000a0: 8327 9bbd 41eb 69bd 8e8b aabb eb3f 7db9
000000b0: 4d60 29ba 6939 9ebd 29fe c4bb 72b6 85b7
000000c0: d067 1abc 7f11 7d3d 2678 75b9 29ca 55bb
000000d0: 9d5e 02b9 6445 e930 0680 36bd 6a01 bebd
000000e0: 095d d632 4336 9fb2 65c0 cfbb 20ed 1ebc
000000f0: 19f8 8533 07d5 71bb 4241 4eb9 a9db 6831
00000100: e4b1 99b6 1917 25bc b502 cd33 26a2 57bd
00000110: 70b5 df31 27a5 4dba 442a 02bc 49b0 372f
00000120: d19f 44bb a6f8 19bc 2ce8 a8bd 852d 97b1
00000130: 949c c934 943d 5bbc bd9e 29bb b618 37b1
00000140: dee4 0f3d 3db8 a9bd c5e2 feba 35cb 71bd
00000150: bfc7 41ba d8c5 9fb2 f453 dcbb acf3 78b2
00000160: 12b9 3bb6 fe44 07b2 a948 e632 ec69 bebd
00000170: a8fc d632 3d4d 4db1 04a0 9fbd 0224 3eba
00000180: 290d 913c 2156 d1ba 6a85 64bd 0d8e 2abc
00000190: 4a8f 95b3 3e6a 33bb 0074 97bd a1a8 d53d
000001a0: 30b6 03bb 0747 03bd 2ef1 5cb8 00ed aaba
000001b0: afff 0c33 2b9e e932 49bd ffb5 9800 c2b7
000001c0: c578 cd3d ab20 4fb7 d491 96b4 84fc 1db8
000001d0: 8656 f933 5780 01b3 ec09 a833 c196 03bb
000001e0: fac8 c634 f742 d63d 5917 c7b1 196d 85bd
000001f0: 925d 1b34 de89 93bb 1571 2abd 503d 9539
-1.7555309e-09 -0.05528635 0.116969496 -0.00064985105 2.3531881e-07 -4.387502e-09 -4.366792e-09 -0.00030880654
-4.9635656e-08 -2.6542366e-09 -7.563499e-07 2.9721537e-07 -0.0030502407 -0.0050501996 -0.0007807429 8.001672e-09
-0.0031952194 -1.0185114e-08 -0.004479792 -0.0052772267 -0.002710584 -0.00012927507 3.863997e-09 1.6107161e-07
-0.06661155 7.2397555e-08 -0.004682375 0.00039879588 -0.0014218226 -2.7564342e-06 -0.015986202 -9.414298e-05
-4.1435655e-06 1.4182798e-07 -4.2861484e-10 -6.6639096e-08 -8.131137e-06 -2.7099407e-09 -1.5727109e-08 -9.378905e-09
-0.07575896 -0.05710912 -0.0052046245 -0.00024151772 -0.00064611883 -0.07725794 -0.0060117436 -1.5939793e-05
-0.009424165 0.061784264 -0.0002340978 -0.0032621718 -0.00012433012 1.6972703e-09 -0.044555686 -0.092776135
2.4955186e-08 -1.8534712e-08 -0.006340074 -0.00970009 6.238424e-08 -0.0036900656 -0.00019670001 3.3885306e-09
-4.5804645e-06 -0.010076308 9.546549e-08 -0.05264487 6.5107812e-09 -0.0007844739 -0.007944647 1.6706382e-10
-0.0030002485 -0.009397661 -0.08247408 -4.3998534e-09 3.7553093e-07 -0.013381381 -0.002588197 -2.6644051e-09
0.035130374 -0.08287094 -0.0019446245 -0.059031684 -0.000739213 -1.8600005e-08 -0.006723875 -1.44909045e-08
-2.7972897e-06 -7.873721e-09 2.6808566e-08 -0.09297547 2.5027774e-08 -2.987533e-09 -0.077941924 -0.00072532904
0.01770647 -0.0015971103 -0.055791296 -0.010409844 -6.964417e-08 -0.0027376558 -0.07395172 0.10432554
-0.0020097606 -0.03205016 -5.2676703e-05 -0.0013040602 3.2828833e-08 2.7196696e-08 -1.905407e-06 -2.3126879e-05
0.100328006 -1.2345768e-05 -2.804578e-07 -3.766689e-05 1.16107046e-07 -3.0151877e-08 7.8249144e-08 -0.002007887
3.7026604e-07 0.10461991 -5.7943166e-09 -0.06514949 1.446954e-07 -0.004502519 -0.04161175 0.00028465176

tiles_emb.hidden_layers.2.weight f4 [128, 128]
00000000: a419 632f 9cd0 edb2 7fdd a3b9 6db2 e02f
00000010: 0a86 a1b3 c779 1c2f c7d9 3d2d e545 b72f
00000020: dac1 5a31 33ee 7d2f 9b82 2430 0986 d933
00000030: 9892 ce30 d305 2938 728f de31 e69f c430
00000040: 1b37 90b4 10bd 09b1 15d8 e0b0 6aef b5b2
00000050: 1312 8c30 4daf bbb2 9455 f4af d44e 11b1
00000060: 2cae 3233 812e fdaf de5f 4c31 c58e 0d33
00000070: 148a 3aaf 7d89 552f b955 6531 9939 c62f
00000080: dc65 3d31 df54 e0b1 6673 8bac 03ba de31
00000090: d1ee 4b30 7002 8d30 f941 0c31 bb1c 4031
000000a0: b8ef 8cba 6645 44ba 419d abb2 3ea1 302f
000000b0: f68a ab2f 55cc 82ba 1847 2130 c730 d4b1
000000c0: aa24 7530 ea46 8c36 4a77 8c2f d06d 0e38
000000d0: 51c2 8b31 4796 4d2f 914d 20bc e040 63bc
000000e0: 1f6c e930 750f bf31 d02a 2131 053e ceb0
000000f0: b86b d8b1 42df c2b0 c521 1db1 06fb 05ae
00000100: 38d4 07b4 121b 46b2 bc7c 5b30 1bbb c3bc
00000110: dc5e 8f31 9ebd 6d33 b4ba f930 d427 06b0
00000120: e751 16b4 ee76 f730 9493 37ba 9b55 78af
00000130: 2808 6fb3 669b d5b0 8045 ef30 138c 3bb1
00000140: 8047 efb6 ba94 1bb1 09e4 adb4 3b7f bf31
00000150: fd42 3631 cd28 7031 12dc 3730 d2d4 e4b1
00000160: cf1b 3fb1 f4ca b030 9007 6f32 7734 8bbc
00000170: 6b5a 6530 d78a 09b0 bc63 78ba 536d 9bb2
00000180: e09b 4b35 fe2c 9332 954f d630 56ea 0330
00000190: 3911 0932 3f6c 16b3 6924 94bc 99d7 6ab9
000001a0: 2b8a 6631 57d0 8631 51f1 8730 7e24 3aaf
000001b0: a47a 9ab0 1b39 02b1 1999 8930 2f83 cbb1
000001c0: 0dc8 64b9 67e9 17b1 ac40 79b1 4703 0a30
000001d0: 4d06 1eb2 1395 4730 56a1 8c32 7e19 4e2e
000001e0: a09b 82b1 b202 a8b9 e2bf 7b2f 3136 c232
000001f0: 8d84 84b2 88db 1ab1 f422 1e33 24d3 8b32
00000200: bd63 1e30 a00d ebb1 892d bdbc f52f 62b0
00000210: 586e 6234 88ef 6e31 8743 66ae 4d1d 8cb0
00000220: 87cc b131 72e1 46b1 f773 9ab0 b722 c7b3
00000230: 5e9c e3b1 93fc beb1 db36 89b1 2114 6e30
00000240: 7f48 0db2 caf7 87af 3aab 4035 160b ca31
00000250: 1ed6 35b4 b268 6c34 58b6 9bb0 de62 28b1
00000260: d477 4bb5 351b 1530 f718 14b2 da9c 9235
00000270: f667 96af 3ebe c02f 6ad0 cc39 3ea9 44af
00000280: 9dd7 9e31 332e a132 a9c8 d72e 0f2f 0332
00000290: a9da be30 7de3 1fb1 d382 04b0 cdff 20b1
000002a0: 4c7a 99ba 6c7c 4d3c 5827 21b2 f8f5 c730
000002b0: 7199 822f dac4 82ba afca d6af 2049 f931
000002c0: 2cf5 95b1 5391 58bc 001f c02f fb13 a8b2
000002d0: 3226 ea31 32ba 81b0 4784 133d d114 5a3d
000002e0: 86f1 5630 a0f6 8132 2234 b837 11a9 ec34
000002f0: bb43 26b1 f23b 8a30 80c9 2faf 3e76 33b0
00000300: 9597 40b3 7e82 a032 7d0f e5b0 0f31 4c3d
00000310: 504e e130 5d84 eeb1 bc3c a239 f39e 3e31
00000320: f161 1332 7c45 2738 4231 27ba f676 4fb0
00000330: a257 ee33 53fb 9632 4e7b 25b4 999a aab1
00000340: 1d09 78bc c35d eb30 cb22 ae2f 68c1 c331
00000350: 5a1f 88b0 1830 48b2 8ea0 d7b3 6ef4 40b2
00000360: fb10 4f32 f6a1 96b0 9512 bbb2 227f 363d
00000370: c725 b2b1 4fe6 06b0 0209 2eba 8413 22b0
00000380: 638d 09bb faf8 1c32 2804 443a 5e3c 35b2
00000390: 9ec1 b9b2 4236 ffb4 a3dc 2e3d 3d4a c6bc
000003a0: 5e3d e6b1 792f 24b1 8502 30b1 c516 e7b1
000003b0: aa23 acb2 8a79 d8b1 4d79 12af c484 6cb0
000003c0: 907c b9bc 33f0 53b0 94ad 4932 0481 d5b0
000003d0: ac66 0233 607c 4031 7fb8 3eb3 6534 e12f
000003e0: c85a 4e30 41a8 bfbc 3080 d7b0 388c 51b5
000003f0: 43f1 12b2 f65b e4b2 b8c8 8839 a454 0f34
2.0654639e-10 -2.7685296e-08 -0.0003125481 4.0872142e-10 -7.521528e-08 1.4231381e-10 1.07917624e-11 3.333717e-10
3.1833367e-09 2.3094841e-10 5.9848454e-10 1.0129231e-07 1.5030137e-09 4.0298164e-05 6.477358e-09 1.4306323e-09
-2.6862185e-07 -2.0043593e-09 -1.6359559e-09 -2.1180046e-08 1.0191478e-09 -2.1849383e-08 -4.4444148e-10 -2.1145086e-09
4.1602263e-08 -4.6053475e-10 2.9740401e-09 3.295897e-08 -1.6965657e-10 1.9421083e-10 3.3372614e-09 3.6056916e-10
2.756102e-09 -6.5289067e-09 -3.9634294e-12 6.4821974e-09 7.419035e-10 1.0259793e-09 2.0410182e-09 2.7956009e-09
-0.0010752594 -0.0007487148 -1.997853e-08 1.6064391e-10 3.1203456e-10 -0.0009979109 5.867249e-10 -6.1755574e-09
8.9182584e-10 4.1805806e-06 2.5550612e-10 3.395771e-05 4.0675237e-09 1.869803e-10 -0.009784118 -0.013870448
1.6983711e-09 5.560589e-09 2.345292e-09 -1.50061e-09 -6.2986736e-09 -1.4178811e-09 -2.2865703e-09 -3.0463652e-11
-1.265006e-07 -1.1531272e-08 7.9848994e-10 -0.02389293 4.172632e-09 5.535332e-08 1.8170199e-09 -4.8805515e-10
-1.3999635e-07 1.8005417e-09 -0.0007002887 -2.2585882e-10 -5.5653942e-08 -1.5541957e-09 1.7409292e-09 -2.7291704e-09
-7.1310787e-06 -2.264001e-09 -3.2389678e-07 5.573296e-09 2.6522564e-09 3.494779e-09 6.688775e-10 -6.659868e-09
-2.7809965e-09 1.2863368e-09 1.39133505e-08 -0.01699279 8.3438206e-10 -5.0037613e-10 -0.0009475311 -1.809409e-08
7.585022e-07 1.7133512e-08 1.5593168e-09 4.7990534e-10 7.9783655e-09 -3.5023046e-08 -0.018083768 -0.00022396295
3.3547944e-09 3.923599e-09 9.891129e-10 -1.6929566e-10 -1.1239831e-09 -1.894995e-09 1.0011575e-09 -5.9229914e-09
-0.00021818299 -2.2106066e-09 -3.627103e-09 5.0208765e-10 -9.198243e-09 7.2607625e-10 1.6371512e-08 4.686162e-11
-3.8011905e-09 -0.00032045465 2.2896487e-10 2.2609216e-08 -1.54271e-08 -2.2534739e-09 3.681903e-08 1.6277745e-08
5.76218e-10 -6.840949e-09 -0.023093002 -8.228647e-10 2.1088033e-07 3.4769716e-09 -5.235592e-11 -1.0194668e-09
5.17463e-09 -2.8940943e-09 -1.1237934e-09 -9.272974e-08 -6.6243464e-09 -5.558442e-09 -3.993461e-09 8.66125e-10
-8.223764e-09 -2.4732422e-10 7.177474e-07 5.880234e-09 -1.6934834e-07 2.20173e-07 -1.132956e-09 -2.4503417e-09
-7.5797766e-07 5.424455e-10 -8.62041e-09 1.0923497e-06 -2.735871e-10 3.5059772e-10 0.00039065193 -1.7886223e-10
4.6229176e-09 1.8763876e-08 9.8127124e-11 7.6359035e-09 1.3886466e-09 -2.3266857e-09 -4.820723e-10 -2.342847e-09
-0.0011709421 0.0125418715 -9.380379e-09 1.4549064e-09 2.375589e-10 -0.0009976879 -3.9070389e-10 7.255167e-09
-4.3643436e-09 -0.013218242 3.4946623e-10 -1.956686e-08 6.8146386e-09 -9.438905e-10 0.03601482 0.05324251
7.819597e-10 1.5129729e-08 2.1958786e-05 4.4081438e-07 -2.419468e-09 1.0057859e-09 -1.5987744e-10 -6.5287853e-10
-4.4841347e-08 1.8685792e-08 -1.6666345e-09 0.049851473 1.6393162e-09 -6.9417596e-09 0.00030944298 2.773899e-09
8.5787955e-09 3.9880615e-05 -0.00063778844 -7.5475215e-10 1.1098679e-07 1.7576587e-08 -1.541168e-07 -4.965227e-09
-0.0151388915 1.7125149e-09 3.1675138e-10 5.6972347e-09 -9.904213e-10 -1.1652467e-08 -1.00409224e-07 -1.1231448e-08
1.2052847e-08 -1.0959968e-09 -2.1778115e-08 0.044554837 -5.1847766e-09 -4.9076204e-10 -0.00066389155 -5.896299e-10
-0.0020988814 9.137006e-09 0.0007477426 -1.05493125e-08 -2.1624881e-08 -4.753693e-07 0.042690884 -0.024205321
-6.7008576e-09 -2.3892126e-09 -2.5612803e-09 -6.7255734e-09 -2.0039653e-08 -6.3002448e-09 -1.3321717e-10 -8.604497e-10
-0.022642404 -7.7102696e-10 1.1739207e-08 -1.5534458e-09 3.0361363e-08 2.8010376e-09 -4.440562e-08 4.096449e-10
7.507137e-10 -0.02339566 -1.5679742e-09 -7.806261e-07 -8.553175e-09 -2.6584512e-08 0.00026089489 1.3348705e-07

tiles_emb.hidden_layers.2.bias f4 [128]
00000000: 6f50 6dbb 547f 8e3c c9e9 d23a 2e11 633d
00000010: 673a 9fbc 0777 1fbd 106d 87bd 182c 083d
00000020: e908 753d b09c fabc 310b 60b8 474c 61bd
00000030: dacb ea3c 42f3 20bd b766 82bd 272e 213d
00000040: aa32 663d 3e9f e53c cebe 9d3d 2ebb 36ba
00000050: 3136 b03c 66f7 1d3d 166c e73c 4d69 8d3d
00000060: 8e93 29bd ae61 9ebc 5032 43bd 4aab 8f3d
00000070: d26e c23a 0a35 39bd a0a9 8d3d c71f 7abd
00000080: 38c7 433d 84b0 59bd e957 303d 6921 9f3d
00000090: 17eb 133d c795 aebb f0eb 30bd e28a 37bd
000000a0: 6230 80bd b6f2 033d fc5c 86bb 8abd 72bd
000000b0: fd39 933b 93ed e3bc 0956 4a3d 15f7 c73c
000000c0: cc35 24ba 1d78 18bd 5b37 2bbd 241c 4bbd
000000d0: c6a9 2abc 18b8 933c 9a44 6c3d 4d86 cd3c
000000e0: d600 323d 7bfa 04bb 3735 0ebd 3cfc 5fbd
000000f0: 4379 2ebb 3793 46bd c9c1 173d 69a6 e1bc
00000100: f582 873d 6d8f fc3b e2d1 a23c fb2e 64bd
00000110: 1a45 753d 1093 733d 0472 073d aeb7 76bd
00000120: 4281 243b c1d0 26bd 1ae5 563d 404a 613d
00000130: bbd6 493d b58d 2f3d fa53 f8bc 1567 23bd
00000140: 3924 f7bb a1bf 2e3d 906a 593d cf5a 7abd
00000150: d759 34bd a853 4b3d 06d6 fcbc 81e7 6ebd
00000160: 5b76 8abc 63b2 90bd b62b 07bd cbfd 12bd
00000170: c193 ef3c 260b 6fbd 0763 813d 887a 883d
00000180: 7641 6c3d 007d 3b3d 1237 2e3d c457 3cbd
00000190: 7bbd 6a3d b9cd 363d 60c2 54bd b3e1 81b9
000001a0: 07b7 3ebd bfbd 673d 87d5 6ebd a65c 4dbd
000001b0: 12f8 743d 5eef 3a3d b7a7 5b3d 347c 49bd
000001c0: 86e8 84bd d24e 66b9 8653 133d b275 b03c
000001d0: ca80 383d 5c4e 343d 73e9 4a3d d5ef 2f3d
000001e0: 50fb 48bd 72fc 4f3d 42fd 423d 121c 86bd
000001f0: 39b9 77bd 4d54 d737 04c8 39bd c304 503b
-0.0036211272 0.0173947 0.0016091402 0.055436306 -0.019437028 -0.038931873 -0.06612599 0.033245176
0.05982295 -0.030592293 -5.3416185e-05 -0.055004384 0.028661657 -0.03929449 -0.063672476 0.039350655
0.05620066 0.028030034 0.07702409 -0.0006970641 0.021510215 0.038566016 0.028249782 0.0690485
-0.041400485 -0.019333687 -0.047655404 0.07015093 0.0014834052 -0.045216598 0.06917119 -0.06106546
0.04779741 -0.053146854 0.043052588 0.07770044 0.03611287 -0.0053279134 -0.043193758 -0.044810183
-0.06259228 0.03221389 -0.00410044 -0.05926279 0.0044929967 -0.027823245 0.049398456 0.02440981
-0.000626412 -0.037223924 -0.041800838 -0.049587384 -0.010416454 0.018032119 0.05768261 0.025088454
0.04345783 -0.00202909 -0.03471872 -0.05468391 -0.002662257 -0.04848024 0.037050042 -0.02754517
0.06616775 0.0077075274 0.01987547 -0.055708867 0.059880354 0.05946642 0.03306772 -0.060233764
0.0025101458 -0.040726427 0.052464582 0.05500245 0.04927705 0.04285975 -0.03031348 -0.03989323
-0.00754216 0.04266322 0.05308014 -0.061121758 -0.04403099 0.049640328 -0.030863773 -0.058326248
-0.01690214 -0.070652746 -0.03300067 -0.035886567 0.02924526 -0.05836024 0.06317716 0.06663996
0.057679616 0.045773506 0.042532988 -0.045982137 0.05730961 0.044629786 -0.051943183 -0.00024772956
-0.046561267 0.05657744 -0.058309104 -0.050137185 0.05980689 0.045638435 0.053626742 -0.049190715
-0.06489663 -0.00021963872 0.035968326 0.021540496 0.045044698 0.04402004 0.04953904 0.04295333
-0.049067795 0.05077786 0.047604807 -0.06548323 -0.060479376 2.5669253e-05 -0.045356765 0.003174112

attention_layer.att.weight f4 [128, 128]
00000000: 3b8d 0c33 e0d3 b335 bccb a1b5 dde2 1a34
00000010: e9db ddb5 951b 0db4 cc4a f3b5 1cd9 d934
00000020: dde0 2136 1cf1 cfb5 422e 2cb3 5d7f feb5
00000030: b342 1a36 cd34 09b6 5e48 a4b5 1645 0d36
00000040: 4b03 e635 99ca 0736 f8b4 4036 4cff dd35
00000050: fa1b beb2 5081 8534 feeb ed33 88ba 2836
00000060: cd2f fcb5 1b3a 9bb5 5a6b 0fb6 e51c db35
00000070: 6290 16b4 5d7a 0535 2e8b 0336 96bb 89b5
00000080: 6982 ec35 fa85 2ab5 c38c 9235 530e 1636
00000090: cdd2 9c35 001d 15b5 beb2 b0b2 2839 5fb5
000000a0: 3d48 1fb6 57d0 1636 2153 5934 0de4 fdb5
000000b0: 8175 edb5 0755 fab5 eef0 f535 680a 9433
000000c0: 7232 32b5 abef 29b4 c710 17b6 704f 2ab6
000000d0: 8a82 8eb5 2df6 06b0 7ccf 1436 a21f 8334
000000e0: 9b16 1036 9142 97b5 6142 6db5 b397 04b6
000000f0: 121e 9b34 6984 5fb5 3fd6 a7b1 8428 11b6
00000100: 79c4 1e36 fbfc ee35 f4aa 8935 08fa 38b6
00000110: 2313 1a36 e62f 6135 ea82 0636 386e 17b6
00000120: 7ac3 41b4 4782 14b6 324f 2a36 2ee8 2236
00000130: 7481 1d36 0664 0136 8e80 c7b3 cb3a 31b5
00000140: 2cea 8db4 cd49 0c36 e24b 3936 a0fb 2db6
00000150: a60f 27b6 3b9c d535 9b13 0cb6 a88f 1db6
00000160: 1202 2332 8361 38b6 6d8e 18b6 483f 8fb5
00000170: 0fc6 0131 8359 d2b5 c25d 1236 93e8 0e36
00000180: 4d0a 1736 0b9e 2735 a9fe 2a36 87ec 59b4
00000190: 604e 1535 17bd 6635 9042 1ab6 9bd8 9733
000001a0: 2006 05b6 97e6 ef35 dea7 3db6 a7a7 fbb5
000001b0: caa5 3936 690f 0335 47e4 f634 8dd8 f7b5
000001c0: b144 1cb6 e640 3db3 3c70 1136 cd4b 7f33
000001d0: 3bd2 1536 dd59 f735 e4eb 0f36 8333 9335
000001e0: 7964 05b6 26d6 0c36 5b38 2036 0a04 39b6
000001f0: fa45 c7b5 a5ad 0d36 2a9a 54b5 cdc6 0fb4
00000200: 5a3f 8533 ed46 3535 8dc2 aab6 fff9 34b6
00000210: ad94 fe33 9541 99b3 88fa db36 63e9 6134
00000220: 64da e7b6 dd1d 9236 4c9f c533 2aa6 e036
00000230: 1377 f0b6 b47c dc36 494b 5d36 50d0 e0b6
00000240: ae43 d2b6 0526 e3b6 a9c7 afb6 97aa a436
00000250: 828e 84b5 8880 1336 082d 51b6 95f6 f2b6
00000260: 45aa e136 e5e5 80b6 3545 f136 fc91 c7b6
00000270: 3144 69b6 b8f4 c5b5 22dd dcb6 c6dd 6d36
00000280: d2d2 dbb6 2750 e634 b76a dcb5 fa6b d4b6
00000290: 2670 42b6 36ea 02b6 2607 5c35 d32d 6036
000002a0: ec64 e736 65b4 c0b6 022c 2b36 b93c 0436
000002b0: a430 26b6 5af8 d236 5d55 c0b6 221b 8a35
000002c0: 1931 feb5 ef1e 9b34 dc5d f136 df3e e736
000002d0: 7323 4236 e24b e2b2 c409 f3b6 f290 76b6
000002e0: 8223 f1b6 767e edb3 b4e5 4e36 4e79 cf36
000002f0: 1ef2 9d36 d870 1e36 9277 b6b2 b716 f236
00000300: 40ec b3b6 5dff 9b36 7aea 5c36 31bb e536
00000310: c4f5 e6b6 cb5c 1cb6 d4cf e5b6 f989 da36
00000320: a8e0 0bb5 e04f dc36 5446 e7b6 4ce7 dab6
00000330: ffc6 e7b6 2594 d8b6 00c0 9235 155e 4e34
00000340: 0a27 5c35 997c b9b6 43a1 e4b6 6e50 ef36
00000350: 83a3 ef36 e4e7 b1b6 caa6 e036 dad5 df36
00000360: 9eb4 4735 a557 ec36 259f f036 d4a2 cb36
00000370: 4fc7 7ab5 45df 9d36 8b34 e8b6 31d8 e9b6
00000380: 3a10 ebb6 90d5 19b6 5488 edb6 4eb6 3ab5
00000390: 7f7f 84b5 eef6 ddb5 556a ef36 5a1a 9ab4
000003a0: 6460 e436 d073 dbb6 c877 b636 e68a c636
000003b0: e0e7 d1b6 9ced 0635 9d19 02b6 774d c336
000003c0: ee34 cf36 9019 5eb4 4cee f2b6 4caf 31b5
000003d0: 246b e2b6 138f c2b6 75d7 ecb6 4369 84b6
000003e0: 5f4f e436 a103 5bb6 58b9 f0b6 76c8 e136
000003f0: aecb 9536 6637 ad34 219c 8635 7754 15b6
3.272474e-08 1.3398203e-06 -1.2054729e-06 1.44249e-07 -1.6529785e-06 -1.3141683e-07 -1.812668e-06 4.0577368e-07
2.4121757e-06 -1.5492874e-06 -4.0088942e-08 -1.8961542e-06 2.2986612e-06 -2.0445325e-06 -1.2240014e-06 2.105085e-06
1.7137294e-06 2.0234495e-06 2.8715567e-06 1.6540084e-06 -2.2131633e-08 2.4867268e-07 1.1079099e-07 2.5142526e-06
-1.8789375e-06 -1.1565311e-06 -2.1371147e-06 1.6325181e-06 -1.4022365e-07 4.9724423e-07 1.9601534e-06 -1.026189e-06
1.7621325e-06 -6.3524897e-07 1.0918815e-06 2.236008e-06 1.1684257e-06 -5.5549026e-07 -2.057038e-08 -8.3157147e-07
-2.3734895e-06 2.2473012e-06 2.0239942e-07 -1.891634e-06 -1.7692074e-06 -1.8651198e-06 1.8324042e-06 6.89368e-08
-6.6383575e-07 -1.5826542e-07 -2.251052e-06 -2.5378213e-06 -1.0617816e-06 -4.9098753e-10 2.217449e-06 2.4423667e-07
2.147083e-06 -1.126975e-06 -8.8385974e-07 -1.9757833e-06 2.889288e-07 -8.3266656e-07 -4.8846966e-09 -2.1630267e-06
2.3658197e-06 1.7806009e-06 1.0257049e-06 -2.7563674e-06 2.2958927e-06 8.3888733e-07 2.0043758e-06 -2.256491e-06
-1.804564e-07 -2.212955e-06 2.5378072e-06 2.4275027e-06 2.3470175e-06 1.928072e-06 -9.2900436e-08 -6.6023193e-07
-2.643368e-07 2.0904583e-06 2.7611318e-06 -2.5925474e-06 -2.4894048e-06 1.5915206e-06 -2.0873038e-06 -2.3478442e-06
9.4883195e-09 -2.7474896e-06 -2.2732668e-06 -1.0672748e-06 1.8884554e-09 -1.5672271e-06 2.181027e-06 2.1295025e-06
2.250675e-06 6.244233e-07 2.5480206e-06 -2.0295748e-07 5.5620876e-07 8.595684e-07 -2.2986533e-06 7.070886e-08
-1.982211e-06 1.7873998e-06 -2.8260906e-06 -1.874975e-06 2.766365e-06 4.882373e-07 4.5987164e-07 -1.8465959e-06
-2.3285795e-06 -4.4064016e-08 2.1672013e-06 5.9440755e-08 2.23251e-06 1.8429088e-06 2.1445967e-06 1.0967345e-06
-1.9877027e-06 2.0986276e-06 2.387466e-06 -2.75695e-06 -1.4847021e-06 2.1111712e-06 -7.920049e-07 -1.3390236e-07
6.204819e-08 6.7530965e-07 -5.0890435e-06 -2.6967607e-06 1.1854841e-07 -7.136547e-08 6.5558743e-06 2.1039664e-07
-6.9097605e-06 4.3546156e-06 9.202503e-08 6.6950643e-06 -7.1664194e-06 6.5710283e-06 3.2975388e-06 -6.699971e-06
-6.2663667e-06 -6.7695532e-06 -5.23865e-06 4.90744e-06 -9.876242e-07 2.1979522e-06 -3.1169639e-06 -7.240868e-06
6.7253445e-06 -3.8414605e-06 7.1904165e-06 -5.947657e-06 -3.4759398e-06 -1.4748866e-06 -6.582254e-06 3.5444841e-06
-6.5512513e-06 4.2899157e-07 -1.6422335e-06 -6.3306625e-06 -2.8973532e-06 -1.9507838e-06 8.196679e-07 3.3405274e-06
6.8960853e-06 -5.7430466e-06 2.5506602e-06 1.9704878e-06 -2.476424e-06 6.2873996e-06 -5.7319835e-06 1.0289698e-06
-1.8938764e-06 2.8893507e-07 7.1932864e-06 6.8916556e-06 2.8928887e-06 -2.634437e-08 -7.243101e-06 -3.6741226e-06
-7.1864933e-06 -1.10591756e-07 3.0830097e-06 6.1832025e-06 4.7071508e-06 2.3609518e-06 -2.1241963e-08 7.2148064e-06
-5.362119e-06 4.649088e-06 3.2919038e-06 6.846524e-06 -6.883145e-06 -2.3299824e-06 -6.848926e-06 6.5129684e-06
-5.2108453e-07 6.5658096e-06 -6.8925237e-06 -6.523833e-06 -6.9075027e-06 -6.454548e-06 1.0933727e-06 1.9219472e-07
8.2013196e-07 -5.5279347e-06 -6.813703e-06 7.1321183e-06 7.1417903e-06 -5.3020067e-06 6.695137e-06 6.6708135e-06
7.439611e-07 7.0435512e-06 7.1710842e-06 6.068827e-06 -9.342229e-07 4.7049566e-06 -6.9202556e-06 -6.969109e-06
-7.005435e-06 -2.2923086e-06 -7.079021e-06 -6.955569e-07 -9.871873e-07 -1.6537649e-06 7.1351337e-06 -2.870391e-07
6.806151e-06 -6.540191e-06 5.437967e-06 5.9170297e-06 -6.255679e-06 5.0264657e-07 -1.9386418e-06 5.820471e-06
6.1752426e-06 -2.0684661e-07 -7.2399034e-06 -6.619273e-07 -6.7477977e-06 -5.7983066e-06 -7.0584306e-06 -3.9461606e-06
6.8041695e-06 -3.2635655e-06 -7.174134e-06 6.7288593e-06 4.4642575e-06 3.226407e-07 1.0029217e-06 -2.2251895e-06

attention_layer.att.bias f4 [128]
00000000: 7bc2 5832 dcea 5133 ed3c 9433 d52c 1233
00000010: bad7 ca33 bc26 76b3 4784 ab32 0a64 5633
00000020: b5e1 0b33 f440 f6b2 7fd5 12b2 29c7 3db3
00000030: 87f4 4db3 00d4 bcb2 10c9 97b3 f612 d0b2
00000040: 879e 80b3 25da 09b3 5c64 b632 8836 db33
00000050: 437f a030 9a9f fb32 af99 0233 4539 2db3
00000060: 6a65 c732 82ca 9eb2 d452 87b3 2879 81b2
00000070: 6786 aab3 069d 2933 dbfc ba32 8d19 b9b2
00000080: 1877 8f32 6059 beb3 ae80 d233 8b57 4832
00000090: ac04 dab3 f939 cf33 0fda 0fb4 a87d a732
000000a0: 0560 5eb3 c342 64b3 fe61 fbb3 b72b 4eb3
000000b0: df08 b7b3 064a c3b3 0792 9033 fd82 8cb0
000000c0: 99d3 6d33 8f76 5633 e3df 8b32 2617 20b2
000000d0: 38b0 d833 6d07 5233 3142 74b2 f490 f733
000000e0: 6388 5931 6427 6ab2 dd0c 3fb2 34e6 f1b3
000000f0: 7870 32b3 2f24 a4b1 6b1c f2b2 3367 5e32
00000100: 3feb a7b3 3505 1e34 4b3e 39b3 f96b 2e33
00000110: 315d 6f31 bd65 0d34 b7ef 94b3 0e86 b433
00000120: 8df1 c1b3 9ede a031 1546 ba31 5c49 b5b3
00000130: 6ab3 c1b3 9dd5 a432 03fd 20b3 9552 fcb3
00000140: c837 0533 f57a d5b3 cdd5 4db3 d1c2 ccb3
00000150: dddd f033 08ff 0eb3 fbd6 5232 81bd b931
00000160: 85c5 8e33 60b6 ddb3 912f dcb2 0fa8 3233
00000170: 6086 9e32 e374 2db5 8316 452c 413b c1b3
00000180: a070 a033 4019 4333 fcdf bb33 8e56 2c32
00000190: 0e53 7031 9272 84b1 d70e 09b4 c6d1 0932
000001a0: 87d8 8933 b563 9f33 3063 be32 e8f0 91b3
000001b0: 8929 e232 58bc 95b3 bf2c 7d33 cc6e a133
000001c0: 61ba 2033 1a27 0233 6c9d e7b3 510e 5ab3
000001d0: 5566 04b4 0ab8 d3b3 1b91 83b3 09f1 6ab0
000001e0: cce1 c833 aced 8933 58e8 5933 6acd d5b1
000001f0: 38bb bbb3 65ca 44b3 08af 5032 6690 81b3
1.26170745e-08 4.8875208e-08 6.9028694e-08 3.403405e-08 9.4455984e-08 -5.7311567e-08 1.9967173e-08 4.9916743e-08
3.256874e-08 -2.8667706e-08 -8.546862e-09 -4.4186127e-08 -4.795268e-08 -2.1982487e-08 -7.0680585e-08 -2.422301e-08
-5.9893004e-08 -3.20962e-08 2.1233227e-08 1.02079014e-07 1.1677702e-09 2.9292824e-08 3.0407758e-08 -4.0331788e-08
2.3212767e-08 -1.848571e-08 -6.301494e-08 -1.5072672e-08 -7.9406895e-08 3.949119e-08 2.1768235e-08 -2.1548454e-08
1.6701549e-08 -8.863822e-08 9.802294e-08 1.1661437e-08 -1.0152266e-07 9.649734e-08 -1.3397242e-07 1.94985e-08
-5.1775732e-08 -5.3146106e-08 -1.1705923e-07 -4.800287e-08 -8.523215e-08 -9.09386e-08 6.732085e-08 -1.022357e-09
5.537331e-08 4.9933586e-08 1.6283542e-08 -9.318489e-09 1.0090338e-07 4.890119e-08 -1.42177194e-08 1.15282006e-07
3.1655183e-09 -1.3629549e-08 -1.1120588e-08 -1.1264311e-07 -4.1546144e-08 -4.777142e-09 -2.818543e-08 1.29455655e-08
-7.8193345e-08 1.4716791e-07 -4.3130324e-08 4.0610733e-08 3.483205e-09 1.316866e-07 -6.935391e-08 8.4062876e-08
-9.031201e-08 4.6819215e-09 5.42128e-09 -8.441813e-08 -9.019898e-08 1.9189253e-08 -3.7483016e-08 -1.1749686e-07
3.101721e-08 -9.940951e-08 -4.7924733e-08 -9.534927e-08 1.12162276e-07 -3.32939e-08 1.227249e-08 5.4057527e-09
6.648319e-08 -1.0324288e-07 -2.5633001e-08 4.1596703e-08 1.8454728e-08 -6.4617615e-07 2.800788e-12 -8.998041e-08
7.471067e-08 4.542494e-08 8.7486086e-08 1.0031398e-08 3.4971808e-09 -3.8547308e-09 -1.2764518e-07 8.0221465e-09
6.418946e-08 7.422151e-08 2.2164016e-08 -6.795909e-08 2.632875e-08 -6.972613e-08 5.894685e-08 7.5173006e-08
3.7422414e-08 3.0303546e-08 -1.07854106e-07 -5.07701e-08 -1.2330686e-07 -9.85893e-08 -6.1265574e-08 -8.5471236e-10
9.354298e-08 6.422792e-08 5.0735565e-08 -6.2224688e-09 -8.741921e-08 -4.5818883e-08 1.2146991e-08 -6.0332965e-08

attention_layer.gate.weight f4 [128, 128]
00000000: a2c2 90b0 a22d 6633 96e6 6633 27bf 00b4
00000010: 8a1e 19b4 dd06 04b3 64d7 0d34 0883 ee32
00000020: 7c73 d532 7def c4b3 bb0f 6c33 0d42 05b4
00000030: 90c8 09b3 337f ab32 a0a3 7e33 fe3f cf33
00000040: 77e0 d2b2 8c3f 7732 d1bd 9f34 e7e0 c3b4
00000050: 0db9 4c32 4838 3f33 baaa 44b3 f5d7 5db4
00000060: f33e c1b2 6375 1eb4 0490 1eb4 b4c3 8bb3
00000070: 3fa5 56b3 305a 47b2 4e43 0834 937f da33
00000080: 8991 9432 3a26 6832 17fb 71b3 1321 50b4
00000090: 7f95 93b3 36fe 19b4 85a3 17b3 454d 3eb3
000000a0: e5b9 b1b2 2988 e432 2f99 a433 b361 8fb3
000000b0: 5848 3034 a330 ceb2 f2fd 2732 cab8 64b3
000000c0: 945c 0b34 92c8 2c32 8edc 28b4 16bf 7fb2
000000d0: 5053 fd33 9944 25b2 235b 1334 c480 6a33
000000e0: a319 3034 fb27 d733 db18 aab3 a1ca c8b3
000000f0: 213a bd32 47bf a2b2 a72f f132 434a 9733
00000100: 8c05 66b4 0d15 9eb4 1474 c733 ebb8 09b4
00000110: e111 0a34 86cd 94b3 2542 8333 e1fb 5ab3
00000120: cdf0 1d32 6d04 4c33 063b 2734 2a5c ec32
00000130: ad37 2cb4 0501 e132 89b7 cdb3 bc30 2333
00000140: b3cf 39b4 d1ba 3a34 d0e3 88b4 883e 3fb4
00000150: 76d1 e633 d50c cbb3 edba beb3 f255 5a34
00000160: 07d5 8133 31c3 a134 3b7a e032 4d56 3434
00000170: 9fa1 60b3 a81e 7cb3 3e99 f233 840b beb3
00000180: ba36 8b33 5ed2 b0b3 36c3 a831 6709 eeb2
00000190: 805b 88b3 670f 05b3 5943 3ab4 bffa e6b2
000001a0: ef5b bf33 e9b6 e233 6a24 bd34 294b c3b2
000001b0: 798a 8834 9979 ad33 ab0a 48b3 1868 3d32
000001c0: 0ebb 8634 2a8c 8633 4214 59b2 a86d a6b3
000001d0: 6687 ed31 6ef4 bb32 7165 e633 ea9c b7b2
000001e0: e7fa cf33 5b82 80b4 61ea 84b3 bae4 d4b3
000001f0: ad85 1434 df8c 17b4 a384 2233 4dc7 32b2
00000200: 7ba1 6a32 428a 5233 4b30 4db0 cb08 9433
00000210: 3663 d8b3 1d2b fb32 cb62 9533 74ca bdb2
00000220: 0a05 97b3 0dd9 ccb3 d5a2 64b3 bea0 6633
00000230: 8c9c 64b4 0c3b 17b4 9df1 bfb3 1c43 1c34
00000240: f0b4 6033 fa42 e433 090a 1434 43f1 2eb4
00000250: 4e82 60b2 22d9 0733 c449 5932 2ca1 7434
00000260: a9ca 6faf 6d56 c3b3 7996 f333 2237 8db3
00000270: 1e71 a034 5705 5432 66a4 ea33 ae34 b032
00000280: 04ae 97b3 407b fd32 3a0c 70b3 839a 70b4
00000290: 917a d1b3 011b bcb2 00fa 0c33 6e5f a4b3
000002a0: 0d42 2934 d866 8e33 ae41 1834 325b f933
000002b0: 1f31 af32 ac59 04b4 8705 ecb2 a4d1 67b3
000002c0: 945b 8e34 ab06 0833 81c9 01b4 f2d2 3e34
000002d0: c117 68b4 6b78 b632 30e2 88b2 729c 1232
000002e0: 6eb5 2bb4 9424 6332 42a5 a5b3 51ab c933
000002f0: 9a1f 2d34 f7de 97b3 42b2 70b2 4bb3 3334
00000300: 0535 78b4 2757 4db4 ff26 1633 d534 3234
00000310: 4c1f e6b3 c11e 2b31 72b5 01b3 61d9 8933
00000320: 2343 d8b3 9e1d a633 cd87 3cb4 cd87 7731
00000330: d809 8c33 1290 0c34 ca1b 0cb3 7939 1db3
00000340: bd59 e533 85ff 6c33 39c4 8834 3cb3 9833
00000350: 7fa8 43b4 1dfc 8e33 a770 2ab4 0d2f 2c33
00000360: 8e09 c3b2 9f4a d633 0493 6934 fff4 e9b3
00000370: 8976 62b2 9454 f4b3 82d8 3834 2227 0bb0
00000380: 5258 68b4 d2e8 6033 4705 44b4 59c6 3233
00000390: 3de7 5d33 1780 9833 d7a5 5733 815e 8cb2
000003a0: 2e0c c1b3 45e5 84b3 265e 74b3 2d66 ca33
000003b0: f082 7ab4 ad6f 8bb3 577e 8cb3 3d50 f433
000003c0: 001c d233 9e69 c232 52d2 05b4 138b 4233
000003d0: 5867 c433 a588 a9b3 23b4 1fb4 bef8 a833
000003e0: bedd 4a33 d453 5cb4 f058 4334 b453 f4b3
000003f0: 65ce 2232 899b 41b4 a8ea 9033 2e0b 7633
-1.0532697e-09 5.359255e-08 5.3760765e-08 -1.199047e-07 -1.4260345e-07 -3.0739887e-08 1.3210007e-07 2.7766433e-08
2.484898e-08 -9.170524e-08 5.496234e-08 -1.241062e-07 -3.208021e-08 1.9964864e-08 5.92878e-08 9.650829e-08
-2.4549292e-08 1.4391741e-08 2.9754167e-07 -3.6485218e-07 1.19164385e-08 4.452184e-08 -4.579008e-08 -2.0660794e-07
-2.2496783e-08 -1.4757602e-07 -1.4767289e-07 -6.50829e-08 -4.9976048e-08 -1.1603831e-08 1.2690472e-07 1.0174622e-07
1.729565e-08 1.3512869e-08 -5.634055e-08 -1.9383542e-07 -6.872414e-08 -1.4341717e-07 -3.5306147e-08 -4.43081e-08
-2.0690047e-08 2.6604612e-08 7.664709e-08 -6.676728e-08 1.6417596e-07 -2.4003674e-08 9.77842e-09 -5.325345e-08
1.2979064e-07 1.0057322e-08 -1.5726457e-07 -1.48864014e-08 1.1796385e-07 -9.619861e-09 1.3723597e-07 5.4599482e-08
1.6400604e-07 1.001899e-07 -7.920763e-08 -9.350084e-08 2.202893e-08 -1.8946265e-08 2.8077762e-08 7.0449936e-08
-2.1422437e-07 -2.944511e-07 9.287774e-08 -1.2826392e-07 1.2858756e-07 -6.9291715e-08 6.1121945e-08 -5.0986163e-08
9.1933545e-09 4.7501477e-08 1.557456e-07 2.7515927e-08 -1.6039003e-07 2.6193911e-08 -9.579441e-08 3.799572e-08
-1.7305028e-07 1.7390563e-07 -2.549773e-07 -1.781101e-07 1.074831e-07 -9.455258e-08 -8.881566e-08 2.0334099e-07
6.04578e-08 3.0130607e-07 2.6132616e-08 1.6795202e-07 -5.2301058e-08 -5.8701204e-08 1.1296878e-07 -8.849659e-08
6.4826466e-08 -8.233904e-08 4.9116364e-09 -2.7711122e-08 -6.349637e-08 -3.0980484e-08 -1.7347101e-07 -2.688955e-08
8.910853e-08 1.0557216e-07 3.5230488e-07 -2.2735167e-08 2.5432726e-07 8.078059e-08 -4.657583e-08 1.1024916e-08
2.5095545e-07 6.265357e-08 -1.26356685e-08 -7.749924e-08 6.913001e-09 2.1880819e-08 1.0728662e-07 -2.137536e-08
9.6848275e-08 -2.3936704e-07 -6.189362e-08 -9.9136244e-08 1.3832205e-07 -1.411422e-07 3.7839197e-08 -1.0406279e-08
1.3657309e-08 4.902018e-08 -7.4647194e-10 6.8933865e-08 -1.007633e-07 2.9239851e-08 6.9563235e-08 -2.209456e-08
-7.032402e-08 -9.5389716e-08 -5.323348e-08 5.3697242e-08 -2.1291106e-07 -1.4084452e-07 -8.93808e-08 1.4553046e-07
5.2318626e-08 1.062926e-07 1.3787225e-07 -1.6292783e-07 -1.3068144e-08 3.1629618e-08 1.2647835e-08 2.2782905e-07
-2.1808923e-10 -9.096116e-08 1.134294e-07 -6.575853e-08 2.9884626e-07 1.2341238e-08 1.0926378e-07 2.0513053e-08
-7.063139e-08 2.9509124e-08 -5.5890474e-08 -2.2407953e-07 -9.7546156e-08 -2.189836e-08 3.2823664e-08 -7.654204e-08
1.576338e-07 6.6310974e-08 1.4179997e-07 1.16115544e-07 2.0395019e-08 -1.232608e-07 -2.747653e-08 -5.3974546e-08
2.6516193e-07 3.1671032e-08 -1.2087368e-07 1.777187e-07 -2.1615325e-07 2.1242348e-08 -1.5935342e-08 8.53389e-09
-1.599162e-07 1.3221456e-08 -7.7134715e-08 9.390954e-08 1.6123377e-07 -7.0720425e-08 -1.401037e-08 1.67359e-07
-2.3116088e-07 -1.9123819e-07 3.4960063e-08 1.6596762e-07 -1.07159025e-07 2.4901257e-09 -3.0200177e-08 6.4191006e-08
-1.0070496e-07 7.735365e-08 -1.7558268e-07 3.6020424e-09 6.5210486e-08 1.3090929e-07 -3.2621564e-08 -3.6606682e-08
1.0679967e-07 5.5180426e-08 2.5474745e-07 7.110654e-08 -1.8222089e-07 6.6582494e-08 -1.5873466e-07 4.0089663e-08
-2.2705333e-08 9.978725e-08 2.17533e-07 -1.08944725e-07 -1.3181883e-08 -1.137752e-07 1.72151e-07 -5.0623516e-10
-2.1638814e-07 5.2365813e-08 -1.8255842e-07 4.162425e-08 5.1665882e-08 7.101351e-08 5.020942e-08 -1.634112e-08
-8.989478e-08 -6.188433e-08 -5.6896305e-08 9.424944e-08 -2.3330699e-07 -6.4930056e-08 -6.542239e-08 1.1376731e-07
9.78398e-08 2.2632602e-08 -1.2463104e-07 4.5295632e-08 9.145759e-08 -7.894531e-08 -1.4873562e-07 7.8683556e-08
4.7233463e-08 -2.0519593e-07 1.8193145e-07 -1.1377361e-07 9.47657e-09 -1.8031109e-07 6.748206e-08 5.7286506e-08

attention_layer.gate.bias f4 [128]
00000000: 1708 3db2 9144 c0b2 4e89 e0b2 0368 8233
00000010: 541d 99b3 b0ba 67b3 7c30 22b2 6e76 b8b2
00000020: bf68 02b2 4654 0fb3 252b 0933 db80 8a30
00000030: 693e 3b32 2fda cbb2 ae85 5533 5bf5 3633
00000040: 4c73 8533 2151 eb32 3d89 11b3 28aa 98b2
00000050: 22a8 d1af e355 3c33 92ef 2a33 f0d1 4933
00000060: b11c aab3 2b0e a431 f9e5 c331 9bfc 4033
00000070: 772f 4d33 9c9b 95b3 add8 c7b2 315a 0132
00000080: 2427 0533 44f2 cd32 fbdc d730 b1ae 88b2
00000090: 340a a9b3 d5a8 3233 936d 32b2 bab6 d032
000000a0: 9f30 4d33 9520 d4b2 a3a4 b8b3 d1db 9fb2
000000b0: 12a8 07b3 3671 7e33 1109 8832 d2b6 50b3
000000c0: 14a5 88b2 56fa 0033 f8e9 6e33 1c7e 4132
000000d0: 3e54 2a33 2cfe 3f33 4b81 0c32 0864 d132
000000e0: c88b 57b0 18c0 2cb2 9887 ddb2 7787 9333
000000f0: 937f 9ab2 1072 8230 0a57 01b3 821d 54b3
00000100: c1dc 04b2 392a 8933 4088 8cb3 ea46 59b3
00000110: dd2d ed33 8ca5 da33 743d 86b3 2436 2d33
00000120: 5567 e033 fc66 dfb2 128a 9eb0 0b5b c3b2
00000130: 943e 0db1 e1f2 a932 fe53 5d33 5599 8cb2
00000140: aa9e 0bb3 09d3 2e2f a804 e032 16de 8eb0
00000150: 2ac3 5032 6faa 2bb3 0101 19b3 3176 0433
00000160: 2295 7d32 3709 4e33 68d3 1e31 d228 5933
00000170: 6062 9133 9d48 49b2 48ef c7b3 39db edb0
00000180: c729 a1b3 5324 7f33 6642 c5b2 6a87 7e33
00000190: 80df 36b3 d7f5 ebb2 7532 3433 10e9 3f32
000001a0: 4faf f432 a9b5 c3b1 c38c d131 bd55 5d33
000001b0: aff0 76b3 9a37 feb2 7dd9 7db2 f36a 2e2f
000001c0: fd60 1833 7067 06af 9da4 b5b3 811b 8332
000001d0: 5a09 e7b0 a27e 9db2 ea8e d530 b32e 3533
000001e0: 5296 7e33 87d1 ea32 d960 4032 bcd5 8e32
000001f0: ac73 8331 ace9 8032 808e 8ab3 bd80 30b3
-1.1003087e-08 -2.2382922e-08 -2.6139471e-08 6.0725164e-08 -7.1299525e-08 -5.395367e-08 -9.440665e-09 -2.1474275e-08
-7.590812e-09 -3.337143e-08 3.1937038e-08 1.0077444e-09 1.0899023e-08 -2.3731529e-08 4.9714508e-08 4.2598327e-08
6.2142675e-08 2.7394494e-08 -3.388526e-08 -1.7772507e-08 -3.8136344e-10 4.3850275e-08 3.9799097e-08 4.6989896e-08
-7.921461e-08 4.774639e-09 5.701392e-09 4.4933227e-08 4.777345e-08 -6.9666584e-08 -2.3265182e-08 7.529295e-09
3.1002074e-08 2.397531e-08 1.5706115e-09 -1.5911924e-08 -7.871532e-08 4.1597406e-08 -1.0385878e-08 2.4297481e-08
4.7774503e-08 -2.4694865e-08 -8.598115e-08 -1.8609997e-08 -3.1584996e-08 5.924195e-08 1.5836607e-08 -4.8595048e-08
-1.5907553e-08 3.003e-08 5.5626487e-08 1.12627525e-08 3.9657827e-08 4.470182e-08 8.17847e-09 2.4376291e-08
-7.8415185e-10 -1.0055395e-08 -2.5789447e-08 6.869862e-08 -1.7985974e-08 9.491163e-10 -3.0114315e-08 -4.9386934e-08
-7.733605e-09 6.38724e-08 -6.544042e-08 -5.0588746e-08 1.1044515e-07 1.0181529e-07 -6.2510395e-08 4.0328942e-08
1.0449609e-07 -2.6007449e-08 -1.1535255e-09 -2.274239e-08 -2.0553772e-09 1.9784638e-08 5.1531963e-08 -1.6367872e-08
-3.2507764e-08 1.5900183e-10 2.607915e-08 -1.039498e-09 1.2151569e-08 -3.996905e-08 -3.5624e-08 3.084114e-08
1.4760447e-08 4.7971493e-08 2.3112197e-09 5.0561376e-08 6.769983e-08 -1.171625e-08 -9.3101846e-08 -1.7306326e-09
-7.504746e-08 5.940485e-08 -2.2964013e-08 5.9262142e-08 -4.257845e-08 -2.7469396e-08 4.1955406e-08 1.11706555e-08
2.848506e-08 -5.6958993e-09 6.0987033e-09 5.153355e-08 -5.749524e-08 -2.9594776e-08 -1.4775989e-08 1.5863204e-10
3.5478468e-08 -1.2223977e-10 -8.458412e-08 1.5262914e-08 -1.681012e-09 -1.8334791e-08 1.5538408e-09 4.218482e-08
5.92757e-08 2.7336467e-08 1.11978915e-08 1.662817e-08 3.825752e-09 1.5007423e-08 -6.4520464e-08 -4.109528e-08

attention_layer.w.weight f4 [1, 128]
00000000: d3af 893c 0f1d 90bd 995a 91bd c4f1 8bbd
00000010: f569 8b3d 304a 933d 3ef6 9b3d ec17 78bd
00000020: 7a94 993d 7463 8e3d 6edf 003d 1fb9 8cbd
00000030: 2bd9 5bbd 4987 813d d824 8bbd 452a 43bd
00000040: d6f2 8d3d c104 8a3d 0f00 7dbd 95df 783d
00000050: 6dca 99bd ed8e 8b3d 5763 52bd 4b0e 293d
00000060: c52a 993d 452d 8c3d 0c10 5c3d dd4a 8c3d
00000070: bc8a 8bbd c5e0 8e3d e871 89bd ba5e 783c
00000080: 5f27 96bd 3104 77bd 6c5f 8d3d daf6 823d
00000090: a211 8fbd 0f15 8cbd 7e2a 913d 9084 083d
000000a0: da61 3b3d 6f99 813d e58e 8ebd 2e0b 8dbd
000000b0: c5e4 93bd f74a 8f3d a801 22bd bcb6 883d
000000c0: e79f 823d 6010 8cbd bab0 8cbd cefe 6ebc
000000d0: 1092 8cbd 6b72 21bd c110 ec3b d21f 8cbd
000000e0: 0f8a 87bb d026 93bd 8a37 593d 0683 8d3d
000000f0: 0a94 8dbd 5c58 353b f560 89bd f01d 90bd
00000100: 516f 93bd fc02 78bd 8741 90bd cef5 8cbd
00000110: 8e93 8d3d 4e2c 8dbd 8ddd 943d 098f 723d
00000120: 5618 8cbd eece 4e3d e9e2 dcbb c23f 8bbd
00000130: cd6c 8dbd 977e a9bc d083 84bd 53ce 8bbd
00000140: 1bb9 943d 7561 8c3d cffd 893d af3e 8fbd
00000150: b1c6 8bbd ae44 883d 6225 92bd d051 893d
00000160: fbb6 80bd 0b5d 923d c066 9d3d b67d 853d
00000170: b27c 9c3d 6787 443d 383e 923d 5a03 8cbd
00000180: e0aa 913d 1370 8cbd ba67 96bd 1ade 8cbd
00000190: f036 8bbd e79c 903d 4276 8d3d f1ed 953c
000001a0: 7b74 4bbd 73be 8b3d 3084 84bd f99d 313d
000001b0: 7f53 8f3d 1be2 8c3d fedb 9b3d 24fb 8a3d
000001c0: 44f4 9abd 7ac3 a13d febb 8dbd 99a9 883d
000001d0: 246c 803d c55f 8b3d c953 8cbd 9814 98bd
000001e0: 1a08 913d 34b8 8c3d 67f8 873d 655a 8d3d
000001f0: 6dd5 8cbd 03ba 513d 83f1 933d b43c 983d
0.016807472 -0.070367925 -0.07097358 -0.068332225 0.06807319 0.071918845 0.07615326 -0.06056969
0.07499023 0.06952563 0.03146308 -0.068712465 -0.053673904 0.06324632 -0.06794137 -0.047647733
0.06931083 0.06739188 -0.061767634 0.0607601 -0.07509313 0.0681437 -0.05136427 0.041273396
0.07478861 0.06844572 0.05372624 0.068502165 -0.06813571 0.06976465 -0.06711179 0.015159303
-0.07331728 -0.06030673 0.06902966 0.063947394 -0.06985785 -0.06839954 0.07088183 0.033329546
0.045747615 0.06328093 -0.06960849 -0.06886898 -0.07221369 0.0699672 -0.03955236 0.06675479
0.06378155 -0.06839061 -0.068696454 -0.014587117 -0.06863797 -0.039415758 0.0072041457 -0.06842007
-0.004136331 -0.07185137 0.05303148 0.06909756 -0.06913002 0.0027671074 -0.06707946 -0.0703696
-0.07198966 -0.06054972 -0.07043748 -0.06882821 0.069129094 -0.06893216 0.0726882 0.05921844
-0.06840579 0.050490312 -0.006740917 -0.0679927 -0.06905518 -0.020690246 -0.06470454 -0.068264626
0.072618686 0.06854526 0.06737863 -0.06994378 -0.06825007 0.066537246 -0.071360365 0.067050576
-0.06284901 0.07146653 0.07685614 0.06518118 0.07640971 0.047980692 0.071407735 -0.06836577
0.0711267 -0.06857314 -0.07344003 -0.068783 -0.06797588 0.07061177 0.069073215 0.018301936
-0.04967163 0.06823435 -0.06470525 0.043363545 0.069983475 0.06879064 0.076103196 0.067861825
-0.07566121 0.07898612 -0.06920622 0.06672973 0.06270626 0.06805376 -0.06851918 -0.07425803
0.070816234 0.068710715 0.06639176 0.06902007 -0.06876645 0.051202785 0.07223799 0.07433453
