dataset/models/PDAC_Hwang22_Malignstate.CyclingG2M/model.pth (torch, 696702 bytes, 14 tensors)

tiles_emb.hidden_layers.0.weight f4 [128, 768]
-0.0016106331 0.0005390799 7.8487705e-05 1.2920083e-05 -0.0038164712 0.0023486721 -2.237221e-05 -0.00016802108
-0.0015399103 -2.5912223e-05 -0.004568876 8.4508713e-07 2.7124956e-06 -1.8230417e-06 -0.004195111 0.003421975
0.005875248 -0.0025250188 0.0008728368 3.6743524e-05 -8.833188e-05 -2.375145e-05 0.007878529 -2.133325e-05
-0.002190643 -4.694007e-06 0.00038123134 1.8624569e-05 0.00011653806 7.20923e-05 -3.1296015e-05 -0.000107965105
1.1416425e-05 -0.00014065887 0.00039463985 -3.0508541e-05 4.565451e-05 1.8098795e-05 1.6662645e-05 0.005219799
0.0013507245 0.0059404937 -1.2915927e-05 -3.1328855e-05 -1.5722206e-05 0.004351529 -0.005233101 0.00020012226
0.0035657217 -3.2028292e-05 0.0043694186 -0.0029539333 -0.0023601784 -0.0071751657 -8.389159e-05 -0.0024713727
7.5701814e-07 5.344246e-06 -2.3310302e-05 -0.0025342489 -0.0010565943 -0.0050877067 0.0006852929 -4.0062274e-05
0.0005691774 0.00085957546 -0.00010341856 0.0002522739 -0.002516882 -0.0047694687 0.0031598958 -0.0056696003
-2.6132201e-07 0.0016866617 1.5049194e-05 -0.0023487126 1.3155627e-05 -9.6039024e-05 -0.00032619608 -0.0009871388
6.718185e-05 -0.0054145297 -0.0042949934 -0.0054479223 1.616166e-05 6.333055e-08 0.0011789383 0.0011564563
-2.7503294e-05 0.00045485987 0.00018092198 -0.00028997674 -1.2190611e-05 1.7430339e-05 -1.4640196e-05 -6.046143e-05
1.5301744e-05 0.00087679824 0.0019729706 -1.9163588e-05 -0.00096003653 1.0584313e-05 0.00020083835 1.7344416e-06
0.00077963306 -6.0948027e-05 -0.00028061034 -0.006283857 -0.004000673 0.0027135948 -0.003122888 -3.156266e-05
0.0057764687 -0.0039693653 -0.0029004016 -2.7857628e-05 -1.685556e-05 1.6262917e-05 6.552749e-05 -0.0019259547
3.075317e-05 -0.00031976972 -0.00032825937 -0.00600958 0.0012370828 0.004966983 0.0006862711 1.230322e-05
-2.4356232e-06 -0.0037279571 -0.00010329564 8.579047e-05 1.755082e-06 0.006790486 8.1781574e-05 -0.0057593584
-0.0018335459 0.00022788467 5.7004214e-05 -0.0052775126 5.8807013e-06 -0.00046241088 0.00060532143 -0.0020651598
1.4060026e-05 -4.3740256e-05 -0.006832539 -2.20318e-05 1.9417974e-05 0.00046063017 1.6557588e-05 -6.285411e-05
0.004284673 0.00032748395 0.00017404671 0.004029258 -5.2893072e-05 0.004116676 -7.880155e-05 -0.00013563306
0.0027792843 0.0035255759 0.002785964 0.0075770086 -5.152798e-05 -0.0018711902 -3.810749e-05 -0.00013183217
0.005136911 0.0045011104 -8.6999025e-06 -1.2787742e-05 -0.0022786534 0.002314846 9.602381e-05 -0.0014579574
-3.824548e-05 0.000292779 0.00015254221 0.002239577 1.0554448e-05 -1.26329505e-05 -0.0049651526 -2.694574e-05
0.004620791 0.005173127 3.3602976e-07 -8.679771e-05 2.1042692e-05 -5.167418e-05 -3.6871108e-06 1.413995e-05
-1.7872844e-05 -2.1058675e-05 0.0042492296 -6.6196204e-05 6.2851054e-06 0.00033614307 -0.0057887244 9.8508244e-05
-0.00016077567 4.2665515e-06 -5.8995397e-07 0.004483245 -5.4075454e-06 6.2488807e-06 0.007729225 -8.574384e-05
1.6513597e-05 -4.5360823e-05 0.0006349957 5.279835e-06 5.7301922e-06 -0.00051041885 6.466418e-05 -6.3731645e-06
0.0056986194 -0.0006407666 -1.0484858e-05 0.0059238756 0.005407545 -1.2082214e-05 2.8016268e-05 -0.0015246606
-0.0045244433 3.2630924e-06 0.0043440987 -0.00085316476 -1.9296498e-05 -3.0028043e-05 0.00021804942 -0.00018449147
-0.002592798 -0.0001531293 2.285305e-05 -0.00135669 -0.001439343 1.2389146e-06 0.0019530524 0.0012701645
0.0018578307 0.0056499774 -2.370219e-06 1.5590564e-05 -0.0015744711 -0.0010178201 0.0030756113 0.0017493333
-0.0011518053 3.641989e-05 0.0017184492 0.0014563712 -4.252002e-06 -7.336529e-05 -8.185999e-05 0.0015665303
00000000: e11b d3ba 0a51 0d3a c499 a438 55c3 5837
00000010: c31d 7abb 2eec 193b f5ab bbb7 d12e 30b9
00000020: d1d6 c9ba 135e d9b7 82b6 95bb f2d9 6235
00000030: 5208 3636 3caf f4b5 2477 89bb 3743 603b
00000040: 2785 c03b c97a 25bb 16cf 643a 0f1d 1a38
00000050: d13e b9b8 da3d c7b7 f214 013c cef4 b2b7
00000060: e490 0fbb 3781 9db6 01e0 c739 f53b 9c37
00000070: e565 f438 4230 9738 d743 03b8 536b e2b8
00000080: 2c89 3f37 d47d 13b9 aae7 ce39 98ec ffb7
00000090: 287d 3f38 ded2 9737 c2c6 8b37 d90a ab3b
000000a0: cb0a b13a 79a8 c23b 7cb1 58b7 1a67 03b8
000000b0: 2ee3 83b7 4597 8e3b 6f7a abbb e9d7 5139
000000c0: e2ae 693b 1e56 06b8 572d 8f3b c796 41bb
000000d0: 39ad 1abb a71d ebbb f4ee afb8 c1f6 21bb
000000e0: e435 4b35 b952 b336 7e8a c3b7 a415 26bb
000000f0: 6c7d 8aba c7b6 a6bb 3aa5 333a 8a08 28b8
00000100: d934 153a 2255 613a 6be2 d8b8 a143 8439
00000110: 46f2 24bb 3449 9cbb 4116 4f3b 0ec8 b9bb
00000120: d34b 8cb4 fa12 dd3a cc7b 7c37 dcec 19bb
00000130: fdb6 5c37 8f68 c9b8 4c05 abb9 e262 81ba
00000140: fbe3 8c38 5e6c b1bb 04bd 8cbb 7c84 b2bb
00000150: e792 8737 5700 8833 9b86 9a3a 3c94 973a
00000160: e0b6 e6b7 427a ee39 e0b5 3d39 0508 98b9
00000170: 4786 4cb7 5e37 9237 2a9f 75b7 f797 7db8
00000180: 3f5c 8037 efd8 653a f44c 013b 7ec1 a0b7
00000190: f6aa 7bba 4793 3137 2298 5239 f6ca e835
000001a0: 4a60 4c3a 72a2 7fb8 e21e 93b9 d0e8 cdbb
000001b0: 1418 83bb 91d6 313b 5ea9 4cbb 2662 04b8
000001c0: 8848 bd3b 7311 82bb aa14 3ebb cdaf e9b7
000001d0: 0a65 8db7 596c 8837 ce6b 8938 5170 fcba
000001e0: f7fc 0038 c4a6 a7b9 3a1a acb9 03ec c4bb
000001f0: 9c25 a23a 13c2 a23b e0e6 333a ed69 4e37
00000200: b073 23b6 be50 74bb 6da0 d8b8 68ea b338
00000210: 2990 eb35 ba82 de3b 2682 ab38 00b9 bcbb
00000220: 9753 f0ba 53f4 6e39 cf17 6f38 fcee acbb
00000230: d752 c536 bd6f f2b9 6fae 1e3a a257 07bb
00000240: 5ae3 6b37 be75 37b8 7ee3 dfbb eed0 b8b7
00000250: c8e3 a237 bc80 f139 26e5 8a37 8bd0 83b8
00000260: 7166 8c3b 27b2 ab39 4f80 3639 de07 843b
00000270: 81d9 5db8 2ee5 863b 4342 a5b8 b938 0eb9
00000280: a724 363b 590d 673b b894 363b 8e48 f83b
00000290: bf1f 58b8 b942 f5ba 9bd5 1fb8 6e3c 0ab9
000002a0: 8853 a83b 0d7e 933b ccf5 11b7 ef8a 56b7
000002b0: 7655 15bb acb4 173b 6460 c938 ef18 bfba
000002c0: c569 20b8 2280 9939 bdf3 1f39 dec5 123b
000002d0: 0213 3137 1cf2 53b7 b8b2 a2bb 8909 e2b7
000002e0: 016a 973b 5683 a93b 9467 b434 2a07 b6b8
000002f0: d684 b037 babc 58b8 1570 77b6 9f3a 6d37
00000300: a4ed 95b7 29a7 b0b7 1f3d 8b3b d1d2 8ab8
00000310: a5e4 d236 5c3c b039 57af bdbb 3696 ce38
00000320: e495 28b9 6629 8f36 545d 1eb5 2fe8 923b
00000330: 7672 b5b6 7aad d136 7045 fd3b 60d1 b3b8
00000340: ae86 8a37 d041 3eb8 d775 263a 7029 b136
00000350: fa45 c036 a1cd 05ba 519c 8738 11d9 d5b6
00000360: 7cbb ba3b 1ef9 27ba 1fe8 2fb7 121d c23b
00000370: c631 b13b b7b4 4ab7 7a04 eb37 1fd7 c7ba
00000380: c841 94bb 80fb 5a36 f158 8e3b eba6 5fba
00000390: eade a1b7 bbe4 fbb7 32a4 6439 0d74 41b9
000003a0: efeb 29bb 5591 20b9 8db4 bf37 f6d2 b1ba
000003b0: 56a8 bcba c848 a635 90fd ff3a a67b a63a
000003c0: 7482 f33a 7223 b93b 0d10 1fb6 7bc8 8237
000003d0: 7c5e ceba 6068 85ba 3290 493b e349 e53a
000003e0: 2cf8 96ba 8fc1 1838 963d e13a b5e3 be3a
000003f0: 6bac 8eb6 b1db 99b8 3fac abb8 0954 cd3a

tiles_emb.hidden_layers.0.bias f4 [128]
-0.0012551384 -0.016695324 0.03376213 0.02919663 0.026554108 -0.022503905 0.02114388 0.02750342
-0.0077625616 0.034730367 -0.004726353 0.02414628 0.027724957 0.0067530065 0.011999706 -0.017129546
-0.009610104 0.027576538 -0.0107021015 0.0014723819 0.007069295 0.037053823 0.00029888906 0.021700561
0.0176152 -0.013041405 -0.01369962 0.034380417 0.0036783991 -0.0025396564 0.0023932015 -0.013284855
0.017543362 0.023587786 -0.009846022 -0.02165492 0.011040824 -0.022935722 -0.018020006 0.0148477405
0.006274183 0.0100617 0.0223089 0.036758218 -0.020328132 0.027186017 -0.007140256 -0.0150656225
0.00042098356 0.0028929918 -0.030438779 0.040747628 0.0025193312 0.029359324 0.0018137852 -0.027495824
0.0049163345 -0.025865773 -0.008416203 0.03857897 0.019685822 -0.00080090587 -0.02448827 0.028905455
0.02964188 0.03637539 -0.012675174 0.020791555 0.0067177643 -0.011834853 0.0319449 0.020969242
0.042861164 0.01699338 0.017882295 -0.009310184 0.032042578 0.036899358 0.034916382 0.020940462
0.022608869 0.018703766 -0.014374784 -0.01681107 -0.008377781 0.039117303 0.016608229 0.030384054
0.008902599 0.037899878 -0.011212692 -0.01769497 -0.005242241 0.029750213 -0.0035832801 0.017962743
0.024076698 0.01165811 0.014129707 -0.024038253 0.028749755 -0.009464731 -0.015677743 0.031519357
0.0036695634 0.035260115 0.01213046 0.00072349224 0.02074347 -0.02511732 0.03975766 -0.013089498
-0.0035900152 -0.012653724 -0.019246833 0.022872064 0.041647706 -0.010091461 -0.023731608 0.034449823
0.043926325 -0.0074600014 0.014945372 -0.020399094 0.013639927 -0.031505827 -0.019756103 -0.016543977
00000000: 7583 a4ba a2c4 88bc 294a 0a3d c52d ef3c
00000010: 0088 d93c 1c5a b8bc ee35 ad3c da4e e13c
00000020: 165d febb 6e41 0e3d 86df 9abb 6bce c53c
00000030: 731f e33c 5348 dd3b 6a9a 443c 4353 8cbc
00000040: b373 1dbc 31e8 e13c de57 2fbc f0fc c03a
00000050: 8ba5 e73b c0c5 173d 36b4 9c39 60c5 b13c
00000060: c04d 903c 9eab 55bc 5f74 60bc 7bd2 0c3d
00000070: 4c11 713b 5d70 26bb 42d7 1c3b b8a8 59bc
00000080: 19b7 8f3c 2c3b c13c 3651 21bc a965 b1bc
00000090: 93e4 343c b2e3 bbbc b19e 93bc f043 733c
000000a0: a997 cd3b d4d9 243c 27c1 b63c c98f 163d
000000b0: 2f87 a6bc 36b5 de3c cff8 e9bb cdd5 76bc
000000c0: 75b7 dc39 5998 3d3b bf5a f9bc fce6 263d
000000d0: 5d1b 253b f782 f03c 88bc ed3a ec3e e1bc
000000e0: 3419 a13b 75e4 d3bc 1de4 09bc fb04 1e3d
000000f0: 2944 a13c e2f3 51ba a09b c8bc 22cb ec3c
00000100: 87d3 f23c 5cfe 143d 88ab 4fbc 0d53 aa3c
00000110: b120 dc3b f9e6 41bc a8d8 023d b0c7 ab3c
00000120: 308f 2f3d b335 8b3c e47d 923c be89 18bc
00000130: 143f 033d c823 173d 7b04 0f3d 558b ab3c
00000140: 3c36 b93c a438 993c 3784 6bbc 5eb7 89bc
00000150: f642 09bc 7739 203d fb0d 883c fbe7 f83c
00000160: 35dc 113c e73c 1b3d 70b5 37bc 0bf5 90bc
00000170: 1bc7 abbb b8b6 f33c 77d5 6abb 9a26 933c
00000180: 7f3c c53c a801 3f3c 4980 673c dfeb c4bc
00000190: 9b84 eb3c f611 1bbc 9c6e 80bc 711a 013d
000001a0: 0f7d 703b e96c 103d d6be 463c bea8 3d3a
000001b0: 36ee a93c d6c2 cdbc eed8 223d 5575 56bc
000001c0: 7646 6bbb 9151 4fbc 89ab 9dbc 325e bb3c
000001d0: c996 2a3d a856 25bc ca68 c2bc 421b 0d3d
000001e0: 17ec 333d 0773 f4bb 6fdd 743c 001c a7bc
000001f0: 007a 5f3c 410c 01bd 8dd7 a1bc 3c87 87bc

tiles_emb.hidden_layers.2.weight f4 [128, 128]
2.7043527e-09 0.028419467 0.05553479 -0.012985535 0.09411133 0.019341473 0.023740707 0.06609759
-0.06654931 -0.009409465 0.0010314275 -0.012638895 0.039189138 0.03578536 0.073838435 0.07391246
0.0028793004 -0.03637443 0.05748148 0.048986092 -0.005783768 0.013480145 0.082463115 0.04585129
-0.01897522 0.011861416 0.0070829033 0.05231871 -0.028893853 0.060752686 -0.035197426 0.062504694
0.008945698 0.063788086 0.0039484515 0.020778788 -0.07813477 0.051380977 0.032584492 -0.0031829325
0.044696353 0.025564384 0.060973536 0.028354071 0.030555945 0.0056342357 0.07241318 -0.029192805
-0.039171338 -0.015448037 0.080497 -0.0749402 0.036225352 0.049897775 -0.08712521 -0.046054315
0.050392278 0.083134264 -0.07223041 -0.0848212 0.017374612 -0.032275252 -0.042148273 0.075961284
-0.020925634 0.02145623 -0.084059976 0.079524204 0.017615162 -0.03842578 -0.008037926 -0.051504873
0.0026110555 -0.017409699 0.052354496 0.07458483 -0.016780138 0.07262671 0.030065855 0.0220163
-0.039941743 0.0025215913 0.020918075 0.020363834 0.03819349 0.01925288 0.043831196 0.041547406
0.009265716 0.029134762 0.00038283385 -0.027524227 -0.052746713 -0.06599618 0.048228726 -0.017663067
-0.018806985 -0.012543608 -0.017992254 -0.09508647 -0.030685091 0.060720444 0.08841489 -0.037315026
-0.011419818 0.02847044 -0.04803721 0.027256116 -0.0694613 -0.07942464 0.0014569145 0.05325749
-0.024390971 0.008019401 -0.047515288 0.04975764 -0.0048375456 -0.016893236 0.052602578 0.043447115
-0.019928318 -0.028137907 -0.012882649 -0.05517988 -0.008371105 -0.020700399 0.051585615 0.046118967
-9.3919687e-07 -0.020615697 0.005207103 0.015347242 0.025106803 0.012898287 0.0415889 0.058791135
-0.09716943 -0.07404865 0.01883189 0.020320829 0.07207378 -0.022059223 0.003463399 -0.024361406
0.038129557 -0.04375133 -0.022117242 -0.044131596 -0.097961575 -0.025773592 0.041798905 -0.07311901
-0.06686029 -0.06635294 0.077777684 0.029121673 0.084708184 -0.050204854 0.04747476 0.01147603
-0.10049878 0.06500741 6.3289226e-05 0.024060719 0.028811958 -0.095480464 -0.03006361 -0.028592598
0.00073886995 0.004749526 -0.025802294 -0.004015472 0.095766835 0.090758726 0.07574342 -0.042408284
-0.0374048 -0.035536606 0.061142936 0.0011736366 0.082505256 -0.087242246 -0.026037639 0.043842502
0.022820218 -0.00974384 0.0048336 -0.05005105 -0.06328467 -0.04694982 0.05470292 -0.037549395
0.026957361 0.08304398 -0.057438754 0.09339036 -0.09960712 -0.044621553 -0.06843559 -0.07571885
0.029367732 0.030298488 -0.010406791 0.086623825 -0.007198721 0.074897274 -0.08725169 -0.05336379
0.08152672 0.06207863 0.09548374 0.030876024 0.0010648294 -0.08452937 -0.031800415 0.038840394
0.087645024 -0.09334932 0.072210334 0.0058207344 0.02056913 -0.09514013 -0.038740054 0.0756574
0.015934115 0.043142192 -0.053528156 -0.053663585 0.08728387 -0.050061576 0.060559206 -0.036295865
0.033459093 0.049369212 -0.041366473 0.0075188815 0.06271917 0.06309817 -0.017959263 0.03098157
-0.05140886 -0.034583203 0.03910066 0.06018666 -0.09522837 0.020724365 0.090285495 -0.017645745
-0.09520737 0.016187245 0.01927601 0.057388872 0.0782908 0.00539787 0.023325413 -0.049809746
00000000: 7ad7 3931 f1cf e83c 7378 633d 48c1 54bc
00000010: 71bd c03d 0272 9e3c df7b c23c 2c5e 873d
00000020: 014b 88bd 282a 1abc f730 873a 5e13 4fbc
00000030: ca84 203d ab93 123d 9b38 973d 6a5f 973d
00000040: a5b2 3c3b 5bfd 14bd b371 6b3d a4a5 483d
00000050: c385 bdbb d3db 5c3c 6ce2 a83d 90ce 3b3d
00000060: ec71 9bbc 6256 423c b317 e83b 254c 563d
00000070: cdb2 ecbc cfd7 783d 2d2b 10bd 7602 803d
00000080: fa90 123c 54a3 823d 0362 813b 4738 aa3c
00000090: 1f05 a0bd dc74 523d 5177 053d bf98 50bb
000000a0: 8613 373d 666c d13c 63bf 793d cc46 e83c
000000b0: 7650 fa3c 659f b83b 5c4d 943d c025 efbc
000000c0: 2072 20bd c319 7dbc 9cdb a43d 3f7a 99bd
000000d0: 0961 143d 9c61 4c3d b46e b2bd 73a3 3cbd
000000e0: 2268 4e3d 4c42 aa3d 8aed 93bd bdb6 adbd
000000f0: 3455 8e3c 0e33 04bd aba3 2cbd 9791 9b3d
00000100: 3c6c abbc fac4 af3c a327 acbd 96dd a23d
00000110: ac4d 903c 5a64 1dbd 81b1 03bc c6f6 52bd
00000120: 3e1e 2b3b c99e 8ebc ab71 563d eebf 983d
00000130: 8076 89bc 50bd 943d ab4c f63c 875b b43c
00000140: f499 23bd 4841 253b 625c ab3c 0ed2 a63c
00000150: c770 1c3d 37b8 9d3c 5788 333d 9d2d 2a3d
00000160: 3bcf 173c 06ac ee3c 17b7 c839 7d7a e1bc
00000170: f00c 58bd 0129 87bd 7c8b 453d 23b2 90bc
00000180: 1b11 9abc b583 4dbc 7e64 93bc b2bc c2bd
00000190: 4d5f fbbc 00b6 783d de12 b53d a4d7 18bd
000001a0: 301a 3bbc d73a e93c aac2 44bd 3848 df3c
000001b0: ba41 8ebd 63a9 a2bd f0f5 be3a 8724 5a3d
000001c0: 93cf c7bc ce63 033c 649f 42bd abce 4b3d
000001d0: 4684 9ebb af63 8abc cd75 573d 9af5 313d
000001e0: b640 a3bc 7881 e6bc bf11 53bc 4c04 62bd
000001f0: f626 09bc e293 a9bc 704b 533d 3ee7 3c3d
00000200: 1e1d 7cb5 40e2 a8bc 59a0 aa3b 0073 7b3c
00000210: c8ac cd3c 5653 533c 1f59 2a3d f9ce 703d
00000220: c400 c7bd d2a6 97bd 5645 9a3c de77 a63c
00000230: 6b9b 933d 8bb5 b4bc 31fa 623b 9291 c7bc
00000240: bd2d 1c3d 9834 33bd 382f b5bc 55c3 34bd
00000250: 14a0 c8bd 2423 d3bc 5435 2b3d 6bbf 95bd
00000260: 0cee 88bd 0de4 87bd e849 9f3d 9390 ee3c
00000270: 7c7b ad3d 9ba3 4dbd e574 423d f505 3c3c
00000280: 4ed2 cdbd 9b22 853d 25ba 8438 fc1a c53c
00000290: 0e07 ec3c 438b c3bd f647 f6bc 063b eabc
000002a0: b9b0 413a e9a1 9b3b 555f d3bc 3894 83bb
000002b0: 6721 c43d b6df b93d 5e1f 9b3d 4fb4 2dbd
000002c0: c735 19bd d58e 11bd 0471 7a3d b6d4 993a
000002d0: 84f8 a83d 10ac b2bd e34c d5bc 3294 333d
000002e0: 77f1 ba3c a1a4 1fbc 2d63 9e3b 5402 4dbd
000002f0: 659b 81bd 744e 40bd 2b10 603d 65cd 19bd
00000300: afd5 dc3c f612 aa3d e644 6bbd 7243 bf3d
00000310: d1fe cbbd 17c5 36bd f527 8cbd 7c12 9bbd
00000320: 9994 f03c 8934 f83c 3f81 2abc d567 b13d
00000330: 40e3 ebbb be63 993d 04b1 b2bd fd93 5abd
00000340: 7bf7 a63d 2946 7e3d fb8c c33d b7ef fc3c
00000350: bf91 8b3a bc1d adbd 2741 02bd 1b17 1f3d
00000360: 3c7f b33d ee2d bfbd 03e3 933d dcbb be3b
00000370: 9880 a83c d4d8 c2bd e4ad 1ebd 44f2 9a3d
00000380: 4388 823c deb5 303d 5740 5bbd 59ce 5bbd
00000390: e3c1 b23d 5e0d 4dbd ee0c 783d f9aa 14bd
000003a0: 670c 093d 5f37 4a3d e46f 29bd f360 f63b
000003b0: e872 803d 9d39 813d 4e1f 93bc 10cd fd3c
000003c0: 1992 52bd 1ea7 0dbd 0328 203d 4a86 763d
000003d0: 1707 c3bd 25c6 a93c 9ae7 b83d cf8d 90bc
000003e0: 15fc c2bd 1d9b 843c b9e8 9d3c 9810 6b3d
000003f0: ed56 a03d 9ee0 b03b f014 bf3c 4e05 4cbd

tiles_emb.hidden_layers.2.bias f4 [128]
-0.058059264 -0.052128926 -0.040674318 0.034491193 -0.032603122 -0.00023093425 0.0027801981 -0.03520603
-0.05429892 0.089100294 0.05685797 -0.044058517 -0.053354926 -0.012639253 0.017305639 -0.04865921
0.0054636165 0.046216317 0.058338035 0.025765164 -0.047887526 0.08039119 -0.07365988 -0.091029935
0.033119056 0.074328944 0.043836016 0.017605044 0.06841964 0.09235933 -0.09202735 0.0058627906
-0.1029605 0.0030081866 -0.03730653 0.032621037 0.050919726 -0.016474329 -0.005466397 0.039150033
-0.07168342 0.04549468 -0.07696304 0.043636672 0.006860564 0.058314275 0.07578569 0.02519722
0.090830766 -0.033046853 -0.0811088 -0.07530836 0.024040075 -0.04529147 -0.024682852 0.08384703
0.040122136 -0.06981221 0.07070802 0.060307883 -0.08772996 0.089863166 0.03868121 -0.023922589
0.042629298 0.026572851 0.020781837 0.010125703 -0.02888743 0.0038041808 -0.057243645 -0.075408615
0.08057379 0.062483467 -0.075548716 -0.07487643 -0.035216205 -0.0717611 0.013878765 -0.052763324
0.022910941 -0.06299714 -0.07405943 0.059584986 -0.05463608 -0.045216966 0.027021702 0.051471155
0.046422683 0.08253925 -0.076608084 0.07790171 0.06354432 -0.010633901 0.018317053 -0.008416332
0.06992287 0.009951637 0.06606579 0.027260985 0.0745388 0.013464761 -0.020646228 0.060618695
-0.022797326 0.07898524 -0.07502364 0.063896045 0.06807713 -0.013875618 0.008128043 0.07501903
-0.10160652 -0.05812432 -0.03561459 0.027649648 0.0010621992 -0.04456236 0.031084424 0.039572634
-0.045864772 0.083994426 -0.038330488 0.054153487 0.035375528 0.018567657 0.082895 0.07693296
00000000: 8dcf 6dbd 2485 55bd 1d9a 26bd a346 0d3d
00000010: da8a 05bd f126 72b9 fc33 363b 3334 10bd
00000020: 8b68 5ebd 377a b63d e7e3 683d b476 34bd
00000030: b28a 5abd df14 4fbc 8ec4 8d3c e14e 47bd
00000040: 2308 b33b 524d 3d3d ddf3 6e3d 7711 d33c
00000050: b625 44bd 23a4 a43d feda 96bd e76d babd
00000060: d9a7 073d c639 983d 658d 333d 7438 903c
00000070: 991f 8c3d e326 bd3d d678 bcbd a71c c03b
00000080: f4dc d2bd ff24 453b bbce 18bd a39d 053d
00000090: 3491 503d 2cf5 86bc 761f b3bb c95b 203d
000000a0: c2ce 92bd a158 3a3d cc9e 9dbd 5ebc 323d
000000b0: 95ce e03b f3da 6e3d 8735 9b3d 666a ce3c
000000c0: 7b05 ba3d 235c 07bd 5f1c a6bd 453b 9abd
000000d0: b1ef c43c 8c83 39bd b133 cabc feb7 ab3d
000000e0: 1c57 243d b4f9 8ebd 5ecf 903d 6605 773d
000000f0: c4ab b3bd 2e0a b83d 3070 1e3d 4ef9 c3bc
00000100: 0f9c 2e3d 4faf d93c ac3e aa3c 47e6 253c
00000110: 55a5 ecbc 904f 793b 5078 6abd d56f 9abd
00000120: df03 a53d aaee 7f3d 49b9 9abd d058 99bd
00000130: de3e 10bd 7cf7 92bd c263 633c 5b1e 58bd
00000140: baaf bb3c a504 81bd 78ac 97bd 630f 743d
00000150: 15ca 5fbd 6d35 39bd 9e5c dd3c 6bd3 523d
00000160: b625 3e3d 570a a93d b3e4 9cbd ef8a 9f3d
00000170: 8623 823d d039 2ebc a50d 963c a8e4 09bc
00000180: b933 8f3d 310c 233c 804d 873d 6e52 df3c
00000190: cca7 983d 4d9b 5c3c 4722 a9bc 4f4b 783d
000001a0: 75c1 babc 03c3 a13d ffa5 99bd eedb 823d
000001b0: 066c 8b3d 8f56 63bc 7c2b 053c 94a3 993d
000001c0: 1417 d0bd c413 6ebd 9be0 11bd 8481 e23c
000001d0: 7e39 8b3a 0587 36bd c3a4 fe3c ea16 223d
000001e0: b3dc 3bbd 4505 ac3d 6e00 1dbd 0cd0 5d3d
000001f0: eee5 103d 331b 983c dbc4 a93d 078f 9d3d

attention_layer.att.weight f4 [128, 128]
0.031091986 0.032839254 -0.052149307 0.02417497 8.424719e-05 0.0054280763 0.01596408 0.050031487
0.040645216 0.052160505 0.034387037 0.0028061213 -0.010814824 0.008864971 0.0066477717 -0.05122542
-0.0047596567 -0.00690437 0.033231784 -0.026498672 0.0031343156 0.007646303 -0.04832804 -0.05641283
-0.0015578675 -0.0039671157 -0.023142027 -0.038172282 -0.04278716 -0.0042515695 0.0033560968 -0.04304311
0.03798786 0.0008812828 -0.03426425 0.05889426 -0.0019732253 0.0037588796 -0.010315417 0.008957051
0.0012488246 -0.0017248737 0.0043705665 -0.026260281 -0.034740876 0.028836062 0.0069852606 0.007043924
-0.0139434235 0.04579963 0.026114611 -0.038115833 -0.0048804595 0.0021854846 0.042453066 0.043619424
-0.06223562 -0.05197386 0.058774237 0.0014144029 0.008792319 -0.0025829151 -0.004099874 0.060359884
-0.025919264 0.049331125 -0.045123193 0.009999591 -0.0039684973 0.03273001 -0.018509902 0.005820695
0.03130918 -0.0022234325 0.00085717096 0.009112712 0.026492989 -0.04314101 0.03263992 0.012392654
-0.002240231 -0.026534986 -0.014457204 -0.030722167 0.044151086 0.005359537 0.015265587 0.003637444
0.007321486 -0.03336402 0.029241957 -0.017717678 0.006498755 -0.042726465 -0.008104993 -0.010001531
0.04264449 0.02207758 0.018719548 0.06113221 0.03535315 -0.057632282 0.023314826 -0.053316336
-0.06066244 0.027483052 0.012074196 -0.029873908 0.017351031 -0.04557138 -0.0131519055 -0.0008638147
0.015245451 -0.041552633 0.059755635 -0.019079378 0.015515962 -0.049078498 -0.0010310621 0.050759267
0.012064636 0.030602142 -0.0057376456 0.02691825 -0.003120043 0.053240273 -0.038193084 -0.0023546196
-0.016774243 -0.01747848 0.05471894 0.026901051 -0.04659517 0.032803744 -0.051613707 0.029761579
0.04531856 0.054666117 -0.044449687 0.050742444 0.002172288 0.00036463924 0.0015076012 -0.011592328
0.040361382 -0.01854413 -0.030473005 0.004596417 0.009649066 0.02230079 -0.008570692 -0.014840248
-0.043653492 -0.009781588 -0.0004204161 -0.010118657 0.0075232894 0.049435508 -0.038581222 0.04796395
0.030403815 0.03962453 -0.010546346 0.06065366 0.06879263 -0.013667276 0.040680774 -0.01546525
0.04697211 0.06795894 -0.061180256 0.009314498 0.027831601 0.043308556 -0.06473356 -0.0005241624
0.016132683 0.033251874 0.047446538 0.0142931575 0.03929043 -0.044934083 0.0005857388 -0.027319368
0.013483796 1.067279e-05 -0.065022595 0.0018111964 0.0035405492 0.0024977233 -0.00054571783 -0.06711287
-0.064859286 -0.061271887 -0.06585451 -0.0044117225 0.0022381812 -0.032009475 -0.0033943627 0.0052233096
-0.056790955 0.058347806 0.0059587876 -0.012366591 0.038230732 -0.01797877 0.028245257 0.05983583
0.00025035784 0.03904151 -0.026310485 0.05280345 -0.013616104 -0.04960335 -0.029115763 0.029228829
-0.0034252184 0.00068720314 0.023056943 -0.038174372 0.034511033 -0.036577575 -0.0067491876 -0.046065696
0.048748925 0.024718339 -0.012979851 0.022176752 -0.0072026476 0.018353391 -0.044667646 0.03474916
0.030119264 0.042075034 -0.039261363 -0.051928837 0.016393444 0.003996891 -0.042784497 0.00096076255
0.011023407 0.0072684125 -0.02703999 0.0021893363 -0.039043874 0.037097152 0.03545613 -0.05372973
0.005995664 0.0027243667 -0.021747101 -0.0013075402 0.033678934 0.061071042 0.008266887 0.030019088
00000000: 9fb4 fe3c 7482 063d 839a 55bd 960a c63c
00000010: dead b038 01de b13b 1ac7 823c d1ed 4c3d
00000020: 997b 263d 41a6 553d 6cd9 0c3d e7e6 373b
00000030: a930 31bc 623e 113c 8dd5 d93b bfd1 51bd
00000040: e5f6 9bbb 0e3e e2bb 0d1e 083d be13 d9bc
00000050: 1769 4d3b d78d fa3b 9ff3 45bd 2411 67bd
00000060: 5c31 ccba 94fe 81bb 5994 bdbc 8a5a 1cbd
00000070: 9741 2fbd c050 8bbb f6f1 5b3b f94d 30bd
00000080: 2999 1b3d e305 673a ac58 0cbd 1c3b 713d
00000090: 3a51 01bb 8957 763b ff01 29bc 98c0 123c
000000a0: 9aaf a33a 2815 e2ba f836 8f3b cd1f d7bc
000000b0: 734c 0ebd 9b39 ec3c 9de4 e43b b8d0 e63b
000000c0: f572 64bc 6598 3b3d 4fee d53c 591f 1cbd
000000d0: 43ec 9fbb 593a 0f3b 44e3 2d3d 48aa 323d
000000e0: c7ea 7ebd 8be2 54bd 41bd 703d 7c63 b93a
000000f0: a90d 103c 2046 29bb 3c58 86bb ed3b 773d
00000100: a354 d4bc 6f0f 4a3d 19d3 38bd 53d5 233c
00000110: 2b0a 82bb e70f 063d 14a2 97bc 87bb be3b
00000120: 0e3e 003d 02b7 11bb c5b3 603a 7c4d 153c
00000130: d307 d93c a1b4 30bd 70b1 053d 8f0a 4b3c
00000140: d7d0 12bb e65f d9bc e9dd 6cbc 0ead fbbc
00000150: c5d7 343d 0e9f af3b 831c 7a3c 2f62 6e3b
00000160: 13e9 ef3b b6a8 08bd d48c ef3c aa24 91bc
00000170: 82f3 d43b f201 2fbd ceca 04bc 76dd 23bc
00000180: fdab 2e3d 0bdc b43c bd59 993c c565 7a3d
00000190: 77ce 103d d40f 6cbd bcfe be3c 3b62 5abd
000001a0: 2e79 78bd 2324 e13c d9d2 453c 20ba f4bc
000001b0: c023 8e3c 0ea9 3abd 177b 57bc a071 62ba
000001c0: 0ec8 793c 1833 2abd 53c2 743d 5b4c 9cbc
000001d0: a936 7e3c 8906 49bd b424 87ba f3e8 4f3d
000001e0: c0aa 453c 58b1 fa3c dc02 bcbb a983 dc3c
000001f0: a379 4cbb 7912 5a3d 5a70 1cbd f64f 1abb
00000200: 236a 89bc 072f 8fbc f820 603d 985f dc3c
00000210: 94da 3ebd 385d 063d e568 53bd 8ece f33c
00000220: f49f 393d 94e9 5f3d e010 36bd 4fd7 4f3d
00000230: f25c 0e3b 0d2d bf39 b49a c53a bfed 3dbc
00000240: fa51 253d dce9 97bc 86a2 f9bc 8a9d 963b
00000250: 1e17 1e3c 25b0 b63c 166c 0cbc 8324 73bc
00000260: 01ce 32bd f442 20bc 4b6b dcb9 b9c8 25bc
00000270: ed85 f63b e37c 4a3d 5807 1ebd d975 443d
00000280: 6c11 f93c 554d 223d 95ca 2cbc f96f 783d
00000290: 27e3 8c3d b6ec 5fbc e2a0 263d f661 7dbc
000002a0: d465 403d 0f2e 8b3d 2698 7abd d69b 183c
000002b0: 19ff e33c 5064 313d 0793 84bd f167 09ba
000002c0: b028 843c 1e33 083d 4d57 423d d92d 6a3c
000002d0: 00ef 203d cd0c 38bd 448c 193a decc dfbc
000002e0: 24eb 5c3c 490f 3337 912a 85bd ab65 ed3a
000002f0: 8f08 683b d8b0 233b 810e 0fba 7972 89bd
00000300: f2d4 84bd 3bf8 7abd bbde 86bd 3690 90bb
00000310: 73ae 123b 5e1c 03bd f573 5ebb 4c28 ab3b
00000320: a29d 68bd 1cfe 6e3d ef41 c33b 3e9d 4abc
00000330: d497 1c3d 3748 93bc 9962 e73c 6a16 753d
00000340: 7642 8339 fee9 1f3d 1689 d7bc 6e48 583d
00000350: 1416 5fbc e22c 4bbd 2e84 eebc 4c71 ef3c
00000360: a179 60bb 6c25 343a eae1 bc3c bb5c 1cbd
00000370: 715b 0d3d 5ed2 15bd 4a28 ddbb 62af 3cbd
00000380: f4ac 473d 1d7e ca3c 71a9 54bc 05ac b53c
00000390: 3004 ecbb da59 963c 6cf5 36bd 2355 0e3d
000003a0: adbc f63c df56 2c3d 86d0 20bd 55b3 54bd
000003b0: 8b4b 863c 5af8 823b cc3e 2fbd afdb 7b3a
000003c0: 859b 343c dd2b ee3b f882 ddbc f87a 0f3b
000003d0: 78ec 1fbd 2ff3 173d 723a 113d b513 5cbd
000003e0: 4677 c43b 4a8b 323b fa26 b2bc c561 abba
000003f0: ecf2 093d a125 7a3d d671 073c 97ea f53c

attention_layer.att.bias f4 [128]
0.0023807029 0.0051646815 -0.038422864 0.036835592 0.009130384 0.00091675937 0.016224448 -0.0054748636
0.02675631 0.014564847 0.010515491 0.00026631786 0.025213903 -0.03672338 0.049329344 -0.044224177
0.0566916 -0.041834295 -0.04015175 -0.04487373 -0.0007389738 0.0014146428 0.05310762 0.00743977
-0.043028843 -0.019591188 0.044688933 0.043070577 -0.010306883 0.008589922 0.0032562441 0.0026953302
0.00012570895 0.004696539 -0.029623983 0.0029488816 -0.0010731382 0.016760055 0.025070379 -0.04607283
-0.0008420675 -0.00020407488 0.028444534 -0.026490906 -0.023736017 0.035951532 0.010759199 -0.0011601963
0.04524736 0.031208472 0.00833263 -0.03818483 0.010204573 -0.029625362 -0.04695808 0.042410642
-0.0047745933 0.0023377927 9.3368486e-05 -0.00060683314 0.027709683 -0.009932498 -0.04120179 0.048715156
0.047965974 -0.038479388 4.5862584e-05 0.0014983382 -0.041598447 -0.022799267 -0.014949257 -0.03195349
0.034889214 0.005390628 0.009883259 0.042142857 0.0508112 0.011437881 -0.01244872 -0.042038452
-0.029724658 0.022628278 -0.043301933 0.00091458124 -0.009808023 0.006159833 -0.012634633 -0.042156234
-0.0016033126 0.0005199286 -0.01841524 0.0070066866 0.0013569058 0.03248092 -0.05925748 0.0015133456
-0.034487978 -0.02511402 -0.055772774 -0.044607673 0.014762589 0.010856646 -0.02457318 -0.013956712
-0.03485902 -0.047201775 -0.037447657 0.0182686 0.03627927 0.001385435 0.038967375 -0.00087380764
0.00995722 -0.02914602 -0.03223862 0.038134344 -0.03959122 0.035478614 0.0013440936 0.018274058
-9.247526e-05 0.035233103 -0.057050273 0.05511348 0.01151236 -0.00032074584 0.02510293 0.050744392
00000000: 9105 1c3b 7d3c a93b 4b61 1dbd ebe0 163d
00000010: 9b97 153c ae52 703a 22e9 843c 7c66 b3bb
00000020: 0d30 db3c 65a1 6e3c 2a49 2c3c 94a0 8b39
00000030: 638d ce3c 416b 16bd 910d 4a3d 6924 35bd
00000040: 7335 683d 705a 2bbd 2976 24bd 84cd 37bd
00000050: b1b7 41ba 896b b93a 6087 593d 50c9 f33b
00000060: 033f 30bd b37d a0bc be0b 373d c66a 303d
00000070: 33de 28bc bfbc 0c3c b666 553b 23a4 303b
00000080: bdd0 0339 6de5 993b ffad f2bc 0642 413b
00000090: 8ba8 8cba 624c 893c 6560 cd3c ddb6 3cbd
000000a0: 31be 5cba effc 55b9 8304 e93c 7503 d9bc
000000b0: 0972 c2bc ea41 133d 5a47 303c ba11 98ba
000000c0: 4c55 393d e9a8 ff3c 9585 083c b267 1cbd
000000d0: 1531 273c e3b0 f2bc 1e57 40bd c8b6 2d3d
000000e0: 3174 9cbb a735 193b d3ce c338 e213 1fba
000000f0: 6bff e23c ebbb 22bc 35c3 28bd 8b89 473d
00000100: f877 443d 909c 1dbd 935c 4038 e363 c43a
00000110: 2263 2abd 87c5 babc baed 74bc aae1 02bd
00000120: fee7 0e3d dda3 b03b 65ed 213c fd9d 2c3d
00000130: 681f 503d f365 3b3c b7f5 4bbc 8330 2cbd
00000140: 2081 f3bc f05e b93c 5e5d 31bd 82c0 6f3a
00000150: d5b1 20bc 6dd8 c93b 7e01 4fbc 04ac 2cbd
00000160: 3e26 d2ba d14b 083a 8fdb 96bc 5998 e53b
00000170: 34da b13a b70a 053d f9b7 72bd 745b c63a
00000180: 4443 0dbd ebbb cdbc fe71 64bd 89b6 36bd
00000190: c9de 713c 13e0 313c b24d c9bc b1aa 64bc
000001a0: 55c8 0ebd a656 41bd b762 19bd 08a8 953c
000001b0: 9299 143d 7c97 b53a 419c 1f3d 3d10 65ba
000001c0: 9c23 233c a2c3 eebc a50c 04bd c232 1c3d
000001d0: 672a 22bd 0652 113d 4c2c b03a 7ab3 953c
000001e0: 47ef c1b8 9650 103d 8cad 69bd acbe 613d
000001f0: 569e 3c3c c729 a8b9 a9a4 cd3c 5ad9 4f3d

attention_layer.gate.weight f4 [128, 128]
0.049966656 0.05574767 0.008816233 0.008177135 -0.00849898 0.0032784424 0.04388168 0.015212501
-0.03368082 0.04568685 -0.00025632686 0.015534028 -0.029187197 0.008730773 0.008973074 0.0062670815
-0.0077714184 0.037012406 -0.041122563 0.035979945 0.013443494 -0.0047826283 -0.039378203 0.011722836
0.050658558 -0.011823936 0.04764211 -0.0075993966 0.044385847 -0.046507444 -0.0048520975 0.0064036623
0.010128051 0.025877846 -0.04320686 -0.042973712 -0.022307603 0.003395368 0.03265242 0.004560574
0.0060035316 0.041616566 0.00836704 0.007844886 0.047419854 0.024613328 0.03826447 0.0007827625
-0.0027362655 0.011226909 0.0063648364 0.022126064 -0.012659351 -0.01853166 -0.0075817085 -0.010666205
0.048819736 -0.008858043 0.03542585 -0.013120772 0.0467017 -9.7834505e-05 -0.00041553032 0.015481177
0.04596837 -0.02897663 -0.01265671 0.0031086372 0.0051089027 -0.010643995 0.008546794 0.0045847134
-0.04205448 0.0067543546 -0.04554349 0.009220221 0.0057063713 -0.04514786 -0.024043584 0.014642004
-0.010601341 -0.0029932873 0.047510535 0.029436497 -0.010271004 -0.004002748 -0.014875139 0.02440698
-0.020793866 -0.0163721 -0.0065350747 -0.006275625 -0.022960912 -0.03459378 -0.00271479 0.017981492
0.017946223 -0.01618978 0.028282043 -0.03796979 -0.042055152 0.016956866 -0.011160002 0.001507192
0.014468747 0.035097666 -0.039001394 -0.0067571006 -0.011846543 0.032841664 0.04220623 -0.008305536
0.028765395 0.0065976814 -0.010171659 -0.015964832 -0.004423491 0.038640577 -0.0073617115 0.006725714
-0.038069904 0.0055191163 0.015894886 -0.015008936 0.03866922 0.042759262 -0.014568239 0.0010194078
0.03150007 0.007804577 -0.023478266 -0.021943755 -0.010566635 -0.015859416 0.005544794 0.032122467
0.05703822 0.008278858 -0.042956885 0.05241146 -0.01231733 0.031936437 0.050419167 -0.049118783
0.024215337 -0.0064055608 -0.04516089 0.024258943 -0.040148187 -0.0040982175 -0.011691984 0.03257231
0.011897345 0.0071687535 0.0019834011 0.047259666 0.05003249 -0.004745257 0.012529212 -0.049643595
0.03349007 -0.036332395 -0.007158961 -0.057912268 0.043374933 0.0008907355 0.012034405 0.022844112
0.00204775 -0.010325716 -0.032206744 0.04950459 -0.022274934 0.020370884 -0.019601693 0.05209087
0.023394184 0.03668045 -0.024360104 0.006184898 -0.042682815 -0.01654915 0.009176916 -0.005961136
0.028761586 -0.0059671644 0.005006467 0.023243804 0.015950575 0.016784282 -0.003100116 -0.0015496582
-0.0137338545 -0.03580427 -0.043386582 -0.01878972 0.024333376 -0.0058231833 -0.043913756 -0.043444395
-0.05299713 0.006213308 -0.015429278 -0.0231444 0.03271614 -0.013406871 -0.007510657 0.007828999
-0.0059359376 -0.022758598 0.0065404545 0.058574114 0.0153542 0.02837277 0.007252592 0.013661829
-0.017863534 -0.0056639137 -0.006553876 0.010285085 0.03827524 -0.007522661 0.012706025 -0.009936187
0.0523251 -0.008168003 -0.01163851 -0.023232462 0.051711317 0.048030954 0.012785482 0.0068398053
0.0074991663 0.028306525 -0.027796358 -0.04034694 -0.039705582 0.013251222 0.0264544 -0.005174801
-0.030780016 0.0027199232 -0.012614809 0.024805048 -0.011842176 0.002299437 -0.023732219 0.021640321
-0.01868468 0.012956527 0.047363665 -0.0017170979 0.05152995 0.008584927 -0.0093769785 -0.01785866
00000000: d6a9 4c3d ab57 643d f671 103c 64f9 053c
00000010: 4e3f 0bbc 23db 563b 47bd 333d db3d 793c
00000020: e6f4 09bd 2222 3b3d 9c63 86b9 7082 7e3c
00000030: fd19 efbc 840b 0f3c cd03 133c 175c cd3b
00000040: 62a7 febb 529a 173d 2270 28bd b55f 133d
00000050: 1a42 5c3c 98b7 9cbb 0a4b 21bd 2311 403c
00000060: 597f 4f3d 2fb9 41bc 6024 433d 5c04 f9bb
00000070: efcd 353d 977e 3ebd 58fe 9ebb d0d5 d13b
00000080: 20f0 253c c7fd d33c adf9 30bd 3405 30bd
00000090: 6fbe b6bc d384 5e3b 8bbe 053d de70 953b
000000a0: 46b9 c43b 2276 2a3d e915 093c d687 003c
000000b0: 523b 423d e4a1 c93c 34bb 1c3d 4d32 4d3a
000000c0: eb52 33bb 12f1 373c 1e90 d03b b841 b53c
000000d0: 2b69 4fbc b5cf 97bc fb6f f8bb 4ec1 2ebc
000000e0: 34f7 473d 5321 11bc b21a 113d 82f8 56bc
000000f0: 484a 3f3d 802c cdb8 89db d9b9 c3a4 7d3c
00000100: 5449 3c3d 6660 edbc 175e 4fbc 47ba 4b3b
00000110: 9568 a73b 2764 2ebc da07 0c3c 5d3b 963b
00000120: 5241 2cbd a253 dd3b d08b 3abd 6910 173c
00000130: 83fc ba3b f6ec 38bd 0df7 c4bc 04e5 6f3c
00000140: 3fb1 2dbc 072b 44bb 689a 423d cf24 f13c
00000150: b747 28bc 7c29 83bb dbb6 73bc 26f1 c73c
00000160: e657 aabc c81e 86bc 2e24 d6bb c2a3 cdbb
00000170: 8618 bcbc 35b2 0dbd 9eea 31bb ec4d 933c
00000180: f503 933c 6ea0 84bc beaf e73c 3686 1bbd
00000190: 0642 2cbd 20e9 8a3c 71d8 36bc f98c c53a
000001a0: 530e 6d3c 92c2 0f3d edbf 1fbd ab6a ddbb
000001b0: 0118 42bc fb84 063d 71e0 2c3d f113 08bc
000001c0: 68a5 eb3c 5d31 d83b 08a7 26bc aec8 82bc
000001d0: eff2 90bb 9545 1e3d 833a f1bb 6163 dc3b
000001e0: 30ef 1bbd b4d9 b43b fe35 823c 0ae8 75bc
000001f0: 9e63 1e3d 5624 2f3d a0af 6ebc a69d 853a
00000200: 3806 013d 89bd ff3b 7e55 c0bc 64c3 b3bc
00000210: ae1f 2dbc 9beb 81bc 1ab1 b53b d992 033d
00000220: e9a0 693d 0ca4 073c 8ff3 2fbd 66ad 563d
00000230: a0ce 49bc c8cf 023d 5484 4e3d c730 49bd
00000240: 3e5f c63c bde5 d1bb a0fa 38bd b1ba c63c
00000250: 6d72 24bd 574a 86bb bc8f 3fbc 8b6a 053d
00000260: 15ed 423c dde7 ea3b f3fb 013b 5a93 413d
00000270: deee 4c3d 1a7e 9bbb 5347 4d3c 1557 4bbd
00000280: e22c 093d 47d1 14bd b895 eabb 6a35 6dbd
00000290: eaa9 313d 3f80 693a f42b 453c 9323 bb3c
000002a0: 8b33 063b 312d 29bc 38eb 03bd 53c5 4a3d
000002b0: ec79 b6bc d7e0 a63c bb93 a0bc 3c5d 553d
000002c0: 29a5 bf3c 3d3e 163d d78e c7bc afaa ca3b
000002d0: 2dd4 2ebd 1592 87bc c75a 163c a255 c3bb
000002e0: 6b9d eb3c 3488 c3bb 4a0d a43b ca69 be3c
000002f0: c8aa 823c 317f 893c 512b 4bbb e71d cbba
00000300: f603 61bc 80a7 12bd 21b6 31bd e6ec 99bc
00000310: ca56 c73c 67d0 bebb e9de 33bd c0f2 31bd
00000320: 8513 59bd 0199 cb3b 15cb 7cbc 5399 bdbc
00000330: 5c01 063d 7ea8 5bbc f51b f6bb 3445 003c
00000340: 4182 c2bb 3d70 babc 4f51 d63b 69eb 6f3d
00000350: 2f90 7b3c 036e e83c 27a7 ed3b ddd5 5f3c
00000360: 8c56 92bc 5a98 b9bb e6c1 d6bb c682 283c
00000370: 80c6 1c3d a780 f6bb ee2c 503c 64cb 22bc
00000380: d852 563d 16d3 05bc 73af 3ebc 0152 bebc
00000390: 3fcf 533d 1bbc 443d 337a 513c 7220 e03b
000003a0: 91bb f53b 16e3 e73c 30b5 e3bc d542 25bd
000003b0: 52a2 22bd a71b 593c e6b6 d83c 6191 a9bb
000003c0: 5f26 fcbc bd40 323b 58ae 4ebc f533 cb3c
000003d0: b005 42bc 27b2 163b 126a c2bc 0b47 b13c
000003e0: 9d10 99bc 9d47 543c 6700 423d 3f10 e1ba
000003f0: 1211 533d cba7 0c3c e6a1 19bc 534c 92bc

attention_layer.gate.bias f4 [128]
0.0023431317 0.0050118873 -0.0038059277 0.017309519 -0.023668755 0.03568417 -0.033480223 0.03368824
-0.0057193227 -0.031161128 0.011490303 0.023498913 0.05553753 0.003387771 -0.023537274 -0.0007288936
-0.04599363 -0.03497132 -0.056430522 0.019069927 -0.04116424 -0.035728935 0.002688436 0.03893741
-0.03474941 0.020134488 0.024394438 0.00076700025 0.035465956 0.024137432 0.00064463005 0.05216361
-0.03938794 0.058414046 0.034349293 0.00025629817 0.005194628 0.052711412 -0.004022457 0.0023445566
-0.051944017 -2.6803602e-05 0.01065505 -0.0017030486 0.060385227 -0.020377953 -0.050274983 0.027339099
-1.9327199e-05 0.0020229248 -0.023953063 0.008060336 0.001723258 -0.015640857 0.057641353 0.0055649285
-0.03453493 0.0021493565 -0.055184014 0.0024527637 0.021362845 -0.00738568 0.04633609 -0.0013501598
0.05489105 -0.008963251 0.0031222194 0.014827981 -0.033740047 0.052343555 0.017350439 -0.014075882
-0.005319143 0.006676635 -0.004095759 0.00048180137 -0.0012872932 -0.02797559 0.051590636 -0.009456616
-0.0056062452 -0.0011731539 -0.022773096 -0.043850504 0.039354607 0.004306111 0.0025607245 -0.003614367
0.04056586 -0.04045756 0.026317498 0.011742448 -0.05326916 0.046912253 0.033769473 -0.0025323262
-0.00043506382 -0.035554893 -0.02662151 0.015201989 -0.019853232 0.051506955 0.0016684129 0.013716696
0.030258762 -0.00083713117 -0.0009041186 0.030736161 0.00040748302 0.020690119 -0.03452401 -0.0028053864
0.0006892133 0.0033624803 0.024489453 6.8554796e-06 -0.029981198 -0.0022800127 0.05182102 0.00740431
0.044436596 0.005752288 0.038459804 -0.016417423 0.0025795228 -0.033058524 -0.029324923 0.028646572
00000000: 3a8f 193b c23a a43b df6c 79bb b1cc 8d3c
00000010: fae4 c1bc 9029 123d 8f22 09bd aefc 093d
00000020: 2869 bbbb 9f45 ffbc d341 3c3c cb80 c03c
00000030: 527b 633d 5e05 5e3b 3ed1 c0bc 3913 3fba
00000040: d163 3cbd 163e 0fbd b123 67bd 8938 9c3c
00000050: d69b 28bd 8158 12bd 7930 303b d57c 1f3d
00000060: 6655 0ebd 15f1 a43c d8d6 c73c 8410 493a
00000070: c044 113d ddbb c53c 64fc 283a 82a9 553d
00000080: 4055 21bd 9143 6f3d d8b1 0c3d c25f 8639
00000090: b337 aa3b ece7 573d d1ce 83bb 22a7 193b
000000a0: 40c3 54bd 4cd8 e0b7 8592 2e3c d438 dfba
000000b0: 8056 773d aaef a6bc 24ed 4dbd 3ff6 df3c
000000c0: d820 a2b7 0c93 043b 3739 c4bc 800f 043c
000000d0: f2de e13a 4121 80bc 5719 6c3d 015a b63b
000000e0: 8074 0dbd 38dc 0c3b a208 62bd 8cbe 203b
000000f0: 2201 af3c 9303 f2bb e9ca 3d3d d8f7 b0ba
00000100: 70d5 603d 99da 12bc 269e 4c3b 0ff1 723c
00000110: 0133 0abd 3266 563d 8222 8e3c 879e 66bc
00000120: 354c aebb acc7 da3b b735 86bb 499a fc39
00000130: 64ba a8ba 112d e5bc b450 533d ecef 1abc
00000140: 98b4 b7bb 83c4 99ba a58e babc 969c 33bd
00000150: 4c32 213d 471a 8d3b d4d1 273b 04df 6cbb
00000160: 6328 263d d4b6 25bd cb97 d73c 6663 403c
00000170: c330 5abd 1027 403d dc51 0a3d 62f5 25bb
00000180: 4719 e4b9 02a2 11bd 5a15 dabc c311 793c
00000190: 3fa3 a2bc f5f8 523d a6ae da3a febb 603c
000001a0: 39e1 f73c ec72 5bba 5f02 6dba 67ca fb3c
000001b0: 72a3 d539 537e a93c 0c69 0dbd 93da 37bb
000001c0: 52ac 343a 0f5d 5c3b 1b9e c83c 1f08 e636
000001d0: 219b f5bc 446c 15bb 4742 543d db9f f23b
000001e0: 2603 363d b07d bc3b 0788 1d3d d57d 86bc
000001f0: 360d 293b 6068 07bd d23a f0bc 37ac ea3c

attention_layer.w.weight f4 [1, 128]
0.014352862 -0.046094265 -0.02809974 -0.03829466 0.059968263 -0.014849286 0.027310781 -0.02576229
-0.0140774045 -0.03191446 0.009471938 -0.012462295 -0.027531324 0.010916362 0.031396184 -0.0553968
0.053024787 0.020797493 0.056713786 -0.017980523 -0.013642086 -0.052436262 0.015408593 0.043557823
0.019745136 0.019108815 -0.031975225 0.016313145 0.029237729 -0.058304004 -0.023074182 -0.03967991
-0.00044257657 -0.0499725 -0.0034090816 -0.009038185 0.06464405 0.05397313 0.029655304 0.05814863
-0.015069047 0.00092416443 0.03243686 0.02401891 -0.053539593 0.006736571 -0.07521136 0.0058548036
0.00711647 -0.037339836 -0.008009603 -0.016570726 0.02504236 -0.067565605 -0.06996723 0.06418317
0.065390736 0.044531763 0.056710098 -0.0038363542 -0.0644179 -0.005963579 0.03826448 0.009462749
-0.031252597 -0.0321222 -0.065262966 -0.0072912346 0.019531941 -0.05203607 -0.024132947 -0.055038884
-0.01984602 -0.06642538 0.028048223 0.0047251154 0.041643456 -0.02532987 0.050951164 0.028162766
0.0015323663 0.035263143 0.019154364 -0.07061685 -0.027956733 -0.06900011 -0.04696968 -0.062973015
0.03998894 0.08114394 -0.034255076 -0.02096019 -0.06816157 -0.037173748 0.050577383 -0.056001887
0.047229633 0.009199395 0.017239168 -0.009462601 -0.0025293317 0.0063340263 0.027050655 0.04775614
-0.040963028 -0.0017811324 0.07268018 0.023861853 -0.040839884 0.0560217 0.052700773 -0.015581511
0.0048482246 0.031736292 -0.05108141 -0.0079437345 0.058500938 0.028514072 -0.014706166 0.008607255
0.04036672 -0.031354174 0.042698763 -0.022831345 -0.06699634 -0.04166411 0.017800568 0.02338656
00000000: 4428 6b3c 57cd 3cbd 6d31 e6bc ddda 1cbd
00000010: 48a1 753d 6b4a 73bc dcba df3c 700b d3bc
00000020: eaa4 66bc bdb8 02bd 3030 1b3c a72e 4cbc
00000030: 5f89 e1bc 8ada 323c 4999 003d c1e7 62bd
00000040: 8530 593d 815f aa3c b74c 683d e44b 93bc
00000050: 0e83 5fbc 68c7 56bd 5374 7c3c b069 323d
00000060: 8dc0 a13c 178a 9c3c 74f8 02bd 25a3 853c
00000070: f683 ef3c 2ed0 6ebd 1106 bdbc 6787 22bd
00000080: 9f09 e8b9 f7af 4cbd e66a 5fbb e514 14bc
00000090: 1a64 843d ee12 5d3d aeef f23c 422d 6e3d
000000a0: 2ae4 76bc a043 723a 83dc 043d 4ec3 c43c
000000b0: 554c 5bbd 74be dc3b 6a08 9abd a7d9 bf3b
000000c0: 4731 e93b a8f1 18bd b63a 03bc 55bf 87bc
000000d0: a325 cd3c d65f 8abd fb4a 8fbd 7772 833d
000000e0: 94eb 853d f066 363d d948 683d 586b 7bbb
000000f0: 88ed 83bd 206a c3bb 37bb 1c3d a509 1b3c
00000100: b902 00bd 9192 03bd 97a8 85bd 4feb eebb
00000110: 7301 a03c c623 55bd 75b2 c5bc 7470 61bd
00000120: 1f94 a2bc 080a 88bd 63c5 e53c 24d5 9a3b
00000130: 5492 2a3d 9680 cfbc 2bb2 503d 9ab5 e63c
00000140: aed9 c83a 1670 103d 9de9 9c3c 919f 90bd
00000150: 8505 e5bc ee4f 8dbd 4763 40bd fff7 80bd
00000160: 71cb 233d cb2e a63d 0d4f 0cbd b4b4 abbc
00000170: 4b98 8bbd 8043 18bd 3b2a 4f3d 3c62 65bd
00000180: dc73 413d 0fb9 163c 2839 8d3c 0609 1bbc
00000190: 25c3 25bb aa8d cf3b 5699 dd3c f19b 433d
000001a0: d9c8 27bd e374 e9ba 59d9 943d ef79 c33c
000001b0: b947 27bd 0377 653d c4dc 573d 9849 7fbc
000001c0: dbdd 9e3b eafd 013d be3a 51bd 7026 02bc
000001d0: ae9e 6f3d 5896 e93c 22f2 70bc 7205 0d3c
000001e0: 9357 253d 3c6d 00bd e6e4 2e3d cd08 bbbc
000001f0: 6135 89bd fca7 2abd 7fd2 913c 2c95 bf3c

mlp.0.0.weight f4 [128, 128]
0.006078232 0.025724264 0.050062172 -0.0026607448 0.039128043 0.007872667 0.041621104 0.0038592934
8.37198e-12 1.3030056e-12 -0.032757718 0.017820394 -0.008444243 0.010609718 -2.806944e-05 0.03499273
-0.04708672 -7.188355e-05 -0.046645433 6.752119e-13 7.3050416e-10 0.0040822797 0.030110337 -0.043194994
0.007333227 0.00038022708 -1.2108361e-09 -0.03810834 0.0062027182 -0.018625375 -0.040165 -0.001342488
-0.0046444233 -1.0074473e-08 -4.794207e-13 0.021896997 0.046389848 -0.018182505 0.027749974 0.05173479
-0.03276398 -0.04593777 0.0016247749 0.022736263 -0.0140909 9.8680015e-09 -0.04467978 -0.027844798
0.024663309 -0.015162551 0.038448554 -0.046448432 -5.3006253e-05 -0.001650089 0.003026172 0.037325468
-0.00011707571 -0.012647639 0.035199188 -0.022466525 -0.018834485 -0.0001857409 0.025918182 0.00426081
-3.3968693e-06 -0.006461785 -0.033685308 0.032741416 -0.005614492 -7.174641e-05 -0.027351685 0.028158156
-0.00028058447 -0.001462663 0.0012732362 0.023032222 0.0055876034 -0.02168749 0.0076817423 0.0026748392
0.011166299 -0.015009449 0.046556443 0.031831905 0.007588343 7.1243285e-12 -0.03424609 0.024465522
-0.0048034363 0.009043172 0.00031710428 0.021576326 0.012469265 0.0015670527 -0.045468833 -0.0005704571
0.018749308 -0.045989115 -0.033225004 0.048907023 0.018559275 0.0008897977 -0.00034362642 -0.00041622843
0.03408713 -0.0018818611 -0.012737238 -0.007367913 -0.0001324559 0.035896026 -2.1944467e-12 -0.044550855
-0.0014957992 -0.027598582 -9.978116e-14 -0.04351399 -0.0003127828 -0.012965449 0.042167418 0.010415755
0.0017169998 -0.0088535 0.048526593 -0.029691074 0.012345192 7.345431e-05 0.043598037 5.325582e-12
0.0033755328 0.047871135 0.049303316 0.004636157 0.026183475 0.045844268 0.011611126 0.001461296
-0.03570345 0.0054694517 0.015302191 0.0019578047 0.029553492 -0.04932824 1.6092704e-12 0.006954498
-0.0041483296 0.0057598115 -0.021288672 -0.051055014 -7.69736e-11 9.654169e-09 0.025676617 0.039364826
-0.04038446 1.7608892e-05 2.1137489e-10 0.02772144 8.357541e-05 -0.036239494 -0.012516197 0.043567017
-0.02912306 -0.001934579 -0.00091623777 0.029501425 -0.009363711 1.5761941e-09 -0.0035066868 9.695202e-06
0.00017095885 -8.476081e-09 6.121259e-11 0.00027022726 3.791057e-12 -9.965034e-10 -0.03146586 -2.3547733e-12
3.6808373e-12 1.3746495e-12 -0.007850673 0.04526833 0.002684517 0.00044429998 0.008048384 -0.0010389298
-0.01520287 -1.0985868e-13 -0.03467756 -0.01681281 0.049112294 -4.1110897e-09 -0.0094143525 0.013587704
4.86705e-10 0.03266435 0.004532392 0.040375788 -0.009462534 0.00026378167 -0.013410362 -0.012621207
-0.021834679 -0.00046062208 -0.03616357 -5.3719036e-06 -0.009815154 -0.012424906 -0.044775125 -0.00019255783
0.038815495 -0.04996201 0.03093878 -7.2524175e-13 2.7146054e-06 -0.0015871403 -0.019738717 -0.050464563
-0.0053573023 6.5581117e-12 -2.6293914e-13 -0.04088564 0.011185712 0.052107528 0.00012630221 -2.2199457e-13
-0.022455676 -1.3294298e-12 0.00018417157 -7.4409417e-07 -0.0014352532 -0.013344371 0.0005165272 0.004253167
-1.492736e-06 -0.0029854656 -0.0056639863 0.05006069 -0.03399389 -0.0003485469 -2.1502113e-10 -0.018910123
-0.00010084015 0.006595463 -0.013195985 -0.037275456 -0.046986487 0.04618118 -2.3402805e-12 0.048640314
0.024611507 -2.5251985e-13 -7.733072e-13 -0.03287832 0.010329944 -0.051360346 -0.020657657 -0.021316327
00000000: e82b c73b b1bb d23c fe0d 4d3d e45f 2ebb
00000010: ba44 203d 5cfc 003c e47a 2a3d 33ec 7c3b
00000020: 0c48 132d b961 b72b f52c 06bd 13fc 913c
00000030: b959 0abc 62d4 2d3c aa76 ebb7 8954 0f3d
00000040: 01de 40bd 30c0 96b8 480f 3fbd 250e 3e2b
00000050: a9cc 4830 a5c4 853b f4a9 f63c 3ced 30bd
00000060: 914b f03b 3759 c739 826a a6b0 7e17 1cbd
00000070: 2c40 cb3b 3e94 98bc 0e84 24bd 6cf6 afba
00000080: 3f30 98bb 0014 2db2 e7f1 06ab 5561 b33c
00000090: 4803 3e3d 7af3 94bc ea53 e33c dce7 533d
000000a0: 8633 06bd 3e29 3cbd 66f6 d43a 6641 ba3c
000000b0: 85dd 66bc ee87 2932 2502 37bd c61a e4bc
000000c0: b50a ca3c 596c 78bc 3b7c 1d3d b640 3ebd
000000d0: 0853 5eb8 cd47 d8ba be52 463b 97e2 183d
000000e0: 8b86 f5b8 0b38 4fbc 062d 103d b80b b8bc
000000f0: c74a 9abc 71c3 42b9 5e52 d43c 449e 8b3b
00000100: c5f5 63b6 62bd d3bb 9bf9 09bd dd1b 063d
00000110: c6f9 b7bb 9076 96b8 a410 e0bc efab e63c
00000120: 691b 93b9 d4b6 bfba b8e2 a63a 12ae bc3c
00000130: 3718 b73b f7a9 b1bc 20b7 fb3b 5b4c 2f3b
00000140: daf2 363c 31ea 75bc f8b1 3e3d 2c62 023d
00000150: a3a7 f83b 3faa fa2c a145 0cbd eb6b c83c
00000160: 2566 9dbb d029 143c 0441 a639 d6c0 b03c
00000170: e34b 4c3c 9065 cd3a 873d 3abd ba8a 15ba
00000180: 2698 993c 155f 3cbd f116 08bd bb52 483d
00000190: 9f09 983c 5041 693a c228 b4b9 3c39 dab9
000001a0: f29e 0b3d c8a8 f6ba d9af 50bc 896e f1bb
000001b0: dce3 0ab9 b607 133d a36b 1aac f57a 36bd
000001c0: b10e c4ba 6c16 e2bc ecaf e0a9 ba3b 32bd
000001d0: fffc a3b9 096d 54bc beb7 2c3d d8a6 2a3c
000001e0: f40c e13a 450e 11bc d2c3 463d b23a f3bc
000001f0: 7d43 4a3c 7b0b 9a38 db93 323d 9460 bb2c
00000200: 0b38 5d3b 8614 443d 46f2 493d e7ea 973b
00000210: ba7e d63c 33c7 3b3d 983c 3e3c f588 bf3a
00000220: c83d 12bd 1639 b33b 0ab6 7a3c 834e 003b
00000230: 2a1a f23c 690c 4abd 147c e22b 8fe2 e33b
00000240: b6ee 87bb cdbc bc3b 9565 aebc 101f 51bd
00000250: 4944 a9ae 7cdb 2532 c557 d23c 033d 213d
00000260: 2d6a 25bd cfb6 9337 be68 682f 1318 e33c
00000270: 3545 af38 dd6f 14bd bc10 4dbc 5473 323d
00000280: 7c93 eebc b391 fdba ad2f 70ba f9ac f13c
00000290: 406a 19bc 66a1 d830 71d0 65bb 93a8 2237
000002a0: 6b43 3339 339e 11b2 a09b 862e 4aad 8d39
000002b0: ce62 852c 59f5 88b0 58e2 00bd d3b3 25ac
000002c0: 0982 812c f876 c12b 1ca0 00bc 496b 393d
000002d0: b9ee 2f3b eff0 e839 5fdd 033c b32c 88ba
000002e0: 7515 79bc 3861 f7a9 0f0a 0ebd 05bb 89bc
000002f0: f929 493d 8741 8db1 a83e 1abc f69e 5e3c
00000300: d2c8 0530 0ecb 053d 7684 943b 1561 253d
00000310: bf08 1bbc 2d4c 8a39 23b7 5bbc 2ec9 4ebc
00000320: a4de b2bc a67f f1b9 4020 14bd 4d40 b4b6
00000330: bdcf 20bc d591 4bbc 1f66 37bd 59e9 49b9
00000340: fffc 1e3d f7a4 4cbd 5373 fd3c 2d23 4cab
00000350: 912c 3636 9707 d0ba 17b3 a1bc eeb3 4ebd
00000360: 4f8c afbb 38be e62c 8605 94aa b377 27bd
00000370: 4744 373c b46e 553d fe6f 0439 94f1 79aa
00000380: f7f4 b7bc c219 bbab 2e1e 4139 c3bd 47b5
00000390: 1b1f bcba 59a2 5abc 8e67 073a 275e 8b3b
000003a0: 055a c8b5 cda7 43bb f698 b9bb 700c 4d3d
000003b0: 2d3d 0bbd 2cbd b6b9 116b 6caf 67e9 9abc
000003c0: 257a d3b8 c11e d83b f933 58bc 26ae 18bd
000003d0: e774 40bd 7a28 3d3d bfae 24ac 113b 473d
000003e0: 129e c93c f227 8eaa a8aa 59ab 6bab 06bd
000003f0: ed3e 293c 3a5f 52bd 3f3a a9bc 949f aebc
