dataset/models/CCCA_MetaProg_MP18.Interferon.MHC.II.II/model.pth (torch, 696702 bytes, 14 tensors)

tiles_emb.hidden_layers.0.weight f4 [128, 768]
00000000: 470f 9b3c b121 a0bc bc82 44bb 0c4f 853c
00000010: c507 a0bb c1ee 603c 01d2 943c bc08 273c
00000020: 44fd e8bc 0bdf 81bc 0051 f5bc 6662 99ba
00000030: 67b5 503d d451 e3bc 1dc0 7bbc ece1 f2bc
00000040: ffb1 cdba f4b3 e5bc 4c36 123a 57c4 843b
00000050: 68da a9bc 8374 663b 0d85 89bb 0f20 c4bc
00000060: 492d 123c 5d22 a0bc dcde 253c 6fd9 4ebc
00000070: 444b 40bd 2f5d 7f3c b91c 173d ac5b 8e3b
00000080: 6d35 463c 17f5 a73b db63 1a3d 1324 f63c
00000090: 8c83 07bd c90e 393c 10ea 53bc 4cc8 32bc
000000a0: 8954 80bc c2c3 ffbb d6e2 23bc 1386 19bc
000000b0: c28e f83b f45a a6bb c90f d03c d9f7 893c
000000c0: 8d5e 5f3c c05a aabc 52fb 483d 7829 6eb9
000000d0: 87a9 4fbc 6e09 09bd fe74 ad3c 3265 bc3c
000000e0: 0030 8eba a745 163c f873 33bd cc6e ab3c
000000f0: 74bf 8fbc 80d4 acbc d049 41bd 499d 063d
00000100: 34cb 0bbd c960 973b 2469 4b3c 26b5 1dbd
00000110: f686 05bd 9238 9d3c e8dc e33c 6b19 bebc
00000120: fc64 ecba 9265 9cbb e4fe 09bd b1bf 3b3c
00000130: f9cd 96bc b656 e53c 5a63 123d 179d 58bc
00000140: 0394 3abb 128e ebbb 01e1 f2bc 7342 393c
00000150: 2c5a 873b 4871 fc3c da28 913c ed5d 22bb
00000160: 2050 e1bb d300 e6bc 9fbc 603d fafc 153c
00000170: 80ec 173c 389a 8bbc 2023 88bc 4b45 90bc
00000180: 0333 d23c 73ff c5bc 88c3 343c 56e1 18bd
00000190: a0e2 603a 3d85 0b3c ff28 473c a3db 23bd
000001a0: f073 873c 2ec7 b83c 85f6 87bc 1b57 01ba
000001b0: e6a7 a1bc 6d43 a43c 0397 f2bc cbc1 753c
000001c0: b627 553c 0c5b 94bc f41f 44bc e300 3639
000001d0: 112e f7bb c03b 453a 31fa eebc 79c6 f33c
000001e0: 439e aebc 6dea ea3b 5da1 853b fb71 6abb
000001f0: 1adc e43c 2dfb a638 db98 dabc 5d34 65bb
00000200: 4016 f3bc 711c 803c 3605 ac3c 679f 9fbc
00000210: 23e0 d3bc a076 7a3b 8c36 ca3b 8472 a9bc
00000220: 7b4c 77bc 39de 09bd 429f b83b 1b08 de3c
00000230: b6c1 813c bbee 8ebc 4f92 debc 2063 40bc
00000240: 6dda 3c3c 2168 623c 9d42 b33c 014d 703c
00000250: 651e 913a f729 21bc c3e9 a0ba 1b76 1f3c
00000260: 9b46 58b8 3da2 cabc 120b 9dbb bd54 94bc
00000270: 9de0 c43a b4cc 8dbb 0611 b8bc 2686 ec3c
00000280: 8c5b 843c cc11 6fbc 2bd3 80bc 572e a33c
00000290: 243e 0a3c 5101 c4bc 75ff a13c fb87 ed3c
000002a0: 5bbc 05bd 30b7 053c 8240 a3bb cda6 e7ba
000002b0: 98e0 00bc 3d76 d4bb 336b 72bc 72d3 d0bc
000002c0: d4c0 76bc 08a2 b83c 2e20 d1bc 700b 963b
000002d0: 10ab d03c ec38 e33a b7d8 623c ef74 f83a
000002e0: ed5e 05bd e16f aabc b0d7 123b 2230 ccbc
000002f0: 1ed5 1e3c e38f 373c 3373 53bc 91aa 7fbb
00000300: f0fb b9bb f254 493b a4dc 5dbc ad7b bd3b
00000310: b7b0 cc3b 2e36 2fbd 1ae3 8ebc ab4b cdbc
00000320: 1681 b23c fb1d e23c 85b7 7b3c 2227 debb
00000330: ed56 463c f55c e23c 81ba 183d 191f a43c
00000340: 2aae 07bd c50f 993c b3cd 443d c4af 0a3d
00000350: ed06 2f3d e50a edbb 601f c8bc 63ae 3abb
00000360: 83ef e0bb c96e e3bc 0235 82bc 74ff 15bc
00000370: 1d95 07bd 0f37 423c ac69 5e3c d79c 743c
00000380: 710d 4b3c 94c4 51bc f54c 13ba 5d90 84bb
00000390: f548 babc 6679 1cbd 3a3d 6dbc b792 fe3c
000003a0: 0fff d23c 299d 97bb 7a60 3abc f49d b1bc
000003b0: bde7 4b3a e49c d5bb 7a34 5cbc e681 3f3c
000003c0: 27cc 213c 79ce febc abb2 a93c 8b35 69bc
000003d0: a5ee e23b 4d67 cd3c 406c 23bc 07fc 6cbd
000003e0: 910d e13c 176f 64bc 2507 f9bb fd4c 69bc
000003f0: 3ccd 9d3c bba0 f23c 8e0d a7bc 3ab4 20bd
0.018928183 -0.019547315 -0.002998515 0.016273044 -0.0048837387 0.013728798 0.018166544 0.0101949535
-0.028441079 -0.015853425 -0.02994585 -0.0011702299 0.05095425 -0.02774898 -0.015365628 -0.029648744
-0.0015693306 -0.02803991 0.0005577549 0.004051726 -0.020734027 0.0035164661 -0.004196769 -0.023941068
0.00892193 -0.019547636 0.010123935 -0.012625082 -0.04694678 0.015586182 0.036892626 0.0043444242
0.012097699 0.0051256525 0.037692886 0.030046498 -0.033084437 0.011295029 -0.012934223 -0.010912012
-0.01566531 -0.0078053186 -0.010002812 -0.009370345 0.0075853774 -0.0050767604 0.025398152 0.016841816
0.0136333825 -0.020795226 0.049067803 -0.00022712897 -0.012674696 -0.03345626 0.02117395 0.022997472
-0.0010848045 0.00917188 -0.04381177 0.020926856 -0.017547347 -0.021097422 -0.047189534 0.032864843
-0.034129336 0.004619692 0.012415204 -0.038502835 -0.032599412 0.019192014 0.027815297 -0.02320548
-0.0018035467 -0.0047728503 -0.03369035 0.011459277 -0.018408762 0.027995449 0.03573928 -0.013221047
-0.002846957 -0.007188567 -0.029648306 0.011307347 0.0041306224 0.030815735 0.017719675 -0.0024775222
-0.0068760067 -0.028076565 0.054867383 0.009154553 0.009272695 -0.01704131 -0.016618311 -0.017611166
0.02565909 -0.02416966 0.011032946 -0.037324272 0.00085786916 0.008515653 0.01215577 -0.040004384
0.016534775 0.022555914 -0.016597042 -0.0004933939 -0.01973338 0.020051682 -0.029613024 0.014999817
0.013009956 -0.01810982 -0.011970509 0.00017357203 -0.0075433333 0.0007523857 -0.029172035 0.029757725
-0.0213157 0.007169059 0.004078074 -0.0035773504 0.027936984 7.962282e-05 -0.026684215 -0.0034973838
-0.029673696 0.015638562 0.020998579 -0.019485189 -0.025863713 0.0038217679 0.0061710533 -0.020684488
-0.015093918 -0.033659194 0.0056342194 0.027103474 0.015839439 -0.01744782 -0.027169375 -0.011742383
0.011526686 0.013818772 0.02188235 0.014666797 0.001107168 -0.009836665 -0.0012276698 0.009732748
-5.156417e-05 -0.024735564 -0.0047925794 -0.018106813 0.0015020553 -0.004327381 -0.022469055 0.02887256
0.016156934 -0.014591645 -0.015725693 0.019919557 0.008437667 -0.023926409 0.019775132 0.028995505
-0.032650333 0.008161351 -0.004982055 -0.0017673612 -0.007866047 -0.0064838217 -0.014796066 -0.02549145
-0.015060622 0.0225382 -0.02552804 0.004579 0.025472194 0.001733569 0.013845614 0.0018955747
-0.03256123 -0.020805301 0.0022406392 -0.024925295 0.009694366 0.011203739 -0.012905884 -0.0039011578
-0.0056757852 0.0030720797 -0.013541374 0.0057825656 0.006246652 -0.04277628 -0.017442275 -0.025060495
0.021790069 0.027602186 0.015363579 -0.0067795673 0.012105686 0.027632216 0.03728724 0.02003436
-0.03312508 0.018684277 0.048047733 0.03385903 0.042731214 -0.0072339647 -0.024429023 -0.002848529
-0.0068644895 -0.027762787 -0.015894417 -0.009155143 -0.03310119 0.011853947 0.013574999 0.014929972
0.012393341 -0.0128032155 -0.00056190725 -0.0040455298 -0.022739867 -0.038201712 -0.01447993 0.031075818
0.025756387 -0.0046268892 -0.011375541 -0.021681763 0.0007778367 -0.006518947 -0.013440246 0.011688685
0.009875334 -0.031104313 0.020715078 -0.014233957 0.0069254213 0.025073672 -0.009974539 -0.05785754
0.02747229 -0.0139425015 -0.0075997286 -0.014239547 0.019262902 0.029617658 -0.020392206 -0.039234377

tiles_emb.hidden_layers.0.bias f4 [128]
00000000: 9cd1 50bc 1e2b 863b f306 943c 88c8 c2bc
00000010: cc26 61bc 0949 113d 542f f8bb d35e 23bc
00000020: 7aed 3638 92b8 d93c 056b ec3b 51bb 32bc
00000030: 61fc 8cbc 2fb9 1ebb 8321 cd39 46e2 643c
00000040: d088 213d 0cb6 cebb d743 ccbb 5459 3bbc
00000050: 57d3 cbbc b279 d13c d532 be3c ab0d 8dbc
00000060: c147 9f3b 6d45 8c3c aaa9 033b 7215 a2bb
00000070: efe1 82bc b610 0cbb 4db1 353c fa1b 0dbc
00000080: e5c2 a43c cbd8 76bb b5a3 0b3d 8736 bcbc
00000090: 6e94 c1bc b3af 41bc de09 913c dd0c 33bc
000000a0: 8357 42bb d452 43bc fb48 4f3c dbd2 083d
000000b0: b430 e13c d16d cebb 85db b3bc 1011 a43b
000000c0: a772 bb3c fafc 04bc ecb2 013c b5de 613c
000000d0: 97d4 21bc 8ad7 bc3a 49c0 c53c 496b b4bb
000000e0: d03d 4e3b f9d6 af3c f07a 093d e5a3 573c
000000f0: ed50 57bb 3a6b c83c 936a 483c 52e0 953c
00000100: 15bf 7f3c 60d8 803b d2e7 5abc 1d3a d03c
00000110: bd62 0d3d e195 5c3d 16a9 d73c 659a db3c
00000120: d4f3 1a3c 7e6b 4f3c bd1e 02bc 6f15 f93b
00000130: 998e 3fbc 8a16 2fbc cb9d 4b3b e7f8 87bc
00000140: e546 85b9 2a74 8dbc 443c a3bc 88d5 da3b
00000150: bb87 ebba 3a0d 5ebc 5e2a cd3a 3ce9 c9bb
00000160: 665a bbba b107 66bc 40c2 d3ba 9aba d63c
00000170: f5fe a03c 02ab 7dbc 32ff c7bc c43f 183b
00000180: 9830 d4bc 1b48 7fbc 00ce 7e3c 22ac ddbc
00000190: 9ed9 0fbc bd29 27bc 266e 013d 96aa f83c
000001a0: 3be6 44bc 07fc 323d 685e c53c 1212 053d
000001b0: 1d45 f53b 5746 cdbb aec9 dfb0 df11 093d
000001c0: 134a 393c 1294 52bb 2aac a4bc 9b6a 653c
000001d0: bbda d33b 4540 62bc f578 c3bc 0419 93bc
000001e0: 49ab 8bbc 1f52 c3ba 88fb b6bb c369 4e3c
000001f0: 6a26 1a3d c4de 6c3a f145 2c3d 25e9 b6bc
-0.012745287 0.0040944954 0.01806972 -0.023777261 -0.01374216 0.035470042 -0.0075740013 -0.009971338
4.361335e-05 0.026577268 0.007214906 -0.0109089175 -0.017210187 -0.0024219265 0.00039125615 0.013969963
0.039437115 -0.006308323 -0.006233673 -0.011434872 -0.024881048 0.025570724 0.023217598 -0.017218431
0.0048608487 0.017122949 0.0020090141 -0.004946404 -0.015976874 -0.0021372265 0.011089635 -0.008612627
0.020112464 -0.003766584 0.03409167 -0.02297522 -0.023630347 -0.011821675 0.0177049 -0.01092836
-0.0029654212 -0.011921603 0.012651677 0.033404212 0.027489044 -0.006299712 -0.021955261 0.005006917
0.022881819 -0.008116955 0.007916193 0.013786008 -0.0098773455 0.0014407497 0.02413954 -0.0055059534
0.0031469949 0.021464812 0.033564508 0.013161634 -0.0032854632 0.024465192 0.0122324405 0.01829544
0.015609522 0.003932044 -0.013360934 0.025418336 0.034517992 0.053853873 0.026325744 0.02680702
0.009457547 0.0126599055 -0.007941899 0.007601432 -0.011691713 -0.010686526 0.0031069394 -0.016598178
-0.00025420557 -0.017267305 -0.019926198 0.006678287 -0.0017969528 -0.013552958 0.0015652885 -0.006161837
-0.0014293909 -0.01403992 -0.0016155913 0.026212025 0.019652823 -0.015482666 -0.024413679 0.0023231367
-0.025902078 -0.015581156 0.015552044 -0.027059618 -0.008779911 -0.010202822 0.031599186 0.03035478
-0.012017782 0.043697383 0.024092868 0.032487936 0.0074850456 -0.0062644887 -1.6282706e-09 0.03346431
0.011309165 -0.0032131714 -0.020101625 0.0140024675 0.0064652837 -0.013809268 -0.023861388 -0.017956264
-0.017049449 -0.0014901793 -0.005584184 0.012598458 0.03763429 0.000903588 0.04205889 -0.022327969

tiles_emb.hidden_layers.2.weight f4 [128, 128]
00000000: c148 a53c adb1 27bd 6871 a33d cd3e 433d
00000010: e27c 833c 6418 503c 5feb 9c3d 9b61 2c3d
00000020: 9594 2abd 24d4 873d d1ea c13d 56d2 84bc
00000030: 0dec bd3c 51d9 b1bc bdcf e23c 6e44 9bbc
00000040: 91c0 a2bd 379c 993a 7cb4 a63d 9d81 d8bd
00000050: 0dc3 c63c acda 983d 5b49 823d 35be 323b
00000060: c9f3 223d 773f 583c 2058 8b3d 32cb 9a3d
00000070: 5648 cbbc f0da 51bd 3340 213d bf37 5a3d
00000080: b618 c2bd b6cf 123d 5f3b 873d cae2 6d3c
00000090: 5e30 e93c bd4a 06bd 3095 b8bc f360 b03d
000000a0: 129a 953b c5f0 fd38 d416 a13c 4471 c93c
000000b0: 7d7e a13c 428f bf39 33fe 093d 57d1 edbc
000000c0: 4df5 9f3d f317 5a3d 5223 08bd fb38 e63b
000000d0: 17ce 85bd d5d1 c0bd c2f3 1d3d 442d 903d
000000e0: 2418 233b a396 c1bc d3da a43c ae9a 543d
000000f0: 06b0 b7bc a131 a73d 2e6f af3c 274b 97bc
00000100: 1da4 7abd 0214 c3bd 415a 28bc 27f0 18bd
00000110: df3f 6a3d 69f7 07bd 7ee9 203d cf48 ca3c
00000120: b3d6 a23d c14b e93c 39da b13c 5bd2 cabc
00000130: d3c7 883d e7eb 5d3c 93dd 713d 8abe 223d
00000140: 28bb 883b cf44 7b3d 6606 f13c 86aa 92bd
00000150: 223a aebd c6c1 16bd 4a5f 5d3d d739 c83c
00000160: 0148 31bd 38ea 9b3c daef 253d 1272 2a3d
00000170: f2fc 5f3d 0b7a 0e3d 54b6 fd3c 558d 443c
00000180: 0921 d5bb 5fa3 273d 50f8 94bd 6191 183d
00000190: 7e77 dabc 3c69 8c3d 7af3 8bbd 0402 90bd
000001a0: 72ea 80bd 3059 9dbd 74a4 c2bd a12c 1a3d
000001b0: 7bb9 bfbc 6cf9 5dbd 575b 23bd 22d5 93bd
000001c0: 8964 ba3d 851a 543d 391d a0bd 9d5e 543d
000001d0: dfbf acbc 0835 633d a2fb 243a 2ec6 693d
000001e0: dc90 21bd 78d7 0dbd b85e 183c ef64 203d
000001f0: fd5c e63c d61c 97bd c06d 62bd 785a 12bd
00000200: 378b 1c3d e29c 063d b2c7 8e3b 9844 a4bd
00000210: 528c febb 3e8e 2f3d 283a 273d 9dc6 a1bd
00000220: d5bf ee3b 6fdb 753d 9653 623d b472 293d
00000230: 7ef4 353c fa77 cc3c 59e1 843d 04d4 483c
00000240: 6d20 ea39 93e5 71bd d1b0 7fb8 b485 38bc
00000250: 7b10 b4bc 9332 bebd 2759 fdbc 72bc babb
00000260: d4b5 473d 8fb4 63bc bb9c 633d 5449 103d
00000270: a2f8 5b3c cab2 06bb 573f 7ebd 8861 75bd
00000280: 93ba 12bb 7db0 85bc 8eee ee3c f89e ae3d
00000290: 11ce f9bb 130d 903d 8753 c3bc acb2 22bd
000002a0: b78b e53c a683 853c 1ba5 29bb f5c5 3ebd
000002b0: 5e2e 4fbc 3b87 213d 3f3f b9bc 3d85 9d3c
000002c0: 16b4 2cbb c2ec 053d 1f98 993c 95e1 76bd
000002d0: e3af ba3d 0f2b 003d a2a5 67bd fa63 833c
000002e0: bced 8ebc a899 62ba 6e41 5abd 3131 a7bc
000002f0: 8139 30bd b2c4 023d cd4d 4bbc 52e6 f9bc
00000300: 4f05 623d 371f 943d cdbe 3f3c b60d 5e3c
00000310: 3a2c 3c3d c812 983d 1fe9 39bd c3f5 433c
00000320: 9e0b 123d df0a 8e3c 50b1 573d e2a3 62bd
00000330: e2f1 27bd 78d5 7abd 8aeb 2cbd d176 79bc
00000340: 3d5a 82bd 869e 30bc 41ef 8cbc 30a5 cf3b
00000350: ea58 983c 5874 0cbb 813a 853d aec7 03bd
00000360: 8d08 7a38 3974 b9bb 4510 51bc f292 b23d
00000370: 6a0c 6abd 5935 64bc 3d53 a5bd 8537 d53c
00000380: 739e c13d d621 6b3d 9700 443d 6f46 88bc
00000390: 1a9b 883d d06b 85bc 7616 6c3d cc57 a53d
000003a0: 9857 7d3d 8781 6f3d 9891 883d 7b3a 0e3b
000003b0: 5634 67bd 4513 a6bc 343c 403d a2e5 403c
000003c0: 7688 213c 3c13 e03b 1e41 9d3c 3326 573d
000003d0: 137f 2b3d 43a5 b23b e294 d23a 6d8f 90bd
000003e0: 9183 a23d 4043 3ebd 72cd 8cbc f6f8 a3bd
000003f0: 7c03 acbc c549 ab3d 20d2 983b 2f5c 54bd
0.020176293 -0.04094093 0.07980615 0.047667313 0.01605076 0.012701128 0.07662081 0.04208527
-0.041645605 0.066322595 0.09468616 -0.016213577 0.023183847 -0.02171007 0.027686948 -0.018953528
-0.079468854 0.0011719529 0.081398934 -0.10571597 0.02426293 0.07463583 0.06361648 0.0027274017
0.039783273 0.013198725 0.06803918 0.07558288 -0.024814766 -0.051234186 0.039367866 0.05327582
-0.094773695 0.03584262 0.06603121 0.014519403 0.028465446 -0.03278612 -0.022532076 0.086122416
0.0045654858 0.00012108827 0.019664206 0.024590142 0.019713635 0.00036537094 0.03368969 -0.029030485
0.07810459 0.053245496 -0.03323681 0.0070258356 -0.06533449 -0.09415022 0.038562544 0.07039884
0.0024886215 -0.0236314 0.020123875 0.051905327 -0.022422802 0.08163763 0.02141532 -0.018468453
-0.061191667 -0.095253006 -0.010275424 -0.037338402 0.05718982 -0.033194933 0.039285176 0.024692921
0.07951107 0.028478505 0.021710502 -0.024758508 0.066787384 0.013545013 0.0590492 0.039732493
0.0041727014 0.061344918 0.029421996 -0.07161431 -0.08507182 -0.03680589 0.054045953 0.024441643
-0.04328156 0.019032583 0.040511943 0.041612692 0.054684587 0.034784358 0.03097073 0.011996587
-0.0065041822 0.040927287 -0.07273924 0.03724802 -0.026668306 0.06856009 -0.06833549 -0.070316344
-0.06294717 -0.07683027 -0.09504023 0.037640218 -0.023403874 -0.054192945 -0.03988203 -0.07218386
0.09101207 0.051783103 -0.07818074 0.051848043 -0.021087585 0.055470496 0.00062936 0.057073765
-0.03944479 -0.034629315 0.009299926 0.039158758 0.028120512 -0.07378547 -0.055280447 -0.03573081
0.038218703 0.03286446 0.0043573016 -0.08020896 -0.0077681923 0.042860262 0.040826946 -0.078992106
0.0072860518 0.06002372 0.055255495 0.041369155 0.011105655 0.024959553 0.06488294 0.01225758
0.00044656117 -0.05905683 -6.096141e-05 -0.011262346 -0.021980515 -0.0928699 -0.0309263 -0.005698734
0.04875739 -0.013898029 0.05556939 0.03522618 0.013425978 -0.0020553344 -0.062072124 -0.059907466
-0.002238904 -0.016319508 0.029166486 0.08526415 -0.007623442 0.07033744 -0.02384354 -0.039721176
0.028020723 0.016298126 -0.0025885764 -0.046575505 -0.012645332 0.039435606 -0.022613166 0.019228572
-0.0026352457 0.032696493 0.018749295 -0.060273726 0.09115579 0.031291064 -0.056554444 0.016038883
-0.017447345 -0.00086441124 -0.053285055 -0.020409198 -0.04302359 0.031925865 -0.012408686 -0.030505333
0.055180844 0.07232516 0.011703205 0.013553074 0.045940615 0.07425457 -0.045388337 0.01196045
0.03565561 0.017339168 0.052659333 -0.055332072 -0.04100216 -0.061238736 -0.042216815 -0.015226082
-0.06364868 -0.010779982 -0.017203929 0.0063368306 0.018597085 -0.002143165 0.06505299 -0.03217285
5.961261e-05 -0.005659607 -0.012760227 0.08719434 -0.057140745 -0.013928735 -0.08072517 0.02602745
0.0945405 0.057405315 0.047852125 -0.016635148 0.06670208 -0.01628676 0.057638608 0.080733865
0.061851114 0.058473136 0.06668395 0.0021702338 -0.056446396 -0.02027286 0.046932414 0.011773499
0.009859195 0.0068382304 0.01919609 0.052526664 0.041869234 0.0054518296 0.0016066099 -0.07058606
0.079352506 -0.046450853 -0.017187808 -0.0800647 -0.020997755 0.0836368 0.0046637207 -0.051845726

tiles_emb.hidden_layers.2.bias f4 [128]
00000000: 9c93 cfbc 5474 0bbd b288 d33b 6cfc 15bd
00000010: 9d5f 53bd 4b22 ab3d ecde 873d ff0c b2bc
00000020: 1219 403d 376d 8e3d 9955 bd3d 7305 9abd
00000030: 215a bbbd 5e73 74bd 9136 093b a263 e43c
00000040: 3afc 33bd 2d63 913d e567 f8bc 6979 35bc
00000050: 5db4 553d 5ea8 2c3d 0d34 9cbd 5e1a a53c
00000060: 9e3f 20bd f3e8 053d 543d f53c cd26 99bd
00000070: 3a65 503d b007 8e3d 1fb3 813d 33ea 31bd
00000080: bd88 acbd c617 983c 7a37 fcbb aa1c 7d3c
00000090: 5298 2fbd 7c94 9abc 3a27 a33d b316 ac3d
000000a0: 9c03 babd 09a8 b23d 9b4e bd3d de87 1c3d
000000b0: ad74 e43c 4d40 163d 237f 43bd 29cb 06bd
000000c0: 5d0b fe3b 8da8 dc3c cb6c 71bd 7356 893d
000000d0: 4dfc 443d bdc3 0c3c b7d4 9ebd 5217 6dbd
000000e0: 37b9 203d 0e35 923c cc2f abbd 685e b1bd
000000f0: 01fa 0fbc c100 17bc 0be7 ce3c c2ce 2ebd
00000100: 55c8 89bd 7519 263c 46a6 073d a2b5 1cba
00000110: ece5 ce3c 3482 933d 8b3e 923c 3807 71ba
00000120: d564 423d 8e8a 6bbc 3191 91bd 1c5a f6bc
00000130: 7484 7a3d 4edf 533d e96d 223d 785a 4c3d
00000140: ca09 47ba 1d31 93bd 06f3 80bd a35d 68bc
00000150: e6b8 16bd 76b4 a0bc 201e 6d3d 4f57 dbbc
00000160: 38b6 363d 5412 14bd e553 82bd 9c6d 9f3d
00000170: f872 dfbd 953d 6bbc 7335 17bd c76f 5ebd
00000180: 813c c7bd 3ce4 283c e163 fd3b f5fe 203d
00000190: dc4d 1e3d d669 a5bd 0153 35bd 1ebd 0cbd
000001a0: 8973 82bd d515 d23c 8bfe f0bc 4a6a 933c
000001b0: a3ac 9e3c 12b1 833d 38cd 0b3d d42f 453c
000001c0: d184 c8bd a66c 10bc ae86 e73c 182d c63d
000001d0: 7216 ddbc 5ce7 41bc 9f66 453d ab6f bd3d
000001e0: 4eda 28bd afc9 12bd 984f afba 2966 8d3d
000001f0: 4be9 4dbc d536 353c eab7 b13d 8b3a 1dbd
-0.02533894 -0.034046486 0.0064555043 -0.03661768 -0.051604856 0.0835615 0.06634316 -0.021734713
0.04689891 0.06954425 0.09244842 -0.075205706 -0.0914805 -0.059680335 0.0020937065 0.02787954
-0.043941714 0.070989944 -0.030322978 -0.01107631 0.05217396 0.042152755 -0.076271154 0.020154174
-0.03912317 0.03269286 0.02993647 -0.07478104 0.050877787 0.0693506 0.06332993 -0.04343624
-0.08424518 0.018566024 -0.007697043 0.015448729 -0.042869873 -0.018869631 0.07966466 0.08402767
-0.0908272 0.087234564 0.092435084 0.03821551 0.027887667 0.036682416 -0.04772867 -0.032908592
0.0077528195 0.02693584 -0.058941644 0.06705942 0.048092175 0.0085915895 -0.07755416 -0.057883568
0.039239135 0.017847564 -0.08358726 -0.08660585 -0.008787633 -0.009216488 0.025256654 -0.04267765
-0.067276634 0.010137905 0.033117555 -0.0005977993 0.02525612 0.07202569 0.017852088 -0.0009194496
0.047459442 -0.014376296 -0.07107771 -0.030072264 0.061161473 0.05172663 0.0396556 0.049890965
-0.0007592706 -0.07187102 -0.06296353 -0.014182481 -0.036797427 -0.0196173 0.057890058 -0.02677503
0.04460737 -0.03615029 -0.06363658 0.07784578 -0.109106004 -0.014357944 -0.036916208 -0.054305818
-0.09728337 0.010308322 0.0077328538 0.039305646 0.03864847 -0.08076827 -0.04426861 -0.034360044
-0.06369693 0.025645176 -0.02941825 0.017995019 0.019369429 0.06430258 0.03413126 0.012035329
-0.09790958 -0.008814966 0.028262462 0.0967657 -0.026988242 -0.0118349455 0.04819357 0.092498146
-0.041223817 -0.03583687 -0.0013375161 0.06904251 -0.012567828 0.011060436 0.08677657 -0.03838591

attention_layer.att.weight f4 [128, 128]
00000000: e1f9 cdbc ddbe 2dbd df1c a4bc 4557 84bd
00000010: b10b 183c 524b 13bd 8915 26bd 0691 97bc
00000020: c487 a9bc 4f1f 0abd 4858 413c f494 a83c
00000030: de04 8abb 551a 3fbc 66b5 7d3b d9fb 16bc
00000040: f125 34bc 8934 c93a bf23 54bd b55d 1f3c
00000050: 0b0d e7bb 660a 5abc 6327 293d 572e 853c
00000060: 21c2 183d 9b9d 1b3d 0f63 5bba aa73 21bc
00000070: 64e2 1cbc 09d3 1c3d 19ec 06bc c5f1 023d
00000080: 035b dcbb a5a4 d13c c61a 81ba ba91 443d
00000090: a7bd 31bc ce1c 183d 6c2f 323c 700b d5bc
000000a0: e4eb 88bc 1429 7f3c 6a4a 5c3c 8d34 2d3c
000000b0: 7e4f 423d ef22 153c a73d 8bbc 5436 7f3c
000000c0: ca5f c23c 35cc 54bd 4260 bc3c ff79 c23c
000000d0: 345e 3fbd 62ad 10bc be66 ebba 924d 7cbd
000000e0: 62c8 27bc 34eb 09bc d1dd 803d cb59 08bb
000000f0: 6673 083c 40b7 123c 1849 6dbc 9bf9 85bc
00000100: 882d d2bc 4e92 a23c 6ebd e33c 8890 2a3d
00000110: 0b3b 413d cdec 40bd 5bcb d33c 9b6c 803c
00000120: 2436 4b3d 5f3f 743c 87fd 57bc 7495 12bc
00000130: 4d2f c43c 102f 64bc e84f 083d bcdd 94bc
00000140: 01b6 4d3b 9150 3d3d 78b4 523d 2c7b 243c
00000150: e447 08bc 12c2 ae3c f364 4c3d 718a 8b3b
00000160: 049f 1fbc 3887 ecbb 0ce2 f43b df09 3abc
00000170: 6c0f 1b3b cef9 093c b0af a7bc ecab a5bc
00000180: 6a56 7fbc 2d4e 0d3c a99a 393d 6062 58bd
00000190: d910 e0bb 90af 143b d49f 0a3d 40c9 533b
000001a0: 46d4 37bb a64d 33bd 9fa1 f53c 69ff 193d
000001b0: 63af c73c 8ba8 423d d3f2 dd3c bd86 33bd
000001c0: ad23 f73b 5943 29bc ca90 c33c 8eaa 17bc
000001d0: aeef af3c 4d37 2bbc ffaf 243c c9f0 dbbc
000001e0: 2d77 023d 1a59 8ebc aa29 413c 623e 07bc
000001f0: 19c2 d13c ccb6 f5bb a412 103c fe06 083d
00000200: 89ef 41bd c038 2d3d ee83 ec3c 676a 823c
00000210: f2ef 05bd ebf8 7e3d 6805 a8bc 865f 7a3c
00000220: b9e5 b4bc a611 2ebd 8815 823c 7006 3abd
00000230: 4900 693d 0850 29bd 4fdc 2b3c 4630 b33b
00000240: 896a 98bc 3afc fbbc 9836 adbb 4c54 88bc
00000250: 7906 e5bb a03d 51bc 0fb5 57bd b8ce 8a3d
00000260: cbdd 9abc d78d b2bc fa6b 20bd bd30 773c
00000270: 817e 1abd 0629 053d fb56 2f3d 5d86 dcbc
00000280: e5f5 d43c 7322 8a3c 31ff 4bbc 993e 873b
00000290: 2007 7c3c 9c18 c73c ca47 8ebd 998a a3bb
000002a0: 5c32 883d 43fe 6bbd 5d73 a6bc 69b4 56bc
000002b0: 9bcf 39ba 302a b13a 6d50 5bbd 7f5f 9bbc
000002c0: d51d 743a 49d8 e03c 876f 0f3d eee4 963b
000002d0: d8df 2bbb 6949 e3bc efe9 5a3b 860e b53c
000002e0: 728c 93bc fc68 833c 4f7b 72bd 6ea5 313c
000002f0: 00b6 123d 0f02 52bc e398 0ebd 65c1 47bd
00000300: 077e 1abc 02b8 66bd c011 10bd c89d 383d
00000310: 48bb 173b b2bd 80bd 3fb1 48bd f28e 33bd
00000320: 277e b53c e933 313b 5d12 863d 5920 3d3c
00000330: a610 aabc 6212 f9bc 7b60 8abd 2ff1 033c
00000340: 7ef3 73bc 2cab 8cbc c526 1cbc ed2c 7dbd
00000350: efee 743a 2ddf 293d 60b4 18bc f9ae 56bc
00000360: fa62 cf3b b64e f93b d6f0 28bd db90 6a3c
00000370: 0a3a 2cbd 9c40 5cbc 0939 853c 8762 a0bc
00000380: 7c97 33bd cd88 e83b 54c5 d1bc 36e9 143d
00000390: 92f3 2bbd 23d7 dd3c 7a5a 44bd 2996 fabc
000003a0: 8b27 7dbc 2a4f 573d d164 72bd 769e 543c
000003b0: 29d1 0dbc 0b35 15bd bc20 1dbd 6192 743b
000003c0: bf30 6d3b 36d8 afbc e627 f43c e940 a4bc
000003d0: ee55 ffbc 7590 3e3d 717e 86bd 0f6c a53c
000003e0: 0871 e83b 6e91 abbc 1d8a 3dbc 7091 2dbc
000003f0: 47ef 7e3d 9c5d afbc 47a8 303c 1446 66bd
-0.025143566 -0.04241835 -0.020033298 -0.06461958 0.009280131 -0.035960503 -0.04054788 -0.01850177
-0.02069462 -0.033721264 0.011800833 0.020578839 -0.004212006 -0.011663993 0.0038712858 -0.009215319
-0.010995374 0.001535074 -0.051791903 0.009726931 -0.0070511154 -0.013308143 0.041297328 0.016257448
0.03729451 0.0379921 -0.0008368948 -0.009854237 -0.00957546 0.038287196 -0.008235001 0.03196885
-0.0067247166 0.025591204 -0.0009849898 0.04799054 -0.010848439 0.037136845 0.010875564 -0.02600643
-0.016714044 0.015573759 0.013445476 0.010571611 0.04743909 0.009102567 -0.016997172 0.015576918
0.023727316 -0.05195256 0.022995118 0.023739813 -0.0467207 -0.0088304 -0.0017959697 -0.061597414
-0.010240646 -0.008417893 0.06292308 -0.0020805474 0.008328294 0.008954823 -0.014482759 -0.016354373
-0.025656477 0.019845154 0.027800288 0.041641742 0.04717545 -0.04710083 0.025853803 0.015676787
0.04961218 0.014907687 -0.013183004 -0.008946765 0.023948336 -0.013927236 0.03327933 -0.018172137
0.0031389 0.046219412 0.05144164 0.010039132 -0.008317921 0.021332774 0.04990096 0.004258447
-0.009742502 -0.007218268 0.007473236 -0.0113548925 0.0023660315 0.0084213745 -0.020469517 -0.02022358
-0.015584568 0.008624596 0.04531351 -0.052828193 -0.006837946 0.0022687651 0.03384383 0.0032316
-0.0028050109 -0.043775223 0.029984294 0.037597094 0.024375623 0.047524016 0.027093327 -0.04382967
0.0075420947 -0.010330998 0.023872752 -0.009256972 0.021476593 -0.010450196 0.010051726 -0.026848214
0.031851936 -0.017376471 0.011789719 -0.008254619 0.025605248 -0.0074985977 0.008793507 0.033209793
-0.04734758 0.04229045 0.028871503 0.015919877 -0.032699533 0.062249105 -0.02051039 0.015281564
-0.022082197 -0.0424973 0.015879408 -0.045416296 0.056885038 -0.04133609 0.010489537 0.005468401
-0.018605487 -0.03075992 -0.005286049 -0.016641758 -0.006989297 -0.01277104 -0.052662905 0.0677771
-0.018904587 -0.02179615 -0.039165474 0.015087304 -0.0377183 0.032509826 0.04280756 -0.026919538
0.025996158 0.01686213 -0.012450979 0.0041273353 0.015382558 0.024303727 -0.069472864 -0.0049908874
0.0665023 -0.05761553 -0.020318681 -0.013104537 -0.00070881256 0.0013516601 -0.053543497 -0.018966435
0.00093123066 0.027446883 0.03501847 0.0046049273 -0.002622595 -0.027744966 0.0033403595 0.022101652
-0.018011305 0.016041271 -0.059199627 0.010842664 0.0358181 -0.012817874 -0.034813773 -0.04876842
-0.009429461 -0.056327827 -0.035173178 0.045072347 0.00231524 -0.062861815 -0.04899716 -0.043837495
0.02215488 0.0027038998 0.06546471 0.011543357 -0.020759892 -0.030404273 -0.067566834 0.008053108
-0.014889596 -0.017171465 -0.009530728 -0.061810423 0.0009343465 0.041472603 -0.0093203485 -0.01310324
0.0063289376 0.00760826 -0.041245304 0.014316763 -0.042047538 -0.013443138 0.016262548 -0.019578231
-0.04384564 0.007096386 -0.025606789 0.03635522 -0.041980334 0.027080124 -0.047937848 -0.03058918
-0.015451322 0.05256573 -0.059178177 0.012977233 -0.008655825 -0.03642754 -0.038361296 0.0037318694
0.0036192385 -0.021465402 0.029804181 -0.020050483 -0.031168904 0.046524484 -0.065670855 0.020193128
0.0070935525 -0.02094337 -0.011568573 -0.010593757 0.06223991 -0.021406941 0.010782308 -0.056219175

attention_layer.att.bias f4 [128]
00000000: c4df 233d 1283 d8bc bf7e d9bc 12d3 ef3b
00000010: 26bc a73c 42d9 283c bea6 0f3c df4e 5c3c
00000020: a37f a93c 78e6 e83c 64a2 223d 6097 6ebc
00000030: 17fc 18bd ad53 fabc 7c72 5dbd a7c1 a2bc
00000040: c3af 17bd 22b2 153c 27fb 0f3c 3f3d ccb9
00000050: 2da7 86bb ee3a 9dbb bc6b a0bb b842 1bbb
00000060: 598b 373c 4669 0c3d db62 9c3b c7d5 f7bc
00000070: 6506 7bbc b823 49bd b88b f73c 5b06 f03c
00000080: 7f3d 30bd 1718 1fbc 4eef 4ebd b02d 363c
00000090: 5afb 2abc 86fd 17bd 26a6 133c 539c 1b3d
000000a0: c437 1e3d 8b58 733c 5c5d ca3c a1a1 ddbb
000000b0: 3109 2a3d e49a b5bc c052 223d 53b7 69bd
000000c0: 1be2 053d b973 c63c 8267 8dbc 931b d13b
000000d0: c5b9 e13c 8556 573c a7ad 0c3d c724 413b
000000e0: 2575 13bc b3d2 6bbd 44c2 35bc f316 913c
000000f0: 641f ce3c 91ac 64bc 793c 4c3d 9f19 e93c
00000100: 1ee4 8abb 1dbe 743d 4ae3 163c 6889 013d
00000110: c45b b93b 8446 d73c b249 c5bb 60de fcbb
00000120: d27c 0dbd 16e1 523d 9445 96ba 4413 27bd
00000130: f766 78bb 6931 7d3b 18f9 0b3d e1eb f53c
00000140: b140 a03c d557 a33b 8763 13bd 24ba b9bb
00000150: c589 563b cbb1 35bd aadc cfba 2bc0 933b
00000160: 64fd 5d3d 306b 4e3b 9fba 253d fe8e c7bb
00000170: d74d a83c de08 d53b d9ff d83c 378f 963c
00000180: f551 23bc 46a1 2bbd c757 0a3d 1857 3bbd
00000190: 360c e7bc 34ce 96bc ee51 1f3d f82e 313d
000001a0: b6b9 823c 270d b03c cbb2 2abd c4a0 e9bb
000001b0: 7275 da3b cbc9 a7ba e225 003d ea0b 863c
000001c0: af5d 083d 1403 c6b8 fd74 8dbc 4150 753d
000001d0: 723f 823b d426 89bc 90e3 03bd 4df5 d93c
000001e0: 35bf 443c ca78 153d 40c2 cdbc 4ac6 77bc
000001f0: 471d 04bc ecbd 473c 4850 59bb 80dc ebbb
0.04000832 -0.026429687 -0.026549695 0.0073188627 0.020475458 0.010305705 0.008767782 0.013446539
0.020690745 0.028430209 0.03970565 -0.014562458 -0.037349787 -0.030557478 -0.05406426 -0.019867731
-0.037032854 0.009136708 0.008787907 -0.00038955544 -0.0041092844 -0.0047982847 -0.0048956554 -0.002369089
0.011202657 0.034280084 0.0047725267 -0.030253304 -0.015321349 -0.04910633 0.03021799 0.029299906
-0.043027397 -0.009710333 -0.050521187 0.011119291 -0.010435903 -0.037107013 0.009011781 0.03799088
0.0386274 0.014852653 0.02470272 -0.0067636524 0.04151267 -0.022168584 0.039629698 -0.057059597
0.032686334 0.024225103 -0.01726127 0.006381461 0.027554402 0.013143186 0.034345295 0.0029471384
-0.009000097 -0.057573985 -0.01109368 0.017711138 0.025161453 -0.013957159 0.04986236 0.0284546
-0.0042386195 0.05975162 0.009209463 0.03162518 0.0056566913 0.026278742 -0.006020748 -0.007716939
-0.034542866 0.05148419 -0.0011464828 -0.040789858 -0.0037903169 0.0038634187 0.0341731 0.030019702
0.019562097 0.0049848356 -0.03598359 -0.0056679416 0.0032735926 -0.04435901 -0.001585861 0.004508992
0.05419673 0.0031496994 0.04046118 -0.006090044 0.02054493 0.006501301 0.026489185 0.018378837
-0.009968271 -0.04190185 0.033775117 -0.045737356 -0.028204065 -0.018408872 0.038896494 0.043257684
0.015957695 0.021490647 -0.041674417 -0.0071297605 0.0066668326 -0.0012801228 0.031286128 0.016363103
0.03329247 -9.441949e-05 -0.017267698 0.05989099 0.0039748484 -0.016742148 -0.032199442 0.026606226
0.012008478 0.036492147 -0.02511704 -0.015122959 -0.008063621 0.012191277 -0.0033159424 -0.0071979165

attention_layer.gate.weight f4 [128, 128]
00000000: 2c4b 073c 5942 60bc cc33 0dbc e5f9 e13b
00000010: 34a6 373d e26b 223d 8bbc e9bc 278c 3f3c
00000020: 1f1b a3bc 91b7 64bc 5a6e 313c f962 2a3b
00000030: 4d74 81bc 4a45 b9ba e447 643a 6103 be3b
00000040: c53d 6a3c ea89 9e3b 256f bdbc b89f 2cbd
00000050: 699c 073d b676 7ebc 8358 74bc f696 763c
00000060: 08b7 363c aa87 853c 0900 93bc bf42 5a3c
00000070: 554c 563b 4fed a73c ac43 543d ed00 36bc
00000080: 62fe e6bb d705 09bd 1de6 bcbc d4ad 88bc
00000090: c9d7 ec3b d925 59bc 58e1 043d 4e0d 963b
000000a0: f511 2abc 8a8a 483d a270 ac3c efe4 5dbd
000000b0: 427f 453d 1db3 12ba ee08 d7bc 993b 17bc
000000c0: 3612 4d3c d7ec e3bc e5f0 433c fe5d 19bc
000000d0: f92e e0bc 9b32 8e3c b5cc 09bd c1e7 123d
000000e0: 948b 313b ccab 963c 6902 c33c 7f66 c0bb
000000f0: f991 87b9 de1a 61bc d554 ae3c 5be1 27bd
00000100: f797 3cbd 096e 14bc 23f6 30bd c9e4 ad3c
00000110: 16a2 82bc 63f2 133d af19 303b 4f49 053d
00000120: 2b34 6e39 6e11 ea3c 46e1 4abc c87f 273d
00000130: f677 a43c 0427 383d 17ac 51bc 83f2 ad3c
00000140: 533f c6bb b531 98bc d4d9 d3bc 7cbf 59bc
00000150: 8f0d fb3b 7702 603c d8b9 2b3d 647c 99bc
00000160: 2059 31bc 7aff ab3a 0df5 8e3b d9f9 793a
00000170: 2ae9 20bc f0c5 a0bc 6abc 2bbc f4d8 17bc
00000180: d349 72bb b0e2 b3ba 2408 a33a afd1 343c
00000190: 0770 503c 5ca9 69bc ecdb 6cbc f52d 36bd
000001a0: 6254 36bd 5008 cebb 621f fe3c 77f7 d43a
000001b0: 0cd4 483d e492 5fbc 28c2 7d3b 7d29 203c
000001c0: 6eb5 27bc 9c3b 203d abd4 08bd bec4 893b
000001d0: e929 83bc e13a 0539 812e d7bc ba4d 0d3c
000001e0: d506 fabb 1a7a ecbc d170 43bd 3aa6 2dbd
000001f0: 33a7 50bc faa0 0e3c 5a4d 83bc ac1f 55bd
00000200: d857 21bc 5c65 6c3c 5ce9 db3c 9718 fd3c
00000210: a916 243c eb8d b43c bcaf d3bc 4b5d 623d
00000220: a7c0 e9bc c787 cfbc d82a 4abd d325 e6b9
00000230: 2484 5fbd 0f3d 1ebd 3fc3 3bbd ec17 25bd
00000240: 71a2 6f3d 39f2 083c 8f12 39bc c054 403a
00000250: 8fca 7fbc ceaf 78bd a075 89bd 1d2e c5bc
00000260: 8753 a5ba ee98 bb3c e076 fc3c 0cb0 003d
00000270: d687 e93c 71e8 2ebc 854d 993c 350b 0ab9
00000280: 26cc a1ba dac1 32bd 20f0 7abc 7a0f 4abd
00000290: 014c ad3c e59c 6fbd 3a3e cabc 1ff7 c03c
000002a0: 0906 263c 2af5 913c 7755 42bd 2645 12bd
000002b0: 59a8 caba 25a9 00bd 7cb2 303d 47b8 50bc
000002c0: 01fe 21bd f3fb 73bd 35c2 213d 93f7 84bc
000002d0: 2306 bdbb 9120 8bbc 2c17 1bbd 8931 c8bc
000002e0: 4d53 063d 3e86 263d dd65 283c eaef 15bc
000002f0: bb5b 02bd 1f66 01bc c003 f73b 6a56 98ba
00000300: 67be 1dbd 9b6d b5bc 3295 c0bc e5d6 c2bc
00000310: 0361 bd3c 2a53 53bd a2f8 c33c 802b 25bc
00000320: 2390 0f3c 39e6 37ba b515 783c 4566 713d
00000330: a63e 3bbd 933b 41bd 71d3 7ebc fd37 493c
00000340: 3646 853c 908f 70bd c9ed 72bc 74d4 9ebc
00000350: 1ebb 0ebc 4a1b cabc 6d2c 8dbb 9a74 babc
00000360: 52d9 7a3c 5fe6 8a3c f92a 78bc 7226 4a3b
00000370: a854 3cbc 8098 e7bc e715 ef3c 9756 16bd
00000380: ed01 5ebb 0cb5 8d3c 77ed 2b3c 8aa8 3c3d
00000390: bda8 a33c 7380 29bd 8279 45bd ee73 90bc
000003a0: c9fd 1d3d 8df6 89bb 56a0 07bb 311f ca3c
000003b0: 4c0d 033d 3e54 343d 6d2f 373d db1b 28bd
000003c0: 6953 47bb 1d9f 403c 79ac e8bc de11 5d3c
000003d0: 1c1a 7ebc 6f96 cc3c a484 e2bc 38cc 3a3d
000003e0: 4c0a 78bd 7e5c 22bd 4b53 2dbd 74cd 983c
000003f0: f3dd 233d fad2 27bd 2e8c 483c 6ebc 9abc
0.008257668 -0.0136876935 -0.008618306 0.006896245 0.044836238 0.039653666 -0.028532287 0.01169113
-0.019910393 -0.013959781 0.0108295325 0.0025998934 -0.015802527 -0.001413503 0.00087082223 0.0057987426
0.014296954 0.004838218 -0.023124287 -0.042144507 0.03310815 -0.015531233 -0.014913681 0.01505064
0.0111520365 0.016300041 -0.017944353 0.013321578 0.0032699306 0.0204989 0.05182235 -0.011108619
-0.0070493678 -0.033452835 -0.023058945 -0.01668445 0.007227872 -0.0132536525 0.032441467 0.0045792228
-0.010380258 0.048960246 0.021049801 -0.054173406 0.048217066 -0.0005596148 -0.026249375 -0.009230518
0.012516549 -0.027822895 0.011959289 -0.009360788 -0.027366148 0.017358115 -0.03364249 0.03586555
0.0027091252 0.018392466 0.02380486 -0.0058715935 -0.00025857965 -0.013739316 0.021280685 -0.0409864
-0.046043362 -0.009059438 -0.043203484 0.021227257 -0.01594643 0.03611983 0.0026870777 0.032540616
0.00022716883 0.028572764 -0.012382811 0.040893346 0.020076733 0.044959083 -0.012797377 0.021233803
-0.0060500293 -0.01857839 -0.025860704 -0.013290282 0.0076615284 0.013672463 0.04192528 -0.018736072
-0.010824472 0.0013122403 0.0043627084 0.00095358264 -0.009821216 -0.019625634 -0.010481933 -0.009268034
-0.0036970272 -0.0013724174 0.0012438339 0.011036321 0.012722022 -0.01426157 -0.01445673 -0.04447742
-0.044514067 -0.006287612 0.031020824 0.0016248067 0.04903035 -0.013645861 0.0038720462 0.009775517
-0.010236127 0.039119348 -0.03340594 0.0042043617 -0.016011195 0.00012705803 -0.026267292 0.0086244885
-0.007630209 -0.028866816 -0.047715012 -0.042394854 -0.012735176 0.008705372 -0.016028095 -0.052032158
-0.009847604 0.014428463 0.026844673 0.030895514 0.010015168 0.022040328 -0.025840633 0.055264752
-0.028534247 -0.025333298 -0.049357265 -0.000438972 -0.05456938 -0.03863245 -0.045840498 -0.040306017
0.058504526 0.008358532 -0.011295929 0.00073368475 -0.015612259 -0.060714535 -0.06711888 -0.02406984
-0.0012613394 0.022900071 0.030818403 0.03141789 0.028507154 -0.010675536 0.018713722 -0.0001316488
-0.0012344166 -0.043641903 -0.015316039 -0.049331166 0.021154406 -0.058499236 -0.024687875 0.023555337
0.010133275 0.017817099 -0.047444787 -0.035710476 -0.0015461548 -0.03141131 0.043138966 -0.012739248
-0.039548878 -0.05956645 0.03949185 -0.016231334 -0.005768554 -0.016983302 -0.037863895 -0.024437683
0.032794286 0.040655367 0.010278192 -0.009151438 -0.031825762 -0.007897883 0.007538289 -0.0011622433
-0.03851166 -0.02214699 -0.023508642 -0.02378411 0.023117548 -0.051592983 0.023922268 -0.010081172
0.008762392 -0.0007015202 0.015141894 0.058935422 -0.045714043 -0.047175955 -0.015553341 0.012281415
0.01626883 -0.058730662 -0.0148272 -0.019388415 -0.008711604 -0.024671216 -0.0043082745 -0.022760678
0.015310602 0.016955553 -0.015146964 0.003084567 -0.011494793 -0.02827096 0.029185249 -0.036703672
-0.003387566 0.017298244 0.010493628 0.04605917 0.019977922 -0.041382264 -0.048211582 -0.017633405
0.038572107 -0.0042102993 -0.0020694933 0.024673076 0.031995103 0.044025652 0.044722963 -0.04104219
-0.0030414707 0.011756686 -0.028402554 0.013493029 -0.015509155 0.024974076 -0.027651139 0.045604914
-0.060556695 -0.03963899 -0.042315762 0.018652655 0.04000659 -0.040972687 0.012240453 -0.018888678

attention_layer.gate.bias f4 [128]
00000000: a3ce c83b 4d0f 1b3d 81bf a73c ea94 e3bb
00000010: 7253 2a3d b177 d3bc a4b7 33bd 275b bf3c
00000020: 57c6 223d 32df 22bd 2bbe 073c b5f2 1e3d
00000030: 2cf7 713b 9c76 8dbb 91af 443c 957e 883c
00000040: ad80 693a 5be2 1e3d 4e78 13bd b913 cabc
00000050: 1ce3 6b3c 70cb 563d ed9e 4fbd bb91 0bbc
00000060: 8308 123d ffb4 933c 337a 8fbc 20b1 323a
00000070: 317d 1cbd 8d0c 0dbc 2a94 4a3d f064 e2bc
00000080: d089 503d 6da2 b43c 738c 453d ae79 003d
00000090: 8da5 0a3d f32c 333c 0eef 24ba b6de 223d
000000a0: 3c60 2a3c d06a b43c 32de 2f3d a49c a33c
000000b0: 1a43 5f3d 4466 863c 13bd 83bb d8e3 48bc
000000c0: 44cd 09bb 7f06 89bb 72e1 033c f3b0 17bd
000000d0: 0478 0abd 01e5 a2bb d8bb 263d 3959 d8bc
000000e0: 3d4b de3b 8c7e 243d 55b6 e93c 4943 f63b
000000f0: 95d0 2dbc 7ee1 3e3c dae8 07bc 3a33 e93b
00000100: 020f 1d3d 192e cc3c f624 1abd 7fff 84bb
00000110: 0deb 06bd f50b 913c 6583 293d 53a6 e83b
00000120: 2234 603d 3d2a 68bb 8348 8e3b ffb3 72bb
00000130: 08fb f33b 0581 bf39 dea7 2c3d 2813 d0bc
00000140: 9714 49bd eea6 fc3b 002e bf3c a60e 653c
00000150: 42f1 0a3c 5a8a 123b 8e4d 3dbd 2e3f 83bc
00000160: 016b 98bc b408 023d 9193 133c 7bb4 703b
00000170: 722b 1fbd 0c44 773d 4b25 0d3c 5e2c c23b
00000180: 28f0 813d c569 7e3a 94c2 debc 457a e43c
00000190: 4ad8 99bc d401 46bd 5537 503d 255e a03c
000001a0: b57a 513c fc37 07bd c40b 543a c713 ffbc
000001b0: 4393 d4bc c134 b73c 2d78 f63b c845 1c3d
000001c0: 967d 3c3d 4b25 14bc 5bb6 933b 1f5c 89bb
000001d0: 72e4 103b 38a8 013c 7e5b 14bb 78fc 403d
000001e0: cb5a a13b 1127 97b9 91f1 75bc 8fac 313c
000001f0: 2855 1bbd f6ba ac3c a4ab 00ba 3ed4 d0bc
0.0061281486 0.03785639 0.020477058 -0.006945242 0.041583486 -0.02581391 -0.043876305 0.023358895
0.039739933 -0.039763637 0.008285086 0.038805682 0.0036921008 -0.004317118 0.012004749 0.016661922
0.0008907419 0.03879009 -0.036003403 -0.024667608 0.014397409 0.052440107 -0.050688673 -0.008518632
0.03565265 0.018030642 -0.017514324 0.0006816555 -0.03820533 -0.008608949 0.049457707 -0.027636021
0.05091268 0.022050107 0.048229646 0.031366043 0.033849288 0.01093601 -0.00062917254 0.039763175
0.010398921 0.022023588 0.04293651 0.019972153 0.054507352 0.016406186 -0.004020342 -0.012261353
-0.002102689 -0.0041816826 0.008049356 -0.037033986 -0.033805862 -0.004971147 0.040706486 -0.026409732
0.0067838714 0.040159747 0.028529326 0.0075153452 -0.010608812 0.011650441 -0.008295262 0.0071167024
0.03834439 0.024924325 -0.037632905 -0.004058778 -0.032939006 0.017705897 0.041385073 0.0070999055
0.054737218 -0.0035425567 0.00434214 -0.0037033556 0.0074456967 0.00036526486 0.042152278 -0.02539976
-0.0490919 0.0077103293 0.023337364 0.013980543 0.008480372 0.0022360296 -0.04621654 -0.016021337
-0.018605711 0.03174658 0.009007351 0.0036728668 -0.038859792 0.06036763 0.008614848 0.005925699
0.06344634 0.0009705092 -0.027192391 0.027890334 -0.018779892 -0.048341587 0.05083402 0.019576142
0.012785603 -0.033012375 0.00080889114 -0.03113736 -0.025949126 0.022364022 0.0075216503 0.038152486
0.046018206 -0.009042094 0.0045078225 -0.00419189 0.002210882 0.007913642 -0.0022637541 0.047115773
0.0049241534 -0.0002883007 -0.015011207 0.010844364 -0.03792301 0.021085244 -0.0004908389 -0.02549183

attention_layer.w.weight f4 [1, 128]
00000000: 3805 a6bc b787 753d 7bc6 913d 8288 52bc
00000010: 34e2 88bd c15c 3cbd e8f2 7fbd c0c2 11bc
00000020: 327a b4bd 1995 4d3d 8f31 15bd 6013 b33c
00000030: a5ad 9cbc 5e00 0dbd d3bd 493d fcb3 743d
00000040: 365f 74bd f9b4 53bd 1ec7 2cbc 186f 893b
00000050: ce34 983d b005 a1bc 4426 a43c 7cf6 50bd
00000060: 2db4 aebd fbfb 49bd cbe4 65bc b4db 5d3d
00000070: 01cc b9bd 45c4 27bd e262 9ebd 37df 1dbd
00000080: b399 86bc 74b7 fc3c d5f1 dc3b f6de 51bd
00000090: 64cf ad3c c682 50bd 63c4 82bc c8c3 0d3d
000000a0: 5d36 3d3d e554 853c d7fd cdbc d027 353d
000000b0: 96ac a83d 1912 2e3d e337 39bd 5be9 5c3d
000000c0: b280 873d 1876 36bd a6ec a9bd 2a08 bebc
000000d0: 805c a93b 42f8 5fbc b0d3 e3bc a182 c5bb
000000e0: 6f1f 75bd d851 973d 2a11 26bc b17a 3cbd
000000f0: 864d 4abd 0ec0 ab3d 43d2 83bd 03c8 babc
00000100: bc20 263d c8a4 13bd cf03 43bd c40d aebc
00000110: c4f7 13bc 22a7 84bd c1d2 a53c 0e46 583d
00000120: aec8 873c 358c 61bd 5eb5 a43d 303f 533c
00000130: 974c 613d 1aa1 6abd b541 bebc d1d1 97bd
00000140: 095a 9ebd 96d9 a13d 86af ac3d 4e81 953b
00000150: 76a6 703d c159 ce3c 5103 643d 83e4 53bc
00000160: e057 2cbd c185 77bd e38e 653d 4025 333c
00000170: a2ea ae3a de47 763d c944 8fbd ee7d 913b
00000180: d0d0 b33d 3db5 b5bb 88d0 39bc b586 513d
00000190: 4340 92bc faf0 e4bc f625 d2bc 022f 2a3d
000001a0: 500a 143d 5231 61bc 9560 a6bb 51c1 89bd
000001b0: fbe9 8abd 9866 1d3d 16d3 75bd fb73 8bbd
000001c0: e112 9fbd 5a71 f6bb 5377 a4bc 1795 04bd
000001d0: 2040 fabc d631 043d 2d49 133d 19c3 1abd
000001e0: ac3b 91bc e180 92bc fd19 f63c a43a 8d3d
000001f0: 1c5b 87bd 6b85 ddbc e344 70bc 014a 26bd
-0.02026616 0.05994388 0.07117935 -0.012849929 -0.0668377 -0.045986895 -0.062487513 -0.00889653
-0.088123694 0.05019102 -0.036424216 0.021859825 -0.019125769 -0.03442418 0.049253296 0.05974196
-0.059661113 -0.05168626 -0.01054552 0.0041941516 0.07431947 -0.019656032 0.020037778 -0.051016316
-0.085304596 -0.049312573 -0.014031599 0.054164603 -0.09072114 -0.04095866 -0.07733704 -0.038542952
-0.016430711 0.030849196 0.006742696 -0.051238023 0.021217056 -0.050905965 -0.015962785 0.03461054
0.046194423 0.016275832 -0.025145454 0.04422742 0.08236043 0.042497728 -0.045219313 0.053933483
0.066163436 -0.044546217 -0.0829709 -0.023197252 0.0051684976 -0.013670029 -0.027810901 -0.006027535
-0.05984443 0.07388657 -0.010135928 -0.046015445 -0.04939034 0.08386241 -0.064365886 -0.022800451
0.04055856 -0.03604582 -0.047611054 -0.021246798 -0.00903124 -0.064771906 0.020242097 0.052801184
0.016575184 -0.055065352 0.080424055 0.012893483 0.055004682 -0.057282545 -0.02322469 -0.07413066
-0.077320166 0.07902829 0.08431916 0.0045625335 0.0587525 0.025189282 0.055667225 -0.012932899
-0.04207599 -0.060430292 0.05604447 0.010934174 0.0013345073 0.06012713 -0.069955416 0.004440061
0.08780062 -0.005545287 -0.011341222 0.051153857 -0.017852908 -0.027946938 -0.025652867 0.041548736
0.036142647 -0.013744669 -0.0050774314 -0.06726325 -0.067829095 0.03842792 -0.06001576 -0.06809231
-0.07767273 -0.007520837 -0.02007643 -0.032368746 -0.030548155 0.03227409 0.035958458 -0.037783716
-0.01772865 -0.01788372 0.030041689 0.068959504 -0.066091746 -0.027041158 -0.014664861 -0.04059792

mlp.0.0.weight f4 [128, 128]
00000000: 4eac c83c 38ea f23c d6e3 c3bd 10b9 41bc
00000010: 03a2 9c3c 2933 26bc 393c 06bd 4ed7 743d
00000020: fa1c 823d ce86 29bc 7dd5 a93d a1fc 78bc
00000030: a608 adbd ef9a adbd 48bf 07bd ac1f df3c
00000040: 4d6b 37b9 940e 7fbd 4131 933c 8387 9f3d
00000050: 31fe debd 6e3e acbc a803 49bd 1a75 a53d
00000060: d3bd 34bd 7c53 443c 0a7e 75bc cef5 d53d
00000070: ba96 c2bc 1056 a83d 1ede 5dbc f5b6 bebd
00000080: 910f 2c3d 4535 2dbd ba6a 6bbd 2005 1dbd
00000090: 3724 9abd 9f6b 23bd 9dcb af3d e5fb ad3d
000000a0: c9c7 063d 5d44 0ebc 3b0e aa3d f9d7 ddbc
000000b0: 38a5 9f3c 263f 05bd 8fa9 753c 4132 99bd
000000c0: 57cc 033d ff72 a5bd 8110 783d 6b7a 563c
000000d0: 1cb7 a3bd 8993 b6bb b8cd 103d a262 96bc
000000e0: 397a c63c 8cfd 87bc 99de 57bc db95 afbd
000000f0: 9987 95bc 7114 f9bc 0c40 9a3c 8652 ff3c
00000100: f6ed 393d cf90 57bd 594c acbd 98c1 e4bb
00000110: eee2 2bbd b7ef aa3d bc2e 59bd 0def 91ba
00000120: ea5f d03d 7567 a33d 7fe5 323d 6669 0cbc
00000130: 8c0e 443d 7413 293d 7db7 903c e9ac 03bd
00000140: 8ca4 9dbd e040 f03c 2969 9cbd 7ed2 a2bc
00000150: ddfe 953d 836f 31bd ca58 46bc 9ef0 233d
00000160: 5a58 56bc 8b6d 40bb 4fcf afbd 77d2 fdbc
00000170: 86a7 a7bd c6da 453d 0fdd 86bd 4202 a937
00000180: 5b11 5dbd 8399 a7bd 3efc 223c 749f 2f3d
00000190: 4866 8b3d cbcd 9fbd 42d7 55bd 88ab 263d
000001a0: 4446 abbc 0086 b7bd 1c1e adbd 2630 5dbc
000001b0: 13af 853d dee2 8dbd 1803 be3c 16c1 4c3d
000001c0: 26d5 3cbd 691c aa3b b7c8 443d 52be 33bd
000001d0: 19e8 313c 70c9 4c3d a0fe 6b3c dcb1 b93d
000001e0: 7ecb 76bd 01bc 4ebc 8665 66bd 3829 03bd
000001f0: d420 a43d 21a7 253d db17 1b3d bfbe 623b
00000200: d86f 233d c3e8 39bc 908e 48bc 303b de3c
00000210: 0941 04bc ec54 4f3b fbe9 583a 6a28 e93c
00000220: 821a 673d 0dd9 dbbc b117 3fbd c625 63ba
00000230: 77e3 91ba c3da c9b8 631b 003d f0ac 393b
00000240: 3251 743c abb5 9a3c d28b deba de66 83bc
00000250: ab4a 53bc 301d 3f3c 658d 4bbb 6072 513b
00000260: cbdb 58ba 19d1 d9bc 6abb af3c 45e9 0d3d
00000270: 8998 1b3c 13f3 5abd a346 d1bc cd2c 2e3d
00000280: 9ecc b0ba de6b 093d f55c 0ebc 2acf 53bd
00000290: ac01 a13a c8d5 1ebb c418 273d 6983 7c3b
000002a0: c661 2c3a 16bc 54bc 7b66 07bd d571 1e3b
000002b0: 9058 db38 22db f1bc 809e 5ebc 8763 e1ba
000002c0: 3b2c a63a ea72 183d 4164 21bd ffd8 cb3b
000002d0: 377b 0cbc bd88 4bbd 9024 3abd 3812 2a3d
000002e0: 343b 20bd 8aa4 403d 5661 173d e85e 1bbc
000002f0: 97a7 75bc 7357 02bd 7394 92bb 51ea 8ebb
00000300: ca25 0cbb 16bb 813b ece9 32bd 2390 babb
00000310: 7730 ba3b 980f 3a3d 5b92 3f3c df8c d83b
00000320: 7af0 9e3a 0d55 fb3b f807 92ba 81d1 fbbb
00000330: fb34 a03a ffc6 2abc 2f05 31bb cc75 1ebc
00000340: 5a97 adbc f9e0 01bd 4887 e8ba 7e88 033d
00000350: 76e0 5e3d 0d4b 63bc 6236 2dbd b231 3d3c
00000360: 6fa1 033c 5c43 e13c 6fbc ae3c 8a88 303d
00000370: 6c9b dcba 9e70 8fbb 1f4c 3cbb 0ebd 323d
00000380: f245 d73b 7c72 dfbc 6aec b239 5519 47bd
00000390: fbdf 2a3d 5add 0a3d 745f 3abc 16e2 d83a
000003a0: f1fb 023d b8aa ebbc aad2 07bd b6b5 013c
000003b0: 10ce 47bd 5b66 9ebc 4264 c1ba c529 4c3c
000003c0: 995d d33c f70f 8c3c 295f b7bc 36ff 243d
000003d0: 8a04 0abd f38d 8ebb 88e3 f0bb 0485 183d
000003e0: 592e fa3c 6809 f73c bf26 81bb ee7f 803b
000003f0: c914 caba f5e7 20bb 97b1 4abd e27b 08bc
0.024496224 0.0296527 -0.09564941 -0.0118239075 0.019120222 -0.0101440335 -0.032772277 0.059775643
0.06353183 -0.010347081 0.08292673 -0.01519695 -0.08448915 -0.08476817 -0.033141404 0.027236782
-0.00017492213 -0.062269762 0.017967822 0.07789519 -0.10888327 -0.021025863 -0.049075752 0.08078976
-0.044126343 0.011982795 -0.014983663 0.10447274 -0.023753513 0.0821954 -0.013541726 -0.0931224
0.042007033 -0.04228713 -0.05747483 -0.038334966 -0.07526439 -0.039897557 0.08583758 0.08495311
0.032905374 -0.008683291 0.083034955 -0.027080523 0.019487962 -0.032530926 0.014994039 -0.07480288
0.032177296 -0.080785744 0.060562614 0.01309071 -0.0799391 -0.005571787 0.03535244 -0.018357579
0.024228202 -0.016600393 -0.01317563 -0.085735045 -0.018253135 -0.030405255 0.018829368 0.03116728
0.045392953 -0.052628335 -0.08413 -0.006981086 -0.041964464 0.08346503 -0.053023085 -0.0011133865
0.10174544 0.07978717 0.043675896 -0.008570051 0.047865435 0.041278318 0.017665619 -0.03214732
-0.076974005 0.02932781 -0.07637245 -0.019875761 0.07324002 -0.043319236 -0.01210613 0.040024392
-0.013082588 -0.0029362168 -0.08584463 -0.030984147 -0.081862494 0.04830434 -0.06585132 2.0147421e-05
-0.05397163 -0.08183577 0.009947835 0.042876676 0.06806618 -0.07802924 -0.05220724 0.04069093
-0.020907529 -0.08961105 -0.084530085 -0.013500249 0.065275334 -0.06928037 0.023194835 0.04998883
-0.04610171 0.005191375 0.04804298 -0.043882675 0.010858559 0.049996793 0.014403969 0.09067127
-0.06025266 -0.012618066 -0.056249164 -0.03202173 0.08014074 0.04044259 0.037864547 0.0034598557
0.039901584 -0.011346999 -0.012241021 0.027127832 -0.008072146 0.003163631 0.0008274612 0.028461654
0.056421764 -0.026836896 -0.046653453 -0.00086649915 -0.0011130412 -9.6251744e-05 0.031276118 0.0028331839
0.014911937 0.018885454 -0.0016978926 -0.016040262 -0.01289622 0.011664674 -0.003105962 0.0031959042
-0.0008272498 -0.026588963 0.02145167 0.03464629 0.009496816 -0.05345447 -0.025546378 0.042523194
-0.0013488715 0.033550136 -0.008689155 -0.05171124 0.0012283823 -0.002423631 0.040795103 0.0038530475
0.00065758487 -0.012984296 -0.033056717 0.0024176736 0.0001045923 -0.029523436 -0.013587594 -0.0017195799
0.0012677977 0.037218966 -0.03940225 0.0062209363 -0.008574299 -0.04969095 -0.045445025 0.04152128
-0.03911896 0.047031917 0.03695806 -0.009483077 -0.01499357 -0.03182168 -0.004473263 -0.004361429
-0.0021384829 0.00395907 -0.043680117 -0.005693452 0.005682047 0.045425028 0.011692609 0.00660859
0.0012126111 0.007670051 -0.0011141291 -0.007684887 0.0012222821 -0.010423421 -0.0027011146 -0.00967164
-0.021190334 -0.03170869 -0.0017740512 0.03211259 0.05441328 -0.013872874 -0.04228819 0.011547493
0.008034094 0.02749794 0.021330087 0.043098964 -0.0016830987 -0.0043774387 -0.0028731895 0.043637328
0.0065696174 -0.02727627 0.00034126948 -0.048608143 0.04171751 0.033902504 -0.011375297 0.0016546871
0.03197855 -0.028767928 -0.03315989 0.007916858 -0.0487805 -0.019335916 -0.0014754611 0.0124611305
0.025801467 0.017097456 -0.022384243 0.04028245 -0.033695735 -0.0043504178 -0.0073513426 0.03723623
0.030539678 0.030155852 -0.0039413865 0.0039215004 -0.0015417571 -0.002455232 -0.04948577 -0.008330317
