dataset/models/CCCA_MetaProg_MP20.MYC/model.pth (torch, 696702 bytes, 14 tensors)

tiles_emb.hidden_layers.0.weight f4 [128, 768]
-0.47286305 0.60307443 0.4041432 0.4765085 0.47679743 -0.6153596 -0.6094213 -0.4379143
-0.42736417 -0.460054 0.45875803 0.42774862 0.43797144 0.6341926 0.61562526 0.63325393
0.64544505 0.441452 0.42333654 -0.5808047 -0.45344684 0.43775812 -0.4264119 -0.6348923
0.4254734 -0.45038003 0.43161246 -0.6308448 0.603635 -0.4416973 -0.57907313 -0.44313216
-0.45941326 -0.44064686 -0.62023443 -0.4465376 0.42614314 0.57169664 0.64558476 -0.4462708
0.45687658 0.44697434 0.41532478 -0.67844474 -0.47152892 0.67534137 -0.4695404 -0.6665744
0.6336552 0.45499304 0.4606574 0.4770322 0.44547042 -0.64437026 0.47030723 -0.618746
0.42836228 -0.6245174 0.43176863 -0.4278662 0.5947938 0.47355333 -0.5787905 -0.63109004
-0.46819383 -0.4361629 -0.5318976 0.62588495 0.46316263 -0.43366382 -0.4652895 0.47954315
0.39456087 0.2805337 0.42296967 0.44837007 -0.45626867 -0.425831 -0.47637728 0.46676856
0.41307735 0.6106923 0.47533888 -0.5349719 -0.43883008 -0.6412508 -0.6175329 0.64377016
0.67719865 0.4621999 0.43299082 0.4261034 -0.63997936 0.60766894 0.60547745 -0.4544721
-0.63790417 0.42662847 0.42321548 0.61459297 -0.6393179 -0.43946975 -0.6101414 0.66250414
0.66577166 -0.58956504 0.41745183 -0.47230497 -0.4355822 0.48310333 0.4267243 -0.44999126
0.628784 0.44761968 0.41831544 0.6432981 -0.44870555 0.62569 0.5886965 -0.45094737
0.45957044 -0.5888601 -0.4388925 0.4452678 -0.41535026 0.44413093 -0.41262603 -0.4760383
0.4417921 0.5924959 0.46119723 0.45650774 -0.6155909 0.4278795 0.4654056 0.6127412
-0.4423135 0.67246467 0.38917255 -0.6060808 0.4733706 -0.46061355 0.6364146 -0.6079291
0.47108003 -0.4572641 0.6313259 0.6274957 0.421915 0.67929065 -0.56094384 -0.06597153
-0.44695747 -0.5607766 -0.62161076 0.454475 -0.41532037 -0.47028825 -0.47856578 -0.41357493
0.6038294 -0.639136 0.4836366 0.47104144 0.11006177 -0.38414875 0.4755472 -0.48152277
-0.49068502 -0.46432868 0.59828836 0.5799187 0.6804647 -0.4560259 0.4709222 0.46601632
-0.6749387 -0.44882324 0.4791443 -0.61488926 -0.6283197 -0.6231818 -0.4314751 -0.37894225
0.6393645 -0.43850684 -0.47897708 0.43592188 -0.44307917 0.4385037 0.41047964 -0.43300083
-0.64851505 -0.4373451 0.6241769 0.61159277 0.58115554 -0.6417965 0.47352684 0.61862534
-0.2645002 0.6194253 -0.4480663 0.46303916 0.4333419 0.61294705 -0.43879086 -0.3234849
0.29963624 0.48432657 0.65801036 -0.61395496 -0.23301944 0.6192826 0.64992046 0.41499704
0.6620235 0.47033128 -0.6259328 0.46450517 0.41859576 0.42134112 0.6147868 -0.4560678
0.6340817 -0.052261498 0.6337694 0.46915063 -0.45360714 -0.6032284 -0.45336503 -0.6059987
0.61873364 -0.6356301 0.45760474 0.5886949 0.43413335 0.598657 0.43013418 -0.6796555
-0.46003923 -0.46708828 0.6108441 0.32102245 0.61671966 -0.44192052 0.59912103 -0.5275599
-0.4500048 0.4585571 -0.613772 0.458277 -0.4449056 -0.6330272 -0.4547764 0.66255
00000000: 1b1b f2be 1663 1a3f dceb ce3e ecf8 f33e
00000010: cb1e f43e 3588 1dbf 0903 1cbf 4e36 e0be
00000020: 7acf dabe 338c ebbe 55e2 ea3e de01 db3e
00000030: cb3d e03e 725a 223f 9e99 1d3f ee1c 223f
00000040: e33b 253f ff05 e23e 91bf d83e 9eaf 14bf
00000050: 2f2a e8be d521 e03e a952 dabe 4d88 22bf
00000060: a6d7 d93e 3698 e6be 4ffc dc3e 0b7f 21bf
00000070: d387 1a3f 2626 e2be 233e 14bf 38e2 e2be
00000080: 3738 ebbe 779c e1be afc7 1ebf 94a0 e4be
00000090: 6f2f da3e b65a 123f 0b45 253f 9b7d e4be
000000a0: baeb e93e d2d9 e43e 73a5 d43e 8eae 2dbf
000000b0: 3d6c f1be 2ce3 2c3f 9967 f0be 9fa4 2abf
000000c0: 3a37 223f d9f4 e83e 49db eb3e 913d f43e
000000d0: b314 e43e 73f5 24bf 1ccc f03e 2366 1ebf
000000e0: 4d52 db3e 5fe0 1fbf c710 dd3e 4711 dbbe
000000f0: 6844 183f 9575 f23e 9d2b 14bf 1e8f 21bf
00000100: 1ab7 efbe be50 dfbe 712a 08bf ff39 203f
00000110: a723 ed3e 2f09 debe 6d3a eebe ae86 f53e
00000120: e203 ca3e 1da2 8f3e 7b8f d83e c390 e53e
00000130: 0c9c e9be 8506 dabe b9e7 f3be 4afc ee3e
00000140: e07e d33e 5556 1c3f 9e5f f33e ebf3 08bf
00000150: 56ae e0be 0329 24bf a316 1ebf 1fce 243f
00000160: e45c 2d3f 77a5 ec3e f9b0 dd3e 3a2a da3e
00000170: b0d5 23bf 3190 1b3f 9200 1b3f 91b0 e8be
00000180: b04d 23bf 0c6f da3e b3af d83e f755 1d3f
00000190: 57aa 23bf 2e02 e1be 3a32 1cbf df99 293f
000001a0: 0370 2a3f bced 16bf 3fbc d53e f5d1 f1be
000001b0: a104 dfbe 5259 f73e 9c7b da3e 4165 e6be
000001c0: fdf7 203f 682e e53e 712d d63e 2faf 243f
000001d0: bcbc e5be 382d 203f d0b4 163f 93e2 e6be
000001e0: d14c eb3e 89bf 16bf 85b6 e0be 24fa e33e
000001f0: caa8 d4be 2165 e33e b843 d3be 4bbb f3be
00000200: 9332 e23e d0ad 173f 0b22 ec3e 62bb e93e
00000210: 5d97 1dbf 0613 db3e a549 ee3e 9bdc 1c3f
00000220: ea76 e2be a526 2c3f a041 c73e 1c28 1bbf
00000230: a25d f23e 8ad5 ebbe 11ec 223f 3ea1 1bbf
00000240: 6731 f13e 851e eabe 939e 213f 8fa3 203f
00000250: 3e05 d83e fee5 2d3f 049a 0fbf 151c 87bd
00000260: 9cd7 e4be 0e8f 0fbf e221 1fbf f2b0 e83e
00000270: dfa4 d4be 9fc9 f0be 9306 f5be 18c0 d3be
00000280: 9094 1a3f 6b9e 23bf 379f f73e 582c f13e
00000290: 1168 e13d 25af c4be ec7a f33e 278a f6be
000002a0: 113b fbbe 7dbc edbe 6d29 193f 8d75 143f
000002b0: ef32 2e3f 3a7c e9be b71c f13e b199 ee3e
000002c0: c8c8 2cbf 29cc e5be 6752 f53e 6269 1dbf
000002d0: 8fd9 20bf d888 1fbf 4eea dcbe b804 c2be
000002e0: 64ad 233f f883 e0be 7c3c f5be 2731 df3e
000002f0: 46db e2be 8f83 e03e 632a d23e 49b2 ddbe
00000300: 1505 26bf b2eb dfbe 0fca 1f3f 5891 1c3f
00000310: 9cc6 143f c74c 24bf 1c72 f23e 3b5e 1e3f
00000320: 926c 87be a892 1e3f f268 e5be 7813 ed3e
00000330: fdde dd3e 19ea 1c3f 32a9 e0be d09f a5be
00000340: ec69 993e a7f9 f73e 5e73 283f 272c 1dbf
00000350: a69c 6ebe 4e89 1e3f 3061 263f 7e7a d43e
00000360: 5f7a 293f 43cf f03e 223d 20bf 9fd3 ed3e
00000370: 2f52 d63e 06ba d73e ab62 1d3f b881 e9be
00000380: 2e53 223f 2710 56bd b63e 223f 8334 f03e
00000390: 323f e8be 2d6d 1abf 761f e8be bb22 1bbf
000003a0: 5465 1e3f a7b8 22bf 2b4b ea3e b5b4 163f
000003b0: ba46 de3e 9641 193f 8c3a dc3e e7fd 2dbf
000003c0: 438a ebbe 3226 efbe 4760 1c3f 0e5d a43e
000003d0: 57e1 1d3f 6843 e2be ff5f 193f 2a0e 07bf
000003e0: 0767 e6be ffc7 ea3e 2920 1dbf 48a3 ea3e
000003f0: abca e3be 120e 22bf 74d8 e8be e09c 293f

tiles_emb.hidden_layers.0.bias f4 [128]
-0.4638748 -0.6629821 -0.4672074 -0.24581735 -0.5518593 -0.632861 -0.6805807 -0.43461102
-0.6629048 -0.59551287 -0.47937688 -0.15852736 -0.47011426 -0.5038924 -0.5757982 -0.65741086
-0.6908375 -0.6415088 -0.7445548 -0.46711072 -0.43875903 -0.44687748 -0.69995457 -0.8900893
-0.54723555 -0.48071444 -0.5198628 -0.48250774 -0.600832 -0.6995268 -0.5119547 -0.57285285
-0.7387669 -0.4515232 -0.0901151 -0.68643725 -0.49574485 -0.5772543 -0.76550835 -0.63341206
-0.47727868 -0.6527628 -0.67715675 -0.10314689 -0.7739948 -0.5330179 -0.57886946 -0.63705456
-0.67248714 -0.53709036 -0.0021099967 -0.577863 -0.7910748 -0.45979345 -0.5535644 -0.5740382
-0.55275375 -0.52154577 -0.6496565 -0.60773224 -0.7082784 -0.8580031 -0.7502107 -0.5316427
-0.4659763 -0.80808526 -0.61686504 -0.47868928 -0.46263468 -0.4447089 -0.7695453 -0.5192878
-0.7951607 -0.34609097 -0.46874344 -0.65264815 -0.509521 -0.5277851 -0.67891973 -0.44016668
-0.44507325 -0.8151178 -0.5908914 -0.5085701 -0.5122122 -0.4493365 -0.48140436 -0.81665033
-0.6519751 -0.29773426 -0.61182886 -0.6831426 -0.44832733 -0.73987097 -0.0033886079 -0.63292676
-0.4708391 -0.51594317 -0.5658821 -0.7635807 -0.56451666 -0.2567696 -0.65560603 -0.7749868
-0.73403114 -0.5815624 -0.8969311 -0.5053421 -0.53676337 -0.49709827 -0.73977757 -0.8315007
-0.4857147 -0.599502 -0.4532335 -0.6620872 -0.7789338 -0.79022366 -0.58170384 -0.6607027
-0.48817906 -0.5202789 -0.468807 -0.4200546 -0.73404974 -0.57461286 -0.5765883 -0.5313108
00000000: ff80 edbe 32b9 29bf cf35 efbe 8bb7 7bbe
00000010: a746 0dbf 2e03 22bf 893a 2ebf 5685 debe
00000020: 21b4 29bf 8873 18bf e370 f5be ff54 22be
00000030: d1b2 f0be 18ff 00bf 8367 13bf 144c 28bf
00000040: bada 30bf ec39 24bf 259b 3ebf 2329 efbe
00000050: 06a5 e0be 20cd e4be 3930 33bf e4dc 63bf
00000060: a117 0cbf 3420 f6be ba15 05bf 410b f7be
00000070: 20d0 19bf 3014 33bf 770f 03bf 7ca6 12bf
00000080: d41f 3dbf 0d2e e7be 448e b8bd 5aba 2fbf
00000090: 45d2 fdbe f0c6 13bf 5bf8 43bf 4b27 22bf
000000a0: df5d f4be 761b 27bf 255a 2dbf ad3e d3bd
000000b0: 8624 46bf dc73 08bf ca30 14bf 0216 23bf
000000c0: 1e28 2cbf c17e 09bf df47 0abb d4ee 13bf
000000d0: e183 4abf 0c6a ebbe 66b6 0dbf 2bf4 12bf
000000e0: 4581 0dbf 0684 05bf e34f 26bf 5794 1bbf
000000f0: bc51 35bf 17a6 5bbf cf0d 40bf bc19 08bf
00000100: 7294 eebe adde 4ebf deea 1dbf c316 f5be
00000110: 74de ecbe e3b0 e3be ec00 45bf 0cf0 04bf
00000120: a78f 4bbf d632 b1be 24ff efbe f313 27bf
00000130: f86f 02bf ed1c 07bf afcd 2dbf 875d e1be
00000140: a4e0 e3be 8fab 50bf a944 17bf a631 02bf
00000150: 5720 03bf 6f0f e6be a27a f6be ff0f 51bf
00000160: d7e7 26bf a070 98be d1a0 1cbf 6fe2 2ebf
00000170: 298b e5be 2f68 3dbf 6813 5ebb 7d07 22bf
00000180: d311 f1be da14 04bf a6dd 10bf 067a 43bf
00000190: 2a84 10bf 4e77 83be ccd5 27bf 8965 46bf
000001a0: 77e9 3bbf 46e1 14bf 479d 65bf 1a5e 01bf
000001b0: 5369 09bf aa83 febe 1062 3dbf 3bdd 54bf
000001c0: 99af f8be f778 19bf 390e e8be 8c7e 29bf
000001d0: 3568 47bf 194c 4abf 8bea 14bf d023 29bf
000001e0: 9bf2 f9be ff30 05bf 7907 f0be 6611 d7be
000001f0: afea 3bbf d419 13bf 4a9b 13bf fc03 08bf

tiles_emb.hidden_layers.2.weight f4 [128, 128]
-0.6357493 0.41619632 -0.63353074 3.722314e-10 -0.792137 -0.87109685 -0.33392087 -0.73062855
-0.6201383 0.1819815 -0.49547455 -0.42192143 -0.6288968 0.17596725 0.38502824 7.4398165e-05
0.47817335 -0.72658724 -0.0051481426 -0.61903805 -0.017107641 -0.4675286 -0.053515125 -0.30288166
0.21076125 0.10507734 -0.7959847 0.08843758 -0.69875884 -0.51180464 -0.7243738 0.16833006
-0.42834127 -0.39410746 0.008288158 0.41572574 -0.69754726 -0.38757038 -0.09581971 -0.37528047
0.20846832 -0.8519025 -0.3631523 -5.920975e-10 -0.33546567 0.0879166 0.43888947 -0.5969084
0.43941748 -0.5635215 6.6221517e-09 -0.79803336 -0.3380613 -0.6444217 -0.096807115 0.12538458
-0.67782795 -0.57895654 -0.5764956 -0.20325841 0.36451894 0.5005759 -0.5405549 0.52545625
0.18899506 -0.47263002 0.58506626 0.1988416 -0.4713657 0.22986242 -0.45609576 -0.7380228
0.058697425 -0.4236355 -0.5180834 -0.56692386 -0.62516344 0.1894726 -0.6896813 -0.44291583
-0.699083 -0.4601942 -0.13580987 -0.7720438 0.21122934 0.25623864 -0.52973187 0.59790325
-0.5202336 -0.73691595 -0.86203104 -0.28714788 -0.7167446 -0.4992591 -0.18984675 -0.5346363
-0.54196215 -0.7721256 -0.050456945 0.5041911 -0.077064216 -0.08221203 -0.44600445 0.44506717
-0.595395 0.42473367 -0.45880827 -0.9315558 0.21506196 0.077949494 0.22075847 0.22668606
0.091209464 -0.24975665 -0.5710456 -0.60809964 0.55014455 0.53922355 0.26732427 -0.90279895
0.13872215 0.16991906 0.1173554 -0.25753373 -0.23511225 0.16960445 -0.51190835 -0.6712414
0.6085418 -0.062971085 0.51821864 -9.895913e-10 -0.110588476 -0.13755357 -0.7759048 0.46068883
0.3977094 -0.7448864 0.4482078 0.25969085 0.52306694 -0.5746047 0.388381 -0.0040321895
-0.34815478 0.39602056 -0.46114945 0.61328435 -0.53281975 0.48645866 -0.54362464 0.32034537
-0.6468933 -0.60096425 0.013855713 -0.60800123 -0.37316224 -0.5359208 -0.22015682 -0.5323943
0.45817843 -0.8320231 -0.33296174 -0.51497513 0.4995645 -0.43086457 -0.43030554 -0.68345106
-0.55194664 0.073127426 0.51777524 -1.4320197e-09 0.18821484 -0.49392053 0.4796613 0.57983994
-0.3760686 -0.002303017 -1.868532e-09 0.30510414 -0.45943397 0.46689054 0.14017193 -0.66913664
0.043176457 -0.08715943 0.61257607 0.2825773 -0.3477589 -0.5352104 -0.42023295 -0.53408176
-0.5116646 0.50411165 0.13621078 -0.22265463 0.5285938 -0.38496238 0.34781218 -0.06725399
-0.008367047 -0.5825379 -0.8567966 -0.31621787 -0.23023516 -0.5949362 0.2303869 -0.46628767
0.3842467 0.5284441 0.033323217 0.6254121 -0.5404601 -0.624585 0.6108285 -0.38838628
0.4996089 0.39670613 -0.0023548952 0.20662771 0.40395802 -0.31301147 0.32048038 0.42920074
0.43884185 -0.2880878 0.14955051 0.21678722 0.13286318 0.032231227 0.45737776 -0.45993695
-0.4158303 -0.35176095 0.3593716 0.1909415 -0.6000916 -0.7030269 -0.26478028 -0.03763916
-0.563516 -0.7096582 0.5147087 0.48136935 0.4157066 -0.5962613 -0.15667541 -0.18147805
-0.6449775 -0.55308825 -0.58477753 -0.5029719 -0.4248306 -0.7318067 -0.38950652 0.272591
00000000: 77c0 22bf af17 d53e 122f 22bf eaa2 cc2f
00000010: 7ec9 4abf 3400 5fbf adf7 aabe 790a 3bbf
00000020: 62c1 1ebf 5c59 3a3e d7ae fdbe 1606 d8be
00000030: 61ff 20bf c230 343e 6c22 c53e 3606 9c38
00000040: 23d3 f43e 9f01 3abf c0b1 a8bb 4779 1ebf
00000050: 5325 8cbc e95f efbe ad32 5bbd 4e13 9bbe
00000060: ccd1 573e ca32 d73d a7c5 4bbf c31e b53d
00000070: dce1 32bf a105 03bf 9070 39bf b75e 2c3e
00000080: 8c4f dbbe 74c8 c9be 0ecb 073c 01da d43e
00000090: 7592 32bf a06f c6be 203d c4bd c324 c0be
000000a0: b878 553e 4816 5abf 19ef b9be 28c1 22b0
000000b0: 28c2 abbe 9e0d b43d 1fb6 e03e fdce 18bf
000000c0: 54fb e03e f242 10bf 1089 e331 ea4b 4cbf
000000d0: 5f16 adbe d2f8 24bf cf42 c6bd d164 003e
000000e0: 2286 2dbf 7f36 14bf 3795 13bf f922 50be
000000f0: 3aa2 ba3e be25 003f ce61 0abf 4d84 063f
00000100: ec87 413e 90fc f1be e7c6 153f 229d 4b3e
00000110: d856 f1be 0e61 6b3e 6285 e9be 10ef 3cbf
00000120: b66c 703d c1e6 d8be 1da1 04bf ec21 11bf
00000130: b60a 20bf 1b05 423e f48e 30bf ddc5 e2be
00000140: 1af7 32bf 939e ebbe be11 0bbe aaa4 45bf
00000150: 814c 583e b631 833e 829c 07bf 3010 193f
00000160: 072e 05bf 86a6 3cbf 11ae 5cbf 0c05 93be
00000170: 937c 37bf e49e ffbe 3067 42be eddd 08bf
00000180: 08be 0abf 06aa 45bf f1ab 4ebd ab12 013f
00000190: d8d3 9dbd c85e a8bd b25a e4be d8df e33e
000001a0: cf6b 18bf b176 d93e ebe8 eabe 717a 6ebf
000001b0: 3439 5c3e fca3 9f3d 820e 623e 6420 683e
000001c0: 07cc ba3d 35c0 7fbe 0b30 12bf 6bac 1bbf
000001d0: 46d6 0c3f 8e0a 0a3f bade 883e d51d 67bf
000001e0: 2e0d 0e3e 43ff 2d3e 0758 f03d 76db 83be
000001f0: 44c1 70be caac 2d3e 6d0c 03bf 7ad6 2bbf
00000200: 65c9 1b3f fcf6 80bd faa9 043f 2602 88b0
00000210: 367c e2bd d8da 0cbe b2a1 46bf 68df eb3e
00000220: 91a0 cb3e e0b0 3ebf 7e7b e53e 33f6 843e
00000230: b7e7 053f 4b19 13bf e0d9 c63e 7520 84bb
00000240: 5841 b2be 35c3 ca3e c81b ecbe 3400 1d3f
00000250: e066 08bf 1c11 f93e fc2a 0bbf 4f04 a43e
00000260: cd9a 25bf cbd8 19bf 1303 633c f8a5 1bbf
00000270: 1f0f bfbe 1b32 09bf ca70 61be fe4a 08bf
00000280: 5d96 ea3e 77ff 54bf f679 aabe 69d5 03bf
00000290: ebc6 ff3e 489a dcbe 0251 dcbe a6f6 2ebf
000002a0: 604c 0dbf d5c3 953d eb8c 043f b7d0 c4b0
000002b0: 64bb 403e 27e3 fcbe 2a96 f53e 6470 143f
000002c0: 108c c0be 37ee 16bb 9067 00b1 9c36 9c3e
000002d0: ee3a ebbe 470c ef3e 3b89 0f3e 8a4c 2bbf
000002e0: ccd9 303d a580 b2bd c9d1 1c3f f9ad 903e
000002f0: 740d b2be 8c03 09bf c628 d7be 95b9 08bf
00000300: 74fc 02bf 760d 013f d77a 0b3e 93ff 63be
00000310: ec51 073f ca19 c5be 7014 b23e 76bc 89bd
00000320: f015 09bc 3421 15bf 0657 5bbf 4fe7 a1be
00000330: c4c2 6bbe bd4d 18bf 8bea 6b3e 42bd eebe
00000340: fcbb c43e 1d48 073f ed7d 083d 021b 203f
00000350: 985b 0abf cde4 1fbf 425f 1c3f 91da c6be
00000360: bdcc ff3e 111d cb3e 9654 1abb 3796 533e
00000370: 96d3 ce3e 0a43 a0be 0116 a43e 33c0 db3e
00000380: e1af e03e 3e80 93be c523 193e 78fd 5d3e
00000390: 490d 083e e404 043d 6b2d ea3e db7c ebbe
000003a0: b6e7 d4be 031a b4be 8eff b73e 2b86 433e
000003b0: 9a9f 19bf 92f9 33bf 4891 87be 852b 1abd
000003c0: 9642 10bf 29ac 35bf f3c3 033f 0b76 f63e
000003d0: 7fd7 d43e 95a4 18bf 856f 20be 62d5 39be
000003e0: 3f1d 25bf 3197 0dbf fbb3 15bf c4c2 00bf
000003f0: 6583 d9be af57 3bbf 666d c7be 0c91 8b3e

tiles_emb.hidden_layers.2.bias f4 [128]
-0.6576837 -0.7562383 -0.6653266 0.9290873 0.823474 0.6094325 0.35175475 -0.6051
-0.90569353 0.43946362 -0.62059146 -0.5484495 0.7434719 0.59005743 -0.7067091 -0.5844799
0.7501106 -0.84869677 -0.2735433 0.77407014 0.7924651 -0.82530916 -0.54907906 -0.8669624
-0.97433895 0.76500094 -0.40134516 0.40680885 0.38607544 0.6414028 -0.7758927 0.40293154
0.8816055 0.4423814 -0.81506467 0.50150865 0.4601032 0.21589004 -0.5091609 0.90279204
-0.6531282 0.71161616 0.82484907 -0.41853324 -0.8369434 -0.78103197 -0.45486736 -0.45200506
0.6450683 -0.91530925 -0.82408184 0.41065353 -0.4723989 -0.41148597 -0.44092298 0.4573896
0.65342635 -0.8179038 -0.45168632 0.60493726 -0.6347381 0.46049806 0.6034246 -0.8979422
0.41502395 -0.41051707 -0.45341825 -0.83146274 -0.63678265 -0.8608979 -0.54227763 -0.83025956
0.8831144 0.74861073 0.9450369 0.50467014 -0.31537244 0.7440978 -0.8293473 0.70401824
0.63011134 -0.9354848 0.4538929 -0.41282815 0.41599143 -0.842362 -0.40193135 0.8130541
-0.8210637 -0.37653056 0.8586621 -0.7637314 -0.58447474 0.81684446 0.16577418 -0.41171977
-0.6658571 0.5913359 -0.8660283 -0.8409249 -0.44248757 0.94534695 0.6843576 -0.5890991
-0.66909236 0.5391105 0.80137646 -0.32773808 0.5280334 0.8089911 0.65506583 0.79490906
-0.8975877 -0.888082 0.3155686 0.81789887 0.9239011 0.71067506 0.8368121 -0.80865145
-0.32793757 0.86937004 -0.6569099 0.49798787 0.40917006 -0.40664 0.60352445 0.83018994
00000000: f55d 28bf d598 41bf d852 2abf aad8 6d3f
00000010: 31cf 523f c503 1c3f 3319 b43e d5e7 1abf
00000020: 88db 67bf 6001 e13e 15df 1ebf 3067 0cbf
00000030: 2d54 3e3f 010e 173f e3ea 34bf 7aa0 15bf
00000040: 4007 403f 3144 59bf de0d 8cbe 7629 463f
00000050: fede 4a3f 7647 53bf 7290 0cbf 3ff1 5dbf
00000060: 476e 79bf 1ad7 433f 1d7d cdbe 4049 d03e
00000070: aeab c53e f932 243f e7a0 46bf 0b4d ce3e
00000080: e6b0 613f d17f e23e 14a8 50bf df62 003f
00000090: a692 eb3e 4712 5d3e 5e58 02bf 611d 673f
000000a0: 6933 27bf 7a2c 363f 4f29 533f fd49 d6be
000000b0: ec41 56bf b6f1 47bf 60e4 e8be 356d e7be
000000c0: 3223 253f b551 6abf 07f7 52bf 2e41 d23e
000000d0: 45de f1be 4aae d2be a8c0 e1be f82e ea3e
000000e0: f346 273f 2562 51bf 6e43 e7be 2bdd 1a3f
000000f0: 327e 22bf 67c6 eb3e 097a 1a3f 8adf 65bf
00000100: 057e d43e 4b2f d2be 7026 e8be beda 54bf
00000110: 3004 23bf ce63 5cbf b5d2 0abf e48b 54bf
00000120: c913 623f f4a4 3f3f f0ed 713f 1032 013f
00000130: 7f78 a1be 327d 3e3f 1b50 54bf 8a3a 343f
00000140: fa4e 213f ef7b 6fbf a664 e83e 365e d3be
00000150: d4fc d43e 09a5 57bf f2c9 cdbe 5024 503f
00000160: 3b31 52bf 9dc8 c0be 48d1 5b3f e783 43bf
00000170: 23a0 15bf b81c 513f b5c0 293e efcc d2be
00000180: 9c75 2abf ca61 173f 08b4 5dbf db46 57bf
00000190: bb8d e2be 4202 723f 0f32 2f3f 33cf 16bf
000001a0: a349 2bbf 2503 0a3f 0227 4d3f 49cd a7be
000001b0: 322d 073f 0a1a 4f3f 65b2 273f 297f 4b3f
000001c0: 4fc8 65bf 5859 63bf 3592 a13e d261 513f
000001d0: c884 6c3f cdee 353f 5139 563f c803 4fbf
000001e0: 6fe7 a7be 098f 5e3f 3f2b 28bf 44f8 fe3e
000001f0: bd7e d13e 1e33 d0be 9480 1a3f 5487 543f

attention_layer.att.weight f4 [128, 128]
-0.27268627 0.64793134 -0.27948087 -0.8176605 -0.80621564 0.24799547 0.35455102 -0.3678724
0.6436584 0.23510936 -0.2496059 0.7569902 -0.7580922 -0.69146246 0.7158878 -0.26671952
-0.63802636 0.8148987 -0.3456949 0.32587233 -0.70944214 0.7905951 -0.3637634 0.81543547
0.69504213 -0.7667543 -0.33176285 0.23561165 0.36861604 -0.7138285 0.7569568 0.2608877
-0.6835299 0.35536608 0.816423 0.24307476 0.26239994 0.6393556 -0.20129098 -0.79015553
-0.34673062 0.21721493 0.22330026 -0.3145967 0.794389 0.6869833 -0.31625468 -0.20119677
-0.6656566 0.7487963 0.70563525 0.20199591 -0.21958886 -0.25883898 -0.2767162 0.24028002
0.33608586 0.8195166 -0.20382039 0.31035244 -0.21329269 0.2021118 -0.68294877 0.80496866
0.26243296 -0.2747033 -0.3305498 0.67769134 -0.35778266 0.74879915 -0.26431677 0.64911616
-0.6779043 -0.65383404 -0.81706196 0.27206078 -0.37090415 -0.8057576 0.6725613 -0.66858065
0.2449323 0.76503223 0.33242536 -0.3384298 0.3104844 0.6462442 -0.28022987 -0.8181116
0.8072814 -0.38151988 -0.64953613 0.7570637 -0.2690611 -0.7540737 0.6360808 -0.2477325
-0.20523262 0.3223792 0.7363907 0.64405495 -0.36805975 0.21909878 0.23573701 -0.2287839
-0.3089639 0.38292265 -0.66492766 -0.23739329 0.36964664 -0.8013781 0.2508807 -0.6529743
0.72465056 0.68303615 0.2712894 -0.7082392 -0.7524579 -0.817992 -0.81635296 0.64797926
-0.3386048 -0.76194865 -0.2717084 0.3412653 0.24780336 -0.2800959 0.2365715 -0.7921253
0.78403854 -0.30948958 0.77440757 0.35931107 0.21340321 -0.65116066 -0.69427955 0.6481813
-0.25920781 -0.6898227 0.6877629 -0.33654433 0.27025974 0.3264089 -0.3488029 0.6955681
0.24518909 -0.31540474 0.7867957 -0.637667 0.3316231 -0.27145806 0.7171346 -0.33476287
-0.27024752 0.2639239 0.6679063 -0.7887123 -0.7958774 0.23219453 -0.20348457 -0.7588064
0.34431082 -0.6490991 -0.22267647 -0.7109086 -0.75674963 -0.3470792 0.6688798 0.28637338
0.79554766 -0.80652857 -0.7867462 0.6986186 -0.2438522 -0.34901142 0.786498 0.64546174
0.20216502 -0.24752645 -0.2798653 -0.7161038 0.76213974 0.64074516 0.683916 -0.7977083
-0.7726081 -0.38732877 0.8089065 -0.79113936 0.71464264 -0.78810614 0.32364434 -0.3315309
-0.64088535 0.7806153 0.787085 -0.21670553 0.641582 -0.26436263 0.6488715 -0.20316593
0.3782881 0.22502564 0.33414716 -0.7539965 0.6555088 0.3372668 -0.24617286 0.27720892
-0.7512594 -0.21360543 -0.6434022 0.657874 -0.81165296 -0.33599418 0.6829906 0.33964264
-0.22025323 0.70175487 0.24064893 -0.37560585 0.7047125 0.32933417 -0.40521485 0.8093602
0.7179663 -0.6930872 -0.26474816 -0.23210019 0.6946689 -0.7719202 -0.67815995 0.7485949
0.714543 -0.6816481 0.32121268 0.69503945 -0.7611116 0.31782696 -0.64328206 0.34031466
-0.3728232 -0.27202234 -0.6860596 0.23469694 -0.69279885 0.22616927 0.26031473 -0.3341171
0.7440962 0.2498657 0.765447 -0.80694914 -0.6848627 0.7505599 -0.66842073 0.26021433
00000000: 899d 8bbe d4de 253f 1e18 8fbe 3352 51bf
00000010: 2664 4ebf 86f2 7d3e b687 b53e c559 bcbe
00000020: ccc6 243f 82c0 703e b098 7fbe 1cca 413f
00000030: 5512 42bf af03 31bf 6c44 373f 768f 88be
00000040: b255 23bf 349d 503f ecfe b0be bdd8 a63e
00000050: 009e 35bf 7164 4a3f 323f babe 61c0 503f
00000060: 48ee 313f 034a 44bf d2dc a9be 2e44 713e
00000070: 3ebb bc3e 77bd 36bf ecc7 413f 1393 853e
00000080: d1fb 2ebf 8bf2 b53e 1901 513f 97e8 783e
00000090: 4959 863e cfac 233f 391f 4ebe a247 4abf
000000a0: ad86 b1be 976d 5e3e d3a8 643e d212 a1be
000000b0: 145d 4b3f 23de 2f3f 22ec a1be 8706 4ebe
000000c0: 7968 2abf 1db1 3f3f 83a4 343f 04d8 4e3e
000000d0: e7db 60be 8b86 84be bfad 8dbe f70b 763e
000000e0: 7213 ac3e d7cb 513f 4bb6 50be 84e6 9e3e
000000f0: 6669 5abe 65f6 4e3e bbd5 2ebf 6d12 4e3f
00000100: 9d5d 863e e9a5 8cbe d33d a9be 2e7d 2d3f
00000110: 4a2f b7be 4db1 3f3f 8754 87be 7a2c 263f
00000120: 238b 2dbf ab61 27bf f92a 51bf 8d4b 8b3e
00000130: 26e7 bdbe 2146 4ebf fa2c 2c3f 1a28 2bbf
00000140: 88cf 7a3e 27d9 433f a833 aa3e ac46 adbe
00000150: d0f7 9e3e 4370 253f 4a7a 8fbe c36f 51bf
00000160: fea9 4e3f 9356 c3be 0048 26bf edce 413f
00000170: 60c2 89be f90a 41bf 31d6 223f 97ad 7dbe
00000180: 8028 52be e30e a53e 1a84 3c3f c9e0 243f
00000190: 5472 bcbe 6e5b 603e 0b65 713e 5446 6abe
000001a0: 8430 9ebe 700e c43e b338 2abf 3a17 73be
000001b0: 5342 bd3e 1d27 4dbf 6f73 803e 5329 27bf
000001c0: b382 393f 75db 2e3f 72e6 8a3e 2a4f 35bf
000001d0: 15a1 40bf ec67 51bf 82fc 50bf f8e1 253f
000001e0: 9c5d adbe 110f 43bf 5d1d 8bbe 53ba ae3e
000001f0: 2ac0 7d3e bb68 8fbe cd3f 723e b9c8 4abf
00000200: c0b6 483f 6b75 9ebe 933f 463f 9ff7 b73e
00000210: 5f86 5a3e 77b2 26bf 4ebc 31bf 36ef 253f
00000220: e3b6 84be 3898 30bf 3b11 303f 8a4f acbe
00000230: 7c5f 8a3e 111f a73e 4b96 b2be c010 323f
00000240: d912 7b3e bb7c a1be 716b 493f 253e 23bf
00000250: 81ca a93e 8dfc 8abe 2296 373f 0a66 abbe
00000260: e25d 8abe 0921 873e e8fb 2a3f 0de9 49bf
00000270: 9fbe 4bbf 67c4 6d3e 425e 50be 2341 42bf
00000280: 8249 b03e 5c2b 26bf 4d05 64be 1bfe 35bf
00000290: 58ba 41bf 5db4 b1be b53b 2b3f 889f 923e
000002a0: 03a9 4b3f a878 4ebf 3368 49bf abd8 323f
000002b0: 64b4 79be a0b1 b2be ef57 493f fb3c 253f
000002c0: 5904 4f3e 9377 7dbe 814a 8fbe 9452 37bf
000002d0: 971b 433f e007 243f 1e15 2f3f 9c36 4cbf
000002e0: a5c9 45bf f54f c6be 7f14 4f3f 1c88 4abf
000002f0: d2f2 363f 53c1 49bf b6b4 a53e 6bbe a9be
00000300: 1011 24bf 68d6 473f 677e 493f 0ee8 5dbe
00000310: b83e 243f 8a5a 87be 711c 263f bb0a 50be
00000320: faae c13e 1f6d 663e 5615 ab3e ea05 41bf
00000330: 6dcf 273f 3cae ac3e bd14 7cbe 54ee 8d3e
00000340: 8952 40bf 62bb 5abe 02b6 24bf 6e6a 283f
00000350: 7dc8 4fbf 6e07 acbe 79d8 2e3f a4e5 ad3e
00000360: 108a 61be 35a6 333f ac6c 763e 694f c0be
00000370: 0a68 343f 7d9e a83e 5278 cfbe 3b32 4f3f
00000380: a4cc 373f 2a6e 31bf 128d 87be acab 6dbe
00000390: d2d5 313f 909c 45bf e49b 2dbf eaa3 3f3f
000003a0: 4aec 363f 7d80 2ebf fd75 a43e 1bee 313f
000003b0: 36d8 42bf 37ba a23e 22ae 24bf b93d ae3e
000003c0: afe2 bebe 8346 8bbe 9aa1 2fbf 6554 703e
000003d0: 445b 31bf eb98 673e f947 853e 6611 abbe
000003e0: 177d 3e3f cbdc 7f3e 56f4 433f 3894 4ebf
000003f0: 2953 2fbf b224 403f 9f1d 2bbf d03a 853e

attention_layer.att.bias f4 [128]
-0.6859507 -0.76168334 -0.4932774 -0.32318294 -0.6859599 0.024763634 -0.3866096 -0.70821756
0.38480905 -0.6085226 -0.59903467 0.26316154 0.47096103 0.6693392 0.7169732 -0.7819479
0.54356444 -0.6458156 0.48378465 -0.552852 -0.7763974 0.62665635 0.62956905 -0.24659586
0.26873145 -0.98900723 0.33996552 0.55830353 -0.69598716 0.47336185 -0.3515241 -0.41058737
-1.1495342e-09 0.6008687 0.75305843 0.70379156 0.015525444 0.54442257 0.26938188 -0.81843156
0.22228949 0.30271164 0.3661646 0.3930693 -0.36824504 0.7018802 -0.30926767 0.7200314
0.30581182 0.35586318 0.29851383 -0.40521103 0.37542585 0.44379553 0.7445998 -0.6144428
-0.4868034 -0.42806783 0.21769232 -0.6701222 -0.22516201 -0.77529377 0.5319012 0.68850464
-0.53658825 0.40282342 -0.22799459 -0.7188757 0.56502897 0.47940773 0.76624954 0.00033676764
0.47266987 0.34625858 0.3714478 -0.26674643 0.47360665 -0.5149459 0.8242102 -0.7573921
0.7106527 0.7016888 0.22422811 -0.3193605 -0.32927278 0.6843919 0.68235064 0.18316217
0.5728338 -0.553077 0.3405177 0.6344061 -0.5687521 -0.6399824 0.38326156 0.79510367
0.21366847 0.26284045 0.7094619 -0.2822003 0.7798498 -0.55812687 -0.24200512 0.54298747
0.20203784 0.5406772 -0.8828982 -0.27447823 -0.8926155 -0.74093 -0.7113981 0.75955623
-0.616688 -0.7060969 -0.6497456 -0.30216303 -0.96981066 -0.37290725 -0.20575318 -0.5526144
0.37754896 0.46230835 0.46425545 0.68032396 -0.5458071 -0.59256816 0.78011286 -0.24569555
00000000: 779a 2fbf aefd 42bf db8e fcbe 3c78 a5be
00000010: 119b 2fbf 1bdd ca3c b2f1 c5be bf4d 35bf
00000020: b105 c53e 23c8 1bbf 565a 19bf 1cbd 863e
00000030: ce21 f13e d059 2b3f 8e8b 373f bd2d 48bf
00000040: 0a27 0b3f 2c54 25bf 9fb2 f73e b587 0dbf
00000050: fbc1 46bf 8d6c 203f 702b 213f a083 7cbe
00000060: 2b97 893e 942f 7dbf f60f ae3e fbec 0e3f
00000070: 372c 32bf 7c5c f23e f8fa b3be 8238 d2be
00000080: a4fd 9db0 88d2 193f 70c8 403f af2b 343f
00000090: 6f5e 7e3c 475f 0b3f 6cec 893e bb84 51bf
000000a0: db9f 633e 05fd 9a3e ed79 bb3e 6140 c93e
000000b0: 9d8a bcbe 6cae 333f 5558 9ebe fa53 383f
000000c0: 5e93 9c3e b333 b63e ced6 983e d277 cfbe
000000d0: d137 c03e 2b39 e33e 189e 3e3f 204c 1dbf
000000e0: 4c3e f9be b52b dbbe bcea 5e3e 218d 2bbf
000000f0: df90 66be a779 46bf ad2a 083f d741 303f
00000100: d95d 09bf df3e ce3e 6a77 69be 3d08 38bf
00000110: bda5 103f ee74 f53e ee28 443f 3090 b039
00000120: c901 f23e ce48 b13e 682e be3e fd92 88be
00000130: 927c f23e 7fd3 03bf 71ff 523f 73e4 41bf
00000140: 56ed 353f e1a1 333f 0e9c 653e 3883 a3be
00000150: 7196 a8be 4f34 2f3f 88ae 2e3f dd8e 3b3e
00000160: 3ca5 123f 7496 0dbf 5658 ae3e 7068 223f
00000170: bd99 11bf e3d5 23bf dc3a c43e ea8b 4b3f
00000180: e8cb 5a3e 0693 863e 4c9f 353f 8f7c 90be
00000190: 3da4 473f 67e1 0ebf 31d0 77be 3a01 0b3f
000001a0: 02e3 4e3e d269 0a3f 9e05 62bf 6988 8cbe
000001b0: 7382 64bf 97ad 3dbf 301e 36bf 4772 423f
000001c0: 44df 1dbf c4c2 34bf ba55 26bf 1db5 9abe
000001d0: 8345 78bf b3ed bebe f6b0 52be 2378 0dbf
000001e0: 194e c13e aeb3 ec3e e4b2 ed3e b629 2e3f
000001f0: 04ba 0bbf 8cb2 17bf 7ab5 473f 9d97 7bbe

attention_layer.gate.weight f4 [128, 128]
0.37083095 -0.68011886 0.20293233 0.70141095 0.69107944 -0.35409036 -0.21425541 0.19863187
-0.7602559 -0.32597452 0.27346444 -0.80367625 0.6809171 0.8221736 -0.713969 0.2255666
0.6382829 -0.6754057 0.37420595 -0.23828726 0.65354884 -0.6956137 0.37863052 -0.6446427
-0.7638158 0.65587 0.3346036 -0.35681403 -0.31392583 0.75319004 -0.78939366 -0.37689838
0.70690054 -0.24977978 -0.818219 -0.37578082 -0.24919003 -0.6606118 0.36790702 0.7843475
0.24107839 -0.21878836 -0.36877954 0.26475444 -0.69505566 -0.71361285 0.24776086 0.2080839
0.76415324 -0.25758013 -0.70287496 -0.31673414 0.23360054 0.37739167 0.33592665 -0.20607635
-0.33166593 -0.687862 0.308759 -0.2513524 0.30762702 -0.35804936 0.6769651 -0.68508583
-0.35998765 0.20759483 0.21421511 -0.758496 0.25962397 -0.7739034 0.27380392 -0.82272834
0.69819254 0.65680856 0.8074557 -0.32906887 0.25929955 0.63901854 -0.6795464 0.761443
-0.23274034 -0.69585925 -0.24537846 0.25921124 -0.21994558 -0.76119447 0.38646612 0.63841844
-0.76823914 0.38695952 0.8244589 -0.82300043 0.24880122 0.7139488 -0.7950554 0.2558345
0.25324094 -0.35692015 -0.3199846 -0.37392348 0.28026178 0.67544806 -0.19988614 0.20005073
0.34537393 -0.33416766 0.74409044 0.2074047 -0.38511083 0.77024287 -0.25628436 0.8235185
-0.2757922 -0.64048725 -0.34152472 0.80076194 0.64058244 0.7476445 0.70461315 -0.7550636
0.30545038 0.7890118 0.20485291 -0.21389826 -0.25396404 0.34607193 -0.23031329 0.66114616
0.60079193 0.104927115 0.7983199 -0.055373695 -0.6467704 -0.61008793 -0.91348606 0.22500268
0.6460306 -0.1705008 0.6956904 0.06099245 -0.13165885 -0.1951748 0.74091685 0.7087353
-0.09892437 0.10363619 -0.20094708 -0.6853274 -0.22052136 0.19674867 0.6241455 0.21105589
0.83368313 -0.6138826 0.1821855 -0.88199407 -0.2874433 -0.74506885 0.7098169 -0.29347187
-0.7617369 -0.25251475 -0.0012241853 -0.732475 -0.85518557 -0.27363977 0.8733685 -0.7562708
0.7741917 -0.26852846 -0.7383616 0.29760057 0.24715157 0.1711615 0.91384834 0.13034761
-0.7770051 0.15351534 0.18847711 -0.20407659 0.85641277 0.29350436 0.14953864 -0.1412366
-0.72586966 0.16925158 0.79050684 -0.15602395 0.736319 -0.16830733 -0.11719154 0.7624073
-0.75142765 0.7751198 0.93337774 0.1411729 0.6977839 0.1820047 0.22120513 0.101033464
-0.08558231 -0.26949647 -0.7396973 -0.79784024 0.9458049 -0.6580862 0.22032487 -0.018944522
-0.0797761 0.7545903 -0.7424899 0.7922265 -0.3023645 0.22230114 0.16448891 -0.13125935
0.09576782 0.3630407 -0.15099731 0.19372843 0.118492596 -0.7131631 -0.35901567 0.3132649
0.6959103 -0.11755079 0.26991636 -0.9448565 0.92591244 -0.8434324 -0.6993944 0.8198652
0.7925912 -0.86182994 -0.21413112 0.93342716 -0.77100354 -0.59729546 -0.2539413 -0.18981878
0.2438062 0.76279545 -0.889116 -0.21557175 -0.8145028 -0.072827645 -0.6297039 0.21670729
0.7764884 -0.70406044 0.20743035 -0.8746114 -0.31736404 0.22650199 -0.104083635 -0.08759307
00000000: 8edd bd3e 451c 2ebf 7ecd 4f3e ab8f 333f
00000010: 95ea 303f 554b b5be c565 5bbe 2766 4b3e
00000020: 21a0 42bf 22e6 a6be 8803 8c3e babd 4dbf
00000030: 9550 2e3f f879 523f acc6 36bf eefa 663e
00000040: 8266 233f 63e7 2cbf ec97 bf3e 9301 74be
00000050: fa4e 273f bd13 32bf dcdb c13e 4e07 25bf
00000060: 6f89 43bf 19e7 273f 2a51 ab3e 54b0 b6be
00000070: e3ba a0be 10d1 403f b415 4abf d3f8 c0be
00000080: 6ff7 343f 45c6 7fbe cd76 51bf 5866 c0be
00000090: ac2b 7fbe db1d 29bf 4f5e bc3e ffca 483f
000000a0: 41dd 763e 0e0a 60be acd0 bcbe e58d 873e
000000b0: 2bef 31bf 55af 36bf 06b5 7d3e f213 553e
000000c0: 8c9f 433f 8be1 83be 9def 33bf fa2a a2be
000000d0: fb34 6f3e 7b39 c13e 94fe ab3e ae05 53be
000000e0: 1ed0 a9be b917 30bf a915 9e3e 43b1 80be
000000f0: 4a81 9d3e 3f52 b7be 964d 2d3f c961 2fbf
00000100: 4d50 b8be bd93 543e 355b 5b3e cb2c 42bf
00000110: 6fed 843e 891e 46bf 0730 8c3e 539e 52bf
00000120: bfbc 323f 9b24 283f 6bb5 4e3f b77b a8be
00000130: e9c2 843e b896 233f c1f6 2dbf eeed 423f
00000140: 7c53 6ebe d523 32bf 7e44 7bbe 56b7 843e
00000150: 6a39 61be a4dd 42bf e3de c53e 646f 233f
00000160: 52ab 44bf 8f1f c63e bd0f 533f 28b0 52bf
00000170: bfc5 7e3e 59c5 363f c088 4bbf bdfc 823e
00000180: cca8 813e 3dbe b6be 06d5 a3be e672 bfbe
00000190: 797e 8f3e 2aea 2c3f f4ae 4cbe 19da 4c3e
000001a0: dad4 b03e 0618 abbe b67c 3e3f e661 543e
000001b0: 3f2d c5be a32e 453f b437 83be 1cd2 523f
000001c0: a334 8dbe f9f6 23bf 54dc aebe bcfe 4c3f
000001d0: 36fd 233f a165 3f3f 8761 343f d94b 41bf
000001e0: fe63 9c3e adfc 493f f6c4 513e 2508 5bbe
000001f0: 9307 82be 5730 b13e 3fd7 6bbe e040 293f
00000200: 80cd 193f 07e4 d63d b15e 4c3f 87cf 62bd
00000210: bf92 25bf b92e 1cbf 39da 69bf 1a67 663e
00000220: 4362 253f c397 2ebe c418 323f 38d3 793d
00000230: 94d1 06be e7db 47be baac 3d3f ad6f 353f
00000240: dc98 cabd 363f d43d 12c5 4dbe 9e71 2fbf
00000250: 5ad0 61be 7c78 493e 00c8 1f3f 091f 583e
00000260: 426c 553f 6927 1dbf d68e 3a3e 5dca 61bf
00000270: c52b 93be d5bc 3ebf 8fb6 353f f241 96be
00000280: 3101 43bf 9d49 81be d874 a0ba 7b83 3bbf
00000290: 71ed 5abf 831a 8cbe 1495 5f3f f79a 41bf
000002a0: 6d31 463f 907c 89be 4405 3dbf 1a5f 983e
000002b0: 4d15 7d3e f644 2f3e f7f1 693f d879 053e
000002c0: cee9 46bf 2033 1d3e 2500 413e 74f9 50be
000002d0: de3d 5b3f 3446 963e a820 193e 54a0 10be
000002e0: 98d2 39bf 4950 2d3e a85e 4a3f bec4 1fbe
000002f0: 677f 3c3f c258 2cbe 1e02 f0bd 202d 433f
00000300: 905d 40bf 406e 463f d8f1 6e3f a18f 103e
00000310: f7a1 323f 715f 3a3e 9983 623e a2ea ce3d
00000320: c745 afbd 71fb 89be cd5c 3dbf 423f 4cbf
00000330: 4520 723f 5678 28bf d89c 613e 8b31 9bbc
00000340: a761 a3bd d42c 413f d113 3ebf 5bcf 4a3f
00000350: 85cf 9abe e9a2 633e c86f 283e da68 06be
00000360: eb21 c43d 78e0 b93e 0a9f 1abe bf60 463e
00000370: 3fac f23d db91 36bf e7d0 b7be 4264 a03e
00000380: 2d27 323f 78be f0bd 7a32 8a3e 1ee2 71bf
00000390: 9908 6d3f 30eb 57bf 830b 33bf b0e2 513f
000003a0: 42e7 4a3f e3a0 5cbf 3045 5bbe 15f5 6e3f
000003b0: 7d60 45bf 5be8 18bf 9804 82be db5f 42be
000003c0: 55a8 793e 9046 433f 1b9d 63bf d7be 5cbe
000003d0: 4183 50bf a926 95bd 4634 21bf 84e8 5d3e
000003e0: f2c7 463f 4e3d 34bf 9f68 543e 88e6 5fbf
000003f0: 8a7d a2be 23f0 673e cd29 d5bd ff63 b3bd

attention_layer.gate.bias f4 [128]
0.8031934 -0.6248504 -0.27790582 -0.11140188 0.33810908 0.10862927 -0.20874533 0.68987536
-0.700884 0.31798497 0.78565603 -0.63919157 0.6618219 -0.17662159 -0.242159 -1.3466066
-0.1975246 -0.23361433 -0.76393443 -0.32327375 -0.14564225 -0.21218078 0.62568974 -0.31469846
0.31715325 0.90180856 -0.75344497 0.3183096 -0.3394865 -0.21676727 -0.30976313 0.75678366
0.49005017 0.77246207 0.80984247 -0.67209464 0.5906792 -0.314991 -0.3722449 0.6678898
-0.2031716 0.21594897 0.79205674 0.86272013 -0.22121692 -0.34121922 0.11988301 0.81269765
-0.41796353 -0.1933409 -0.19083096 -0.31984738 -0.6662081 -0.9060238 -0.64240265 0.78486985
-0.3579411 -0.6714452 -0.57220054 0.6418869 0.21824637 0.66714096 -0.17368938 0.4091518
-0.6764561 0.35937935 0.12518308 0.7989647 0.66903526 0.36857167 0.09298419 -0.7724779
-0.23510018 0.7161367 0.7690156 -0.5256163 0.33328512 0.8032922 -0.1775335 -0.85964143
0.75880194 -0.28016695 0.766427 0.20768106 -0.23624289 0.26531962 -0.8439575 -0.616083
-0.36995256 0.6705273 -0.19349 0.76007545 0.5300169 -0.81713265 -0.7174619 0.86559504
0.27359742 0.6130427 0.70041287 -0.3581491 0.7007168 0.23539788 -0.66887844 -0.75893676
-0.7994877 -0.67651755 -0.23620257 0.23533574 0.7010606 -0.74697405 0.62872684 0.28025645
0.22941716 0.70086575 -0.004008498 -0.6524487 0.7545234 -0.6883653 -0.7712125 -0.6942804
0.63934827 -0.66313136 -0.81276196 -0.13279945 0.36823702 -0.19277681 0.64962363 -0.31134748
00000000: 159e 4d3f 32f6 1fbf ac49 8ebe ab26 e4bd
00000010: a21c ad3e 0679 de3d 56c1 55be ac9b 303f
00000020: 226d 33bf edce a23e c120 493f 0fa2 23bf
00000030: 296d 293f 4adc 34be 87f8 77be 9b5d acbf
00000040: e443 4abe 9838 6fbe 3591 43bf 2384 a5be
00000050: 3e23 15be eb45 59be 342d 203f 2820 a1be
00000060: e961 a23e eddc 663f c5e1 40bf 7af9 a23e
00000070: 2dd1 adbe 3df8 5dbe 4699 9ebe 93bc 413f
00000080: dbe7 fa3e 13c0 453f d651 4f3f 650e 2cbf
00000090: c136 173f 8046 a1be e296 bebe d3fa 2a3f
000000a0: 370c 50be ba21 5d3e 3bc4 4a3f 3adb 5c3f
000000b0: b086 62be 49b4 aebe 3985 f53d f40c 503f
000000c0: 51ff d5be 28fb 45be 3169 43be 09c3 a3be
000000d0: 9d8c 2abf 2df1 67bf 8074 24bf 3bed 483f
000000e0: 0e44 b7be d5e3 2bbf bc7b 12bf b352 243f
000000f0: fa7b 5f3e c0c9 2a3f a1db 31be 587c d13e
00000100: 3a2c 2dbf 9200 b83e fe2f 003e f388 4c3f
00000110: e545 2b3f 6db5 bc3e 7f6e be3d 1dc1 45bf
00000120: 1abe 70be bc54 373f 35de 443f ca8e 06bf
00000130: 59a4 aa3e 8fa4 4d3f 58cb 35be 7611 5cbf
00000140: d840 423f 0b72 8fbe 8f34 443f 58aa 543e
00000150: a8e9 71be f9d7 873e 990d 58bf 9eb7 1dbf
00000160: 6c6a bdbe ada7 2b3f 3e22 46be 4e94 423f
00000170: 30af 073f 9b2f 51bf 95ab 37bf a397 5d3f
00000180: f614 8c3e 5ef0 1c3f 424e 333f 525f b7be
00000190: 2d62 333f 240c 713e 9e3b 2bbf ae49 42bf
000001a0: 3aab 4cbf 4130 2dbf 16df 71be dafb 703e
000001b0: b578 333f b139 3fbf 3ef4 203f c67d 8f3e
000001c0: 55ec 6a3e f06b 333f b859 83bb e106 27bf
000001d0: 7228 413f b538 30bf 2f6e 45bf 5cbc 31bf
000001e0: 54ac 233f fac2 29bf 2b11 50bf 94fc 07be
000001f0: 9089 bc3e 4967 45be bc4d 263f f068 9fbe

attention_layer.w.weight f4 [1, 128]
-0.81043786 -0.8734507 -0.24008071 0.31688875 -0.85382026 0.67449546 0.3762679 0.554717
-0.33671537 0.6168323 -0.8005226 0.36504215 0.8742849 0.7679992 -0.2049397 0.03726857
-0.55921334 0.27008408 0.78302366 0.21699493 -0.9307321 0.2643761 0.7904732 0.33794814
-0.3439252 -0.35793167 -0.4060097 -0.37694106 0.2331074 0.68921226 0.31213585 -0.7180428
0.14613138 0.87855697 0.7988943 0.76513755 0.015548449 -0.68187344 0.23704731 -0.76290965
-0.3211552 -0.69307226 0.75785404 0.73792326 -0.44054666 0.7830011 0.3583483 -0.41637704
-0.273278 -0.21439277 0.22280759 -0.19251642 -0.3151473 -0.31882215 0.7791305 0.7079858
-0.047578316 0.31087688 -0.31215417 -0.7485976 -0.320232 -0.82403237 0.4714743 0.97096956
-0.82414305 -0.3189006 0.3469451 -0.8348678 -0.30847228 0.08726442 -0.028861308 -0.9126063
0.25737554 0.6427801 0.65418494 0.31005022 0.7611376 0.8022618 0.64142823 -0.77068245
0.7540957 0.2349895 0.70332164 0.60342723 -0.14448965 0.81624454 0.761835 0.31717145
0.23444714 -0.8313829 -0.37684488 0.797839 -0.33617905 -0.74447006 -0.37542674 0.5634292
0.3413093 -0.31126684 0.7586834 0.37266904 0.8343737 0.30747426 0.35637224 0.66474295
-0.38083073 0.35947406 0.34023154 0.3812983 0.646883 -0.7684053 -0.8116519 0.79755396
-0.82128125 0.5403632 -0.8919487 -0.37137806 0.40593994 0.3535693 0.38150388 -0.80635095
0.687695 0.6324159 -0.13388823 0.82523525 -0.781764 -0.3588125 0.8155897 0.31704992
00000000: db78 4fbf 779a 5fbf b8d7 75be 3e3f a23e
00000010: f793 5abf bcab 2c3f 30a6 c03e ef01 0e3f
00000020: f565 acbe b9e8 1d3f 0def 4cbf cee6 ba3e
00000030: 23d1 5f3f 989b 443f b6db 51be eea6 183d
00000040: 9b28 0fbf 7648 8a3e 3d74 483f eb33 5e3e
00000050: 7544 6ebf 4e5c 873e 745c 4a3f 8a07 ad3e
00000060: f716 b0be d242 b7be 81e0 cfbe 6bfe c0be
00000070: b5b3 6e3e 3770 303f 45d0 9f3e a7d1 37bf
00000080: 77a3 153e 1ce9 603f 5684 4c3f 0ee0 433f
00000090: ecbe 7e3c 428f 2ebf 88bc 723e 0c4e 43bf
000000a0: 746e a4be 2f6d 31bf b902 423f 8ae8 3c3f
000000b0: 558f e1be c372 483f 6e79 b73e 5f2f d5be
000000c0: 18eb 8bbe c789 5bbe ac27 643e 0623 45be
000000d0: fd5a a1be a83c a3be 1975 473f 8f3e 353f
000000e0: 7be1 42bd 412b 9f3e acd2 9fbe 18a4 3fbf
000000f0: 73f5 a3be c9f3 52bf 1465 f13e 7691 783f
00000100: 0afb 52bf f046 a3be caa2 b13e e5b9 55bf
00000110: 14f0 9dbe b0b7 b23d 8d6e ecbc 91a0 69bf
00000120: bac6 833e 3d8d 243f aa78 273f e7be 9e3e
00000130: ead9 423f 0861 4d3f a434 243f 724b 45bf
00000140: 6a0c 413f 16a1 703e e30c 343f 357a 1a3f
00000150: 18f5 13be 67f5 503f 9e07 433f 4c64 a23e
00000160: e912 703e 82d5 54bf d0f1 c0be 2d3f 4c3f
00000170: a91f acbe 9795 3ebf ef37 c0be e53c 103f
00000180: 18c0 ae3e 5e5e 9fbe 1339 423f 7ace be3e
00000190: 8499 553f 446d 9d3e 6c76 b63e 982c 2a3f
000001a0: 3ffc c2be fc0c b83e d432 ae3e 8839 c33e
000001b0: 209a 253f 36b6 44bf 6bc8 4fbf 7f2c 4c3f
000001c0: 7d3f 52bf 3e55 0a3f c056 64bf 4425 bebe
000001d0: 5cd7 cf3e 0907 b53e 7a54 c33e 046d 4ebf
000001e0: c80c 303f 02e6 213f ff19 09be 9e42 533f
000001f0: af21 48bf 46b6 b7be 7dca 503f 5e54 a23e

mlp.0.0.weight f4 [128, 128]
-0.1941083 0.6630679 -0.21313073 -0.80002385 -0.77144456 0.18918668 0.2657326 -0.22724912
0.6725966 0.18811727 -0.31894836 0.7782662 -0.7198227 -0.70399696 0.8361202 -0.20541741
-0.81877244 0.7086905 -0.3175122 0.2329952 -0.81073457 0.6938268 -0.31362292 0.7348614
0.77858585 -0.671232 -0.17290588 0.19842526 0.30151066 -0.71220046 0.7889213 0.18392952
-0.7796896 0.19821292 0.81780803 0.30582684 0.26131743 0.30834255 -0.21103944 -0.6997903
-0.35487795 0.3563547 0.32915518 -0.19738056 0.8064464 0.64350086 -0.37701926 -0.18573794
0.1588763 0.7880837 0.6551089 0.3461984 -0.32971632 -0.18897416 -0.31586543 0.2976709
0.3485383 0.775781 -0.37820265 0.27548584 -0.24661028 0.26353797 -0.68711215 0.722296
0.23961689 -0.35344714 -0.2140974 0.84213936 -0.24654496 0.67099124 -0.276802 0.66961944
-0.7365045 -0.72459304 -0.76603234 0.18992275 -0.22196129 -0.90636224 0.7052109 -0.8256898
0.33189172 0.748905 0.32080382 -0.2351355 0.3517474 0.81972843 -0.21305211 -0.6768488
0.8439804 -0.29296824 -0.72389406 0.705639 -0.32022318 -0.7583579 0.3781207 -0.33225584
-0.2370832 -0.085481614 0.7041163 0.8128988 -0.32288262 0.17548448 0.20773454 -0.37871054
-0.3459157 0.1852806 -0.80498564 -0.38568652 0.24847016 -0.85930485 0.3260524 -0.74824363
0.8030365 0.7804158 0.30980146 -0.70267063 0.21813464 -0.8045948 -0.72259945 0.71805406
-0.35750625 -0.6725063 -0.3448589 0.37900907 0.25351256 -0.23349048 0.19258428 -0.6848784
0.79058295 -0.44014993 0.76189756 0.29098573 -0.49342167 -0.9152709 -0.71912205 0.66351503
0.052793518 -0.6800591 0.6227522 -0.5799997 0.5879138 0.7150382 -0.26059598 0.58447665
0.5412643 -0.51349455 0.52272445 -0.7616105 0.15963805 -0.27945745 0.6939854 -0.31321338
1.2682109 0.17724931 0.5864226 -0.6913138 -0.6668451 0.31647328 0.5376045 -0.18550804
0.018212108 -0.6544888 -0.57843316 -0.69149494 -0.7693604 -0.15971978 0.60563695 0.030180058
0.74755 -0.8112979 -1.083924 0.63008696 -0.4839878 -0.58551 0.60977054 0.6808093
-1.1305647 -0.5681034 -0.54830897 -0.64024985 0.75588906 0.58595353 0.50472826 -0.7044355
-0.5796435 -0.25320065 0.7013417 -1.2783586 0.91197646 -0.49710348 0.431314 0.29013968
-0.12365164 0.62010986 0.6103814 -0.05259446 0.6670715 -0.5295063 0.8452221 -0.62341195
0.2870513 0.6304949 -0.1280176 -0.79669374 0.6438164 -0.27447206 -0.601245 0.31475064
-0.85697484 0.006692247 -0.65987456 0.5898014 -0.38219753 -0.17421277 0.28257102 0.52236086
-0.23510805 0.2173316 0.33364195 -0.54859054 0.6050655 -0.23179506 -0.2870353 0.09905276
0.79733896 -1.4663405 -0.57808083 -0.5125842 0.6422716 -1.5726658 -0.6343858 0.7470501
0.72085935 -0.6304954 0.5274374 0.6188069 -0.67204255 -0.08490333 -1.0592881 0.5140726
-0.5544876 0.08541594 -0.5958949 0.14995107 -1.6513402 0.54276365 -0.008133104 -0.5335166
0.6342166 -0.020192904 0.9194515 -0.6738612 -0.24025723 0.6491811 -1.1348686 0.012477561
00000000: 54c4 46be d1be 293f f13e 5abe 5dce 4cbf
00000010: 647d 45bf 27ba 413e 1a0e 883e feb3 68be
00000020: 4a2f 2c3f d0a1 403e 334d a3be 743c 473f
00000030: 4d46 38bf 2539 34bf f90b 563f f158 52be
00000040: 129b 51bf be6c 353f f690 a2be 4b96 6e3e
00000050: 4d8c 4fbf a29e 313f 2f93 a0be e01f 3c3f
00000060: 6751 473f dcd5 2bbf 3d0e 31be fe2f 4b3e
00000070: 9b5f 9a3e c552 36bf bff6 493f 0558 3c3e
00000080: bd99 47bf 54f8 4a3e de5b 513f 5695 9c3e
00000090: 66cb 853e 13df 9d3e b91a 58be 7525 33bf
000000a0: 90b2 b5be 2074 b63e 0787 a83e 211e 4abe
000000b0: 4573 4e3f 79bc 243f ab08 c1be 1632 3ebe
000000c0: 78b0 223e dabf 493f 38b5 273f eb40 b13e
000000d0: 94d0 a8be 7182 41be 1db9 a1be 5268 983e
000000e0: 9d73 b23e 9599 463f c7a3 c1be 7b0c 8d3e
000000f0: 6887 7cbe 73ee 863e 95e6 2fbf 64e8 383f
00000100: 215e 753e 06f7 b4be 593c 5bbe 7296 573f
00000110: 4876 7cbe 15c6 2b3f feb8 8dbe 2e6c 2b3f
00000120: 8f8b 3cbf ee7e 39bf b21a 44bf 1c7b 423e
00000130: d249 63be 5b07 68bf b488 343f 6860 53bf
00000140: b6ed a93e 3db8 3f3f 6640 a43e 5cc7 70be
00000150: 3c18 b43e b9d9 513f 552a 5abe f745 2dbf
00000160: 190f 583f efff 95be 1f51 39bf c2a4 343f
00000170: 4bf4 a3be be23 42bf 0999 c13e 701d aabe
00000180: f0c5 72be fc10 afbd f740 343f 231a 503f
00000190: df50 a5be 34b2 333e 5db8 543e 59e6 c1be
000001a0: dd1b b1be 33ba 3d3e 8a13 4ebf b478 c5be
000001b0: f66e 7e3e 67fb 5bbf 57f0 a63e e58c 3fbf
000001c0: cd93 4d3f 54c9 473f 4c9e 9e3e 39e2 33bf
000001d0: b05e 5f3e edf9 4dbf 47fc 38bf 64d2 373f
000001e0: 0f0b b7be 5f29 2cbf 5991 b0be 7a0d c23e
000001f0: 66cc 813e 2118 6fbe d034 453e 3154 2fbf
00000200: a563 4a3f 555b e1be b80b 433f 15fc 943e
00000210: c4a1 fcbe 324f 6abf 6218 38bf 1fdc 293f
00000220: 043e 583d 5a18 2ebf b06c 1f3f dc7a 14bf
00000230: 8581 163f be0c 373f d66c 85be 43a0 153f
00000240: 4c90 0a3f 6174 03bf 45d1 053f e8f8 42bf
00000250: 2878 233e 0c15 8fbe 07a9 313f 815d a0be
00000260: bc54 a23f d880 353e cb1f 163f f1f9 30bf
00000270: 5cb6 2abf c908 a23e 73a0 093f d2f5 3dbe
00000280: 8f31 953c 948c 27bf 3214 14bf d005 31bf
00000290: cef4 44bf 958d 23be 060b 1b3f 2b3c f73c
000002a0: 705f 3f3f 38b1 4fbf 06be 8abf 614d 213f
000002b0: 40cd f7be fce3 15bf ec19 1c3f 8549 2e3f
000002c0: 58b6 90bf 396f 11bf fa5d 0cbf 6ae7 23bf
000002d0: f281 413f 0d01 163f df35 013f e355 34bf
000002e0: 8463 14bf 84a3 81be 218b 333f 41a1 a3bf
000002f0: 4a77 693f 5984 febe 30d5 dc3e 308d 943e
00000300: 123d fdbd 85bf 1e3f f541 1c3f 4a6d 57bd
00000310: 33c5 2a3f ba8d 07bf 7a60 583f ed97 1fbf
00000320: 63f8 923e 1d68 213f 0c17 03be 1ff4 4bbf
00000330: 27d1 243f 9a87 8cbe 31eb 19bf ff26 a13e
00000340: b462 5bbf a34a db3b 8aed 28bf 39fd 163f
00000350: 65af c3be d564 32be 26ad 903e 71b9 053f
00000360: 2ac0 70be 2d8c 5e3e 1ed3 aa3e 6e70 0cbf
00000370: 93e5 1a3f af5b 6dbe 4af6 92be 2cdc ca3d
00000380: 681e 4c3f 0cb1 bbbf 1bfd 13bf b838 03bf
00000390: e96b 243f 1d4d c9bf 1c67 22bf ad3e 3f3f
000003a0: 3d8a 383f 2668 21bf 2306 073f 216a 1e3f
000003b0: fb0a 2cbf cce1 adbd c196 87bf 439a 033f
000003c0: e6f2 0dbf 8dee ae3d 918c 18bf c68c 193e
000003d0: 1e5f d3bf 8ff2 0a3f b640 05bc 8b94 08bf
000003e0: 055c 223f 976b a5bc 2c61 6b3f 2b82 2cbf
000003f0: fe05 76be bc30 263f 6043 91bf af6e 4c3c

mlp.0.0.bias f4 [128]
-0.7105744 0.17905185 -0.3349547 -0.76002425 -0.48144224 -0.91376436 -0.13731538 -0.30075464
-0.69951195 -0.3137846 -0.8630658 -0.6440374 -0.7756573 -0.5223682 -0.50647765 -0.7167144
-0.5476549 -0.69588584 -0.70401657 -0.39798614 -0.6866167 -0.4669522 -0.024568405 -0.79889506
-0.8464382 -0.8177594 -0.857768 -0.28014976 -0.8332739 -0.82191646 -0.81221825 -0.8006861
-0.5292954 -0.7022968 -0.54198706 -0.32583442 -0.66923076 -0.2592948 -0.39220977 -0.82236785
-0.48187336 0.22293544 -0.4749514 -0.41238627 -0.59199756 -0.5531348 -0.7746164 -0.82639325
-0.3623775 -0.83560723 -0.53943545 0.45344493 -0.22100683 -0.8081953 -0.7780082 -0.32680714
-0.7204398 -0.77943605 -0.917523 -0.8059997 -0.65786225 -0.5931541 -0.867636 -0.6506854
-0.6311538 -0.8025847 -0.56488025 -0.6552284 -0.25862712 -0.34174567 -0.66790867 -0.4981546
0.081795044 -0.31010443 0.17955644 -0.7689402 -0.49978307 0.31167132 -0.76602864 -0.5647993
-0.7870158 -0.38533205 0.15962933 -0.45786473 -0.7705584 -0.5107981 -0.6136531 0.089479215
-0.18334618 -0.30437654 -0.82040906 -0.59767836 -0.3704556 -0.9220185 -0.4131154 -0.38052544
-0.8160036 -0.29810306 -0.3275756 -0.8058587 -0.70756364 -0.32465863 -0.7939738 -0.7755154
-0.7854788 -0.64979136 -0.7976828 -0.58198076 -0.233285 -0.43527883 -0.6534327 0.16713785
-0.8397488 -0.5858108 -0.72511667 -0.78777874 -0.69103456 -0.49670172 -0.9556699 -0.8478879
-0.7022402 -0.7964968 -0.81496143 -0.87620044 -0.36669263 -0.74302167 -0.5896994 -0.6122368
00000000: 34e8 35bf 5e59 373e 2f7f abbe f390 42bf
00000010: 997f f6be 76ec 69bf 679c 0cbe 83fc 99be
00000020: 3713 33bf 60a8 a0be e1f1 5cbf a3df 24bf
00000030: 7a91 46bf ecb9 05bf 85a8 01bf 987a 37bf
00000040: 1d33 0cbf 9325 32bf 6e3a 34bf d7c4 cbbe
00000050: 1dc6 2fbf 5c14 efbe ae43 c9bc 6384 4cbf
00000060: 2db0 58bf ae58 51bf af96 5bbf ca6f 8fbe
00000070: 7051 55bf 1e69 52bf 89ed 4fbf c4f9 4cbf
00000080: e77f 07bf b9c9 33bf aabf 0abf c5d3 a6be
00000090: b552 2bbf 4ac2 84be b8cf c8be b386 52bf
000000a0: 1bb8 f6be 3049 643e d42c f3be 4b24 d3be
000000b0: 278d 17bf 3e9a 0dbf 434d 46bf 828e 53bf
000000c0: 8b89 b9be 5bea 55bf 7118 0abf ef29 e83e
000000d0: 9d4f 62be e3e5 4ebf 8c2b 47bf 4453 a7be
000000e0: be6e 38bf 1f89 47bf cae2 6abf ff55 4ebf
000000f0: a969 28bf f2d8 17bf 651d 5ebf 5293 26bf
00000100: 4c93 21bf 3176 4dbf fe9b 10bf 0cbd 27bf
00000110: c66a 84be 4af9 aebe 10fc 2abf 1f0e ffbe
00000120: 2984 a73d 02c6 9ebe a5dd 373e 44d9 44bf
00000130: 91e3 ffbe 6293 9f3e 741a 44bf b096 10bf
00000140: de79 49bf 3e4a c5be df75 233e 3f6d eabe
00000150: 5143 45bf aac3 02bf 5f18 1dbf e140 b73d
00000160: 1abf 3bbe 3ed7 9bbe 5406 52bf 7301 19bf
00000170: 5bac bdbe 6809 6cbf dd83 d3be 3bd4 c2be
00000180: 9de5 50bf f7a0 98be fdb7 a7be c14c 4ebf
00000190: e422 35bf a839 a6be de41 4bbf 2d88 46bf
000001a0: 2315 49bf ba58 26bf f134 4cbf b1fc 14bf
000001b0: 43e2 6ebe dedc debe 5e47 27bf 2f26 2b3e
000001c0: c7f9 56bf b2f7 15bf 3fa1 39bf deab 49bf
000001d0: a4e7 30bf b04f febe c8a6 74bf 2e0f 59bf
000001e0: 04c6 33bf 37e7 4bbf 50a1 50bf ac4e 60bf
000001f0: 23bf bbbe ab36 3ebf 8af6 16bf 8dbb 1cbf
