dataset/models/PDAC_CSY20_ClassicalB/model.pth (torch, 696702 bytes, 14 tensors)

tiles_emb.hidden_layers.0.weight f4 [128, 768]
0	0x3b167bb5	0.0022961919
1	0x3d38d7b1	0.045127574
2	0x3cd26e1e	0.025687274
3	0x3cf0266e	0.0293152
4	0x3b17da4d	0.002317089
5	0x3d32d002	0.043655403
6	0x3c222e2e	0.009898705
7	0xbb6e47fe	-0.0036358829
8	0x3b69cce5	0.0035675105
9	0xbd18a98c	-0.037271068
10	0x3d0d005d	0.034424175
11	0xbce1ba5c	-0.027554683
12	0xbc838869	-0.016056256
13	0xbbfb8075	-0.0076752254
14	0x3d83667b	0.06416031
15	0xbbf56fcb	-0.0074901334
16	0xbc8635b4	-0.01638303
17	0x3cd02540	0.025408387
18	0x3cd50eb6	0.026007991
19	0xbd008e93	-0.03138597
20	0x3cdce0a8	0.026962593
21	0x3cf3eba2	0.029775444
22	0x3adedd08	0.0017003128
23	0x3c9aec5d	0.018911535
24	0xbc7e7053	-0.01552971
25	0x3d1b9f2e	0.037993602
26	0xbd89521c	-0.06705114
27	0x3c9db698	0.019252107
28	0xbd36f653	-0.044668507
29	0xbbab9dfb	-0.0052373386
30	0xbc08213d	-0.008308706
31	0x3da9f40a	0.082985
32	0xbc1e2b7a	-0.00965392
33	0x3966e881	0.00022021124
34	0x3cb1e4d8	0.021715567
35	0xbbad365c	-0.005286021
36	0xbc9f515a	-0.019447971
37	0x3cd9b841	0.026577117
38	0x3cbae24f	0.02281299
39	0x3cf39803	0.02973557
40	0xbcaada3d	-0.020856017
41	0x3d06310d	0.032761622
42	0xbb894df6	-0.004190202
43	0xbccff79f	-0.02538663
44	0x3d23acde	0.03995978
45	0xbc5e4bea	-0.013567904
46	0xbd0a6b88	-0.033793956
47	0x3d2091fc	0.03920172
48	0xbcb86021	-0.022506775
49	0xbab22485	-0.0013591206
50	0x3d14ac7f	0.036297318
51	0xbd29ad82	-0.041425236
52	0x3c58e304	0.0132377185
53	0xbc8f41f6	-0.017487507
54	0xbc508f82	-0.012729527
55	0xbc893a9a	-0.016751576
56	0xbcc76cb7	-0.024343831
57	0x3c5cee52	0.013484554
58	0x3d33e38d	0.04391818
59	0x3c88b0f8	0.016685948
60	0xbab541c9	-0.001382881
61	0x3c9bade6	0.01900382
62	0x3d77caf5	0.06049629
63	0x39942bf0	0.00028261496
64	0x3c464fa9	0.012103953
65	0x3cd21b01	0.025647642
66	0x3c89b9a3	0.016812151
67	0xbd09ed76	-0.033673726
68	0x3c4d8680	0.012544274
69	0xbc80aa60	-0.015706241
70	0xbb853ef8	-0.0040663444
71	0x3be7816b	0.0070649884
72	0xbd1885e8	-0.037237078
73	0xbc10a61f	-0.008828669
74	0xbd85143c	-0.06498
75	0xbd45c094	-0.04827936
76	0x3d2c60b6	0.04208442
77	0x3d03c899	0.032173727
78	0x3c9eae47	0.019370211
79	0xbd47e2cd	-0.04880028
80	0x3c336b75	0.010950913
81	0xbcbd8f3f	-0.023139594
82	0xbcc9d3c0	-0.024637103
83	0xbc9e1c3b	-0.01930057
84	0xbd759682	-0.05995799
85	0xbcc6f60d	-0.024287248
86	0x3adfd6f6	0.0017077613
87	0x3c95e7da	0.018299032
88	0xbd1662ad	-0.0367152
89	0x3d0c3ac7	0.034235742
90	0xbd3a73ea	-0.0455207
91	0xbc1e8f3c	-0.009677704
92	0x3d138c2c	0.03602235
93	0xbd17c948	-0.03705719
94	0xbd001f38	-0.031279773
95	0x3c32b59a	0.010907555
96	0x3cfc02ca	0.030763049
97	0xbcf27f67	-0.029601766
98	0xbd5f71c5	-0.05455186
99	0x3c78d319	0.015187048
100	0xbc033f86	-0.008010751
101	0xbd2da6d2	-0.04239542
102	0x3cc1151b	0.023569634
103	0xbccfb259	-0.025353597
104	0xbc402727	-0.011728085
105	0x3b950ed9	0.004548889
106	0x3d276bd8	0.040874332
107	0xbb1015d6	-0.0021985671
108	0x3da6caeb	0.08144172
109	0x3ced8f82	0.028999094
110	0x3c5663eb	0.013085346
111	0xbcc5f108	-0.024162784
112	0xbc18c995	-0.009325405
113	0x3b44f5d1	0.0030053745
114	0xbc45c3c8	-0.012070604
115	0xbc616e2a	-0.013759175
116	0xbb92b143	-0.0044766976
117	0x3c2b7b32	0.010466384
118	0x3d8be1b7	0.06830161
119	0x3d02dd88	0.03194955
120	0xbc12a5d5	-0.00895067
121	0xbbd4c4d6	-0.0064931912
122	0xbd16209e	-0.0366522
123	0xbd082778	-0.033240765
124	0xbc7858ca	-0.015157888
125	0xbcaa8499	-0.02081518
126	0x3c9e4188	0.019318357
127	0xbceba0cb	-0.028763195
128	0xbcf10dc8	-0.029425517
129	0xbd02850f	-0.031865176
130	0xbc0890d7	-0.008335314
131	0x3c9025d2	0.01759616
132	0x3db898c9	0.090135165
133	0x3c70c2ee	0.014694912
134	0xbc9bc660	-0.019015491
135	0xbab88bd1	-0.0014079754
136	0xbc6eb601	-0.01456976
137	0xbca41f36	-0.020034414
138	0xbce7cf60	-0.028297126
139	0x3d23425f	0.03985822
140	0xbcf5a58e	-0.02998617
141	0x3d80374f	0.06260549
142	0xbc8dee61	-0.017325582
143	0x3c8629c3	0.016377335
144	0x3c1a4fc6	0.0094184335
145	0x3d1fbdd0	0.03899938
146	0xbcec4335	-0.02884064
147	0x3beb272d	0.007176301
148	0xbb97ddfd	-0.0046346174
149	0xbcec27fb	-0.028827658
150	0xbd2f2b10	-0.042765677
151	0x3d09c448	0.033634454
152	0x3cf7db72	0.030256007
153	0x3d278483	0.040897857
154	0x3cb547ff	0.022129057
155	0xbcb1019b	-0.02160721
156	0xbc64896f	-0.013948782
157	0x3cd8022a	0.02636822
158	0x3cc4390f	0.023952989
159	0xbcef28dc	-0.029194288
160	0xbcb1783f	-0.021663783
161	0x3d316d11	0.043316904
162	0xbca367c9	-0.01994695
163	0xbcff25cf	-0.031145958
164	0xbd336a43	-0.04380251
165	0xbc179746	-0.009252375
166	0x3ce73706	0.02822448
167	0x3cb58049	0.022155898
168	0x3d985c1d	0.07439444
169	0x3c9e8d1e	0.0193544
170	0x3d6e0ae5	0.05811586
171	0x3a949d2e	0.0011338347
172	0xbcda9417	-0.026681943
173	0x3d1958eb	0.037438314
174	0xbd012abe	-0.031534903
175	0xbb97e5e0	-0.0046355575
176	0xbca8ef5f	-0.020621954
177	0x3d338fdd	0.04383837
178	0x3cc790c7	0.024361027
179	0xbd1dac4d	-0.038494397
180	0xbd221379	-0.03956935
181	0x3d2086bf	0.039191004
182	0x3d195f1c	0.03744422
183	0x3d254c6c	0.040356085
184	0xbb35a111	-0.0027714411
185	0xbd52ab80	-0.051433086
186	0xbc7d70c5	-0.015468781
187	0x3d17e401	0.037082676
188	0x3bf1797c	0.0073692184
189	0xbd1f21eb	-0.038850706
190	0xbbb177b0	-0.005415879
191	0x3d008a61	0.03138197
192	0x3d5dbf76	0.05413767
193	0x3cde49b9	0.027134763
194	0xbcce0ab6	-0.025151592
195	0xbd371fdf	-0.04470813
196	0xbd18625a	-0.03720317
197	0x3d48bd40	0.049008608
198	0x3cca8a61	0.024724187
199	0xbb2f72c7	-0.0026771293
200	0xbd3e97ad	-0.046531368
201	0xbc0e8fbe	-0.008701263
202	0x3b6995e1	0.0035642313
203	0x3cd9c570	0.026583403
204	0xbd403ad9	-0.04693112
205	0xbbf26986	-0.0073978333
206	0xbcee67a3	-0.029102152
207	0x3c5f246f	0.013619526
208	0x3d2ae835	0.041725356
209	0x3c971adc	0.018445425
210	0xbd8f6984	-0.070025474
211	0xbcb011ea	-0.021492917
212	0xbd4f47ad	-0.050605465
213	0x3c184239	0.009293132
214	0xbc56b942	-0.013105692
215	0x3cfebf3a	0.031097043
216	0x3bc8d58d	0.006128973
217	0x3ad238fb	0.001603871
218	0xbce1aa06	-0.027546894
219	0x3c70dff3	0.014701831
220	0x3c23a4ea	0.009988049
221	0xbd3412ca	-0.04396323
222	0xbc5014e2	-0.012700291
223	0x3d0df6b8	0.034659117
224	0x3ca8476d	0.020541871
225	0x3d47a080	0.04873705
226	0xbd350385	-0.04419281
227	0xbc2289fb	-0.009920592
228	0x3c1c5881	0.009542585
229	0x3d21d9a6	0.039514206
230	0xbc3f96e1	-0.011693687
231	0x3c69ff1e	0.014282016
232	0x3cf19e8b	0.029494544
233	0x3cc6cd8f	0.02426794
234	0xbd074916	-0.033028685
235	0x3d209195	0.039201338
236	0x3a4e1813	0.00078618637
237	0xbd19466d	-0.03742068
238	0x3cf8289f	0.030292807
239	0xbd10723a	-0.035265185
240	0x3c71ee44	0.01476628
241	0x3c8f3c21	0.017484726
242	0xbcf0e6c2	-0.029406909
243	0xbd4bc908	-0.049752265
244	0xbbf879ac	-0.007582864
245	0x3d23a8c4	0.03995587
246	0x3a87dfd4	0.0010366389
247	0xbd2f5c5d	-0.042812694
248	0x3cc9c1ff	0.024628637
249	0x3d33bb6c	0.04387991
250	0x3bcb09e5	0.006196248
251	0xbca2c042	-0.019867066
252	0x3c8d9a9b	0.017285636
253	0xbc508a9d	-0.0127283605
254	0x3b4b3f64	0.0031013126
255	0xbd0e5549	-0.034749303

tiles_emb.hidden_layers.0.bias f4 [128]
0	0x3c7681f3	0.015045631
1	0xbca3c0e2	-0.019989435
2	0xbb646fae	-0.0034856605
3	0xbc462b1a	-0.012095237
4	0x3c9f830b	0.019471666
5	0xbcc0965f	-0.023509203
6	0x3c675281	0.014118792
7	0x3d25c7fd	0.040473927
8	0xbc9c612e	-0.019089308
9	0x3cb582a9	0.02215703
10	0x3cb5994e	0.022167828
11	0xbcc791b3	-0.024361467
12	0x3caf6f5c	0.021415405
13	0xbc5a962f	-0.013341471
14	0x3d1688c0	0.03675151
15	0xbbe01d78	-0.0068394504
16	0xb87cb465	-6.0249487e-05
17	0xbc8d46e4	-0.017245717
18	0xbab81afb	-0.0014046127
19	0xbc754678	-0.014970414
20	0xb916da56	-0.00014386451
21	0xbc8b8470	-0.017030925
22	0xba9179cf	-0.0011098924
23	0x3ba5c0d0	0.0050583854
24	0xba9dc5ba	-0.0012037077
25	0x3c070d47	0.008242912
26	0x3d252ecc	0.040327832
27	0x396a335c	0.00022335112
28	0x3c9c4669	0.019076543
29	0x3cb798ae	0.02241167
30	0xbbb127b9	-0.0054063466
31	0xba2c6e56	-0.00065777206
32	0x3bdcb2ba	0.006735173
33	0xbba65d3d	-0.005077033
34	0x3d35db17	0.044398393
35	0x3c939b7f	0.018018482
36	0xba7be9a5	-0.0009609706
37	0x3c05c92d	0.00816564
38	0xbbc6788e	-0.0060568517
39	0x3c68fa03	0.014219764
40	0x3cdbd43e	0.026834603
41	0x3d189f9f	0.0372616
42	0xbc2778e2	-0.010221692
43	0x3ba82a89	0.0051320237
44	0x3d048ab8	0.032358855
45	0x3c7766bb	0.015100176
46	0x3c5191a2	0.012791069
47	0xbb43bd06	-0.0029867305
48	0xbca871eb	-0.020562133
49	0xb867ae16	-5.5236822e-05
50	0x3b4b7d5b	0.003105006
51	0x3cc4c62c	0.024020277
52	0x3c01a5ed	0.007913095
53	0xbb2532c8	-0.002520727
54	0x3c9fd94d	0.019512797
55	0xbaf0563c	-0.0018336247
56	0xbcac33a1	-0.021020712
57	0x3c4f49a9	0.012651839
58	0xbc23c2eb	-0.0099952025
59	0xb783891a	-1.568026e-05
60	0x3c8f1199	0.017464446
61	0xbbc2d24e	-0.0059454804
62	0x3d17b3be	0.03703665
63	0xbbb9874f	-0.005661882
64	0x3bdd6a89	0.0067570847
65	0x3c7b3ce7	0.0153343445
66	0xbbc11414	-0.005892286
67	0x3d2a1e2d	0.041532684
68	0x3be3ff05	0.006957891
69	0x3d096eab	0.033552807
70	0xbb2ce70c	-0.0026382832
71	0x3b60d500	0.0034306645
72	0x3c94d625	0.018168518
73	0x3ca18d88	0.019720808
74	0x3c6c60e4	0.014427397
75	0xbc94c6c0	-0.018161178
76	0xbc4fe57d	-0.012688992
77	0x3b537632	0.0032266495
78	0x3c9822d1	0.01857129
79	0xbaca6d4b	-0.0015443949
80	0x3c4fe013	0.012687701
81	0xbcdb2318	-0.026750132
82	0x3bf2177e	0.0073880544
83	0x3c9f5940	0.019451737
84	0xba34a480	-0.00068909675
85	0xbbee9b15	-0.007281671
86	0x3cef971f	0.029246865
87	0xbca949f5	-0.020665148
88	0xbbd554fa	-0.006510374
89	0xbb1f574c	-0.0024313508
90	0xbbf62d20	-0.0075127035
91	0x3d058c3d	0.032604445
92	0xb7b9cee5	-2.2150061e-05
93	0x3d0275fa	0.031850792
94	0xba6644b4	-0.0008784041
95	0xb986be2a	-0.00025700155
96	0xbcb2ebef	-0.021841018
97	0xbc88fa5f	-0.016720949
98	0x3c885d38	0.016646013
99	0x3c2cb7a4	0.01054183
100	0xb93502ca	-0.00017262544
101	0x3ce4e23f	0.027939914
102	0xb981f071	-0.0002478394
103	0x3d06c2e5	0.03290071
104	0xbc35a9e9	-0.011087873
105	0x3971d2aa	0.0002306203
106	0x3c16079b	0.009157087
107	0x3c847aca	0.016171832
108	0xb8870ff2	-6.440272e-05
109	0x3c4f2f13	0.012645501
110	0xbb17d81b	-0.002316958
111	0xbcfb026d	-0.030640805
112	0xbcb3646d	-0.021898473
113	0x3d0ffb04	0.035151497
114	0xbbd4b70e	-0.0064915484
115	0xbc113b0b	-0.008864175
116	0x3cb58900	0.022160053
117	0xbc3882d3	-0.01126166
118	0x3cc15145	0.023598323
119	0x3d0eb3de	0.034839503
120	0x3ca3715d	0.019951517
121	0xbc802a76	-0.015645247
122	0xbcd0cd96	-0.025488656
123	0xb87ddbc1	-6.0524562e-05
124	0xb9c62739	-0.00037794726
125	0xb8407fd2	-4.589541e-05
126	0xbcd02f28	-0.02541311
127	0x3d2af84b	0.041740697

tiles_emb.hidden_layers.2.weight f4 [128, 128]
0	0x3da96f16	0.08273141
1	0xbb22cfe4	-0.002484315
2	0xb85962b7	-5.1828767e-05
3	0x3cd2b5b8	0.025721416
4	0xbdc6a36a	-0.096991375
5	0x3c85a19c	0.016312413
6	0xbd0e7edf	-0.034788962
7	0x3dc6326c	0.09677586
8	0x3b5504f8	0.0032504182
9	0x3c175a59	0.009237849
10	0xbd739a4e	-0.05947333
11	0xbcef6163	-0.029221242
12	0xbd8e803f	-0.06958055
13	0xbd1e8a58	-0.038706154
14	0x3de3581d	0.11100791
15	0x3c0a306c	0.008434396
16	0xb3bc2885	-8.761803e-08
17	0x3d05f876	0.032707654
18	0x2e5a48dd	4.9632177e-11
19	0xbac569ff	-0.0015061497
20	0x3c7da30f	0.015480771
21	0xbc1cc37a	-0.00956809
22	0xbde3eeae	-0.11129509
23	0x3b9b952c	0.0047480073
24	0x3995d7cd	0.0002858028
25	0x3d334b26	0.04377284
26	0xbdbdd945	-0.092699565
27	0xb2c7e5ca	-2.3271145e-08
28	0xbca53b35	-0.020169834
29	0x3c295bb9	0.01033681
30	0x3a1ab2ca	0.00059012754
31	0xb600e350	-1.92058e-06
32	0xba8f6c78	-0.001094236
33	0x3d32cf0d	0.04365449
34	0xbc2e8658	-0.010652147
35	0xb994e759	-0.00028401127
36	0xb492bd70	-2.7332453e-07
37	0x3bea4cd4	0.007150272
38	0x348639ef	2.5001597e-07
39	0xbd93b95e	-0.0721309
40	0x3c71b0e8	0.01475165
41	0xbdbae62a	-0.091259316
42	0xbc561914	-0.0130675025
43	0xbcf20e0e	-0.029547717
44	0x3d2878a4	0.041130677
45	0x39904667	0.00027518274
46	0xbc23e664	-0.01000366
47	0x2d8c6824	1.5962405e-11
48	0x3b58a390	0.0033056475
49	0x33c000cf	8.940844e-08
50	0xb806f50e	-3.2176315e-05
51	0xbc67a150	-0.014137581
52	0xbdd45555	-0.10367838
53	0x3a20d9d9	0.00061359775
54	0xbbae665e	-0.0053222617
55	0xadf11a71	-2.741027e-11
56	0xb9c08859	-0.0003672268
57	0x3d7063ae	0.058688812
58	0x3ce27f4f	0.027648596
59	0x330855b5	3.1742918e-08
60	0x3dbf2b4e	0.093344316
61	0x3d2b3dc7	0.041806962
62	0xbd99cd66	-0.0750988
63	0xb8200991	-3.8155882e-05
64	0xbc47a08e	-0.012184275
65	0x3d2e3ffa	0.04254148
66	0x31370702	2.6633988e-09
67	0xba79ba41	-0.000952635
68	0xba0987c6	-0.0005246367
69	0xbd0ebcef	-0.03484815
70	0xb6b1a11a	-5.2937658e-06
71	0xbba504e9	-0.0050359857
72	0x3c712f06	0.014720684
73	0x3d3d777e	0.046256535
74	0x3dd6f3e4	0.10495737
75	0x3baa953a	0.0052057775
76	0xbd4acec4	-0.049513593
77	0x3c6de0bf	0.014518916
78	0x3d8e1f8b	0.0693961
79	0x2bd26e7b	1.4952062e-12
80	0xbb35d938	-0.002774788
81	0xbce3da36	-0.027814012
82	0xba822259	-0.0009928449
83	0x3b5eb4b0	0.003398221
84	0xacc32bea	-5.5471088e-12
85	0xbba6ad33	-0.005086565
86	0xbde8d2ca	-0.1136833
87	0x39e0dcbc	0.0004288907
88	0x3d20b384	0.0392337
89	0x3bc88b8d	0.0061201514
90	0x3d1aca0f	0.037790354
91	0xbd125e34	-0.03573437
92	0x3514d734	5.544746e-07
93	0x3c5966a8	0.013269104
94	0xb92f8989	-0.00016740536
95	0xafcb12a9	-3.6938744e-10
96	0xbcb017fd	-0.021495814
97	0xbba0a177	-0.0049020606
98	0xbdcca3ae	-0.09992157
99	0xbdec626f	-0.11542212
100	0x2cb8837f	5.2441935e-12
101	0xbb833c42	-0.004004986
102	0xae104de8	-3.2811004e-11
103	0x3db4a97d	0.0882139
104	0xbc8d2f79	-0.01723455
105	0xb6c0533e	-5.7317366e-06
106	0xb7db264a	-2.6124664e-05
107	0x3cada79c	0.021198086
108	0xbdd17bfc	-0.10228726
109	0x3c8c915d	0.017159158
110	0xb87214f3	-5.7716807e-05
111	0x3b9ab9b6	0.0047218455
112	0x3c2baa4e	0.0104776155
113	0x3de04132	0.10949935
114	0x3285fe7e	1.5598967e-08
115	0xbb13e8a6	-0.002256909
116	0x3ca7b2e3	0.020471042
117	0xba18381e	-0.0005806702
118	0x3b4f45a7	0.003162721
119	0x3b9105a2	0.0044257203
120	0xbd447d7a	-0.047971226
121	0xbdb6c711	-0.08924688
122	0xb9d7712b	-0.00041092312
123	0xae6bf7a1	-5.3652752e-11
124	0x2f814f86	2.3521468e-10
125	0xab2a586b	-6.0518837e-13
126	0xbddb182f	-0.10697972
127	0xbc84556f	-0.01615402
128	0xbc2fee96	-0.010738036
129	0xbb81ee76	-0.0039651943
130	0xb916ecf8	-0.00014393392
131	0x3d4ca06f	0.04995769
132	0x3d222d51	0.039594
133	0xbc037e5e	-0.008025734
134	0x3d634449	0.055485044
135	0x3d550d7c	0.052014813
136	0xbdc04603	-0.09388354
137	0xbdc683e4	-0.09693125
138	0xbd3efd2e	-0.04662817
139	0xbcc4bdd6	-0.024016302
140	0xbceb2053	-0.028701937
141	0xbc9e277c	-0.019305937
142	0x3d4e635d	0.05038773
143	0x3b30e978	0.0026994627
144	0xae39a713	-4.221252e-11
145	0x3c4ddfd4	0.012565572
146	0xaa9a58a4	-2.7417402e-13
147	0x371a890b	9.211023e-06
148	0x3c122f74	0.0089224465
149	0xbd22d62b	-0.039755028
150	0xbdc4e885	-0.09614662
151	0xbc5723c1	-0.013131083
152	0x391f6765	0.00015201939
153	0xbd7b5826	-0.06136336
154	0xbd50518f	-0.05085903
155	0xb18d4b63	-4.1122106e-09
156	0xbcd02682	-0.025408987
157	0x3ccc025a	0.024903465
158	0xbb5243d0	-0.0032083876
159	0xad948bf7	-1.6887809e-11
160	0x3da3f241	0.08005191
161	0xbdd04e1a	-0.10171147
162	0x3cae08b7	0.02124439
163	0x3ad35589	0.0016123514
164	0x3438b52c	1.7202245e-07
165	0x3bea0d18	0.007142674
166	0xb2a48808	-1.9153973e-08
167	0x3c8b848a	0.017030973
168	0xbcacc86e	-0.021091666
169	0xbdc218ea	-0.09477408
170	0xbc2ba206	-0.010475641
171	0x3d61db5c	0.055140838
172	0xbdc63426	-0.09677915
173	0xbb9d51f8	-0.004801031
174	0xbc3f2649	-0.011666843
175	0xb238bce8	-1.0753162e-08
176	0xbcaa3bc9	-0.02078046
177	0x2de07cd0	2.552128e-11
178	0xb6f22a9d	-7.217123e-06
179	0xbc634044	-0.013870303
180	0xbdcf1d66	-0.10113029
181	0x39cddf6b	0.00039267106
182	0xbc816628	-0.015795782
183	0xaef6c23a	-1.12212864e-10
184	0xbb5dda30	-0.0033851974
185	0xbddbab0c	-0.10725984
186	0x3dc63f3b	0.09680029
187	0x30ac5a18	1.2540253e-09
188	0xbb9b93c4	-0.0047478396
189	0x3dc7ff15	0.0976545
190	0x3d5571dc	0.052110538
191	0x332c827b	4.0165542e-08
192	0xbd3eb8fd	-0.046563137
193	0x3bd06b79	0.006360468
194	0xb0db6b7b	-1.5964895e-09
195	0x3cce6a34	0.025197126
196	0x3b4d70a2	0.0031347652
197	0xbdbbf636	-0.091778204
198	0x3748760d	1.1948415e-05
199	0x3b5f93f7	0.0034115294
200	0xbc56b8dd	-0.013105598
201	0x3d0d63b9	0.03451893
202	0x3dcd08b9	0.10011429
203	0x3c14350f	0.009045853
204	0x3d391369	0.045184527
205	0xbaa5d8f1	-0.0012653155
206	0x3db22fa3	0.08700492
207	0x3215e82b	8.72573e-09
208	0xbd05f442	-0.032703646
209	0xbd186fb7	-0.037215915
210	0xbb08f4d6	-0.0020897887
211	0xbda02762	-0.07820012
212	0xaf9915fd	-2.7846161e-10
213	0xbba7f892	-0.0051260674
214	0xbdadce0a	-0.084865645
215	0xba0682ac	-0.0005131166
216	0xbcb2d9c9	-0.021832364
217	0x3bac43cc	0.0052571055
218	0x3c3f86fe	0.0116898995
219	0xbdd3f368	-0.103491604
220	0x34d67d8a	3.9951948e-07
221	0xbc5da29a	-0.013527537
222	0xb73f3fd2	-1.13993465e-05
223	0x2daab850	1.9408614e-11
224	0xbca8b923	-0.020596093
225	0xbc393a5f	-0.011305421
226	0xb7ccbbfc	-2.4406232e-05
227	0xbc820a41	-0.01587403
228	0xb0c08bae	-1.4009538e-09
229	0xbd6b567f	-0.057455536
230	0xad23f296	-9.319342e-12
231	0x3db4e790	0.088332295
232	0x3c92a080	0.017898798
233	0x392f2546	0.00016703186
234	0x3b218da5	0.0024651077
235	0x3d8a6b55	0.06758753
236	0x3c5a86c5	0.013337796
237	0x3ccccd1d	0.02500015
238	0x33412fc3	4.4979753e-08
239	0xbcf87448	-0.030328885
240	0xbb77ab42	-0.0037791287
241	0x3d542ff3	0.05180354
242	0xb250caae	-1.21532775e-08
243	0xbb111949	-0.0022140315
244	0x3c5483f5	0.012970914
245	0xb1a9e932	-4.9450586e-09
246	0xbddc949f	-0.10770535
247	0xbddc5667	-0.107586674
248	0x39855970	0.00025434373
249	0xbdb633db	-0.088966094
250	0x381e5c3a	3.7756028e-05
251	0x2d9d193e	1.7860043e-11
252	0xae8303d7	-5.9578724e-11
253	0xade34845	-2.5839006e-11
254	0x3b9beb4e	0.004758275
255	0xbc331a0d	-0.010931504

tiles_emb.hidden_layers.2.bias f4 [128]
0	0xbd77c16e	-0.060487203
1	0xbd2a5cf2	-0.041592546
2	0xbc935ec1	-0.017989518
3	0x3c8b9184	0.01703716
4	0x3d50b952	0.050957985
5	0x3cbb0fa1	0.0228346
6	0xbd64f7bd	-0.055900324
7	0x3d4afad5	0.04955562
8	0x3ceb61b8	0.02873312
9	0x3d87d36f	0.06632125
10	0xbd27a855	-0.04093202
11	0x3c8f5837	0.017498119
12	0x3c2f3684	0.01069415
13	0x3d912c54	0.07088533
14	0x3d382a1c	0.044962034
15	0x3da17e1a	0.0788538
16	0xb9b40ca9	-0.00034341708
17	0x3d361a2d	0.044458557
18	0x3c7212b3	0.014774966
19	0x3d887c2a	0.066643074
20	0x3c2b1847	0.0104428
21	0xbb3b933c	-0.0028621694
22	0x3c27390f	0.010206475
23	0x3ce4d373	0.027932858
24	0x3b195a35	0.0023399715
25	0x3a91e461	0.0011130684
26	0x3d823476	0.063576624
27	0x3c52c0a3	0.012863311
28	0xbb6b0c54	-0.0035865502
29	0xbd3cf73a	-0.04613421
30	0xbc713da1	-0.014724166
31	0xbd9ec353	-0.07752099
32	0xbcffdb12	-0.03123239
33	0x3d8f92e0	0.07010436
34	0x3d963ef1	0.07336224
35	0xbd944b1f	-0.07240891
36	0x3c8dec43	0.017324572
37	0x3daebb84	0.085318595
38	0xbd8bab17	-0.06819742
39	0xbdb6c911	-0.08925069
40	0xba658ca3	-0.0008756613
41	0xbd67acb7	-0.056561198
42	0xbdacec23	-0.08443477
43	0xbcfa830c	-0.030580066
44	0xbccb80f0	-0.024841756
45	0x3d64fc58	0.055904716
46	0x3d82096e	0.06349455
47	0xbca8c77a	-0.02060293
48	0xbb97980f	-0.004626281
49	0xbd991fe6	-0.07476787
50	0xbcf38854	-0.029728092
51	0x3d2c1726	0.042014264
52	0x3d07422c	0.03302209
53	0x3b4199af	0.0029541065
54	0x3c1d304b	0.0095940335
55	0xbd0b32c9	-0.03398398
56	0xbb550f9d	-0.0032510527
57	0xbcd38920	-0.025822222
58	0xbd9368cf	-0.07197725
59	0x3d3716b7	0.044699397
60	0x3d165e39	0.03671095
61	0x3c1f4ba6	0.009722626
62	0xbd53034d	-0.05151682
63	0xba8ea294	-0.0010882192
64	0xbcb614e4	-0.022226758
65	0xbd1dc975	-0.038522203
66	0x3bf7093f	0.007538944
67	0x3d6f29dc	0.05838953
68	0x3d31002a	0.043213047
69	0xbd7c3755	-0.061576206
70	0x3d693644	0.056936517
71	0x3d8b4ded	0.068019725
72	0x3d1f7370	0.03892845
73	0xbd4cd9b8	-0.05001232
74	0x3d3bc681	0.045843605
75	0x3d214129	0.039368782
76	0xbcdd85c8	-0.027041331
77	0x3d5a78a4	0.053337708
78	0x3c98e78c	0.018665098
79	0xbd400e77	-0.046888795
80	0xbd308eae	-0.04310482
81	0x3d2d407a	0.042297818
82	0x3d5aa387	0.053378608
83	0x3d0f8e73	0.03504796
84	0xbda2ce5e	-0.07949518
85	0x3c288d79	0.010287636
86	0x3d850bfa	0.06496425
87	0xbdad0432	-0.08448066
88	0xbd820d8c	-0.0635024
89	0xbd86cc39	-0.06581921
90	0xbdb858d4	-0.090013176
91	0x3cdeae61	0.02718276
92	0x3d8b2f96	0.06796186
93	0x3d76121c	0.060075864
94	0xbda4c4b4	-0.08045331
95	0xbd1eaee1	-0.038740996
96	0x3caea379	0.021318184
97	0x3c756afd	0.014979121
98	0x3d95d2da	0.07315607
99	0x3d079ad2	0.033106633
100	0x3dae8c95	0.08522908
101	0x3bb7218c	0.005588716
102	0xbd7b5640	-0.06136155
103	0x39367dd1	0.00017403743
104	0xbd0e919b	-0.03480683
105	0x3c9b4003	0.018951422
106	0x3bc30eaf	0.005952678
107	0xbca08df9	-0.019598948
108	0x3db6fb89	0.08934695
109	0x3d0c2990	0.034219325
110	0x3d7c2dc2	0.061567076
111	0xbcc4cd43	-0.024023658
112	0x3d8a01ca	0.067386225
113	0xbd742f1b	-0.059615236
114	0xbb4a5a61	-0.0030876624
115	0x3d888d69	0.06667597
116	0x3c2a2a75	0.010386099
117	0xbd4cf2d5	-0.05003627
118	0xbb725458	-0.0036976542
119	0x3dc2b91a	0.095079616
120	0x3d9f2e5b	0.077725135
121	0x3db64516	0.08899896
122	0x3bdf6c51	0.0068183322
123	0xbb8fa3ea	-0.0043835538
124	0x3d83793d	0.06419609
125	0x3cbdd653	0.023173487
126	0xbcef5dc0	-0.029219508
127	0xbd9d9c50	-0.0769583

attention_layer.att.weight f4 [128, 128]
0	0x3be100b0	0.006866537
1	0xbc480dc2	-0.012210311
2	0x3ae65484	0.0017572795
3	0x39300af4	0.00016788748
4	0x3a001d05	0.0004887137
5	0xbb72b782	-0.0037035649
6	0x39b78f4b	0.00035011242
7	0x3b7461e0	0.0037289783
8	0x3c7f5348	0.015583821
9	0x3b49bbcf	0.0030782109
10	0x3a891563	0.0010458644
11	0xbc9d2b20	-0.019185603
12	0xba735986	-0.00092830544
13	0xbabcff35	-0.0014419319
14	0xbbd0439a	-0.006355715
15	0xbb3d492c	-0.0028882725
16	0x3a87a6ea	0.0010349427
17	0xbbe66f81	-0.0070323353
18	0x3b0d66bd	0.002157613
19	0xbc597441	-0.013272346
20	0xbcb58047	-0.022155894
21	0xbc0b01d4	-0.008484323
22	0xbc1ac9c9	-0.009447523
23	0x3c68bb1f	0.014204769
24	0x3b983d6f	0.0046459953
25	0x3a0aa959	0.0005289517
26	0xbb04b279	-0.002024798
27	0xbb22d22b	-0.0024844508
28	0x3b973f5a	0.0046157064
29	0xbc52d50b	-0.012868176
30	0xbb28165e	-0.0025648098
31	0x3ac64be9	0.0015128824
32	0xba9f2996	-0.0012143131
33	0x3b6f3878	0.0036502164
34	0xb994a544	-0.00028351892
35	0xb9e8780f	-0.0004433994
36	0x3c9eb122	0.019371573
37	0x3aed0c31	0.0018085298
38	0xbc882ac5	-0.016621957
39	0x3c2cc684	0.010545377
40	0xbb06affb	-0.002055167
41	0xb82de54c	-4.1459964e-05
42	0xbcaeea5f	-0.021351991
43	0xbad12de9	-0.0015959117
44	0xbce60d6b	-0.02808257
45	0x393854d1	0.00017579204
46	0x3a6ef0d3	0.0009114865
47	0x3c821908	0.015881076
48	0xbcaf087f	-0.021366356
49	0xbbd3cdbf	-0.006463736
50	0xbb0bd933	-0.0021339178
51	0x3aff698c	0.0019486411
52	0x3b80c7fc	0.00393009
53	0x3cc9f9b5	0.024655202
54	0x3c59064d	0.013246131
55	0x3a9510ad	0.0011372768
56	0xbc633eb8	-0.013869934
57	0x3b4f5c14	0.0031640576
58	0x39bd6d12	0.00036130153
59	0xbb1e46b2	-0.0024151024
60	0x3c8e0983	0.01733852
61	0x3a429ae4	0.0007423593
62	0x3cb45dd4	0.022017397
63	0x3b080b05	0.0020758521
64	0xbb4bd84d	-0.0031104267
65	0x3beedf14	0.0072897766
66	0xbb0f5a6d	-0.0021873966
67	0xbcae6325	-0.02128751
68	0x3c163795	0.009168525
69	0x39c014a9	0.00036636487
70	0xbb40fa2c	-0.002944599
71	0xbc602f66	-0.013683176
72	0xbc77045c	-0.015076723
73	0xbc1f49de	-0.009722201
74	0x3c6d6e83	0.01449168
75	0x3a4edf09	0.0007891511
76	0x3b0d1047	0.0021524595
77	0x3afbf091	0.0019221475
78	0xbc98998d	-0.018627906
79	0xbc974432	-0.018465135
80	0xba985ee2	-0.0011624957
81	0x3bb09cf3	0.0053898036
82	0xbb68e525	-0.0035536971
83	0xbca38b46	-0.019963872
84	0x38b2a716	8.5188236e-05
85	0xbb13dd0f	-0.002256218
86	0xbafcbf0d	-0.0019283012
87	0xba4aafc2	-0.00077318784
88	0x3cd7ab96	0.026326936
89	0xbb08c4bd	-0.0020869218
90	0xbc7e8cc4	-0.015536491
91	0x3ca9e1dd	0.020737583
92	0x39573a63	0.00020525749
93	0xbbc0c216	-0.005882512
94	0xbaf87034	-0.0018954338
95	0xbc434e7a	-0.011920566
96	0x3cc0c487	0.023531212
97	0x3b229e65	0.0024813649
98	0x3a5ac125	0.0008344821
99	0xbc58b827	-0.013227499
100	0x3c6d8bd0	0.014498666
101	0x3985cdae	0.0002552098
102	0x3bc91fd4	0.0061378274
103	0x3cb3767b	0.021907082
104	0xbbe47adf	-0.006972655
105	0xba68837e	-0.00088696915
106	0xbbe9985f	-0.0071287598
107	0x3c85e2d1	0.016343506
108	0xbb5c40fb	-0.0033608067
109	0x3b4bf192	0.003111933
110	0x3aab0b31	0.00130496
111	0xbb83b9b6	-0.004019941
112	0xbc3609cc	-0.011110734
113	0xbcf06775	-0.029346207
114	0x3c91c91c	0.017796092
115	0xbbafc99d	-0.0053646103
116	0x3ceafa54	0.028683819
117	0x3bb9073e	0.0056466153
118	0xbcf6ecee	-0.030142274
119	0xba4293ab	-0.0007422517
120	0x3a613882	0.0008591489
121	0x3c22ce3b	0.0099368645
122	0xbc1ed80a	-0.009695062
123	0x3ae4e427	0.0017463014
124	0xbae42882	-0.0017407092
125	0x3abc1e14	0.0014352226
126	0xbcc21d3a	-0.023695577
127	0x3c9de6a0	0.01927501
128	0xbcf029f5	-0.029316882
129	0xbc9ee811	-0.019397767
130	0x3c7ba45e	0.015359012
131	0x3bdda93e	0.00676456
132	0x3c09f1dd	0.008419481
133	0xbccacabc	-0.024754874
134	0xbb8af112	-0.0042401636
135	0xbd3f57fc	-0.046714768
136	0xbd434f97	-0.047683325
137	0x3a896c31	0.0010484514
138	0xbd093f34	-0.03350754
139	0x3c56d4a8	0.013112225
140	0xbcc1436c	-0.02359172
141	0xbcf49d1a	-0.029860068
142	0x3d6b00fc	0.057373986
143	0x3d014388	0.031558543
144	0xbca5620d	-0.020188356
145	0x3c90d3d6	0.017679136
146	0xbd10de0a	-0.035368003
147	0x3cf4b2c7	0.029870404
148	0xbc5b03f1	-0.013367639
149	0x3cf99183	0.030464893
150	0x3ce1c001	0.027557375
151	0x3bb220d0	0.0054360405
152	0xbce6ede7	-0.028189613
153	0x3ceb464b	0.028720042
154	0x3c07d517	0.008290551
155	0xbbe9ec29	-0.007138748
156	0xbcb8867d	-0.022525067
157	0x3c759a64	0.014990423
158	0xbd10295a	-0.035195686
159	0x3ce659c9	0.028118985
160	0xbcbb9bd3	-0.022901451
161	0x3cfd7fc6	0.030944716
162	0xbd5119d9	-0.05105004
163	0xbd6b5ba2	-0.057460435
164	0x3d005e5f	0.03134
165	0x3cb139f8	0.021634087
166	0x3c390799	0.011293315
167	0x3a76c437	0.00094133936
168	0xbd1b5735	-0.037924964
169	0x3b032fb0	0.0020017438
170	0x3d459a7e	0.04824304
171	0x3d3f4c66	0.04670372
172	0xbccfcc76	-0.02536605
173	0x3d5db86b	0.054130953
174	0x3cf26c41	0.029592635
175	0xbd454500	-0.048161507
176	0x3d0350f0	0.03205961
177	0xbce32d3c	-0.02773153
178	0x3ae010bc	0.0017094831
179	0x3c6647da	0.014055217
180	0x3d298550	0.041386902
181	0xbcf90030	-0.030395597
182	0xbd821c29	-0.063530274
183	0x3cfd2039	0.030899154
184	0x3c808e75	0.015692929
185	0x3cf5a42f	0.029985515
186	0x3d4804cf	0.04883271
187	0x3cc6ca31	0.024266334
188	0x3d0fcb3e	0.035105936
189	0x3caaba73	0.020840859
190	0xbd6e0c1b	-0.058117013
191	0x3d06c777	0.03290507
192	0xbbbc4426	-0.0057454286
193	0x3d0f0673	0.03491826
194	0x3be47c21	0.006972805
195	0x3d009eb3	0.031401347
196	0xbc28b012	-0.010295885
197	0xbc6ebed0	-0.01457186
198	0xbcd4fbdb	-0.025999
199	0x3d5094d9	0.050923202
200	0xbd032f8e	-0.032027774
201	0xbd4fd657	-0.05074152
202	0xbd7f4cbc	-0.06232904
203	0x3d3ef1e8	0.04661742
204	0xbcafcd00	-0.021460056
205	0x3cf2271a	0.02955966
206	0x3ce3d0eb	0.02780958
207	0x3d6d2fd0	0.057906926
208	0xbcaf75f3	-0.021418547
209	0xbd6cb9eb	-0.057794493
210	0x3ba8b37a	0.0051483484
211	0x3d60eaca	0.054911412
212	0x3ce6f568	0.02819319
213	0x3cccbaee	0.024991479
214	0xbd04c009	-0.0324097
215	0x3a95d1d3	0.001143033
216	0x3bc72bc5	0.006078216
217	0xbd8cdd0f	-0.06878101
218	0xbd1bd220	-0.038042188
219	0xbd1ce737	-0.03830644
220	0x3d0695f8	0.032857865
221	0xbd321d50	-0.043484986
222	0xbc76aa1c	-0.015055206
223	0x3bf777d9	0.0075521288
224	0x3d800457	0.06250828
225	0xbc839f32	-0.016067121
226	0x3d04b0b6	0.032395087
227	0xbc381d41	-0.011237443
228	0x3d78a9f4	0.060708955
229	0xbd3b54ea	-0.045735277
230	0x3d0613ee	0.03273385
231	0x3b67f51b	0.0035393897
232	0xbcfbe8d6	-0.030750673
233	0xbc8cd216	-0.01719002
234	0x3cd066a8	0.025439575
235	0x3d4734ac	0.048634216
236	0xbcfc0572	-0.030764315
237	0x3c8ac8bd	0.016941423
238	0x3d04b7a3	0.032401692
239	0x3bc90e44	0.006135734
240	0x3d716eaa	0.058943428
241	0xbd8e0fbc	-0.06936595
242	0x3bdb6d26	0.006696361
243	0x3d3c24a4	0.04593338
244	0x3d015518	0.031575292
245	0xbabc65a5	-0.0014373554
246	0x3d0a878c	0.033820674
247	0xbba9fe28	-0.0051877685
248	0x3d1f3cd9	0.03887639
249	0xbb427e39	-0.0029677285
250	0xbc5d5e69	-0.013511279
251	0x3d0588f6	0.03260132
252	0xbd0daf77	-0.034591164
253	0x3c326b1c	0.010889795
254	0x3c61de9c	0.013785984
255	0xbcefe411	-0.029283555

attention_layer.att.bias f4 [128]
0	0xbb6d5c8c	-0.0036218492
1	0xbb9b3aed	-0.004737249
2	0xbb8637fb	-0.004096029
3	0xbbc26dce	-0.0059335
4	0x3c0b1a4c	0.008490156
5	0xbd10327d	-0.0352044
6	0xbba1ec07	-0.0049414667
7	0xbb36ee28	-0.0027912948
8	0x3a2afe0e	0.00065228425
9	0x3b510c05	0.0031898033
10	0xbcd22551	-0.02565256
11	0x3bafa49d	0.0053601996
12	0xbb2e4c7e	-0.0026595886
13	0xba3cb01d	-0.0007197874
14	0xbc639966	-0.0138915535
15	0x3c9760f6	0.018478852
16	0x3c5f363c	0.01362377
17	0x3ca77008	0.020439163
18	0x3d066a15	0.03281601
19	0x3be5e136	0.0070153726
20	0x3c5f79e4	0.013639901
21	0x3c8b327f	0.016991852
22	0xbcb71c18	-0.022352263
23	0xba3bf5d6	-0.00071701163
24	0x3b63cd72	0.0034759906
25	0x3aa93807	0.0012910374
26	0xbc13f098	-0.00902953
27	0xbbeaff36	-0.007171537
28	0x3c2b6b2b	0.010462563
29	0x3d2864bb	0.04111169
30	0x3ab5b33b	0.0013862619
31	0x3cc35337	0.02384339
32	0xbc86ffad	-0.016479338
33	0x3c0ebfcb	0.008712719
34	0xbadbf888	-0.0016782442
35	0x3c074bbf	0.008257805
36	0xbcf293ef	-0.029611556
37	0xbc2ee14d	-0.010673833
38	0xbabc7aec	-0.0014379895
39	0x3bcacf1d	0.0061892406
40	0x3b6161c3	0.0034390546
41	0xbcf5df4e	-0.030013707
42	0xba7ddea5	-0.00096843607
43	0x3baf2ad6	0.0053456826
44	0x3d19b702	0.037528045
45	0xbb975794	-0.0046185944
46	0xbbfdf02e	-0.007749579
47	0xbd28ab73	-0.04117913
48	0x3cc5b269	0.024132924
49	0x3bfca52b	0.0077101192
50	0xbcb40201	-0.021973612
51	0x3c41d5de	0.011830775
52	0x3d20e7d4	0.03928359
53	0x3cc3a635	0.023882965
54	0xbd0c53c4	-0.034259573
55	0x3d04df52	0.032439537
56	0x3b9dd768	0.004816938
57	0xbc8d2a8c	-0.017232202
58	0xbc4c5c85	-0.01247323
59	0x3c0f8de2	0.008761855
60	0xbb4d83f7	-0.0031359175
61	0xbbba123e	-0.005678444
62	0xbd1b318e	-0.037889056
63	0xbc042432	-0.00806527
64	0x3bc49505	0.00599921
65	0xbc6ed594	-0.014577288
66	0xbc1be451	-0.009514884
67	0xbd204bc1	-0.039134745
68	0xbbd77a8f	-0.0065758894
69	0xbc50dfd9	-0.012748682
70	0xbd1cd05a	-0.038284637
71	0xbd449dae	-0.048001938
72	0x3d18bab0	0.037287414
73	0x3c1adad7	0.00945159
74	0x3c7039cd	0.014662218
75	0x3cc603c4	0.024171717
76	0xbbcf3720	-0.00632371
77	0xbbbb17cc	-0.005709624
78	0xba9cded6	-0.0011968266
79	0x3b82793d	0.003981738
80	0x3d43c827	0.047798302
81	0x3c135f54	0.008994896
82	0xbad66d23	-0.001635943
83	0xbae3bc15	-0.0017374778
84	0xbc116b55	-0.008875688
85	0xbc1bbed8	-0.00950595
86	0xbc1e0dc0	-0.009646833
87	0xbd16e20a	-0.03683666
88	0xbd35ef09	-0.044417415
89	0x3cfc3847	0.030788554
90	0xbbf8d2b5	-0.0075934776
91	0x3c8b6ed2	0.017020617
92	0xbbcbca72	-0.0062192017
93	0x3b9b7367	0.0047439816
94	0xbcddb941	-0.027065875
95	0xbb94dbfe	-0.0045428267
96	0xbcbffbb3	-0.02343545
97	0x3a5d0189	0.000843071
98	0x3b81870f	0.003952868
99	0xbd437af8	-0.047724694
100	0xbbd63ca1	-0.0065379892
101	0xbc4ddb2d	-0.012564463
102	0x3c97d942	0.018536214
103	0xbb177dd0	-0.0023115762
104	0xbd0b063c	-0.033941492
105	0x3aa68e33	0.0012707174
106	0x3bdb1ff1	0.0066871573
107	0xbbda97f8	-0.006670948
108	0xbcbc15c3	-0.022959596
109	0x3c8300bf	0.015991567
110	0x3ad99755	0.0016600887
111	0xbd641eac	-0.055693313
112	0xbccf7023	-0.025322026
113	0xbc85f911	-0.016354116
114	0x3b5b6b3f	0.0033480672
115	0xbb87ac9a	-0.0041404488
116	0xbb4cda20	-0.0031257942
117	0x3bebe47c	0.0071988683
118	0xb94c8665	-0.00019505022
119	0x3bb0074e	0.0053719645
120	0x3b8dda4a	0.0043290006
121	0xbd191d88	-0.03738168
122	0xbc582f3e	-0.013194857
123	0xbc98b54c	-0.018641137
124	0x3cba363f	0.022730945
125	0xbc04c3ac	-0.008103292
126	0x3cee6bc8	0.029104128
127	0xbc50f5c8	-0.012753911

attention_layer.gate.weight f4 [128, 128]
0	0x3a5ef753	0.0008505482
1	0x3ab23480	0.0013595968
2	0x3bf7235d	0.0075420574
3	0xbb2639c2	-0.0025364016
4	0xbb7e2495	-0.0038779129
5	0x3b28af8c	0.00257394
6	0xbc338c5c	-0.010958757
7	0x360ef97d	2.130487e-06
8	0x3c48815b	0.012237872
9	0xbb9c1049	-0.0047626835
10	0x3b6bd877	0.0035987177
11	0xbb968a6e	-0.004594139
12	0xbb73a6a0	-0.0037178174
13	0xbb0618a6	-0.002046147
14	0x3af181c2	0.0018425512
15	0x3abf7664	0.0014607427
16	0xbbd55dec	-0.0065114405
17	0x3957f400	0.00020594895
18	0x3b2380c6	0.002494858
19	0xbaf1b66e	-0.0018441209
20	0x3c000e7a	0.0078159515
21	0xbb9d9f8d	-0.0048102797
22	0xb997ed82	-0.00028977921
23	0xbb7eb5c0	-0.0038865656
24	0x3ad638f0	0.0016343873
25	0xbb57b777	-0.003291575
26	0x3b12f8aa	0.0022426047
27	0x3b20376e	0.0024447101
28	0x3b54154c	0.0032361327
29	0x3b3e57ec	0.0029044105
30	0xbb63265e	-0.003466032
31	0xbb8ddf13	-0.004329571
32	0x3ada69b6	0.0016663584
33	0xbaa70838	-0.0012743538
34	0xbb97a560	-0.0046278685
35	0x399433c0	0.00028267317
36	0xbbaec1fe	-0.0053331843
37	0xbb3ae1f5	-0.0028516029
38	0x3bf3fd45	0.0074459636
39	0x39cffe28	0.00039671478
40	0x3b1d50c2	0.0024004434
41	0x36013b87	1.9257147e-06
42	0x391f863d	0.0001521343
43	0xbbaba15b	-0.005237741
44	0x3a1a3072	0.00058818527
45	0xbbd90c67	-0.006623793
46	0xbaed28ac	-0.0018093786
47	0x3b88fd25	0.004180568
48	0xbb8443da	-0.004036409
49	0xbadec3f3	-0.0016995653
50	0x39e046c0	0.00042777322
51	0xbc21fdf2	-0.009887205
52	0xbc4aad91	-0.012370483
53	0x3b1e7a9b	0.0024181965
54	0x3b8b503b	0.0042515076
55	0xbad672fa	-0.001636117
56	0xbba3d779	-0.0050000516
57	0xbbb3a58a	-0.0054823803
58	0xb799ba99	-1.8325913e-05
59	0x3a9801a1	0.0011597165
60	0xbbe3ae61	-0.006948278
61	0xbc0830f6	-0.008312454
62	0xba345e17	-0.00068804756
63	0xb884333a	-6.303792e-05
64	0x36ed69b6	7.075457e-06
65	0xbb1751a1	-0.0023089426
66	0xb7f24fd3	-2.888582e-05
67	0xba8c1f87	-0.0010690548
68	0x3ad7e00d	0.001646997
69	0xb4c9fbdd	-3.7622422e-07
70	0x3b910bd2	0.004426458
71	0xbaafc76f	-0.0013410876
72	0x3a164f5c	0.00057338714
73	0xbb8a5363	-0.0042213663
74	0x3c033f67	0.008010722
75	0xba044d41	-0.0005046912
76	0xbb5d2d4f	-0.003374893
77	0xba253626	-0.0006302319
78	0xbbbe2223	-0.0058024093
79	0x3a66a16a	0.0008797856
80	0x3904bc6e	0.00012658697
81	0xbb22641e	-0.0024778913
82	0x3b2ee1b8	0.0026684832
83	0xbb5b380a	-0.003345015
84	0xbad6ded2	-0.001639331
85	0xba20fa88	-0.00061408477
86	0x39badf29	0.00035642952
87	0x3b84fbff	0.0040583606
88	0xbac44176	-0.0014973122
89	0x3c232898	0.009958409
90	0xbaeb46e8	-0.0017950209
91	0x3b5b8349	0.0033495
92	0xb8a646d1	-7.9286874e-05
93	0x3a09bd8e	0.0005254381
94	0xbba45676	-0.0050151898
95	0x3acd5985	0.0015666938
96	0xbbdf86b9	-0.00682148
97	0x3bb3e666	0.005490112
98	0xbbeb6d64	-0.0071846712
99	0x3bbc1fdc	0.0057411026
100	0xbb8fc0cf	-0.0043869982
101	0x3b1b3cc1	0.0023687335
102	0xbb5262ef	-0.0032102426
103	0xbb48c6c3	-0.003063605
104	0xb8efa582	-0.00011427236
105	0x3b24aeb4	0.0025128545
106	0xbb697e6e	-0.0035628336
107	0xbc0b3ba3	-0.008498105
108	0xbb634422	-0.0034678061
109	0x3b34b0d6	0.0027571223
110	0x39e7a8c1	0.00044185485
111	0x3bdcde80	0.0067403913
112	0xbb695ae9	-0.0035607165
113	0x3ada38f6	0.0016649056
114	0xb9094183	-0.00013089743
115	0x3b1cc355	0.0023920138
116	0xbb050300	-0.0020295978
117	0x3b6d0daa	0.0036171474
118	0xbafc71f1	-0.0019260031
119	0xbb1b1c72	-0.0023668078
120	0x3b7c8724	0.0038532699
121	0xbbf896aa	-0.00758632
122	0xb8ecfc35	-0.00011300334
123	0x39e636d8	0.0004390988
124	0x3b0a0330	0.0021059029
125	0x35d3bd05	1.5775737e-06
126	0xbb3e3c45	-0.0029027623
127	0x3b2538fa	0.0025210963
128	0x3ce681c6	0.028138053
129	0x3d22ee10	0.039777815
130	0xbc72ab31	-0.014811323
131	0xbcb44498	-0.022005364
132	0x3760a114	1.3388944e-05
133	0xbbe70b3f	-0.007050901
134	0xbca0af75	-0.019614914
135	0x3d3b047b	0.04565857
136	0x3cd9dc91	0.026594432
137	0xbcb7b008	-0.022422805
138	0x3d05e1b5	0.032685954
139	0xbc89b159	-0.016808199
140	0x3d04b392	0.032397814
141	0x3c8c8831	0.017154785
142	0xbd02dd53	-0.031949352
143	0xbc05a1cc	-0.008156251
144	0xbcd381ea	-0.025818784
145	0xbb95da11	-0.0045731147
146	0x3c98bc96	0.018644612
147	0xbca0bbd1	-0.019620808
148	0x3c9e6aec	0.019338094
149	0x3c0d44d5	0.008622368
150	0xbd3966b5	-0.045263965
151	0xbca794d0	-0.020456702
152	0x3cca2cf6	0.024679642
153	0xbc7cdcb1	-0.015433476
154	0x3cad60e3	0.021164363
155	0x3d49855e	0.049199454
156	0x3c79c616	0.015244981
157	0x3cbeb750	0.02328077
158	0x3d21c51b	0.039494615
159	0xbbfdb2d5	-0.0077422657
160	0x3d2b2d32	0.04179115
161	0xbce4ce8e	-0.027930524
162	0x3cfb8fc8	0.030708209
163	0x3d42ba6f	0.04754108
164	0xbd4094a3	-0.04701675
165	0xbc592b16	-0.013254901
166	0x3d08dcc9	0.033413682
167	0xbd25bb60	-0.040461898
168	0x3cca6e0c	0.024710678
169	0x3d2c571c	0.04207526
170	0xbc564eb1	-0.013080285
171	0xbd0a8e7d	-0.033827294
172	0x3cd233e5	0.02565951
173	0xbd01628e	-0.03158813
174	0xbca55ab6	-0.020184856
175	0x3cf77101	0.030205252
176	0xbac6224e	-0.0015116425
177	0x3cd44a40	0.025914311
178	0xbc93ab04	-0.018025883
179	0x3bdc6f4e	0.0067271357
180	0xbc95c65d	-0.018283064
181	0x3d3d2590	0.0461784
182	0x3cc886b4	0.024478294
183	0xbd2c32a4	-0.042040482
184	0xbd0cee10	-0.03440672
185	0xbcb12724	-0.021625109
186	0xbcb44aea	-0.022008378
187	0x3d6e66f3	0.05820365
188	0x3cc11464	0.023569293
189	0xbc300414	-0.01074316
190	0x3d4a7ca6	0.04943528
191	0xbd5ae823	-0.05344404
192	0x3cc8732d	0.024468983
193	0xbb75f574	-0.0037530335
194	0x3d05f5c8	0.0327051
195	0xbc9e53c7	-0.019327058
196	0xbabb2de4	-0.0014280644
197	0x3caec256	0.021332901
198	0x3d1da119	0.038483713
199	0xbd806139	-0.06268544
200	0x3cf1e83c	0.029529683
201	0x3cd2df5b	0.02574127
202	0x3d20212c	0.039094135
203	0xbd412987	-0.047158744
204	0xbd29b3b9	-0.041431163
205	0xbcd89d84	-0.026442297
206	0xbcbf1c83	-0.023329025
207	0xbc2878fe	-0.010282753
208	0x3ce07a4a	0.027402062
209	0x3c96289a	0.018329907
210	0xbd3da56d	-0.04630034
211	0xbc87de0f	-0.016585378
212	0xbcb4280d	-0.021991754
213	0xbccaa43b	-0.024736514
214	0xbc8f3369	-0.017480569
215	0x3cda1421	0.026620926
216	0xbd3b526f	-0.04573291
217	0xbca434c9	-0.020044701
218	0xbcbbb6bc	-0.022914283
219	0x3c9fcd74	0.019507147
220	0x3bcffa10	0.0063469484
221	0x3ce7ebee	0.028310742
222	0xbc362cbf	-0.011119067
223	0xbd17a733	-0.037024688
224	0xbd0f2fdb	-0.034957748
225	0x3b3a4739	0.00284238
226	0xbc74b182	-0.014934899
227	0x3c9fad44	0.0194918
228	0xbd4627cf	-0.04837781
229	0x3d04ad94	0.0323921
230	0xbd35a4c2	-0.04434658
231	0xbc233c90	-0.00996317
232	0x3d2b3a58	0.041803688
233	0x3c42bc01	0.011885644
234	0xbcd52671	-0.026019307
235	0xbcb89506	-0.022531997
236	0x3c4b35dd	0.012402979
237	0xbcb5c53f	-0.02218878
238	0xbd14877a	-0.036262013
239	0x3c0e078c	0.0086687915
240	0xbc474735	-0.012162973
241	0x3cd81f26	0.02638204
242	0xbd15c5ab	-0.036565464
243	0x3b650a6e	0.0034948844
244	0xbabdaeeb	-0.0014471685
245	0x3ac86715	0.001528951
246	0xbcbd00c1	-0.023071649
247	0xbc965b78	-0.018354163
248	0xbca8bb96	-0.02059726
249	0xbc0c7930	-0.008573815
250	0x3c62ef2a	0.0138509665
251	0xbd4800e1	-0.048828963
252	0x3cd0ddf4	0.02549646
253	0x3cde0462	0.0271017
254	0xbcd6a044	-0.026199467
255	0x3cac0661	0.020999135

attention_layer.gate.bias f4 [128]
0	0xbb8b1fcf	-0.0042457352
1	0x3cfc4cdd	0.03079837
2	0xbbd1d43a	-0.006403473
3	0x3b4751cc	0.0030413745
4	0xbc7bd5bf	-0.015370785
5	0x3cd9a527	0.026568009
6	0xbb69ecef	-0.0035694202
7	0xbbbd34cf	-0.0057741175
8	0xbae59290	-0.0017514993
9	0xba52524e	-0.00080231286
10	0x3cbaa9c2	0.022786025
11	0xbbf42b5b	-0.0074514574
12	0xbbe3fbea	-0.0069575207
13	0xbb8d9168	-0.0043203123
14	0xbbfd8159	-0.0077363667
15	0x3d24edcf	0.040265854
16	0x3c68edc8	0.014216848
17	0x3d6dc790	0.058051646
18	0xbca49c13	-0.020093953
19	0x3cf358eb	0.029705485
20	0xbc22dc5f	-0.009940236
21	0xbcc094fa	-0.023508538
22	0x3c8e7e39	0.017394172
23	0xbbbe484b	-0.005806958
24	0xbc4037e6	-0.011732077
25	0x3caef16e	0.021355357
26	0x3ca747e4	0.020420022
27	0x3c2b4f86	0.010455972
28	0x3cac5308	0.021035686
29	0x3cccbaff	0.02499151
30	0xbb9a0193	-0.0046998947
31	0x3d4459d8	0.047937244
32	0xbcf00424	-0.02929885
33	0x3c3e0634	0.011598159
34	0x3d2e621b	0.04257403
35	0xbc5e5527	-0.013570107
36	0x3c948dc8	0.018134013
37	0xbb661cd3	-0.0035112395
38	0x3a966c80	0.0011476427
39	0x3c797fa2	0.015228184
40	0xbb5afab6	-0.0033413596
41	0x3d2cabfc	0.042156205
42	0xbb5c6d52	-0.0033634496
43	0x3d69b7c2	0.05706001
44	0x3d30abd9	0.043132637
45	0x3b6e6f16	0.003638213
46	0x3b9d59d3	0.0048019676
47	0x3c442c10	0.011973396
48	0x3d6e5221	0.058183793
49	0xbc267216	-0.010159036
50	0xbc0c466e	-0.008561714
51	0xbb2b15ea	-0.002610559
52	0xbc5b567f	-0.0133873215
53	0x3d9694e3	0.07352617
54	0x3ac24a5e	0.0014823189
55	0xbc37f8af	-0.011228724
56	0xbbdd89d3	-0.0067608147
57	0xbc77b782	-0.015119435
58	0x3c92931c	0.017892413
59	0x3d634366	0.055484198
60	0xbb9341fc	-0.00449395
61	0x3c1cf335	0.009579469
62	0x3bbb7bbe	0.0057215383
63	0xbc29ae81	-0.010356546
64	0x3cbb3926	0.022854399
65	0x3ac65ac2	0.0015133249
66	0xbc1e0428	-0.009644546
67	0x3c134f8f	0.008991136
68	0xbbb1f441	-0.0054307287
69	0x3cb32007	0.021865858
70	0xbc82b71c	-0.015956454
71	0x3d864c85	0.06557564
72	0x3aa947e3	0.0012915101
73	0x3d35eca3	0.044415127
74	0xbbef6d89	-0.007306759
75	0x3d6cc505	0.05780508
76	0xbb7e7bb8	-0.0038831066
77	0x3bf15f5a	0.007366103
78	0xbb4ac09f	-0.0030937565
79	0xbc3a5d8d	-0.011374843
80	0x3d1e2d99	0.038617704
81	0xbc300f63	-0.010745856
82	0xbc834f7f	-0.016029118
83	0x3c12c224	0.00895742
84	0xbc8c9c3f	-0.017164348
85	0x3b11e350	0.0022260733
86	0x3c725c66	0.014792537
87	0xbafb9746	-0.0019194863
88	0xbd42e325	-0.047579903
89	0x3c09dcef	0.008414491
90	0x3c9cf725	0.019160816
91	0xbb77fab1	-0.0037838633
92	0x3c0a9113	0.00845744
93	0x3ca2e48d	0.019884372
94	0xbce8f968	-0.028439239
95	0x3bd6dbe6	0.0065569757
96	0x3b9fc266	0.004875469
97	0xba87291c	-0.0010311934
98	0x3d27a1b5	0.0409257
99	0x3c86401f	0.016387997
100	0xbb7912c3	-0.0038005568
101	0x3ca2e505	0.019884596
102	0x3c297265	0.010342215
103	0x3b8e8594	0.00434942
104	0x3d19b5b9	0.03752682
105	0x3d234b39	0.03986666
106	0xbba85bcd	-0.0051378966
107	0x3c73a8ba	0.0148717705
108	0xbc56489e	-0.013078837
109	0xbc1e9258	-0.009678446
110	0xbc3d28c6	-0.011545366
111	0x3d236ee0	0.03990066
112	0x3c9343c3	0.017976647
113	0xbc462015	-0.01209261
114	0xbce6d2b1	-0.028176637
115	0x3c26852c	0.010163587
116	0x3bbbe29a	0.0057338
117	0x3cd30af8	0.025762066
118	0x3cf02922	0.029316489
119	0xbb96ec65	-0.004605817
120	0xbc6faad2	-0.014628129
121	0x3cdba402	0.026811603
122	0xbb835a1f	-0.004008546
123	0x3cfbb277	0.030724747
124	0x3cce31f3	0.025170302
125	0xbb737be6	-0.0037152707
126	0xbd0860da	-0.03329549
127	0xbb55188b	-0.003251585

attention_layer.w.weight f4 [1, 128]
0	0xb9a7d869	-0.0003201396
1	0xbd173b0b	-0.036921542
2	0xba70c274	-0.0009184249
3	0xbd88929e	-0.0666859
4	0xbb0c8e78	-0.0021447223
5	0x3d9396a4	0.07206467
6	0xba8eb82a	-0.0010888625
7	0x3cdaae83	0.026694542
8	0x3dc45f10	0.09588444
9	0xba6c971a	-0.00090252014
10	0xbd96cf78	-0.0736379
11	0x3a8f3d2f	0.0010928268
12	0xbd9d90c0	-0.076936245
13	0x3d82220f	0.063541524
14	0x3d328746	0.043586038
15	0x3d767b11	0.06017596
16	0x3d5da81d	0.054115403
17	0x3d798dd0	0.06092626
18	0xbd682b1a	-0.05668173
19	0x3d4e787c	0.05040787
20	0xbb69882b	-0.003563414
21	0xbdb519f4	-0.08842841
22	0xbd3e0d59	-0.046399448
23	0xb9749132	-0.00023323743
24	0x3b014932	0.0019727466
25	0x3d064a4e	0.032785706
26	0x3da78da0	0.0818131
27	0xbd3ffe08	-0.046873122
28	0x3da13ea1	0.07873274
29	0x3d83bdd8	0.06432694
30	0x3af6f40d	0.0018841043
31	0x3d483a21	0.04888356
32	0xbd576acb	-0.05259208
33	0xbcf3cb89	-0.029760139
34	0x3d706e68	0.05869904
35	0x3d2996cd	0.04140358
36	0xbd441c42	-0.04787851
37	0xb8291417	-4.031145e-05
38	0xbce783d1	-0.028261097
39	0xbd95ebed	-0.0732039
40	0xb9a2b38f	-0.0003103283
41	0x3db5eeb2	0.08883418
42	0xbd4f8823	-0.05066694
43	0x3d8d168a	0.068890646
44	0xbdb6eeb4	-0.08932248
45	0x3ccb746d	0.02483579
46	0xbc911127	-0.017708374
47	0x3d2fd6af	0.042929348
48	0x3de98311	0.11401952
49	0x3a8acc86	0.0010589517
50	0xb963e87d	-0.00021735016
51	0xb956778e	-0.00020453168
52	0xbbd66ac9	-0.0065434915
53	0xbdd26942	-0.102739826
54	0xbc937436	-0.01799975
55	0xbcb94638	-0.02261649
56	0x3c6671bf	0.014065205
57	0x3d0af3dd	0.033923972
58	0x3d3b87b3	0.04578371
59	0x3d901dde	0.07036947
60	0xba03f5a5	-0.00050338573
61	0x3c985c7d	0.01859879
62	0x3d17f14b	0.03709535
63	0x3d576f56	0.052596413
64	0x3d3f0483	0.046635162
65	0xbd38715c	-0.045029983
66	0xbb0276d0	-0.0019907244
67	0x3d4f6941	0.050637487
68	0x3c0d2951	0.008615808
69	0xbdb8ed10	-0.09029591
70	0x3c1b230d	0.009468806
71	0xbd917473	-0.07102289
72	0xbd8cd483	-0.06876471
73	0x3dd83f09	0.10558898
74	0x3a956051	0.0011396502
75	0xbd9afec5	-0.07568125
76	0xbaeb3825	-0.001794581
77	0x3d0b5230	0.034013927
78	0xbac537a1	-0.0015046486
79	0xba8fe998	-0.001097965
80	0x3d8c5a4a	0.06853159
81	0xbd4625c6	-0.048375867
82	0x3b0f3b54	0.002185543
83	0xbd6297f6	-0.055320702
84	0x3d023c21	0.031795625
85	0xbcb99abd	-0.022656793
86	0xbd4e4acf	-0.05036431
87	0x3d726b7f	0.059184548
88	0x3d65ecc1	0.05613399
89	0x3d94eb9f	0.07271504
90	0x3d881530	0.06644666
91	0x3d228c43	0.039684545
92	0x3d0efe21	0.034910325
93	0xbdb1c3b0	-0.086799026
94	0xbd08053a	-0.03320811
95	0x3c4a1a87	0.012335426
96	0x3d97b25c	0.07407066
97	0xb8ea6de1	-0.00011178456
98	0x3d410491	0.047123495
99	0xbd85f52f	-0.06540906
100	0xbcdb2862	-0.026752654
101	0x3d83c92c	0.06434855
102	0xbcd5d83e	-0.026104089
103	0x3d68756f	0.05675262
104	0x3d7b59df	0.061365005
105	0xbda31881	-0.07963658
106	0x3b9be089	0.0047569913
107	0xbd96fc0d	-0.073722936
108	0xbd481a80	-0.048853397
109	0x3a32dbce	0.00068229146
110	0xbaa3d266	-0.0012498617
111	0xbdadf9d8	-0.084949195
112	0x3d9b0e8b	0.07571133
113	0x3d3f13ed	0.046649862
114	0xb9665814	-0.00021967321
115	0xbd30ff1b	-0.043212038
116	0xbd6d0a09	-0.0578709
117	0xbd908b94	-0.070578724
118	0x3cc059a5	0.023480246
119	0x394d0113	0.00019550724
120	0xbb667e73	-0.0035170584
121	0xbd95b917	-0.07310694
122	0xbb0285c7	-0.0019916163
123	0x3d95e3d8	0.07318848
124	0x3dd97640	0.106182575
125	0xbd3b70e9	-0.045761976
126	0xbb73902f	-0.0037164798
127	0x39ad1e0f	0.00033019527
